models/gpu_train_model3.pth (torch, 587335 bytes, 10 tensors)

weight f4 [32, 3, 5, 5]
0	0x3cce0835	0.025150398
1	0x3e08d2e5	0.133617
2	0x3cf29cf2	0.029615853
3	0xbcbe9b65	-0.023267457
4	0xbdb77506	-0.08957867
5	0xbd224517	-0.03961667
6	0x3d647563	0.05577601
7	0x3df64380	0.12024593
8	0xbd5bfd26	-0.053708218
9	0xbcc1036d	-0.023561204
10	0x3c94e9cf	0.018177895
11	0x3de08ee2	0.10964753
12	0x3bcac87a	0.0061884494
13	0xbd17fe31	-0.03710765
14	0xbc8742c7	-0.016511334
15	0x3da365bd	0.079783894
16	0xbd019d1f	-0.031643983
17	0xbd69ee80	-0.057112217
18	0xbd1cdcea	-0.038296618
19	0x3dfa6699	0.122266
20	0xbd91051f	-0.07081055
21	0xbd853e60	-0.06506038
22	0x3dc7759e	0.097392306
23	0x3d33390f	0.043755587
24	0x3dea1223	0.114292406
25	0x3d8805c0	0.06641722
26	0x3da9c86a	0.08290179
27	0xbd98c7ca	-0.07459982
28	0x3d30f048	0.0431979
29	0xbd857a36	-0.065174505
30	0x3db6039b	0.088874064
31	0xbd642450	-0.055698693
32	0x3c2b79f4	0.010466088
33	0xbdb26b49	-0.08711869
34	0x3cade57e	0.021227594
35	0x3cab9ccd	0.020948792
36	0x3cfebbcf	0.031095413
37	0x3d1d3a10	0.03838545
38	0xbd0d2492	-0.034458704
39	0xbd954f25	-0.07290486
40	0xbd88693a	-0.066606954
41	0xbdbaae8a	-0.09115322
42	0x3d02dd0a	0.03194908
43	0x3ca363db	0.019945076
44	0x3def5a1c	0.11687109
45	0xbd1731e1	-0.036912803
46	0x3ca4037f	0.020021198
47	0x3d5ea9e5	0.054361243
48	0x3b64bd0b	0.0034902717
49	0x3d867277	0.06564801
50	0x3d0d31c5	0.034471292
51	0x3d91cb3c	0.07118842
52	0xbe0bbebd	-0.1364698
53	0xbe1f8bd9	-0.15580691
54	0xbd955336	-0.07291262
55	0xbdcf29c7	-0.1011539
56	0xbcae45f2	-0.021273587
57	0xbd394641	-0.045233015
58	0xbe1d58f6	-0.15365967
59	0xbe050cf3	-0.12993221
60	0xbda3c0b4	-0.079957396
61	0xbb4c6483	-0.003118784
62	0xbd1258c5	-0.03572919
63	0xbc2bfdd2	-0.010497527
64	0x3c9e940c	0.019357704
65	0xbd9fd72e	-0.07804714
66	0x3d13c2ee	0.03607457
67	0xbdf099b0	-0.117480636
68	0x3d73df5f	0.059539195
69	0x3bb012a2	0.005373315
70	0xbdfb4ccd	-0.12270508
71	0x3d9d5e1e	0.07683967
72	0xbcaf8c54	-0.021429218
73	0xbdaf6c58	-0.08565587
74	0xbcebb142	-0.028771047
75	0x3d9b0310	0.075689435
76	0x3be96805	0.007122996
77	0xba0fee4d	-0.00054905267
78	0x3cac69cb	0.02104654
79	0xbd909f76	-0.07061665
80	0xbdb42370	-0.08795822
81	0xbdaf220c	-0.08551416
82	0xbdf3726a	-0.11887057
83	0x3c24358c	0.010022532
84	0x3df27adc	0.1183984
85	0xbded1d71	-0.11577881
86	0xbd889dbf	-0.06670713
87	0xbd978a89	-0.0739947
88	0x3dfa72c6	0.122289225
89	0x3d98e1eb	0.074649654
90	0x3d885bcf	0.06658136
91	0xbdb8b30a	-0.09018524
92	0x3c172ff6	0.009227743
93	0x3cdebdf8	0.027190194
94	0x3df5fcd9	0.120111175
95	0x3dd6f0fa	0.104951814
96	0xbdfdacdc	-0.12386486
97	0x3d780a55	0.06055673
98	0x3dd95256	0.106114075
99	0x3bff6a35	0.0077946433
100	0x3dc5e4d7	0.09662788
101	0xbdb012af	-0.085973136
102	0x3c9b7ee4	0.018981405
103	0x3c7ddeda	0.0154950265
104	0x3df7a8d1	0.12092746
105	0xbd82c023	-0.063843034
106	0x3d3a3096	0.04545649
107	0xbdce976b	-0.100874744
108	0x3d916b94	0.07100597
109	0x3dbed91c	0.09318754
110	0xbd688312	-0.056765623
111	0x3dcda993	0.10042109
112	0xbd232ddf	-0.039838668
113	0x3d6068c2	0.054787405
114	0x3d665624	0.056234494
115	0x3d9d46e4	0.07679537
116	0xbdbf1dd2	-0.0933186
117	0x3df5e467	0.12006455
118	0x3dbc2354	0.09186426
119	0x3d9c1082	0.07620336
120	0x3d335a70	0.04378742
121	0x3d452de8	0.048139483
122	0x3dcd90e0	0.10037398
123	0x3be01c66	0.006839323
124	0x3d9bfa64	0.076161176
125	0x3d96234d	0.07330952
126	0xbcebdfbc	-0.028793208
127	0xbe0c2dc5	-0.13689335
128	0xbd908d2e	-0.07058178
129	0xbda20c4e	-0.07912503
130	0xbcb5fbee	-0.022214856
131	0xba251c78	-0.00062984927
132	0x3addaa65	0.0016911743
133	0x3c8c86dd	0.017154152
134	0xbc3df02d	-0.011592907
135	0xbdba6106	-0.09100537
136	0x3d7af0b0	0.061264694
137	0x3da2e151	0.07953132
138	0x3caa7ad6	0.020810526
139	0xbd957483	-0.072976135
140	0xbe04c454	-0.12965518
141	0xbdb343c3	-0.08753159
142	0x3b93a86a	0.0045061605
143	0xbdc2bf0d	-0.09509096
144	0xbc35c501	-0.011094333
145	0xbdcb2b7d	-0.09920404
146	0x3c532699	0.01288762
147	0xbd220fc0	-0.0395658
148	0x3db868f0	0.0900439
149	0x3d309088	0.043106586
150	0xbd8068b7	-0.06269973
151	0x3de19fc4	0.11016801
152	0x3d8c63ac	0.068549484
153	0x3d139003	0.036026012
154	0x3d283b06	0.041071914
155	0xbdf0d352	-0.11759056
156	0x3e0bdb31	0.13657834
157	0x3e07eca0	0.13273859
158	0xbdabe039	-0.083923765
159	0xbd3e05df	-0.046392318
160	0xbd8a270f	-0.06745731
161	0x3d93cb4b	0.072165094
162	0x3e0f715c	0.14008087
163	0x3cadf191	0.021233352
164	0x3dcb9c35	0.099419035
165	0x3dd21217	0.102573566
166	0x3e0bcd4d	0.13652535
167	0xbcbac42f	-0.022798626
168	0x3d159759	0.03652129
169	0x3e183d26	0.14867076
170	0x3df838a2	0.12120177
171	0x3d90c601	0.07069016
172	0x3dcc1495	0.09964863
173	0xbc2bc190	-0.010483161
174	0x3e0a7450	0.13520932
175	0xbb8ece7f	-0.0043581123
176	0x3d053de7	0.032529738
177	0xbd4a6617	-0.049413767
178	0xbd6e4641	-0.058172468
179	0x3dfb713a	0.12277456
180	0x3c0a40e0	0.008438319
181	0xbc822ff0	-0.015891999
182	0xbc94e6c9	-0.018176453
183	0x3dc03bc2	0.09386398
184	0x3d307981	0.043084625
185	0xbd8ab2e7	-0.06772404
186	0x3b3c6a47	0.002874987
187	0x3cb45750	0.02201429
188	0xbdade89d	-0.08491633
189	0x3d316565	0.043309588
190	0xbcada02b	-0.021194538
191	0xbd855454	-0.06510225
192	0xbdabc0cb	-0.08386382
193	0x3c7eb505	0.015546088
194	0x3df53fb3	0.1197504
195	0x3d6a379f	0.05718195
196	0x3cd9b433	0.026575183
197	0x3d8392c4	0.06424478
198	0x3db26480	0.08710575
199	0xbc4e10ce	-0.012577249
200	0xbd02672a	-0.031836666
201	0xbda6db90	-0.08147347
202	0xbd4b4117	-0.04962262
203	0x3d3dbdbd	0.046323527
204	0xbe0e41f4	-0.13892347
205	0xbe13b56e	-0.14424679
206	0x3c55ef88	0.013057597
207	0xbde88fed	-0.11355577
208	0xbe08addd	-0.13347574
209	0xbc1ca5aa	-0.009560982
210	0xbe2b7dde	-0.16747233
211	0xbac5f738	-0.0015103584
212	0xbd201693	-0.03908403
213	0xbd668bed	-0.056285787
214	0x3d2bae06	0.04191401
215	0xbcce2a5a	-0.02516668
216	0xbd4eacd8	-0.050457805
217	0xbd6cd2f8	-0.057818383
218	0x3c86e4bc	0.01646649
219	0xbcc06535	-0.02348576
220	0xbe12c4f6	-0.14332947
221	0x3d4c686a	0.049904265
222	0xbe058c73	-0.13041858
223	0x3d65fce9	0.056149397
224	0xb8234144	-3.892301e-05
225	0x3dc4235b	0.09577056
226	0xbd231510	-0.03981501
227	0xbd5ef036	-0.0544283
228	0xbdc8bb37	-0.098013334
229	0x3db83288	0.08994013
230	0xbd7eff9b	-0.062255483
231	0x3da64dab	0.08120283
232	0xbd363bbc	-0.04449056
233	0x3d2d71a8	0.04234472
234	0x3db16b69	0.08663065
235	0x3db0524a	0.086094454
236	0xbd22ecf3	-0.039776754
237	0x3dd197fb	0.10234066
238	0xbd1971f1	-0.03746218
239	0x3e00859f	0.12550972
240	0xbdc6d9e0	-0.09709525
241	0x3dedc8ce	0.11610566
242	0x3d062e23	0.032758843
243	0x3e0e2d7b	0.13884537
244	0x3d5db939	0.05413172
245	0x3d322a5b	0.043497425
246	0xbd77d1d7	-0.060502853
247	0x3d8ecf9b	0.06973191
248	0x3d9ffdce	0.07812081
249	0xbd42f651	-0.047598187
250	0xbda78a8f	-0.08180725
251	0xbe017a23	-0.12644248
252	0x3d71254f	0.05887347
253	0xbd683d58	-0.056699127
254	0x3d584394	0.052798823
255	0x3db94626	0.09046583

bias f4 [32]
0	0x3c73f6db	0.014890398
1	0x3daccb95	0.08437268
2	0x3da49b78	0.08037466
3	0xbde96ee1	-0.113981016
4	0xbd8e9b01	-0.069631584
5	0x3dda9f91	0.10674966
6	0x3cc3b228	0.023888662
7	0x3d61b182	0.055100925
8	0xbda25bc7	-0.079276614
9	0x3dcc0eeb	0.09963783
10	0x3e1ca23e	0.15296265
11	0xbe024ad0	-0.12723851
12	0xbe26167c	-0.16219515
13	0x3da77a98	0.0817768
14	0xbd9f6502	-0.077829376
15	0xbe14a461	-0.1451583
16	0xbdd8423f	-0.105595104
17	0xbcfa94dd	-0.030588562
18	0x3dd75015	0.10513321
19	0xbd1b2fd9	-0.037887428
20	0xbdac0f1e	-0.08401321
21	0xbe3956c8	-0.1809951
22	0xbd63cbad	-0.055614162
23	0xbd064484	-0.032780185
24	0x3b623445	0.0034516018
25	0xbd9cceb4	-0.07656613
26	0xbc24ac11	-0.010050789
27	0xbdb318d2	-0.087449685
28	0xbd69adcb	-0.057050508
29	0xbd5ade77	-0.053434815
30	0xbbdfda73	-0.006831461
31	0x3df2315f	0.11825823

weight f4 [32, 32, 5, 5]
0	0xbcb727bd	-0.022357816
1	0x3c9d3bc9	0.019193547
2	0x3c269c3a	0.010169083
3	0xbc839b72	-0.016065333
4	0x3c87654f	0.0165278
5	0xbb916adb	-0.004437787
6	0xbc4cd756	-0.012502512
7	0x3ce59d45	0.028029094
8	0x3b682b10	0.0035426058
9	0x3d1ee8c3	0.038796198
10	0xba9d5e69	-0.0012006286
11	0x3ca3c333	0.01999054
12	0x3d153b0d	0.03643327
13	0x3b7b11f0	0.0038310252
14	0xbc2f9eec	-0.010719042
15	0xbba18415	-0.0049290755
16	0x3d060a57	0.032724705
17	0x3d0dc836	0.034614764
18	0x3d012b77	0.031535592
19	0x3c11f67c	0.008908864
20	0xbbb92e2c	-0.005651256
21	0x3c142768	0.009042598
22	0x3c5adc06	0.013358122
23	0x3c228236	0.00991874
24	0x3ca7ac24	0.020467825
25	0xbc568b53	-0.013094741
26	0xbcc2ab4f	-0.023763327
27	0xbbb0538a	-0.0053810524
28	0x3c9925b9	0.018694745
29	0x3cd8bc7b	0.026457062
30	0x3b582b65	0.003298485
31	0x3c32f953	0.010923701
32	0xbcb28f45	-0.021796832
33	0xbcc65124	-0.024208613
34	0x3cfe6031	0.031051727
35	0xbb521955	-0.0032058556
36	0xbbaa30fc	-0.0051938277
37	0x3904b4fa	0.0001265592
38	0x3cb97655	0.022639433
39	0x3ce3f6ea	0.027827699
40	0xbd128604	-0.03577234
41	0xbcd92a9e	-0.02650958
42	0xbadb0f0d	-0.001671286
43	0xbcd00f94	-0.025398053
44	0x3ac1b835	0.001477963
45	0xbc290a33	-0.010317373
46	0xbcf411fe	-0.029793736
47	0x3c7d7e82	0.015472056
48	0x3c766b33	0.015040207
49	0x3d1acb02	0.03779126
50	0x3c9fb421	0.019495072
51	0xbbb5f51d	-0.0055529014
52	0xbc98a4b5	-0.018633226
53	0xbb4a54cd	-0.00308733
54	0xbcf06264	-0.029343791
55	0x3d047cb6	0.032345496
56	0xbcfbbfbb	-0.030731073
57	0x3cbd0297	0.023072524
58	0x3d031bc4	0.0320089
59	0xbc7ca90b	-0.015421162
60	0xbd061ed0	-0.03274423
61	0x3c476cac	0.0121719055
62	0xbca38b6e	-0.019963946
63	0xbc6abd68	-0.0143273845
64	0xbcbde7e4	-0.023181863
65	0xbadcbf59	-0.0016841694
66	0xbcbc1db7	-0.022963388
67	0xbcd58ccd	-0.026068116
68	0x3cc473be	0.023980971
69	0xbcef810f	-0.029236345
70	0xbc8f0318	-0.01745753
71	0x3c3c62a6	0.011498129
72	0xbb3c68a2	-0.002874889
73	0xbd06f5fd	-0.032949436
74	0x3c87de29	0.016585426
75	0xbcdf0243	-0.027222758
76	0x3d065a83	0.032801162
77	0x3d1093ed	0.035297323
78	0x3cdebd7b	0.02718996
79	0x3bd3d116	0.006464134
80	0x3c45b219	0.012066388
81	0x3cd68a23	0.026188916
82	0x3bab9cc2	0.005237193
83	0xbba1e74c	-0.004940903
84	0xbc928342	-0.017884854
85	0xbceb32b1	-0.028710695
86	0x3c2ecfa9	0.010669627
87	0x3c0ff530	0.008786485
88	0x3d013f81	0.031554703
89	0x3cd83533	0.026392555
90	0xbc70826e	-0.014679534
91	0xbc4b6c6d	-0.012415987
92	0xbd161f16	-0.03665074
93	0xbbcdc452	-0.0062795067
94	0xbc525200	-0.012836933
95	0xbc4acb20	-0.01237753
96	0x3ba9e93d	0.005185275
97	0x3c8c989a	0.01716261
98	0x3cdd1db4	0.026991703
99	0x3cb53db0	0.022124141
100	0x3d0c0cce	0.0341919
101	0x3d15fed9	0.036619995
102	0xbc6f791b	-0.014616276
103	0x3cf28cc7	0.029608143
104	0xbb9c3bca	-0.0047678696
105	0x3c91f696	0.017817777
106	0x3cb126e1	0.021624984
107	0x3d045764	0.032309905
108	0x3b02799d	0.0019908913
109	0x3c8ef03c	0.017448537
110	0xbbc9db7f	-0.006160199
111	0x3cf10f6e	0.029426303
112	0x3b33391f	0.002734728
113	0xbb0d4f68	-0.0021562222
114	0x3ce5d1f8	0.028054222
115	0xbb3f6314	-0.0029203342
116	0xbb49405b	-0.0030708525
117	0xbc21407c	-0.009842034
118	0xbd047db0	-0.032346427
119	0xbb6a2106	-0.003572525
120	0xbd00da74	-0.031458333
121	0xbb311672	-0.0027021435
122	0x3add1caa	0.0016869504
123	0xbd07ad26	-0.03312411
124	0x399b2dfc	0.00029598165
125	0x3d1c6bcd	0.038188744
126	0xbcee3d26	-0.029081892
127	0x3c56ae76	0.013103118
128	0xbbf0f1e2	-0.0073530534
129	0x3c2276aa	0.009915987
130	0x3cd48e23	0.025946682
131	0xbba72cac	-0.005101761
132	0x3b859de2	0.004077659
133	0x3c10cb9f	0.00883761
134	0x3b10593c	0.0022025844
135	0x3c834604	0.016024597
136	0xbc578e96	-0.013156554
137	0x3c8459b5	0.016156057
138	0xbc77ba24	-0.015120063
139	0xbca0151e	-0.01954132
140	0x3d354545	0.044255514
141	0xbb01c945	-0.0019803804
142	0x3c223cea	0.009902218
143	0xbcaadd1e	-0.02085739
144	0x3ca8696e	0.020558085
145	0x3d181b2d	0.03713529
146	0x3cc5a088	0.024124399
147	0x3ccd2e63	0.025046533
148	0xba18fcc1	-0.0005836003
149	0x3bce4de7	0.006295908
150	0xbc4e1aa4	-0.012579594
151	0x3ca792d3	0.020455753
152	0x3c5bdbad	0.013419074
153	0x3d322885	0.043495674
154	0xbc20502a	-0.009784738
155	0xbc7b524d	-0.015339446
156	0x3d3289fc	0.043588623
157	0x3ce74d2d	0.028235042
158	0x3d11a55a	0.035558082
159	0x3cbcb2ee	0.02303454
160	0xbcbf8fc2	-0.023383979
161	0x3d4f4c20	0.050609708
162	0x3b7d808e	0.003868136
163	0xbbb826b8	-0.00561985
164	0x3d097f3d	0.03356861
165	0xbc2592be	-0.010105787
166	0x3ca3988e	0.019970205
167	0x3c3521fe	0.011055468
168	0x3d390e5a	0.045179702
169	0x3cd25206	0.025673877
170	0x3cb69565	0.022288034
171	0xbcc035a9	-0.023463087
172	0x3c6eb148	0.014568634
173	0xbcca57c5	-0.024700055
174	0x3bccdfcf	0.006252266
175	0xbbd156a0	-0.0063885003
176	0x3ae47a4e	0.0017431469
177	0xbc22970f	-0.0099237105
178	0x3ca38639	0.019961463
179	0x3ca8e4a9	0.020616846
180	0x3d08837a	0.03332851
181	0x3ada2565	0.0016643225
182	0x3d2c58ec	0.04207699
183	0x3d3fb3e9	0.046802435
184	0x3d05aea1	0.032637242
185	0xbbc5ecdf	-0.0060402
186	0x3c71fa3c	0.014769133
187	0x3cfe3067	0.03102894
188	0xbba25d3e	-0.004954963
189	0x3c7b7093	0.015346664
190	0x3cc6dd1e	0.024275359
191	0xbca15c36	-0.01969729
192	0x39d5a201	0.00040747228
193	0xbc9344ad	-0.017977083
194	0xbccae4ce	-0.024767306
195	0xbcb9dba5	-0.022687742
196	0xbaddbfe2	-0.0016918147
197	0xbd19a34b	-0.037509244
198	0xbcb4779f	-0.022029696
199	0xbd320763	-0.043464076
200	0x3bb4bcf3	0.0055156886
201	0xbaf0931c	-0.0018354389
202	0x3c9c798a	0.019100923
203	0x3bdd8ab9	0.006760922
204	0x3cbfc8a1	0.023411097
205	0xbc9095c6	-0.017649543
206	0xbb7c276e	-0.003847565
207	0xbb5d1eff	-0.00337404
208	0x3d091aa4	0.033472672
209	0xbbd994ec	-0.0066400673
210	0x3d10c11a	0.035340406
211	0x3d07271e	0.03299629
212	0x3c826ff4	0.015922524
213	0xbc4323a2	-0.011910351
214	0x3d260052	0.04052765
215	0xbafb0075	-0.0019149916
216	0x3d244203	0.040102016
217	0x3cd62d0b	0.026144525
218	0x3caa693c	0.020802133
219	0x3c182cb5	0.009288003
220	0xbc1fe00d	-0.009758008
221	0xbd133d2d	-0.035947014
222	0x3c040ec6	0.008060163
223	0x3b8d4ef4	0.0043123905
224	0xbd05b29d	-0.032641042
225	0x3c37aafe	0.011210201
226	0xbc687466	-0.014187908
227	0xb9e38d85	-0.00043402254
228	0xbc093206	-0.008373743
229	0xbcaf22a7	-0.021378828
230	0xbc2ffe90	-0.010741845
231	0xbcf56802	-0.029956821
232	0xbb6cab7d	-0.0036112957
233	0xbce664c5	-0.028124223
234	0xbce8e361	-0.028428735
235	0xbc010156	-0.007873854
236	0xbcffdab8	-0.031232223
237	0xbd1418ec	-0.03615658
238	0x3c5a2fca	0.013317058
239	0xbcdb3365	-0.026757905
240	0x3ccba730	0.024859995
241	0x398b3ee5	0.00026559006
242	0xbbce002d	-0.006286642
243	0x3cc7420f	0.024323491
244	0xbba90c1c	-0.0051589143
245	0xbc33c421	-0.010972054
246	0xbcb61fb3	-0.022231912
247	0xbc46219c	-0.012092974
248	0x3cef3f27	0.029204918
249	0xbce20fea	-0.027595479
250	0x3ceb6978	0.028736815
251	0x3bd37ee9	0.006454338
252	0xb92d3878	-0.00016519602
253	0xbcaad1ff	-0.020852087
254	0x3d160439	0.03662512
255	0x3ad039bc	0.0015886347

bias f4 [32]
0	0x3ad38c5d	0.0016139854
1	0xbd11dfae	-0.03561371
2	0xbafe6980	-0.0019410104
3	0x3b600e43	0.0034188188
4	0xbcffd088	-0.031227365
5	0x3d0b73c1	0.03404594
6	0x3c3b33c9	0.011425921
7	0xbc96a1a6	-0.018387627
8	0x3bac8e77	0.0052660066
9	0xbcd5ef2a	-0.026115019
10	0xbca3b23d	-0.019982452
11	0x3c9a292a	0.018818457
12	0xbc671eb2	-0.014106439
13	0x3b9406b8	0.0045174025
14	0xbd78bf6e	-0.060729437
15	0xbc8c200a	-0.017105121
16	0x38ff5387	0.00012174906
17	0xbc9e856a	-0.019350726
18	0xbc182208	-0.009285457
19	0xbd04887c	-0.032356724
20	0x3c7059c5	0.01466984
21	0xbd9d91f0	-0.07693851
22	0x3c12aadd	0.00895187
23	0x3c9dd49c	0.01926642
24	0x3c2679da	0.010160888
25	0x3d35b5b3	0.044362735
26	0xbb86e7e3	-0.0041169985
27	0xbd211ea2	-0.039335854
28	0x3cd514d3	0.026010906
29	0xbc2dcdb7	-0.010608128
30	0xbd1e882a	-0.038704075
31	0xbd15f7c7	-0.036613252

weight f4 [64, 32, 5, 5]
0	0xbc7b18dc	-0.015325751
1	0xbd159def	-0.03652757
2	0xbccd6e85	-0.025077114
3	0xbd220b12	-0.03956134
4	0x3bc97064	0.006147431
5	0x3d2023a3	0.039096486
6	0x3afb7f35	0.0019187691
7	0xbbbf996e	-0.0058471477
8	0xbc91aa56	-0.017781418
9	0xbca609ab	-0.020268282
10	0xbcfcfee0	-0.030883253
11	0x3cf1b8c5	0.02950705
12	0xbcce6d2c	-0.025198542
13	0x3bd4fbc6	0.0064997403
14	0xbc9ef297	-0.019402785
15	0x3cd89c1f	0.026441632
16	0xbc415570	-0.011800155
17	0x3cb71585	0.022349128
18	0x3c66b73f	0.014081775
19	0x3d51bef3	0.051207494
20	0xb9eed6c1	-0.00045554902
21	0x3c826d23	0.015921181
22	0xbc0d7eb2	-0.008636164
23	0xbc03bd92	-0.008040803
24	0x3d318537	0.043339934
25	0x3d380917	0.044930544
26	0x3c921ca0	0.017835915
27	0xbce51984	-0.027966268
28	0x3b441f43	0.002992586
29	0xbcde53f7	-0.027139647
30	0x3d1006df	0.035162803
31	0xbbeb7247	-0.007185254
32	0x3c7fb4b6	0.01560705
33	0xbc3c1e1b	-0.011481787
34	0xbb880264	-0.0041506756
35	0x3b85a73d	0.0040787742
36	0x3c95af64	0.01827211
37	0x3cafdf8d	0.021468902
38	0x3d164d1c	0.03669463
39	0x3d02de84	0.03195049
40	0xbb8f2b9d	-0.004369213
41	0xbc19ecba	-0.009394819
42	0xbc720186	-0.014770871
43	0xbcd326fc	-0.025775425
44	0xbceba3cc	-0.028764628
45	0x3c0947ef	0.008378967
46	0x3c9b0800	0.018924713
47	0x3d177421	0.036975984
48	0xbc9deca1	-0.019277873
49	0x3c1b686c	0.009485345
50	0x3c9d2f17	0.019187493
51	0xbc53482f	-0.012895628
52	0xbca3dade	-0.020001825
53	0xbd15071f	-0.036383744
54	0x3cb567d2	0.022144232
55	0x3c812a99	0.015767382
56	0x3b115baf	0.0022179892
57	0x3d02c2be	0.031924002
58	0xbb6ba98b	-0.003595921
59	0xbd0fec51	-0.03513748
60	0x3cabdfcb	0.020980736
61	0x3bf75ca1	0.007548884
62	0xbc8b4466	-0.017000388
63	0x3cde220c	0.027115844
64	0x3d08aa23	0.03336538
65	0xbc21a2e2	-0.009865494
66	0xbc0dc2a2	-0.008652361
67	0xbbd64bcf	-0.006539799
68	0xbce6d297	-0.028176589
69	0x3caff1d1	0.021477612
70	0xbcbc8b3a	-0.023015607
71	0x3c031cba	0.008002454
72	0x3c9ea9f9	0.019368159
73	0xbd0181db	-0.03161798
74	0xba6f9164	-0.00091387914
75	0xbb9dcc35	-0.004815603
76	0x3c5520df	0.013008325
77	0xbb6ef6ad	-0.0036462948
78	0x3b86de6a	0.0041158693
79	0x3ca4ad67	0.020102216
80	0x3cb0630c	0.021531604
81	0xbbb06145	-0.005382689
82	0x3c0ba40f	0.008523001
83	0xbcc38bc4	-0.023870356
84	0xbd032dd6	-0.032026134
85	0x3c8313ab	0.01600059
86	0xba921610	-0.0011145491
87	0xbd146757	-0.036231365
88	0xbc039e80	-0.008033395
89	0xbc69640d	-0.014245045
90	0x3d01e6f8	0.03171441
91	0x3ccc58e2	0.024944726
92	0x3cf41c00	0.029798508
93	0x3ae2a6c8	0.0017292136
94	0xbc84c897	-0.01620893
95	0xbd1d3b61	-0.038386706
96	0xbd107dff	-0.03527641
97	0x3c2fc574	0.010728229
98	0xbd010421	-0.03149808
99	0xbc7b1535	-0.01532488
100	0xbc987311	-0.018609555
101	0xbc4779ac	-0.012175005
102	0xbcc4ada1	-0.024008574
103	0xbd0453db	-0.032306533
104	0xbd004b88	-0.031322032
105	0x3c43913d	0.011936483
106	0xbcd6fb50	-0.026242882
107	0xbbb8b2a9	-0.0056365323
108	0xba2e5709	-0.00066505425
109	0xbc63fa2b	-0.013914625
110	0xbc1d5b7e	-0.009604333
111	0x3c386c2a	0.011256257
112	0xbbe7d55b	-0.0070749945
113	0x3c5c3108	0.013439424
114	0xbc6a8544	-0.014314
115	0xbca09d60	-0.019606292
116	0xbba7ef68	-0.005124975
117	0x3b6f2765	0.0036491987
118	0x3d2d1c46	0.04226329
119	0x3c0644ed	0.008195144
120	0x3c47b448	0.0121889785
121	0xbca900c7	-0.020630253
122	0xbcacde9f	-0.021102248
123	0x3c7282e4	0.014801715
124	0x3d0cc07a	0.034363247
125	0x3af1b1e7	0.001843986
126	0x3c6e7953	0.014555293
127	0xbd1bc718	-0.038031667
128	0xbd132193	-0.03592069
129	0x3c3e5e82	0.011619212
130	0x3b3ad155	0.002850612
131	0xbc00cdd8	-0.007861577
132	0xbccc9ba2	-0.024976555
133	0x3c9732e0	0.018456876
134	0xbd19b417	-0.037525263
135	0xbd03bf93	-0.03216512
136	0x3bc0a16c	0.005878618
137	0xbc10ea55	-0.008844932
138	0x3cdbcdfe	0.026831623
139	0x3c8c32ab	0.017114004
140	0xbd05c250	-0.032656014
141	0xbcfa5026	-0.030555796
142	0x3c95f933	0.018307304
143	0xbc00dd87	-0.007865316
144	0xbca706c6	-0.020388972
145	0xbd0022c5	-0.03128316
146	0x3d167625	0.036733765
147	0x3c4eddde	0.012626139
148	0x3d2484d3	0.040165734
149	0x3cffd826	0.031230997
150	0x3d058b51	0.032603566
151	0x3bd54789	0.006508772
152	0x3cbc1178	0.022957548
153	0x3c0fcb5e	0.008776514
154	0x3c3a195e	0.011358587
155	0x3b590680	0.0033115447
156	0xbd11a7fe	-0.0355606
157	0x3ceeb4e2	0.029138986
158	0x3d026040	0.031830072
159	0xbcebdbba	-0.028791297
160	0xbc9044fb	-0.017611017
161	0x3cd28af8	0.025701031
162	0x3d07c995	0.033151228
163	0x3a4d71eb	0.00078371045
164	0xbcefb3d0	-0.029260546
165	0xbd158a8e	-0.03650909
166	0xbc9add83	-0.018904453
167	0xbc88e580	-0.016710997
168	0xbc8e31c2	-0.01735771
169	0x3d22307b	0.039597016
170	0xbc322dcb	-0.010875176
171	0xbab6b368	-0.0013938965
172	0x3c35bfbf	0.011093079
173	0xbb48b6e8	-0.0030626599
174	0xbbc3dd94	-0.005977342
175	0xbcec390e	-0.0288358
176	0x3c0000bc	0.007812675
177	0xbc5f3d54	-0.013625462
178	0xbc546d7e	-0.012965558
179	0xbcd26977	-0.025685055
180	0xbcf49439	-0.029855834
181	0xbca4a49c	-0.020098023
182	0xbc2a4c49	-0.010394164
183	0xbc147f04	-0.009063486
184	0xbc352f5d	-0.011058656
185	0x3c3943b8	0.011307649
186	0xbc35f72d	-0.011106295
187	0xbd016d80	-0.031598568
188	0x3d04b535	0.032399375
189	0xbc5273e4	-0.012845013
190	0x3b7e3b0a	0.0038792514
191	0x3ce615c2	0.028086547
192	0xbc1205b6	-0.008912494
193	0xbcbc2622	-0.022967402
194	0x3cd1a54e	0.025591519
195	0xbccb3654	-0.02480618
196	0xbcecee34	-0.028922178
197	0xbb0de0a2	-0.0021648784
198	0xbc8a0f2c	-0.016852938
199	0x3c994758	0.018710777
200	0x3cc34acd	0.023839379
201	0xbabe2240	-0.0014506057
202	0x3c751633	0.014958906
203	0x3c17f61d	0.009274987
204	0xbcd09a3b	-0.025464168
205	0x3b8f32f9	0.00437009
206	0x3b95b9e8	0.004569281
207	0xbc3acb08	-0.0114009455
208	0x3c6f5a03	0.014608863
209	0xbca70a9d	-0.020390803
210	0x3ce4ee00	0.027945518
211	0xbc06785a	-0.008207405
212	0xbc082dc7	-0.008311695
213	0xbcef959b	-0.029246142
214	0x3ca73b5b	0.020414045
215	0xbcb46043	-0.022018557
216	0x3c95fc7f	0.018308876
217	0x3cce8c0d	0.025213266
218	0xbcaec8df	-0.021336017
219	0xbcc82255	-0.024430433
220	0xbc856804	-0.01628495
221	0xbcf801b9	-0.030274259
222	0x3ce91e12	0.028456721
223	0x3cdcd780	0.026958227
224	0x3c3ca0d7	0.011512957
225	0x3c2b1d3e	0.010443984
226	0xbc9745c4	-0.018465884
227	0x3af1e812	0.0018456003
228	0xbc6abc82	-0.01432717
229	0xbcb8ea2a	-0.022572596
230	0xbc837ec6	-0.016051661
231	0x3bbc9aff	0.0057557817
232	0x3b90e9ae	0.004422388
233	0xbc363ce5	-0.011122917
234	0xbc8655f4	-0.016398408
235	0x3b2fd9ca	0.0026832693
236	0xbcf1eaf6	-0.029530983
237	0x3c28b652	0.010297375
238	0x3c24d9e2	0.010061713
239	0xbc09ea29	-0.008417645
240	0x3ad042b1	0.0015889016
241	0xbced52a5	-0.028970072
242	0xbd1be42b	-0.038059395
243	0xbcc4c4bc	-0.024019592
244	0xba87b15f	-0.0010352543
245	0xbccc806f	-0.024963586
246	0xbc651e98	-0.013984345
247	0x3bc2fac3	0.0059503033
248	0x3bf1a40e	0.007374293
249	0x3c9191c3	0.0177697
250	0xbc1e8279	-0.009674662
251	0xbd0b6bb7	-0.03403827
252	0xbcc88e3b	-0.024481883
253	0xbcc0c5b9	-0.023531782
254	0x3cc44a4b	0.023961207
255	0xbb8ee791	-0.004361101

bias f4 [64]
0	0xbc67bcc9	-0.014144131
1	0x3cc0e713	0.023547685
2	0xbccb51fe	-0.02481937
3	0x3ba02cb4	0.0048881415
4	0x3bcce82b	0.0062532625
5	0x3ce78156	0.028259914
6	0xbc83926c	-0.01606103
7	0xbd191851	-0.037376706
8	0x3c868701	0.016421797
9	0xbcba35f0	-0.022730798
10	0xbcbfc4a9	-0.023409205
11	0xbc969678	-0.018382296
12	0x3c6975b3	0.014249253
13	0x3c99a80d	0.01875689
14	0x3b723623	0.0036958538
15	0x3b0db11b	0.0021620456
16	0xb9e29223	-0.0004321496
17	0xbce72e4d	-0.02822032
18	0xbd1ccbda	-0.038280345
19	0xbc6acfd1	-0.014331774
20	0xbb195793	-0.0023398146
21	0xbcfb6f4b	-0.030692717
22	0x3ca88cf3	0.020575022
23	0xbce5e2c9	-0.028062241
24	0xbb2fccdd	-0.002682499
25	0xbd10bd11	-0.035336558
26	0x3c965487	0.018350853
27	0x3b773322	0.0037719687
28	0xbbdd637c	-0.006756244
29	0xbca831c4	-0.020531543
30	0xbc2d166b	-0.010564427
31	0xbbc6fbc8	-0.006072495
32	0x3b7b2a05	0.0038324606
33	0xbbad6969	-0.005292107
34	0x3ccf30c8	0.025291815
35	0xbb1b2659	-0.002367398
36	0xbb89c17d	-0.004203974
37	0xbb261a10	-0.0025345124
38	0x3ce36a4b	0.027760645
39	0x3d4b2f41	0.04960561
40	0xbd00fac9	-0.031489167
41	0xbc67db90	-0.014151469
42	0xbb92e6f8	-0.0044831
43	0xbc98ef6d	-0.018668855
44	0x3d02e4ef	0.03195661
45	0x3d35611d	0.044282068
46	0x3cd6d274	0.026223399
47	0xbc17c804	-0.009263996
48	0xba996f82	-0.0011706206
49	0x3d11ab8a	0.035563983
50	0x3c9ca4c9	0.019121544
51	0xbd26052d	-0.04053228
52	0xbcc37b07	-0.023862375
53	0xbcbb5fc4	-0.022872813
54	0x37f6d09e	2.942263e-05
55	0xbcce28a6	-0.025165867
56	0xbd0bcdcd	-0.034131814
57	0x3d213d5a	0.03936515
58	0x3c8d0072	0.017212126
59	0xbcc10689	-0.023562687
60	0xbb384889	-0.0028119406
61	0xbd253562	-0.040334113
62	0x3d0dbb45	0.034602422
63	0x3cb80681	0.022464039

weight f4 [64, 1024]
0	0xbbd47610	-0.0064838007
1	0xbcf24d5c	-0.029577903
2	0x3c6b5304	0.014363054
3	0x3cbcfe6e	0.02307054
4	0x3cd8f8bb	0.026485791
5	0x3ae00283	0.0017090592
6	0x3bfacf60	0.0076541156
7	0xbc49a949	-0.012308427
8	0x3ce4e2c1	0.027940156
9	0x3c95b9e4	0.018277116
10	0x3ccf218a	0.025284547
11	0x3cac5667	0.021037294
12	0xbcdc6721	-0.026904644
13	0xbcdfbdcc	-0.027312182
14	0xbc1a27c9	-0.0094089
15	0x3bc2297e	0.0059253564
16	0xbd02a79a	-0.03189812
17	0xbbaf90e8	-0.0053578503
18	0xbc672742	-0.014108481
19	0x3ce2ee21	0.02770144
20	0x3bb4f07e	0.005521833
21	0xbc850e73	-0.016242241
22	0xbb8c46e8	-0.0042809136
23	0x3c883a89	0.016629474
24	0x3d0a87e1	0.03382099
25	0x3cab3574	0.020899512
26	0xbcc71126	-0.02430017
27	0xbcea181e	-0.028575953
28	0xbc2cc3ba	-0.010544712
29	0xbc4cd0f6	-0.012500992
30	0x3cf22a6e	0.029561248
31	0x3cf51731	0.029918285
32	0x3c443ea4	0.011977825
33	0xbd2326ae	-0.03983181
34	0x3ae71a62	0.0017631764
35	0x3bd3a2fe	0.006458639
36	0xbc396d9a	-0.011317635
37	0x3a051d58	0.000507792
38	0xbcc1449e	-0.02359229
39	0xbcbc8539	-0.023012744
40	0x3ca77d54	0.020445503
41	0x3cf3fc75	0.029783467
42	0x3d0669d5	0.032815773
43	0x3d169cb8	0.036770552
44	0xbc8df0aa	-0.017326672
45	0x3ad4296c	0.0016186661
46	0xbc857706	-0.016292106
47	0x3d0cfa1d	0.034418214
48	0xbd184f4c	-0.037185
49	0x3c21ba9f	0.009871154
50	0x3c87e36a	0.016587932
51	0xbd1b8b3b	-0.037974577
52	0x3cdc660e	0.026904132
53	0x3cb386a8	0.021914795
54	0x3b56d16e	0.0032778638
55	0x3cd96230	0.026536077
56	0xbcd5710f	-0.026054887
57	0x3d133766	0.035941504
58	0x3c0583b0	0.0081490725
59	0x3c372798	0.0111788735
60	0x3c6bcd8a	0.014392266
61	0xbb9f51c5	-0.0048620426
62	0xbcae62b9	-0.021287309
63	0x3c17515a	0.009235704
64	0xbb9a3b45	-0.0047067725
65	0xbc43de4b	-0.011954854
66	0x3c9e1260	0.019295871
67	0x3c41f45c	0.011838045
68	0x3d07c25c	0.03314434
69	0x3b318187	0.002708526
70	0x3c27e01f	0.010246306
71	0xbce2a18e	-0.027664926
72	0xbcd9be3a	-0.026579965
73	0xbb4f1831	-0.0031600113
74	0x3c0d6529	0.0086300755
75	0xbbd24e8f	-0.0064180563
76	0x3d0379da	0.03209863
77	0xbc011b4e	-0.007880045
78	0x3b93e235	0.00451305
79	0x3c9c31d6	0.019066732
80	0xbb289d84	-0.0025728652
81	0x3d18bf56	0.037291847
82	0x3bcae03b	0.006191281
83	0xbc997800	-0.018733978
84	0xbc88bcd8	-0.01669161
85	0x3cafbf4b	0.02145352
86	0xbcab476e	-0.020908084
87	0x3c893b52	0.016751919
88	0xbc966c26	-0.018362116
89	0x3b945b6f	0.0045275013
90	0xbb8a7f64	-0.004226612
91	0xbc9e2f9f	-0.019309817
92	0xbc1fd3db	-0.0097551
93	0xbb4576f0	-0.0030130707
94	0x3c750186	0.0149539765
95	0xbcdfcb04	-0.027318485
96	0x3d086530	0.033299625
97	0xbbd1765c	-0.0063922834
98	0x3ad3050c	0.0016099527
99	0xbb999550	-0.004686989
100	0x3b099926	0.0020995825
101	0xbb98c4c4	-0.004662128
102	0xbc483211	-0.012218968
103	0x3c7c4e5e	0.015399544
104	0xbc99c68e	-0.018771436
105	0xbc8a245d	-0.016863042
106	0x3d15266c	0.036413595
107	0xbc5b1487	-0.013371593
108	0x3cd8504c	0.026405476
109	0x392c946f	0.00016458494
110	0x3c731ee2	0.014838906
111	0x3c84781c	0.016170554
112	0x3c7ca78d	0.015420807
113	0x3c20586e	0.009786708
114	0xbc0e6d6e	-0.008693082
115	0x3cc3aabb	0.023885122
116	0x3cf71499	0.030161189
117	0xbb81ddd2	-0.0039632106
118	0xbc873c1a	-0.01650815
119	0x3ca0d3f6	0.01963232
120	0x3cfb55d4	0.030680574
121	0xbbdb0c7c	-0.006684838
122	0xbb02c828	-0.0019955728
123	0xbc92207b	-0.017837754
124	0xbce289df	-0.027653633
125	0xbca57a99	-0.02020006
126	0xbc33478a	-0.010942349
127	0xbae90c93	-0.0017780237
128	0x3c787906	0.015165573
129	0x3c629c7f	0.013831257
130	0xbca8d79b	-0.020610621
131	0x3c95c41c	0.018281989
132	0xbcc4f71c	-0.024043612
133	0xbb7ef306	-0.0038902177
134	0xbc8c4e6f	-0.017127244
135	0x3ce95229	0.02848156
136	0x3bde3601	0.00678134
137	0xbbef875c	-0.0073098373
138	0xbcc68d5a	-0.024237324
139	0x3c85e7cb	0.016345879
140	0xbca4b18e	-0.020104196
141	0xbc9ab5e0	-0.018885553
142	0xbcc9b04d	-0.0246202
143	0xbc078afd	-0.0082728835
144	0xbc8171f6	-0.015801411
145	0x3ba8e193	0.0051538437
146	0xbcf406a5	-0.029788325
147	0x3c99ab3c	0.018758409
148	0x3a046c4c	0.0005051538
149	0xbc3e60b2	-0.011619734
150	0xbc6e460b	-0.014543067
151	0xbbd7775e	-0.006575509
152	0x3c0aac12	0.008463876
153	0x3cbd95c2	0.0231427
154	0x3a7d5a50	0.00096646417
155	0x3c8ae5da	0.016955305
156	0xbcd6e4d5	-0.026232162
157	0xbcb695b4	-0.02228818
158	0x3cd9fa6c	0.026608668
159	0xbc8251ec	-0.015908204
160	0x3ce612ae	0.028085079
161	0x3c8d499c	0.017247014
162	0x3c0c7632	0.008573102
163	0xba0d5be2	-0.0005392415
164	0xbc31c5df	-0.010850399
165	0xbc0f22a9	-0.008736291
166	0x3a8099b3	0.0009811431
167	0xbca49668	-0.02009125
168	0x3c0d35e0	0.008618802
169	0x3ce564d2	0.028002176
170	0x3ae15911	0.0017192682
171	0x38990ac8	7.297617e-05
172	0xbc2cf970	-0.010557517
173	0xb67c2a68	-3.757561e-06
174	0x3cecb097	0.028892798
175	0xb79b088e	-1.8481423e-05
176	0x3c9610ef	0.018318621
177	0x3b8acd2a	0.0042358832
178	0x3c8d44a2	0.01724464
179	0x3c619aed	0.013769847
180	0xba171d81	-0.00057645893
181	0x3ce84ea2	0.028357808
182	0x3c9c6efd	0.019095892
183	0xbc3d154c	-0.011540722
184	0xbb6dd14b	-0.0036288078
185	0xbd01169f	-0.031515714
186	0xbccd3d08	-0.025053516
187	0x3ccd4a61	0.02505988
188	0x3cbd333d	0.023095721
189	0xbc18297d	-0.009287235
190	0x3bec7d0f	0.0072170566
191	0xbc8d3aa9	-0.017239885
192	0x3c88c5b7	0.01669584
193	0xbc96aa6f	-0.018391816
194	0x3d00e01b	0.031463724
195	0x3cb74981	0.022373917
196	0x3d0376a4	0.032095566
197	0xbbee85eb	-0.007279148
198	0xbce38382	-0.027772669
199	0xbc215a1c	-0.009848144
200	0xbcd6246c	-0.026140414
201	0x3d0c1481	0.03419924
202	0x3c21d5e8	0.009877659
203	0xbc48e979	-0.0122626955
204	0xbbf8174f	-0.007571138
205	0x3bccb031	0.0062465896
206	0x3c277f9f	0.010223298
207	0x3ceb9454	0.028757252
208	0xbcc13e93	-0.023589408
209	0xbcd97a46	-0.026547562
210	0x3cfe9fb3	0.03108201
211	0xbc933cd7	-0.017973347
212	0x3ce98b38	0.028508767
213	0x3cb8c099	0.022552775
214	0x3cc310df	0.023811756
215	0xbc35f180	-0.011104941
216	0xbc17c73f	-0.009263813
217	0x3bb11b19	0.0054048416
218	0x3cd41372	0.025888178
219	0xbc7487df	-0.014924972
220	0xbc7ec5e8	-0.015550114
221	0xbcc0ba13	-0.023526227
222	0x3cf173a7	0.029474093
223	0xbc47106d	-0.012149912
224	0x3c197eda	0.009368623
225	0xbcae17ba	-0.021251548
226	0xbc8075ab	-0.015681108
227	0xbc95b304	-0.018273838
228	0x3b6bd164	0.003598296
229	0x3c2f611b	0.010704304
230	0xbc97ba7a	-0.018521536
231	0xbcd27fee	-0.025695767
232	0x3a99dcfc	0.0011738832
233	0xbcc7b2ef	-0.024377314
234	0x3caa6bab	0.020803293
235	0xbcbf3b8e	-0.023343828
236	0xbb9f391d	-0.0048591034
237	0xbcc64ac3	-0.024205571
238	0xbc343091	-0.010997907
239	0xbc57a84f	-0.0131626865
240	0x3cea77c9	0.028621571
241	0xbca5fa64	-0.020260997
242	0x3c7e47e4	0.01552007
243	0x3c2d2785	0.010568504
244	0xbd04f428	-0.032459408
245	0x3c51ac36	0.012797406
246	0x3caa7027	0.020805432
247	0xbce3d42a	-0.027811129
248	0xbc73d7ad	-0.014882964
249	0xb97c6523	-0.00024070269
250	0x3b62de0c	0.0034617214
251	0x3ccea8c2	0.025226954
252	0x3bb5f2b1	0.0055526127
253	0x3a6ca116	0.0009026689
254	0xbace3fe5	-0.0015735595
255	0xba87814e	-0.0010338218

bias f4 [64]
0	0xbc91d5bc	-0.017802112
1	0xbc05c19e	-0.008163838
2	0xbc6744c4	-0.014115516
3	0x3aac63b9	0.0013152278
4	0x3c12e4eb	0.008965711
5	0xbbee1f3e	-0.007266908
6	0xbb1184a1	-0.0022204297
7	0x3c649e48	0.013953753
8	0x3c9a8249	0.018860953
9	0x3aab59b3	0.0013072997
10	0xbc0042d1	-0.00782843
11	0xbb97f1e3	-0.0046369894
12	0x3b9f6b24	0.004865067
13	0xbc021325	-0.007939135
14	0xbcea5836	-0.028606515
15	0x3aee4546	0.0018178604
16	0xbb151b54	-0.0022751885
17	0x3c92b997	0.017910762
18	0xba0dea46	-0.00054136326
19	0x3ba26491	0.004955836
20	0xbb838536	-0.0040136827
21	0xbcc06167	-0.023483945
22	0xbc4b4208	-0.01240588
23	0x3b2a372b	0.0025972824
24	0xbd123989	-0.0356994
25	0xbba16f92	-0.0049266303
26	0x3c9e6016	0.019332927
27	0x3ca6cfb1	0.020362707
28	0xbd0f0320	-0.03491509
29	0xbd019eb2	-0.031645484
30	0xbca629af	-0.020283548
31	0xbd0e0130	-0.0346691
32	0x3d2e7adf	0.042597648
33	0x3c88f7a8	0.016719654
34	0x3cad8119	0.021179723
35	0xbc392b4b	-0.011301826
36	0x3c82de2d	0.015975082
37	0xbcb531ed	-0.022118533
38	0x3b97b902	0.004630209
39	0x3ba17176	0.0049268557
40	0x3c28eb47	0.010310001
41	0xbb23b05c	-0.0024976945
42	0xbbe67265	-0.00703268
43	0xbd30bb59	-0.04314742
44	0x38a38ef0	7.79907e-05
45	0x3cfc5e86	0.030806791
46	0xbcb61937	-0.02222882
47	0x3d32918c	0.043595836
48	0x3c6e09a4	0.014528666
49	0xbb7478df	-0.003730349
50	0xbca22e45	-0.019797454
51	0xba943ff5	-0.0011310565
52	0xbc9a1d58	-0.01881282
53	0xbaac6ef7	-0.0013155629
54	0xbd45ae7e	-0.04826211
55	0xbc0cce3a	-0.00859409
56	0x3c8a0752	0.016849194
57	0xbb9f3aad	-0.0048592896
58	0xbc4e6811	-0.012598054
59	0xbd0b5dd6	-0.034025036
60	0x3cbf056d	0.023318017
61	0x3d0a5dbe	0.033780806
62	0xbc75338b	-0.014965902
63	0x3cce538f	0.025186328

weight f4 [10, 64]
0	0xbdd74759	-0.10511655
1	0x3e0fa12d	0.14026327
2	0xbd4c6620	-0.04990208
3	0x3c275682	0.010213496
4	0xbda34f8b	-0.07974156
5	0x3df20096	0.11816518
6	0xbdbe233a	-0.09284063
7	0xbcc1c3a7	-0.023652865
8	0xbd2073e5	-0.039173026
9	0x3e306a87	0.17228137
10	0xbccd35c5	-0.025050053
11	0x3e2a575b	0.16634886
12	0xbcac0549	-0.020998614
13	0xbddd91a1	-0.10818792
14	0x3de6df88	0.11273104
15	0xbd4afbf6	-0.049556695
16	0x3dc784c5	0.09742121
17	0x3d90cc80	0.07070255
18	0x3d4daf3f	0.050215956
19	0xbdc0dc97	-0.09417074
20	0x3dde3c30	0.108513236
21	0x3cfa4874	0.030552126
22	0xbd8a9ae8	-0.06767827
23	0x3ddef6c8	0.108869135
24	0x3df2edd9	0.11861772
25	0x3ca531a1	0.020165266
26	0xbd3c51a0	-0.04597628
27	0x3d99bd08	0.07506758
28	0xbb9a4bca	-0.004708742
29	0x3dc3ad5c	0.0955455
30	0x3dd22d78	0.10262579
31	0x3dcd8c8e	0.10036574
32	0xbe3389ff	-0.1753311
33	0x3aed4d25	0.0018104656
34	0xbdb1a566	-0.086741254
35	0xbcac9128	-0.02106531
36	0x3d4ffc93	0.050777983
37	0x3dc34415	0.0953447
38	0x3d774a73	0.060373735
39	0x3de77f35	0.1130356
40	0xbd59d184	-0.053178325
41	0xbda052e9	-0.07828314
42	0xbd94cf16	-0.07266061
43	0x3dc09942	0.094042316
44	0xbc566d1f	-0.01308754
45	0xbdaa8df2	-0.08327855
46	0xbd889e22	-0.066707864
47	0xbcb745d5	-0.022372166
48	0xbd860da7	-0.06545573
49	0x3dcdf66a	0.100567654
50	0xbd1f42c1	-0.03888202
51	0x3ddbcbfa	0.10732265
52	0x3d8ae864	0.06782606
53	0x3da61a85	0.08110527
54	0x3d1cbb7b	0.038264733
55	0x3d4d3e77	0.0501084
56	0x3e0892b3	0.13337211
57	0x3ca2b411	0.019861253
58	0x3d06eeb7	0.0329425
59	0x3dd271b0	0.102755904
60	0xbd8202ae	-0.06348167
61	0xbc6f2cb4	-0.01459806
62	0xbcbed18c	-0.02329328
63	0xbce7b2b6	-0.028283458
64	0x3dc5caa5	0.09657792
65	0x3e27ccfc	0.16386789
66	0xbd02ed61	-0.031964663
67	0x3e14f9db	0.14548437
68	0x3c83105a	0.015999008
69	0xbe0fcb57	-0.14042412
70	0xbc35f7c0	-0.0111064315
71	0x3d6bf3e8	0.057605654
72	0x3e189099	0.1489891
73	0x3db1d57d	0.08683298
74	0xbd73b09f	-0.05949461
75	0xbda49c0c	-0.08037576
76	0x3dc88d68	0.09792596
77	0x3de12099	0.10992546
78	0xbdaeda1a	-0.08537693
79	0x3b61df61	0.003446542
80	0xbe0db64f	-0.13839076
81	0xbe2fd5a8	-0.17171347
82	0x3e26fbcb	0.16306989
83	0x3dc8ad71	0.09798706
84	0xbde5a056	-0.11212222
85	0x3df16f62	0.11788823
86	0x3da16696	0.07880895
87	0x3e237287	0.15961657
88	0xbdd5a891	-0.10432542
89	0xbddcca3e	-0.10780762
90	0x3d8f8aa6	0.07008867
91	0x3d44e937	0.048073974
92	0xbdb27161	-0.087130316
93	0xbe3a0dc2	-0.1816931
94	0x3e12f6b6	0.14351925
95	0xbd26dbad	-0.040736843
96	0x3e10c00d	0.14135762
97	0x3d53d370	0.051715314
98	0xbd8cae35	-0.06869165
99	0x3d200061	0.03906286
100	0x3e2b08d8	0.16702592
101	0xbe03db9b	-0.12876742
102	0xba91da07	-0.0011127599
103	0x3d930c9c	0.071801394
104	0xbd97ea53	-0.07417741
105	0xbe51aff3	-0.20477276
106	0x3e222156	0.15833029
107	0x3dd41bbf	0.10356855
108	0xbd2cc6f3	-0.04218192
109	0x3df6169e	0.12016033
110	0x3ab701ba	0.0013962307
111	0xbda16197	-0.07879942
112	0x3d965b50	0.07341635
113	0x3dcb3770	0.09922683
114	0xbd596f39	-0.053084586
115	0x3cb69e72	0.02229235
116	0x3da6f276	0.081517145
117	0x3dc1337e	0.094336495
118	0xbe16073e	-0.146512
119	0x3e01dbd2	0.12681511
120	0xbc9dc710	-0.01925996
121	0x3caa2ca8	0.020773247
122	0x3d96b68e	0.07359038
123	0x3c3c8eee	0.0115086865
124	0x3e1afd52	0.15135697
125	0x3d0eb5d3	0.03484137
126	0x3d0c7964	0.034295455
127	0x3e00eec3	0.1259108
128	0x3dcaea07	0.099079184
129	0xbd199790	-0.037498057
130	0xbd3c11be	-0.045915358
131	0x3dda8c8b	0.10671338
132	0x3d21abeb	0.039470594
133	0x3e0b37cd	0.13595505
134	0xbe026b39	-0.12736215
135	0xbe252e97	-0.16131054
136	0x3dddf55a	0.10837813
137	0x3e1148fb	0.14187996
138	0x3c71a240	0.014748156
139	0xbc77d948	-0.0151274875
140	0xbd826225	-0.06366376
141	0x3db3cd23	0.08779361
142	0xbe16e622	-0.14736226
143	0x3afa6cc9	0.0019105907
144	0xbd9961a2	-0.07489325
145	0x3e24f68d	0.16109677
146	0xbdb2825f	-0.087162726
147	0x3cc1ebf8	0.023672089
148	0x3d7c03a1	0.0615269
149	0x3d2ef8b7	0.04271766
150	0xbd399be1	-0.045314673
151	0xbda3d731	-0.08000029
152	0xbda3086b	-0.0796059
153	0x3df7137b	0.120642625
154	0x3ada34f3	0.001664786
155	0xbdf642b7	-0.120244436
156	0x3d5b1a44	0.053491846
157	0x3c7db28f	0.015484466
158	0xbe06d5ce	-0.13167498
159	0xbdba7b76	-0.091055796
160	0xbe12e239	-0.1434411
161	0x3d6e2582	0.05814124
162	0xbd098218	-0.033571333
163	0xbd2fac40	-0.04288888
164	0xbd9f3fc6	-0.07775836
165	0x3d472881	0.048622612
166	0xbc871d22	-0.016493384
167	0x3da485f9	0.08033366
168	0x3d1f127d	0.03883599
169	0x3de15616	0.11002748
170	0xbd5c5891	-0.0537954
171	0xbe34d67b	-0.17659943
172	0xbd13dc7c	-0.036098942
173	0xbcf83da0	-0.030302823
174	0xbdc3a892	-0.095536366
175	0x3d596ff0	0.053085268
176	0xbc93d47e	-0.01804566
177	0x3def94fe	0.1169834
178	0x3dd74d8a	0.10512836
179	0x3e191448	0.14949143
180	0xbd1a8d59	-0.037732456
181	0x3e12080f	0.14260887
182	0xbde64a13	-0.11244597
183	0xbd8f35de	-0.06992696
184	0xbddac7c4	-0.106826335
185	0xbd0e5bf7	-0.034755673
186	0xbd5a684d	-0.053322125
187	0xbdd1709c	-0.10226557
188	0x3d4b8bdd	0.04969393
189	0x3c9b0367	0.01892252
190	0xbd5eaedb	-0.054365974
191	0x3d8070ad	0.06271491
192	0x3daa8d7b	0.083277665
193	0xbd9da1fa	-0.0769691
194	0x3d2b445e	0.041813247
195	0x3c893737	0.016749961
196	0xbd832fb8	-0.06405586
197	0xbe3287c0	-0.17434597
198	0xbdea5c96	-0.114434406
199	0xbd9b7cf6	-0.07592194
200	0x3e1422e5	0.14466436
201	0xbe1cf091	-0.15326144
202	0xbd45039f	-0.048099156
203	0xbcf6bd39	-0.030119525
204	0xbda846f7	-0.082166605
205	0xbcb3b9a4	-0.021939106
206	0xbe3035f1	-0.17208077
207	0xbdb24cb8	-0.08706039
208	0x3dee1026	0.11624174
209	0xbe160420	-0.14650011
210	0xbde7e73f	-0.113234036
211	0xbddae2da	-0.106878
212	0xbd8e1985	-0.06938461
213	0xbdcc65f9	-0.09980387
214	0xbda3d368	-0.07999307
215	0xbdd7d86d	-0.10539327
216	0x3d988032	0.07446326
217	0x3df11e31	0.11773337
218	0xbd318111	-0.043335978
219	0xbc053a66	-0.008131599
220	0xbb821cbe	-0.0039707115
221	0x3cd9f6d6	0.026606958
222	0xbe021448	-0.12703049
223	0xbdbbce37	-0.09170192
224	0x3dcefbaf	0.101065986
225	0x3df3e0a7	0.119080834
226	0xbddd7e99	-0.10815162
227	0xbd479225	-0.04872336
228	0x3db46e6f	0.08810126
229	0xbd8bb69c	-0.06821939
230	0xbd083fa0	-0.033263803
231	0x3dc459d9	0.095874496
232	0xbdd810ca	-0.10550077
233	0xbc903bcc	-0.017606638
234	0x3d87e08b	0.06634625
235	0xbd1cf56b	-0.038319986
236	0x3d336765	0.043799777
237	0x3ce7a0ef	0.028274981
238	0xbd19d650	-0.0375579
239	0x3dd77cba	0.105218366
240	0xbd9d044f	-0.076668374
241	0xbded851f	-0.115976565
242	0xbdf47a90	-0.119374394
243	0x3c7c1fd3	0.015388447
244	0xbd9c100b	-0.076202475
245	0x3d7f07d6	0.062263332
246	0x3c005219	0.007832074
247	0xbe1d3c74	-0.15355092
248	0xbd6662eb	-0.05624668
249	0xbd9e2c90	-0.07723343
250	0x3d38daed	0.04513066
251	0x3dd35edb	0.103208266
252	0xbe204b73	-0.15653782
253	0x3ca79cfb	0.020460596
254	0xbda04026	-0.07824735
255	0xbd7808f3	-0.06055541

bias f4 [10]
0	0xbe29ea65	-0.1659332
1	0xbc4df73c	-0.012571152
2	0x3d0788ec	0.033089563
3	0xbc8abc92	-0.01693562
4	0x3da561fe	0.08075331
5	0x3c5a8852	0.013338165
6	0xbd07d768	-0.03316441
7	0xbcc07938	-0.023495302
8	0xbd33ae53	-0.04386742
9	0x3d28042a	0.041019596
