models/gpu_train_model25.pth (torch, 587335 bytes, 10 tensors)

weight f4 [32, 3, 5, 5]
0	0x3d9623d7	0.07331055
1	0x3e4c0c0a	0.19926468
2	0x3d37e385	0.044894714
3	0xbd5a707f	-0.05332994
4	0xbe15ce12	-0.14629391
5	0x3d4476d7	0.047964897
6	0x3e33d30d	0.17560978
7	0x3e46766f	0.19381116
8	0xbdfd3dc1	-0.12365294
9	0xbe019a16	-0.12656435
10	0x3d9c38ca	0.07628019
11	0x3e112a39	0.14176263
12	0x3bd1514b	0.0063878647
13	0xbd82e32b	-0.06390985
14	0xbd58639e	-0.052829377
15	0x3cc9b985	0.024624595
16	0xbe271b8d	-0.16319104
17	0xbe020dd2	-0.12700585
18	0x3d3a544f	0.04549056
19	0x3e72bd27	0.23704968
20	0xbe38f02f	-0.18060373
21	0xbe2dc23e	-0.16968629
22	0x3db53edd	0.08849881
23	0x3dd884fd	0.105722405
24	0x3e2c0422	0.16798452
25	0x3e0c1aa2	0.13682035
26	0x3e161dee	0.14659855
27	0xbd971960	-0.07377887
28	0x3b8dec3a	0.004331139
29	0xbdf7c9a0	-0.12099004
30	0x3e43d7fc	0.1912536
31	0x3d7ba50f	0.06143671
32	0x3d9fcf7e	0.07803248
33	0xbe1cab5c	-0.15299743
34	0xbd931a8c	-0.07182798
35	0x3db8ff7c	0.09033105
36	0x3d7b1cb0	0.061306655
37	0x3d33b749	0.043875966
38	0xbd35d047	-0.044388082
39	0xbdbf22a6	-0.093327805
40	0xbdd2dd1a	-0.10296078
41	0xbe5a9d44	-0.21349055
42	0xbcc8d834	-0.024517156
43	0x3df5049b	0.11963769
44	0x3e78a59e	0.24281928
45	0xbdeb97bf	-0.11503553
46	0xbd7d69b5	-0.06186839
47	0x3d76f63a	0.060293414
48	0x3d9a1121	0.07522798
49	0x3e026065	0.12732084
50	0x3dc39279	0.09549422
51	0x3dc6454a	0.096811846
52	0xbe39fb1b	-0.18162195
53	0xbe6dad17	-0.2321056
54	0xbe1b71d8	-0.15180147
55	0xbc76cc0a	-0.015063295
56	0x3d5efdca	0.05444125
57	0xbcc35ea5	-0.023848841
58	0xbe82bd7d	-0.25535193
59	0xbe7ec985	-0.24881561
60	0xbd19db39	-0.037562583
61	0xbc85b604	-0.016322143
62	0xbd9db153	-0.076998375
63	0xbd784af6	-0.060618363
64	0xbd153620	-0.03642857
65	0xbdf2937a	-0.11844535
66	0xbdc90104	-0.09814647
67	0xbe43ba87	-0.19114123
68	0x3e0bf852	0.13668945
69	0x3de11eab	0.109921776
70	0xbe4b685b	-0.19864027
71	0xbc37cafd	-0.01121783
72	0xbcd387ac	-0.02582153
73	0xbcff7b6f	-0.031186787
74	0x3c82e22f	0.015976993
75	0x3e2e3f66	0.17016372
76	0xbce5ccbb	-0.028051725
77	0xbe3a2167	-0.18176804
78	0xbd3fadff	-0.046796795
79	0xbdd068ef	-0.101762645
80	0xbd9bc238	-0.07605404
81	0xbe545cc8	-0.20738518
82	0xbea4a701	-0.32158664
83	0x3d3116d5	0.043234665
84	0x3e28ef46	0.16497526
85	0xbe582ddb	-0.21111242
86	0xbe4cc1e5	-0.1999584
87	0xbe0eddc6	-0.13951787
88	0x3e6f4060	0.23364401
89	0x3dbfb69d	0.093610026
90	0xbc96c668	-0.018405154
91	0xbe5b5a82	-0.21421245
92	0x3d96c82a	0.07362397
93	0x3e0e52e2	0.13898805
94	0x3d83e21d	0.06439612
95	0x3d37209b	0.04470883
96	0xbe49c158	-0.19702661
97	0x3e040497	0.12892376
98	0x3e018cef	0.12651418
99	0xbdfe2557	-0.12409466
100	0x3e5c8a36	0.21537098
101	0xbdabf93e	-0.083971485
102	0xbdde2745	-0.10847334
103	0x3c83edde	0.016104635
104	0x3e27e75b	0.16396849
105	0xbcc9b272	-0.024621222
106	0xbd0670c7	-0.032822397
107	0xbe7c41f9	-0.24634542
108	0x3e2c6bdf	0.16838025
109	0x3e4e29b1	0.20133092
110	0xbde18b2f	-0.11012875
111	0x3c8d0780	0.01721549
112	0xbd622d02	-0.055218704
113	0x3e5e50d9	0.21710528
114	0x3dfcd11c	0.12344572
115	0x3d41859c	0.04724656
116	0xbe2726d6	-0.16323408
117	0x3e67236e	0.22572109
118	0x3e7b66f1	0.24550988
119	0x3d827b6a	0.063711956
120	0x3cd8dc70	0.0264723
121	0x3c399b1d	0.011328486
122	0x3e402a09	0.18766035
123	0x3d4faf08	0.050704032
124	0xbcbe3bdb	-0.0232219
125	0x3e2c647f	0.16835211
126	0xbcb0c8b8	-0.021580085
127	0xbe808500	-0.2510147
128	0xbd85072e	-0.0649551
129	0xbd0eb32c	-0.03483884
130	0xbbadfe09	-0.0053098244
131	0xbd96dee1	-0.073667295
132	0xbe10a643	-0.14125924
133	0x3dc79e92	0.09747042
134	0x3d98f05b	0.07467719
135	0xbe221383	-0.15827756
136	0xbc9b8ee3	-0.018989032
137	0x3d56d40c	0.052448317
138	0x3e1cf577	0.15328012
139	0xbd05edea	-0.032697596
140	0xbe3252ab	-0.17414348
141	0xbe24ca2c	-0.16092747
142	0x3dadc729	0.084852524
143	0x3ce7cc00	0.028295517
144	0xbd2418d4	-0.04006274
145	0xbdff3345	-0.12460951
146	0xbcb0d72f	-0.021586983
147	0x3cfe70b2	0.031059597
148	0x3df98105	0.12182812
149	0xbd6435d5	-0.0557154
150	0xbdea8a4d	-0.1145216
151	0x3e1538ce	0.1457245
152	0x3da90e35	0.08254663
153	0x38525f0a	5.0156414e-05
154	0x3c3f930a	0.011692772
155	0xbe27ab22	-0.16373876
156	0x3e6b5567	0.22981797
157	0x3e2fb4b9	0.17158784
158	0xbddb4e09	-0.107082434
159	0xbca7aa25	-0.020466873
160	0xbde59997	-0.112109356
161	0x3e429759	0.19003047
162	0x3e32bbf7	0.17454515
163	0xbb91babc	-0.0044473093
164	0x3e260225	0.16211756
165	0x3d6693bd	0.056293238
166	0x3e6fd213	0.2341998
167	0x3b5cf691	0.00337163
168	0x3d2624f5	0.04056259
169	0x3e59f683	0.21285443
170	0x3db04480	0.08606815
171	0x3e066d05	0.13127525
172	0x3df09649	0.117474146
173	0xbae89863	-0.001774561
174	0x3e2434c8	0.1603576
175	0xbd7555ac	-0.059896156
176	0x3d52cf44	0.051467195
177	0xbd3e8f34	-0.046523288
178	0xbd9dc78e	-0.07704078
179	0x3e011760	0.12606573
180	0xbd99306f	-0.07479941
181	0x3ca60b9a	0.020269204
182	0xbcff21da	-0.031144071
183	0x3d549510	0.05189997
184	0x3d91a79f	0.07112049
185	0xbe3c4f81	-0.18389703
186	0x3ccea298	0.025224015
187	0xbd0e7764	-0.03478183
188	0xbe2d536a	-0.16926351
189	0x3d8ba094	0.06817737
190	0xbdfd1d9b	-0.123591624
191	0xbd432afd	-0.04764842
192	0xbe0a1df8	-0.13487995
193	0xbcec04bd	-0.028810853
194	0x3e1f9cf8	0.15587223
195	0xbbd2a6ca	-0.006428574
196	0x3d1c6005	0.03817751
197	0x3d0ed470	0.034870565
198	0x3d984041	0.074341305
199	0x3bbae696	0.0057037575
200	0xbd89e33b	-0.06732794
201	0xbd781651	-0.060568158
202	0xbd41723b	-0.04722808
203	0x3d25b163	0.040452372
204	0xbddd8960	-0.10817218
205	0xbe5d9694	-0.21639472
206	0x3d04ee26	0.03245368
207	0xbe112c8a	-0.14177147
208	0xbe2ecce2	-0.17070344
209	0x3d083a98	0.033259004
210	0xbe8f77f2	-0.280212
211	0xbba30034	-0.0049743894
212	0xbdef8aac	-0.116963714
213	0xbe101519	-0.14070548
214	0x3d99e531	0.07514418
215	0xbdfe5ef3	-0.12420454
216	0xbd5e4092	-0.054260798
217	0xbe01406d	-0.12622233
218	0xbd022e19	-0.031782243
219	0x3c9183c7	0.017763032
220	0xbe4652c7	-0.19367515
221	0x3d728f22	0.059218533
222	0xbe1f42bd	-0.15552802
223	0x3d7fe663	0.062475573
224	0x3d3f3dfe	0.04668998
225	0x3db21044	0.08694509
226	0xbdde14c2	-0.10843803
227	0xbda0631c	-0.078314036
228	0xbd4c0e59	-0.04981837
229	0x3dee6ea6	0.11642198
230	0xba278098	-0.00063897064
231	0x3dbd0a1f	0.09230446
232	0xbdd5bebc	-0.1043677
233	0x3c6d9fe3	0.014503452
234	0x3d92c630	0.071667075
235	0x3df8a686	0.12141137
236	0x38b79136	8.753168e-05
237	0x3d8fae9f	0.07015728
238	0xbda2d565	-0.07950858
239	0x3da109eb	0.0786322
240	0xbe1f6a85	-0.15567978
241	0x3e036131	0.12830044
242	0x3de83293	0.11337771
243	0x3e6604df	0.22462796
244	0x3dc2435c	0.09485504
245	0xbc998cea	-0.01874395
246	0xbdcd490a	-0.10023697
247	0x3de2e206	0.11078267
248	0x3dfe94b8	0.124307096
249	0xbd70049f	-0.058598157
250	0xbdaf1e41	-0.08550692
251	0xbe3df817	-0.1855167
252	0x3d59fad1	0.053217713
253	0x3ca0b82f	0.019619076
254	0x3ddc8eef	0.1076945
255	0x3e1b4387	0.15162478

bias f4 [32]
0	0x3da5a62f	0.08088338
1	0x3d5fa322	0.054598935
2	0xbd3a06b4	-0.04541655
3	0xbe39c35e	-0.18140933
4	0xbdbbd78b	-0.09171971
5	0x3db96541	0.09052516
6	0x3e564a54	0.20926791
7	0x3dff7441	0.124733455
8	0xbd789861	-0.060692195
9	0x3c7d033e	0.0154426675
10	0x3e2c07b7	0.16799818
11	0xbeaaba51	-0.33345273
12	0xbea1a6b7	-0.31572506
13	0x3dd6a9de	0.10481618
14	0xbe02f91c	-0.1279034
15	0xbe991ac9	-0.29903248
16	0xbe767cd2	-0.24071053
17	0x3d9c629d	0.076359965
18	0x3e5da067	0.2164322
19	0xbe3310a5	-0.17486818
20	0xbe183fb5	-0.14868052
21	0xbeaf163f	-0.3419666
22	0xbd163142	-0.03666807
23	0xbdfac146	-0.12243895
24	0xbd6590f3	-0.056046437
25	0x3d53cba0	0.051707864
26	0xbd77a78d	-0.060462523
27	0xbe29d8c4	-0.16586596
28	0xbd8fee85	-0.07027916
29	0xbd354f68	-0.04426518
30	0x3d8ad7af	0.0677942
31	0x3d534857	0.05158266

weight f4 [32, 32, 5, 5]
0	0xbd0d7721	-0.03453744
1	0x3c106dc7	0.008815235
2	0x3c473bff	0.0121603
3	0x3b0a0878	0.0021062177
4	0x3cf092b3	0.029366827
5	0xbc834161	-0.016022386
6	0xbc5f4a0e	-0.013628496
7	0x3d6421dd	0.055696357
8	0x3ca1e7d6	0.019763868
9	0x3d7c3e59	0.061582897
10	0xbab2b0d9	-0.0013633027
11	0x3cd6ef64	0.026237197
12	0x3d823cbf	0.06359243
13	0x3d000f8a	0.03126482
14	0xbb49ae3d	-0.003077402
15	0x3aa44322	0.0012532214
16	0x3d23972c	0.03993909
17	0x3d8f7fbf	0.070067875
18	0x3d39f729	0.045401726
19	0x3cb818ff	0.022472857
20	0x3ca736fa	0.020411957
21	0x3cbd990b	0.023144266
22	0x3c62a9da	0.013834441
23	0x3cc94985	0.02457119
24	0x3cdd78c1	0.027035119
25	0xbc56cfef	-0.013111099
26	0xbd28ee4d	-0.041242886
27	0xbbd37e2a	-0.006454249
28	0x3c85949f	0.01630622
29	0x3d18905c	0.037247047
30	0x3c220ae8	0.009890296
31	0x3bc1750a	0.0059038447
32	0xbca876a3	-0.020564383
33	0x3c5bbbe4	0.013411496
34	0x3d6b85fb	0.05750082
35	0xbaeee674	-0.0018226639
36	0xbb25cff6	-0.0025300956
37	0x3d14e30a	0.036349334
38	0x3d820e84	0.06350425
39	0x3d945e6b	0.07244571
40	0xbd886114	-0.06659141
41	0xbd59b06d	-0.05314677
42	0x3cff4a08	0.03116323
43	0x3869474d	5.5617933e-05
44	0x3c0652b2	0.008198427
45	0xbcd06a7c	-0.0254414
46	0xbd4ba73e	-0.04972004
47	0x3d5a393b	0.053277235
48	0x3ccf8cf7	0.025335772
49	0x3d0c25e6	0.03421583
50	0x3c189ea6	0.0093151685
51	0xbd20f090	-0.03929192
52	0xbcdf5e0e	-0.027266528
53	0x3c1c3983	0.009535196
54	0xbc78c454	-0.015183527
55	0x3abf09cf	0.0014575067
56	0xbdaf0963	-0.08546712
57	0xbb57d865	-0.0032935378
58	0x3d070b95	0.03297003
59	0xbb419360	-0.0029537305
60	0xbd95c87b	-0.07313629
61	0xbd2fb206	-0.042894386
62	0xbd2f080a	-0.042732276
63	0xbc887bba	-0.01666056
64	0xbc4a0c36	-0.012332013
65	0xbcdd3f47	-0.027007712
66	0xbd8f1ae2	-0.06987549
67	0xbd2d2fa3	-0.042281758
68	0x3d003334	0.03129883
69	0xbcd1f38c	-0.025628828
70	0xbcbd5d16	-0.023115676
71	0xbc299ebd	-0.010352788
72	0x3b956ca7	0.0045600715
73	0xbc38b438	-0.011273436
74	0x3c8e09ae	0.0173386
75	0xbd146f5e	-0.03623902
76	0x3a84f1a7	0.0010142819
77	0x3c4eaf4d	0.012615037
78	0x3ca3d350	0.019998223
79	0x3b1b89de	0.0023733298
80	0x3a307f92	0.00067328766
81	0xbab319cf	-0.0013664308
82	0xbca5f9e8	-0.020260766
83	0xbc28a78a	-0.010293851
84	0xbc878954	-0.016544975
85	0xbd2197cc	-0.039451405
86	0xbccbad48	-0.0248629
87	0xbca15522	-0.019693915
88	0x3c6e9d0e	0.014563812
89	0x3c8ba03e	0.017044183
90	0xbc8bd3d2	-0.017068777
91	0xbd280265	-0.04101791
92	0xbd4926cc	-0.049109265
93	0xbbb6fad1	-0.005584099
94	0xbc28bd68	-0.010299064
95	0xbc433346	-0.01191408
96	0xbc008e85	-0.007846479
97	0x3bd7df67	0.006587911
98	0x3ceb104a	0.02869429
99	0x3cccebbf	0.025014756
100	0x3cd73c5f	0.026273904
101	0x3d4010bc	0.04689096
102	0xbd0863ac	-0.03329818
103	0x3c54c2a7	0.012985862
104	0xbd11b10f	-0.035569247
105	0x3c7e027c	0.015503522
106	0x3cee4ec9	0.029090302
107	0x3d2d81da	0.042360164
108	0xbb6f2ef5	-0.0036496494
109	0x3b45d8c3	0.0030189015
110	0x3c900b34	0.017583467
111	0x3d523878	0.051323384
112	0x3b2bd315	0.0026218344
113	0xbb1f3ca2	-0.0024297615
114	0x3ce6e085	0.028183231
115	0x3d09c567	0.033635523
116	0x3d05fe8c	0.032713458
117	0xbc9bb169	-0.019005494
118	0xbd4041d9	-0.046937797
119	0xbc180204	-0.009277824
120	0xbb908f1c	-0.004411591
121	0x3ca38732	0.019961927
122	0xbcf32823	-0.029682225
123	0xbd39deb2	-0.045378394
124	0xbc2687f1	-0.010164247
125	0x3d259c69	0.040432367
126	0xbc0b3715	-0.008497019
127	0x3ca7a351	0.020463618
128	0xbc409ae8	-0.0117556825
129	0xbc124f37	-0.008930019
130	0x3d264aca	0.04059867
131	0x3caadfc9	0.020858662
132	0x3d059f19	0.03262243
133	0x3c725bb0	0.014792368
134	0xbae6446d	-0.0017568
135	0x3d167d2b	0.036740463
136	0x3c4c7b95	0.012480636
137	0x3d24dcd2	0.040249653
138	0x3bf8c894	0.00759227
139	0xbbb727a2	-0.0055894414
140	0x3d474477	0.048649278
141	0xbbd8838c	-0.0066074785
142	0x3b88e7fa	0.0041780444
143	0xbd1be155	-0.03805669
144	0x3b8160be	0.0039483
145	0x3cbf21fc	0.023331635
146	0x3cbd3247	0.023095263
147	0x3beab665	0.0071628564
148	0xbc059349	-0.008152791
149	0xbc3dd0dc	-0.0115854405
150	0xbc2dad28	-0.010600366
151	0x3ce1d472	0.027567122
152	0x3cb10958	0.0216109
153	0x3da10589	0.07862384
154	0x3c2d5202	0.010578634
155	0xbc2e5c32	-0.010642098
156	0x3d636066	0.055511855
157	0x3d538032	0.05163593
158	0x3d98b720	0.07456803
159	0x3d5bc02f	0.053650077
160	0xbc04acb5	-0.008097817
161	0x3d8a9df4	0.067684084
162	0x3d1e9504	0.03871633
163	0x3d4c8cb2	0.049938865
164	0x3dab8b4f	0.083761804
165	0xbcd49fd3	-0.025955116
166	0x3d0a9c56	0.0338405
167	0x3d07db12	0.033167906
168	0x3d8c849a	0.06861229
169	0x3d515610	0.051107466
170	0xbc4ff8e6	-0.012693619
171	0xbd16957b	-0.03676365
172	0x3c1e9d8f	0.00968112
173	0xbd2edf32	-0.042693324
174	0xbcb64c92	-0.022253308
175	0xbc473533	-0.01215868
176	0x3c3996b2	0.0113274325
177	0x3c076b35	0.008265306
178	0x3cd167dd	0.025562221
179	0x3c84241a	0.016130496
180	0x3cfdb54d	0.03097024
181	0x3c3783f5	0.011200895
182	0x3d6ef461	0.058338527
183	0x3d3bd401	0.04585648
184	0x3c85883d	0.016300315
185	0xbbbb7cc3	-0.00572166
186	0x3cccf80b	0.02502062
187	0x3ce87fef	0.028381316
188	0xbc8b9f06	-0.017043602
189	0x3b9e1e3e	0.0048253825
190	0x3d08459e	0.033269517
191	0xbc3d5d05	-0.011557822
192	0xbccae404	-0.02476693
193	0xbcd56b87	-0.02605225
194	0xbc92e11a	-0.017929602
195	0xbc0c604f	-0.008567884
196	0x3c57e2c4	0.013176624
197	0xbd69a22f	-0.057039436
198	0xbd3da75a	-0.046302177
199	0xbd375e83	-0.044767868
200	0x3bac1982	0.005252064
201	0xbc598f1c	-0.013278749
202	0x3ae82af0	0.0017712992
203	0xbc88f851	-0.016719969
204	0x3c10ebee	0.0088453125
205	0xbcaa1c42	-0.020765428
206	0xbcb0a3d0	-0.021562487
207	0xbcccead1	-0.025014313
208	0x3c855015	0.016273538
209	0xbc92ece4	-0.017935224
210	0x3d096dc1	0.033551935
211	0x3bfd6061	0.0077324365
212	0xbb26a2dc	-0.0025426662
213	0xbcb94f66	-0.022620868
214	0x3cfa41ed	0.030549014
215	0x3c13ed7c	0.009028789
216	0x3d1ad3c8	0.037799627
217	0x3d08bb72	0.033381887
218	0x3c87f726	0.016597342
219	0x3b0a552a	0.002110789
220	0x3afda86a	0.001935256
221	0xbd21a6b4	-0.03946562
222	0x3c918ce7	0.017767383
223	0xbba63823	-0.00507261
224	0xbd370cc2	-0.0446899
225	0x3cc4c5ec	0.024020158
226	0xbd0386d7	-0.032111015
227	0xbc8140eb	-0.015778026
228	0xbd641d0a	-0.055691756
229	0xbcee63a2	-0.029100243
230	0xbc1b57d8	-0.009481393
231	0xbd62b258	-0.055345863
232	0xbc6f4f62	-0.014606329
233	0xbd8d9ece	-0.06915055
234	0xbd08d7a9	-0.033408795
235	0x3b16726d	0.0022956387
236	0xbd7d7b46	-0.06188514
237	0xbd2d0721	-0.042243127
238	0x3b6bb314	0.0035964893
239	0xbcd7b148	-0.026329651
240	0x3cd970aa	0.02654298
241	0xbd0dab16	-0.03458699
242	0xbb4c6ac5	-0.003119157
243	0xbae7cd0d	-0.0017685011
244	0xbc99b0ad	-0.018761003
245	0xbc942116	-0.018082183
246	0xbd664dc1	-0.056226496
247	0x3c655096	0.013996264
248	0x3c1c9dd6	0.009559115
249	0xbd04bd47	-0.03240707
250	0x3cfab7e9	0.030605273
251	0xbb67eecc	-0.0035390137
252	0xbca594d9	-0.020212578
253	0xbc036097	-0.008018634
254	0x3d0e9254	0.034807518
255	0xbc1d928b	-0.009617458

bias f4 [32]
0	0x3c19cc25	0.009387051
1	0xbe721239	-0.23639764
2	0x3d0c0ab8	0.03418991
3	0xbc792137	-0.015205673
4	0xbe00052c	-0.12501973
5	0x3d2670c9	0.040634904
6	0xbd0db7ca	-0.034599103
7	0xbe0c2794	-0.13686973
8	0x3c4453f7	0.011982909
9	0xbdc6da2b	-0.09709581
10	0xbe0afa67	-0.13572083
11	0x3d91a213	0.07110991
12	0xbde57f0a	-0.112058714
13	0xbda85b79	-0.08220572
14	0xbe09b816	-0.1344913
15	0xbded415c	-0.11584732
16	0xbd8d63a6	-0.06903772
17	0xbe123724	-0.14278847
18	0xbd6d1a59	-0.057886455
19	0xbe261801	-0.16220094
20	0xbc34c52c	-0.011033338
21	0xbd6e902d	-0.058242965
22	0xbdbbe27a	-0.09174056
23	0x3c469bc9	0.012122103
24	0x3d1f7036	0.038925372
25	0x3cb53743	0.022121077
26	0xbe65782c	-0.22409123
27	0xbe828248	-0.25490022
28	0x3d2dfd71	0.04247803
29	0xbe011924	-0.12607247
30	0xbd53781d	-0.05162822
31	0xbe4a9c9a	-0.19786301

weight f4 [64, 32, 5, 5]
0	0xbd0e02ca	-0.03467063
1	0xbc420d04	-0.0118439235
2	0xbd0dd104	-0.03462316
3	0xbd31d420	-0.04341519
4	0xbc3bbb90	-0.011458293
5	0x3d0a5ef3	0.033781957
6	0x3ca6a81a	0.020343829
7	0xbcd49b8b	-0.025953075
8	0xbcbfe639	-0.023425208
9	0xbc716e3c	-0.014735755
10	0xbcf21e60	-0.0295555
11	0x3c39239a	0.011299992
12	0xbbe97b25	-0.0071252757
13	0xbcd2a2ab	-0.025712332
14	0x3b942f22	0.00452222
15	0x3c36582c	0.01112942
16	0xbd1e4db8	-0.038648337
17	0x3bd5ae44	0.006521018
18	0x3b59999f	0.0033203138
19	0x3da3c4f9	0.07996554
20	0x3c334763	0.010942313
21	0x3d3db0ba	0.046311118
22	0x3b8d4ffb	0.004312513
23	0xbceac400	-0.028657913
24	0x3cc09ec5	0.023513207
25	0x3db3c158	0.08777112
26	0x3d21a091	0.03945977
27	0xbd1dea44	-0.03855349
28	0xbd2bf699	-0.04198322
29	0xbd4cee33	-0.050031852
30	0x3d278100	0.04089451
31	0xba967b34	-0.0011480809
32	0x3b5e071f	0.0033878756
33	0xbc9bb380	-0.01900649
34	0xbcb1b858	-0.021694347
35	0xbc9d4fb8	-0.019203052
36	0x3c8b45c3	0.017001038
37	0x3c3a6666	0.011376953
38	0x3cf426e1	0.029803695
39	0x3d4c19af	0.04982918
40	0x3a68e037	0.0008883508
41	0x3c52dab7	0.0128695285
42	0xba80afb5	-0.000981799
43	0xbbe9658a	-0.0071227
44	0xbd07490b	-0.033028644
45	0xbb525f9a	-0.003210044
46	0x3cf43f36	0.029815298
47	0x3d814811	0.06312574
48	0xbcde4847	-0.027134074
49	0xbcdf1f73	-0.027236676
50	0x3d03e8dd	0.032204498
51	0xbcec3619	-0.02883439
52	0xbd008f58	-0.031386703
53	0xbd46d506	-0.048543
54	0x3d114df2	0.035474725
55	0x3d00ad0c	0.03141503
56	0x3a02e714	0.000499354
57	0x3d70dda9	0.05880514
58	0x3bc8a226	0.006122845
59	0xbc1c82fb	-0.009552713
60	0x3ca4b2c6	0.020104777
61	0x3bdf7217	0.0068190205
62	0x3abcc633	0.001440233
63	0x3d25607f	0.04037523
64	0x3d1fd3a9	0.039020214
65	0xbd0cdc40	-0.034389734
66	0x3b4bb892	0.0031085354
67	0x3c1a7064	0.00942621
68	0xbc1f2e32	-0.009715604
69	0x3bb7af38	0.0056056045
70	0xbd62b0cf	-0.0553444
71	0x3cd851e3	0.026406234
72	0x3d515b17	0.05111226
73	0xbd08c19d	-0.03338777
74	0xbd08f2ba	-0.033434607
75	0xbc0de6e6	-0.0086610075
76	0x3c9641e0	0.018341959
77	0x3caf6d47	0.021414412
78	0x3c978138	0.018494233
79	0x3cc93243	0.0245601
80	0x3ce6d679	0.02817844
81	0xbc2a2561	-0.010384888
82	0x3c631199	0.013859176
83	0x3c1f4c04	0.009722713
84	0xbc900700	-0.017581463
85	0x3c25a8df	0.010111063
86	0x3ae13f40	0.0017184988
87	0xbce72860	-0.028217494
88	0x3ac801dd	0.0015259344
89	0xbc10c909	-0.008836993
90	0x3d38fc80	0.045162678
91	0x3d0f27bc	0.034950003
92	0x3cde4a09	0.027134912
93	0x3c388893	0.011263031
94	0x3bb4f2a6	0.00552209
95	0xbd35c862	-0.044380553
96	0xbd0ded74	-0.03465028
97	0x3c60efd0	0.013729051
98	0xbcd0eec4	-0.025504477
99	0x3caf3d7c	0.021391623
100	0xbb705df1	-0.0036677087
101	0xbc8b8689	-0.017031925
102	0xbc427881	-0.011869551
103	0xbcc013a2	-0.023446862
104	0xbd023766	-0.031791113
105	0x3d6f53e5	0.058429617
106	0xbbefb208	-0.007314924
107	0x3c0e299e	0.0086769145
108	0x3cc70b09	0.024297254
109	0x3b84254d	0.004032767
110	0x3d6252fc	0.05525492
111	0xbb816bc1	-0.003949613
112	0xbceab82e	-0.028652277
113	0x3d1ad5eb	0.037801664
114	0xbce78498	-0.028261468
115	0xbce16c23	-0.027517384
116	0xbcad4e84	-0.021155603
117	0x3c55b889	0.013044485
118	0x3d2a2c94	0.04154642
119	0xbc784289	-0.015152582
120	0x3c85568a	0.016276617
121	0x3c273e98	0.010207795
122	0x3c5888c1	0.013216198
123	0x3c1e0dd8	0.009646855
124	0xbb8aa396	-0.0042309267
125	0x3b8513b8	0.0040611885
126	0xbb96e315	-0.004604707
127	0xbd4afeee	-0.049559526
128	0xbd7879ca	-0.060663022
129	0x3a7e573a	0.0009702329
130	0xb9e70d47	-0.00044069646
131	0xbb3c1f34	-0.0028705122
132	0xbd257b18	-0.040400594
133	0xbcdeef7d	-0.027213806
134	0xbd82b54f	-0.06382238
135	0xbccd5dc3	-0.025069123
136	0xbb3d2b02	-0.0028864746
137	0xbce46897	-0.027881904
138	0x3ca19c67	0.019727899
139	0x3d0fc868	0.03510323
140	0xbd025002	-0.031814583
141	0xbd52f56c	-0.051503584
142	0x3c7eee34	0.015559722
143	0xbc2b8131	-0.010467813
144	0xbcf15006	-0.029457103
145	0xbd6ca4f3	-0.057774495
146	0x3d08b87f	0.033379074
147	0x3c4dd3fd	0.012562749
148	0x3d1530aa	0.036423363
149	0x3cf1fa02	0.029538158
150	0x3d1de776	0.038550816
151	0xb9ac54ea	-0.00032869662
152	0x3d007328	0.03135982
153	0x3c0e1081	0.008670927
154	0x3d0006ad	0.031256367
155	0xbcc37d35	-0.023863414
156	0xbd117254	-0.035509422
157	0x3d5f338e	0.054492526
158	0x3d2d2971	0.04227585
159	0x3bc76bb5	0.0060858377
160	0xbcf45243	-0.029824382
161	0x3c84dfdf	0.016220031
162	0x3d741206	0.0595875
163	0xbb36618e	-0.0027829143
164	0xb9c99111	-0.0003844579
165	0xbd5c8124	-0.053834096
166	0xbcf18654	-0.029482998
167	0xbd231644	-0.039816156
168	0xbd43232b	-0.04764096
169	0x3d9c0da5	0.0761979
170	0x3c813a2e	0.015774813
171	0x3b7a5020	0.003819473
172	0x3afb926d	0.0019193419
173	0xbc80ef7e	-0.015739199
174	0x3ce04469	0.02737637
175	0xbca3cfa7	-0.019996477
176	0xbc5e972b	-0.013585846
177	0xbbe9cbe7	-0.0071349028
178	0xbb6c546c	-0.0036061062
179	0xbcb2e92f	-0.021839706
180	0xbbc2e577	-0.0059477645
181	0xbcd8de7e	-0.02647328
182	0xbcd89644	-0.02643884
183	0x3b9ef3c1	0.004850835
184	0x3c0b441c	0.008500125
185	0x3ca0c95a	0.019627262
186	0xbc1c09d6	-0.009523829
187	0xbcedbbe8	-0.029020265
188	0x3d180247	0.037111547
189	0xbc44a33b	-0.012001808
190	0x3c8e32cd	0.017358208
191	0x3cecb58f	0.028895168
192	0x3c8e8a9f	0.017400084
193	0xbc78ff1f	-0.015197544
194	0x3ce2b3a6	0.027673554
195	0xbc345f2e	-0.011009021
196	0xbd17203c	-0.036895975
197	0x3c02d92f	0.007986351
198	0xbca1b775	-0.0197408
199	0x3d00f7cf	0.03148633
200	0xbc3c1e91	-0.011481897
201	0xbc3075af	-0.010770245
202	0xbb07f6b8	-0.002074642
203	0xbc97f892	-0.018551145
204	0xbd4e05e6	-0.050298594
205	0x3cab6d11	0.02092603
206	0xbced64a2	-0.02897865
207	0xbd18dfd4	-0.037322834
208	0xbcad291a	-0.021137763
209	0xbd044cc0	-0.032299757
210	0x3cbf0a57	0.02332036
211	0xbca9f6ac	-0.020747505
212	0xbcd2f6a7	-0.025752379
213	0xbd33afda	-0.043868877
214	0x3cb2fba6	0.021848511
215	0xb9eb7e17	-0.00044916637
216	0xbcb8f950	-0.022579819
217	0xbcbe6a0f	-0.023243932
218	0xbd1587fb	-0.036506634
219	0xbcc233f0	-0.023706406
220	0xbcb5daf0	-0.022199124
221	0xbc9efed8	-0.019408628
222	0x3d1b9492	0.037983485
223	0x3cac38d8	0.021023199
224	0x3cb08129	0.021545963
225	0xbbcdddb0	-0.0062825307
226	0xbd0b1b55	-0.033961613
227	0x3bb07f55	0.005386273
228	0xbd108ca1	-0.035290364
229	0xbce2510a	-0.027626533
230	0xbce850da	-0.028358866
231	0xbc1626c8	-0.00916452
232	0xbc61fb78	-0.013792865
233	0xbd1cf1fc	-0.03831671
234	0xbc363b0d	-0.011122477
235	0xbce201d0	-0.027588755
236	0xbcf06265	-0.029343793
237	0xbba29f33	-0.0049628257
238	0xbcbd8fa7	-0.023139788
239	0xbd0eeb28	-0.03489223
240	0x3c7b29d4	0.015329797
241	0xbcee608c	-0.029098772
242	0xbd23c30f	-0.039980944
243	0xbd3bec8f	-0.045879897
244	0x3d1c71ea	0.038194574
245	0xbd284890	-0.041084826
246	0xbc857774	-0.016292311
247	0x3b4012a2	0.002930798
248	0x3a5970b8	0.00082946895
249	0x3d0dd078	0.03462264
250	0xbc1a4718	-0.009416364
251	0xbd4378da	-0.047722675
252	0xbcda283c	-0.026630513
253	0xbd2e367e	-0.042532437
254	0x3bd49fb0	0.006488763
255	0x3b9b034d	0.004730618

bias f4 [64]
0	0xbd82d254	-0.06387773
1	0xbd841d91	-0.06450952
2	0xbd83c439	-0.06433911
3	0xbde82b23	-0.11336353
4	0xbd9b937b	-0.07596489
5	0xbb6f7ace	-0.0036541703
6	0xbdae1064	-0.0849922
7	0xbda7fc12	-0.082023755
8	0x3c1174e4	0.008877967
9	0xbd978bf6	-0.07399742
10	0xbd4377e8	-0.047721773
11	0xbd9ba4c6	-0.075997874
12	0xbcb8a6e3	-0.022540515
13	0xbd44db86	-0.048060916
14	0xbce619f0	-0.02808854
15	0xbcc28de3	-0.023749297
16	0xbd8cff91	-0.06884683
17	0x3b580c6b	0.0032966386
18	0xbdd9b8ca	-0.10630949
19	0xbdde9925	-0.10869054
20	0xbd4d0eeb	-0.050063055
21	0xbe0c2389	-0.1368543
22	0xbcbea984	-0.02327419
23	0xbd638ecd	-0.055556107
24	0xbdcdecc6	-0.100549266
25	0xbe05f617	-0.13082157
26	0xbd8deb8e	-0.06929694
27	0xbde9dc1f	-0.11418938
28	0xbd57ac80	-0.052654743
29	0xbd7280a2	-0.059204705
30	0xbd897f0b	-0.06713685
31	0xbb867b30	-0.0041040406
32	0xbc0e6aae	-0.008692427
33	0xbcdb659e	-0.026781853
34	0xbd000151	-0.031251255
35	0xbbbe5e58	-0.0058095865
36	0xbd9e0e25	-0.077175416
37	0x3cc13357	0.023584051
38	0x3d07e9fe	0.033182137
39	0xbc4be2c9	-0.0124442065
40	0xbdbfcdf1	-0.09365452
41	0xbde390d1	-0.11111606
42	0xbdb33811	-0.08750928
43	0xbdcbf9f5	-0.09959785
44	0xbd0d743c	-0.034534678
45	0x3c1a5b0c	0.009421121
46	0xbd2f07a7	-0.042731907
47	0xbd544538	-0.051823825
48	0xbd2c32c2	-0.042040594
49	0xbd6281f7	-0.055299725
50	0x3b4c3515	0.003115957
51	0xbdeb8d1b	-0.11501523
52	0xbde42f98	-0.1114189
53	0xbcf1907f	-0.029487846
54	0xbbff6fde	-0.007795318
55	0xbe080b36	-0.13285527
56	0xbd90ecbb	-0.07076403
57	0xbc85a9ff	-0.016316412
58	0xbd46b5f0	-0.048513353
59	0xbdadfe10	-0.08495724
60	0xbd6aa4f3	-0.057286214
61	0xbd7e04ee	-0.06201642
62	0x3ccd75e0	0.025080621
63	0xbbbc1fab	-0.00574108

weight f4 [64, 1024]
0	0x3bc84aee	0.006112448
1	0xbd01690e	-0.03159433
2	0x39bf5a20	0.00036497507
3	0x3cb0dc14	0.021589316
4	0x3ca57a8a	0.020200033
5	0x3b95351f	0.0045534517
6	0x3b55de16	0.0032633594
7	0xbcbd130b	-0.02308037
8	0x3d059e59	0.032621715
9	0x3cc41738	0.023936853
10	0x3be5a069	0.007007648
11	0x3cd445d3	0.025912201
12	0xbcaaea12	-0.020863567
13	0xbd0c6a73	-0.034281205
14	0xbc85937d	-0.01630568
15	0xbbb95cc0	-0.0056568086
16	0xbccb05c7	-0.024783028
17	0xbceab4f8	-0.028650746
18	0xbc98fe89	-0.01867606
19	0x3ce87bb0	0.028379291
20	0x3bdc5861	0.006724403
21	0x3bce894e	0.006302989
22	0x3c0eb3b5	0.008709838
23	0x3c8b208b	0.016983291
24	0xba1eecd3	-0.0006062511
25	0x3c4ac620	0.012376338
26	0xbcd2aad4	-0.025716223
27	0xbbb78b98	-0.0056013577
28	0xbd3b15bb	-0.04567502
29	0xbceabb3b	-0.028653732
30	0x3d26ac2e	0.040691547
31	0x3d37d81f	0.044883844
32	0x3c92d41d	0.01792341
33	0xbd8ffffb	-0.07031246
34	0xbba8f652	-0.005156317
35	0xbc4692f8	-0.012120001
36	0xbca347e3	-0.01993174
37	0x3a7aab89	0.0009562304
38	0xbd0ce4c5	-0.03439786
39	0xbc0e9539	-0.00870257
40	0x3cff0ca1	0.031133952
41	0x3cbfd7d9	0.023418354
42	0x3d3813d1	0.044940773
43	0x3d1b192a	0.037865795
44	0xbcea85a0	-0.02862817
45	0xbbd8de20	-0.0066182762
46	0x3c44edee	0.0120196175
47	0x3d756bf6	0.059917413
48	0xbb3e6d52	-0.002905686
49	0x3c99eeb4	0.01879058
50	0x3b5ce499	0.003370559
51	0xbd408706	-0.04700377
52	0x3d6edec8	0.05831793
53	0x3caef3c2	0.021356467
54	0x3c3214bd	0.010869202
55	0x3d7866dc	0.06064497
56	0xbc268bbe	-0.010165153
57	0x3d50b980	0.050958157
58	0x3c961f91	0.018325599
59	0x3d3def13	0.046370577
60	0x3cf37606	0.029719364
61	0xbb0c0f5e	-0.0021371464
62	0xbc66fdef	-0.014098628
63	0xbb063a89	-0.0020481667
64	0x3bb20a78	0.005433377
65	0xbbaebf35	-0.0053328522
66	0x3bebfc4b	0.0072017065
67	0x3c201d4b	0.009772609
68	0x3d1c30ec	0.038132593
69	0x3c515b06	0.012778049
70	0x3ca49e26	0.020094942
71	0xbd233541	-0.03984571
72	0xbcb2b87e	-0.021816488
73	0xbcc42126	-0.023941588
74	0x3bababa0	0.005238965
75	0xbb81c263	-0.0039599403
76	0x3d4101ef	0.047120985
77	0xbbe27244	-0.006910594
78	0x3c9f8143	0.019470816
79	0xbb1fa303	-0.0024358637
80	0xbbf48ccc	-0.0074630734
81	0x3d0983f7	0.033573117
82	0x3d1242e0	0.03570831
83	0x3ae0c314	0.0017147982
84	0xbcd41320	-0.025888026
85	0xbbd341c5	-0.0064470493
86	0xbc9fdf78	-0.019515738
87	0x3cc96491	0.024584087
88	0xb9b19693	-0.00033872257
89	0xbb2d9350	-0.002648551
90	0xbbb92d96	-0.005651186
91	0xbc1b15e5	-0.009465669
92	0x3c494857	0.012285314
93	0xbcbfada9	-0.023398237
94	0xbbb526e4	-0.0055283178
95	0xbcfbf8aa	-0.03075822
96	0x3d3e8225	0.046510834
97	0xbc8d50ef	-0.017250506
98	0xbcab613f	-0.020920394
99	0xbc39ed56	-0.011348089
100	0x3cf73a11	0.030179055
101	0xba0d53d9	-0.00053912174
102	0xbcda4958	-0.026646301
103	0x3a4cf3b5	0.00078182976
104	0xbd0539a9	-0.032525692
105	0xbc9a203a	-0.018814195
106	0x3cd3cdcf	0.025854973
107	0xbc2610ad	-0.010135812
108	0x3c3e8bcd	0.011630011
109	0x3ba4d750	0.00503055
110	0x3c7a6b64	0.015284393
111	0x3cc17086	0.023613226
112	0xbccefb1b	-0.02526622
113	0x3c9dc8be	0.01926076
114	0xbc95b193	-0.01827315
115	0x3c653879	0.013990515
116	0x3d0e1ee5	0.034697432
117	0xbd0e1186	-0.03468468
118	0xbac2e2b2	-0.0014868586
119	0x3bf87cbd	0.0075832293
120	0x3ce93d95	0.028471747
121	0xbd016ece	-0.031599812
122	0x3be5c7f6	0.0070123626
123	0xbc0be552	-0.008538561
124	0xbc25ea7d	-0.010126707
125	0x3c00be64	0.007857893
126	0x3c6e997f	0.0145629635
127	0x3cc74953	0.024326956
128	0x3d077da1	0.033078793
129	0x3c91a60a	0.017779369
130	0xbcc8b878	-0.024502024
131	0x3d2ec0bc	0.042664275
132	0xbc7ef56c	-0.015561443
133	0xbc9d762e	-0.019221392
134	0xbcd2ee15	-0.025748292
135	0x3cee8257	0.029114885
136	0x3d2017c8	0.03908518
137	0x3cad5171	0.021156998
138	0xbcc7c83f	-0.024387477
139	0x3b9f96ec	0.004870286
140	0xbce4f8a0	-0.027950585
141	0xbcb4102a	-0.021980364
142	0xbc82271b	-0.015887788
143	0xbbce3986	-0.0062934784
144	0xbcddf76d	-0.02709552
145	0x3ad83637	0.001649565
146	0xbd1793a7	-0.037006047
147	0x3c9e3f2e	0.019317236
148	0xbcc9e0da	-0.02464335
149	0xbc6a6f40	-0.014308751
150	0xbc35ffb8	-0.011108331
151	0x3c1b75e9	0.009488561
152	0x3bbf2a2b	0.0058338842
153	0x3ce54c49	0.027990477
154	0x3cc8ef17	0.02452807
155	0x3d395b82	0.045253284
156	0xbcc22af4	-0.023702122
157	0xbd07b338	-0.0331299
158	0x3d15e69f	0.03659689
159	0xbbb296d3	-0.0054501086
160	0x3cefd536	0.029276472
161	0x3b5096c7	0.0031828152
162	0xbba36b61	-0.004987166
163	0x3c395e9e	0.011314062
164	0xbd155f28	-0.0364677
165	0xbd064bfd	-0.03278731
166	0xbc559f3e	-0.013038455
167	0xbd330a37	-0.043710914
168	0x3cc17433	0.023614978
169	0x3ccaa456	0.024736565
170	0x3cbf0b82	0.023320917
171	0xbc9d5a6c	-0.019208156
172	0xbbf7c0f8	-0.0075608455
173	0x3c27e904	0.010248426
174	0x3d228b43	0.03968359
175	0x3c2dd232	0.0106091965
176	0x3cb9a58f	0.022661952
177	0x3c7d50bd	0.015461144
178	0x3c801ea0	0.015639603
179	0xbb8b543d	-0.0042519853
180	0xbba0390a	-0.004889612
181	0x3cf7f411	0.030267747
182	0x3ccd6d3a	0.025076497
183	0xbcc1c696	-0.023654263
184	0x3bb1c6ff	0.0054253335
185	0xbd6e1309	-0.058123622
186	0xbcc9b5c7	-0.024622811
187	0x3c313559	0.010815942
188	0x3cbdd684	0.023173578
189	0xbc9e2ceb	-0.019308528
190	0xba967235	-0.0011478128
191	0xbd2b28b3	-0.04178686
192	0x3bcbcf48	0.006219778
193	0xb92dc3f7	-0.00016571568
194	0x3d81bc25	0.06334714
195	0x3d183454	0.03715928
196	0x3c808e8b	0.01569297
197	0xbd42f04d	-0.04759245
198	0xbc8bbdfb	-0.017058363
199	0xbcc1f96f	-0.02367851
200	0xbd259a05	-0.040430088
201	0x3ce0f3cc	0.027460001
202	0x3d130045	0.03588893
203	0xbbf466c4	-0.0074585397
204	0xbc533b68	-0.0128925815
205	0xbc52d71a	-0.012868667
206	0x39ce8238	0.00039388402
207	0x3d24927d	0.040178765
208	0xbc81824d	-0.015809203
209	0xbcbaaae4	-0.022786565
210	0x3d37fe15	0.044920046
211	0xbbd67c8b	-0.0065456084
212	0x3d4196c1	0.04726291
213	0x3d18bb8f	0.037288245
214	0x3c92b074	0.017906405
215	0xbbb2b69c	-0.0054538976
216	0x3cf0ccb1	0.02939448
217	0x3bdfe9c2	0.006833286
218	0x3cb167ff	0.021656035
219	0xbc2ce2a3	-0.010552081
220	0x39cb40b4	0.00038767385
221	0xbcae71d3	-0.02129451
222	0x3cdfd9cc	0.027325533
223	0xbcaf3736	-0.021388631
224	0xba315534	-0.00067647104
225	0xbcf02a47	-0.029317034
226	0xbd54b865	-0.051933665
227	0xbd6a1e06	-0.05715754
228	0x3cc36a95	0.023854533
229	0x3d19e037	0.037567344
230	0x3c9099f5	0.017651537
231	0xbc2c2fd8	-0.010509454
232	0x3c9fd8b7	0.019512517
233	0xbc217d9b	-0.009856607
234	0x3cc7f45f	0.024408517
235	0xbccefda9	-0.025267439
236	0xbab04cec	-0.0013450659
237	0xbca1736c	-0.019708358
238	0xbc43843f	-0.011933385
239	0xb9a482fc	-0.00031378109
240	0x3d1dc751	0.03852016
241	0xbcd01aee	-0.025403466
242	0x3b2aaa2e	0.0026041376
243	0xb89ab526	-7.377034e-05
244	0xbd224481	-0.03961611
245	0xbc5ddb52	-0.01354106
246	0x3c34b98e	0.011030568
247	0x3b61e57e	0.0034469063
248	0xbcd30e71	-0.025763722
249	0xbbebf811	-0.0072012027
250	0xb9cfb6dc	-0.00039618358
251	0x3d0ef6d8	0.034903377
252	0x3cb05dc1	0.02152908
253	0xbae078b2	-0.0017125814
254	0xbb45f16f	-0.003020372
255	0xbbd1f115	-0.006406913

bias f4 [64]
0	0xbd0eeb1b	-0.034892183
1	0xbc7ab600	-0.015302181
2	0x3a388f66	0.0007040411
3	0xbd4ff310	-0.05076891
4	0xbbf90491	-0.0075994213
5	0xbb79bc98	-0.0038106795
6	0x3c8d0468	0.017214015
7	0x3bb3a4c8	0.00548229
8	0xbc778272	-0.015106784
9	0xbc88856a	-0.01666518
10	0x3be9b245	0.007131847
11	0xbd0bd741	-0.03414083
12	0x3cb443ca	0.02200498
13	0xbc75b278	-0.014996164
14	0xbb3b1afa	-0.0028550015
15	0x3ba665c8	0.0050780512
16	0x3cb28cd2	0.021795664
17	0x3cb4b4d4	0.022058882
18	0x3c88d8eb	0.016704997
19	0x3c3fc537	0.0117047345
20	0x3cf6aba4	0.030111142
21	0xbc7fc453	-0.015610772
22	0x3b4a75e7	0.003089303
23	0xbcae171b	-0.021251252
24	0xbcce0c86	-0.025152456
25	0xbc1a118b	-0.009403597
26	0x3d285da9	0.041104946
27	0x3c00b8c2	0.00785655
28	0xbd4c9d22	-0.04995454
29	0xbb084919	-0.0020795523
30	0xbd4480d5	-0.047974426
31	0xbd45458e	-0.048162036
32	0x3d0f7a41	0.0350287
33	0x3ce34e81	0.027747395
34	0x3d914d67	0.070948415
35	0x3c6e8fc7	0.014560646
36	0x3c4fd505	0.012685065
37	0xbd311687	-0.043234374
38	0x3c632975	0.013864865
39	0xbb6bc65b	-0.0035976383
40	0x3b31a85d	0.002710841
41	0x3cab834e	0.020936634
42	0xbd1686e7	-0.036749747
43	0xbd6f9842	-0.058494814
44	0xbca320d8	-0.019913122
45	0x3d348f75	0.044082124
46	0xbc821e87	-0.015883697
47	0x3d940e72	0.07229318
48	0xbc1475f3	-0.009061324
49	0xbbd5beca	-0.006522988
50	0xbcf8de67	-0.030379487
51	0xbc74c2ad	-0.014938992
52	0xbc9743f0	-0.018465012
53	0x39f7145e	0.00047126686
54	0xbd4c1b56	-0.049830757
55	0xbc8de916	-0.017323058
56	0x3d20bddd	0.039243568
57	0xbc7f4309	-0.015579947
58	0xbd1aed7b	-0.037824135
59	0xbd4077f8	-0.04698941
60	0x3bb0e5e0	0.005398497
61	0x3d0b6119	0.034028146
62	0x3c9ed3f3	0.019388175
63	0x3d14374e	0.036185555

weight f4 [10, 64]
0	0xbdeb0b86	-0.11476807
1	0x3e72984c	0.23690909
2	0xbd52d351	-0.05147106
3	0xbc0e07c0	-0.00866884
4	0xbe381ef8	-0.17980564
5	0x3e5df267	0.216745
6	0xbe595551	-0.21223952
7	0xbc9ff7e5	-0.019527385
8	0xbdec0b3e	-0.11525582
9	0x3eb6f6a6	0.35735053
10	0xbdb64725	-0.089002885
11	0x3e9bbff9	0.304199
12	0xbe29ca04	-0.16580969
13	0xbe0e4b64	-0.13895947
14	0x3e135c08	0.14390576
15	0xbcd1c2d6	-0.0256056
16	0x3e025dc7	0.12731086
17	0x3e61676c	0.22012109
18	0x3d96179a	0.073287204
19	0xbe1eff6a	-0.1552712
20	0x3e257033	0.16156082
21	0x3dbdb975	0.09263889
22	0xbe0d6b39	-0.13810433
23	0x3e399bfc	0.1812591
24	0x3e17d175	0.14825995
25	0x3cd01012	0.025398288
26	0xbe35cb8e	-0.17753431
27	0x3e2530b0	0.16131854
28	0xbc227a9f	-0.00991693
29	0x3e2e7dee	0.17040226
30	0x3e5da184	0.21643645
31	0x3e1a2632	0.15053633
32	0xbe8e2754	-0.2776438
33	0x3d94bb28	0.0726226
34	0xbe599355	-0.21247609
35	0xbd7f3c92	-0.062313624
36	0x3cd5ed37	0.02611409
37	0x3e84dafb	0.2594832
38	0x3e29029a	0.16504899
39	0x3e48a708	0.19594967
40	0xbda88514	-0.08228508
41	0xbe3134dc	-0.1730532
42	0xbdca517f	-0.098788254
43	0x3e24f8aa	0.16110483
44	0xbd9fd5b5	-0.07804433
45	0xbdcc1abb	-0.09966036
46	0xbe59b4d9	-0.21260394
47	0xbe056edb	-0.1303057
48	0xbde982ee	-0.11401926
49	0x3e81ceec	0.2535318
50	0xbcd527aa	-0.02601989
51	0x3e47378b	0.19454782
52	0x3e377a9b	0.17917864
53	0x3e1df9f1	0.15427376
54	0xbcb71f75	-0.022353867
55	0x3ce56dcb	0.028006455
56	0x3e2cc032	0.16870192
57	0x3dca3cbd	0.09874866
58	0x3d930e9b	0.0718052
59	0x3df19591	0.11796106
60	0xbd7cf8a2	-0.061760552
61	0x3ca8f842	0.020626191
62	0xbcc2ff1a	-0.023803283
63	0xbd6aa3e3	-0.0572852
64	0x3e1fd3df	0.15608166
65	0x3e8a8efc	0.27062213
66	0xbd05bbd2	-0.032649823
67	0x3e56ae93	0.20965032
68	0x3c753859	0.014967048
69	0xbe8d0007	-0.27539083
70	0x3c0d9534	0.00864153
71	0x3e14a27e	0.14515111
72	0x3e7339fc	0.23752588
73	0x3deafacd	0.11473618
74	0xbdfc2ac3	-0.12312844
75	0xbda42f2b	-0.08016809
76	0x3e1ef945	0.15524776
77	0x3e21a282	0.15784648
78	0xbe45fc0e	-0.19334432
79	0x3d4d11fb	0.050065976
80	0xbe44ea01	-0.1922989
81	0xbeae5cd0	-0.34055185
82	0x3eafbdd9	0.3432453
83	0x3e65f9be	0.2245855
84	0xbe6ee721	-0.23330356
85	0x3e79f56a	0.24410024
86	0x3e29ebb8	0.16593826
87	0x3e89d517	0.26920387
88	0xbe103b14	-0.14085037
89	0xbe87afed	-0.26501408
90	0x3e1051ab	0.14093654
91	0x3dca48d0	0.09877169
92	0xbe4aafba	-0.19793597
93	0xbe9fe67d	-0.31230536
94	0x3e9643b7	0.29348537
95	0xbd9358c0	-0.07194662
96	0x3e9311e4	0.28724587
97	0x3d413f0f	0.047179278
98	0xbdc8f538	-0.09812397
99	0x3d562277	0.052278962
100	0x3ea5252a	0.32254916
101	0xbe6a5773	-0.22884922
102	0xbcc394fa	-0.023874748
103	0x3db4ed2c	0.088342994
104	0xbe033fb2	-0.12817267
105	0xbebc3890	-0.36761904
106	0x3e8c85b3	0.27445754
107	0x3e30ff22	0.17284825
108	0xbdbf32d4	-0.093358666
109	0x3e7c21f5	0.24622329
110	0x3ccec817	0.025241895
111	0xbe191e3d	-0.14952941
112	0x3e14eeef	0.14544271
113	0x3ddfb7fc	0.10923764
114	0xbe0bb167	-0.13641892
115	0xbcd78a3a	-0.026311029
116	0x3e07100e	0.13189718
117	0x3dfdf1b3	0.12399616
118	0xbe9ce412	-0.30642754
119	0x3e67b049	0.22625841
120	0xbcae1160	-0.02124852
121	0x3d3bb20c	0.045824096
122	0x3e0303e1	0.12794448
123	0x3c9555d7	0.018229408
124	0x3eac601e	0.33667082
125	0x3ddc0513	0.10743155
126	0x3de3af07	0.11117368
127	0x3e6beb36	0.23038945
128	0x3dffd517	0.124918155
129	0xbdc720fc	-0.09723088
130	0xbdae4c03	-0.08510592
131	0x3e2b32bf	0.16718577
132	0x3d8812e7	0.0664423
133	0x3e7cb663	0.2467895
134	0xbe6ac5f6	-0.22927079
135	0xbe8903aa	-0.26760608
136	0x3e2304f7	0.15919863
137	0x3e77333c	0.24140638
138	0xbb992629	-0.0046737385
139	0x3c1f1989	0.009710678
140	0xbdcbfefe	-0.09960745
141	0x3e4cc153	0.19995622
142	0xbe86adef	-0.26304576
143	0x3d408f3f	0.04701161
144	0xbdb9ef5a	-0.09078856
145	0x3ea8ef7a	0.32995206
146	0xbe6dc20b	-0.23218553
147	0x3d6f95c3	0.058492433
148	0x3def1f29	0.11675865
149	0xbc9e2edc	-0.019309454
150	0xbd7ac2ab	-0.061220806
151	0xbe3a14cd	-0.18171997
152	0xbdf8d69e	-0.1215031
153	0x3e930735	0.28716436
154	0x3b971104	0.0046101827
155	0xbe3c69ac	-0.18399686
156	0x3d5b827b	0.053591233
157	0x3c61abbd	0.013773856
158	0xbe7096d5	-0.23495038
159	0xbda6faf6	-0.08153336
160	0xbe238b59	-0.15971126
161	0x3d899cf4	0.067193896
162	0xbd7ce41b	-0.061740976
163	0xbdcaa810	-0.09895337
164	0xbe40d67b	-0.18831818
165	0x3e153a29	0.14572968
166	0x3c8a7e58	0.016905949
167	0x3e1d1da8	0.15343344
168	0x3dbd830c	0.09253511
169	0x3e3f9a0a	0.18711105
170	0xbd6080da	-0.054810382
171	0xbea36f29	-0.31920746
172	0xbdd37539	-0.10325093
173	0xbd4031f2	-0.04692263
174	0xbe5062ef	-0.2035024
175	0x3d89f06e	0.067353114
176	0xbd1cfa48	-0.038324624
177	0x3e2691fb	0.16266625
178	0x3e62f035	0.22161944
179	0x3e81e072	0.2536655
180	0xbd44c746	-0.048041604
181	0x3e7276d3	0.2367814
182	0xbe37354b	-0.17891423
183	0xbe447015	-0.19183381
184	0xbe78b379	-0.24287213
185	0xbc1bf262	-0.009518238
186	0xbd999921	-0.0749991
187	0xbe4e638e	-0.20155165
188	0x3da9a861	0.08284069
189	0x3d443eab	0.047911327
190	0xbe1db9fc	-0.15402979
191	0x3e028dfc	0.12749475
192	0x3e0588ed	0.13040514
193	0xbe1615a0	-0.14656687
194	0x3d5da2e7	0.054110434
195	0xbc470d2a	-0.012149135
196	0xbe1a2c1c	-0.15055889
197	0xbe8b3bfb	-0.271942
198	0xbe21a035	-0.1578377
199	0xbdd7ebc2	-0.10543014
200	0x3e354e1a	0.17705575
201	0xbe40e3d8	-0.18836915
202	0xbe242e8a	-0.16033378
203	0x3c80b762	0.015712444
204	0xbe19427d	-0.1496677
205	0xbd860946	-0.065447375
206	0xbe20a281	-0.1568699
207	0xbe3301f8	-0.1748122
208	0x3e85401f	0.26025483
209	0xbe47c693	-0.19509344
210	0xbe0f482e	-0.13992378
211	0xbe43c4a8	-0.19117987
212	0xbdcad5c9	-0.099040575
213	0xbe09e6ee	-0.13466999
214	0xbdedfc1e	-0.11620353
215	0xbe4a53b1	-0.19758488
216	0x3e028a0a	0.1274797
217	0x3dfd199d	0.12358401
218	0xbd16d259	-0.036821697
219	0x3c7a9e05	0.015296464
220	0x3c0cb4e4	0.00858805
221	0x3da832d3	0.08212819
222	0xbe39ce75	-0.18145163
223	0xbe20ae6a	-0.15691534
224	0x3db00819	0.085952945
225	0x3e15b173	0.14618473
226	0xbe3b5909	-0.18295683
227	0xbd8b039a	-0.06787796
228	0x3e2f68b3	0.17129783
229	0xbdbfac13	-0.093589924
230	0xbd14676b	-0.03623144
231	0x3dea26e2	0.114331976
232	0xbe460d31	-0.1934097
233	0xbdac74d8	-0.08420724
234	0x3dde92c6	0.108678386
235	0xbd81829f	-0.06323742
236	0x3d82ca56	0.06386249
237	0x3da71451	0.08158172
238	0xbd57aa1f	-0.052652474
239	0x3e03ba90	0.12864137
240	0xbe0caac1	-0.13737012
241	0xbe1c1204	-0.15241247
242	0xbe4cd007	-0.20001231
243	0xbce41fd2	-0.027847204
244	0xbe1127d0	-0.14175344
245	0x3d58c41e	0.052921407
246	0x3d6a2ff1	0.057174627
247	0xbe8265f0	-0.25468397
248	0xbd9e8efd	-0.077421166
249	0xbe0b2360	-0.13587713
250	0x3ddda273	0.10822
251	0x3e417c02	0.18894961
252	0xbe45754c	-0.19283026
253	0x3db7a6a3	0.0896733
254	0xbdd2e7fa	-0.10298152
255	0xbd9bf01b	-0.07614156

bias f4 [10]
0	0xbe496379	-0.19666852
1	0xbd64b71e	-0.055838697
2	0xbb4632d9	-0.003024271
3	0xbcb694c2	-0.02228773
4	0x3e383996	0.17990717
5	0xbce6da8e	-0.028180387
6	0x3d7ad632	0.06123943
7	0xbd453d70	-0.048154294
8	0xbcb9c76a	-0.022678096
9	0x3c01c3a6	0.007920181
