models/gpu_train_model28.pth (torch, 587335 bytes, 10 tensors)

weight f4 [32, 3, 5, 5]
000000 a6 2c 96 3d 32 81 4f 3e dc 19 35 3d 65 80 68 bd
       0.07332735 0.20264128 0.044214115 -0.05676307
000010 30 a7 17 be e6 9f 57 3d 6a aa 3f 3e 9c 1a 50 3e
       -0.1480987 0.052642725 0.18717352 0.2032265
000020 fb fc 05 be 8a cc 0b be 08 50 a3 3d 5f 94 14 3e
       -0.13084786 -0.13652244 0.07974249 0.14509724
000030 12 eb 0d 3c eb 2d 88 bd 1a a0 7e bd 8f 36 aa 3c
       0.008662002 -0.06649383 -0.062164403 0.020777969
000040 c1 75 36 be c8 76 09 be b0 f9 60 3d c6 07 7a 3e
       -0.17818357 -0.13424218 0.05492562 0.24417028
000050 f3 6f 40 be c3 57 38 be 69 7b b0 3d e8 62 dd 3d
       -0.18792705 -0.18002228 0.086172886 0.108098805
000060 cd bf 2f 3e ab e9 0f 3e 97 c6 1a 3e 20 e7 99 bd
       0.1716301 0.14053981 0.15114819 -0.07514787
000070 ab c2 da 39 5e ce f9 bd 63 f2 4b 3e 58 d1 98 3d
       0.0004172524 -0.121975645 0.19916682 0.07461804
000080 23 ef b4 3d 4d 66 22 be 50 b4 a4 bd 2c b1 c5 3d
       0.08834674 -0.15859337 -0.080422044 0.096529335
000090 6f ff 86 3d 6b ab 49 3d 7a 90 2e bd 5e 54 cc bd
       0.06591689 0.049235743 -0.042618252 -0.09977029
0000a0 fe 3e d6 bd 39 8d 68 be 10 51 e9 bc 96 01 08 3e
       -0.104612336 -0.22710122 -0.028481036 0.13281855
0000b0 44 34 81 3e 1f b2 f3 bd 78 33 8d bd 76 27 7b 3d
       0.25235188 -0.11899208 -0.068945825 0.06131693
0000c0 fd 16 a5 3d 61 d2 08 3e 14 e9 c4 3d 9b 24 c5 3d
       0.08061025 0.13361503 0.096147686 0.096261226
0000d0 36 04 41 be 38 0a 76 be 55 10 1f be 38 32 21 bc
       -0.18849263 -0.24027336 -0.15533574 -0.009838633
0000e0 05 85 81 3d e0 d0 98 bc 3c 04 88 be d3 c0 85 be
       0.063241996 -0.018654287 -0.2656573 -0.26123676
0000f0 b0 62 0d bd ac 01 7f bc b0 e9 9c bd 28 13 82 bd
       -0.034517944 -0.015564363 -0.0766176 -0.0635131
000100 ac ed 42 bd 89 3e f8 bd 5a ae e6 bd 28 6e 49 be
       -0.047589943 -0.12121303 -0.11263724 -0.19670928
000110 60 45 17 3e b3 51 f1 3d b8 72 4f be f6 76 94 bc
       0.14772558 0.11783161 -0.20258605 -0.018123131
000120 b3 47 c7 bc a0 14 ce bc db e8 ba 3c ff 3f 39 3e
       -0.024326181 -0.02515632 0.022816112 0.18090819
000130 b0 c9 c2 bc f1 a2 46 be d4 e1 57 bd 43 e7 d4 bd
       -0.023777813 -0.19398095 -0.0527056 -0.10395672
000140 a2 af 87 bd 98 cd 5b be a9 4e ae be 6e bd 45 3d
       -0.06625296 -0.21465147 -0.34044388 0.048276357
000150 dd 44 30 3e 8d 01 5c be e4 86 59 be d8 f6 13 be
       0.1721377 -0.21484967 -0.21242863 -0.14449632
000160 79 6a 7e 3e b5 d0 c3 3d e7 a1 d3 bc b2 6c 64 be
       0.24845304 0.09561292 -0.025834037 -0.22307089
000170 32 1c aa 3d fa e0 1a 3e 37 a3 66 3d 59 9e 31 3d
       0.08306159 0.15124884 0.056307998 0.043363903
000180 8a bc 48 be f4 d3 0e 3e 20 98 02 3e 9a 6e 07 be
       -0.19603172 0.13948041 0.12753344 -0.13225785
000190 30 55 65 3e a8 06 a4 bd c3 68 f4 bd 38 cc 48 3c
       0.22395778 -0.08009082 -0.11934044 0.012255721
0001a0 e5 dd 27 3e 21 b7 5d bc c1 22 17 bd ca d4 85 be
       0.1639324 -0.013532431 -0.03689838 -0.26138908
0001b0 68 33 34 3e 04 fe 56 3e 82 26 e0 bd cd fc 21 3c
       0.17597735 0.20995337 -0.10944845 0.009886933
0001c0 79 59 69 bd 9f 1f 6f 3e d1 c3 00 3e 3a 9c 38 3d
       -0.056970093 0.23351906 0.12574698 0.045070864
0001d0 c7 35 2c be cd 14 71 3e 16 f7 83 3e a9 45 64 3d
       -0.1681739 0.23543091 0.2577445 0.055730496
0001e0 52 2f e0 3c 83 68 47 3c 01 9d 46 3e e1 7a 42 3d
       0.027366314 0.012170914 0.1939583 0.047480468
0001f0 35 65 0c bd df 69 33 3e 75 b2 90 bc a0 1c 85 be
       -0.034276206 0.17520855 -0.01766322 -0.25998402
000200 52 09 8b bd 16 90 14 bd 48 b8 96 3b 03 01 9e bd
       -0.06788887 -0.036270224 0.0045996048 -0.07715037
000210 f3 9d 1f be 0a 75 d3 3d 30 68 a1 3d 2a a1 22 be
       -0.15587597 0.10325058 0.078812 -0.15881792
000220 16 7c e0 bc 53 19 44 3d 47 03 29 3e f4 a1 10 bd
       -0.027402919 0.047875714 0.16505156 -0.0353107
000230 65 b9 36 be 83 f2 2c be ca 86 b8 3d 08 2f 18 3d
       -0.1784416 -0.16889386 0.09010084 0.037154227
000240 64 01 4a bd 36 ec ff bd 26 c9 b3 bc 79 26 0e 3d
       -0.049317732 -0.124962255 -0.021946501 0.03470466
000250 73 b8 f1 3d 91 b8 87 bd 7a 51 f7 bd 9e c4 18 3e
       0.11802759 -0.06627 -0.12076087 0.14918754
000260 ad 9e a6 3d 36 02 6b bb 61 92 02 3c 00 e5 2c be
       0.08135734 -0.0035859472 0.00796947 -0.16884232
000270 6b 89 74 3e 26 3a 30 3e 84 94 df bd 34 6b a6 bc
       0.23880546 0.17209682 -0.10916999 -0.02031479
000280 4d 75 ec bd 31 7a 52 3e 4a ea 34 3e 33 d6 9e bb
       -0.11545811 0.20554425 0.17667499 -0.004847312
000290 1c 82 2c 3e 3d 87 53 3d 2b 49 7d 3e fd b4 c3 3b
       0.16846508 0.051642645 0.24734943 0.005972503
0002a0 12 1a 29 3d 08 6f 60 3e fd 9f af 3d b3 1d 0e 3e
       0.04128463 0.21917355 0.08575437 0.13878517
0002b0 3c dd ef 3d 51 c8 5f bb 00 a2 25 3e ee 1a 84 bd
       0.11712119 -0.0034146497 0.1617508 -0.06450449
0002c0 7b a5 61 3d f0 0c 3e bd 23 e4 9b bd dd dd 02 3e
       0.055089455 -0.046399057 -0.07611873 0.12779947
0002d0 2b d1 a4 bd 3f 8f d4 3c a2 50 09 bd 6a b7 4f 3d
       -0.08047708 0.025947211 -0.033524163 0.050712027
0002e0 63 28 97 3d 12 b0 44 be 65 a3 05 3d 02 d7 26 bd
       0.0738075 -0.1920779 0.03262653 -0.04073239
0002f0 da 16 32 be 4b e5 92 3d 38 c0 06 be 42 82 25 bd
       -0.1739153 0.071726404 -0.13159263 -0.040407427
000300 65 56 0e be 08 d9 ff bc 4c 53 25 3e 10 22 ef bb
       -0.13900144 -0.031231418 0.16145056 -0.0072977617
000310 3e 09 33 3d 2a 5c 03 3d a0 d7 96 3d 91 f7 21 3c
       0.043709986 0.032070316 0.07365346 0.009885685
000320 c0 cf 8d bd 9b b8 69 bd 32 27 43 bd b7 fe 2f 3d
       -0.06924391 -0.05706082 -0.0476448 0.042967524
000330 dc 47 d2 bd a3 49 61 be 77 af 0f 3d 58 52 16 be
       -0.10267612 -0.22000746 0.035079446 -0.14679849
000340 b7 f4 2e be 2f 74 1d 3d e1 6c 93 be d5 e0 45 bb
       -0.17085539 0.03844088 -0.28794006 -0.0030193825
000350 18 4d 02 be b2 6e 14 be 80 b5 a4 3d 2c 6c 07 be
       -0.12724721 -0.14495352 0.08042431 -0.13224858
000360 80 93 54 bd 3a 97 09 be 23 65 0d bd 51 1c cb 3c
       -0.05189848 -0.13436595 -0.03452028 0.024793776
000370 08 2d 46 be e8 21 81 3d 38 8b 22 be 98 46 84 3d
       -0.19353116 0.06305295 -0.1587342 0.06458777
000380 e2 b3 60 3d dc 69 ae 3d e9 5b f1 bd 13 ff a1 bd
       0.05485905 0.08516285 -0.117851086 -0.0790998
000390 f0 03 23 bd 83 02 f8 3d b6 b0 bd 3b bb 75 bf 3d
       -0.039798677 0.12109854 0.005788888 0.09348627
0003a0 d7 59 e7 bd 85 08 47 3c 2c 7b 94 3d b9 6c fd 3d
       -0.112964325 0.012148027 0.07250056 0.12374253
0003b0 d8 aa d9 3b 8a 04 83 3d dd f3 b2 bd 29 45 95 3d
       0.0066426806 0.0639735 -0.087379195 0.07288582
0003c0 11 9d 2a be fe f0 01 3e f0 1e f8 3d 5c c3 6f 3e
       -0.16661479 0.12689587 0.12115276 0.23414367
0003d0 8a 31 cb 3d ad c8 d3 bc cf 0b de bd 02 b1 e7 3d
       0.09921558 -0.025852526 -0.10842096 0.113130584
0003e0 0a 89 04 3e ba 29 79 bd d9 47 b4 bd 35 15 48 be
       0.12942901 -0.06083081 -0.08802766 -0.1953934
0003f0 5d 5e 5b 3d 6d 3e 06 3d 50 49 ec 3d a5 97 22 3e
       0.05355679 0.032774378 0.11537421 0.1587816

bias f4 [32]
000000 f8 0b a6 3d 33 b2 63 3d 60 aa 4d bd bf 47 3c be
       0.081077516 0.055589866 -0.05021131 -0.18386744
000010 07 d1 bb bd 43 b9 a2 3d 4e f2 60 3e 92 a2 01 3e
       -0.09170728 0.07945492 0.21967432 0.12659672
000020 78 99 5e bd 29 b6 46 3c 0f 04 2b 3e b8 e1 ae be
       -0.054345578 0.012128391 0.16700767 -0.34156585
000030 46 a1 a3 be 8e 39 da 3d 5c 31 04 be a5 45 9c be
       -0.3195898 0.10655509 -0.12909454 -0.30521885
000040 40 b3 7d be 69 d4 b0 3d 98 76 61 3e 2e fa 30 be
       -0.2477541 0.08634264 0.22017896 -0.17282936
000050 02 57 1b be f5 70 af be e7 79 1f bd 88 0f 04 be
       -0.1516991 -0.34265867 -0.038934615 -0.1289655
000060 55 0b 63 bd 66 3c 67 3d f8 6b 8b bd fe 5b 31 be
       -0.05543073 0.056454085 -0.06807703 -0.17320248
000070 c0 25 92 bd 84 4b 30 bd 20 7c 90 3d b9 2e 40 3d
       -0.071361065 -0.043040767 0.07054925 0.04691956

weight f4 [32, 32, 5, 5]
000000 df 79 28 bd a0 4c d1 3b 70 05 49 3c 93 f4 a9 3b
       -0.04113185 0.0063873082 0.012269363 0.005186626
000010 c1 b9 e3 3c ec 07 c1 bc 91 95 63 bc 60 ba 7a 3d
       0.027798535 -0.023563348 -0.01389064 0.061212897
000020 b0 5f 9f 3c 20 83 7c 3d 20 ed 98 bb c2 fe cb 3c
       0.019454807 0.061648488 -0.0046669394 0.024901751
000030 73 49 87 3d 55 38 0a 3d a1 bb 51 bb f1 16 b3 ba
       0.06605806 0.03374513 -0.0032002705 -0.0013663453
000040 dd 71 22 3d ed fa 90 3d 18 b9 30 3d 09 94 a6 3c
       0.03965937 0.0707911 0.04314527 0.02033426
000050 26 ff a5 3c 82 b8 b6 3c 5f 0f 3d 3c 3c 59 bf 3c
       0.020263266 0.022304777 0.011539309 0.02335798
000060 0c c3 d2 3c 64 bb 64 bc 25 b2 46 bd e2 f6 07 bc
       0.025727771 -0.013960693 -0.048509736 -0.008298608
000070 e9 53 6c 3c a1 a5 16 3d b9 83 ed 3b 70 19 b2 3b
       0.014424303 0.03677905 0.0072483686 0.0054351613
000080 1f d5 ac bc 23 47 7d 3c 7c 8d 62 3d e7 27 b3 bb
       -0.021097718 0.015458855 0.05531071 -0.005467403
000090 b7 cd b0 38 9b c2 21 3d 27 e5 85 3d 39 88 9b 3d
       8.430651e-05 0.03949223 0.06537848 0.07594342
0000a0 93 ee 87 bd a5 34 61 bd 28 c4 0b 3d 5a 38 0a 3b
       -0.06637301 -0.054981846 0.034122616 0.0021090717
0000b0 ec e7 de 3b 79 17 cb bc 69 54 56 bd 36 80 67 3d
       0.0068025496 -0.024791466 -0.052326594 0.056518756
0000c0 b3 aa d7 3c 7c 2e 1a 3d d9 ce d2 3b 88 2e 33 bd
       0.026326513 0.037641987 0.0064333496 -0.043745548
0000d0 2a bc de bc 71 64 17 3c fd 23 67 bc ab 69 c7 ba
       -0.027189333 0.009240256 -0.014107701 -0.0015213987
0000e0 88 4e bd bd 59 b0 8d bb 52 24 ff 3c 0e bd 39 ba
       -0.09243494 -0.004324001 0.031145249 -0.0007085361
0000f0 9e bb a0 bd cb 6b 45 bd 02 d6 2f bd c5 17 94 bc
       -0.07848285 -0.048198503 -0.042928703 -0.01807774
000100 04 40 29 bc 3e 2a d7 bc 28 5d 99 bd dc 96 34 bd
       -0.010330204 -0.02626526 -0.07488471 -0.044089183
000110 eb ba f1 3c da 5d db bc cd e0 b7 bc 55 e5 3b bc
       0.029508075 -0.02677815 -0.02244606 -0.011468251
000120 4a 02 ed 3b 98 d5 46 bc 93 d3 92 3c 5a be 15 bd
       0.007232939 -0.012135886 0.017923152 -0.036558487
000130 d6 f2 f3 ba 58 01 6b 3c 43 19 a9 3c 39 aa 0a 3b
       -0.00186118 0.014343582 0.020641929 0.002115859
000140 22 25 2a ba 61 0d 25 bb a7 fc a8 bc 52 87 2d bc
       -0.00064905186 -0.0025184976 -0.020628287 -0.010591345
000150 2d 87 79 bc cf 0f 1f bd cc 46 f1 bc 8e 8b bd bc
       -0.015229982 -0.038833436 -0.029452704 -0.023137834
000160 6b 33 24 3c ad d9 6b 3c 87 d1 73 bc a2 46 2f bd
       0.010022025 0.01439516 -0.014881498 -0.04279197
000170 6d 6f 4e bd 7b ce b5 bb 8b f0 27 bc e8 2a ff bb
       -0.050399233 -0.005548296 -0.010250221 -0.0077870972
000180 ef 4d c6 bb f9 a1 bc 3b 78 6a ea 3c cf 7b ce 3c
       -0.006051771 0.0057566133 0.028615221 0.02520552
000190 ee 76 ad 3c 43 9c 3d 3d 74 7e 0e bd 61 6f 45 3c
       0.021174874 0.0462916 -0.034788564 0.012050481
0001a0 5b a4 24 bd 74 e4 5f 3c e2 5a d7 3c 0a 49 36 3d
       -0.040195804 0.013665307 0.026288453 0.04450325
0001b0 69 e8 ba bb f3 fd 00 3b 8d f1 c1 3c 1a de 52 3d
       -0.005703975 0.0019682616 0.02367475 0.051481344
0001c0 61 05 cb 3a 6f 16 3b bb f1 d7 e2 3c 42 be 28 3d
       0.0015489274 -0.0028547307 0.02769086 0.04119707
0001d0 68 6e 18 3d 6d 14 ac bc b8 97 47 bd 74 6b 3a bc
       0.037214667 -0.021005834 -0.048728675 -0.011378158
0001e0 c7 b6 bd 3b bc b7 c7 3c aa 33 04 bd 1e f6 41 bd
       0.005789611 0.024379604 -0.032275833 -0.047353856
0001f0 9b c9 25 bc 8f 3a 00 3d 24 f9 28 bc 0b 26 b1 3c
       -0.010118867 0.031305846 -0.010313306 0.021624586
000200 3a 00 82 bc 6d 1a 7d bc 10 22 13 3d 49 3a a5 3c
       -0.015869249 -0.015448195 0.035921156 0.020169394
000210 9f b8 11 3d 02 8a 3e 3c 3e c6 95 bb 25 85 12 3d
       0.03557646 0.011629583 -0.0045707515 0.035771508
000220 ff 8c 3e 3c b7 dc 2e 3d 5e 24 01 3c cd f0 be bb
       0.011630296 0.04269096 0.007882206 -0.0058270455
000230 78 a1 45 3d 8c 1d 18 bc 6d f4 97 3b c3 25 29 bd
       0.04824969 -0.009284388 0.004637292 -0.041295778
000240 4e 74 6c ba ff c8 ac 3c b7 d5 b6 3c d5 37 ce 3b
       -0.00090200163 0.021091936 0.022318704 0.006293277
000250 27 08 21 bc a0 f5 57 bc 99 f1 34 bc 67 8c ca 3c
       -0.009828604 -0.01318112 -0.0110439295 0.024725152
000260 31 1d a7 3c cc 37 ab 3d 4d 66 36 3c 38 88 10 bc
       0.020399662 0.08360252 0.011132789 -0.00882154
000270 10 6d 5f 3d 99 7a 52 3d f3 3c 9b 3d de 5c 65 3d
       0.05454737 0.05138645 0.075799845 0.05599677
000280 c5 44 f9 bb c3 34 88 3d bc 97 26 3d 5f 36 56 3d
       -0.007607075 0.066506885 0.04067205 0.052297946
000290 3f b4 af 3d 45 43 ec bc 97 52 05 3d 74 71 0c 3d
       0.08579301 -0.02884067 0.032549467 0.034287885
0002a0 ea 38 8f 3d 29 5f 5f 3d f5 32 95 bc 48 50 21 bd
       0.06993277 0.05453411 -0.018212775 -0.039383203
0002b0 92 25 fb 3b ab 15 3d bd 63 08 e1 bc e2 6c b2 bc
       0.007664391 -0.046163242 -0.02746982 -0.021780435
0002c0 ec 4d cd 3b 28 f7 16 3c cc b6 ca 3c 5e ad 3d 3c
       0.0062653925 0.0092142 0.024745367 0.0115769785
0002d0 93 d8 cc 3c 7f 8f 01 3c 25 f8 7c 3d 6c e8 3b 3d
       0.025005614 0.007907747 0.061760087 0.04587595
0002e0 87 bb 43 3c d6 dd 1c bc 4b 75 dd 3c e4 7d f4 3c
       0.0119465655 -0.009574374 0.027033469 0.029845186
0002f0 47 d5 89 bc 91 1b 04 3b db 6d f6 3c 74 f2 7c bc
       -0.016825331 0.0020158032 0.03008168 -0.015438665
000300 cc be f9 bc b1 30 e6 bc a3 fe 9b bc 76 69 32 bc
       -0.030486487 -0.02809939 -0.019042319 -0.010889402
000310 9a 37 4e 3c 81 57 6d bd e8 a7 4e bd e5 32 41 bd
       0.012586499 -0.05794478 -0.050453097 -0.047167677
000320 f8 cf d8 3b 2f 25 67 bc d8 79 9d b9 62 82 95 bc
       0.0066165887 -0.014107986 -0.00030036154 -0.018250648
000330 cd e3 0a 3c 97 cf a3 bc 64 70 bd bc fc e1 de bc
       0.0084771635 -0.019996447 -0.023124881 -0.027207367
000340 ea c0 62 3c 89 68 9f bc d6 18 10 3d 21 30 bc 3b
       0.01383994 -0.019459026 0.035179935 0.005743042
000350 f2 46 78 bb f4 9b bf bc e8 d7 ee 3c 71 7c 52 3c
       -0.0037884084 -0.023389794 0.029155686 0.012847052
000360 e2 ab 23 3d 55 c1 12 3d 0c 32 83 3c 25 e2 ed 3a
       0.039958842 0.035828907 0.016015075 0.0018149061
000370 59 73 8f 3b 10 7c 1c bd 68 c0 ab 3c 9e 6b bc bb
       0.004377764 -0.038204253 0.02096577 -0.0057501337
000380 90 b8 35 bd dd 53 c5 3c 7c db 12 bd 2e e1 93 bc
       -0.044365466 0.02408784 -0.035853848 -0.01805171
000390 08 78 75 bd c2 b0 f8 bc 2d 31 55 bc e3 93 72 bd
       -0.059928924 -0.030357722 -0.013012213 -0.059223067
0003a0 b5 87 6e bc ec 0c 95 bd 07 97 11 bd 09 8b 1f 3b
       -0.014558722 -0.07277855 -0.03554442 0.0024344346
0003b0 ba 5c 84 bd 9e f2 28 bd 6f 84 13 3b 09 2a e4 bc
       -0.06462999 -0.041247003 0.0022509356 -0.027852075
0003c0 3d 51 f6 3c a4 09 08 bd ce 1d ed b9 b7 18 df bb
       0.030068034 -0.03321232 -0.0004522637 -0.006808366
0003d0 11 30 95 bc 83 fd 70 bc 97 6f 60 bd 94 b4 b2 3c
       -0.018211396 -0.014708879 -0.05479392 0.021814622
0003e0 80 d5 fc 3b 42 d8 fb bc f4 05 d7 3c a8 00 dd bb
       0.007715881 -0.030742768 0.026247956 -0.006744463
0003f0 df 1b ba bc 8e a3 13 bc eb cc 02 3d 89 7a 77 bc
       -0.022718368 -0.009011162 0.031933706 -0.015104898

bias f4 [32]
000000 ca b4 8e 3b ce d7 80 be 35 91 eb 3c 2d de 6d bc
       0.004355048 -0.25164646 0.028755764 -0.014518303
000010 f5 e0 09 be 66 56 12 3d 7c e7 1d bd 51 8e 11 be
       -0.1346472 0.035726927 -0.03855084 -0.14214446
000020 cf 05 f3 3b 48 1e cc bd d9 31 18 be 15 8e 80 3d
       0.007416464 -0.09966713 -0.14862765 0.062771
000030 fe 40 fb bd 02 a8 c2 bd 21 30 14 be 11 1f fa bd
       -0.12268256 -0.09504701 -0.14471485 -0.12212957
000040 ec 87 9a bd e3 26 1d be 94 d6 81 bd ae 68 30 be
       -0.07545456 -0.15346865 -0.06339756 -0.17227432
000050 e3 04 90 bc 2c 36 4a bd d1 ed ca bd 8f de 42 3c
       -0.017580455 -0.04936807 -0.09908641 0.011893882
000060 ad 66 1b 3d df 39 82 3c 94 de 77 be 83 c8 8d be
       0.037939716 0.015896736 -0.24206 -0.2769204
000070 d6 55 1a 3d 8d 41 0b be a7 60 5c bd 79 43 5b be
       0.037679516 -0.13599224 -0.053803112 -0.21412458

weight f4 [64, 32, 5, 5]
000000 36 7e 26 bd ab be d8 ba 76 9f ef bc dd 7e 2a bd
       -0.040647708 -0.0016536316 -0.029250842 -0.041624893
000010 a5 d3 4f bc ef 45 03 3d 1a 0c b4 3c 06 b5 f8 bc
       -0.012684737 0.032049116 0.021978427 -0.030359756
000020 42 2c a5 bc 84 49 84 bc f0 8d f5 bc 03 8b 3b 3c
       -0.020162705 -0.016148336 -0.029974908 0.011446717
000030 7b 3e 41 3b 0a 00 f3 bc 2c b4 30 bb 4b 8f fd 3b
       0.0029486704 -0.029663105 -0.002696286 0.007738029
000040 9b 99 25 bd c9 7d 1f 3b 6f 88 ba 3b 3e c0 a9 3d
       -0.040429693 0.0024336448 0.0056925337 0.082886204
000050 ac 3d 50 3c c8 b5 4a 3d f4 db fc 3b cd fa e9 bc
       0.012710016 0.049489766 0.00771665 -0.028561974
000060 5a 9f cd 3c 4d 8e b5 3d 09 b1 22 3d 36 04 10 bd
       0.025100399 0.08865032 0.039719615 -0.035160266
000070 4a 24 39 bd a5 8e 51 bd 6d 72 25 3d 56 96 6a b9
       -0.045200624 -0.051161427 0.040392328 -0.00022371984
000080 b9 bb ea 3a 96 db 84 bc 26 c5 cb bc db 40 a0 bc
       0.0017908729 -0.016217988 -0.024874281 -0.019562175
000090 81 f6 b3 3c d5 16 13 3c b5 e8 e6 3c ad 1a 53 3d
       0.021968128 0.008977612 0.028187135 0.051539112
0000a0 03 59 77 3b 5a 8c 8f 3c ee 7b 5a bb 8d 6c f4 bb
       0.0037742264 0.01752298 -0.0033338028 -0.0074592293
0000b0 20 4b 09 bd 78 6a c6 bb 69 9a ed 3c 83 4e 83 3d
       -0.03351891 -0.0060551725 0.029004293 0.06411459
0000c0 17 24 f6 bc 98 c5 fd bc 7d 1e 0f 3d d7 32 15 bd
       -0.030046506 -0.03097801 0.034941185 -0.036425438
0000d0 27 89 0e bd 81 76 44 bd ae e0 27 3d f7 37 ea 3c
       -0.034798767 -0.047964577 0.040985756 0.02859114
0000e0 94 11 c5 bb 6c 8b 7c 3d fa 42 e4 3b 47 95 9b 3a
       -0.0060140584 0.0616564 0.006965992 0.001187005
0000f0 6a 83 b5 3c 03 de 8b 3b 3a 9a 05 3c c6 ab 2c 3d
       0.02215739 0.004268409 0.008154446 0.042156003
000100 0c cd 23 3d 10 df 1f bd b2 f9 0e 3b fb 51 a7 3b
       0.03999047 -0.03903109 0.002181631 0.0051062084
000110 5b 0d 19 bc 60 c0 b5 3b 2b 0d 81 bd 14 3b 00 3d
       -0.009341563 0.0055466145 -0.0630134 0.03130634
000120 88 05 74 3d 4c 6b 08 bd 6c 60 0b bd 00 51 00 bc
       0.059575588 -0.03330545 -0.034027502 -0.007831812
000130 b5 05 97 3c a3 5d d7 3c c1 5c a1 3c 51 4e a7 3c
       0.018435339 0.026289767 0.019697549 0.020423086
000140 85 a9 f2 3c a0 3e 5c bc 19 3d 78 3c 40 3c 86 3c
       0.029621849 -0.013442665 0.015151286 0.016386151
000150 cf f4 8a bc 29 75 3c 3c af 90 00 3a 34 c0 f5 bc
       -0.016962437 0.0115025425 0.0004904372 -0.029998876
000160 40 33 0e 3c 35 c4 b5 bb 51 ff 4c 3d 47 0c 16 3d
       0.008679211 -0.0055470713 0.050048176 0.036632802
000170 0c 10 ef 3c 78 27 55 3c 0b e1 c7 3a ea db 44 bd
       0.029182456 0.013009898 0.0015249563 -0.04806129
000180 ea 68 14 bd 27 43 80 3c ee e7 b3 bc 61 1a c5 3c
       -0.036232866 0.01565702 -0.021961179 0.02406043
000190 ba cc b1 bb 26 1e a9 bc b2 f9 41 bc 89 cf c4 bc
       -0.0054260166 -0.020644259 -0.011839317 -0.024024742
0001a0 18 78 eb bc 0c 18 82 3d 57 d4 ce bb 8d 8d 05 3c
       -0.028743789 0.06352243 -0.006311934 0.008151424
0001b0 44 d8 ea 3c 21 f6 94 3b 77 cc 7c 3d e3 7b 7b bb
       0.028667577 0.0045459424 0.06171843 -0.0038373403
0001c0 61 46 b5 bc db 34 33 3d 1f 59 ee bc 0f fe e3 bc
       -0.022128286 0.04375158 -0.02909523 -0.027831106
0001d0 65 52 e1 bc 97 c9 29 3c 27 9e 14 3d c8 de 4e bc
       -0.02750511 0.010363004 0.03628364 -0.012626357
0001e0 d8 e5 a8 3c 97 e3 2d 3c 36 de 8f 3c 3c 5c 4e 3c
       0.02061741 0.010613344 0.017562013 0.012595233
0001f0 56 0b 9a bb 95 24 01 3c 77 2e 95 ba 85 49 4a bd
       -0.0047010584 0.007882257 -0.0011381645 -0.04938652
000200 6b 2a 7d bd 6f bb 06 3a 2a f3 4a bb 22 a1 30 3a
       -0.06180803 0.0005139624 -0.003096769 0.0006737878
000210 ee 0d 30 bd fe 48 13 bd c1 27 86 bd 33 8e d3 bc
       -0.042982034 -0.035958283 -0.06550551 -0.025824642
000220 cf 64 88 bb ce 74 ec bc 27 1c 99 3c 86 92 1c 3d
       -0.004162408 -0.02886429 0.018690182 0.038225673
000230 dc 7c 02 bd 77 dd 5a bd 68 a9 6f 3c d0 a1 1f bc
       -0.031857356 -0.05343386 0.014627792 -0.009743169
000240 e1 2a 0a bd c7 b9 7b bd da cd 03 3d bd 41 ef 3b
       -0.0337323 -0.061456468 0.032178737 0.007301538
000250 d6 91 0a 3d da 95 bb 3c 93 4a 20 3d 6d d4 44 3a
       0.033830486 0.022898603 0.03913362 0.00075084605
000260 cf 36 0b 3d 51 57 03 3c 42 56 19 3d 9f f4 f8 bc
       0.033987816 0.008016423 0.037435777 -0.030390082
000270 8a 95 08 bd 0d a6 76 3d 51 2a 2c 3d da eb 2f 3c
       -0.033345737 0.060216952 0.042032544 0.010737384
000280 25 08 0f bd 34 76 49 3c 40 2f 73 3d dc 85 91 bb
       -0.034919877 0.012296248 0.059371233 -0.004441006
000290 fd 09 8a bb 47 fb 6e bd 13 86 de bc c9 27 2a bd
       -0.0042126165 -0.058345105 -0.027163541 -0.04154185
0002a0 01 ad 32 bd 54 51 a8 3d 25 a5 ad 3c e1 14 7d 3b
       -0.04362202 0.08218637 0.021196911 0.003861718
0002b0 d6 12 c7 3a d2 67 89 bc bd cc f5 3c aa 33 95 bc
       0.0015188109 -0.016773138 0.030004853 -0.018213112
0002c0 6d 2d 8b bc 28 99 b0 bb 50 a4 a9 bb c1 f7 ac bc
       -0.016989434 -0.0053893514 -0.0051770583 -0.021114232
0002d0 ca df f3 ba 97 1a d8 bc 66 6a ef bc 92 7d 26 3c
       -0.0018606123 -0.026379867 -0.02922554 0.010161774
0002e0 f0 bf 30 3c 9f 45 a6 3c 45 79 23 bc 78 ef df bc
       0.010787949 0.02029687 -0.009977643 -0.027335867
0002f0 56 10 28 3d 4e 03 2b bc 43 9b 93 3c 49 12 d1 3c
       0.041031204 -0.0104378 0.01801837 0.025521414
000300 17 fe a5 3c 76 35 47 bc a3 90 de 3c 9b 89 05 bc
       0.020262761 -0.012158742 0.027168578 -0.0081504835
000310 98 09 0e bd 5c 5c 11 3c 0c b0 aa bc f4 17 ef 3c
       -0.034677118 0.008872118 -0.020835899 0.029186226
000320 08 23 8f bc 8b 0d 19 bc 5f 16 a0 ba 67 1b 9a bc
       -0.017472759 -0.009341608 -0.0012213698 -0.018811895
000330 cf 54 70 bd cd 37 a5 3c 7d 25 21 bd 51 67 39 bd
       -0.05867463 0.02016821 -0.039342392 -0.045264546
000340 7c 8b d9 bc 98 41 13 bd 71 85 bd 3c 05 84 c0 bc
       -0.02655577 -0.035951227 0.023134919 -0.023500452
000350 e2 f8 d1 bc 23 2d 45 bd 57 00 c5 3c a3 6a 80 3b
       -0.025631372 -0.04813875 0.024048014 0.003918962
000360 aa 05 0b bd 98 39 e4 bc 35 4d 1f bd bd f7 c2 bc
       -0.03394095 -0.027859494 -0.03889199 -0.023799771
000370 40 18 b7 bc d1 4c 7a bc 85 c4 34 3d df cf ad 3c
       -0.02235043 -0.0152771035 0.044132728 0.021217285
000380 20 bb c4 3c dd 91 0e bc f3 9d 03 bd 80 9e 5e 3c
       0.02401501 -0.008701769 -0.032133054 0.013587594
000390 c6 8b 1f bd 60 c5 05 bd a6 63 01 bd 29 3a 37 bc
       -0.038951658 -0.032658935 -0.031589173 -0.0111833
0003a0 cc e9 7c bc 6d d5 25 bd f4 05 74 bc f0 a4 fe bc
       -0.015436601 -0.04048674 -0.014893997 -0.031084508
0003b0 5a 80 02 bd c9 3a df bb 84 78 f6 bc 13 b5 2b bd
       -0.031860687 -0.0068124277 -0.030086763 -0.041920733
0003c0 74 2e b1 3c 2e d6 d7 bc 53 12 1c bd c3 c6 46 bd
       0.021628596 -0.026347246 -0.038103413 -0.048529398
0003d0 81 46 34 3d 83 6e 2d bd 4a 66 87 bc 79 79 f4 39
       0.04401255 -0.04234172 -0.016528267 0.0004662981
0003e0 99 3b a5 3a 2c 45 06 3d 4d 1b c3 bb f9 90 48 bd
       0.0012606262 0.03278081 -0.0059541822 -0.04896638
0003f0 53 d8 e5 bc 51 5a 26 bd c3 8e a6 3b 5f a4 cc 3b
       -0.028057253 -0.040613476 0.0050829365 0.0062451805

bias f4 [64]
000000 7d 4f 90 bd 34 53 8e bd ee 76 8c bd 0d 04 f7 bd
       -0.07046411 -0.069494635 -0.068586215 -0.120613195
000010 3b ca a8 bd 0b 44 bb bb 43 6f b8 bd 68 33 b6 bd
       -0.082416974 -0.0057148985 -0.090055965 -0.08896524
000020 81 ac f5 3a 29 a7 a5 bd 05 44 55 bd 08 52 aa bd
       0.0018743427 -0.08088524 -0.05206682 -0.083164275
000030 82 80 d4 bc 11 8d 5f bd af c6 06 bd 26 22 e8 bc
       -0.025940184 -0.05457789 -0.032904323 -0.028336596
000040 b1 d3 95 bd 21 4d 9b 3b 0e 23 e7 bd 18 82 ef bd
       -0.073157676 0.004739419 -0.11285983 -0.11694735
000050 af 9e 65 bd 30 5a 16 be 32 f3 ee bc 6c 85 74 bd
       -0.056059536 -0.14682841 -0.029168699 -0.059697554
000060 35 5e dd bd 47 46 0c be af 4e 9f bd ab fd fe bd
       -0.10808984 -0.13698684 -0.077786796 -0.12450727
000070 89 cd 6a bd cc 11 82 bd 80 17 97 bd 54 67 21 bc
       -0.05732492 -0.06351051 -0.07377529 -0.0098512955
000080 dd df 1b bc 6a b7 01 bd fa 1f 0a bd 5e 6b 0e bc
       -0.009513822 -0.031669058 -0.0337219 -0.0086925905
000090 c0 92 ac bd 87 08 bb 3c 08 17 f2 3c e6 82 8d bc
       -0.08426428 0.022831215 0.029551998 -0.017274331
0000a0 7a 6e c7 bd 03 dd f3 bd 58 d6 c3 bd 44 a1 da bd
       -0.097378686 -0.11907389 -0.09562367 -0.1067529
0000b0 b4 a1 26 bd 96 ae aa 3b 7f 88 58 bd 22 e3 5b bd
       -0.040681556 0.0052088005 -0.052864548 -0.053683408
0000c0 a9 02 35 bd 0d dc 7c bd 4c da 07 3a b2 67 fb bd
       -0.04419199 -0.061733294 0.000518237 -0.12275638
0000d0 30 db f2 bd cc 6d 0c bd 81 38 64 bc c4 0a 0d be
       -0.11858213 -0.034284398 -0.013929487 -0.13773638
0000e0 35 44 9d bd 4c dd d9 bc f5 ce 59 bd 79 4b bb bd
       -0.07679025 -0.02659478 -0.053175885 -0.09145255
0000f0 5c d8 7c bd 01 5c 92 bd 85 3c b3 3c 90 14 1d bc
       -0.061729774 -0.071464546 0.021879444 -0.009587422

weight f4 [64, 1024]
000000 34 0d 0d 3c ff f9 08 bd 0e bd 45 ba dd 0e b1 3c
       0.008609105 -0.03344154 -0.0007543125 0.021613533
000010 26 03 b0 3c 3a 67 a1 3b 43 63 cc 3a f4 12 d5 bc
       0.021485876 0.0049256356 0.0015593547 -0.026010014
000020 d4 49 01 3d 61 82 c9 3c aa 2c b2 3b af b4 da 3c
       0.03156455 0.024598302 0.0054374533 0.026697485
000030 b8 4f a1 bc 66 a2 12 bd 0b 15 91 bc f2 38 ff bb
       -0.019691333 -0.035799406 -0.01771023 -0.007788771
000040 93 aa c0 bc 84 c1 01 bd 38 f4 94 bc 57 cf f8 3c
       -0.023518836 -0.03167869 -0.018182859 0.030372305
000050 7f 3e 1d 3c f6 4b ff 3b 11 81 fb 3b 50 65 85 3c
       0.00959742 0.0077910377 0.007675298 0.016283661
000060 2a fa 29 bb 44 40 37 3c ce b5 dc bc 6c 3e 45 bb
       -0.0025936463 0.011184756 -0.02694216 -0.003009702
000070 ae 5e 43 bd 87 45 fb bc d4 e7 27 3d 9f 32 3b 3d
       -0.047697715 -0.030672802 0.040992573 0.045702573
000080 ca 05 a5 3c 2b 80 92 bd 9e df 4e bb 89 de 3c bc
       0.020144362 -0.07153352 -0.0031566392 -0.011527666
000090 78 f6 93 bc b8 08 55 ba 66 c1 19 bd 24 82 01 bc
       -0.018061861 -0.00081266044 -0.037537955 -0.007904563
0000a0 de 66 04 3d 73 37 a6 3c 07 5a 3b 3d 56 f0 1e 3d
       0.032324664 0.020290112 0.045740154 0.03880342
0000b0 7d b3 eb bc c5 73 92 bb 2c 12 6e 3c 09 70 75 3d
       -0.02877211 -0.004469367 0.0145307 0.0599213
0000c0 07 5d 45 b9 fa df b2 3c 0a 57 82 3b a3 5b 4a bd
       -0.0001882204 0.021835316 0.003977661 -0.049403798
0000d0 89 b8 73 3d 88 da b1 3c a1 58 f8 3b 42 d6 80 3d
       0.05950216 0.02171065 0.0075789248 0.062908664
0000e0 30 1a ef bb dd f7 49 3d 86 d0 77 3c 28 73 4e 3d
       -0.007296823 0.049308646 0.015125399 0.05040279
0000f0 d3 b4 03 3d b5 85 e7 ba e2 0e 2d bc 5b a7 e4 ba
       0.03215487 -0.0017663749 -0.01056263 -0.0017444895
000100 55 ac a0 3b cf d6 1d bb 60 60 a6 3b 1c 29 23 3c
       0.004903356 -0.0024084335 0.0050774068 0.009958532
000110 11 f6 0d 3d 33 41 83 3c fe 41 ac 3c 32 05 27 bd
       0.034658495 0.0160223 0.021027561 -0.04077644
000120 76 ba b2 bc 20 a9 c6 bc fa 78 44 3b 40 21 2f bb
       -0.021817427 -0.024250567 0.0029979334 -0.00267227
000130 7b c6 48 3d c2 f7 06 bc 32 2e a4 3c 24 5a d1 bb
       0.04901741 -0.008237781 0.020041559 -0.0063889194
000140 5d a2 05 bc b5 99 06 3d 87 57 25 3d 1f 84 11 3b
       -0.008156386 0.03286143 0.040366676 0.0022203994
000150 cb 60 e6 bc d1 d4 e3 bb 01 e8 83 bc b7 e5 c4 3c
       -0.028122326 -0.00695286 -0.016101839 0.024035318
000160 45 58 e3 ba b4 4d 59 bb 3c f7 97 bb 50 ae fd bb
       -0.0017345032 -0.0033157887 -0.004637627 -0.007741727
000170 e3 26 6f 3c d8 da b7 bc b8 53 07 bc e5 2c f8 bc
       0.014596674 -0.02244322 -0.008259706 -0.030294845
000180 51 07 46 3d 51 9f ac bc 1e b7 b6 bc ba 9f 43 bc
       0.04834682 -0.021072062 -0.022304114 -0.011939937
000190 2c 43 fc 3c 94 03 e0 39 6f db 07 bd 75 9b 4b bb
       0.030793749 0.00042727275 -0.033168253 -0.0031068001
0001a0 ef c8 0d bd 84 ef 90 bc e1 d9 d8 3c fe 68 2d bc
       -0.034615453 -0.017692335 0.02647108 -0.010584114
0001b0 0c 78 33 3c fc af 68 3b 43 b6 89 3c b0 4b ce 3c
       0.010953914 0.0035505285 0.016810542 0.025182575
0001c0 69 80 f0 bc 0e 91 ae 3c 51 74 83 bc c4 e7 45 3c
       -0.029358106 0.021309402 -0.016046675 0.012079183
0001d0 0b 1e 17 3d eb 24 19 bd 17 22 ee 3a 12 43 eb 3b
       0.036893886 -0.037388723 0.0018168119 0.0071796263
0001e0 19 f8 00 3d 64 ec 03 bd 54 1d 23 3c 8c 68 e7 bb
       0.031486604 -0.03220786 0.009955723 -0.0070620235
0001f0 80 d1 b6 bb 7d 5b 3d 3c 1c d2 80 3c cc ce c5 3c
       -0.0055791736 0.011557457 0.015725188 0.02414646
000200 75 75 19 3d b6 ad 8c 3c 5a a2 ce bc 85 86 41 3d
       0.03746553 0.017172676 -0.0252239 0.04724743
000210 3c 00 66 bc f5 d6 b6 bc 3c ff c2 bc 37 5c f4 3c
       -0.014038142 -0.022319296 -0.023803346 0.029829128
000220 b4 2d 25 3d 0e 87 b8 3c 09 4d d8 bc 94 f6 54 3b
       0.04032679 0.022525337 -0.02640392 0.0032495605
000230 ac 7b 07 bd fd 0c c3 bc 6a ec 8f bc a3 25 e7 bb
       -0.033076927 -0.023809904 -0.017568786 -0.007054047
000240 3c 53 e8 bc d9 1d 3f 3b 9a 42 1a bd 95 8c ad 3c
       -0.028360002 0.0029162078 -0.037661172 0.021185199
000250 28 5d e8 bc 12 a5 85 bc 57 a2 56 bc 03 ab ef 3b
       -0.028364733 -0.016314063 -0.013100228 0.0073140874
000260 0b 8d eb 3b 63 7a f3 3c 22 ee bf 3c 9c 67 46 3d
       0.0071884445 0.029721444 0.02342898 0.048438653
000270 4c e7 a4 bc 9d 23 0a bd 1e 58 1c 3d 7e 97 81 bb
       -0.020129822 -0.03372537 0.038169973 -0.003954827
000280 0f 0c ff 3c 50 ce ae 3a 3c 2b 1e bb fa 7b 60 3c
       0.03113368 0.0013336632 -0.0024134656 0.013701433
000290 c2 82 13 bd e8 2b 0e bd b9 65 6d bc 34 a5 45 bd
       -0.036013372 -0.03470984 -0.014489585 -0.048253253
0002a0 4f fd e1 3c e7 6d d8 3c 4f ec c8 3c e8 91 a0 bc
       0.027586607 0.026419593 0.024526743 -0.019600824
0002b0 3c 85 d5 bb 60 86 29 3c cf bf 28 3d 37 70 3b 3c
       -0.006516127 0.010346979 0.041198548 0.011440328
0002c0 09 61 ba 3c dc 2f 85 3c af b7 8d 3c c9 38 de bb
       0.022751348 0.016258173 0.017299501 -0.0067816717
0002d0 5d 43 8a bb f4 fd fe 3c d9 12 c9 3c cb ec bd bc
       -0.004219456 0.031126954 0.02454512 -0.0231842
0002e0 3d 6b c3 3b 66 c2 72 bd 45 9a cb bc 44 54 1f 3c
       0.0059637115 -0.059267424 -0.024853835 0.00972468
0002f0 bb e2 a8 3c 72 72 a5 bc 70 b6 b3 b9 ee f7 37 bd
       0.020615926 -0.020196173 -0.00034277467 -0.04491418
000300 68 7c 40 3b 17 e0 3a 3b 3f ee 85 3d c8 c4 1f 3d
       0.0029371027 0.0028514916 0.065395825 0.039006025
000310 5c 24 65 3c 43 c9 54 bd 01 e6 62 bc 0d 75 c3 bc
       0.0139857195 -0.05194975 -0.0138487825 -0.023859525
000320 cf 75 32 bd c6 3a f8 3c 2c 8e 0e 3d a4 c4 19 bc
       -0.043569382 0.030301463 0.034803554 -0.009385262
000330 32 52 46 bc 7f 89 73 bc e0 81 4c 3b 0c ea 24 3d
       -0.012104558 -0.014864325 0.0031205341 0.040262267
000340 a0 c5 82 bc e6 db c1 bc da fc 3f 3d 2c f3 ca bb
       -0.015963376 -0.023664426 0.046871997 -0.006193539
000350 62 97 49 3d e6 07 20 3d 9a 53 99 3c 90 be e1 bb
       0.049216636 0.039070033 0.018716622 -0.006889172
000360 29 aa 04 3d 17 19 a8 3b 5b 42 a3 3c 68 28 28 bc
       0.03238884 0.005129944 0.019929102 -0.01026354
000370 ab 60 37 3b 01 6f b8 bc 7c f8 e9 3c 52 a4 b2 bc
       0.0027981203 -0.022513868 0.02856087 -0.02180687
000380 29 a6 c9 ba 82 33 f4 bc 69 e3 5b bd c4 82 7b bd
       -0.0015384603 -0.029809717 -0.053683672 -0.061404005
000390 dd 1a e1 3c a3 86 1e 3d 3f 1e 99 3c f0 1a 04 bc
       0.02747863 0.03870262 0.01869118 -0.008063063
0003a0 46 90 c3 3c c0 81 ff bb ac 82 e0 3c 21 70 c8 bc
       0.023872506 -0.00779745 0.02740606 -0.02446753
0003b0 44 ad 31 bb 55 1c ab bc fc 1a 48 bc aa bb b4 3a
       -0.002711133 -0.020887533 -0.012213465 0.0013788838
0003c0 6f 9b 25 3d b0 f5 dc bc c3 0f f6 3a cc a4 2e 39
       0.040431436 -0.026972622 0.0018773008 0.00016655325
0003d0 52 32 25 bd c3 11 91 bc 6f ed 35 3c dc 5f d9 3b
       -0.040331192 -0.017708665 0.011103972 0.006633742
0003e0 d6 1e e5 bc 17 b5 18 bc bb 31 1c 39 42 60 0a 3d
       -0.027968805 -0.009320519 0.00014895845 0.033783205
0003f0 90 b9 af 3c e6 25 a1 ba 67 75 08 bb 3a 7b ea bb
       0.021450788 -0.001229462 -0.002082193 -0.007155803

bias f4 [64]
000000 38 c9 0e bd e7 bf 74 bc e9 ea ef 3a 28 ee 50 bd
       -0.034859866 -0.014938331 0.0018304262 -0.051008373
000010 2b 59 f3 bb e6 a1 3e bb de ce 95 3c a7 51 96 3b
       -0.007426401 -0.0029088198 0.018287119 0.0045873704
000020 93 1a 75 bc 1c 46 87 bc 3e 7a ea 3b 2b 98 11 bd
       -0.014959949 -0.016512923 0.0071556857 -0.03554551
000030 f7 9f b6 3c a0 08 86 bc 56 6b 84 ba 07 55 9a 3b
       0.022293074 -0.016361535 -0.0010102789 0.004709843
000040 f7 50 b8 3c 36 fe b5 3c 10 46 87 3c 38 35 2f 3c
       0.022499545 0.022215944 0.0165129 0.010693841
000050 7a 28 00 3d 73 7f 7f bc 60 3a 5b 3b 53 12 b2 bc
       0.0312886 -0.015594351 0.0033451542 -0.021737253
000060 ec aa c4 bc e8 35 09 bc fa 45 2a 3d ca eb f6 3b
       -0.024007283 -0.008374669 0.04157064 0.0075354325
000070 06 2b 4e bd e8 38 95 ba 4f 0d 48 bd bd 51 4a bd
       -0.050334 -0.0011384757 -0.048840817 -0.049394358
000080 4b 12 0d 3d c9 49 e0 3c 56 31 95 3d 0f 56 7a 3c
       0.034441274 0.027378934 0.07284801 0.015279307
000090 2b e9 49 3c fa 3b 33 bd 50 23 59 3c 6c eb 7b bb
       0.012323658 -0.04375837 0.013253048 -0.0038439883
0000a0 16 f4 54 3b 76 ae b6 3c e7 2f 1b bd 30 2d 75 bd
       0.003249412 0.022299986 -0.03788748 -0.059857547
0000b0 51 00 a1 bc e4 37 31 3d 7a 7a 72 bc 33 41 96 3d
       -0.019653471 0.043266192 -0.0147997085 0.073366545
0000c0 61 bd 29 bc 3a 80 e2 bb ab 6a f8 bc 78 39 7d bc
       -0.010360093 -0.0069122585 -0.0303243 -0.015455596
0000d0 9e 09 98 bc 79 11 c3 39 68 70 48 bd f1 32 90 bc
       -0.018559273 0.00037206316 -0.048935324 -0.017602416
0000e0 4e a9 25 3d 5e 8a 8a bc f6 a0 1d bd f8 10 41 bd
       0.040444665 -0.016911682 -0.038483582 -0.047135323
0000f0 4c d3 61 3b e6 10 09 3d 0c 2a a4 3c 32 54 15 3d
       0.0034458218 0.03346338 0.02003958 0.036457248

weight f4 [10, 64]
000000 50 c7 f0 bd d4 f4 7b 3e 28 15 52 bd a8 60 80 bc
       -0.11756766 0.24605113 -0.051289707 -0.01567109
000010 0b b6 42 be c1 9f 64 3e 6b 62 63 be 69 96 8c bc
       -0.19014756 0.22326566 -0.22205512 -0.017161565
000020 8b b8 fa bd b5 01 be 3e 89 74 bb bd fc 9e a2 3e
       -0.1224223 0.37110677 -0.09153087 0.3176192
000030 81 15 33 be 58 2d 11 be b0 81 1a 3e f7 ff e3 bc
       -0.17488672 -0.14177454 0.15088534 -0.027832014
000040 6d 77 08 3e 25 f3 68 3e b4 d6 a1 3d be 4c 23 be
       0.13326807 0.22749002 0.079022795 -0.15947244
000050 b1 77 2b 3e 43 7f c0 3d 6d c1 14 be c7 07 42 3e
       0.16744877 0.09399273 -0.14526911 0.1894828
000060 1a 1f 1b 3e d1 bc d2 3c 37 05 40 be 21 17 2f 3e
       0.15148583 0.0257248 -0.1875199 0.17098667
000070 35 3c 12 bc 53 77 35 3e fa 96 69 3e 89 8e 21 3e
       -0.008925487 0.177213 0.22811499 0.15777029
000080 23 74 93 be cb ba 9b 3d 6d 0e 65 be f0 64 80 bd
       -0.28799543 0.07603987 -0.22368784 -0.06269252
000090 43 3c e1 3c 96 2d 8c 3e 77 7f 30 3e d8 56 4f 3e
       0.027494555 0.2737853 0.17236124 0.20247972
0000a0 cb 55 ab bd 2e 9a 3b be a0 f3 d1 bd 03 ac 31 3e
       -0.08365973 -0.18320534 -0.10251546 0.17350774
0000b0 45 0e ac bd 53 62 cd bd 95 1d 66 be b9 5c 11 be
       -0.08401159 -0.100285195 -0.22472222 -0.14195527
0000c0 1a be f7 bd 0e b5 86 3e 90 8b d9 bc 60 39 4d 3e
       -0.12096806 0.2631001 -0.026555806 0.20041418
0000d0 b0 43 42 3e 82 b4 25 3e 10 71 b1 bc 5a 93 e0 3c
       0.18971133 0.1618214 -0.021660358 0.027414013
0000e0 cf 48 34 3e cc ab d8 3d 5e 74 9d 3d 66 65 f7 3d
       0.176059 0.10579643 0.07688211 0.12079887
0000f0 21 64 82 bd f1 f7 b7 3c 2b 53 cb bc 80 88 7a bd
       -0.06366754 0.022457095 -0.024819931 -0.061165333
000100 a5 71 28 3e 4e 45 8d 3e ea f8 0f bd a9 34 5d 3e
       0.16449602 0.27591938 -0.035149492 0.2160212
000110 e6 b4 33 3c 10 89 92 be c3 ff fe 3b 8a a4 1c 3e
       0.0109684225 -0.28620195 0.007781954 0.15297142
000120 60 7f 78 3e 4b 08 ea 3d 28 66 06 be 70 c6 9d bd
       0.2426734 0.11427363 -0.13124907 -0.077038646
000130 b6 45 25 3e 14 a8 28 3e 01 5d 54 be 09 7a 63 3d
       0.16139874 0.16470367 -0.20738603 0.055536304
000140 66 36 47 be af 9f b4 be 2a a6 b8 3e 19 8b 75 3e
       -0.19454345 -0.3527808 0.36064273 0.23978843
000150 cb 42 7c be 52 c4 82 3e e6 8e 31 3e 54 78 8e 3e
       -0.24634854 0.25540406 0.17339668 0.27826178
000160 33 29 16 be 84 1d 90 be 81 1f 17 3e e9 98 cd 3d
       -0.14664154 -0.2814752 0.14758112 0.10038931
000170 42 87 4f be 74 19 a6 be 4c 97 9c 3e 09 6c 91 bd
       -0.2026644 -0.32441294 0.3058418 -0.07100684
000180 23 4f 96 3e 85 f3 42 3d d7 ea ca bd ee f2 59 3d
       0.29357252 0.04759552 -0.099080734 0.05321019
000190 f1 01 aa 3e fa c5 70 be 64 57 cd bc e9 5c bb 3d
       0.33204606 -0.23513022 -0.025066085 0.091485806
0001a0 5c bb 06 be d2 ad c3 be dd 59 92 3e d6 09 35 3e
       -0.1315741 -0.38218552 0.28584185 0.17679533
0001b0 5c b7 c0 bd d1 d3 82 3e 35 cd d4 3c a1 82 21 be
       -0.09409973 0.25552228 0.025976757 -0.15772487
0001c0 d7 3b 1b 3e f3 2c dc 3d 0d 55 12 be 72 20 d4 bc
       0.15159546 0.10750761 -0.14290257 -0.025894377
0001d0 b7 17 0b 3e 5e 78 04 3e 7b fc a3 be f8 83 6f 3e
       0.13583265 0.12936541 -0.32028565 0.23390186
0001e0 c5 5e d7 bc 52 47 38 3d 35 12 09 3e 23 9c aa 3c
       -0.026290307 0.04498989 0.13385852 0.020826405
0001f0 a7 a9 b5 3e 10 74 e9 3d b2 04 ec 3d 11 12 78 3e
       0.35480997 0.1139909 0.11524333 0.24225642
000200 65 8a fb 3d 04 1e ce bd 7b c3 ac bd 0e 98 2f 3e
       0.12282256 -0.10064319 -0.084357224 0.17147848
000210 0c 9c 88 3d f2 03 84 3e 49 fc 72 be b6 32 8d be
       0.066703886 0.2578426 -0.23729052 -0.27577752
000220 31 97 29 3e 18 bc 7f 3e 26 f1 90 bb 1e 31 0f 3c
       0.16561581 0.24974096 -0.0044232784 0.008739738
000230 d3 ba ce bd e0 9b 56 3e b4 e1 8b be fb 32 4d 3d
       -0.10094228 0.20957899 -0.27320635 0.050097447
000240 66 cc c4 bd 1b ed af 3e fd e5 75 be af 60 7d 3d
       -0.096092984 0.34360585 -0.24013515 0.061859783
000250 72 e6 f7 3d 8c dd 95 bc 24 9f 79 bd 62 b5 45 be
       0.12104501 -0.018294118 -0.060942784 -0.19307473
000260 5e 1b 04 be d7 fc 95 3e ca 8c 6f 3b 30 9d 3f be
       -0.12901065 0.29294464 0.0036552423 -0.18712306
000270 92 ce 6c 3d e2 ca 38 3c 9b 69 7b be 08 9c ad bd
       0.05781419 0.01127884 -0.24552004 -0.08477026
000280 f6 43 20 be 32 e4 8c 3d 25 74 7e bd 53 6e d5 bd
       -0.15650925 0.06879462 -0.062122483 -0.10421433
000290 6f 17 4c be e0 7b 15 3e 61 44 c6 3c 9d 0f 24 3e
       -0.19930814 0.14598036 0.024202527 0.16021581
0002a0 27 7d c3 3d f2 fb 45 3e e5 f7 58 bd 6e f0 aa be
       0.09545355 0.19334391 -0.052970786 -0.33386558
0002b0 35 de dc bd 2e 11 39 bd da 6b 5a be b0 cf 97 3d
       -0.1078457 -0.0451824 -0.21330205 0.0741266
0002c0 52 7b 25 bd 91 05 2e 3e 7b e0 66 3e 30 13 85 3e
       -0.04040081 0.16994311 0.2254657 0.259912
0002d0 b1 45 60 bd 14 b2 78 3e 6a 52 40 be 8c f7 4c be
       -0.054753963 0.24286681 -0.18781438 -0.20016307
0002e0 a1 71 84 be aa 7d bb bb a9 84 a5 bd 4b 3c 5e be
       -0.25867942 -0.0057217674 -0.080819435 -0.21702687
0002f0 53 26 b8 3d ef 26 53 3d 2e 3c 20 be a3 e2 0a 3e
       0.08991685 0.0515508 -0.15647957 0.13563018
000300 5f 3c 08 3e 50 00 1e be 90 35 50 3d 1c 62 2d bc
       0.1330428 -0.15429807 0.05083233 -0.010582473
000310 a6 1e 1d be 62 0c 90 be a2 79 28 be dd 59 dd bd
       -0.15343723 -0.28134447 -0.16452649 -0.10808156
000320 f0 37 3e 3e 60 96 43 be db ca 2c be e1 4d 85 3c
       0.18576026 -0.19100332 -0.16874258 0.016272487
000330 c2 09 25 be 5b 89 8c bd 2c ea 24 be 68 e0 3a be
       -0.16117004 -0.06862136 -0.16104954 -0.18249667
000340 21 8e 8b 3e 3b f9 4d be 1d 55 19 be a1 44 50 be
       0.27256873 -0.20114605 -0.14973874 -0.2033868
000350 30 02 d6 bd 28 fd 0d be 4d ad f5 bd da 32 51 be
       -0.10449636 -0.13866103 -0.11995945 -0.20429555
000360 57 53 0c 3e c5 55 01 3e 6e c8 26 bd f7 93 8c 3c
       0.13703667 0.12630375 -0.04071849 0.017160399
000370 d4 6d e0 3b 98 2a b8 3d 28 a0 40 be e4 53 25 be
       0.00684903 0.08992499 -0.18811095 -0.16145283
000380 69 f6 b8 3d e4 3e 1b 3e 28 fd 44 be a4 91 8b bd
       0.09031374 0.1516071 -0.19237196 -0.06814888
000390 b2 19 39 3e b3 b9 c6 bd 36 ae 14 bd c4 79 eb 3d
       0.18076208 -0.09703388 -0.036298953 0.11497834
0003a0 f6 1f 4a be 98 2f b5 bd 54 a8 e4 3d dd 81 86 bd
       -0.19738755 -0.088469684 0.111649185 -0.06567738
0003b0 27 20 85 3d 2e a0 ac 3d ee 86 5b bd 6c 5e 05 3e
       0.06500273 0.08428989 -0.053595476 0.130243
0003c0 43 b9 11 be f5 2d 1f be 7a 35 55 be 35 63 f7 bc
       -0.14230828 -0.15544875 -0.20821181 -0.030198673
0003d0 2f 4f 12 be 3a ca 56 3d f6 bf 81 3d 04 04 89 be
       -0.14288019 0.052438952 0.06335442 -0.26760876
0003e0 0f 16 a3 bd 22 22 11 be 20 58 eb 3d b2 f8 49 3e
       -0.07963192 -0.14173177 0.11491418 0.19723776
0003f0 51 25 4d be bd 56 c0 3d 99 13 e3 bd b0 61 a6 bd
       -0.20033766 0.09391544 -0.11087722 -0.08124101

bias f4 [10]
000000 67 42 4a be cf 03 70 bd b1 a6 6a bb f0 c6 ab bc
       -0.19751893 -0.058597382 -0.0035804922 -0.020968884
000010 be 7a 3c 3e 06 ed e8 bc b5 aa 7a 3d 9c 2c 47 bd
       0.18406197 -0.028433334 0.061197955 -0.048626527
000020 60 d1 c1 bc 00 fb 08 3c
       -0.023659408 0.008360624
