models/gpu_train_model22.pth (torch, 587335 bytes, 10 tensors)

weight f4 [32, 3, 5, 5]
000000 5e c2 95 3d 76 7e 49 3e 9b 05 38 3d 28 8d 4e bd
       0.07312463 0.19677147 0.04492722 -0.050427586
000010 bd 1b 14 be e7 ae 28 3d f1 d4 26 3e ca 09 3b 3e
       -0.14463706 0.041182425 0.16292168 0.18265453
000020 40 2d f0 bd 1b 98 ef bd cf 2a 92 3d ea 0e 0e 3e
       -0.11727381 -0.11698934 0.07137071 0.13872877
000030 33 85 68 3b 92 23 7d bd 4a 16 38 bd 5e ba ed 3c
       0.0035479784 -0.0618015 -0.04494313 0.02901953
000040 d6 8f 14 be f0 71 f2 bd a6 de 10 3d 46 0d 69 3e
       -0.14507994 -0.11838138 0.035368584 0.2275897
000050 51 6b 30 be 3a 3f 20 be 34 cc bc 3d bc bd d2 3d
       -0.17228438 -0.15649119 0.09218636 0.10290095
000060 7f fa 28 3e 4d 67 08 3e 8c fa 12 3e 04 43 94 bd
       0.16501807 0.13320656 0.14353389 -0.07239345
000070 8d 3d 06 3c be 54 f4 bd 1a f0 39 3e 31 56 42 3d
       0.008193386 -0.11930226 0.18157998 0.04744548
000080 a1 1e 88 3d d9 3c 17 be 33 8e 80 bd 97 57 a9 3d
       0.06646467 -0.14769305 -0.06277122 0.082686596
000090 a1 54 68 3d c5 5d 1b 3d d6 2d 3d bd e3 01 b3 bd
       0.056721333 0.037931222 -0.04618629 -0.08740594
0000a0 c5 52 cf bd e5 30 4a be d2 14 9e bc 13 d3 d9 3d
       -0.10123209 -0.19745214 -0.019297037 0.10635962
0000b0 5d 76 6d 3e 63 7f e4 bd 84 d4 5a bd cd 1a 75 3d
       0.23189683 -0.111571096 -0.053425327 0.059840012
0000c0 19 05 8e 3d 49 27 fa 3d fc f6 c0 3d e0 b1 ca 3d
       0.06934566 0.12214524 0.094221085 0.09897208
0000d0 ed 5a 32 be de 82 64 be ec 4b 16 be ec 4a b2 bc
       -0.17417498 -0.22315547 -0.146774 -0.021764241
0000e0 8f 67 3b 3d 3a 5a f0 bc fd 62 7a be df e3 70 be
       0.045753058 -0.029339898 -0.24451824 -0.23524426
0000f0 35 7b 2a bd 99 12 85 bc d0 85 9e bd 62 ab 6b bd
       -0.041621406 -0.01624422 -0.077403665 -0.05753649
000100 7e 71 d3 bc db 3d eb bd 15 00 a5 bd 64 56 3c be
       -0.025810953 -0.11486407 -0.08056656 -0.1839233
000110 22 01 01 3e b2 56 cf 3d f4 07 47 be d3 81 18 bb
       0.12598088 0.10123958 -0.19436628 -0.002327074
000120 8f bc d6 bc 8c 3a 15 bd bf e1 40 3c 95 3d 20 3e
       -0.026212959 -0.036432788 0.011772572 0.15648492
000130 0e ea 08 bd 42 2c 2c be 21 b9 24 bd 6f c8 cb bd
       -0.033426337 -0.16813758 -0.040215615 -0.09950339
000140 a6 e7 b1 bd 67 e0 4c be 97 ef 9a be 8b 6c 18 3d
       -0.086867616 -0.20007478 -0.30260918 0.03721289
000150 af dd 20 3e a3 62 55 be 8c 77 40 be 51 c5 0a be
       0.15709566 -0.20838408 -0.18795604 -0.13551833
000160 e1 8b 5e 3e f1 a6 ba 3d 38 31 4a bc e0 33 52 be
       0.21733047 0.09113873 -0.012340836 -0.20527601
000170 b8 95 81 3d 0e 6d 01 3e 28 17 97 3d 9b 91 38 3d
       0.06327385 0.12639257 0.073774636 0.045060735
000180 78 ab 4a be de 7f f2 3d 12 74 01 3e b0 41 e6 bd
       -0.19791973 0.11840795 0.12641934 -0.11242998
000190 51 6b 50 3e ab 13 b6 bd 42 00 c5 bd d4 e1 a1 3c
       0.20353438 -0.0889047 -0.0961919 0.019761004
0001a0 83 1d 27 3e fd a5 15 bd 50 3f e7 bc 83 3a 6c be
       0.16319852 -0.036535252 -0.028228432 -0.23069195
0001b0 3e 23 23 3e 93 59 44 3e 11 90 e3 bd 06 1a ce 3c
       0.15931413 0.19174795 -0.11111463 0.025158893
0001c0 74 00 5b bd 28 30 4c 3e fa d2 f7 3d d9 20 47 3d
       -0.05346723 0.19940245 0.121007875 0.04861531
0001d0 32 65 21 be 1b d0 5c 3e bc ad 6e 3e 18 1c 96 3d
       -0.15761259 0.21563761 0.23308462 0.07329577
0001e0 b9 d6 c9 3c 11 bd 28 3c c7 78 39 3e dc d9 5d 3d
       0.02463852 0.010298983 0.18112479 0.054162845
0001f0 c6 c3 18 bc 7e a5 22 3e f6 d3 d7 bc 75 73 76 be
       -0.00932402 0.15883443 -0.026346188 -0.24067481
000200 c2 2a 7e bd b4 e2 0a bd 88 17 7c bc 0d 29 8e bd
       -0.062052496 -0.033907607 -0.01538647 -0.069414236
000210 c8 1b 01 be da c1 b8 3d 3c a2 8e 3d 3b 6e 21 be
       -0.12608254 0.09021349 0.069645375 -0.15764706
000220 01 3a 29 bc e3 b4 66 3d 7a f7 0e 3e 25 19 f8 bc
       -0.010328771 0.05632485 0.13961592 -0.030285427
000230 d2 6e 2e be 2b 8f 1c be ec c4 a0 3d 7c e0 98 3c
       -0.17034462 -0.15288989 0.0785006 0.01866173
000240 d9 19 ed bc ce 3e 00 be 55 07 b5 bc f3 1a d8 3c
       -0.02894299 -0.12523958 -0.022098223 0.026380038
000250 cd 42 00 3e 91 5f 2e bd 25 a8 d9 bd 2c 31 12 3e
       0.12525482 -0.042571608 -0.10627774 0.1427657
000260 02 7c ad 3d 63 f4 89 3b 67 dd 82 3c 00 42 23 be
       0.08470918 0.0042100414 0.015974713 -0.15943146
000270 13 4b 60 3e b8 3d 2f 3e 1b dc d7 bd 8f 4e b6 bc
       0.21903639 0.17113388 -0.10540029 -0.022254257
000280 57 dd de bd ac e0 32 3e 9d 54 32 3e e0 29 3a bb
       -0.10882061 0.17468518 0.1741509 -0.0028406307
000290 4d b7 1e 3e bd 43 7d 3d 91 c2 62 3e 31 b9 0d 3b
       0.15499611 0.06183218 0.22144534 0.0021625275
0002a0 66 64 28 3d 0b b3 53 3e 14 73 b3 3d 3e 1d fd 3d
       0.041111372 0.20673768 0.08762184 0.12359093
0002b0 69 d4 f1 3d b0 60 d5 b8 26 26 22 3e 10 8b 5d bd
       0.11808092 -0.00010174641 0.15834865 -0.0540877
0002c0 7b 08 45 3d 19 14 3a bd b3 a7 9e bd ef b8 fe 3d
       0.04810379 -0.045429323 -0.0774683 0.12437617
0002d0 73 36 8e bd fc d9 5f 3c d1 d4 e2 bc d8 b2 5a 3d
       -0.06943979 0.013662811 -0.02768937 0.053393215
0002e0 f2 59 89 3d ae 80 33 be c5 7d 9a 3c e5 f9 d3 bc
       0.06706609 -0.17529556 0.0188588 -0.025875995
0002f0 86 45 26 be 9d 6d 83 3d 33 bd eb bd df ea 5f bd
       -0.16237459 0.064173914 -0.11510696 -0.05466735
000300 94 66 04 be 4b 61 ca bc d8 64 1a 3e f9 2d a0 bb
       -0.12929755 -0.024704596 0.15077531 -0.004888293
000310 27 26 04 3d a4 56 1b 3d 62 35 9a 3d 3a 0e 9a 3a
       0.032262947 0.037924424 0.07529713 0.0011753507
000320 a9 0a 83 bd ad a8 82 bd 56 f9 3a bd 65 61 1d 3d
       -0.06398518 -0.063798286 -0.04564794 0.03842296
000330 5d 71 e8 bd 04 cd 59 be 6b dc ea 3c 17 0d 0b be
       -0.11349747 -0.21269614 0.028669557 -0.13579212
000340 c9 10 2e be 0d a9 e1 3c 76 44 8b be 7f d0 d7 bb
       -0.1699859 0.02754643 -0.2720067 -0.006586134
000350 04 f1 d5 bd 7b 95 09 be 2a 26 8f 3d d6 53 ed bd
       -0.10446361 -0.13435929 0.06989701 -0.11588256
000360 b2 e1 68 bd 4a eb ef bd 0a 00 e1 bc e7 6e 3d 3c
       -0.056855865 -0.117148 -0.027465839 0.011562086
000370 2d 1b 46 be f1 b6 5f 3d 95 40 1c be 0c a2 77 3d
       -0.19346304 0.054617826 -0.15259011 0.060457274
000380 3c 86 1c 3d 78 68 b6 3d 50 2b c9 bd 95 1c 9c bd
       0.038213953 0.089066446 -0.09822714 -0.07622639
000390 a4 bc 77 bd 8b 3d e5 3d fd 78 07 bc 84 2b bc 3d
       -0.060482636 0.11193379 -0.008268592 0.091879874
0003a0 17 c2 be bd 9c bf 90 3c 6f 51 93 3d 42 64 f0 3d
       -0.093143634 0.017669491 0.071932666 0.11737873
0003b0 b5 a9 db bb 0a 90 9e 3d f8 8a 92 bd f6 b9 af 3d
       -0.0067035803 0.07742317 -0.071554124 0.08580391
0003c0 e9 6d 14 be 6c f9 03 3e ca c8 d7 3d f6 86 5b 3e
       -0.14495052 0.12888116 0.10536344 0.21438202
0003d0 c3 d3 ba 3d e4 69 39 bc e4 b7 bc bd 7a 7b de 3d
       0.091224216 -0.01131675 -0.09214762 0.10863395
0003e0 5e 08 f2 3d 92 c7 64 bd 5c de ab bd a7 3a 34 be
       0.11818002 -0.055854388 -0.08392021 -0.17600499
0003f0 cc 74 5b 3d a2 ba b9 3b 66 72 cd 3d 59 64 12 3e
       0.053578183 0.0056680003 0.100315854 0.14296092

bias f4 [32]
000000 2a 0c a4 3d a5 98 67 3d b4 51 1c bd 45 07 3a be
       0.080101326 0.056542058 -0.038163856 -0.18166836
000010 76 f8 b6 bd 65 58 d7 3d 3b 46 4b 3e 4a 71 00 3e
       -0.08934109 0.10514907 0.1985101 0.12543216
000020 b6 14 8a bd 75 1b a2 3c ab e5 31 3e 7d 76 a6 be
       -0.067422315 0.019788483 0.17372768 -0.32512274
000030 d2 27 a0 be 50 4b d2 3d 0b ff 02 be 3a 87 96 be
       -0.3128038 0.10268271 -0.12792604 -0.29400045
000040 b3 74 6e be f9 74 87 3d ec 4d 5c 3e 85 93 34 be
       -0.23286705 0.06614108 0.215141 -0.17634399
000050 c9 a7 12 be f9 e3 b0 be d3 2d 0f bd 28 ee ef bd
       -0.14321817 -0.3454893 -0.03495581 -0.117153466
000060 fe 79 6d bd 9a 3e 3e 3d c7 5a 5c bd db 3f 1f be
       -0.05797767 0.04644642 -0.05379751 -0.15551703
000070 13 89 8e bd 2a 99 37 bd b2 0e 82 3d c7 64 72 3d
       -0.069597386 -0.044823803 0.06350459 0.05917814

weight f4 [32, 32, 5, 5]
000000 e9 e8 f4 bc fa 8a 3a 3c ba ac 48 3c 07 45 5a b9
       -0.029896216 0.011385674 0.0122482125 -0.00020815815
000010 8d e4 f2 3c 30 4c 3c bc 68 65 56 bc 3e f6 50 3d
       0.029649997 -0.011492774 -0.013085701 0.051016085
000020 27 33 a4 3c f6 c7 7b 3d 71 9b 0c 39 40 64 e3 3c
       0.020043923 0.061469994 0.00013409347 0.027757764
000030 c3 42 7e 3d d9 21 f4 3c 1c d1 4d ba e3 00 a0 3b
       0.062075388 0.029801296 -0.0007851289 0.004882918
000040 17 ad 2c 3d fa 65 8b 3d ec 15 45 3d dc 00 c7 3c
       0.04215726 0.0680656 0.04811661 0.024292402
000050 b6 a9 a9 3c 4c b8 cd 3c bf ca 7b 3c 49 e1 c3 3c
       0.020710807 0.025112294 0.015368163 0.023911135
000060 8f ae ed 3c 4d da 27 bc cf 43 11 bd 39 d1 d2 bb
       0.0290139 -0.010244918 -0.035465058 -0.0064336327
000070 55 f8 9c 3c e7 32 1d 3d 37 32 48 3c 4f 2b b5 3b
       0.019161383 0.038378622 0.012219003 0.0055288444
000080 35 0d 95 bc 75 df 46 3c 6b c3 6a 3d 62 c1 22 3a
       -0.018194774 0.012138237 0.05731527 0.0006208626
000090 1b 99 98 bb 8e 5b 05 3d 1f 5c 7f 3d 76 ca 8c 3d
       -0.0046569235 0.032558016 0.062343713 0.06874554
0000a0 eb 0a 89 bd 83 9a 4d bd 71 90 eb 3c a1 f9 c2 ba
       -0.066915356 -0.050196182 0.028755398 -0.0014875421
0000b0 35 49 18 3c b6 dc d7 bc de 4a 3f bd 9d d3 48 3d
       0.009294798 -0.02635036 -0.04670226 0.049029935
0000c0 29 64 c5 3c 58 f2 fe 3c 2b 36 36 3c ce 72 0f bd
       0.024095612 0.031121418 0.011121313 -0.035021596
0000d0 67 45 e5 bc d5 f2 03 3c 7a 66 88 bc 8e b1 a3 3b
       -0.027987195 0.008053501 -0.016650427 0.0049955314
0000e0 9f 17 a1 bd 4a be f6 ba b2 40 09 3d 93 1f d1 bb
       -0.078658335 -0.0018825021 0.033508964 -0.006381938
0000f0 28 5e 8b bd f7 92 1a bd ff 5e 2d bd 73 33 82 bc
       -0.06805068 -0.037737813 -0.042326923 -0.015893674
000100 62 8a 78 bc bc 1c e1 bc 21 65 84 bd 61 08 25 bd
       -0.015169712 -0.027479522 -0.06464601 -0.040291194
000110 da 0c 05 3d 67 d5 ce bc ea 80 c5 bc b7 c6 0a bc
       0.03248296 -0.025248243 -0.024109323 -0.008470229
000120 e6 70 01 3b 76 d7 3c bc 2a 3a 92 3c eb 47 12 bd
       0.001975113 -0.011525979 0.01785 -0.035713118
000130 c1 b6 8e 3b 6f 63 57 3c 60 b1 9f 3c 2f 7a 0c 3b
       0.004355282 0.013146265 0.019493759 0.0021435132
000140 f5 38 a5 3a f4 35 ac 39 f7 23 a3 bc 8f 7e 2f bc
       0.0012605475 0.00032846595 -0.01991461 -0.010711326
000150 4d b2 92 bc 6d ce 22 bd c2 83 a3 bc 1f 51 86 bc
       -0.017907286 -0.039747644 -0.019960288 -0.016396103
000160 7b f7 98 3c 67 64 a2 3c 71 34 9c bc 44 25 1e bd
       0.018672695 0.019823266 -0.019067975 -0.038609758
000170 58 cf 43 bd fb da bd bb ab 54 2d bc 1a ac 80 bc
       -0.04780516 -0.005793927 -0.010579268 -0.015707064
000180 c3 97 07 bc 32 d3 07 3c 6f 54 e4 3c db 5c cf 3c
       -0.008275929 0.008290099 0.027872292 0.025312832
000190 8b 80 f3 3c ab 6e 3b 3d 25 04 fc bc 9a dd 81 3c
       0.02972438 0.045759838 -0.030763695 0.015852738
0001a0 2a ee 01 bd 5f ae 7b 3c 0b 2a 02 3d 92 63 24 3d
       -0.03172127 0.0153613975 0.031778377 0.04013402
0001b0 05 2a c1 ba ff 1f a4 3b ea 82 39 3c 46 7c 56 3d
       -0.0014737254 0.005008697 0.011322716 0.05236461
0001c0 66 87 7a 3b 6b c6 60 bb 00 b6 e4 3c 88 95 e2 3c
       0.0038227676 -0.0034297954 0.027918816 0.027659193
0001d0 6f b7 ee 3c b4 ad 89 bc d9 8f 3d bd 22 a7 1b bc
       0.029140202 -0.01680646 -0.046279762 -0.009500297
0001e0 1d a0 41 bc 94 4d 86 3c da e3 da bc 74 3e 38 bd
       -0.011817959 0.016394414 -0.026719976 -0.044981435
0001f0 a5 27 2d bc c5 1e 47 3d 4e 40 d8 bb a8 04 b0 3c
       -0.010568534 0.04861333 -0.0065994626 0.021486595
000200 34 89 d3 bb 0f 5d a6 ba 8a 06 35 3d 1b 9f b5 3c
       -0.006455565 -0.0012692529 0.04419569 0.022170594
000210 07 07 f6 3c 61 c1 9a 3c 12 a6 1d 3b a5 93 1a 3d
       0.030032648 0.018891038 0.0024055284 0.03773846
000220 a9 f8 61 3c 33 ca 1c 3d 5e e1 ed 3b 0e 0d c5 bb
       0.013792195 0.03827877 0.007259532 -0.006013519
000230 f9 c1 4b 3d 42 bb 2f bb 6d 69 a2 3b 6b 7d 0f bd
       0.049745534 -0.0026814495 0.0049564154 -0.035031717
000240 3b c4 06 3c 15 b9 d3 3c 7f a2 c9 3c 63 a5 0b 3c
       0.008225496 0.02584509 0.024613617 0.008523318
000250 6b 46 f9 bb b4 0e 1c bc 74 97 33 bc 3a e4 ea 3c
       -0.0076072714 -0.00952499 -0.010961402 0.02867328
000260 b3 19 b0 3c 36 09 99 3d c0 33 17 3c d8 33 37 bc
       0.02149663 0.0747246 0.009228647 -0.011181794
000270 f8 e6 61 3d 6d c8 4d 3d e4 ce 95 3d 62 37 52 3d
       0.05515191 0.05023997 0.07314852 0.05132235
000280 c2 ea 26 bc d8 e9 89 3d 07 2d 16 3d c9 8e 43 3d
       -0.010187807 0.06734055 0.036664035 0.047743592
000290 a5 e1 a3 3d 04 9e c6 bc d4 a4 09 3d 52 0b 03 3d
       0.08002023 -0.02424527 0.033604458 0.031993218
0002a0 9e 73 8b 3d a6 69 46 3d 1b b5 df bb 93 c7 12 bd
       0.068091616 0.048440598 -0.0068270094 -0.03583486
0002b0 1b 2c 25 3c 4a d5 1e bd 8b 32 90 bc 78 99 bc bb
       0.010081316 -0.038777627 -0.017602226 -0.0057555996
0002c0 34 31 6f 3c 24 b6 fa 3b fe 79 e5 3c 8e b1 ba 3c
       0.014599133 0.0076511074 0.028012272 0.022789743
0002d0 7c 34 13 3d 3d a4 6b 3c c9 8b 62 3d b4 68 40 3d
       0.035938725 0.014382419 0.05530909 0.046974853
0002e0 47 25 b1 3c f6 1f 42 bb 47 4c c8 3c 11 9c e2 3c
       0.02162422 -0.00296211 0.024450434 0.027662309
0002f0 45 14 8b bc fc 9c d0 3b ef 5a 14 3d ea 8a f1 bb
       -0.016977439 0.0063663702 0.036219534 -0.007371296
000300 ba 6a 94 bc 27 a5 be bc cb cb 84 bc 13 63 01 bc
       -0.018117297 -0.02327211 -0.016210457 -0.007897156
000310 3c 82 52 3c 5e 33 61 bd 8a c9 2b bd fe 67 2d bd
       0.012848433 -0.05498063 -0.04194025 -0.042335503
000320 03 10 6d 3b 40 2f 5f bc 7d 60 26 3b d4 49 82 bc
       0.0036172874 -0.013622105 0.0025387101 -0.015904345
000330 57 82 1f 3c 88 69 b1 bc ce 78 a7 bc d8 6e bf bc
       0.009735665 -0.021656767 -0.020443346 -0.023368284
000340 d6 57 92 3c 07 71 84 bc 0e 0f 00 3d d0 b4 15 3c
       0.017864149 -0.016167177 0.031264357 0.009137347
000350 3a c8 1e bb 59 47 bd bc f9 91 00 3d 76 8b a9 3b
       -0.002422823 -0.02310531 0.03138921 0.0051740957
000360 0e 55 12 3d 1c 18 f5 3c 35 e0 87 3c ca 0c 1e 3b
       0.035725646 0.029918723 0.016586402 0.002411651
000370 ed f2 bf b9 79 76 23 bd 45 73 65 3c 92 c6 a0 bb
       -0.00036611353 -0.039907906 0.014004533 -0.004906484
000380 28 9e 36 bd a3 42 bb 3c 8e fc e9 bc e1 e1 64 bc
       -0.044584423 0.022858923 -0.02856281 -0.013969869
000390 3d 4a 52 bd 89 f2 da bc 0a 22 d3 bb 24 6d 51 bd
       -0.05134033 -0.026726978 -0.0064432668 -0.051129475
0003a0 26 3f 62 bc d9 23 83 bd d4 71 ea bc 1c 81 19 3b
       -0.013809001 -0.06403322 -0.02861873 0.0023422902
0003b0 d1 19 73 bd 7e ce 31 bd b7 32 a3 3b 94 18 ba bc
       -0.059350792 -0.043409817 0.004980411 -0.022716798
0003c0 2d e4 c3 3c ea b9 12 bd 23 d1 04 bc fd f1 56 3b
       0.023912514 -0.035821833 -0.008106503 0.0032798045
0003d0 a3 a2 8d bc d2 3f ae bc 63 6b 64 bd 82 58 a4 3b
       -0.017289465 -0.021270666 -0.055766474 0.0050154338
0003e0 87 18 3e 3c 86 b0 0a bd 88 6f 0c 3d a4 36 b2 ba
       0.011602527 -0.033859752 0.034286052 -0.0013596606
0003f0 36 0f 83 bc ae bc 00 bc c4 22 1c 3d f9 b3 b0 bb
       -0.015998464 -0.007857485 0.038119093 -0.005392548

bias f4 [32]
000000 cd c8 57 3c 59 ef 5d be 74 a3 1b 3d b8 f1 91 bc
       0.013170433 -0.21673335 0.037997678 -0.017815456
000010 c2 ee eb bd 81 05 34 3d 87 ea 02 bd 7a d8 07 be
       -0.11520149 0.04395056 -0.031961944 -0.13266173
000020 66 7a 79 3c a9 14 c0 bd 5d 60 fd bd 32 7f 9e 3d
       0.015226936 -0.093789406 -0.123718955 0.07739104
000030 b1 eb d1 bd f5 fb 89 bd a3 d4 ff bd f7 28 e3 bd
       -0.10250033 -0.0673751 -0.12491729 -0.11091798
000040 c9 e9 81 bd 1e 81 06 be 94 53 58 bd 9d 1c 1c be
       -0.06343419 -0.13135192 -0.05281408 -0.1524529
000050 08 1c 27 bb e0 fb 8f bd d4 b3 a3 bd 6c b1 37 3c
       -0.0025498886 -0.07030463 -0.07993284 0.011211734
000060 7a 39 17 3d 6a ed f5 3c 8b c9 51 be b1 14 6d be
       0.03692005 0.030020434 -0.20487039 -0.23152424
000070 04 e6 36 3d d4 14 ee bd a3 69 4a bd 83 11 37 be
       0.044652954 -0.116250664 -0.04941715 -0.17877774

weight f4 [64, 32, 5, 5]
000000 f3 05 03 bd a5 e3 b7 bc 0e cd 1c bd da 6b 38 bd
       -0.031988095 -0.022447417 -0.038281493 -0.04502473
000010 f1 ed 4e bc ad b7 0c 3d 37 50 97 3c d9 42 b3 bc
       -0.012629972 0.034354854 0.018470867 -0.021882461
000020 61 87 c8 bc f3 c3 5c bc 6e 7d e6 bc ac d0 6d 3c
       -0.024478616 -0.013474452 -0.028135981 0.014515083
000030 83 2c 64 bc fc 07 a2 bc a4 9f 0c 3c 74 50 49 3c
       -0.013926628 -0.019779198 0.008582983 0.012287248
000040 65 7e 10 bd d5 13 22 3c 6b 67 00 3b 4c 5f 9c 3d
       -0.03527679 0.009892424 0.0019592892 0.07635364
000050 cc ef 13 3c 24 f2 2d 3d 1c 0f b5 3a db d4 02 bd
       0.00902934 0.04246725 0.0013813707 -0.031941276
000060 52 9c a3 3c 90 7d af 3d b3 a0 1d 3d f3 06 2e bd
       0.019972 0.08568871 0.038483333 -0.042487096
000070 ea 72 1d bd 53 e0 47 bd a1 9c 2a 3d a7 42 6e bb
       -0.03843967 -0.048797917 0.04165328 -0.0036355646
000080 a7 e0 15 3b 1c 5b b7 bc a0 04 9f bc bc 34 9b bc
       0.00228695 -0.022382312 -0.019411385 -0.018946044
000090 31 68 5d 3c 6c 9e 6f 3c e9 2a 0d 3d f8 ad 3e 3d
       0.013513611 0.014625173 0.03446475 0.04655263
0000a0 d5 6e 32 bb f6 d5 0f 3c 61 ed 9a 39 b1 a7 04 bc
       -0.0027226706 0.00877904 0.0002955003 -0.008096621
0000b0 39 59 04 bd b0 f0 10 ba b1 2b f2 3c 72 12 7f 3d
       -0.03231165 -0.00055290293 0.02956185 0.06227345
0000c0 28 87 c8 bc ad c0 b4 bc 4d 86 fe 3c dd 3c bb bc
       -0.02447851 -0.022064531 0.031069899 -0.02285617
0000d0 0f de f5 bc 54 14 44 bd 9c 91 f5 3c 02 ad 10 3d
       -0.030013112 -0.04787095 0.029976659 0.035321243
0000e0 b5 c5 a4 3b fb ad 57 3d 59 96 49 3b 46 7e 9c bc
       0.0050284513 0.052656155 0.003075978 -0.01910318
0000f0 c0 71 a5 3c fd 76 22 3c ad 9d 24 bb 6d 41 19 3d
       0.020195842 0.009916064 -0.0025118396 0.03741591
000100 56 31 11 3d 53 67 ef bc 5f b7 c8 3a fa cf 30 3c
       0.03544744 -0.029224074 0.0015313438 0.010791773
000110 9c 95 3b bc a8 58 b7 3b 8e 61 4c bd f6 0a bb 3c
       -0.011449244 0.0055952854 -0.049897723 0.022832375
000120 57 d4 33 3d ae fc 08 bd 54 0b 01 bd 82 0f 21 bc
       0.043903675 -0.0334441 -0.031504944 -0.0098303575
000130 dc d5 99 3c 05 db 7e 3c 14 27 8b 3c f2 4b e6 3c
       0.018778734 0.015555148 0.016986407 0.028112385
000140 a4 b1 db 3c e5 a0 d4 bb 93 15 65 3c 3e b1 51 3b
       0.026818104 -0.0064889067 0.0139821945 0.0031996514
000150 b7 fa 92 bc b7 f3 03 3c ed 53 ae 3a 9d 55 e0 bc
       -0.017941816 0.008053712 0.0013300158 -0.027384574
000160 8a ed 6d bb bf 27 3c bc 1c ef 25 3d 3d 3c 07 3d
       -0.0036304914 -0.011484086 0.040511236 0.033016432
000170 1c 8e d3 3c 97 b0 18 3c 95 2c ee 3b c2 e9 21 bd
       0.025824599 0.009319446 0.007268498 -0.03952957
000180 05 be 09 bd 02 59 30 3c da 3d f6 bc a6 f9 8a 3c
       -0.033628482 0.010763409 -0.03005879 0.016964745
000190 fc 6d 11 bb 37 5a 5e bc 22 61 41 bc 70 3d bb bc
       -0.00221908 -0.013571314 -0.011802943 -0.022856444
0001a0 af 54 09 bd 1b 46 62 3d 4e f4 08 bc 89 0e 0c 3c
       -0.033528026 0.05524264 -0.008359028 0.008548387
0001b0 27 d0 a2 3c 5b a3 2e 3b 0d 12 4c 3d 28 de b5 ba
       0.019874645 0.002664766 0.049821902 -0.0013875412
0001c0 47 7d fb bc 37 f5 f5 3c 03 b0 e1 bc 48 9b ec bc
       -0.030699385 0.030024154 -0.02754975 -0.028882638
0001d0 af 67 87 bc 98 1d 52 3c c1 a8 33 3d f9 67 8f bc
       -0.016528932 0.0128244385 0.04386211 -0.017505633
0001e0 8c 3c 3a 3c 8a 3d 0d 3c 87 6c 08 3c 9a a7 ec 3b
       0.011366975 0.008620629 0.008326656 0.007222128
0001f0 ec e5 41 bb d6 1f 19 ba 99 b3 ba bb 74 f5 48 bd
       -0.0029586507 -0.0005841231 -0.0056976792 -0.049062207
000200 f0 ed 74 bd 7d 27 73 3a e2 10 de 3a 0f 9c dc bb
       -0.059797227 0.00092755986 0.0016942287 -0.006732471
000210 3c 50 1c bd ca cd 9f bc bf 17 82 bd 43 25 cd bc
       -0.038162455 -0.019507308 -0.063521855 -0.025042182
000220 d4 43 f2 ba a7 d5 c9 bc 48 fe a0 3c 96 e9 f3 3c
       -0.0018483349 -0.02463801 0.0196525 0.029774468
000230 ff b7 01 bd a5 cf 47 bd 10 0a 8b 3c 4c 66 21 bc
       -0.031669613 -0.04878201 0.016972572 -0.00985105
000240 b1 51 d1 bc 84 87 54 bd 89 ed 0b 3d a5 87 90 3c
       -0.025551649 -0.05188705 0.034162078 0.017642805
000250 bb 3c 1d 3d df ab 0f 3d 6b 4b 15 3d 3c ad 52 ba
       0.038387995 0.03507602 0.036448877 -0.0008036678
000260 0b 3f e3 3c 9f 29 16 3c 03 39 cb 3c d7 14 98 bc
       0.027740022 0.009165197 0.024807459 -0.018564625
000270 45 3d 1c bd da 94 52 3d bb 80 31 3d f2 6d e7 b9
       -0.03814437 0.051411487 0.043335658 -0.0004414167
000280 c2 6d ca bc 62 99 96 3c 10 31 67 3d 10 2e a7 3a
       -0.02471054 0.018383685 0.056443274 0.0012754817
000290 78 f0 3e 3b 92 7a 46 bd 05 11 fd bc 9c 4b 11 bd
       0.002913503 -0.048456736 -0.030891905 -0.035472497
0002a0 91 36 44 bd 28 6a 91 3d c2 60 41 3c 0e 7e 29 3b
       -0.0479036 0.07100326 0.011802854 0.0025862488
0002b0 f2 b3 fc 3a cc 93 78 bc b2 94 b5 3c 58 b2 a3 bc
       0.0019279702 -0.015171956 0.02216563 -0.019982502
0002c0 57 db 00 bc 97 30 f6 bb 33 d4 1e bb aa 76 b2 bc
       -0.007864795 -0.0075131166 -0.0024235367 -0.021785099
0002d0 21 3a 17 bc 8e 72 d1 bc d4 db b6 bc a7 ef 0c 39
       -0.009230168 -0.02556732 -0.02232162 0.00013440718
0002e0 03 66 da 3b bf fa 96 3c 10 54 3a bc ed 65 f8 bc
       0.006664993 0.018430112 -0.011372581 -0.03032204
0002f0 1b ce 03 3d c6 ef 4b bc b5 e9 90 3c ec 94 fa 3c
       0.03217898 -0.012447303 0.017689565 0.03058859
000300 e3 08 6e 3c c3 0f 90 bc 3b 66 e9 3c 6d 14 58 bc
       0.014528486 -0.01758564 0.02849113 -0.013188464
000310 8b 6f 1c bd 14 7b bc 3b 1b e4 a8 bc 57 9a 01 3d
       -0.038192313 0.0057519767 -0.020616582 0.03164133
000320 f8 15 f7 bb 9b 2b 30 bc be e8 46 bb 97 ed 94 bc
       -0.0075404607 -0.010752584 -0.0030351127 -0.018179698
000330 7a 0c 38 bd e3 31 a6 3c 0f fc a9 bc 84 07 03 bd
       -0.044933774 0.02028746 -0.020750074 -0.03198959
000340 be 75 68 bc 1d b0 df bc 64 ce c1 3c 01 82 9e bc
       -0.014188228 -0.027305657 0.023657985 -0.0193491
000350 92 1c d6 bc a8 08 21 bd fa 5e 9f 3c ce 43 8c bb
       -0.02613667 -0.039314896 0.019454468 -0.004280544
000360 50 3b 56 bc 73 60 87 bc e4 3b 08 bd cd cd c9 bc
       -0.013075665 -0.016525483 -0.03326024 -0.024634266
000370 bf e4 bf bc b1 c0 c8 bc 46 e0 0a 3d 1b dd bb 3c
       -0.023424504 -0.024505945 0.03390529 0.02293258
000380 b7 fb ad 3c dd d2 95 bb f4 c2 0a bd 8d f8 25 bb
       0.021238191 -0.004572256 -0.033877328 -0.002532515
000390 87 59 05 bd 81 b8 c5 bc 7e 56 d5 bc 77 a0 f2 bb
       -0.032556083 -0.02413583 -0.02604222 -0.007404383
0003a0 f6 8a 1e bc 41 c9 0c bd c4 02 e2 bb f6 a9 b7 bc
       -0.009676686 -0.03437162 -0.0068973023 -0.02241991
0003b0 21 bb e3 bc 43 b5 3c bb 32 2f 81 bc 75 ac ed bc
       -0.027799191 -0.0028794564 -0.015769575 -0.029012898
0003c0 65 94 32 3c 56 c5 f9 bc d9 79 2d bd 71 e1 2d bd
       0.010899638 -0.030489605 -0.04235253 -0.042451326
0003d0 a3 ee ef 3c fc 5b 2f bd 13 20 90 bc c7 fc 95 3b
       0.029288596 -0.042812333 -0.01759342 0.0045772525
0003e0 10 b7 49 ba 73 a0 0c 3d ee 7f 54 bc dc 6a 3e bd
       -0.000769482 0.034332704 -0.012969954 -0.046488628
0003f0 03 af cf bc 9f b1 39 bd ed 09 ee 3b 06 f9 3e 3b
       -0.025352007 -0.04533541 0.007264367 0.0029140129

bias f4 [64]
000000 32 4e 6a bd fc 47 72 bd a3 cd 74 bd 43 58 d5 bd
       -0.05720348 -0.05915068 -0.059766423 -0.10417225
000010 76 4f 8d bd 7b 14 a3 ba 9b b9 a3 bd c5 4c 9a bd
       -0.068999216 -0.0012442017 -0.07994386 -0.07534174
000020 eb 17 80 3c 0f 04 89 bd d9 af 32 bd 2f d8 8c bd
       0.015636405 -0.06690227 -0.043624733 -0.06877171
000030 31 99 99 bc f9 a6 29 bd 0e 84 bd bc 81 89 a0 bc
       -0.018749805 -0.041419003 -0.023134258 -0.019596817
000040 9d b5 83 bd 70 02 83 3a b1 f2 cb bd 25 72 cd bd
       -0.06431124 0.0009995233 -0.09958399 -0.10031537
000050 47 f5 34 bd 3a 6a 01 be c0 b8 90 bc 4c 45 50 bd
       -0.044179227 -0.12638178 -0.01766622 -0.050847337
000060 5e af ba bd 25 a3 fd bd 3a cb 70 bd fd 91 d1 bd
       -0.0911548 -0.12384633 -0.058787562 -0.10232923
000070 b5 cb 42 bd 0f b2 5e bd 83 d1 75 bd 2b ff c5 3a
       -0.04755755 -0.05436903 -0.06001426 0.0015105953
000080 17 27 ea bb 61 da b3 bc f2 5b e8 bc e0 15 5a bb
       -0.007145773 -0.021954717 -0.028364155 -0.0033277199
000090 5f d4 8f bd b3 42 c3 3c f9 4f 15 3d 89 47 db bb
       -0.070229284 0.023835516 0.03645322 -0.0066918773
0000a0 71 8c b8 bd fd f5 d1 bd 91 3c a2 bd c6 82 bc bd
       -0.09011162 -0.10251997 -0.079217084 -0.092046306
0000b0 37 a2 e3 bc 98 6f 5d 3c f8 8c 04 bd 21 cf 4c bd
       -0.027787311 0.013515376 -0.032361 -0.05000222
0000c0 c2 76 21 bd 5c df 46 bd e4 53 c1 3b 47 8f d9 bd
       -0.039419897 -0.048552856 0.005899893 -0.10623031
0000d0 cf 9d d4 bd a3 be c5 bc ee 80 e6 ba 08 77 02 be
       -0.10381662 -0.024138754 -0.0017586031 -0.1274072
0000e0 1c 57 84 bd f9 88 9c bb 24 e4 30 bd 26 2a a0 bd
       -0.06461927 -0.0047770706 -0.04318632 -0.07820539
0000f0 79 8c 59 bd 72 4c 57 bd 6e 71 e8 3c 08 a6 1a bb
       -0.05311248 -0.05256314 0.0283744 -0.0023597497

weight f4 [64, 1024]
000000 61 5b 80 3b cf 0d f4 bc c4 a9 b0 3a d6 2c b2 3c
       0.003917143 -0.02979174 0.0013478328 0.021749895
000010 d4 0d 9c 3c fb f6 82 3b 88 06 a3 3b 46 37 a4 bc
       0.019049563 0.0039967275 0.004975144 -0.020045888
000020 30 39 08 3d 38 4d b9 3c 06 8f 1f 3c 4c a8 cd 3c
       0.033257663 0.022619829 0.009738689 0.025104664
000030 7c 31 b3 bc 8a 24 01 bd 90 35 6f bc 4c 80 6a bb
       -0.021874182 -0.031528987 -0.014600173 -0.0035782037
000040 63 52 db bc 0c 19 c9 bc 1f f2 96 bc f3 0e db 3c
       -0.026772683 -0.024548076 -0.018426 0.026740527
000050 3f a4 6d 3b 26 ec a8 3b be d1 1c 3c aa d0 8b 3c
       0.0036261228 0.005155104 0.009571491 0.017067272
000060 62 c2 11 3b 1c 09 64 3c 44 00 c6 bc db 24 01 bc
       0.0022241105 0.0139181875 -0.024170049 -0.007882322
000070 78 da 31 bd 93 bb d3 bc 6b 6b 27 3d 4d ec 32 3d
       -0.04342124 -0.025846278 0.040873926 0.043682385
000080 c6 2c 77 3c 0b 59 8d bd 9b b8 df bb 94 98 41 bc
       0.015086358 -0.06901749 -0.0068274266 -0.011816163
000090 fb 0f ae bc a2 fc 14 3b 4e 21 01 bd d6 a5 2d bc
       -0.021247854 0.0022733589 -0.031525902 -0.01059862
0000a0 e1 44 f0 3c 11 f5 d4 3c 21 2d 32 3d 36 58 1a 3d
       0.029329719 0.025995763 0.04350007 0.03768178
0000b0 ca 0c eb bc a7 06 06 bc 21 5b 15 3c 7f f7 70 3d
       -0.028692622 -0.008180297 0.009115965 0.05882978
0000c0 b7 43 bc bb af 51 71 3c 67 e7 53 3b af d0 33 bd
       -0.005745377 0.014728948 0.0032333971 -0.043900188
0000d0 77 e6 67 3d 52 65 b8 3c 15 c9 60 3c aa 14 6b 3d
       0.056616273 0.02250925 0.013719817 0.057392754
0000e0 cc 33 45 bc fa e8 57 3d dd ea a6 3c a1 f5 2c 3d
       -0.012036275 0.05271242 0.020375663 0.042226437
0000f0 0c ba e2 3c 59 0b 43 bb 14 3a 8f bc 34 f9 01 bb
       0.027676605 -0.0029761402 -0.017483748 -0.0019832375
000100 da 65 b7 3b 2d a0 0e bc 12 d6 2c 3c 8a 83 17 3c
       0.0055968584 -0.008705181 0.010549085 0.00924767
000110 84 69 2b 3d 65 62 2e 3c cb 89 9c 3c 64 e2 1c bd
       0.041848674 0.010643576 0.019108674 -0.03830184
000120 dd cf b7 bc 87 b3 be bc e4 8b ed 3b 82 30 ae bb
       -0.022437984 -0.023278965 0.0072493423 -0.005315841
000130 8c bb 38 3d 21 4f ab bb a3 ad 9e 3c 81 a0 c9 3a
       0.045100734 -0.0052279388 0.019369906 0.0015382917
000140 dd 45 b4 bb 9e 0c 10 3d 00 83 03 3d 27 a3 a3 3a
       -0.0055014924 0.035168283 0.032107353 0.0012484536
000150 d8 f2 c4 bc f0 85 b2 bb 79 36 b5 bc 08 0f cf 3c
       -0.024041578 -0.0054480955 -0.022120701 0.025275722
000160 00 40 55 39 23 69 b2 ba 3a 55 c3 bb f0 5b 24 bc
       0.00020337105 -0.0013611655 -0.0059610875 -0.010031685
000170 e4 94 2f 3c 07 8d c6 bc fe 11 57 bb fa 41 03 bd
       0.010716651 -0.024237169 -0.003281712 -0.032045342
000180 31 19 36 3d ca 2e 5a bc 72 c8 a2 bc f4 90 3c bc
       0.04445762 -0.013316819 -0.01987097 -0.011509169
000190 84 a9 f4 3c f0 ef cc b9 cc 66 a4 bc d4 e0 81 3b
       0.029865988 -0.0003908868 -0.020068549 0.003963569
0001a0 50 93 fc bc c5 7a a2 bc 64 60 d2 3c 9c a0 2e bc
       -0.030831963 -0.019833932 0.025680728 -0.010658409
0001b0 aa c7 4b 3c a8 96 c2 3b 5f 8c 66 3c d2 b8 b0 3c
       0.01243774 0.00593837 0.014071553 0.021572504
0001c0 c8 e5 ad bc 61 e3 80 3c a5 b0 a6 bc 99 c5 81 3c
       -0.021227732 0.015733423 -0.020347903 0.015841292
0001d0 0e 8d 07 3d 29 8d 07 bd 22 6e 87 bb f5 07 11 3c
       0.033093505 -0.033093605 -0.004133002 0.008851995
0001e0 e6 d9 cf 3c af eb f8 bc 58 f0 77 3b 0e 77 2c bc
       0.025372457 -0.03038582 0.0037832465 -0.010526432
0001f0 d2 1d 74 bc d3 0b 4b 3b 2a 75 49 3c ef cc c4 3c
       -0.014899688 0.003098239 0.0122960005 0.024023501
000200 21 ce e8 3c cc 8a 8f 3c f7 3b c7 bc 7b 73 19 3d
       0.028418602 0.017522238 -0.024320586 0.037463646
000210 17 b8 8f bc 56 f0 83 bc 83 bc e2 bc db e9 ee 3c
       -0.017543836 -0.016105812 -0.02767778 0.029164245
000220 72 f5 17 3d e0 b0 9d 3c ee 8d b8 bc c5 1d d9 3b
       0.03709931 0.01924938 -0.022528615 0.0066258633
000230 2a a7 bb bc 7e 87 a3 bc 40 c5 67 bc 9b 57 c3 bb
       -0.022906858 -0.019962069 -0.014146149 -0.005961371
000240 d2 24 d5 bc a8 52 e3 39 d5 90 12 bd f0 10 90 3c
       -0.026018534 0.00043358398 -0.035782654 0.017586201
000250 be 48 af bc ee 54 46 bc 09 de 18 bc ad fd 27 3c
       -0.02139699 -0.01210521 -0.009330281 0.010253352
000260 da d3 61 3b 35 b1 d8 3c f1 55 d3 3c 54 f4 27 3d
       0.0034458549 0.026451686 0.025797816 0.041004494
000270 a3 08 de bc f9 c7 03 bd 25 42 10 3d 81 64 ef bb
       -0.027103728 -0.03217313 0.03521933 -0.007305682
000280 d1 f4 e8 3c 84 79 b1 3b 54 27 eb bb a2 c3 0e 3c
       0.02843705 0.005416097 -0.007176319 0.008713635
000290 bc 6a 14 bd 83 52 f4 bc 8f 42 29 bc 5e f1 20 bd
       -0.036234602 -0.0298245 -0.01033081 -0.039292686
0002a0 c7 19 a2 3c 07 76 bc 3c 57 60 b6 3c e1 57 8c bc
       0.019787682 0.023005499 0.022262735 -0.017131748
0002b0 15 43 1c bc 92 a7 11 3c a2 2a 1c 3d 65 f3 0f 3c
       -0.009537478 0.0088900495 0.038126595 0.008786057
0002c0 e6 48 af 3c 1c 66 6d 3c 9d 1c 69 3c 17 1f 5b ba
       0.021397065 0.014489677 0.014228013 -0.000835882
0002d0 d8 77 b4 bb 1a 93 e8 3c 83 ab cf 3c 1d ce bc bc
       -0.0055074506 0.028390456 0.025350338 -0.023047501
0002e0 45 5d a8 3b 09 6b 6a bd c7 08 c6 bc 67 bf 4b 3c
       0.0051380717 -0.057230983 -0.024174107 0.012435771
0002f0 17 a5 cc 3c b3 c3 9a bc c3 1d e5 ba 9a 0b 1c bd
       0.024981065 -0.018892145 -0.0017480183 -0.038097
000300 fd 1a 05 3c 5d 0b 85 bb d2 74 78 3d ee 68 10 3d
       0.00812411 -0.0040601925 0.060658284 0.03525632
000310 b6 58 93 3c ce 66 30 bd ab 49 a3 bc c7 58 b6 bc
       0.017986637 -0.043066792 -0.019932589 -0.02225913
000320 46 c5 19 bd 88 d9 df 3c 59 2a 17 3d 29 40 9e bb
       -0.03754165 0.027325407 0.03690562 -0.004829426
000330 99 25 63 bc c0 6d 34 bc 0a 53 18 bb 64 38 27 3d
       -0.013863944 -0.011012495 -0.0023242855 0.040825263
000340 e0 74 81 bc ce 0e b3 bc 35 68 30 3d 15 d1 ee bb
       -0.0158028 -0.021857645 0.04306813 -0.007288108
000350 39 40 38 3d 72 56 14 3d 10 71 93 3c 59 05 8b bb
       0.044983122 0.036215253 0.017998248 -0.004242581
000360 48 14 ca 3c d8 bd 0c 3c 04 2b be 3c ae c8 34 bc
       0.024667874 0.008590184 0.02321387 -0.011034174
000370 e2 c4 fd ba 70 ea a4 bc c6 c3 d5 3c fe 67 a2 bc
       -0.0019361044 -0.02013132 0.026094329 -0.019824978
000380 2f 1a 88 3a e2 fe ec bc ad 1c 4e bd 6e c9 54 bd
       0.001038378 -0.028930131 -0.050320316 -0.05194991
000390 f1 1f a2 3c d2 b2 15 3d 61 f9 77 3c 5a d0 5b bc
       0.019790621 0.03654749 0.01513514 -0.013416374
0003a0 87 e5 6d 3c 46 11 46 bc 5a 5a b3 3c fc 46 d9 bc
       0.014520056 -0.012089079 0.021893669 -0.026523106
0003b0 4b 80 be b8 a8 00 9b bc cb e8 4e bc f3 76 04 bb
       -9.0838024e-05 -0.018921211 -0.012628744 -0.00202125
0003c0 ea 6d 13 3d 92 d2 c6 bc 79 d7 51 3b 50 c9 91 b9
       0.035993494 -0.02427033 0.00320193 -0.00027806545
0003d0 d3 cd 1e bd 5c 4d 1e bc a9 06 3b 3c cf dd 19 ba
       -0.038770508 -0.009661999 0.011415162 -0.0005869539
0003e0 1a 5b bc bc 8a 1e 9c bb 18 52 00 b7 a8 b0 11 3d
       -0.02299266 -0.0047643827 -7.6485085e-06 0.035568863
0003f0 6a f9 ae 3c 3d 45 25 bb ba b0 87 bb 96 7b c5 bb
       0.021359164 -0.0025218271 -0.0041409405 -0.0060266955

bias f4 [64]
000000 be 61 0e bd c0 e3 7c bc 71 d1 0d ba 52 0e 4e bd
       -0.034761183 -0.015435159 -0.00054099323 -0.050306626
000010 5c ba 01 bc 5f 62 9e bb a4 59 80 3c 14 9a da 3b
       -0.007917967 -0.004833504 0.015667744 0.0066711996
000020 b4 06 77 bc ac c9 88 bc fb d4 dc 3b 5a a7 04 bd
       -0.015077282 -0.016697727 0.0067392564 -0.03238616
000030 08 f3 b1 3c 2e 22 5f bc c0 5c a3 bb f5 fa ac 3b
       0.021722332 -0.013618989 -0.004985422 0.00527894
000040 a3 81 ad 3c 05 79 b3 3c ec da 8a 3c 4d 38 54 3c
       0.02117998 0.021908293 0.016950093 0.012952876
000050 e9 15 e9 3c d5 16 80 bc 8d 00 2f 3b 1e 65 a9 bc
       0.02845283 -0.015635887 0.002670321 -0.0206781
000060 45 de d7 bc ce 97 2e bc 20 32 26 3d d6 29 0a 3c
       -0.026351104 -0.01065631 0.040575147 0.008432826
000070 39 87 4a bd f9 23 5d bb 88 6a 3f bd c0 8a 3f bd
       -0.049445365 -0.0033743365 -0.046732455 -0.04676318
000080 5c 87 12 3d 45 32 e6 3c a5 4a 8c 3d 4b bf 5b 3c
       0.03577362 0.028100142 0.06850175 0.013412307
000090 83 2a 57 3c 7e e4 2e bd 77 18 6f 3c 8a eb 49 bb
       0.013132694 -0.042698376 0.014593235 -0.0030810558
0000a0 eb 65 06 3b 6c cf 9b 3c 3a 79 10 bd a0 bc 69 bd
       0.0020507525 0.019019805 -0.03527186 -0.057064652
0000b0 91 cd a5 bc bd 6f 38 3d f6 c2 8a bc b6 d1 91 3d
       -0.020239623 0.045028437 -0.016938668 0.07120077
0000c0 42 cf fb bb b6 87 c5 bb f8 d2 fb bc 7c ae 6a bc
       -0.007684619 -0.006028141 -0.030740246 -0.014323827
0000d0 fd 5d 98 bc d6 de 2f 3a f5 7d 50 bd 41 13 8b bc
       -0.018599505 0.00067089254 -0.050901372 -0.016976954
0000e0 6b 7b 1b 3d 9c 8d 68 bc 46 78 17 bd ab f5 3e bd
       0.037959497 -0.014193919 -0.036979936 -0.046621006
0000f0 dd 38 fa 3b dd 4d 0e 3d 96 57 98 3c 9d 4f 13 3d
       0.007636173 0.034742225 0.018596452 0.035964597

weight f4 [10, 64]
000000 24 cf e7 bd 52 c6 69 3e 09 14 4c bd 8d 27 62 b8
       -0.11318806 0.2282956 -0.049823795 -5.3919433e-05
000010 44 a2 2d be 3c e7 57 3e f5 58 4d be 49 08 b5 bc
       -0.1695643 0.21084303 -0.20053466 -0.022098677
000020 3b 79 da bd 4a c3 b0 3e 88 8d af bd a8 fd 94 3e
       -0.10667654 0.34523994 -0.08571917 0.29099774
000030 16 c4 1e be 86 b9 0c be 8f 7a 0e 3e 61 78 b4 bc
       -0.15504488 -0.13742647 0.1391394 -0.022030057
000040 63 03 f9 3d 32 cf 58 3e a1 21 8c 3d 14 db 1a be
       0.12158849 0.21172789 0.06842352 -0.15122634
000050 ef 7e 21 3e ed ed be 3d b8 19 06 be 89 94 32 3e
       0.15771078 0.093227245 -0.13095748 0.17439474
000060 7a e5 14 3e 32 b6 d1 3c 45 2c 2b be 3c 88 1b 3e
       0.14540663 0.025599573 -0.16716106 0.15188688
000070 c9 6f 29 bc 26 40 27 3e d4 28 53 3e 88 17 12 3e
       -0.010341593 0.16333064 0.20621043 0.14266789
000080 83 e2 88 be b4 69 8d 3d b9 4a 4e be 25 b6 79 bd
       -0.26735315 0.06904927 -0.20145692 -0.060964722
000090 56 a2 d7 3c d9 eb 7a 3e 4b 3d 21 3e 39 90 41 3e
       0.026322525 0.24504031 0.15746038 0.18902673
0000a0 df 9c a5 bd b3 6b 28 be a8 93 c2 bd 33 fe 19 3e
       -0.080865614 -0.16447334 -0.095008194 0.15038376
0000b0 5f 07 94 bd 20 f8 cd bd fa bf 4d be 8b 6c f6 bd
       -0.072279684 -0.10057092 -0.20092764 -0.12032422
0000c0 13 1d da bd 17 25 7a 3e 52 74 d3 bc 90 7f 41 3e
       -0.10650077 0.24428211 -0.025812302 0.18896317
0000d0 bd d9 2d 3e 7f b5 16 3e 0c 31 b2 bc d5 68 f3 3c
       0.16977592 0.14717673 -0.021751903 0.029713074
0000e0 c4 46 27 3e 29 50 bc 3d 31 91 89 3d d8 6a ee 3d
       0.16335589 0.09194977 0.06717146 0.116414726
0000f0 d4 21 71 bd 2f 46 9f 3c 9c 61 b4 bc ba c3 54 bd
       -0.05887015 0.019442646 -0.0220192 -0.051944472
000100 fd 63 17 3e 54 19 88 3e a5 1b fd bc 9b 8f 50 3e
       0.14784236 0.26581824 -0.030896971 0.20367281
000110 ba 52 9f 3c ae cb 86 be cf c7 07 3c 95 9c 0d 3e
       0.019448627 -0.2632727 0.008287384 0.13829263
000120 3d 9d 6d 3e df ca eb 3d 20 25 ec bd 2b cc aa bd
       0.23204513 0.11513304 -0.115305185 -0.08339723
000130 31 70 19 3e c8 bf 1a 3e 91 28 38 be 22 4a 31 3d
       0.14984204 0.15112221 -0.17984225 0.04328359
000140 ee b9 42 be f9 b2 a7 be f1 37 a6 3e f4 04 58 3e
       -0.19016239 -0.32753733 0.32464555 0.2109564
000150 71 f7 62 be 03 ec 6b 3e 55 5a 21 3e 18 22 85 3e
       -0.22164704 0.2303925 0.15757115 0.26002574
000160 a2 3d 0a be f6 f9 7d be f5 3f 09 3e cb 13 c6 3d
       -0.13500074 -0.24802384 0.13403304 0.09671744
000170 ed 27 45 be a9 b2 99 be 7d bc 8f 3e 67 3f 94 bd
       -0.19253512 -0.3001912 0.28073493 -0.072386555
000180 c6 02 8f 3e ec 80 3c 3d 1a e0 c7 bd 16 c4 4c 3d
       0.27931803 0.046021387 -0.09759541 0.04999169
000190 87 f2 9f 3e 05 40 63 be f5 80 bb bc bd a8 b0 3d
       0.3123972 -0.2219239 -0.02288864 0.08625934
0001a0 6d b7 fe bd fc 7a b4 be d3 89 86 3e f7 33 2c 3e
       -0.124373294 -0.3525008 0.26277027 0.16816698
0001b0 25 b1 bc bd 81 41 72 3e 6f d5 cb 3c 11 0a 10 be
       -0.09213475 0.236578 0.024882047 -0.1406634
0001c0 c6 70 0c 3e 86 47 e3 3d c2 5c 05 be b7 9d df bc
       0.13714895 0.110976264 -0.13023666 -0.027296884
0001d0 c6 3d 01 3e f3 78 f4 3d 89 5b 95 be c4 33 5f 3e
       0.12621221 0.11937132 -0.29171398 0.21797091
0001e0 3e f5 74 bc a2 30 42 3d 55 bf fc 3d 46 e9 83 3c
       -0.014951048 0.04740966 0.12341181 0.016102444
0001f0 6d 77 a2 3e 7a 6b cf 3d 0a 0d d8 3d 07 37 60 3e
       0.3173174 0.101279214 0.10549362 0.21895991
000200 1c 3d 02 3e 3f cf be bd 6e 27 b1 bd ea 47 25 3e
       0.12718624 -0.09316873 -0.08650099 0.16140714
000210 0c 15 88 3d 4c ac 6f 3e a4 13 64 be 38 c0 84 be
       0.066446394 0.2340557 -0.22273117 -0.259279
000220 68 72 1c 3e 99 88 6d 3e 7a e5 9e bb d7 d1 e3 3b
       0.15278018 0.23196639 -0.004849133 0.006952505
000230 f9 e6 cb bd 68 3b 41 3e 3c 7e 81 be c0 7e 2f 3d
       -0.09956164 0.18870318 -0.25291622 0.042845488
000240 0f 23 af bd c5 18 a1 3e fb 4f 65 be f2 d6 63 3d
       -0.08551609 0.3146421 -0.22393791 0.05562491
000250 40 a4 e4 3d 56 ed a5 bc ef 4f 7a bd 63 ea 2d be
       0.11164141 -0.020254772 -0.061111387 -0.16983943
000260 04 d3 ea bd 03 66 8f 3e af a2 ab 3b c4 12 39 be
       -0.11466029 0.28007516 0.0052378993 -0.18073565
000270 0a c3 48 3d a6 f1 86 3c d7 a2 64 be fd b4 a3 bd
       0.04901413 0.016472649 -0.22327743 -0.07993505
000280 54 6f 26 be de c0 89 3d b4 69 71 bd b7 02 bf bd
       -0.16253406 0.067262396 -0.058938697 -0.0932669
000290 90 4f 34 be ab 77 14 3e 7c 14 17 3c c5 3d 15 3e
       -0.17608476 0.14498775 0.009221192 0.14574344
0002a0 f3 65 b6 3d 9b 67 3b 3e c4 8f 66 bd 3a 73 9b be
       0.08906164 0.18301241 -0.05628945 -0.30361348
0002b0 9c 61 cd bd b1 df 41 bd f0 c9 45 be e6 16 80 3d
       -0.10028383 -0.04733247 -0.19315314 0.062543675
0002c0 6a 5b 13 bd 72 41 1e 3e 4c d2 5f 3e 58 1d 7d 3e
       -0.03597585 0.15454653 0.21857566 0.24718225
0002d0 5d 4f 25 bd b2 b0 6b 3e ef fb 2d be 5c b8 3a be
       -0.04035889 0.23016623 -0.16990636 -0.1823439
0002e0 82 5c 68 be 8f a4 58 bc 41 18 8f bd 33 9e 3f be
       -0.22691539 -0.013222828 -0.06987048 -0.18712692
0002f0 a7 6c 95 3d 16 bd 38 3d 85 9d 1b be 23 18 f3 3d
       0.072961144 0.0451022 -0.15196808 0.11869838
000300 e8 a4 01 3e ad ca 0e be 17 38 70 3d db 42 67 bc
       0.12660563 -0.13944502 0.05864724 -0.014115061
000310 e7 13 17 be c2 1a 85 be 53 54 18 be 59 13 d5 bd
       -0.14753686 -0.25996977 -0.14875917 -0.10404081
000320 a6 e3 2b 3e ab ad 3f be bc 99 19 be ec ce 68 3c
       0.1678606 -0.18718593 -0.15000051 0.01420949
000330 3e 44 0d be e5 c5 7b bd fa 3a 1c be a8 9b 29 be
       -0.13795564 -0.061468024 -0.15256873 -0.16563284
000340 17 f8 7b 3e 3e 7f 40 be a5 39 05 be 38 e6 38 be
       0.24606358 -0.18798539 -0.13010271 -0.18056571
000350 19 94 bd bd 2b 66 05 be cc 9a e2 bd 1f cd 43 be
       -0.09256763 -0.13027255 -0.110646814 -0.19121216
000360 7b c5 f1 3d 1f f1 fa 3d fa 11 0f bd 89 75 38 3c
       0.118052445 0.122530214 -0.034929253 0.011258491
000370 0a df 3e 3c 78 e6 98 3d 4a 2b 34 be bd a9 1a be
       0.011649856 0.074658334 -0.17594638 -0.15103813
000380 35 7c a6 3d 54 b3 0f 3e 09 f9 2f be 1d 1c 87 bd
       0.08129159 0.14033252 -0.17184843 -0.06597159
000390 9d 8e 23 3e e0 a3 b8 bd f6 15 16 bd a7 ac e6 3d
       0.15972371 -0.09015632 -0.036642037 0.112633996
0003a0 b0 be 41 be c4 74 9e bd bf 8f d3 3d 32 05 71 bd
       -0.18920398 -0.07737115 0.10330152 -0.058842845
0003b0 7f 9f 7f 3d ac f2 9f 3d 6a c2 56 bd 69 fd 00 3e
       0.062407967 0.07809958 -0.0524315 0.12596668
0003c0 83 45 06 be da 95 18 be 4f d2 41 be e0 cb ce bc
       -0.13112454 -0.14900914 -0.18927883 -0.0252437
0003d0 dd 32 0e be 91 fc 5d 3d ed 85 51 3d ed de 76 be
       -0.1388659 0.054195944 0.051153112 -0.24108477
0003e0 c1 3b 9c bd 77 37 05 be 60 2f ce 3d ee 1f 37 3e
       -0.07628585 -0.1300944 0.1006763 0.17883274
0003f0 38 65 3f be 30 e5 ab 3d a3 32 c2 bd fc 4f 93 bd
       -0.18690956 0.083933234 -0.094823144 -0.0719299

bias f4 [10]
000000 5d 24 48 be c4 26 56 bd 6f d2 1b bb 7a 6a bd bc
       -0.19545121 -0.052283064 -0.0023776551 -0.023122061
000010 5c f2 32 3e e6 ec e7 bc 02 52 79 3d 8e 72 41 bd
       0.17475265 -0.028311204 0.060869224 -0.04722839
000020 8f 75 b1 bc 41 fa e6 3b
       -0.021662502 0.0070488756
