models/gpu_train_model9.pth (torch, 587335 bytes, 10 tensors)

weight f4 [32, 3, 5, 5]
00000000: af5a 683d c641 373e 1d16 363d 7b06 18bd
00000010: 532e d5bd c1ce 13bc 955b d53d 137c 103e
00000020: 8429 a4bd ad09 25bd 1e8a e73c deb3 013e
00000030: af0e 813a 2776 76bd f8dc 91bc e32e 863d
00000040: ac62 35bd 7bfd 93bd fa8d 05bd a706 203e
00000050: c9cd c7bd c465 9bbd 3e1a cb3d e094 673d
00000060: 1455 113e 5e4f c63d e0e1 f93d 51ba 8bbd
00000070: dbdb c03c 0657 a8bd 50bc ee3d 3488 73bc
00000080: 2b3c c23c 983d efbd 9fdc 9e3b f43e e03c
00000090: 5c4c 233d a971 d23c 4878 77bd 453d 97bd
000000a0: 2646 a2bd 31f5 d9bd d380 653c 540b ce3c
000000b0: f3e8 1b3e df5d 79bd 46f2 f83b c5b3 583d
000000c0: e9a2 643c d58f bc3d c75c 733d 6e9d c83d
000000d0: 7678 0fbe d3dc 36be f980 b6bd 0dd5 9fbd
000000e0: d21e 0a3c 54bf 26bd c1e4 3cbe 091e 14be
000000f0: afe3 a2bd 77e9 cebb ca46 72bd ec1a 2dbd
00000100: f89c 623c 5cec b2bd 803d 983c 63c1 0dbe
00000110: ffa2 7f3d 67d7 1a3d ce44 10be 74f1 833d
00000120: 1d5f cdbc feb6 9ebd 582a 93bb 1e28 833d
00000130: 142b 52bd e8ea a7bd 215d 37ba 2b1e 8fbd
00000140: b4be 02be 25f0 14be b359 41be 7881 9f3c
00000150: 44ba 123e 6443 39be 6692 f2bd 1b9f c8bd
00000160: 9771 1b3e 7fd6 c03d f8f2 a53c 8232 0fbe
00000170: fdde bc3c cc4e 8a3d 31f8 053e f65f 793d
00000180: 8a8a 2cbe 7ee3 933d 9151 033e ea9e 02bc
00000190: 198a e13d 5304 ecbd 32d8 e5bc 6ea2 fa3c
000001a0: e41c 243e a00f a8bd 03ec 2a3c 6273 10be
000001b0: b310 e73d 495a 1c3e e71a ccbd 6668 933d
000001c0: 8b37 1ebd de49 e33d 2095 d73d 79ea 613d
000001d0: 65fc f1bd f35b 213e 8f90 1f3e 0d6a e73d
000001e0: 8c0d a73c a37d bf3c f0d2 053e ee31 443d
000001f0: 3f93 a83d eea1 a83d 307a 59bd 6f59 38be
00000200: 272e 64bd c7c7 1bbd c682 3dbd 22c6 09bd
00000210: da8e 24bd 050f 4d3d 53b1 293d c748 0fbe
00000220: acce 013d 76eb 933d 0b46 7c3d 2235 0fbd
00000230: efee 22be 9755 edbd 6665 ee3c 0708 49bd
00000240: d7a3 573c 5dfc 04be cd40 7abc cd31 a2bc
00000250: 0fbd f13d 982b 293d 212c a0bd f0d7 003e
00000260: f22b af3d be65 103d 677f 4e3d 5ebf 0dbe
00000270: ff65 2a3e d020 243e 81cd a4bd 9430 9dbc
00000280: cfd2 b5bd 4b02 d73d b806 263e c2af a73c
00000290: 622f 073e d6e7 b83d e47f 2b3e 7361 a1ba
000002a0: d3f0 5d3d 1f6a 413e 2aab cd3d fe0c aa3d
000002b0: d62a e63d 5546 a43b 46b2 203e 6447 16bd
000002c0: 3ea9 f03c c4ae 49bd 8696 8abd 1c60 033e
000002d0: 8bd0 22bd 580e 91bc 5b41 a7bc 80ab 9d3d
000002e0: eba5 653d 0ea0 03be e89a 17bc 40da a83a
000002f0: cf5b f3bd 17dc 493d 6cb4 94bd 75e8 a2bd
00000300: 4aa9 d7bd 8139 7aba d874 073e 431b b23b
00000310: 2972 cb3a 934d 293d 67c4 983d b14d 5bbc
00000320: 8663 76bd cc31 b0bd 8413 51bd 3ef2 233d
00000330: fecd 02be 8633 42be b3f2 d93b 832b f7bd
00000340: f45a 19be f81c da3b c9af 69be ea03 abbc
00000350: 1114 89bd 57d0 bcbd c619 463d c47f 9ebd
00000360: acb3 92bd 9656 aebd 66f5 4cbb 0064 48bc
00000370: be0d 44be 224e c93c 20bc 1bbe 2f4e 463d
00000380: 2854 d03b ddb1 ad3d 1d31 70bd 1733 83bd
00000390: 6429 d0bd 7aeb cd3d 09b5 68bd 676b aa3d
000003a0: c577 43bd e302 1d3d a8ee c73d 744e af3d
000003b0: 6bb1 15bd b12a dc3d 1f2f 16bd e88f 0b3e
000003c0: 211a d4bd a9cf ff3d a56d 833d fe7c 2b3e
000003d0: f8ec b13d 144c ec3c 2158 81bd e01c b53d
000003e0: a578 ba3d 307c 08bd e5c6 c5bd 8608 16be
000003f0: 2242 573d 15d9 64bd 379a 8a3d d5ae b33d
0.056727108 0.17896184 0.044454683 -0.037115555 -0.10409226 -0.009021462 0.104178585 0.1410983
-0.08015731 -0.04029243 0.028264102 0.1266627 0.0009846295 -0.060171273 -0.017805561 0.06551912
-0.044283554 -0.07226082 -0.032606103 0.15627538 -0.09756047 -0.0758777 0.09917115 0.056538463
0.14192611 0.09683107 0.12201285 -0.068226464 0.023542335 -0.082197234 0.116570115 -0.014864016
0.023710331 -0.1168167 0.0048480774 0.027373768 0.039867744 0.025688963 -0.060417444 -0.07384733
-0.07923536 -0.1064247 0.014007765 0.025151886 0.15225582 -0.060880538 0.0075972406 0.052905817
0.013954856 0.09207121 0.05941465 0.09795652 -0.14010796 -0.17857675 -0.08911318 -0.07804308
0.0084302 -0.04070981 -0.18446638 -0.14464583 -0.079535834 -0.0063144523 -0.05914954 -0.042262003
0.01383137 -0.08736488 0.018584013 -0.13843302 0.062411305 0.03780308 -0.14088747 0.06442538
-0.025069768 -0.07749747 -0.0044911318 0.06404136 -0.051310614 -0.08199102 -0.0006994773 -0.06988176
-0.1276806 -0.14544733 -0.18881874 0.019470915 0.14328867 -0.18092114 -0.118443295 -0.09795972
0.1518005 0.09415912 0.020257458 -0.13984111 0.023055548 0.067533106 0.13082959 0.06088253
-0.16849723 0.07221125 0.12824084 -0.007972458 0.11012668 -0.11524262 -0.028057192 0.03059503
0.16026646 -0.08206105 0.010432246 -0.14106515 0.11282482 0.15268816 -0.09966069 0.07197647
-0.03862719 0.110980734 0.1052649 0.05515525 -0.118157186 0.15757732 0.15582488 0.112995245
0.020392202 0.023375338 0.13068748 0.04789918 0.0823121 0.08234011 -0.053095043 -0.18002866
-0.055708077 -0.03803232 -0.046267293 -0.03363622 -0.040175296 0.050063152 0.041428875 -0.13992606
0.03169124 0.07222645 0.061590236 -0.03496278 -0.15911458 -0.115885906 0.029101085 -0.04907992
0.013161621 -0.12986894 -0.015274239 -0.019799137 0.11803638 0.04130134 -0.07820917 0.12582374
0.08553304 0.03525328 0.05041447 -0.13842532 0.16640471 0.16028142 -0.08047009 -0.019188203
-0.08878099 0.10498484 0.162135 0.02046955 0.13201669 0.09028594 0.16748005 -0.0012312367
0.054184746 0.18888138 0.100424126 0.08303259 0.11238639 0.005013267 0.15693006 -0.036689177
0.029377576 -0.049238935 -0.06766991 0.12829632 -0.039749663 -0.017707035 -0.020416906 0.07698727
0.056066435 -0.12854025 -0.009253241 0.0012882426 -0.118827455 0.04928216 -0.07260975 -0.07954494
-0.10530336 -0.0009545312 0.13228166 0.0054353788 0.0015521693 0.041333746 0.07459336 -0.013385222
-0.060153507 -0.08603248 -0.051044002 0.040025942 -0.12773892 -0.18964967 0.0066512465 -0.12068846
-0.14976102 0.0066562854 -0.22820963 -0.02087589 -0.066932805 -0.09219425 0.048364423 -0.07739213
-0.07163176 -0.08512609 -0.0031274199 -0.012230873 -0.19145867 0.02457339 -0.15208483 0.048414405
0.0063576885 0.0848119 -0.058640588 -0.06406229 -0.10164145 0.10054679 -0.056813274 0.083212666
-0.047721643 0.03833283 0.09762317 0.085598856 -0.036546152 0.1075033 -0.036666032 0.13629115
-0.10356546 0.1249078 0.064173974 0.167469 0.08687776 0.02884487 -0.063156374 0.08843398
0.09105042 -0.03332156 -0.09657077 -0.14651689 0.052553304 -0.055871088 0.067676954 0.08773581

bias f4 [32]
00000000: 9360 603d 1416 883d 2753 f13c c98e 2cbe
00000010: 931f 1abd 4a20 263e 1a28 1c3e 4699 183e
00000020: 877a 98bd a163 563d e1cf 3d3e 7869 7cbe
00000030: fb9f 89be 29b8 e63d c0c2 f0bd 905a 89be
00000040: 90fd 38be 17aa 173d 8dfd 563e 13da f9bd
00000050: 2805 c3bd 31b2 a2be 2d9c f0bc d7ea adbd
00000060: db07 4ebd 6016 4b3c af72 04ba 4dfb e9bd
00000070: f92c a3bd e0fc 41bd 84e7 543d 16f9 f83d
0.0547796 0.06644836 0.029458595 -0.16851343 -0.037627768 0.16223255 0.15249673 0.14902219
-0.07445245 0.052341107 0.18536331 -0.24649608 -0.26879868 0.112655945 -0.117558956 -0.26826906
-0.18065476 0.037027445 0.2099516 -0.121997975 -0.09522468 -0.31776574 -0.029371345 -0.08492058
-0.05030046 0.012395471 -0.00050524896 -0.11424885 -0.07967562 -0.0473603 0.051978603 0.12156884

weight f4 [32, 32, 5, 5]
00000000: c801 91bc e356 be3c 92e4 553c f65e efbb
00000010: 3de5 ee3c f5d4 58ba f0db c8bb 53b6 183d
00000020: 5ab6 813c 7f23 523d 3072 573b 9885 0a3d
00000030: ff73 573d 5666 853c ba0b a7bb 62d7 d53b
00000040: 8c8c 583d 7f76 563d e15e 273d e013 373c
00000050: 3075 323c c3b2 c63c 568d a13c 7531 603c
00000060: 8d40 b63c 2844 83bb 26b7 cebc 43a4 61bb
00000070: 686d 003d d555 303d 6b2e 363c 7298 6c3b
00000080: 753a 98bc 8f85 c5ba c123 643d 1add 9dbb
00000090: b70a 6cbc 4a54 343c bdc3 513d 3974 5f3d
000000a0: ab77 5dbd b57c 10bd 2688 463c f702 c7bb
000000b0: de14 253c d4a0 92bc 1f83 fbbc 276c e53c
000000c0: 812e bf3c f917 073d d89b c43c 9e88 42bc
000000d0: 6a31 a1bc 6e54 803b 64e7 afbc 4da5 ee3c
000000e0: 4741 40bd a915 683c 543a 143d ee1a dabb
000000f0: 6317 3ebd a6d5 32bc 3cf5 fdbc 1abf 3cbc
00000100: 4510 81bc c262 a1bc f6d9 2bbd a845 f9bc
00000110: 18da ef3c 7c14 d1bc 562c d4bc 6ab7 953b
00000120: 5446 3dba e37c cdbc 26bb 8f3c 3cbd 00bd
00000130: ce64 a93c f428 ba3c 757c a33c 2c25 703a
00000140: f450 de3b a410 633c b678 b7bb 6d9d 06bc
00000150: 4b61 87bc e86a 17bd 5196 f2ba 5d09 93ba
00000160: 4265 ea3c 2e0a dc3c 293c c1bc 960c c8bc
00000170: e996 2fbd 08ee e8bb 99c6 4abc 24dc aebc
00000180: d597 2ebb 57a3 693c f261 d93c eaa1 b83c
00000190: a151 d93c ffd6 223d ae09 56bc 8980 e93c
000001a0: 25a9 6abc 75fc 133c af1f 023d 06cb 313d
000001b0: abe0 093c 1730 453c 985f e1bb 4524 403d
000001c0: e7e5 583c 1151 ccba 29ea b13c 2759 f53b
000001d0: 4170 4f3c eadb 1dbc e7e7 27bd 3ca7 7ebc
000001e0: fadd ddbc 3d81 cfba 412f 2dbc 611d 37bd
000001f0: ec67 41bc 3821 4c3d e2c7 70bc a42b aa3c
00000200: b807 1a3a d7d1 983c e8d8 1d3d 426c 663c
00000210: c058 993c 0ddc a33c f2b4 233c 7633 f23c
00000220: 68e8 ff3b cd9d 0b3d 785a d5ba 68e7 62bc
00000230: 16d9 4c3d 56ac f33b 94c8 833c 6b09 96bc
00000240: 7720 913c 5738 203d 6fc6 ea3c 02ac ca3c
00000250: 896a ed39 023f 033b b605 77bc 1899 b83c
00000260: 8acb e43c 8f9a 7d3d 7081 e63a b798 c3bc
00000270: 52e4 303d 9124 413d cabb 7d3d 890f 293d
00000280: df26 ecbc b6a8 613d 456d d43c af51 c03c
00000290: 9aa7 623d f012 15bc f743 f03c c7e1 dd3c
000002a0: fff2 7f3d f853 253d df4d 953c c750 d8bc
000002b0: 7d51 723c 56d1 edbc b408 bdba 6579 f43a
000002c0: c7e8 9f3c eaa2 9b3b 7d51 ff3c 2588 e53c
000002d0: d079 1c3d cb3a a03c 73fe 673d 2920 5b3d
000002e0: e521 f63c 6351 73bb e303 e23c ffdd 1c3d
000002f0: 44c3 abbb a9bf 0c3c 5a08 133d 9340 86bb
00000300: 4b3d 823b f153 7ebc 4115 b3bc bc81 7abc
00000310: 0ece 303b 252d 40bd 6ebd fbbc 46aa 3dbd
00000320: 57e0 b73a 8e0e 0ebc 3c9b 3b3c 8646 b339
00000330: d1a2 9f3c 0e20 c1bc 5b57 4dbc 61a7 28bc
00000340: ff25 f73c 7de4 02bc 801c d03c d742 a73c
00000350: 541b fd3b 75be 8abc 365d 193d 6a6f bcbb
00000360: d61b 123d c33d bd3c 97f4 863c a76a d23b
00000370: dd9a 3bbc 6371 1ebd 48ec 993b 2233 75bb
00000380: 3db2 21bd 1bbe a33c e78d b4bc 2f04 49bc
00000390: dfed 80bc 4dce 9ebc 86ad 10ba ca5a 1ebd
000003a0: 8ced 79bc 529d 03bd 8918 9bbc b79a 9dba
000003b0: 6aa8 40bd 2f64 47bd 11c7 5b3c 9ea0 8abc
000003c0: 69db 8f3c b662 bbbc b1b1 86bc 090d ab3c
000003d0: 4716 31bb 2fea bfbc 8c08 26bd bfe7 76bc
000003e0: 9e88 d63c 5fd2 e2bc e2bb 183d 11cc 113c
000003f0: 989c 4d3b 0da4 38bc 89b4 393d 8f16 c03b
-0.017701045 0.02323479 0.013054984 -0.0073050214 0.029162044 -0.0008271479 -0.006129734 0.037283253
0.015834022 0.051303383 0.0032874458 0.03381881 0.052600857 0.01628415 -0.0050978335 0.00652592
0.05286841 0.0523591 0.040861968 0.011174172 0.0108921975 0.024255162 0.019720715 0.0136836665
0.022247577 -0.0040059276 -0.025233816 -0.0034430183 0.031354338 0.043050606 0.011119465 0.0036101607
-0.018582562 -0.0015069711 0.05569816 -0.004817617 -0.0144068515 0.011006424 0.05121206 0.054554198
-0.054069202 -0.03527518 0.012117421 -0.0060733515 0.010075776 -0.017898954 -0.030702172 0.028005673
0.023337604 0.032981846 0.024000093 -0.011873392 -0.019676883 0.003916315 -0.02147264 0.029131556
-0.046937253 0.01416532 0.03618844 -0.0066560423 -0.046409022 -0.010915196 -0.031000726 -0.011520172
-0.015754828 -0.019700412 -0.04195591 -0.030428723 0.0292788 -0.025522463 -0.025900047 0.004568984
-0.00072202575 -0.025083965 0.017545294 -0.031430468 0.02067795 0.022724606 0.019956807 0.00091608125
0.0067845527 0.013858948 -0.0055991067 -0.008216244 -0.016525885 -0.036967188 -0.0018507933 -0.0011218
0.028612737 0.026860323 -0.023588257 -0.024420064 -0.04286853 -0.0071084537 -0.012376451 -0.021345206
-0.0026640792 0.014260135 0.026535962 0.022538144 0.026528182 0.039755818 -0.013063831 0.028503673
-0.014322554 0.009032358 0.031768497 0.04340651 0.008415381 0.012035391 -0.0068778507 0.04690959
0.013238407 -0.0015588125 0.021718102 0.0074874344 0.012661041 -0.009634951 -0.040992644 -0.0155428015
-0.027083386 -0.0015831363 -0.010570348 -0.044705752 -0.011804562 0.049836367 -0.014696093 0.020772763
0.0005875784 0.018654747 0.038536936 0.014063897 0.018719077 0.02000239 0.009991871 0.029565554
0.0078096874 0.034086037 -0.0016277572 -0.013849117 0.050011717 0.0074363155 0.016086854 -0.018315038
0.017715676 0.03911623 0.028659074 0.024740223 0.00045283537 0.002002657 -0.015077045 0.022533938
0.027929086 0.061914977 0.0017586183 -0.023876531 0.043186493 0.047154013 0.061946668 0.04127458
-0.028827129 0.055092536 0.02593101 0.02347645 0.05533562 -0.009098753 0.029329283 0.027085198
0.0624876 0.040363282 0.018225608 -0.026405705 0.014789936 -0.029030483 -0.0014422149 0.0018651901
0.019520177 0.0047496455 0.031166786 0.02801902 0.038202107 0.019559285 0.056639146 0.053497467
0.030045459 -0.0037127368 0.027589744 0.03829765 -0.0052417833 0.008590617 0.035896637 -0.0040970533
0.003974592 -0.015522943 -0.02186072 -0.01528972 0.0026978287 -0.046918053 -0.030729976 -0.046304964
0.001402865 -0.008670462 0.011450585 0.00034194085 0.019486817 -0.023574855 -0.012533034 -0.0102938125
0.030169485 -0.007989046 0.025404215 0.020417614 0.007724205 -0.01693652 0.03744241 -0.0057505863
0.035671078 0.02310074 0.016474051 0.0064214054 -0.0114504965 -0.038682353 0.0046973564 -0.003741451
-0.039476622 0.01998811 -0.02204032 -0.012269064 -0.015738426 -0.019385481 -0.0005519021 -0.038660802
-0.0152543895 -0.032132454 -0.018932598 -0.0012024258 -0.047035612 -0.048679527 0.01341416 -0.016922291
0.017560678 -0.022874217 -0.016442152 0.02088024 -0.0027021335 -0.023427097 -0.040535495 -0.015069901
0.026188191 -0.027688203 0.037288554 0.008898751 0.0031373855 -0.0112695815 0.045338187 0.005862064

bias f4 [32]
00000000: 0d75 ed3c bd26 b6bd f33d 373c 8984 61bc
00000010: af4d 0fbd faeb 1f3d a95f 33bc dcb7 82bd
00000020: 236c 8fbb c353 8abd 255c 3ebd b5de 363d
00000030: 1c57 15bd bd29 47bb 54eb d1bd 4df1 7fbd
00000040: 21af 4fbc 811f 91bd e25f 2bbd 45d5 b8bd
00000050: 7866 683d 749f e7bd bc90 2fbc c399 fbb9
00000060: b5e4 2d3c 8625 473d 5ab5 90bd 20be ddbd
00000070: fade 1b3d fbea 68bd 4a24 1cbd 4326 9cbd
0.028986478 -0.088941075 0.011184203 -0.013764509 -0.034986194 0.039043404 -0.0109481 -0.06382725
-0.0043769046 -0.067542575 -0.046474595 0.044645984 -0.036460027 -0.0030389868 -0.102499634 -0.06248598
-0.012676031 -0.07086087 -0.041839488 -0.09025053 0.056738347 -0.1130971 -0.01071566 -0.00047989012
0.01061361 0.04861977 -0.0706584 -0.10827279 0.038054444 -0.05686472 -0.038120545 -0.07624485

weight f4 [64, 32, 5, 5]
00000000: 5774 96bc 713b 47bd ebd3 09bd 41a6 21bd
00000010: 9d75 deba 1cef 303d 95f1 b0bb 6805 0dbc
00000020: e1d8 95bc eb10 65bc a10b d2bc 30f1 b33c
00000030: 6134 ddbc 6f59 8d3a 2817 1cbb c79f de3c
00000040: 37e5 9abc eba0 873c a99e 443c a6d9 773d
00000050: 5120 883b 1e47 ef3c fdbd 6a39 aa5d 8dbc
00000060: 9924 093d 9a96 853d ca29 9a3c dc11 37bd
00000070: 858e 21bc 51c9 edbc 02f4 2b3d 1cfc 28bc
00000080: 3e7e d53a 5440 7ebc 2043 e6bb 8a14 263a
00000090: 31ee a93c 2567 f03c 81b1 5f3d 1b94 1f3d
000000a0: 30f7 1ebc a19d 62bb 1326 21bb 6b9f 36bc
000000b0: 803c cfbc c880 ee3a bbd0 593c 4328 213d
000000c0: 37f2 18bc bd11 223c f40e ca3c 4bda 7ebc
000000d0: bb98 10bd 3770 41bd 8d60 5b3c 7bd8 d73c
000000e0: c949 2d3c 1d44 f03c 25cf 06bc a998 28bd
000000f0: a643 b93c 7500 9d3c 0379 13bc b240 0b3d
00000100: bebb f83c 0beb 87bc d06d c438 1c9d 9f3b
00000110: 2510 adbc 7f6f 703c 0bb6 f9bc 2c55 db3b
00000120: 22be c13c 925f d8bc e674 49bc a27f 39bc
00000130: c0ef 633c dc26 02bb 9aa8 053c a252 013d
00000140: a93f 8d3c 1c51 40bb ab4f 7f3c 82fd 51bc
00000150: b9ee ccbc 684b 2e3c d7d6 56bb 8a9a 0abd
00000160: 438c f8bb 1b14 86bc 5f36 043d c389 d63c
00000170: 299b eb3c 5db2 0b3b c59a 9abb 7478 14bd
00000180: a7cc 13bd 2c11 a93b cb77 09bd 32f7 7bbb
00000190: 80e4 fcbb e6a0 91bb 4947 90bc 7b7d f4bc
000001a0: 2689 16bd 708c 163d c368 cbbb 345d aa3b
000001b0: a7a7 d83b 39e8 83bb ad94 ec3b 7654 b43c
000001c0: e85b 4bbc 263f 193c 3354 bdbc a816 e5bc
000001d0: 9428 60bb fcda a53a 4181 1e3d f5f4 f5bb
000001e0: 7c09 ef3b aa15 59bb f3ff 4abb 5633 033c
000001f0: 78ab 7f3c 9238 8abb a18d 2b3c df97 3bbd
00000200: 7cad 3bbd fe87 573b ecdb 8a39 b13f e4bb
00000210: 48a6 f0bc 4b93 293c 5c31 52bd b7aa 09bd
00000220: 709a fa3b 8037 2dbc 4d48 b43c 0f36 883c
00000230: ab98 0abd 8d1f 0abd 01fc 923c cceb 87bb
00000240: 9646 8ebc db51 0ebd 2a73 263d f56a 963c
00000250: 6802 2f3d e5ea 033d e803 f43c 7f3c 033b
00000260: facc eb3c 37c8 5c3c 98c0 4f3c 1af3 453b
00000270: 2fb3 0ebd 8744 3b3d 8378 3e3d 03f6 abbc
00000280: ec4a 8abc ef77 aa3c 12c1 203d bb02 013c
00000290: 6e80 4bbc 176a 0cbd 1ec7 d2bc c3eb b5bc
000002a0: 991d 9ebc d89c 4c3d 18e2 50bb 32b1 c539
000002b0: 652c 0b3c 4dfd 17bb 3aa7 f53a 7538 b7bc
000002c0: d9a8 9a3c cb05 03bc f4ef 53bc a888 d5bc
000002d0: 9a81 dcbc 5ce3 91bc 322d 85bc 85c8 58bc
000002e0: f19b a9bb 1de6 493c 126c 08bc 68fd 12bd
000002f0: 8861 e13c 01c7 80bc 3eda 4a3c 68c9 163d
00000300: 5c89 57bb 0672 c4bc 352d a03c bf61 b5bc
00000310: 6519 dfbc 5524 01bb b9e6 c8bc 2b3a 933c
00000320: 4d66 913c 0623 27bb cf62 273c f601 c3bb
00000330: 8653 f8bc 328f 793b d6ed f43b 58f0 2cbc
00000340: be86 203c 5334 a4bc 38c9 b53c f3b6 33bc
00000350: a30e 71bc 3271 febc 32c4 8d3c c127 dfbc
00000360: 6458 563c c129 8e3c bc0e c1bc 426b dbbc
00000370: 36c6 97bc 37b8 febc 4a54 c03c 7c5d cc3c
00000380: 3b62 5d3c 2311 003c 7e8c 9bbc e908 17bc
00000390: e8b3 cebc 2723 a9bc 0795 bdbc b31e 623b
000003a0: aa2c c8bb 9df0 98bc eb6c 88bc afba dbba
000003b0: b2f3 d7bc 87ea d23b 89a9 023c 40e6 83bc
000003c0: 2ea6 43ba 0faa bebc c671 fabc 722f b4bc
000003d0: 1b3a 6f3b ab41 efbc 6123 3ebc f6b4 db3b
000003e0: fd79 293c 8eb9 cd3c 6fbd 71bc df65 0ebd
000003f0: 2a8c 9abc 5c8e 07bd e26c 6e3c 615d efbb
-0.018366022 -0.048640672 -0.033649366 -0.039465193 -0.0016972307 0.043196782 -0.0053998926 -0.008607246
-0.018291892 -0.013981084 -0.02564031 0.021965593 -0.027002515 0.00107841 -0.0023817513 0.027175797
-0.018908126 0.016556224 0.012000718 0.0605103 0.004154243 0.029208716 0.00022386755 -0.017256577
0.033482168 0.065228656 0.018818755 -0.044694766 -0.009860639 -0.02902666 0.04198075 -0.010314014
0.0016288233 -0.015518267 -0.007027045 0.0006335458 0.020743461 0.029346058 0.05461264 0.038959604
-0.009702489 -0.0034578817 -0.0024589344 -0.011146407 -0.025297403 0.0018196339 0.013294394 0.039345037
-0.009335092 0.009891924 0.024665333 -0.015554975 -0.035301905 -0.047226157 0.013389719 0.026348343
0.010576674 0.029329354 -0.008228098 -0.041161213 0.022615265 0.019165257 -0.009001019 0.033997245
0.03036296 -0.01659157 9.3664625e-05 0.004871024 -0.021125862 0.01467502 -0.030482313 0.006693503
0.023650233 -0.026412759 -0.012295937 -0.011321934 0.013912141 -0.0019859588 0.0081578735 0.031572945
0.01724227 -0.002934522 0.015582959 -0.012816789 -0.025016176 0.010638095 -0.0032781863 -0.033838786
-0.00758508 -0.016367009 0.032278415 0.026188737 0.02876051 0.002131603 -0.004718157 -0.036247686
-0.036083844 0.0051595178 -0.03356151 -0.00384469 -0.007717669 -0.0044442294 -0.017612116 -0.02984499
-0.03675189 0.036755025 -0.006207557 0.005199099 0.0066117826 -0.004025486 0.007219872 0.02201293
-0.012412049 0.009353435 -0.023111438 -0.027964905 -0.0034203874 0.0012653763 0.038697485 -0.007506008
0.007294832 -0.0033124485 -0.0030975312 0.008007845 0.015604846 -0.0042181695 0.010470779 -0.045799132
-0.045819744 0.0032887454 0.00026485266 -0.0069656004 -0.029376164 0.010350059 -0.051316604 -0.033610072
0.007647805 -0.010572314 0.022007132 0.01662734 -0.033837 -0.033721495 0.01794243 -0.004147982
-0.017367642 -0.034746032 0.040637173 0.018361548 0.042726904 0.032206435 0.029787019 0.0020025072
0.028784264 0.013475469 0.012680195 0.0030204714 -0.03483885 0.04571965 0.046501648 -0.020991331
-0.016881429 0.020809142 0.039246626 0.007874186 -0.012420757 -0.034280863 -0.025729712 -0.022207147
-0.019301223 0.049954265 -0.0031873044 0.0003770679 0.008494471 -0.002319175 0.0018741854 -0.022365788
0.018879341 -0.007996987 -0.012935627 -0.02606614 -0.026917268 -0.017808609 -0.016256902 -0.013231401
-0.0051760604 0.01232293 -0.008326547 -0.0358862 0.027512327 -0.015719892 0.012381135 0.03681317
-0.003288827 -0.023980152 0.019552806 -0.022141336 -0.027233789 -0.0019705493 -0.02452408 0.017972073
0.017748976 -0.0025503053 0.010216429 -0.0059511615 -0.030313265 0.0038079736 0.0074746413 -0.010555349
0.00979775 -0.020044481 0.022190675 -0.010968911 -0.014712962 -0.031059835 0.017305467 -0.027240636
0.013082597 0.017353894 -0.023566596 -0.026784543 -0.018527132 -0.0310937 0.023477692 0.02494692
0.0135121895 0.007816586 -0.01898789 -0.009218433 -0.02523227 -0.020646645 -0.02314235 0.0034503161
-0.00610884 -0.01866942 -0.016653499 -0.001676401 -0.02636132 0.0064366492 0.007974991 -0.016101003
-0.00074634224 -0.02327445 -0.03057183 -0.02199528 0.003650314 -0.029206118 -0.011605115 0.006704922
0.010344026 0.025112893 -0.014754637 -0.03476512 -0.018865664 -0.03309475 0.014552327 -0.007304833

bias f4 [64]
00000000: ff6d dfbc 1aac 26bc 41f5 1cbd 74af 0cbd
00000010: 2e67 66bc 868b a13c 22a5 3abd e3cc 58bd
00000020: 9b99 033d dd6f f8bc ec46 f6bc 7dcf 13bd
00000030: d168 b73b df9c 50bb 71fc cd3b 26af e9bb
00000040: 516d 9fbc 8b05 adbc 0026 52bd 2d3f 53bd
00000050: 2bf9 82bc 35e1 82bd 3ad2 e63b ad60 f4bc
00000060: c758 d7bc 6475 92bd 415d 7b3b ec46 d5bc
00000070: ad3e 81bc 9dd6 fabc 16d8 d4bc 36b1 943b
00000080: 00a1 e93a bc1b 95bb b36e 0d39 eeb3 ce39
00000090: c075 febc 02cd cd3b 079f 263d fd6f de3c
000000a0: 361a 74bd b72b 69bd 874c 0ebd b30f 38bd
000000b0: c941 913c 48f9 0c3d 591d 513c 04f4 c3bc
000000c0: 2f38 97bc a86e 71bb 1e1b b13c 7a06 80bd
000000d0: 278a 7bbd 5280 54bc 452c 433c 86c6 83bd
000000e0: d776 12bd 045b 233d eb63 9ebb e30c 43bd
000000f0: 0658 c8bc e974 0cbd 23b9 143d 9193 f63b
-0.02727413 -0.010172868 -0.03831983 -0.034347013 -0.014062686 0.01971985 -0.04556764 -0.05292977
0.03212891 -0.030326778 -0.030063115 -0.036086548 0.005597212 -0.0031831784 0.006286197 -0.007131475
-0.019461306 -0.021120807 -0.05130577 -0.05157392 -0.015987953 -0.06390611 0.007044104 -0.029831255
-0.02628745 -0.07151297 0.0038355144 -0.026034795 -0.015776956 -0.030619914 -0.025981944 0.0045377268
0.0017824471 -0.0045504253 0.00013488047 0.0003942544 -0.031062007 0.0062805424 0.040679004 0.02715301
-0.05959531 -0.056926455 -0.03474095 -0.044936847 0.017731564 0.03441742 0.012763345 -0.023920067
-0.018459408 -0.0036839638 0.021619376 -0.06251235 -0.06141105 -0.012970047 0.01191241 -0.0643435
-0.035757866 0.03988172 -0.0048336885 -0.04761971 -0.024456035 -0.03429118 0.036309373 0.0075249155

weight f4 [64, 1024]
00000000: 29dd cdbb 5710 e3bc 8f12 da3b a115 c13c
00000010: f8fa ab3c f65b 13bb ee9c 743b 7b9e 79bc
00000020: 27e7 093d f2f5 453c 5766 ba3c 8ab9 cb3c
00000030: d361 eabc 3fa0 b1bc 74d8 cabb 3254 9d3b
00000040: 4c62 13bd a1e2 62bc e858 59bc 8d83 f23c
00000050: 1234 643a ac95 933a 5cd6 533c 0da0 993c
00000060: 3084 6d3c c524 dd3c 54c1 cdbc c314 abbc
00000070: 3c36 b3bc 4b9b 40bc ef23 0f3d 7d57 203d
00000080: 262e 2f3c 9f3d 46bd 476a 80bb ac70 04bb
00000090: b485 8ebc ee67 c4ba 53bc e3bc db63 9bbc
000000a0: 76e7 a53c fdf6 f23c a1b6 243d 9047 283d
000000b0: 5b4f 91bc 3819 523b 7dfd 5d3b c2f3 333d
000000c0: 4229 b9bc 10fa b23b d28f 363c 5eb6 1fbd
000000d0: d06a 103d dfa3 0c3d 06e8 b73c 6f65 f93c
000000e0: c75d a1bc 2660 4f3d aa1f 493c a2da 5b3c
000000f0: 168f ab3c 8b31 843b f690 92bc 161c a63b
00000100: e6b4 debb 3052 a0bc f064 8f3c 28f3 0f3c
00000110: db2b 243d dfff 73bb 2599 923c b162 c1bc
00000120: e2fb bbbc 97e4 5dbc bfab 663c 0d3c 343b
00000130: 58c7 123d e86e a8bb 7600 573c ca28 cb3c
00000140: b7d9 d53a c21c 113d 61f0 7f3c 9a07 43bc
00000150: bdd4 c2bc 4095 0d3c e051 dfbc f2d6 a63c
00000160: d9b4 f7bb 25ca 273c e531 c339 0c77 91bc
00000170: 7778 f4ba 4b02 80bc 65ca 953b 8009 05bd
00000180: 9756 033d a29c f2bb 56eb 2fbc eda6 2abc
00000190: 263a d13c a3cc 7f3b 397f 0abc 3366 563c
000001a0: 4b3b cebc 8de5 a7bc 5676 123d 8fa6 3fbc
000001b0: cee1 b53c 4765 caba cbd5 5f3c cc2c 5c3c
000001c0: f12b 20b8 699b feb9 26ed a3bc 3ab2 993c
000001d0: b638 fe3c 4fd1 debc c5ed 6dbc 3a70 c03c
000001e0: 4f8f f73c 86b2 45bc b410 b5bb 990d 64bc
000001f0: 8c2f e1bc f277 8dbc 39be 0eba 0aa5 493c
00000200: 7da1 303c 18d3 1e3c 7e2a c2bc e46f 543c
00000210: d2da aabc 0d77 dfbb 98ff 9bbc 94ae f33c
00000220: ac42 8b3c 9fe3 9d3a dee1 7bbc d5ed 8f3c
00000230: c09c 9ebc 4a19 93bc 2f31 7fbc 5b16 c1bb
00000240: f49e afbc 24ae 48bb 79e8 16bd 2ee8 883c
00000250: 62ea 0cbc e542 8ebb f826 a8bb d909 08bb
00000260: 11f2 113a fe7a aa3c 63dc 403c 98cb bf3c
00000270: 7092 fabc 97b8 cebc 479a f13c 74f1 e1bb
00000280: 6fd1 db3c acee 1f3c 1a17 15bb dd81 4dbb
00000290: 34ac 96bc 20c9 d9bb 96df 9c3b 9b0e d6bc
000002a0: 2688 4b3c b16f 043d 763a 253c f4e7 2ebb
000002b0: c800 6fbc f92f 063a 8f1b ff3c 0956 2d3b
000002c0: f2ed 343c 5cb6 0e3b d161 a03c 0720 3f3c
000002d0: 6e5b f7ba b5ab dc3c ddeb d73c f4d7 2bbc
000002e0: 8674 c33b 621a fcbc 7647 9abc e7de ec3c
000002f0: 557c b73c be47 33bc ea34 303b 8c6a bfbc
00000300: 8ae5 523c 191f 36bc 536e 2d3d ac9b dd3c
00000310: 68c3 e23c c3e0 46bc 1beb a5bc f99e 42bc
00000320: f74a e3bc d3e8 193d a1c1 023d b8ea b8bb
00000330: 9b69 66bc 60e0 143c 59ab f33b 4a2d 173d
00000340: 0f96 9fbc b600 b7bc 0502 163d b952 78bc
00000350: 5da1 f73c 718e 033d cddb f93c 0ea7 93bb
00000360: 2f9c 8abb 2bcc b13b 4000 e63c 17a3 11bc
00000370: 5178 1fbc 4759 94bc 38e1 ee3c aed5 56bc
00000380: ec52 ad3b 5ee3 01bd f062 13bd c399 dabc
00000390: b8f5 433b fb6c ad3c 9d60 02bb b746 aebc
000003a0: 68f4 96ba b5b7 babc 34e9 a83c d40a c9bc
000003b0: ea54 8eba bcee 9cbc c305 1fbc 7851 b4bb
000003c0: e702 e53c 8290 c0bc 8e5f dc3b 3aa7 983b
000003d0: 89e8 e6bc 3ac8 8e3c db96 c63c ff18 a0bc
000003e0: 70ca 75bc 8947 beb9 b53f 973b fe8e 0d3d
000003f0: 7eae 583c 46b0 053b 397a cd3b 33cd b63a
-0.006282468 -0.027717752 0.0066550444 0.023569884 0.020993695 -0.0022485233 0.0037324983 -0.015235539
0.03366771 0.012082564 0.022753878 0.024868745 -0.0286111 -0.021682857 -0.006190354 0.0048012966
-0.035982415 -0.013847978 -0.013265826 0.029603744 0.0008705269 0.0011259816 0.012929525 0.018753076
0.014496848 0.026995072 -0.0251166 -0.020883923 -0.021876447 -0.011755775 0.03494638 0.039145935
0.010692155 -0.04839861 -0.0039189192 -0.002020876 -0.017397739 -0.0014984587 -0.02779976 -0.018968513
0.02025197 0.029658789 0.04021323 0.041083872 -0.017738035 0.0032058489 0.0033873015 0.043933637
-0.022602681 0.0054619387 0.011142688 -0.03899228 0.035258114 0.034335967 0.022449505 0.030443875
-0.019698037 0.050628804 0.012275616 0.013418825 0.020942252 0.0040342263 -0.017891388 0.005069266
-0.006796467 -0.01957044 0.017504185 0.008786 0.040080886 -0.0037231368 0.01789529 -0.02360663
-0.022947256 -0.01354327 0.014079033 0.0027501613 0.03583464 -0.005140174 0.0131226685 0.024799723
0.0016315494 0.035427816 0.015621276 -0.011903668 -0.023783082 0.008641541 -0.02726072 0.020366166
-0.0075594005 0.010241066 0.00037230473 -0.017756961 -0.0018651624 -0.015626093 0.0045712464 -0.032479763
0.032065 -0.007403926 -0.010737261 -0.010415775 0.025540423 0.0039031885 -0.008453184 0.01308589
-0.025174757 -0.0204952 0.035757385 -0.0116974255 0.022202399 -0.001544156 0.013661812 0.013438415
-3.8187896e-05 -0.00048562445 -0.020010542 0.018761743 0.031032901 -0.027199415 -0.014522021 0.023491014
0.030219702 -0.012066489 -0.005525673 -0.013919258 -0.027488492 -0.017269108 -0.00054452155 0.012307415
0.010780689 0.009693883 -0.023701902 0.01296613 -0.020856295 -0.006819612 -0.019042775 0.029746331
0.016999565 0.0012045986 -0.015373675 0.017569462 -0.019361854 -0.017956395 -0.015575691 -0.0058925576
-0.0214381 -0.0030621374 -0.036842797 0.016712274 -0.008600803 -0.0043414705 -0.0051315986 -0.0020757823
0.0005567382 0.0208106 0.011771294 0.02341251 -0.030587405 -0.025234504 0.02949251 -0.0068952385
0.026833264 0.009761494 -0.0022749365 -0.0031357922 -0.01839266 -0.0066462904 0.0047873957 -0.026130011
0.012422597 0.03233308 0.010084739 -0.0026688548 -0.014587589 0.0005118843 0.03114107 0.0026448986
0.011043059 0.0021776175 0.019577892 0.011665351 -0.0018871853 0.026937345 0.026357586 -0.010488499
0.0059648184 -0.030774299 -0.018832903 0.028914882 0.022398153 -0.010942398 0.0026887008 -0.023366235
0.012872109 -0.011115813 0.04234154 0.02705177 0.027681068 -0.012138548 -0.020253709 -0.011878722
-0.027745707 0.037575554 0.03192294 -0.005643215 -0.014063264 0.009086698 0.0074361977 0.036908425
-0.019480733 -0.022339206 0.03662302 -0.015156441 0.030228311 0.032118265 0.030500317 -0.0045059985
-0.0042300443 0.00542595 0.028076291 -0.008888981 -0.0097332755 -0.018108977 0.029160127 -0.013112469
0.005289426 -0.031710975 -0.035983026 -0.026684647 0.0029901098 0.02117013 -0.0019894012 -0.021273954
-0.001151693 -0.022792676 0.020619012 -0.024541296 -0.0010859047 -0.019156806 -0.009705964 -0.005502876
0.027955486 -0.023506407 0.006725258 0.004658607 -0.028187053 0.01742946 0.024241855 -0.019543169
-0.015001878 -0.00036292922 0.0046157488 0.034560196 0.013225196 0.0020399257 0.0062706736 0.0013946652

bias f4 [64]
00000000: 7890 cabc 442b 33bc 28d8 1fbb 29fe f1bc
00000010: 73c3 f1ba 827e 07bc 00f9 f73b ee0f 533c
00000020: 3ea2 3a3b 7a5f 41bc a8f8 5aba a22a 96bc
00000030: 9c5e 993c f8fd f6bb 6c3f 84bc 06f5 523b
00000040: f903 273c c491 9f3c ff4f 0d3c 6be5 273c
00000050: d650 2a3c 9186 a7bc 2f21 85bb 0ea4 4abc
00000060: 6fb9 f8bc be02 1bbc ab75 073d e2fd 9e3c
00000070: 7c78 21bd 78f5 afbc 521d 15bd 8a0c 36bd
00000080: 78a2 303d 599f bb3c 5212 273d 0ef4 c7bb
00000090: b8c1 6d3c d930 27bd c9c8 5f3c 4187 5b3b
000000a0: 3a6e 013b b3bf 6b3b 96e6 8ebc 3c5a 51bd
000000b0: 4f27 37bc 596c 1f3d c3bc 98bc 7988 823d
000000c0: fb3e 7a3b bb40 89bb bb76 fbbc f61b 3cbc
000000d0: de16 d5bc 2855 33bb a55a 52bd ec28 79bc
000000e0: a879 c83c 7542 acbb 48ee e7bc 17f4 2abd
000000f0: ad03 983c dd18 0d3d 8330 b13b 398e 033d
-0.024727091 -0.010935608 -0.0024390314 -0.029540138 -0.0018445089 -0.008269908 0.007567525 0.012882216
0.0028478052 -0.011802549 -0.00083530927 -0.018330876 0.018721871 -0.0075375997 -0.016143523 0.0032189502
0.010193818 0.019478686 0.00862503 0.010247569 0.010395249 -0.020449908 -0.0040627937 -0.012368215
-0.03036186 -0.009461103 0.0330712 0.01940817 -0.039421543 -0.021479353 -0.036404915 -0.044445552
0.043123692 0.022903131 0.040788956 -0.0061020916 0.014511518 -0.04081807 0.013658711 0.0033497366
0.0019749538 0.0035972416 -0.017443936 -0.051111445 -0.0111788055 0.038921688 -0.018644696 0.06373686
0.0038184512 -0.0041886247 -0.030696264 -0.011481276 -0.02601188 -0.002736399 -0.051355977 -0.01520751
0.024472073 -0.0052569457 -0.028311864 -0.04173669 0.01855644 0.03444754 0.0054073944 0.032118056

weight f4 [10, 64]
00000000: f2aa cabd 102c 383e 2c4b 18bd 5256 583b
00000010: 11db 15be f6d3 373e 0323 1abe 3ffe 32bd
00000020: 2bd0 80bd becd 863e be75 87bd 946c 593e
00000030: e79d a5bd 7969 06be 83aa 0f3e 4511 2abc
00000040: 7731 f93d e57a 123e a3bd 6d3d 6dc5 ccbd
00000050: cd1d 0f3e 91d9 ab3d 445d c7bd 9d38 ed3d
00000060: d346 0f3e 382b cb3c 872c c7bd 6339 b13d
00000070: 4b33 baba 843e 103e 93ac 053e 80aa c53d
00000080: f944 6abe ad4f 753d 4576 0dbe d056 3bbd
00000090: 7243 fc3c 8a81 253e 202c e23d bcfd 1a3e
000000a0: 92e6 a4bd 3418 04be 92f5 acbd ce26 b43d
000000b0: 7170 7cbd f521 a8bd 9929 12be 67e1 70bd
000000c0: db99 babd 9ca1 343e 317b 36bd 8071 143e
000000d0: fe74 f83d d3fb 093e 4310 8dbb ad1e 783c
000000e0: cb97 173e ebdb 143d 98f7 233d 266b f43d
000000f0: 0253 44bd a61e 823c dab3 21bc ea51 01bc
00000100: 6b8a da3d 448c 733e 9ce6 b6bc 068e 293e
00000110: 884f 3d3d 6ce7 45be eac0 8d3c b361 dc3d
00000120: bac7 453e 2890 db3d 67e9 75bd 3ed8 bdbd
00000130: f2b0 143e d1fc 083e 6534 dabd a354 8f3c
00000140: 129c 3abe 87c4 85be 92bc 713e 8a7e 1a3e
00000150: 5f21 1abe 7407 233e 85d6 003e f2c3 6f3e
00000160: 9ac2 efbd d210 2dbe 1755 ce3d 2898 b03d
00000170: 1be1 0cbe adb2 7ebe 27bc 513e a9b5 8bbd
00000180: 5a6a 613e df1c 233d ae39 b7bd d9f3 173d
00000190: ce31 813e f564 42be 402e 23ba 5fce 903d
000001a0: e823 c7bd cb89 8dbe 14c2 593e d139 233e
000001b0: 823c 78bd cda4 343e b1b8 523c c3de cfbd
000001c0: 2b6e d43d d5aa fa3d 276f b1bd 834b fabc
000001d0: 2180 c23d d957 c23d 3c24 60be dc1a 383e
000001e0: abd5 f53a 0171 813d aa88 be3d 5148 1abc
000001f0: d36e 703e 60c9 883d 3569 aa3d 172a 343e
00000200: 312b fc3d a255 a8bd 2a54 8ebd 1da1 e63d
00000210: a3ff 253d c4bf 113e 83f8 24be ae1a 5abe
00000220: 4719 f93d c678 183e b3e9 65bb a0a4 7bbb
00000230: 1d32 b6bd 28b7 073e f09b 4ebe 44e6 f83b
00000240: 5429 7cbd 6406 5b3e 2d23 25be e059 df3c
00000250: 32dd bc3d 0f5b b8bb 8fb3 68bd d597 fbbd
00000260: be94 bbbd 03be 4f3e b502 cc3a 25fd 17be
00000270: 1a95 543d f17b 123d 8326 36be 846e a7bd
00000280: 1c47 25be 1e65 a83d b06a 2abd a848 57bd
00000290: 8c4f ebbd 00c0 da3d 7e33 39bc ff61 d33d
000002a0: ab4d 3c3d f08a 153e 29ff 53bd 00d9 5dbe
000002b0: 0263 5ebd 3175 22bd 7748 10be 76e6 8d3d
000002c0: 6710 d6bc 2908 ee3d d971 223e 8013 4a3e
000002d0: da80 28bd 15fd 343e 1358 efbd becb 05be
000002e0: 59a9 28be 34cb c6bc 566e 66bd dcb4 f0bd
000002f0: aa8d 263d 8936 063d d163 f4bd 640b 6b3d
00000300: 6e5b d03d 63e4 ffbd 19a5 403d 7c05 133c
00000310: 532c d1bd 7f2d 3fbe 3e6b e7bd eb8b ddbd
00000320: ca12 103e c194 1abe e4e1 9bbd 00f0 093b
00000330: c98a eabd 193e ebbc bf21 1bbe ceab d5bd
00000340: 6a9b 223e 6a8a 11be 4590 e1bd f2dd 0ebe
00000350: f16c 8fbd 1be8 c3bd b369 a7bd de85 0ebe
00000360: f8ad ba3d b061 f93d 847e 42bd 3fb6 babc
00000370: 2ef0 843c 6efb 723d d9f1 23be 45ca e2bd
00000380: 8f51 643d 9f2d 063e c8a4 e5bd b1ab 14bd
00000390: fca9 ce3d fba6 74bd 5dfe 14bd 07bc d93d
000003a0: eb5b 12be d17c 06bd b455 7c3d 5051 52bd
000003b0: 85e7 553d 637b 1d3d a114 80bd a290 ba3d
000003c0: 5ec4 cfbd 68f9 f9bd c598 00be ea05 b33c
000003d0: 6ba4 afbd 9e21 703d faf5 c53c bfb5 37be
000003e0: 6a0f 9bbd 6cc6 d3bd 38f5 6a3d 98e9 083e
000003f0: deed 18be 3a47 023d 9322 a5bd eb04 79bd
-0.098958865 0.17985559 -0.037181064 0.0033010435 -0.14634348 0.1795195 -0.15052418 -0.0436995
-0.06289705 0.26328844 -0.066142544 0.21232826 -0.08086758 -0.13126172 0.14029889 -0.010380094
0.12167638 0.14304693 0.05804218 -0.099985935 0.13976212 0.08391107 -0.09734586 0.11583064
0.13991861 0.024800882 -0.0972529 0.08653524 -0.001420596 0.14086348 0.13054113 0.09651661
-0.22877873 0.059890438 -0.13814647 -0.045737088 0.03079388 0.16162696 0.110435724 0.15135854
-0.0805179 -0.12899858 -0.08445276 0.08796464 -0.06163067 -0.08209602 -0.14273681 -0.05880871
-0.09111377 0.17639774 -0.04455108 0.14496422 0.121316895 0.1347497 -0.004304917 0.015144032
0.14803998 0.036342543 0.040031046 0.119344994 -0.047930725 0.015883755 -0.00986954 -0.007893065
0.106709324 0.23783976 -0.02232676 0.16558084 0.046218425 -0.19326562 0.017303903 0.10760822
0.19314471 0.10720855 -0.060037043 -0.092697605 0.14520624 0.13377692 -0.10654525 0.017496413
-0.18223599 -0.261265 0.2360709 0.15087333 -0.15051793 0.15920812 0.12581833 0.23414591
-0.11707039 -0.16900948 0.10074823 0.086227715 -0.13757746 -0.24872847 0.2048193 -0.06821758
0.22013226 0.039822455 -0.089465484 0.037097786 0.2523331 -0.18983825 -0.00062248483 0.07070612
-0.097236454 -0.2764419 0.21265441 0.15940024 -0.06060458 0.17640992 0.012861417 -0.1014991
0.10372575 0.12239615 -0.08663779 -0.030553585 0.09497095 0.09489412 -0.21888822 0.17978996
0.0018755695 0.06320382 0.0930341 -0.009416656 0.23479776 0.06679034 0.08320848 0.17594181
0.123129256 -0.08219458 -0.06949647 0.11261199 0.040526997 0.14233309 -0.16110425 -0.2129924
0.121630244 0.14889821 -0.0035081923 -0.0038397685 -0.08896277 0.13253462 -0.20176673 0.007595809
-0.06156285 0.21389157 -0.161267 0.027264535 0.09221877 -0.0056260894 -0.056811865 -0.12284819
-0.0915923 0.20287327 0.0015564772 -0.1484266 0.051900007 0.03576273 -0.17788129 -0.08175376
-0.16140407 0.082224116 -0.04160565 -0.052559525 -0.11489782 0.10681152 -0.011303781 0.10321426
0.045972507 0.14603782 -0.05175701 -0.2166481 -0.05429364 -0.039662544 -0.14090143 0.069287226
-0.026130868 0.1162265 0.15863742 0.19734001 -0.041138507 0.17674668 -0.11686721 -0.13066003
-0.16470851 -0.024266817 -0.05625757 -0.11753246 0.040662445 0.032766853 -0.11933101 0.05738391
0.10173689 -0.12494733 0.04703245 0.008973476 -0.10213532 -0.18669699 -0.11299752 -0.10817703
0.14069667 -0.15095808 -0.076114446 0.0021047592 -0.114522524 -0.028716134 -0.15149592 -0.1043316
0.15879598 -0.14212957 -0.11013845 -0.13951853 -0.07003201 -0.09565755 -0.081744574 -0.13918254
0.09115213 0.121768355 -0.047483936 -0.02279198 0.016227808 0.059321813 -0.16010226 -0.11073736
0.055741843 0.1310334 -0.1121307 -0.03629655 0.10091016 -0.059729557 -0.036375392 0.106315665
-0.14292876 -0.032833878 0.06160517 -0.051347077 0.052222747 0.03844775 -0.06253935 0.09109618
-0.10144876 -0.122057736 -0.12558277 0.021853406 -0.08576282 0.05862581 0.024165142 -0.17940424
-0.075712994 -0.1034058 0.057362765 0.13370359 -0.14934489 0.03180621 -0.08063235 -0.060795706

bias f4 [10]
00000000: 7374 47be f356 0cbd c9ea 3f3c 0e98 aabb
00000010: 3ac2 0a3e a43a 01bd 387c a03c 7158 08bd
00000020: d7db 84bc 50cd a93c
-0.19478016 -0.03426261 0.011713692 -0.0052061146 0.13550654 -0.031550065 0.019590482 -0.03328747
-0.016218109 0.020727783
