models/gpu_train_model13.pth (torch, 587335 bytes, 10 tensors)

weight f4 [32, 3, 5, 5]
00000000: 745a 8f3d 39cc 413e 9dfb 3b3d 8d5c 28bd
00000010: 599e ffbd 9e18 4c3c c182 fc3d 3dd4 1c3e
00000020: 6666 bebd 34fd 8ebd 99ca 303d eed3 033e
00000030: ad77 cdba f273 7abd 91ad d1bc e190 493d
00000040: da01 a0bd 39ad b6bd df40 07bc aa0b 3d3e
00000050: 7fea 05be 6200 d7bd b8fa c73d ea5c 9f3d
00000060: 3cf2 1e3e 26a9 f13d 20c1 093e 7996 89bd
00000070: 452e a43c 6f68 cebd 97a7 133e cc29 b83b
00000080: eb98 143d 5762 02be 8bac aabc f878 423d
00000090: 177e 323d 0df7 d03c 67ae 67bd 5c1d 9cbd
000000a0: 935a b6bd b0e0 0bbe b335 3c3a 021c 5d3d
000000b0: 0615 3d3e 2c95 afbd b897 83bc a9fa 5e3d
000000c0: 879e 173d 7c16 db3d 20fe a03d b000 d33d
000000d0: d4ce 18be 204f 44be c482 e7bd ab00 5fbd
000000e0: 8e4b a53c 2e5c 1ebd 2ad2 50be eace 33be
000000f0: e76a 88bd a8b3 4dbc 587b 8fbd ee0d 47bd
00000100: ce63 813b e074 c8bd e7fe 5cbc 31ab 1ebe
00000110: 0e78 af3d ddf5 863d 8cd6 27be 9e27 263d
00000120: 83d9 d0bc 872e 71bd c773 f03b 0a57 bb3d
00000130: 0cbf 6fbd 7e8d fcbd 58ba 8bbc 4c74 a5bd
00000140: d59f fabd b231 2fbe 6c8c 6fbe b697 c03c
00000150: a95a 153e 40aa 49be 404c 14be d63b eabd
00000160: d4be 2e3e b6b1 be3d 02d6 b43b 7e20 2cbe
00000170: 725f 0c3d 508f b63d e99b ec3d b822 453d
00000180: 8c0b 41be 954d af3d e95a 073e b2ef 36bd
00000190: 8a8a 113e d1c0 ebbd 9074 71bd 5371 e83c
000001a0: bc66 293e f8d4 94bd 0676 efbb 7f12 33be
000001b0: ee10 063e e732 2d3e 3050 ddbd 51d7 633d
000001c0: 43ef 32bd 6ecb 113e bc0c ee3d 987a 543d
000001d0: 874a 09be 6546 383e 9ab8 413e 3f0c df3d
000001e0: 3a0b 913c 1918 543c e6fa 1a3e 7e0a 773d
000001f0: 7b19 613d e712 e33d 65fb 48bd d45f 52be
00000200: 9c01 5bbd 20aa e4bc 427e 22bd 6085 42bd
00000210: 4d12 90bd a776 8b3d 422e 6e3d d945 17be
00000220: 6b0c aa3c 4ac3 8e3d 0a97 bb3d 6cce c7bc
00000230: 0673 25be e51f 02be 7706 523d 8a32 90bc
00000240: 02cc 283c 5db0 05be adb1 abbc 1065 d03a
00000250: 6732 073e d3b5 9a3c cbc8 adbd 4439 053e
00000260: 31ed b23d ea40 ce3c ad78 1c3d 550d 15be
00000270: 8219 3a3e 9cbb 2a3e 1a79 b7bd c696 b5bc
00000280: 7715 c4bd aa93 003e e7cb 2c3e 953a 313c
00000290: ee6b 0b3e 1add aa3d 3df7 3b3e 6870 383a
000002a0: 327f 4d3d 16be 463e 4e27 bf3d ff6b be3d
000002b0: 74ab eb3d 3fe2 aa3b c2fa 1f3e 8292 28bd
000002c0: 45f2 083d 2f7b 3dbd f216 91bd 4064 013e
000002d0: 488b 54bd 79fe 2fbc ba7b aabc 8f66 8a3d
000002e0: fb6d 6a3d 7274 15be 4a41 5dbb e2e3 afbb
000002f0: 6a67 0abe 6ec0 513d 321a b1bd b359 9bbd
00000300: 463c eabd cb04 21bc 2760 0c3e f07f 54bb
00000310: 12f6 a43b f22f 1d3d ed40 983d 6ec8 3bbc
00000320: 1185 72bd d5ae a1bd 8109 3bbd 3ddc 273d
00000330: dfc8 f9bd 45cf 4bbe 73f8 4c3c 3fc1 f9bd
00000340: 0ae3 20be 5d73 543c b8ee 79be 8730 8dbc
00000350: 9978 99bd 3a4d dbbd 7057 5f3d 9910 b6bd
00000360: 86e6 8bbd 42ac bfbd da59 23bc 8788 3bbb
00000370: e834 48be a5ea fc3c dedf 1abe 6961 5e3d
00000380: 7d68 903c a840 b53d 5a08 8ebd 91a0 8bbd
00000390: 807a c1bd 717d ce3d 0abd 25bd 23b9 b33d
000003a0: 5401 71bd 72f9 f13c 8c40 b03d 6d01 c53d
000003b0: 8810 e6bc a67d cd3d b699 41bd 6427 f63d
000003c0: 07be e9bd 1c26 033e 493a a23d 44c2 3a3e
000003d0: 4223 b73d cc42 893c 9fef 8abd 50da cb3d
000003e0: f123 cb3d 8d9b 21bd f5b2 b8bd fa7b 1dbe
000003f0: f398 573d 446f 2dbd 9f4f 9a3d 40ae d83d
0.069996744 0.18925561 0.045894254 -0.04110389 -0.12481374 0.012457041 0.12329627 0.15315337
-0.09296875 -0.069818884 0.043161962 0.12873814 -0.0015675925 -0.06114573 -0.025595458 0.049210433
-0.07812853 -0.08919758 -0.008255213 0.1846148 -0.13077734 -0.1049812 0.09764618 0.07781394
0.15522093 0.11799841 0.13452578 -0.067181535 0.020041594 -0.10078513 0.14419399 0.005620217
0.036278646 -0.12732826 -0.020834228 0.047478646 0.04357728 0.025508428 -0.056562807 -0.07622787
-0.089039944 -0.1365993 0.00071796327 0.05398179 0.18465051 -0.08573374 -0.016063556 0.054438267
0.037016418 0.10697648 0.078609705 0.103028655 -0.14922649 -0.19170809 -0.113042384 -0.054443996
0.020177629 -0.03866213 -0.20392671 -0.175594 -0.06661015 -0.01255504 -0.07005948 -0.04859727
0.003948665 -0.09787917 -0.013488508 -0.15494992 0.085678205 0.065898634 -0.16390437 0.040565126
-0.025494343 -0.058882263 0.0073380205 0.09147461 -0.058531806 -0.12331675 -0.017056629 -0.080788225
-0.12237517 -0.17108801 -0.2339341 0.023509841 0.14585365 -0.19693851 -0.14482212 -0.11437194
0.17064983 0.093112394 0.005518676 -0.1680927 0.03427071 0.089140534 0.11553175 0.048128814
-0.18852061 0.085597195 0.13218273 -0.044662185 0.14213005 -0.11511386 -0.058949053 0.02837435
0.16543096 -0.07267183 -0.0073077707 -0.17487524 0.13092396 0.16913949 -0.1080631 0.055625264
-0.04368521 0.14237759 0.11623523 0.051874727 -0.13407336 0.17995603 0.18918076 0.10891008
0.017705549 0.012945198 0.15134773 0.06031274 0.05495594 0.1108759 -0.049067874 -0.20544368
-0.05346833 -0.027913153 -0.03967119 -0.047490478 -0.070347406 0.068097405 0.058149584 -0.14772739
0.020757874 0.06970842 0.09159668 -0.024390422 -0.16157159 -0.1270748 0.051275697 -0.017602224
0.0103025455 -0.13055559 -0.020958746 0.001589926 0.1320282 0.018885529 -0.08485564 0.13010126
0.08736647 0.025177438 0.038201023 -0.14555867 0.18173793 0.1667313 -0.08958645 -0.022166621
-0.095744066 0.1255633 0.16874658 0.01081719 0.1361539 0.08342953 0.18356033 0.0007035793
0.05017013 0.1940845 0.09333669 0.09297942 0.115073115 0.005214959 0.15623 -0.041155346
0.03343417 -0.046260055 -0.070844546 0.12635899 -0.05189064 -0.010741823 -0.02081095 0.06757843
0.05723379 -0.14595202 -0.003376084 -0.005367742 -0.13516012 0.051208906 -0.086475745 -0.07585468
-0.114372775 -0.009827803 0.13708554 -0.003242489 0.0050342167 0.038375802 0.074342586 -0.01146136
-0.059208933 -0.07894675 -0.04566336 0.04098152 -0.12196516 -0.19903286 0.012510407 -0.12195062
-0.15711609 0.012966958 -0.2440747 -0.017235054 -0.07493705 -0.10708089 0.054526746 -0.088898845
-0.06831078 -0.093590274 -0.009970153 -0.0028615312 -0.19551432 0.030873606 -0.15124461 0.054292116
0.017627949 0.08850223 -0.06935187 -0.06817735 -0.09447193 0.1008252 -0.040463485 0.087755464
-0.058839157 0.02953789 0.08606061 0.096194126 -0.028084055 0.10033731 -0.04726573 0.12019232
-0.11413198 0.12807506 0.07921273 0.18238169 0.08942272 0.016755484 -0.06783985 0.09953749
0.09918965 -0.039454985 -0.09018508 -0.15379325 0.052636098 -0.04234244 0.07534718 0.105801105

bias f4 [32]
00000000: af52 973d 072c 843d 639b 413b b35d 33be
00000010: 5bc8 7ebd d569 1c3e 7ddf 2b3e ad41 153e
00000020: 76f6 b1bd f3e3 153d bae7 483e 7a52 94be
00000030: 07dd 95be 0651 d73d b9d9 fdbd c548 90be
00000040: 45e7 4cbe 1d43 3f3d b235 653e cb1a 21be
00000050: 1028 e6bd 9e26 b0be 09d4 debc 89c7 c5bd
00000060: bc80 6cbd 13ae df3c 5491 bbbc b22e fcbd
00000070: 872d 97bd e9aa 37bd d4f1 653d f4fd c53d
0.073888175 0.0645371 0.002954208 -0.17516212 -0.062202793 0.15274747 0.16784473 0.14575835
-0.08689587 0.036594342 0.19619647 -0.28969175 -0.29270193 0.10513501 -0.12395043 -0.2818052
-0.20010097 0.046694864 0.22383764 -0.15732877 -0.1123811 -0.34404463 -0.027200716 -0.09657199
-0.05773996 0.027304685 -0.022896446 -0.12313594 -0.073817305 -0.044840727 0.05613883 0.09667578

weight f4 [32, 32, 5, 5]
00000000: a31a 94bc 8eea af3c b27d 593c 78c3 93bb
00000010: 9303 fc3c 0cd3 c4ba 5a72 d4bb 4f81 273d
00000020: abb0 9d3c 4788 5f3d 88ad f43a 0699 0b3d
00000030: d3a0 6a3d a791 ae3c 564d 94ba 86dd 1f3c
00000040: b504 603d 7aff 6a3d 660a 3d3d 0334 963c
00000050: cad7 983c d60b da3c e8b9 9b3c 214f 943c
00000060: 9183 e03c 92d3 11ba c21a ddbc 61b5 a1bb
00000070: 44d9 f33c 4419 373d 1981 823c 601e 653b
00000080: 0590 85bc fdf1 993b 7c53 6a3d 8538 c539
00000090: 55f9 4cbc 6103 983c c76e 703d 1681 703d
000000a0: c216 80bd abb7 21bd 4b52 983c 89e5 96bb
000000b0: bcd1 053c e7e0 bcbc 8f74 04bd ad55 063d
000000c0: 6c4b bb3c 96f3 dc3c bfc7 b33c 9b6e 9abc
000000d0: 8a7e bdbc 9781 9f3b 1d9c a4bc 0b52 b33c
000000e0: e883 6cbd e449 f53b b659 0c3d 5f85 10bc
000000f0: a108 5fbd aefb aebc 9977 16bd cd6e 5dbc
00000100: e7be 8ebc 9bdb e2bc 2a82 4ebd fa86 0abd
00000110: cedc f13c 3824 d6bc e7d5 ebbc b1da 73ba
00000120: 1d0f 7bba 4f89 abbc 9254 8e3c a1f9 04bd
00000130: 19f2 763c 4584 8f3c 19bf 8e3c 8d50 ebb6
00000140: 1ebd 7e3b a616 f63b 0b55 50bc 80a4 2abc
00000150: 7cf7 91bc d68e 22bd b16a 0bbc ce6d e2bb
00000160: fe57 cd3c ff69 cc3c 1f03 c9bc 7320 eebc
00000170: 1891 3abd dc8e 02bc cb3d 4abc 0f84 b5bc
00000180: 1334 b1bb ba1d 453c 807e d63c 4950 bd3c
00000190: 9e6c ed3c b653 2e3d 0408 90bc 0faf d63c
000001a0: fe9f 9bbc 6ca1 4c3c 8d56 113d e580 2e3d
000001b0: 72d0 e23b 403c 383c 38dc 38bb 2ac7 573d
000001c0: 737a 343c f2da 62bb 181f c53c 9a23 8b3c
000001d0: 03d7 ae3c db18 5abc f7a9 30bd 6d4f 6fbc
000001e0: 7fdb a5bc abcb 193b f807 8dbc 49a8 35bd
000001f0: 49e3 4bbc 9915 5d3d b78a 13bc 187b c13c
00000200: 161b 843b cdfd 903c 1032 323d 1623 a43c
00000210: 8be2 c13c c67d c23c 2c7e 3a3c 1996 113d
00000220: ba69 5e3c 08ce 183d 3e55 2c3b 4d2b 22bc
00000230: 16a6 573d c11c e73b c92b 303c 5a82 babc
00000240: 1fef 853c 1b89 193d efdf d13c 88f9 8f3c
00000250: ea27 2dbb f4cc 30bb ff81 63bc 47c7 bb3c
00000260: 9a79 dc3c ee25 863d 5218 d33b a92b 7cbc
00000270: 6f08 3d3d 5692 473d 345c 893d 75bb 3d3d
00000280: 4a02 b1bc cb4d 783d eb3c fd3c 1015 0b3d
00000290: f81d 843d dd8b 49bc 385e 073d 77f4 f53c
000002a0: 3f12 893d c4b2 343d 60dc 653c f888 e5bc
000002b0: a313 503c 8d8f 00bd aa89 ddbb 23ae 3d3b
000002c0: 7162 b33c 0e60 e13b b523 0a3d c4ae 003d
000002d0: 0a6d 253d 03cb a63c f63c 623d a986 503d
000002e0: 0aab f03c e3fb a3ba 57b3 e43c 9521 053d
000002f0: 2cf9 2cbc 9fc0 0a3c 2137 213d 32b7 74bb
00000300: 591f 2ebb beba 89bc 5d40 96bc b554 15bc
00000310: c5e9 c43b a50e 4ebd b3e8 05bd b56f 30bd
00000320: e736 0c3b c0cf 46bc fd67 cc3b 1ff7 dabb
00000330: 8c91 843c 338f adbc 72e8 78bc 50de 81bc
00000340: c39e cf3c f267 26bc 7edf d53c ac1d 833c
00000350: 149e 283b 7710 aabc affe 103d 43a9 9cbb
00000360: 3691 0e3d 26de c03c 2a69 743c 26de ad3b
00000370: e099 08bc bc49 19bd e984 db3b 3082 acbb
00000380: b0d0 27bd f7d5 c93c 8aa5 bebc 09b9 67bc
00000390: 3570 dcbc fdf7 b0bc 6de5 063b d766 2cbd
000003a0: 3993 8ebc 35b9 2abd 814b a2bc 5ebf cf3a
000003b0: e328 55bd 7075 4dbd 3e72 203c 81a1 89bc
000003c0: 3dc0 763c 2f01 01bd 10ac 93bc 6087 5a3c
000003d0: f18a 05bc d4a6 f7bc 193d 4bbd 2456 69bc
000003e0: ee1b 8f3c aa0d 03bd 9990 1c3d cfce da3b
000003f0: 7584 c2ba 3231 03bc ebf1 3e3d 5635 343b
-0.018079108 0.02147415 0.013274597 -0.0045093857 0.030763423 -0.001501651 -0.0064833583 0.040894803
0.01924928 0.054573324 0.0018667439 0.03408148 0.05728228 0.021309687 -0.0011314552 0.009757405
0.05469199 0.057372548 0.046152495 0.018335348 0.018657584 0.026616972 0.019009545 0.018104138
0.027406486 -0.00055628375 -0.026990298 -0.004934952 0.029766686 0.04470183 0.0159307 0.0034960732
-0.016304025 0.0046980367 0.057208523 0.00037616878 -0.012510617 0.018556299 0.058699396 0.058716856
-0.06254341 -0.0394818 0.018593928 -0.0046049994 0.00816768 -0.02305646 -0.03233772 0.03279655
0.022863112 0.02697162 0.021945832 -0.018851569 -0.023131628 0.0048677432 -0.020093972 0.021889707
-0.057742983 0.007485615 0.034265243 -0.008820861 -0.05445159 -0.021360245 -0.03673515 -0.0135151865
-0.017425014 -0.027692607 -0.050417103 -0.03382013 0.029524233 -0.026140317 -0.02878852 -0.0009302302
-0.0009577142 -0.020939497 0.01737431 -0.032464627 0.015072369 0.017519126 0.017425107 -7.012923e-06
0.0038870047 0.007510024 -0.012715588 -0.010415196 -0.017818205 -0.039687 -0.008509324 -0.0069100624
0.025066372 0.024952887 -0.024537621 -0.029068207 -0.04554853 -0.007968631 -0.012343834 -0.022157697
-0.005407819 0.012031013 0.026183367 0.023109572 0.028982457 0.0425603 -0.017581947 0.026206521
-0.018997189 0.012489658 0.035482932 0.042603392 0.0069218213 0.0112448335 -0.0028207432 0.052680172
0.011015522 -0.0034615365 0.024062678 0.01698475 0.02134276 -0.01331159 -0.04313084 -0.014606339
-0.020246265 0.0023467343 -0.017215714 -0.044349942 -0.012444326 0.053975675 -0.00900524 0.023618266
0.004031549 0.017699147 0.043504775 0.020036262 0.023667594 0.023741614 0.011382621 0.035543535
0.013575012 0.03730586 0.0026295925 -0.009898019 0.052648626 0.0070529883 0.010752627 -0.022767235
0.016349373 0.03748427 0.025619475 0.01757504 -0.0026421496 -0.002697763 -0.013885974 0.022922171
0.026913453 0.06550203 0.006442108 -0.015391269 0.04615062 0.04872354 0.067070395 0.04632135
-0.021607537 0.060621064 0.030912837 0.033955634 0.064510286 -0.012301412 0.03304884 0.030023796
0.06692933 0.044115797 0.014029592 -0.028019413 0.012699994 -0.0313869 -0.0067607956 0.0028942905
0.021897526 0.0068779057 0.03372546 0.03141667 0.04038719 0.020360475 0.055233918 0.050909672
0.029378433 -0.0012510981 0.027917547 0.03250273 -0.010557454 0.008468776 0.039359216 -0.0037340638
-0.0026568978 -0.016812678 -0.018341238 -0.009114434 0.006009313 -0.050306935 -0.032692622 -0.043075282
0.002139503 -0.012134492 0.0062379823 -0.006682291 0.016182683 -0.021186447 -0.015192138 -0.015853077
0.025344258 -0.010156618 0.026107546 0.01600536 0.0025728988 -0.020759804 0.035399135 -0.0047809198
0.034806453 0.023543429 0.014917651 0.005306023 -0.008337468 -0.037423834 0.0066991937 -0.005264543
-0.040970504 0.02463816 -0.023272295 -0.014143237 -0.026908973 -0.021602625 0.0020583526 -0.042090263
-0.017404186 -0.041680533 -0.019811394 0.0015849879 -0.052040946 -0.050160825 0.009792862 -0.016800644
0.015060482 -0.03149527 -0.018026382 0.01333794 -0.008150802 -0.030230917 -0.049618814 -0.014241729
0.017469373 -0.031995453 0.038223837 0.0066774855 -0.0014840501 -0.008007335 0.04661743 0.002749761

bias f4 [32]
00000000: 5188 b93c b845 08be 2a7a eb3c b504 94bc
00000010: 6b66 8cbd 48d8 263d 1434 aabc 4a97 d0bd
00000020: 3cc0 c33b c9bd 9dbd d977 a4bd a905 903d
00000030: dc9a 87bd cd54 c3bc 1d65 d8bd 2e09 bfbd
00000040: acaa 1fbd eae0 b6bd 5ef8 27bd 3012 e7bd
00000050: 5cff 113d 6b0b d5bd 7128 fdbc 7376 b63a
00000060: d172 a63c 807e 523d 7ec5 04be df59 21be
00000070: f2f0 253d e6ab a0bd e0c5 37bd e45a e2bd
0.022648009 -0.13307846 0.028744776 -0.01806865 -0.06855472 0.040733606 -0.020776786 -0.10185106
0.005973844 -0.07702214 -0.080306716 0.070323296 -0.06621334 -0.023844147 -0.10566161 -0.09327923
-0.038981125 -0.08929618 -0.041008346 -0.11282766 0.03564392 -0.104025684 -0.030903073 0.0013920799
0.02031842 0.05139017 -0.12965962 -0.1575694 0.040512986 -0.07845287 -0.044866443 -0.11052492

weight f4 [64, 32, 5, 5]
00000000: 7814 b9bc 30cb 3fbd 193a 27bd 0632 34bd
00000010: 8c04 f3bb c02b 373d 6c22 093b 694a 34bc
00000020: 7a9a 90bc e73d 3cbc 9c89 d1bc 294a a73c
00000030: ec3b cebc 8f7d 8bbb 889b 413b a4bf b73c
00000040: 9dc6 d1bc 5303 373c 1bb4 b83b 7bf3 7d3d
00000050: a161 013c e36e 003d 6c3a 6fba 510c dcbc
00000060: 1443 dc3c c091 973d 5cae d83c d003 47bd
00000070: d995 97bc 20f0 0cbd c353 353d cc2e 8abb
00000080: 5530 9b3b c1cc 9abc c347 40bc 3026 3dbc
00000090: ac48 933c 2068 c93c 94a8 463d 6522 073d
000000a0: 584c 31bc d2a1 16b8 1178 7cbb 5348 53bc
000000b0: 55e1 fabc 9dc2 3f3b d706 ac3c 38e7 3d3d
000000c0: 46e3 4cbc 323f 723b 8acb d43c 4033 82bc
000000d0: e871 06bd dc64 3cbd 8e14 8a3c d788 063d
000000e0: ed01 573c c674 113d b4e9 60bb 146f 15bd
000000f0: 017a a13c e691 a33c 4c00 abbb 2c70 053d
00000100: dbb7 e23c d1bc b0bc 652b 6c38 4aa8 d13b
00000110: d714 9dbc cb75 e83b 149b 13bd 273c fa3b
00000120: 4bcb fa3c dbff dcbc 7b81 a0bc 5e39 5fbc
00000130: 661d 783c 5436 483b 4d85 3c3c 841e 063d
00000140: 109c ab3c 712c d2ba 3ef9 6b3c 0204 52bc
00000150: 97c0 c2bc ace8 093c d253 d0ba e775 02bd
00000160: fd75 03bc a99e 7fbc 943c 0a3d 7602 dd3c
00000170: 3e73 cd3c c69a 643b 04cf 333b 8823 16bd
00000180: 3408 16bd 6223 283b be67 13bd 2e69 a03a
00000190: d28b 6dbb e3eb 1fbb 4221 48bc 761d debc
000001a0: dc89 11bd c638 383d c29e f0bb 283e 2c3c
000001b0: 1428 803c a2a1 6e3b 85f3 bb3c 056d 8d3c
000001c0: 5fd8 98bc 384a 4a3c 20d3 d6bc 56bb 08bd
000001d0: e9a8 f4bb 7d68 d93a fa17 113d 99fb aabc
000001e0: 25df be3b 6474 b637 ed32 9fba 0fe6 613b
000001f0: 4271 fa3b e5f0 b0bb 8cac 2e3b 33f6 44bd
00000200: 381f 60bd 9baf 8e3b 6854 fb3a 4a39 18bc
00000210: c503 09bd c8af 51b9 5108 6ebd 1e51 f3bc
00000220: 60f4 4b3b 3126 63bc f061 a13c 9cb5 893c
00000230: 2a44 03bd 8238 1cbd 832b 973c e344 ccbb
00000240: 8342 98bc 3468 1abd 3217 173d e5d2 a23c
00000250: 228d 273d bca9 133d f8fb 083d 1b44 803a
00000260: 0cd9 e23c b202 1c3c 71e5 3f3c 321f 74bb
00000270: 3aaf 14bd c9b2 493d 1020 463d e64f 8fbc
00000280: 25dd 7cbc 821f a73c 8eeb 373d d3d4 1c3c
00000290: d668 b0ba 5161 1cbd 9196 f4bc c0e2 e6bc
000002a0: f4e1 f7bc 5e7c 643d d6d2 343a c0d5 f2b9
000002b0: a977 373b 8303 23bc 4f0c bc3b d3cc acbc
000002c0: 8860 503c 6cc5 d7bb 9cbe 01bc d04b c8bc
000002d0: 8257 c1bc e981 b3bc ce46 91bc 7347 4dbc
000002e0: c3cb 59ba e90e 793c 169f 25bc 7e7b 0ebd
000002f0: 3822 ce3c aee3 3abc d2ea 6e3c 67d7 1b3d
00000300: 1824 9f3b 448e aebc 59ad cc3c 4f66 b5bc
00000310: c7a1 01bd cdc0 8fba c379 d7bc 987f a63c
00000320: a754 013c 750d b7bb c326 c63b 5199 3bbc
00000330: 7487 07bd abdd 0e3c b349 133a ce0f 73bc
00000340: 6030 ba38 b1b9 b5bc 72d4 b63c 1869 5fbc
00000350: 616d aabc 5902 0dbd d841 9c3c ad9e c8bc
00000360: 09c3 ac3b ed26 b83b 4567 d2bc 5920 ecbc
00000370: 6645 c5bc 28a3 0abd 7e0d bc3c 428d d83c
00000380: 5269 7e3c 47aa 493b af05 dcbc ee3e 3fbc
00000390: 09fb ecbc 7c12 adbc 9ddc c2bc 40a8 f4ba
000003a0: 073c 08bc 4e47 dcbc 29b0 26bc 2e0a e2bb
000003b0: 4969 c8bc ce40 863b 1140 d23b 59e0 77bc
000003c0: 1896 18bb 5b6a e4bc 7da3 15bd 905c e0bc
000003d0: 2ee3 e53b 8f5b 19bd eaa7 67bc d51a a43b
000003e0: 26c7 c13b 9b0a cf3c 20ad 96bc 85dc 21bd
000003f0: 2ca5 98bc 3fa3 26bd 012b 493c d259 f0bb
-0.022592768 -0.046824634 -0.04082689 -0.04399302 -0.0074163135 0.044719458 0.0020925058 -0.011004069
-0.017651785 -0.011489368 -0.025578313 0.020421105 -0.025175057 -0.004256911 0.0029542167 0.022430249
-0.025607402 0.011170226 0.0056367046 0.06199978 0.007896812 0.03135575 -0.0009125832 -0.026861342
0.026887454 0.074008465 0.026450329 -0.04858762 -0.01850407 -0.03440869 0.044269335 -0.0042170044
0.0047359862 -0.018896462 -0.011735859 -0.011544749 0.017978989 0.024585783 0.048500612 0.032991786
-0.010821424 -3.5913494e-05 -0.0038523714 -0.012895661 -0.030625025 0.0029260286 0.020999355 0.046363086
-0.012505358 0.0036963937 0.025975961 -0.015893579 -0.032823473 -0.045994624 0.016855504 0.032845344
0.013123018 0.035511754 -0.0034318985 -0.036482885 0.019711496 0.01996703 -0.0052185412 0.03257768
0.02767556 -0.02157441 5.63072e-05 0.0063982354 -0.019174976 0.00709412 -0.036036566 0.0076365652
0.030614516 -0.02697747 -0.019592991 -0.013624517 0.015143728 0.003054996 0.011506391 0.032743946
0.02094844 -0.0016034973 0.014402686 -0.012818338 -0.023773475 0.00841729 -0.0015894121 -0.03185072
-0.008023736 -0.015601792 0.033749178 0.026978713 0.025079366 0.0034882291 0.0027436623 -0.03665498
-0.036628917 0.0025655855 -0.035987608 0.0012238377 -0.003624667 -0.0024402074 -0.0122149605 -0.027113657
-0.035531864 0.04497602 -0.007343144 0.010512866 0.01564411 0.0036412259 0.022943268 0.017263899
-0.018657861 0.012346797 -0.02622372 -0.033381782 -0.0074664247 0.0016586926 0.035423256 -0.020871924
0.0058249407 2.175029e-05 -0.0012145914 0.00344694 0.007642896 -0.0053998106 0.002665314 -0.048086356
-0.054717273 0.00435443 0.0019174935 -0.0092910025 -0.03345086 -0.00019997277 -0.0581134 -0.029701766
0.0031121 -0.013864086 0.01970002 0.01681023 -0.03204743 -0.038139828 0.018453365 -0.006233798
-0.018586403 -0.037697032 0.036887355 0.019875953 0.04090608 0.036050543 0.03344342 0.0009785922
0.027691387 0.009522127 0.011712418 -0.003725004 -0.03629992 0.04924277 0.04837042 -0.017494153
-0.015433584 0.020400766 0.044902377 0.009572226 -0.0013458978 -0.038178746 -0.029856952 -0.028184295
-0.03025911 0.05578267 0.0006897872 -0.00046317093 0.0027994907 -0.009949568 0.005738772 -0.021093762
0.012718327 -0.006584814 -0.00791898 -0.024450213 -0.023601297 -0.021912532 -0.017733958 -0.012529242
-0.0008308256 0.015201309 -0.01010873 -0.03478574 0.025162801 -0.011406822 0.014582353 0.03804722
0.0048565976 -0.021308072 0.024985002 -0.022143511 -0.031648424 -0.0010967493 -0.026303178 0.020324513
0.007893718 -0.005586321 0.006047101 -0.011450128 -0.033088163 0.008719842 0.0005618587 -0.014835311
8.878182e-05 -0.022183271 0.022318099 -0.013635896 -0.020804109 -0.034426067 0.019074365 -0.024489725
0.0052722734 0.0056198747 -0.025684008 -0.028824018 -0.024080943 -0.033847004 0.022955652 0.026434544
0.01552804 0.003077166 -0.026858179 -0.011672718 -0.028928297 -0.021126978 -0.023786837 -0.0018665865
-0.008315093 -0.02688947 -0.010173836 -0.006898186 -0.024464266 0.004097081 0.0064163287 -0.015129172
-0.0023282822 -0.027882745 -0.036532868 -0.027387887 0.0070156073 -0.037440833 -0.014139155 0.0050080814
0.005913633 0.025273612 -0.0183931 -0.039516944 -0.018633448 -0.040683027 0.012278319 -0.007334926

bias f4 [64]
00000000: 1057 15bd ebeb 0dbd f580 37bd c26d 74bd
00000010: a437 1cbd 375a 4f3c be97 76bd f86d 77bd
00000020: eccc 053d 2ff9 2bbd f5dd 0cbd 4de9 38bd
00000030: 6d65 4dbb 0b97 84bc b9f8 cdbb f471 24bc
00000040: 8f84 2bbd 1dd4 5dbc be71 98bd 6393 8dbd
00000050: 2709 dabc 6231 b1bd 8a37 433a febe 0cbd
00000060: 03af 4cbd f1c5 b9bd bf4c 70bc 5b38 68bd
00000070: d856 e2bc b142 1ebd f027 12bd 8f14 2e3c
00000080: 688e 3e3a a843 1fbc 266a 3dbc 9b94 543b
00000090: d923 39bd 1bc6 6b3c d1ad 263d fcc4 803c
000000a0: 9100 98bd 5417 98bd 03e8 54bd 79a0 7ebd
000000b0: c7b5 963a 815d ec3c 02b9 f8b9 619b 20bd
000000c0: c33f dabc f68c a1bc 4e56 8e3c e7e7 9abd
000000d0: 7a56 9bbd e412 29bc c30c 593c e7db c0bd
000000e0: 6fe2 3fbd ea00 e73c 948e b8bc 4755 6abd
000000f0: 8659 18bd 5b9c 01bd 3860 1b3d 563a f23b
-0.036459982 -0.034648817 -0.044800717 -0.059674986 -0.038139 0.012655786 -0.060203306 -0.06040761
0.03266613 -0.041985687 -0.034391362 -0.045144368 -0.0031340972 -0.016185304 -0.0062857536 -0.010036934
-0.041874465 -0.013539341 -0.074435696 -0.069128774 -0.026615692 -0.08651997 0.00074469356 -0.03436183
-0.04997159 -0.090709575 -0.014666735 -0.05669437 -0.027629301 -0.03863782 -0.03568262 0.010625019
0.0007269145 -0.00972072 -0.011560952 0.0032437209 -0.045200203 0.014390494 0.040693108 0.01571893
-0.07421983 -0.074263245 -0.051979076 -0.062164757 0.0011498266 0.02885318 -0.00047440088 -0.03921068
-0.026641732 -0.019720536 0.017375138 -0.07563763 -0.075848535 -0.010319445 0.013247672 -0.09416943
-0.046846803 0.028198678 -0.022528924 -0.057210233 -0.03719475 -0.031643253 0.03793356 0.007392208

weight f4 [64, 1024]
00000000: 3095 16bb df35 dcbc 262d 8d3b 8870 c53c
00000010: 3dbd a13c bfc8 2f3a f467 b73b 2c15 68bc
00000020: 920f 053d d34b 803c 0f5c 9b3c a36f c53c
00000030: 26c3 dfbc 7f8a b9bc 2f5d f0bb a05c 273b
00000040: 26d1 0bbd 6e50 91bc 8c3d 6ebc 807d ee3c
00000050: f9df 86b9 3d20 453b a262 5e3c 22c4 973c
00000060: db9d 273c f338 c83c 596f bcbc 7730 7abc
00000070: 19a5 ffbc 417c 71bc aa9e 1f3d 595e 2d3d
00000080: 5ba7 323c 09e9 6bbd 00a9 e8bb 4f8b b8bb
00000090: a7d3 a5bc 7163 823a 3944 f6bc 3f14 8fbc
000000a0: 02dc bc3c 49c3 f93c 285e 253d d3a2 263d
000000b0: 9762 bebc aaa3 6abb 156f 3f3b cc04 4c3d
000000c0: d63a 5ebc afc1 bf3b b363 0e3c a658 0fbd
000000d0: 81d5 403d 6377 053d 9e10 be3c edd3 293d
000000e0: 4cca 4dbc 2562 6d3d bd4c 8e3c b2b3 c53c
000000f0: 27f9 a73c 1e15 ddba f995 a9bc c2b7 a23a
00000100: 9aef 59bb ecd3 8bbc e7d1 8b3c 8df9 cd3b
00000110: ffbb 2e3d 4f66 3939 f742 9d3c 7893 febc
00000120: f313 bfbc 712f 95bc 9c77 4f3c 5d95 67bb
00000130: ec1e 243d d6f1 2abb 3eea 783c df96 883c
00000140: 9313 233a 041b 123d c034 b33c 8085 d4bb
00000150: 7ba3 bebc 18f1 243b 3f50 d7bc 8a31 c43c
00000160: 56ca 88bb bea9 9b3b 1443 b4bb bf26 53bc
00000170: dccf 703b a5ab b8bc bf67 233a d328 0cbd
00000180: fe5e 163d e4c9 9fbb d69b 6dbc 6dc7 3ebc
00000190: de3d fa3c 2377 a53b e87b 04bc 1130 4a3c
000001a0: 75c4 ddbc 4730 a4bc 56e2 f23c ca00 58bc
000001b0: d178 993c c520 473b 8671 513c 1ba1 6c3c
000001c0: 65e5 07bc 81a8 633b ddb4 b0bc 009d 8e3c
000001d0: f6c2 f53c bb07 04bd 0185 50bc 3f38 8a3c
000001e0: 2af0 d33c 7d19 b4bc beac c1bb 4662 82bc
000001f0: 9c7d c8bc 9ff4 4fbc 29b6 663b 02c4 8c3c
00000200: b203 6a3c 393c 3f3c 8e28 cdbc 97a3 943c
00000210: a8e2 99bc b94e 2dbc e312 d2bc f8f9 f63c
00000220: c7eb d23c 56a4 0a3c 24f2 85bc a319 4f3c
00000230: 4dff 81bc 64bd 75bc b609 5abc 4e9f c1bb
00000240: 9c5c bcbc 2ec3 27bb a0c8 0fbd 7c41 8e3c
00000250: fbd0 5ebc dfc2 c8bb 048b debb 084e 503b
00000260: 36f9 daba f175 b83c f062 a23c 5330 de3c
00000270: 01ce 01bd 1c31 dfbc 32b5 ef3c e651 11bc
00000280: 1ba0 e23c 4229 143c 0358 d7bb 64c5 633a
00000290: 917c debc e2f9 83bc ba1c fb3a dc67 debc
000002a0: 6a45 423c 85b1 d23c b5ce 7f3c f3e1 fabb
000002b0: 800c 8fbc fa21 1d3a ddd2 043d c434 163b
000002c0: d1a4 493c 526c a93b 128c 873c f87e 123c
000002d0: 2c44 2fbb 0a7a ca3c 67bd e43c 3e0f 76bc
000002e0: 0173 723b a0c1 36bd c12d b6bc 3eb2 b93c
000002f0: 1f82 bf3c e28c 7abc 4e10 99ba 070b e6bc
00000300: 62ee 163c 917c 43bc 11b4 493d 8820 fb3c
00000310: 0c02 e33c deaf b7bc 5a45 acbc b8c3 4dbc
00000320: 2181 ffbc 9d5a 053d a65f 1c3d fce3 fdba
00000330: dce0 8abc 4826 c8b9 b0eb b0ba b45c 213d
00000340: f083 8dbc bf9e b0bc cc17 1e3d 3e16 53bc
00000350: 2871 0c3d df66 123d d428 d23c 29f0 37bb
00000360: 02f2 913b 48ac 313c e473 cd3c 327d 0fbc
00000370: 3b1a 0abc 2429 9bbc c2bd c63c 738f 5fbc
00000380: 3657 9c3b bb62 02bd a584 32bd b3bf 08bd
00000390: 4ce7 c23b 7170 d93c 654b 0b3b 7e42 a3bc
000003a0: 6090 2f3b aed8 89bc e150 ad3c 7832 dbbc
000003b0: f0e9 23bb 01e0 a0bc ffea 39bc c9f3 4ebb
000003c0: ab58 e33c 3ca6 c1bc eee4 7c3b c251 013b
000003d0: 3753 04bd 15ed 0e3c 9b9f a83c 62ae 50bc
000003e0: 8a9e 82bc 1ee1 9439 8f67 8a3b 6059 183d
000003f0: 2c09 853c f344 77ba d83f b23a a602 03bb
-0.0022977106 -0.026881156 0.0043083606 0.02410151 0.019743556 0.0006705634 0.005597109 -0.014165204
0.032485552 0.015661156 0.018964795 0.024101084 -0.027314734 -0.022649048 -0.007335327 0.0025537387
-0.034135006 -0.017738547 -0.014541041 0.029112577 -0.00025725344 0.003007903 0.013573321 0.01852614
0.010230507 0.024441218 -0.023002313 -0.015270344 -0.031206654 -0.014739097 0.038969673 0.042326305
0.010904158 -0.057595287 -0.0071002245 -0.0056318413 -0.020242525 0.0009947849 -0.030061828 -0.017465709
0.023054127 0.030488627 0.040372998 0.040682625 -0.02324037 -0.0035803118 0.0029210497 0.049809262
-0.013563832 0.0058519463 0.008690762 -0.03499665 0.047078613 0.03258456 0.023201283 0.041461874
-0.012560438 0.057954926 0.017370576 0.024133537 0.020504547 -0.0016867255 -0.020701395 0.0012414383
-0.0033254386 -0.017068826 0.017067863 0.0062858523 0.042659756 0.00017681088 0.01919697 -0.031076178
-0.023324942 -0.018211098 0.012662794 -0.003533683 0.040068552 -0.0026084087 0.015192566 0.016673503
0.00062208733 0.035670295 0.02187574 -0.006485641 -0.023271313 0.0025168117 -0.026283382 0.023949403
-0.004174511 0.0047504595 -0.0055011604 -0.012887656 0.0036744988 -0.022542784 0.0006233416 -0.03421862
0.036711685 -0.004876362 -0.014502486 -0.0116442265 0.030547079 0.0050496026 -0.008086182 0.0123405615
-0.027071217 -0.020042552 0.029648941 -0.013183782 0.018734368 0.0030384522 0.012783414 0.014442707
-0.008294438 0.0034737887 -0.021570617 0.017408848 0.030000191 -0.032233935 -0.012727023 0.016872523
0.025871355 -0.02198481 -0.005910485 -0.015916001 -0.024473958 -0.0126926 0.003520379 0.017183308
0.014283108 0.011672073 -0.025043752 0.018144412 -0.018784836 -0.010577851 -0.025643772 0.030148491
0.025747193 0.008462032 -0.016350813 0.01264039 -0.015868807 -0.0149987675 -0.013307979 -0.005908883
-0.022993378 -0.0025598514 -0.03510344 0.01736521 -0.0135996295 -0.006126746 -0.0067914743 0.0031784791
-0.0016706351 0.022517176 0.019822568 0.027122652 -0.0316906 -0.027245097 0.029261205 -0.008869624
0.027664235 0.00904304 -0.006571771 0.0008688776 -0.027159007 -0.016110364 0.0019158341 -0.027149133
0.01185737 0.025719414 0.015613248 -0.00765633 -0.017462015 0.00059941376 0.032427657 0.0022919634
0.012307362 0.0051703835 0.016546283 0.0089414045 -0.0026743514 0.024716396 0.027922345 -0.015018282
0.0036994817 -0.04461825 -0.022238614 0.022668 0.023377476 -0.015292378 -0.0011677833 -0.02808143
0.009212108 -0.011931554 0.04924399 0.03065516 0.027710937 -0.022422727 -0.021029163 -0.01255887
-0.031189503 0.03255712 0.038177155 -0.0019370313 -0.016952924 -0.00038175494 -0.0013497975 0.03939505
-0.017274827 -0.021560071 0.038596913 -0.012883721 0.0342876 0.035742637 0.025654234 -0.002806673
0.0044538984 0.010844298 0.025079675 -0.008757876 -0.008429105 -0.018940516 0.024260405 -0.013645041
0.0047711385 -0.031832438 -0.04358353 -0.033385944 0.005947983 0.026542874 0.0021254655 -0.019929167
0.0026788935 -0.016826954 0.02115673 -0.026757464 -0.0025011264 -0.019638063 -0.011347531 -0.0031578413
0.027752241 -0.023638837 0.0038588601 0.001973257 -0.032305922 0.008723517 0.020583918 -0.012736889
-0.015944738 0.00028396485 0.004223771 0.03719461 0.016239725 -0.00094325765 0.0013599349 -0.0019990592

bias f4 [64]
00000000: 89e1 fcbc 26ea 5cbc 0dcd 8bbb 83fa 2abd
00000010: ab43 e3bb b9d7 eabb 870f ee3b fe92 383c
00000020: a426 11bc 26aa 6abc d349 043b 6b3a c5bc
00000030: 5f10 a33c 09bf 1cbc bab7 5fbc 63fe 893b
00000040: ba5b 8e3c d9cd b13c 07bb 5e3c 35be 7f3c
00000050: e73a 963c 46d3 91bc 669b d2ba af29 8ebc
00000060: 7541 f5bc eeb1 47bc e9c2 153d dcd5 553c
00000070: 7389 38bd cc6a 47bc 35b8 24bd a5df 2ebd
00000080: 5407 233d 3304 de3c a854 5c3d 1da3 6a3b
00000090: 40b6 653c 6c7a 24bd c804 823c 1920 933a
000000a0: d31a 8a3a 5b90 243c dfe1 d8bc 6119 5abd
000000b0: e354 9abc f0a8 383d f91b 9fbc fbfd 893d
000000c0: bacb f5ba 2520 8cbb 1f95 01bd febe 3fbc
000000d0: 525d b1bc 6d84 ae3a 1d2c 5cbd 67c6 83bc
000000e0: 2eb9 003d 5f56 11bc 516a 03bd d820 35bd
000000f0: 020e 793c b5e9 153d 5eea 423c 5c37 0e3d
-0.030869262 -0.01348356 -0.0042663873 -0.041742813 -0.006935557 -0.0071668294 0.0072650346 0.011265514
-0.00885931 -0.014322793 0.0020185604 -0.024075707 0.019905267 -0.009567031 -0.013654644 0.0042112335
0.017377723 0.021704601 0.0135943955 0.015609314 0.018338634 -0.017800938 -0.0016068041 -0.01735386
-0.029938439 -0.012188418 0.036562834 0.013051476 -0.045052957 -0.012171458 -0.040214736 -0.042693753
0.03980191 0.027101612 0.053791672 0.003580279 0.014020503 -0.040155813 0.01587142 0.0011224776
0.0010536559 0.010044183 -0.026474891 -0.05324686 -0.018839305 0.045082986 -0.019422518 0.06737896
-0.0018752732 -0.004276293 -0.031636354 -0.011703251 -0.021650944 0.0013314612 -0.053753007 -0.016085817
0.0314266 -0.00887069 -0.032083813 -0.044220775 0.015201094 0.036599834 0.011896698 0.034720764

weight f4 [10, 64]
00000000: 3dab e0bd 9f24 4e3e 080e 11bd 55f1 783c
00000010: de33 1dbe 738d 473e 3190 2cbe 386f 09bd
00000020: 089d 96bd 9835 9a3e 03e7 9ebd f696 733e
00000030: f9dc e3bd 2ef1 13be 02a0 0f3e e83c 60bc
00000040: 6d49 f93d 9355 2f3e 03bb 6b3d eaa1 01be
00000050: 0320 1c3e fcda bc3d 71d0 e9bd b4a0 113e
00000060: 0407 163e e095 0c3d 32ef 04be 6c25 e83d
00000070: 829f 13bc 1ea4 193e 2c74 283e c747 db3d
00000080: 3280 77be d2c1 843d feee 24be 45eb 4cbd
00000090: 5bb5 f73c a99b 483e b23f 043e c457 283e
000000a0: ee8f a8bd 2a95 11be 22da b6bd f8e5 e53d
000000b0: bf00 87bd c7e2 bcbd 9bbe 28be 5dec acbd
000000c0: 52bf c2bd 97ff 4e3e a2da 14bd ef33 283e
000000d0: 6b07 123e 96c9 0e3e 3b10 5abc 2ba3 dd3c
000000e0: f4cb 223e 9517 733d 976f 4e3d e65f f43d
000000f0: babc 79bd db27 a63c 81f2 80bc fc05 cabc
00000100: d54b f83d b004 803e ab31 efbc 7942 343e
00000110: 0bf7 203d 21c7 65be 17f9 d83b f32e f63d
00000120: 36ef 523e a8b4 d63d fa77 afbd ae6c c9bd
00000130: e003 183e a97c 0a3e aff3 0bbe 7050 a13c
00000140: b6ca 38be 355a 94be d836 873e 979b 383e
00000150: c401 3bbe d88e 3a3e 2efc 0d3e 902f 733e
00000160: 80f4 f8bd 4bcd 4dbe 3aeb ef3d 121b ae3d
00000170: be1a 2bbe d2a8 87be 7010 6d3e 23bd 8bbd
00000180: a53d 7e3e 7a9e 343d a2a4 b1bd 2d8a 393d
00000190: d5f8 8d3e 4f14 53be aef1 72bc 4dcb 9b3d
000001a0: 09dc d5bd 8a67 99be 2360 653e d61b 1e3e
000001b0: e0a1 a6bd 644c 533e 1f4e c23c 1b7f e1bd
000001c0: be09 d93d 587b eb3d e5ef e1bd cd9a ffbc
000001d0: 45d2 d33d b761 e33d 94c6 7ebe bb90 433e
000001e0: 0b06 133c b419 513d 8266 d33d 74a1 623b
000001f0: 0b7f 843e 567b a03d 7adf b73d c8c4 483e
00000200: 48db 003e 504f b0bd 4f23 adbd c7aa 033e
00000210: e17d 593d 807b 373e 7001 43be 1244 71be
00000220: 3750 043e 07e4 3a3e ad49 44ba 0a0f a9bb
00000230: a6d5 c9bd 082c 1f3e c73c 66be 002e c53c
00000240: 10fa 93bd 239d 833e 7e0e 45be 3de4 2b3d
00000250: 4150 d13d 4fba 97bc cb3c 6cbd ad2b 09be
00000260: 13ad c7bd 1432 763e c7f1 9839 2fe9 28be
00000270: 6bbb 243d 1a72 053d 8fe6 43be c922 a1bd
00000280: a860 29be 827f a53d 90fb 2dbd e9d9 86bd
00000290: 287c 08be aafc 073e a5d5 c2bb d58c f53d
000002a0: 7a12 823d c0d3 2e3e 8573 64bd bd23 7bbe
000002b0: 40f2 aabd 5542 28bd dc85 29be 28ae 843d
000002c0: a3a3 d2bc 18a9 033e 446f 4d3e d24f 5e3e
000002d0: 18cb dabc 4396 4e3e 83c7 0fbe fc22 1ebe
000002e0: ddbd 3abe 88c1 a0bc b681 77bd 2769 19be
000002f0: 7be5 313d 1320 343d 8f7a 0dbe bb1a a83d
00000300: 0316 e23d 8d21 09be 9839 773d 76f9 0ebc
00000310: 74e1 01be 55a6 5dbe 2c91 f3bd 2533 d2bd
00000320: 2dc9 143e d2c2 2fbe f18d d2bd b78a 2d3c
00000330: 48dd f4bd 2b09 3bbd 3278 10be 469e 01be
00000340: 8e25 483e b25f 24be 3fdb d4bd 2d05 20be
00000350: ae15 9abd 39d6 d8bd 827e b3bd 275b 22be
00000360: 9974 ce3d 7ed6 ee3d c341 24bd c0f4 45bc
00000370: dc00 b33c 5f36 813d 82c8 29be 8ef0 f4bd
00000380: aac7 6d3d 51ac 063e 5cd9 08be ba22 3abd
00000390: e974 fb3d 0144 96bd 9758 18bd cf2e d93d
000003a0: 8c18 2bbe a66b 5abd a0ed 993d a024 36bd
000003b0: 2c2d 7b3d 390a 613d 71b7 75bd 1fa0 d33d
000003c0: a381 e6bd cd5a 08be b22f 1dbe d23a 4f3b
000003d0: 34bf dfbd 7044 633d b482 133d a22c 49be
000003e0: 8105 9fbd 9b51 e6bd 6f6b 9a3d 38f7 1d3e
000003f0: dec3 26be ba74 513d 0d0a 9fbd f696 86bd
-0.10970161 0.20131157 -0.035413772 0.015194257 -0.15351817 0.19487552 -0.1685188 -0.033553332
-0.0735417 0.30119014 -0.07758906 0.23788056 -0.111261316 -0.14447471 0.14025882 -0.013686396
0.12172208 0.17122488 0.057551395 -0.12659422 0.15246587 0.092214555 -0.1141671 0.1422146
0.14651114 0.03432262 -0.12981871 0.11335263 -0.009010198 0.15004012 0.16450566 0.1070705
-0.24169996 0.06482281 -0.16106793 -0.050029058 0.030237844 0.1959063 0.12914923 0.1643973
-0.082305774 -0.14217058 -0.08928324 0.11225504 -0.06591939 -0.09222942 -0.1647896 -0.0844352
-0.09509148 0.20214687 -0.036341317 0.16426061 0.14260642 0.13944086 -0.013309534 0.027055344
0.15898114 0.05934866 0.05039939 0.11932354 -0.060971 0.020282676 -0.015740635 -0.024661057
0.12123839 0.25003576 -0.029198488 0.17603482 0.0392981 -0.22439243 0.0066214907 0.120206736
0.20599064 0.10483676 -0.085678056 -0.09835182 0.14845228 0.13524117 -0.13667177 0.019691676
-0.18046078 -0.28975073 0.2640903 0.18028103 -0.18262392 0.18218553 0.1386573 0.23748612
-0.1215601 -0.20097844 0.11714788 0.08501257 -0.1670942 -0.26495987 0.23150802 -0.06823184
0.24828203 0.044096448 -0.08673979 0.04529779 0.27728906 -0.20613216 -0.014828129 0.07607136
-0.10442359 -0.29961807 0.22399954 0.15440306 -0.08136344 0.2063461 0.023718892 -0.110105716
0.10597561 0.11498135 -0.110320844 -0.031201744 0.1034284 0.11102622 -0.24880439 0.19098179
0.008973609 0.051049903 0.10322286 0.0034581097 0.25878176 0.078360245 0.08978172 0.19606316
0.12583649 -0.08608878 -0.08454 0.12858115 0.053098563 0.17918205 -0.19043517 -0.23561123
0.12921225 0.18251048 -0.0007487785 -0.0051592635 -0.09855203 0.1554414 -0.22484122 0.024069786
-0.0722543 0.25705823 -0.1924381 0.04196571 0.10220385 -0.018521456 -0.057675164 -0.13395567
-0.09749808 0.24042541 0.00029171837 -0.16495202 0.0402178 0.03257952 -0.1913092 -0.07867963
-0.16540778 0.08080961 -0.042476237 -0.06584532 -0.13328612 0.13279977 -0.0059458786 0.11989752
0.063511804 0.17072964 -0.05577423 -0.24525352 -0.08346987 -0.041078884 -0.1655497 0.0647853
-0.025712794 0.12857473 0.20061976 0.21710137 -0.02670817 0.20174508 -0.14040951 -0.15443033
-0.1823649 -0.019623533 -0.060426436 -0.14981519 0.04343174 0.0439759 -0.13816284 0.082082234
0.11039355 -0.13391705 0.06035766 -0.008726468 -0.1268366 -0.21645482 -0.11892924 -0.10263661
0.14529867 -0.17164162 -0.102809794 0.010592154 -0.119562685 -0.04566304 -0.14108351 -0.12658033
0.19545576 -0.1605213 -0.103933804 -0.15626974 -0.07523666 -0.10587735 -0.08764364 -0.15855084
0.10080833 0.11662005 -0.040101778 -0.012082279 0.021850996 0.063091986 -0.16580394 -0.11959945
0.058051743 0.13151671 -0.13364166 -0.045443274 0.12278158 -0.073371895 -0.03719386 0.10604631
-0.16708583 -0.053325318 0.075160265 -0.044468522 0.061322376 0.05494139 -0.059989396 0.10333275
-0.11255195 -0.13315888 -0.15350226 0.0031620753 -0.10925141 0.05548519 0.03601332 -0.19645932
-0.07764722 -0.11246034 0.075400226 0.15426338 -0.16285655 0.05113671 -0.07765589 -0.06571762

bias f4 [10]
00000000: 81f2 43be cb21 1dbd 70c9 b63b 9072 8cbc
00000010: 22d6 183e c15a 00bd 803d 3f3d c4f1 1dbd
00000020: f94c a4bc eea5 f63b
-0.19135477 -0.038362306 0.0055782124 -0.017144471 0.14925435 -0.03133655 0.04668951 -0.038560644
-0.020056235 0.0075271046
