models/gpu_train_model29.pth (torch, 587335 bytes, 10 tensors)

weight f4 [32, 3, 5, 5]
000000 39 7f 95 3d 6b c0 50 3e 72 c8 35 3d 11 0a 6b bd
       0.072996564 0.20385902 0.044380613 -0.057382647
000010 1e ef 17 be d4 86 5a 3d ab 0c 43 3e be 05 53 3e
       -0.1483731 0.05335124 0.19047801 0.20607659
000020 a6 42 08 be f5 02 0f be e4 16 a4 3d 43 1c 15 3e
       -0.13306674 -0.13965972 0.080121785 0.14561562
000030 40 f3 13 3c fd 50 8a bd 6b e9 85 bd b2 a1 9e 3c
       0.009030163 -0.067537285 -0.065386616 0.019364212
000040 04 45 3b be 19 98 0b be e9 04 6d 3d 3c f5 7b 3e
       -0.18288046 -0.1363224 0.05786601 0.24605268
000050 de 09 43 be 66 ab 3b be bd 5f af 3d fa 92 de 3d
       -0.19046733 -0.18327102 0.085631825 0.10867877
000060 2d f0 30 3e 16 e1 10 3e 54 62 1c 3e 4d 4c 9a bd
       0.1727912 0.14148363 0.15271884 -0.075340845
000070 8e a3 f0 b9 76 03 fa bd c0 db 4d 3e 0c 8e a0 3d
       -0.00045898225 -0.12207691 0.20103359 0.07839593
000080 c8 25 bb 3d b0 2b 24 be 80 13 aa bd ba 5b c8 3d
       0.091380656 -0.1603229 -0.083045006 0.097831205
000090 86 73 88 3d 5a 4f 4e 3d 9f 6d 2d bd 34 e8 d0 bd
       0.06662659 0.050368644 -0.04234087 -0.10200539
0000a0 64 b3 d7 bd 27 05 6d be 78 75 f2 bc 36 57 0c 3e
       -0.10532263 -0.23146497 -0.02959703 0.13705143
0000b0 a5 a5 82 3e 76 52 f7 bd 2b 22 92 bd 74 01 7d 3d
       0.25517002 -0.12076275 -0.07135423 0.061768964
0000c0 2b 60 a8 3d 08 f1 0a 3e 63 9b c4 3d 4a 04 c5 3d
       0.082214676 0.13568509 0.0959995 0.09619959
0000d0 80 ec 42 be 1d 57 78 be 52 f4 1f be 84 e8 0e bc
       -0.1903553 -0.24251981 -0.15620545 -0.008722428
0000e0 3d b2 86 3d 00 f7 8b bc 29 9e 89 be 35 a4 87 be
       0.06576965 -0.017085552 -0.2687848 -0.26492468
0000f0 c2 34 0b bd c4 0c 82 bc c6 84 9d bd a5 59 84 bd
       -0.03398586 -0.015875228 -0.0769134 -0.06462411
000100 4a e1 51 bd 8e d1 f9 bd 7c ef ef bd 54 fd 4a be
       -0.051240243 -0.121981725 -0.117156 -0.198232
000110 84 08 1b 3e 8c 5a f6 3d 01 e4 50 be 8e 8d a6 bc
       0.15139967 0.12028989 -0.20399477 -0.02033117
000120 d3 20 c2 bc 4a 4c be bc 66 5d cf 3c ed 6e 3c 3e
       -0.023697292 -0.023229737 0.02531309 0.1840169
000130 8f 96 b7 bc b6 9e 4a be e6 6f 5f bd 30 ef d5 bd
       -0.02241066 -0.19787106 -0.054550074 -0.10446012
000140 44 2f 82 bd d6 67 5e be 3b 8e b1 be f1 c0 4b 3d
       -0.063566715 -0.21719298 -0.34678826 0.04974455
000150 b7 81 32 3e 4c 8d 5d be 3b ce 5d be ee e2 15 be
       0.17432295 -0.21635932 -0.21660702 -0.14637348
000160 dd 77 81 3e 78 61 c4 3d a1 52 e8 bc e6 16 67 be
       0.2528676 0.09588903 -0.028359713 -0.22567329
000170 2d ab b0 3d 1a fc 1e 3e 0a 94 5b 3d f5 90 2f 3d
       0.08626399 0.15525857 0.053607978 0.04286285
000180 0a 33 48 be 64 94 12 3e 5f 3f 03 3e 6d a8 09 be
       -0.1955072 0.14314419 0.12817143 -0.13443156
000190 4a cc 67 3e f9 79 a1 bd 6c 9b fb bd 93 fe 31 3c
       0.22636524 -0.078845926 -0.12285504 0.010863918
0001a0 02 01 28 3e 0b f6 28 bc 7d a6 1c bd d4 5d 88 be
       0.16406634 -0.010312567 -0.038244713 -0.26634085
0001b0 ac 89 36 3e 5f bc 59 3e 53 00 e0 bd bc 59 f8 3b
       0.17825955 0.21263264 -0.10937562 0.0075790565
0001c0 12 ba 6b bd 0a 5f 74 3e de 3f 01 3e ec bd 35 3d
       -0.057550497 0.2386438 0.1262202 0.044370577
0001d0 97 6f 2d be 34 9a 74 3e ac 1f 86 3e 27 29 5a 3d
       -0.169371 0.23886949 0.2619604 0.053261902
0001e0 59 fa e0 3c ce 9b 4b 3c 91 bb 48 3e f9 35 3f 3d
       0.027463125 0.012427283 0.19602801 0.04668233
0001f0 04 41 19 bd 3d 47 35 3e 4a 1b 86 bc 5c 9d 86 be
       -0.03741552 0.17702956 -0.016370434 -0.2629193
000200 3c 28 8d bd 38 99 15 bd 48 86 f7 3b 5a 15 a0 bd
       -0.0689244 -0.036523074 0.0075538494 -0.078165725
000210 26 84 24 be 7b 02 d7 3d 4f 00 a4 3d b2 e5 22 be
       -0.16066036 0.1049852 0.08007871 -0.15907934
000220 26 da f5 bc 9c 7d 3d 3d ab a1 2c 3e 62 3e 15 bd
       -0.030011248 0.04626237 0.16858546 -0.036436446
000230 6d 1c 38 be 81 34 2f be 40 3f bc 3d c1 84 24 3d
       -0.17979594 -0.17109872 0.091917515 0.040165666
000240 d4 cd 55 bd 6d 58 00 be e2 4a b6 bc f2 dd 11 3d
       -0.052198246 -0.12533732 -0.022252504 0.035612054
000250 9c 49 ef 3d 39 25 8e bd 0d ca fb bd b8 0c 1a 3e
       0.11683962 -0.069406934 -0.122943975 0.15043914
000260 e3 33 a6 3d db 30 98 bb 7c f5 de 3b de df 2e be
       0.08115365 -0.004644496 0.0068041664 -0.17077586
000270 ac 69 77 3e be 43 30 3e 56 04 e1 bd 03 09 a8 bc
       0.24161404 0.17213342 -0.10987155 -0.02051211
000280 37 e7 ee bd ad 9d 57 3e e1 ad 35 3e eb f4 a2 bb
       -0.116651945 0.21056242 0.17742111 -0.004973044
000290 f9 0a 2e 3e 85 bc 4d 3d c2 e5 80 3e 41 51 df 3b
       0.16996373 0.050228614 0.2517529 0.006815106
0002a0 8a 97 29 3d a6 74 62 3e 85 be af 3d b3 51 10 3e
       0.041404285 0.2211481 0.085812606 0.14093666
0002b0 cb 2e ef 3d 20 3f 85 bb 29 da 25 3e 7d bb 87 bd
       0.11678847 -0.004066363 0.16196503 -0.066275574
0002c0 17 d0 66 3d 55 ff 3c bd c3 be 9a bd 07 76 03 3e
       0.056350794 -0.04614194 -0.07555916 0.12837993
0002d0 10 08 a9 bd bc 57 e3 3c 31 90 0c bd d0 20 4f 3d
       -0.08253491 0.027751796 -0.0343172 0.0505684
0002e0 58 e2 98 3d ab 88 47 be 49 b8 0f 3d af 02 2e bd
       0.07465047 -0.19485728 0.035087857 -0.042483028
0002f0 d8 50 33 be fa b8 94 3d 4e 73 09 be 8b af 1b bd
       -0.17511308 0.07261844 -0.13422891 -0.038009208
000300 d7 c5 0f be 65 f8 02 bd 81 48 27 3e 90 8a f8 bb
       -0.14040314 -0.03197517 0.16336252 -0.0075848773
000310 78 d1 38 3d 60 11 fd 3c 24 5b 96 3d 30 70 36 3c
       0.04512164 0.030892074 0.073416024 0.011135146
000320 2d 19 90 bd 6a 20 66 bd 1f 1e 44 bd 40 2b 33 3d
       -0.07036052 -0.056183256 -0.04788029 0.04374242
000330 4f f6 ce bd 5a ae 62 be e2 9d 12 3d 6b 0b 18 be
       -0.101055734 -0.22136822 0.0357951 -0.14848106
000340 ff e4 2e be 18 d2 23 3d 50 b5 94 be ba ed 16 bb
       -0.17079543 0.039995283 -0.2904458 -0.002302988
000350 35 81 05 be 1c b9 15 be c7 66 a7 3d 57 15 0a be
       -0.1303757 -0.14621395 0.081739 -0.13484703
000360 c8 60 51 bd d7 6e 0c be 27 00 12 bd f4 ad dc 3c
       -0.05111769 -0.13714157 -0.035644677 0.026938416
000370 78 24 46 be 02 bc 82 3d 22 04 24 be 67 f7 84 3d
       -0.19349849 0.06383516 -0.16017202 0.06492501
000380 f6 9d 69 3d 88 84 ac 3d 0b 34 f8 bd ad 3e a2 bd
       0.05703541 0.08423716 -0.121193014 -0.07922111
000390 c5 29 15 bd c6 a9 fa 3d 64 88 f1 3b c1 99 bf 3d
       -0.036416788 0.12239413 0.0073709954 0.09355498
0003a0 57 d0 ec bd 3a 86 3d 3c b7 b7 94 3d f5 12 fe 3d
       -0.11563175 0.011567647 0.07261603 0.124059595
0003b0 4c 92 08 3c 7b 97 7c 3d 5e b4 b8 bd a2 e8 90 3d
       0.008335661 0.0616679 -0.09018777 0.07075621
0003c0 4f fd 2d be 0a 7b 01 3e 23 15 fd 3d 42 8f 72 3e
       -0.16991161 0.12644592 0.12357547 0.23687461
0003d0 70 84 cd 3d 77 24 e4 bc df 82 e3 bd d2 2b e9 3d
       0.10035026 -0.027849419 -0.11108946 0.11385311
0003e0 f5 f3 05 3e 86 6c 7d bd d8 e9 b6 bd f4 bc 4b be
       0.13081343 -0.061871074 -0.08931321 -0.19896299
0003f0 dd 14 5c 3d 89 15 18 3d 76 2f f1 3d e7 60 24 3e
       0.053730834 0.037129913 0.117766306 0.1605259

bias f4 [32]
000000 c0 41 a4 3d de 5f 68 3d a5 55 54 bd 5a f6 3d be
       0.08020353 0.05673205 -0.05183949 -0.18551007
000010 44 50 bc bd 33 3a 9c 3d b1 37 64 3e 92 40 01 3e
       -0.09194997 0.07628288 0.2228687 0.12622288
000020 73 ef 57 bd 28 77 47 3c f2 bf 2b 3e e7 86 b0 be
       -0.05271859 0.012174405 0.1677244 -0.34477922
000030 25 23 a4 be ea 08 dc 3d 16 d6 05 be d4 a3 9d be
       -0.32058063 0.10743888 -0.13069949 -0.30789053
000040 0a 76 7f be 26 ef b5 3d 7b 68 63 3e 19 bd 2f be
       -0.24947372 0.088835046 0.22207825 -0.17161979
000050 30 5f 1c be b7 cf af be c3 1f 25 bd 9a fd 05 be
       -0.15270686 -0.3433816 -0.040313493 -0.13085023
000060 13 44 60 bd bf e8 66 3d b4 b6 92 bd 2a 90 33 be
       -0.05475242 0.056374308 -0.07163754 -0.17535463
000070 f7 f0 92 bd 2a 1c 30 bd dc 40 91 3d 86 70 36 3d
       -0.07174867 -0.04299561 0.07092449 0.044540904

weight f4 [32, 32, 5, 5]
000000 88 46 32 bd 61 e8 d9 3b d9 ea 4e 3c 98 9e c3 3b
       -0.043524295 0.006650016 0.012629234 0.0059698336
000010 2d 0f df 3c 7d 82 d8 bc d9 03 7a bc b5 92 80 3d
       0.027228916 -0.02642941 -0.015259706 0.06277982
000020 2f 7d 9e 3c dd 51 7b 3d 76 32 b7 bb bd b8 c4 3c
       0.019346802 0.061357368 -0.005590732 0.024013871
000030 c3 4e 89 3d 79 92 0c 3d f9 e0 47 bb da 4e f8 ba
       0.06704476 0.034319375 -0.0030499084 -0.0018944398
000040 43 57 25 3d dd 29 92 3d 1b 44 2e 3d 8d 5b a1 3c
       0.040366422 0.07136891 0.04254542 0.019696975
000050 74 71 a1 3c c4 04 b1 3c 0d 31 29 3c d7 4e b9 3c
       0.019707419 0.021608718 0.010326636 0.022620602
000060 2f d8 ce 3c 6f 24 6c bc 27 ef 4f bd ca 7a 09 bc
       0.025249569 -0.014412983 -0.050765183 -0.008391092
000070 52 b9 67 3c 8f a9 17 3d ae 28 dc 3b 82 7e bf 3b
       0.014143305 0.037026938 0.0067187166 0.0058439383
000080 a7 27 ae bc d1 22 88 3c 31 88 5f 3d e2 4b d8 bb
       -0.021259142 0.016618164 0.05457324 -0.006600843
000090 af 52 27 3a 38 ca 24 3d f7 49 87 3d 48 71 9e 3d
       0.0006382865 0.040231913 0.066059045 0.077364504
0000a0 23 5a 88 bd 0e 61 63 bd f1 a4 0f 3d d1 b5 35 3b
       -0.06657817 -0.05551248 0.03506941 0.002772678
0000b0 23 a5 c8 3b b1 d6 c9 bc 90 2a 5a bd ce fa 69 3d
       0.0061232015 -0.024638506 -0.053263247 0.05712395
0000c0 74 5f db 3c 5f d2 1c 3d b0 e8 aa 3b af 43 38 bd
       0.026778914 0.038286563 0.005215727 -0.044986423
0000d0 a6 b2 dd bc 65 91 13 3c 7d 7f 57 bc b3 2a 1a bb
       -0.027062725 0.009006833 -0.013152954 -0.0023523986
0000e0 9a 6a c2 bd 9c 1b 9a bb da d3 f8 3c 71 f6 cc 39
       -0.09492989 -0.0047029983 0.030374456 0.00039093525
0000f0 cb a0 a3 bd fb e9 4d bd 47 58 2f bd 32 68 98 bc
       -0.07989653 -0.05027197 -0.042808797 -0.018604372
000100 6e c2 1c bc df b6 d3 bc 01 e6 9c bd a8 58 38 bd
       -0.00956784 -0.025844036 -0.07661057 -0.045006424
000110 96 ab ed 3c 9b 48 de bc df 77 b6 bc 95 c2 44 bc
       0.029012483 -0.02713423 -0.022273956 -0.012009283
000120 85 18 fa 3b 1b d5 4f bc ea 92 95 3c 4b 26 15 bd
       0.0076323175 -0.012685086 0.01825853 -0.036413472
000130 f6 eb 32 bb e9 24 7e 3c 2e cf ad 3c c8 78 f8 3a
       -0.0027301288 0.01551173 0.021216955 0.0018956894
000140 e9 5f 7c ba 83 da 51 bb 9e 03 ab bc 78 53 2a bc
       -0.0009627329 -0.0032021112 -0.020875748 -0.010395877
000150 87 59 6b bc f7 b7 1d bd 69 60 fb bc c4 f4 c6 bc
       -0.014364607 -0.03850552 -0.03068562 -0.024286635
000160 12 2e 0b 3c c3 93 5b 3c 36 c7 6d bc 99 e9 31 bd
       0.008494871 0.013401928 -0.014512828 -0.043435667
000170 ec 90 50 bd 90 ae a8 bb cb a7 28 bc d2 3f cf bb
       -0.05091946 -0.0051477626 -0.010293911 -0.0063247466
000180 2e 5c ba bb db e9 a8 3b 03 c6 e8 3c 82 5b ce 3c
       -0.005687258 0.005154831 0.028414732 0.025190119
000190 e9 7d a8 3c ae ed 3b 3d 5f bb 0f bd f6 16 47 3c
       0.020567851 0.045880966 -0.0350908 0.01215147
0001a0 49 2d 2a bd 5a 7d 60 3c 60 3b cf 3c 2e 8f 39 3d
       -0.041547094 0.013701761 0.025296867 0.045302562
0001b0 71 d0 cf bb 03 73 f2 3a c7 6a d0 3c 0a e9 53 3d
       -0.006341987 0.0018497411 0.02544154 0.051735915
0001c0 73 8f dd 3a f7 a1 4b bb a4 1a e3 3c 35 36 33 3d
       0.0016903713 -0.003107188 0.027722664 0.043752868
0001d0 90 d1 1d 3d b3 da ab bc bf 74 4b bd 16 48 47 bc
       0.038529932 -0.020978307 -0.049671885 -0.012163183
0001e0 18 52 13 3c f0 65 d0 3c 2b 20 05 bd 92 f1 46 bd
       0.008991741 0.025439233 -0.03250138 -0.048570223
0001f0 52 fa 22 bc 3e 9c ef 3c 98 5e 33 bc 54 c7 b8 3c
       -0.009947376 0.029249307 -0.010947846 0.022555985
000200 69 01 8e bc 4d b6 8b bc 3b 0e 0f 3d 65 2e a1 3c
       -0.017334657 -0.017054701 0.03492568 0.019675443
000210 4d a4 16 3d bf 70 28 3c f5 69 a1 bb c4 89 11 3d
       0.036777783 0.010280787 -0.004925961 0.035531774
000220 e1 ac 39 3c e5 9a 33 3d 31 b2 02 3c 21 4e aa bb
       0.011332721 0.04384889 0.007977054 -0.005197302
000230 2e 08 45 3d 33 75 25 bc e9 03 ab 3b 0f f6 2d bd
       0.048103504 -0.010098743 0.005218972 -0.042470988
000240 14 e2 02 bb 06 eb a6 3c cc a6 b2 3c f0 5e c5 3b
       -0.001997118 0.02037574 0.02180805 0.0060232803
000250 05 6c 36 bc 92 8b 58 bc d0 f3 31 bc da 0d c7 3c
       -0.011134152 -0.01321687 -0.010861352 0.024298597
000260 d2 73 a1 3c 8c cc ae 3d 03 06 37 3c 1a 51 15 bc
       0.019708548 0.08535108 0.011170867 -0.009113574
000270 e5 d8 5f 3d d3 d7 51 3d 02 0b 9c 3d a1 ca 68 3d
       0.054650206 0.051231217 0.07619287 0.056833867
000280 e1 94 0d bc a1 15 86 3d 84 3b 28 3d a9 e8 5a 3d
       -0.0086414525 0.06547094 0.041072384 0.05344454
000290 55 6c b1 3d 0c e9 f1 bc bc a5 01 3d 8e 69 0d 3d
       0.08663241 -0.02953007 0.031652197 0.034524493
0002a0 e9 ad 8f 3d 4f 44 63 3d ba 46 a2 bc aa e1 24 bd
       0.070155926 0.055485066 -0.019809116 -0.040254273
0002b0 ac d6 e7 3b a3 6f 40 bd ad ef ef bc ed 73 c5 bc
       0.0070751514 -0.046981465 -0.029289091 -0.02410313
0002c0 ae 37 8d 3b c8 dd 1f 3c 33 13 c8 3c e3 12 29 3c
       0.004309616 0.009757467 0.024423217 0.010319444
0002d0 2e 86 bf 3c 45 f1 d8 3b b3 2d 81 3d a1 d1 39 3d
       0.023379412 0.0066205584 0.063075446 0.045365933
0002e0 b6 4c 33 3c 8b d4 3a bc ca 52 e2 3c b2 5d fd 3c
       0.010943582 -0.011403213 0.027627368 0.030928466
0002f0 b5 78 87 bc f8 2e cc 3a 8f 1a ef 3c fc b3 86 bc
       -0.01653705 0.0015577963 0.029187469 -0.016443245
000300 70 24 04 bd 6b 60 ef bc 95 09 99 bc 34 6a 3d bc
       -0.032261312 -0.02922078 -0.018681327 -0.011560965
000310 8b 5d 4a 3c e2 16 6d bd 57 6e 57 bd 74 90 43 bd
       0.012351404 -0.05788315 -0.052595463 -0.047745183
000320 9b ef e2 3b 6a 0a 66 bc e8 98 5c ba 84 44 99 bc
       0.006925536 -0.014040569 -0.0008415119 -0.018709429
000330 cf dc 06 3c da 77 a2 bc 73 6e c1 bc 0e 53 e2 bc
       0.008231356 -0.01983254 -0.023612237 -0.027627494
000340 bf 9f 55 3c a3 96 a4 bc 0c 9f 11 3d 51 a8 9c 3b
       0.013038575 -0.02009136 0.03555207 0.004780807
000350 b9 01 8d bb 94 ed c0 bc d1 9f e9 3c e2 d2 67 3c
       -0.004303184 -0.023550786 0.02851859 0.0141493995
000360 bb 37 26 3d 13 16 14 3d 0f 2f 82 3c 50 3b a6 3a
       0.040580492 0.036153864 0.01589158 0.0012682471
000370 ee 83 a6 3b bf 53 1a bd a1 58 b1 3c 2e 2b c0 bb
       0.005081645 -0.037677523 0.021648707 -0.0058645224
000380 1f c1 36 bd bf a1 bc 3c 2b e0 15 bd 90 6b 98 bc
       -0.04461777 0.023026345 -0.036590736 -0.018605977
000390 42 8e 78 bd 46 7d fc bc db 66 72 bc 89 a3 76 bd
       -0.060682543 -0.030821454 -0.0147950305 -0.060214553
0003a0 af 21 65 bc 26 58 96 bd bb fc 15 bd cd 58 2a 3b
       -0.013985082 -0.07341032 -0.036617976 0.002599287
0003b0 07 2e 86 bd dc 3b 28 bd 93 8d 1a 3b 25 5b ea bc
       -0.06551748 -0.04107271 0.002358292 -0.028607914
0003c0 3b cd 01 3d c6 92 06 bd 4e 7c 1d ba f1 20 f8 bb
       0.031689864 -0.032854818 -0.00060075975 -0.0075722863
0003d0 de 49 95 bc 73 9a 5b bc e5 c8 5c bd 44 51 c0 3c
       -0.0182237 -0.013403523 -0.053902525 0.02347625
0003e0 b4 2e ef 3b 74 17 fe bc 48 71 ca 3c 3d ee 03 bc
       0.0072992686 -0.031017043 0.02471222 -0.008052406
0003f0 79 9a bf bc 0d 54 1b bc 51 6a 00 3d 82 df 85 bc
       -0.023389088 -0.0094804885 0.03135139 -0.016341928

bias f4 [32]
000000 ad 48 16 3b 14 4c 83 be 24 5f d6 3c a2 98 78 bc
       0.0022931502 -0.2564398 0.026168413 -0.015173109
000010 f2 9b 0d be 2a 5b 09 3d ff 7e 22 bd 94 a7 14 be
       -0.1382902 0.033534206 -0.039671894 -0.14517051
000020 50 b7 af 3b cc 69 ce bd 62 f4 1c be 42 12 75 3d
       0.0053624287 -0.10078773 -0.153276 0.059831865
000030 09 5d 01 be da 73 ca bd 38 3b 17 be 74 a2 fd bd
       -0.12633146 -0.09885378 -0.14768684 -0.12384501
000040 23 dd 9e bd 03 72 20 be 25 fd 84 bd b2 cf 33 be
       -0.07757022 -0.15668492 -0.06493596 -0.17559698
000050 b8 26 a0 bc 40 9c 40 bd 7b 25 ce bd 13 f4 39 3c
       -0.019549713 -0.04702401 -0.100657426 0.011349696
000060 d3 eb 16 3d bc b5 63 3c c0 8e 7d be 7e 4b 91 be
       0.036845993 0.013898309 -0.24761486 -0.28377908
000070 38 59 14 3d 0d 86 0e be 7a 97 60 bd e0 10 60 be
       0.036217898 -0.13918324 -0.05483196 -0.21881437

weight f4 [64, 32, 5, 5]
000000 ee b7 2a bd 0d d6 2c 3b 6b 0d e9 bc 6e 14 26 bd
       -0.041679315 0.0026372701 -0.028448781 -0.040546827
000010 53 33 6f bc 06 2b 02 3d cf 03 b8 3c c1 e6 00 bd
       -0.014599639 0.03177931 0.022462754 -0.031470064
000020 7f 71 9b bc 2e eb 89 bc 1e a3 f9 bc 8c 77 30 3c
       -0.018975018 -0.016835775 -0.030473288 0.01077069
000030 82 11 ce 3b 84 1b f9 bc 57 c2 c1 bb b1 0b d5 3b
       0.006288708 -0.030408628 -0.0059130597 0.006501638
000040 44 7d 2a bd b2 51 c7 3a 41 9c ea 3b 00 e2 a9 3d
       -0.04162337 0.0015206842 0.00715974 0.08295059
000050 c3 a0 50 3c f8 63 4f 3d d5 a8 0e 3c 00 b7 ef bc
       0.012733641 0.050632447 0.008707245 -0.029262066
000060 7d 3a cd 3c f6 a7 b6 3d a8 8d 23 3d a0 5d 0c bd
       0.025052303 0.08918755 0.039930016 -0.034268975
000070 b5 2d 3f bd 40 96 54 bd 3c 2d 26 3d 6b 4d ae b9
       -0.04667445 -0.051901102 0.040570483 -0.00033245547
000080 e7 5a d9 39 cc 3a 74 bc 06 05 ce bc 2a de a1 bc
       0.00041457193 -0.014906596 -0.02514888 -0.019759256
000090 af 28 be 3c 43 84 0d 3c 07 66 e8 3c 05 2b 56 3d
       0.023212759 0.008637491 0.028368963 0.05228712
0000a0 a0 0b 92 3b 26 f1 9d 3c 52 dd 5a bb bc 7e f7 bb
       0.004456952 0.019280028 -0.0033396077 -0.0075529497
0000b0 02 9c 06 bd bd 3e e2 bb 8f fe ee 3c cc 2f 86 3d
       -0.032863624 -0.0069044516 0.029174117 0.06552085
0000c0 8a 77 fd bc d3 e4 03 bd 76 d4 13 3d e2 b2 23 bd
       -0.03094079 -0.032200646 0.03609129 -0.039965518
0000d0 ab ae 11 bd 75 33 48 bd 2e bb 2d 3d 18 03 df 3c
       -0.035566967 -0.0488772 0.042414837 0.027223155
0000e0 7f f5 0a bc 9c a4 7d 3d 06 aa e1 3b 0f 1a 6e 3b
       -0.008481382 0.06192456 0.0068867235 0.003633145
0000f0 73 ce b6 3c 0c a3 33 3b 29 df 24 3c 64 e6 30 3d
       0.02231524 0.0027410416 0.010062971 0.043188468
000100 f9 bf 21 3d 15 ed 25 bd 42 34 ab 3a a0 5a 6e 3b
       0.03948972 -0.040509302 0.0013061839 0.0036369935
000110 e3 6c 18 bc 41 3d bf 3b ef af 85 bd f3 ec 0a 3d
       -0.009303304 0.0058361595 -0.06527697 0.03391738
000120 e1 1b 80 3d ba 7f 0a bd 03 a1 09 bd 18 67 fe bb
       0.062553175 -0.033813216 -0.03360082 -0.0077637546
000130 d0 f1 99 3c fd 13 e7 3c ac f5 a5 3c c3 56 a4 3c
       0.018792063 0.028207773 0.020258747 0.020060902
000140 c3 1a f4 3c 68 9c 66 bc 47 30 7e 3c 71 e4 9b 3c
       0.029797917 -0.014075376 0.01551444 0.019029828
000150 0e f3 8b bc f5 1c 5b 3c d5 fd 07 3b 86 6b fa bc
       -0.017083671 0.013373603 0.002075066 -0.03056885
000160 84 89 32 3c be 26 87 bb 92 76 53 3d d7 87 19 3d
       0.010897044 -0.0041244915 0.05162675 0.037483063
000170 91 01 f2 3c 6a 68 4f 3c 36 b4 02 ba 9f 69 49 bd
       0.029541763 0.012659172 -0.000498596 -0.049172994
000180 54 ff 14 bd a5 60 87 3c 41 41 ab bc f2 fd c5 3c
       -0.036376312 0.016525576 -0.020905139 0.024168942
000190 03 6a b5 bb 8d 32 af bc 64 04 4a bc 3c cf c6 bc
       -0.005536319 -0.02138641 -0.012330148 -0.024268739
0001a0 82 34 e5 bc 9b 51 87 3d d9 65 dd bb bf c1 f1 3b
       -0.02797914 0.06607362 -0.006756526 0.0073778327
0001b0 b9 18 f2 3c c5 ad 8a 3b b8 0f 83 3d 24 f1 9a bb
       0.029552804 0.0042321407 0.063994825 -0.0047284532
0001c0 79 10 a5 bc 99 1d 3b 3d b8 99 ee bc 3b 16 e0 bc
       -0.020149456 0.045682523 -0.029126033 -0.02735435
0001d0 bd 0d ee bc 2c 0f 1b 3c b9 9d 0d 3d c8 59 41 bc
       -0.029059285 0.0094640665 0.034574244 -0.011801191
0001e0 f7 ed b8 3c 47 d9 2b 3c 61 56 99 3c 1a 6b 5f 3c
       0.022574408 0.010488815 0.018717946 0.013636375
0001f0 f7 5b 94 bb ab 4d 09 3c e7 ad dc b8 f0 40 4c bd
       -0.0045275646 0.008380334 -0.00010522809 -0.049866617
000200 c9 05 7f bd 2c de 2c ba ca 3f 62 bb d0 91 d7 3a
       -0.062261377 -0.00065943855 -0.0034522885 0.0016446654
000210 4f 1f 31 bd 6d 31 1e bd 3f dc 87 bd b7 c5 d5 bc
       -0.04324275 -0.038621355 -0.066338055 -0.026095254
000220 03 b9 9a bb 73 8d ee bc 2e b8 97 3c 72 8c 1e 3d
       -0.004721762 -0.029120183 0.01852044 0.038708158
000230 1d 0c 01 bd 2a 98 5f bd 97 52 6c 3c 5f 1c 1d bc
       -0.031505693 -0.054588474 0.014423988 -0.009589284
000240 f1 25 0e bd 74 59 7b bd e2 7c 02 3d 0e 01 b4 3b
       -0.034704152 -0.061364606 0.03185738 0.00549329
000250 9b f5 06 3d a0 12 ab 3c aa 92 20 3d 05 1d fb 3a
       0.03294907 0.020882905 0.03920237 0.0019158429
000260 4f 78 0c 3d 50 88 f1 3b 5f 68 20 3d 3a e8 04 bd
       0.034294423 0.007370986 0.039162036 -0.03244803
000270 be 46 06 bd 4d 06 7d 3d 44 53 2a 3d 29 1e 48 3c
       -0.03278231 0.061773587 0.041583315 0.012214222
000280 8c 1c 13 bd f0 20 43 3c c0 62 74 3d df 59 b2 bb
       -0.035915896 0.011909708 0.059664488 -0.0054428424
000290 fe 67 ac bb 96 2f 76 bd d3 b9 d2 bc 1b 78 29 bd
       -0.0052614203 -0.060103975 -0.025723374 -0.041374307
0002a0 52 92 2c bd 88 75 ac 3d 07 ea b5 3c 02 69 6e 3b
       -0.04213173 0.08420855 0.02220632 0.0036378508
0002b0 5c 30 07 3b 66 ee 85 bc e3 ef f8 3c 68 a7 93 bc
       0.002062819 -0.016349029 0.030387824 -0.018024161
0002c0 2b aa 97 bc a6 a7 8b bb 1d 32 bf bb 17 92 a8 bc
       -0.01851376 -0.0042619286 -0.0058348314 -0.020577474
0002d0 f0 2a b0 ba a7 4e d9 bc de a5 f2 bc a2 a2 46 3c
       -0.0013440531 -0.026526762 -0.029620107 0.012123736
0002e0 8f 31 3a 3c 96 c0 aa 3c cf e3 20 bc e1 b5 d5 bc
       0.011364355 0.020843785 -0.009819939 -0.026087703
0002f0 33 86 2e 3d 8f 0b 1f bc 28 a1 a0 3c bc ba c8 3c
       0.04260845 -0.009707346 0.019608095 0.024503104
000300 3c 76 ac 3c 18 72 3b bc 47 ae d8 3c f7 9b e0 bb
       0.021052472 -0.011440776 0.02645029 -0.00685453
000310 9f 82 0c bd f7 5e 0d 3c 28 2b b0 bc bb db e4 3c
       -0.034304257 0.008628598 -0.021504954 0.027936807
000320 30 69 a3 bc 55 01 16 bc 58 c1 bc b8 7e a3 9f bc
       -0.019947618 -0.009155591 -9.000552e-05 -0.019487139
000330 89 ac 79 bd fc c1 9e 3c ae 8e 2e bd af bc 45 bd
       -0.060955558 0.019379608 -0.04261654 -0.048275646
000340 c0 b5 e0 bc fb 5e 19 bd 2e 9f c6 3c fd 44 bf bc
       -0.027430415 -0.037444096 0.024245825 -0.023348326
000350 ed ab d0 bc b1 ce 4b bd b9 3f c7 3c 7d 1b a5 3b
       -0.025472606 -0.049757663 0.024322378 0.0050386772
000360 24 18 16 bd 9f 39 f2 bc 9b ef 22 bd cb c1 c3 bc
       -0.036644116 -0.029568492 -0.039779287 -0.023896119
000370 3f e0 b2 bc 2f 54 6e bc fe cb 3a 3d 66 2a b6 3c
       -0.021835444 -0.014546438 0.0456047 0.022237014
000380 87 4e cb 3c c8 3d 1e bc ff 45 f9 bc d2 6c 88 3c
       0.024817718 -0.0096582845 -0.030428885 0.016653452
000390 f8 12 27 bd c6 8b 0c bd a2 ee 06 bd 21 13 32 bc
       -0.040789574 -0.034312986 -0.03294242 -0.0108688185
0003a0 45 17 86 bc 4c 1b 26 bd 85 7a 8d bc ca 11 01 bd
       -0.016368518 -0.040553376 -0.017270336 -0.031511106
0003b0 4b 04 03 bd 8e 1e cd bb d9 6d 05 bd a3 f6 35 bd
       -0.031986516 -0.006259746 -0.032575462 -0.044424664
0003c0 f7 87 cb 3c f5 47 d3 bc f6 d8 1a bd 2d 75 4c bd
       0.024845107 -0.025791148 -0.037804566 -0.049916435
0003d0 c0 98 39 3d de e9 2f bd 47 19 95 bc 00 fe 5f b8
       0.04531169 -0.042947643 -0.01820053 -5.34039e-05
0003e0 c9 4a 7d 3a 4e 3d 00 3d cb 73 b2 bb 42 2a 49 bd
       0.0009662328 0.031308465 -0.0054459325 -0.049112566
0003f0 b8 d2 ea bc 2b ce 24 bd 56 a9 98 3b 9c 53 d2 3b
       -0.028664932 -0.04023568 0.0046588583 0.0064186584

bias f4 [64]
000000 4b c1 94 bd a3 44 91 bd 1e 35 8f bd 1e e6 fa bd
       -0.0726343 -0.070931695 -0.06992553 -0.122509226
000010 6b 26 ad bd 5a 02 d2 bb 01 06 bc bd ca 6c ba bd
       -0.08454593 -0.0064089717 -0.09180833 -0.09102781
000020 d3 a5 a0 b9 7c 22 aa bd b7 6c 5b bd bb 40 af bd
       -0.00030641127 -0.083073586 -0.053570475 -0.08557268
000030 9b 29 dd bc 61 ba 67 bd 62 18 0d bd e2 46 f5 bc
       -0.026997378 -0.05657423 -0.03444708 -0.029941026
000040 7a 76 98 bd 71 63 ae 3b 24 68 eb bd 7b 31 f5 bd
       -0.074444726 0.005321913 -0.114944726 -0.11972328
000050 e5 d9 6d bd fd ad 19 be 3c 94 ff bc 66 18 7a bd
       -0.05806913 -0.15007778 -0.031198613 -0.061058424
000060 8f d5 e1 bd 2c 34 0e be 3d bd a4 bd cf eb 02 be
       -0.11027061 -0.1388709 -0.08043907 -0.12785266
000070 7a 11 71 bd d0 a9 84 bd 74 4c 9b bd a9 04 40 bc
       -0.058854558 -0.06477702 -0.07582942 -0.011719861
000080 53 a4 1e bc a4 e2 07 bd cf b4 0d bd bd 7b 1d bc
       -0.009682733 -0.033175126 -0.03459626 -0.009612021
000090 3c 51 b1 bd 78 f5 b8 3c 24 78 ea 3c f1 00 9b bc
       -0.08658072 0.022577986 0.02862174 -0.018921347
0000a0 66 38 ca bd 59 00 f9 bd e3 5c c9 bd 85 76 df bd
       -0.098740384 -0.121582694 -0.0983217 -0.10911278
0000b0 d7 27 2e bd 96 83 75 3b 18 50 65 bd 7e 1c 5e bd
       -0.042518463 0.0037462465 -0.055984586 -0.05422639
0000c0 43 16 39 bd 6d ac 82 bd 7a 2b 0a b9 92 06 00 be
       -0.045187246 -0.06380544 -0.00013176902 -0.12502506
0000d0 8a b4 f7 bd a6 42 11 bd 72 c6 82 bc ad d7 0e be
       -0.12094982 -0.03546395 -0.015963767 -0.13949461
0000e0 f5 48 a1 bd 72 a4 f5 bc 65 b9 5f bd c2 ec bf bd
       -0.078752436 -0.02998564 -0.054620165 -0.0937133
0000f0 4c 33 81 bd ed 89 98 bd 81 bb ab 3c 72 32 32 bc
       -0.06308612 -0.07448182 0.020963432 -0.010876285

weight f4 [64, 1024]
000000 ad 45 1a 3c 05 55 0b bd 22 51 9d ba 71 88 b0 3c
       0.009416026 -0.034016628 -0.0012002329 0.021549435
000010 b4 ca b3 3c 85 b0 a1 3b 6a e0 70 3a ae a2 db bc
       0.021947242 0.004934373 0.0009188714 -0.02681097
000020 ba ee fd 3c de 33 cb 3c 21 b1 ae 3b b6 62 dc 3c
       0.030997623 0.024805006 0.005331174 0.026902538
000030 ab 0c 9d bc f7 4a 14 bd e4 e8 93 bc 18 3c 0f bc
       -0.01917108 -0.036204305 -0.018055387 -0.008742355
000040 3b f4 be bc f5 2c 05 bd 87 a8 92 bc 71 66 ff 3c
       -0.023309818 -0.032513577 -0.017902626 0.031176778
000050 65 56 2a 3c aa 85 06 3c 37 be eb 3b c4 79 83 3c
       0.010396575 0.008210579 0.0071943062 0.016049273
000060 9e 3a 4b bb f2 7d 34 3c 33 48 e0 bc 4d de 02 bb
       -0.003101028 0.011016356 -0.027378177 -0.0019968927
000070 e6 bc 45 bd 5c 09 00 bd 85 ae 27 3d f8 94 3b 3d
       -0.04827585 -0.031258926 0.04093792 0.045796365
000080 3c fd a9 3c 3a 0b 93 bd 98 98 1a bb 29 ff 37 bc
       0.020750634 -0.07179876 -0.0023589488 -0.0112302685
000090 dc a9 8d bc 7a 38 b3 ba 47 b5 1d bd 75 7d 01 bc
       -0.01729291 -0.0013673448 -0.038502958 -0.007903446
0000a0 49 87 05 3d 6f 41 9d 3c df de 3b 3d b8 19 21 3d
       0.03259972 0.01919624 0.045866843 0.039331168
0000b0 f8 e9 eb bc 33 9a 6e bb ee 6c 7b 3c 9f b9 74 3d
       -0.028798088 -0.0036407828 0.015345795 0.059747335
0000c0 1e 9b 3a 3a 7f 8f ba 3c ed 26 89 3b e7 04 4e bd
       0.0007118451 0.022773502 0.0041855485 -0.050297644
0000d0 95 65 74 3d 93 45 b5 3c b7 04 d2 3b dd 05 82 3d
       0.05966719 0.022127902 0.0064092535 0.063487746
0000e0 84 82 d3 bb 69 69 47 3d 20 4f 63 3c 58 62 54 3d
       -0.0064547677 0.04868451 0.013873845 0.0518516
0000f0 fb 90 07 3d 18 a9 c7 ba 47 48 1b bc 9d c3 d7 ba
       0.03309725 -0.0015232889 -0.0094776815 -0.0016461496
000100 72 71 97 3b c0 ed d7 ba a3 3c 92 3b 70 73 21 3c
       0.004621678 -0.0016474053 0.004462795 0.009854183
000110 c2 51 09 3d 68 98 8d 3c d0 13 ad 3c cb 01 28 bd
       0.033525236 0.017284587 0.021127611 -0.041017335
000120 49 07 b4 bc 4b 69 c6 bc a9 1f 03 3b 26 d7 07 bb
       -0.02197613 -0.02422013 0.0020007885 -0.0020727604
000130 5c 75 4b 3d 49 54 0d bc 45 12 a6 3c f0 48 f7 bb
       0.04967247 -0.008626052 0.020272383 -0.0075465366
000140 7e 39 05 bc 87 77 05 3d 37 c3 2b 3d 7c 94 17 3b
       -0.008131383 0.032584693 0.04193422 0.0023129275
000150 85 e6 eb bc ee 2f df bb 5a 5b 77 bc bf 01 c3 3c
       -0.028796444 -0.0068111336 -0.0150974635 0.023804544
000160 04 9a 11 bb 9a 64 4e bb 05 ba 8d bb 9e f5 e4 bb
       -0.0022217045 -0.0031493069 -0.004325154 -0.0069872877
000170 06 2b 7f 3c 2a 84 b6 bc 1b 40 18 bc e8 f1 f7 bc
       0.015574222 -0.022279818 -0.009292628 -0.030266717
000180 a0 da 47 3d 2c 3a b7 bc 38 d8 ba bc e1 02 49 bc
       0.04879248 -0.022366606 -0.02280818 -0.012268753
000190 57 9d fe 3c cf 9c 3e 3a 47 4a 10 bd b5 78 8a bb
       0.031080885 0.0007271291 -0.035227086 -0.004225815
0001a0 da 91 10 bd 5c 33 8f bc f4 34 d9 3c 44 6c 33 bc
       -0.035295345 -0.017480545 0.026514508 -0.0109511055
0001b0 6f 69 30 3c 53 38 4a 3b ac bd 8d 3c 9f 61 d1 3c
       0.010767325 0.0030856326 0.017302357 0.025559245
0001c0 5e fe fc bc d2 a2 b2 3c 1f 35 7a bc 5f d8 3c 3c
       -0.03088301 0.021806154 -0.015271454 0.011526196
0001d0 c9 ea 1a 3d 47 76 1d bd 7c 8e 49 3b 7e ca ee 3b
       0.037821565 -0.038442876 0.0030755093 0.0072873225
0001e0 48 49 05 3d de 0a 05 bd 90 9e 2e 3c 41 92 d8 bb
       0.03254059 -0.032481067 0.010657921 -0.0066092317
0001f0 89 e0 89 bb f9 a9 50 3c d1 71 82 3c 1c 7b c5 3c
       -0.004207675 0.012735837 0.015923413 0.024106555
000200 38 bd 1e 3d af f7 89 3c 56 a9 d2 bc eb c3 46 3d
       0.03875467 0.016841738 -0.025715511 0.048526686
000210 78 9b 62 bc 9e 74 bf bc f0 6d be bc e9 62 f6 3c
       -0.013831012 -0.023371037 -0.023245782 0.03007646
000220 92 ff 25 3d e6 25 bb 3c e9 7b dc bc f9 97 36 3b
       0.040526934 0.02284522 -0.026914554 0.002786158
000230 4f b0 0d bd c8 7e c7 bc 06 f7 92 bc cb 4c f2 bb
       -0.03459197 -0.024352446 -0.017940056 -0.0073944083
000240 bd 8d ec bc 76 77 5c 3b 50 90 1a bd 1d 0a b2 3c
       -0.02887618 0.003364054 -0.037735283 0.021733338
000250 bb 44 f4 bc 02 71 8b bc 30 df 63 bc d4 09 d1 3b
       -0.02981793 -0.01702166 -0.0139081925 0.0063793454
000260 5f 0c f0 3b 59 2b f8 3c 52 38 bc 3c 64 b7 4a 3d
       0.0073256935 0.030294107 0.022976074 0.0494913
000270 eb ad 9b bc 10 02 0b bd 5a c4 1e 3d 1c f9 67 bb
       -0.019003829 -0.033937514 0.038761474 -0.0035396283
000280 89 57 02 3d c4 62 18 3a 4b 72 ca ba 29 e4 6a 3c
       0.03182176 0.0005813057 -0.0015445439 0.014336624
000290 20 2c 12 bd 57 e8 10 bd 46 69 70 bc 6e 83 4b bd
       -0.035686612 -0.035377827 -0.014673537 -0.049685888
0002a0 dd 53 ec 3c 95 29 de 3c 3b 44 cc 3c 3d ad 9e bc
       0.028848583 0.027119437 0.024934879 -0.019369716
0002b0 52 63 cf bb b9 6a 26 3c ea db 2a 3d f2 9f 3c 3c
       -0.0063289786 0.010157281 0.041713633 0.011512743
0002c0 1e 36 b8 3c 27 95 85 3c 38 d8 91 3c 0a a0 f0 bb
       0.022486743 0.016306473 0.017803296 -0.007343297
0002d0 a6 1a 85 bb ce 84 00 3d 29 96 c6 3c 20 32 bb bc
       -0.0040620146 0.031376652 0.024241524 -0.02285105
0002e0 22 c0 ca 3b f2 69 74 bd ee 6c ca bc 15 e6 1e 3c
       0.006187455 -0.05967135 -0.024710145 0.0096984105
0002f0 d1 8f a0 3c 7b 29 a8 bc f4 36 cc 36 5f 95 3b bd
       0.019599827 -0.020527592 6.086071e-06 -0.04579675
000300 cd 1e e5 3a c9 ba 70 3b cf 01 87 3d a0 e9 21 3d
       0.0017480493 0.0036732426 0.06592142 0.039529443
000310 c8 ce 5a 3c 1e 85 5a bd 07 02 55 bc 01 d3 c1 bc
       0.013354965 -0.053349607 -0.013000972 -0.023660185
000320 99 a0 36 bd 57 11 01 3d b9 68 0d 3d 71 e3 1c bc
       -0.04458675 0.031510677 0.0345237 -0.009575711
000330 64 e4 40 bc c2 12 7e bc c7 07 83 3b 53 04 26 3d
       -0.011773203 -0.015507402 0.00399873 0.040531468
000340 3d 2e 83 bc ea 59 c3 bc f5 24 43 3d 8a 26 c5 bb
       -0.016013259 -0.023846585 0.047642667 -0.006016557
000350 f6 83 4c 3d 5b 82 22 3d cb f6 9a 3c 5d 7b ef bb
       0.049930535 0.039675098 0.018916508 -0.007308407
000360 d8 09 08 3d bd e4 96 3b 7b d1 9e 3c 59 9a 27 bc
       0.033212513 0.0046049044 0.019386997 -0.01022967
000370 6a 1b 73 3b 55 02 bd bc 38 eb ec 3c c7 1d b3 bc
       0.0037095197 -0.023072401 0.028920755 -0.021864785
000380 84 fe d9 ba dc 58 f6 bc 78 5a 5e bd f3 6e 80 bd
       -0.0016631638 -0.030071668 -0.054285496 -0.06271162
000390 a6 20 e9 3c 78 71 20 3d b4 a9 9a 3c 34 14 f0 bb
       0.02845795 0.039170712 0.018879749 -0.007326627
0003a0 0a ec cc 3c 9c d2 ec bb bb 4e e7 3c dc 0b c7 bc
       0.025014896 -0.007227255 0.028235784 -0.024297647
0003b0 2b 32 4f bb d4 40 af bc 76 95 4c bc 27 7e 03 3b
       -0.0031615596 -0.021393217 -0.012486806 0.0020064206
0003c0 10 b6 27 3d f7 b2 e2 bc 56 fc e9 3a ea fb c7 39
       0.040945113 -0.027673228 0.0017851691 0.00038143928
0003d0 42 c2 25 bd 12 5d 9e bc 61 67 36 3c 7b 0d f9 3b
       -0.04046846 -0.019331489 0.011133046 0.007600484
0003e0 12 27 e9 bc 4e 83 26 bc dc 28 b6 39 f6 c1 08 3d
       -0.028461013 -0.010163141 0.00034744188 0.0333881
0003f0 9a e3 af 3c 65 8b 81 ba 1b 8a 02 bb 69 57 f7 bb
       0.021470834 -0.0009883462 -0.0019918743 -0.007548262

bias f4 [64]
000000 d2 47 0e bd 39 9a 73 bc 3b 84 0f 3b 48 04 51 bd
       -0.034736462 -0.0148683125 0.0021898884 -0.051029474
000010 68 c4 f1 bb 7d 17 2c bb 91 b0 98 3c 8d ed 8b 3b
       -0.00737815 -0.0026259117 0.01863888 0.0042702616
000020 4e 39 73 bc 98 a6 86 bc 83 6f e9 3b 78 3f 13 bd
       -0.0148452055 -0.01643686 0.007123889 -0.0359492
000030 e3 6c b7 3c 78 f7 88 bc 98 3b 05 ba bb 1c 97 3b
       0.022390788 -0.016719565 -0.00050824275 0.0046115792
000040 d9 f0 b9 3c a8 f8 b6 3c 9e 4b 87 3c 63 b8 2a 3c
       0.022697853 0.022335365 0.01651555 0.010419938
000050 d6 7d 01 3d ec 7a 7e bc 3e e7 64 3b fa a0 b3 bc
       0.031614147 -0.015532237 0.003492787 -0.021927346
000060 69 23 c2 bc ed 5c 04 bc 5c 45 2b 3d a8 6a f2 3b
       -0.023698526 -0.008078796 0.041814193 0.0073979683
000070 0a 6c 4e bd 98 58 6f ba 24 56 49 bd 93 1f 4c bd
       -0.050396003 -0.0009130328 -0.049154416 -0.0498348
000080 c1 fb 0b 3d 87 63 df 3c a6 6c 96 3d 7a 57 7d 3c
       0.034175638 0.027269138 0.07344942 0.015462751
000090 f2 27 47 3c 74 05 34 bd a1 a4 55 3c eb e1 7e bb
       0.01215552 -0.043950513 0.013039739 -0.0038891982
0000a0 ef a9 61 3b 26 b1 b9 3c fc 68 1c bd a6 66 77 bd
       0.0034433564 0.022667479 -0.03818606 -0.060400628
0000b0 10 fe 9f bc c4 27 30 3d 76 ae 6c bc a5 e4 96 3d
       -0.019530326 0.043006673 -0.014445892 0.07367829
0000c0 63 26 30 bc d0 72 e5 bb a3 ae f8 bc a7 77 7e bc
       -0.01075134 -0.007002212 -0.03035671 -0.015531457
0000d0 23 0b 99 bc 56 5d b1 39 2c 74 47 bd f9 fc 90 bc
       -0.018682068 0.00033829611 -0.048694775 -0.017698752
0000e0 e0 c8 26 3d f0 b5 8e bc 6e 99 1e bd 5a 19 41 bd
       0.040718913 -0.017420739 -0.03872054 -0.047143318
0000f0 ff fb 41 3b b8 55 08 3d fa c8 a5 3c a7 f8 15 3d
       0.0029599664 0.033284873 0.020237435 0.036614086

weight f4 [10, 64]
000000 f4 7a f3 bd 6c f5 7e 3e 78 6f 51 bd 08 92 8f bc
       -0.11888686 0.24898309 -0.051131696 -0.017525688
000010 74 1a 46 be 5e de 66 3e 5b 83 66 be a7 32 86 bc
       -0.19346029 0.22545764 -0.22511046 -0.016381575
000020 ab 21 ff bd f2 59 c0 3e c3 49 bc bd d3 db a4 3e
       -0.124575935 0.37568623 -0.091937564 0.32198963
000030 0e e9 35 be cd 6d 12 be 32 29 1d 3e b8 ac e6 bc
       -0.17764685 -0.14299698 0.15347746 -0.02815853
000040 8b a7 0a 3e 66 16 6b 3e f6 ce a5 3d 2d ba 24 be
       0.13540475 0.22957763 0.08096115 -0.16086645
000050 ff 83 2d 3e 8a aa c1 3d 95 1d 17 be 3c fb 44 3e
       0.16944884 0.09456356 -0.14757378 0.19236463
000060 b9 22 1c 3e f8 c0 d2 3c fb 32 43 be c3 34 32 3e
       0.1524762 0.02572678 -0.19062416 0.1740294
000070 c7 f9 0e bc 3c c8 37 3e b1 71 6d 3e f8 1f 24 3e
       -0.008726544 0.17947477 0.23187901 0.1602782
000080 bd 14 95 be 4d 3c 9e 3d 38 bc 68 be 47 2d 80 bd
       -0.29117385 0.07726345 -0.2272805 -0.06258636
000090 8f 07 e7 3c ec 9c 8e 3e 86 ed 32 3e c5 7e 51 3e
       0.028201846 0.27854097 0.1747342 0.20458515
0000a0 72 6c ac bd 53 d8 3e be ca b6 d4 bd 2f 10 36 3e
       -0.08419122 -0.18637209 -0.10386427 0.17779611
0000b0 90 28 b0 bd c7 69 ce bd 39 f0 69 be bf 8e 15 be
       -0.08601487 -0.10078769 -0.22845544 -0.14605235
0000c0 cd db fc bd 2c 3e 88 3e 4d 3b d9 bc 0c 47 4f 3e
       -0.12346611 0.26609933 -0.026517535 0.20241946
0000d0 0e f8 45 3e aa 03 28 3e c9 08 ae bc 2d d4 df 3c
       0.19332907 0.16407648 -0.021244423 0.027322853
0000e0 e3 35 37 3e f7 79 dd 3d c5 db a0 3d bb e3 f9 3d
       0.1789165 0.108142786 0.07854418 0.12201639
0000f0 99 1a 84 bd eb 33 bd 3c 57 89 cd bc 3f 91 7e bd
       -0.064503856 0.023096045 -0.025089903 -0.062150236
000100 3e 6d 2b 3e b4 3f 8e 3e e6 e6 14 bd a1 6a 5f 3e
       0.16740891 0.27782977 -0.036353014 0.2181802
000110 9b f7 20 3c 83 5f 94 be 1d bb f0 3b 3c 87 1f 3e
       0.009824659 -0.2897912 0.0073465244 0.15578932
000120 04 3a 7a 3e 24 85 e9 3d df ee 08 be 61 a2 9b bd
       0.24436194 0.11402348 -0.13372372 -0.07599331
000130 7e 41 27 3e 6b f8 2a 3e 9a ee 58 be af 2d 6a 3d
       0.16333577 0.16696326 -0.2118477 0.057172474
000140 07 ec 47 be c1 c7 b6 be 65 8d bb 3e 9d e7 7a 3e
       -0.19523631 -0.35699275 0.36631313 0.24502416
000150 03 59 80 be 1e 75 84 3e 15 eb 33 3e 1e 1f 90 3e
       -0.2506791 0.25870603 0.17570145 0.2814874
000160 4d 11 18 be 4e be 92 be 02 31 19 3e 85 32 ce 3d
       -0.1485035 -0.28660816 0.14960101 0.100682296
000170 1a 5e 51 be d1 11 a8 be 89 d6 9e 3e aa a7 90 bd
       -0.20446053 -0.32826093 0.31023052 -0.070632294
000180 e2 75 97 3e e7 49 43 3d f3 02 cc bd 89 f0 59 3d
       0.29582125 0.0476779 -0.099615 0.053207908
000190 d1 ab ab 3e 03 ab 72 be d9 02 d2 bc 25 71 bd 3d
       0.33529523 -0.23698048 -0.025636123 0.09250096
0001a0 31 da 07 be 03 27 c6 be 94 3f 94 3e 9c 6d 36 3e
       -0.13266827 -0.3870164 0.28954756 0.1781525
0001b0 43 39 c1 bd ae 82 84 3e 90 fa d6 3c 8b 65 24 be
       -0.0943475 0.2588095 0.026242524 -0.1605436
0001c0 88 ed 1c 3e bd c9 da 3d 18 9f 14 be b6 13 d5 bc
       0.15324986 0.1068301 -0.14513814 -0.026010375
0001d0 ce 41 0c 3e 3f 50 06 3e 16 3c a6 be 37 1a 72 3e
       0.13696977 0.13116549 -0.32467717 0.23642813
0001e0 21 0e e1 bc a2 ac 37 3d fc 70 0b 3e d7 11 b3 3c
       -0.027472558 0.04484237 0.13617319 0.021859093
0001f0 03 96 b8 3e 61 f8 ed 3d f7 70 ee 3d b2 12 7c 3e
       0.3605195 0.1161964 0.1164264 0.24616507
000200 2d 2d fa 3d ec c1 cf bd a5 f3 ac bd 4b d3 30 3e
       0.12215648 -0.101444095 -0.08444909 0.17268102
000210 a3 7e 88 3d a7 ed 85 3e 2a 0c 76 be d0 be 8e be
       0.06664779 0.26157877 -0.24028078 -0.27879953
000220 c7 13 2c 3e c6 5d 81 3e ef d0 94 bb 3d ef 05 3c
       0.1680442 0.25266856 -0.0045415084 0.008174715
000230 9d 95 d0 bd 46 7a 59 3e 9d a7 8d be 37 79 50 3d
       -0.101847865 0.2123805 -0.2766694 0.05089685
000240 63 f7 c7 bd 63 36 b2 3e 3c b5 78 be 30 8a 80 3d
       -0.09763982 0.3480712 -0.24287885 0.06276357
000250 c6 53 fb 3d b7 8d 91 bc 66 c2 79 bd aa 72 49 be
       0.12271838 -0.01776777 -0.06097641 -0.19672647
000260 94 98 06 be cb 1e 97 3e 16 d2 49 3b 7b bb 40 be
       -0.13144141 0.2951568 0.0030795387 -0.18821518
000270 3b 09 72 3d 46 f6 30 3c c2 cc 7e be e8 8d b0 bd
       0.059090834 0.010800904 -0.24882796 -0.086208165
000280 25 58 1f be 79 a0 8e 3d d6 e2 7d bd e8 b4 d8 bd
       -0.15560968 0.069642015 -0.061983906 -0.1058138
000290 56 88 4f be 3c b5 15 3e 39 ec d9 3c 27 26 26 3e
       -0.20266852 0.14619917 0.026601898 0.16225491
0002a0 53 b7 c5 3d 73 3d 48 3e 13 da 56 bd 7c 4a ad be
       0.09654107 0.19554691 -0.052454066 -0.3384589
0002b0 5e ac e0 bd f8 29 35 bd 02 d3 5d be fb a6 9c 3d
       -0.109703764 -0.044229478 -0.21662524 0.076490365
0002c0 e3 1c 28 bd ad 9e 30 3e 61 80 68 3e 1e 37 86 3e
       -0.041043174 0.1724803 0.22705223 0.26213926
0002d0 97 e7 67 bd 45 fb 7a 3e 1e 60 43 be 84 f7 4f be
       -0.056617346 0.24509914 -0.19079635 -0.20309263
0002e0 1c 1d 87 be a2 58 8e bb b6 cf a8 bd 66 b0 63 be
       -0.26389396 -0.004344062 -0.08242743 -0.2223526
0002f0 59 ab bb 3d 5a 31 59 3d 98 21 21 be a8 08 0d 3e
       0.09163541 0.05302558 -0.15735471 0.13772833
000300 85 2b 09 3e 13 7e 20 be 7d 18 4c 3d ad 28 23 bc
       0.13395508 -0.15673093 0.04982804 -0.009958428
000310 36 ed 1d be 18 69 91 be 62 ae 29 be f1 73 df bd
       -0.1542252 -0.28400493 -0.16570428 -0.10910786
000320 13 ab 40 3e 5e c4 44 be 0c 30 2f be 80 f8 85 3c
       0.1881526 -0.19215533 -0.17108172 0.016353846
000330 10 94 28 be 1e d9 8d bd cd 4b 26 be 74 ef 3c be
       -0.16462731 -0.069261774 -0.16239853 -0.18450719
000340 86 27 8d 3e 34 df 4f be d9 dc 1b be 8e f8 53 be
       0.27569216 -0.20299989 -0.15220965 -0.20700285
000350 9f 46 d9 bd a4 3e 0f be 5f 49 f7 bd 89 5d 53 be
       -0.10609173 -0.13988739 -0.12074541 -0.2064115
000360 e0 83 0f 3e f8 23 02 3e 29 46 2b bd a6 09 90 3c
       0.1401515 0.12709033 -0.041814957 0.017582726
000370 df d2 db 3b aa 8d bc 3d 86 b6 42 be d0 8d 26 be
       0.0067084874 0.09206708 -0.1901494 -0.16265035
000380 28 97 bb 3d cb e5 1c 3e 7c 98 47 be ba 57 8b bd
       0.0915969 0.15322034 -0.19491762 -0.06803842
000390 94 cd 3b 3e ae 44 c9 bd b8 39 15 bd 82 b3 eb 3d
       0.1834014 -0.09827553 -0.036431998 0.11508848
0003a0 53 a0 4b be 70 34 b8 bd b8 4d e6 3d 00 a3 87 bd
       -0.19885378 -0.08994377 0.112452924 -0.06622887
0003b0 fd 29 86 3d 50 84 ae 3d 60 84 5d bd ba 8a 05 3e
       0.065509774 0.0852133 -0.05408132 0.13041201
0003c0 b8 ec 12 be 8f 03 20 be e4 c3 57 be f0 d0 fe bc
       -0.14348114 -0.15626357 -0.2107082 -0.031105489
0003d0 b2 ad 12 be 6f b0 56 3d c3 24 85 3d 9a e8 8a be
       -0.14324072 0.052414354 0.06501152 -0.27130586
0003e0 56 f0 a4 bd 43 0a 13 be 0b 46 ef 3d 8e b1 4c 3e
       -0.08053653 -0.14359383 0.116832815 0.19989607
0003f0 bf 87 4f be 64 a8 c2 3d f2 94 e7 bd a7 58 a9 bd
       -0.20266627 0.09504774 -0.11307706 -0.08268862

bias f4 [10]
000000 42 a0 4a be db f6 72 bd d2 b6 6a bb 91 41 a8 bc
       -0.19787696 -0.05931745 -0.0035814536 -0.020539077
000010 fe c9 3d 3e 39 85 e9 bc af 0d 7a 3d 86 c6 47 bd
       0.18534085 -0.028505908 0.061048206 -0.04877331
000020 e1 82 c3 bc a4 1a 08 3c
       -0.023866119 0.008307133
