models/gpu_train_model12.pth (torch, 587335 bytes, 10 tensors)

weight f4 [32, 3, 5, 5]
0	0x3d89b4f2	0.06723966
1	0x3e3fd563	0.18733744
2	0x3d3c4036	0.045959674
3	0xbd235422	-0.039875157
4	0xbdf54500	-0.11976051
5	0x3be4062c	0.0069587436
6	0x3df25df7	0.118343286
7	0x3e1987b7	0.14993177
8	0xbdb7c2b4	-0.089726835
9	0xbd7ed8ec	-0.06221859
10	0x3d1ee371	0.038791124
11	0x3e03093e	0.12796494
12	0xba9fd16a	-0.0012193148
13	0xbd79d13d	-0.06099056
14	0xbcbea6f6	-0.023272973
15	0x3d57cfd9	0.052688453
16	0xbd8dd929	-0.06926186
17	0xbdae24f3	-0.08503141
18	0xbc6b4b76	-0.014361253
19	0x3e36942d	0.17829962
20	0xbdfd482a	-0.1236728
21	0xbdc88699	-0.097912975
22	0x3dc79bbd	0.097465016
23	0x3d94b25a	0.0726058
24	0x3e1caec1	0.15301038
25	0x3de84bab	0.113425575
26	0x3e07596b	0.13217704
27	0xbd890cb5	-0.06691877
28	0x3cadae06	0.021201145
29	0xbdc517e8	-0.096237004
30	0x3e0c8ea7	0.13726293
31	0x39a3248d	0.00031117015
32	0x3d06b2ae	0.032885246
33	0xbdff6a4d	-0.12471447
34	0xbc68e657	-0.014215074
35	0x3d2c0ab2	0.042002387
36	0x3d2da111	0.042389933
37	0x3cce6177	0.02519296
38	0xbd6c2ae1	-0.05765808
39	0xbd9a0f46	-0.075224444
40	0xbdb1acd5	-0.08675543
41	0xbe038e18	-0.12847173
42	0x3b855886	0.0040693907
43	0x3d400040	0.04687524
44	0x3e35c627	0.1775137
45	0xbda4996b	-0.08037075
46	0xbc288e0b	-0.010287772
47	0x3d5b2b35	0.053508002
48	0x3d0086d0	0.031378567
49	0x3dd5c0f7	0.10437196
50	0x3d97f601	0.074199684
51	0x3dd19ded	0.102352
52	0xbe15cd74	-0.14629155
53	0xbe403e47	-0.18773757
54	0xbdda40f5	-0.10656921
55	0xbd787059	-0.060654018
56	0x3c8afa18	0.016964957
57	0xbd20795c	-0.039178237
58	0xbe4b51ec	-0.1985547
59	0xbe2b0123	-0.16699652
60	0xbd900aec	-0.07033333
61	0xbc3765e8	-0.01119373
62	0xbd8a0c35	-0.067406096
63	0xbd3f487e	-0.046699993
64	0x3bf1b53c	0.007376341
65	0xbdc293ed	-0.09500871
66	0xbb94784a	-0.004530941
67	0xbe1a057e	-0.15041158
68	0x3da48aac	0.08034262
69	0x3d767fba	0.060180403
70	0xbe22184c	-0.15829581
71	0x3d406b65	0.04697742
72	0xbcd0a3fc	-0.025468819
73	0xbd8108d7	-0.06300514
74	0x3bc1d721	0.005915538
75	0x3dab0430	0.08350408
76	0xbd7318df	-0.05934989
77	0xbdec5258	-0.11539143
78	0xbc5a9d1e	-0.013343124
79	0xbd9f2cb0	-0.07772195
80	0xbe00005e	-0.1250014
81	0xbe2a22c0	-0.16614819
82	0xbe656854	-0.2240308
83	0x3cbafcb5	0.022825578
84	0x3e158e22	0.14605
85	0xbe470ba3	-0.19438033
86	0xbe0e8074	-0.13916188
87	0xbde2f755	-0.11082331
88	0x3e2a3618	0.16622198
89	0x3dc10058	0.09423894
90	0x3c0b0745	0.00848562
91	0xbe25ced2	-0.16192177
92	0x3d017578	0.031606168
93	0x3dad94b2	0.08475627
94	0x3df74e72	0.12075509
95	0x3d4d518e	0.050126605
96	0xbe3d507a	-0.1848773
97	0x3da80f23	0.08206012
98	0x3e07832e	0.13233635
99	0xbd0d6619	-0.034521196
100	0x3e092c85	0.13395889
101	0xbdef3c37	-0.11681407
102	0xbd580fdc	-0.0527495
103	0x3cf0a2e7	0.029374553
104	0x3e2965e2	0.16542771
105	0xbd9aa839	-0.07551617
106	0xbb6af27c	-0.0035850098
107	0xbe2b2b7f	-0.16715811
108	0x3e027118	0.12738454
109	0x3e2ab9dc	0.16672462
110	0xbdda69c4	-0.106647044
111	0x3d738d16	0.059460722
112	0xbd2df432	-0.04246921
113	0x3e0a9354	0.13532764
114	0x3debb523	0.115091585
115	0x3d574c07	0.05256274
116	0xbe0581c1	-0.13037778
117	0x3e332624	0.17495018
118	0x3e3a9a1c	0.1822285
119	0x3de4f9ac	0.11180434
120	0x3c900074	0.017578341
121	0x3c6f2c74	0.014598001
122	0x3e15eac6	0.1464034
123	0x3d705614	0.05867584
124	0x3d8141a5	0.06311349
125	0x3dd52c10	0.10408795
126	0xbd50e4ed	-0.05099957
127	0xbe4cd338	-0.20002449
128	0xbd5a0759	-0.053229664
129	0xbcebd69f	-0.028788863
130	0xbd2909f8	-0.041269273
131	0xbd3490b2	-0.044083305
132	0xbd813920	-0.06309724
133	0x3d846610	0.064647794
134	0x3d645a01	0.055749897
135	0xbe156891	-0.1459067
136	0x3cc329c8	0.023823634
137	0x3d9077a5	0.070540704
138	0x3dad9513	0.08475699
139	0xbcd0977a	-0.025462855
140	0xbe248ddc	-0.1606974
141	0xbdfe3ab1	-0.12413538
142	0x3d3e2ac9	0.04642752
143	0xbcc721fc	-0.024308197
144	0x3c5153bb	0.012776311
145	0xbe05fa96	-0.13083872
146	0xbca4d01b	-0.020118764
147	0xbb58fd43	-0.003310994
148	0x3e051559	0.12996425
149	0x3cd3cb21	0.025853695
150	0xbdaae806	-0.08345036
151	0x3e037833	0.12838821
152	0x3db1f175	0.086886324
153	0x3ce1c6ba	0.02756058
154	0x3d294e1b	0.041334253
155	0xbe13a70d	-0.14419194
156	0x3e357cf2	0.17723444
157	0x3e292ab5	0.16520198
158	0xbdb2e374	-0.087347895
159	0xbcaf6d0b	-0.0214143
160	0xbdc0862b	-0.094005905
161	0x3df61a09	0.120166846
162	0x3e2b58f2	0.16733149
163	0x3c594252	0.013260441
164	0x3e0a5014	0.1350711
165	0x3daf3802	0.085556045
166	0x3e37e82d	0.17959662
167	0x3a517070	0.0007989472
168	0x3d53e0ec	0.051728174
169	0x3e45d4f8	0.19319522
170	0x3dc1730b	0.09445771
171	0x3db809d7	0.08986252
172	0x3dea94f4	0.11454192
173	0x3bb2afb5	0.005453075
174	0x3e2011b9	0.1563176
175	0xbd25bdee	-0.040464334
176	0x3d013c21	0.031551484
177	0xbd415880	-0.04720354
178	0xbd8ffcd2	-0.070306435
179	0x3e01dc03	0.12681584
180	0xbd4b0c70	-0.04957241
181	0xbc5e3f78	-0.013564937
182	0xbcac4674	-0.021029688
183	0x3d8e6fdc	0.06954929
184	0x3d67d903	0.056603443
185	0xbe1168a5	-0.14200075
186	0xbbb9987c	-0.0056639295
187	0xbb8383e0	-0.0040135235
188	0xbe06a90b	-0.13150422
189	0x3d4df400	0.050281525
190	0xbdaa729d	-0.08322642
191	0xbd9ed8e0	-0.077562094
192	0xbde617c2	-0.11235
193	0xbbfefaa8	-0.0077813454
194	0x3e0af314	0.1356929
195	0xbb17628f	-0.0023099517
196	0x3b31af83	0.002711267
197	0x3d1d84fc	0.038456902
198	0x3d97779b	0.0739586
199	0xbc4f0b0c	-0.012636911
200	0xbd753f7a	-0.05987499
201	0xbda6c239	-0.08142514
202	0xbd40986f	-0.047020372
203	0x3d26cea4	0.04072441
204	0xbdfc352c	-0.12314829
205	0xbe4a161d	-0.19734998
206	0x3c26bb00	0.01017642
207	0xbdf96507	-0.121774726
208	0xbe1f37e9	-0.15548672
209	0x3c39913c	0.0113261305
210	0xbe7637c8	-0.24044716
211	0xbc99b097	-0.018760962
212	0xbd95b0c6	-0.073091075
213	0xbdd44822	-0.10365321
214	0x3d584ce8	0.05280772
215	0xbdb07cb9	-0.08617539
216	0xbd8ec823	-0.06971767
217	0xbdbb643a	-0.09149976
218	0xbc06eadc	-0.008234706
219	0xbba53bb1	-0.005042516
220	0xbe481232	-0.19538191
221	0x3ce79b66	0.028272342
222	0xbe1b5649	-0.15169634
223	0x3d585ebf	0.052824732
224	0x3c71c735	0.014756967
225	0x3db3998f	0.08769523
226	0xbd8819d4	-0.06645551
227	0xbd89ad76	-0.06722538
228	0xbdc5cf0e	-0.09658633
229	0x3dcec358	0.100958526
230	0xbd3648d6	-0.044503056
231	0x3db1d1dc	0.086826056
232	0xbd63f6c9	-0.055655275
233	0x3d038e33	0.032118034
234	0x3db772c3	0.08957436
235	0x3dbf5a9b	0.093434535
236	0xbcf94acc	-0.030431174
237	0x3dd180cc	0.10229644
238	0xbd34f804	-0.04418184
239	0x3dfffd5a	0.12499495
240	0xbde42f22	-0.11141802
241	0x3e023197	0.1271423
242	0x3d9ac011	0.07556165
243	0x3e375442	0.17903236
244	0x3db76262	0.08954312
245	0x3ca3a2e5	0.019975135
246	0xbd87426c	-0.06604466
247	0x3dc77638	0.09739345
248	0x3dc7c0c3	0.09753563
249	0xbd18b296	-0.037279688
250	0xbdbbea8e	-0.09175597
251	0xbe1b90f6	-0.15192017
252	0x3d564fd4	0.052322224
253	0xbd3de18d	-0.04635768
254	0x3d9617e8	0.073287785
255	0x3dcf1ce0	0.10112929

bias f4 [32]
0	0x3d8fe7c2	0.07026626
1	0x3d849d08	0.06475264
2	0x3c0e0ede	0.008670537
3	0xbe31caf7	-0.17362581
4	0xbd6028d2	-0.05472643
5	0x3e2156ab	0.15755717
6	0x3e2adc96	0.1668571
7	0x3e192496	0.14955363
8	0xbdadfe80	-0.08495808
9	0x3d220b09	0.039561305
10	0x3e482924	0.19546944
11	0xbe9099c1	-0.28242305
12	0xbe936a2e	-0.28791946
13	0x3ddd01e3	0.107913755
14	0xbdfab173	-0.12240877
15	0xbe8f840a	-0.28030425
16	0xbe47f1e4	-0.19525868
17	0x3d3c6f59	0.046004627
18	0x3e657ef9	0.22411717
19	0xbe19b291	-0.15009524
20	0xbddc915f	-0.10769915
21	0xbeae2486	-0.3401224
22	0xbcd5e2f1	-0.02610919
23	0xbdbfdbca	-0.09368093
24	0xbd631c0a	-0.055446662
25	0x3cd12367	0.025529576
26	0xbc845c86	-0.0161574
27	0xbdf6fad3	-0.1205956
28	0xbd9aa72a	-0.07551415
29	0xbd370fec	-0.04469292
30	0x3d6a322c	0.057176754
31	0x3dd31207	0.10306173

weight f4 [32, 32, 5, 5]
0	0xbc8dc10b	-0.017303964
1	0x3cb4168c	0.021983407
2	0x3c585f58	0.0132063255
3	0xbb94866d	-0.0045326264
4	0x3cffd62b	0.031230053
5	0xba4425bd	-0.000748243
6	0xbbc727a1	-0.006077722
7	0x3d2488aa	0.040169396
8	0x3c9ca6a3	0.019122427
9	0x3d5ecb16	0.054392897
10	0x3b263884	0.0025363276
11	0x3d0ed380	0.03486967
12	0x3d6839bc	0.056695685
13	0x3ca6a08e	0.02034023
14	0xbae75891	-0.0017650296
15	0x3c1dbceb	0.009627561
16	0x3d63dfe8	0.055633456
17	0x3d67de50	0.056608498
18	0x3d37fd20	0.044919133
19	0x3c87e85b	0.016590288
20	0x3c8e0a39	0.017338859
21	0x3cdb38f6	0.02676056
22	0x3ca09bfa	0.019605625
23	0x3c89f22d	0.016839111
24	0x3cd8976d	0.026439393
25	0xba549888	-0.0008109887
26	0xbcd773bf	-0.02630031
27	0xbb8a9d45	-0.004230174
28	0x3cf6a726	0.030109
29	0x3d360972	0.0444426
30	0x3c78503c	0.015155848
31	0x3b4a8614	0.003090267
32	0xbc88b245	-0.016686568
33	0x3b684312	0.0035440368
34	0x3d6a9cc2	0.057278402
35	0xbaa28027	-0.0012397812
36	0xbc63b3db	-0.013897861
37	0x3c8a81ea	0.016907651
38	0x3d6c5df4	0.05770679
39	0x3d6cc59e	0.05780565
40	0xbd7a581b	-0.06111918
41	0xbd1dff2b	-0.038573425
42	0x3c9020aa	0.0175937
43	0xbba0af2a	-0.0049036937
44	0x3c037717	0.008023999
45	0xbcb1d9c7	-0.02171029
46	0xbd00a462	-0.031406768
47	0x3d038230	0.03210658
48	0x3cb82ede	0.022483286
49	0x3cded5cc	0.027201556
50	0x3cbba0e6	0.02290387
51	0xbc89b076	-0.016807776
52	0xbcb32108	-0.021866336
53	0x3b9537bb	0.0045537627
54	0xbcaa5d60	-0.020796478
55	0x3cc1fdd3	0.023680603
56	0xbd631836	-0.05544301
57	0x3c1487d2	0.009065585
58	0x3d0dfdbd	0.03466581
59	0xbc0830c9	-0.008312413
60	0xbd59561e	-0.053060643
61	0xbc9fab53	-0.019490873
62	0xbd110ba6	-0.0354115
63	0xbc549084	-0.012973908
64	0xbc8a434d	-0.016877795
65	0xbcd8b3f2	-0.026452992
66	0xbd46ca25	-0.048532624
67	0xbd0562ff	-0.032565113
68	0x3cf1f811	0.029537233
69	0xbcd434fb	-0.02590417
70	0xbcea3aad	-0.028592432
71	0x3a0515b0	0.0005076779
72	0xba19459b	-0.0005846859
73	0xbcb622c0	-0.022233367
74	0x3c8d25e4	0.017229982
75	0xbd03fc94	-0.0322233
76	0x3c854a37	0.01627074
77	0x3c95f2a4	0.018304177
78	0x3c8e146d	0.017343724
79	0xb9a5af34	-0.0003160179
80	0x3b950aeb	0.0045484207
81	0x3c104ded	0.008807641
82	0xbc35f7cb	-0.011106442
83	0xbc2560a7	-0.0100938445
84	0xbc8f996a	-0.017529208
85	0xbd21a4aa	-0.039463677
86	0xbbee9be6	-0.007281768
87	0xbbb8388d	-0.0056219758
88	0x3cd2d1a2	0.025734726
89	0x3ccf5644	0.02530969
90	0xbcca6878	-0.024708018
91	0xbce72739	-0.028216945
92	0xbd37885e	-0.044807784
93	0xbc047179	-0.008083695
94	0xbc4eb97f	-0.012617468
95	0xbcb6c21b	-0.022309354
96	0xbb9ece4c	-0.00484637
97	0x3c51c9c9	0.012804457
98	0x3cd5b525	0.026087353
99	0x3cba28ab	0.02272447
100	0x3ce7ce6a	0.028296668
101	0x3d2b31cc	0.041795537
102	0xbc888855	-0.01666657
103	0x3cdc5e8e	0.026900556
104	0xbc8ef458	-0.017450497
105	0x3c3b1dde	0.011420695
106	0x3d0fb530	0.035084903
107	0x3d306fb8	0.043075293
108	0x3bfa70d9	0.007642847
109	0x3c3d4bd3	0.011553722
110	0xbb800415	-0.0039067366
111	0x3d54624d	0.05185156
112	0x3c4186f2	0.011811959
113	0xbb54e173	-0.003248301
114	0x3cbfad2c	0.023398004
115	0x3c79f387	0.015255815
116	0x3c9ff26b	0.019524774
117	0xbc502911	-0.0127051035
118	0xbd303b8b	-0.043025535
119	0xbc7854c6	-0.01515693
120	0xbcb0bf74	-0.021575667
121	0x3a848bf2	0.0010112508
122	0xbc84ff2a	-0.016234953
123	0xbd36792b	-0.04454915
124	0xbc445059	-0.011982047
125	0x3d5aabe0	0.05338657
126	0xbc268967	-0.010164595
127	0x3cbb2681	0.022845509
128	0x3b703c0f	0.0036656891
129	0x3c9ae6e3	0.018908923
130	0x3d2df931	0.042473976
131	0x3c9c757d	0.019098992
132	0x3cb9b5dc	0.022669725
133	0x3cbe9bd7	0.02326767
134	0x3c3d85a6	0.011567509
135	0x3d0b6fe3	0.03404225
136	0x3c4e4c33	0.0125914095
137	0x3d16e0e3	0.036835562
138	0x3ac5225d	0.0015040148
139	0xbc32824c	-0.010895323
140	0x3d550207	0.052003887
141	0x3bf0aeb3	0.0073450445
142	0x3c4507e8	0.012025811
143	0xbcb1b5af	-0.021693079
144	0x3c88c587	0.01669575
145	0x3d1b253d	0.03787731
146	0x3cd58580	0.026064634
147	0x3c9b28ae	0.018940296
148	0xbafb72aa	-0.0019183953
149	0xbac3bf26	-0.0014934286
150	0xbc690274	-0.014221776
151	0x3cbbe636	0.022936922
152	0x3ce4d43c	0.027933232
153	0x3d83cd7b	0.06435677
154	0x3ba64b48	0.005074892
155	0xbc93f11d	-0.018059308
156	0x3d3737a6	0.044730805
157	0x3d48a894	0.048988894
158	0x3d86f6f8	0.06590074
159	0x3d387c86	0.04504063
160	0xbcbee62c	-0.023303114
161	0x3d729624	0.059225217
162	0x3cf9e7a1	0.030505957
163	0x3d02121f	0.031755563
164	0x3d7f35b6	0.062307082
165	0xbc3031c1	-0.01075405
166	0x3d03c802	0.032173164
167	0x3cefe5bd	0.029284352
168	0x3d8603ba	0.065436795
169	0x3d2f7bea	0.042842783
170	0x3c830fd5	0.01599876
171	0xbcdf3a82	-0.027249578
172	0x3c543420	0.012951881
173	0xbd0254e5	-0.031819243
174	0xbbcb91ad	-0.0062124343
175	0x3b515441	0.0031941088
176	0x3cb5cda5	0.022192786
177	0x3bd26232	0.006420397
178	0x3d099ccf	0.03359681
179	0x3d00a570	0.031407773
180	0x3d230940	0.039803743
181	0x3ca9ef12	0.02074388
182	0x3d63a3a0	0.055575967
183	0x3d527289	0.05137876
184	0x3cf28347	0.029603614
185	0xbacf2625	-0.0015804215
186	0x3ce9a8ba	0.028522838
187	0x3d0c0a6b	0.034189623
188	0xbc184818	-0.009294532
189	0x3c0d764f	0.008634164
190	0x3d1f6ac4	0.03892018
191	0xbb6dcba0	-0.00362847
192	0xba9ee44e	-0.0012122483
193	0xbc8686d0	-0.016421705
194	0xbc9a22ff	-0.018815516
195	0xbc2b3b2e	-0.010451121
196	0x3b997d64	0.004684137
197	0xbd4e9e28	-0.0504438
198	0xbd0446cf	-0.03229409
199	0xbd31c5c7	-0.043401506
200	0x3af1a059	0.0018434628
201	0xbc3a226a	-0.011360744
202	0x3bf60504	0.007507922
203	0xbba7ac27	-0.0051169577
204	0x3c89f59d	0.01684075
205	0xbcb2f563	-0.021845525
206	0xbc738cb4	-0.014865089
207	0xbc70a9f2	-0.014688956
208	0x3cd88992	0.026432786
209	0xbc1e6d56	-0.009669622
210	0x3cd38462	0.025819961
211	0x3c8a28a0	0.016865075
212	0x3b75fb6c	0.0037533892
213	0xbca2212d	-0.01979121
214	0x3d134d28	0.035962254
215	0xbbabd71f	-0.0052441503
216	0x3d0eae89	0.03483442
217	0x3cbe015d	0.02319401
218	0x3c73b905	0.014875655
219	0x3bb17037	0.0054149884
220	0xbc15930e	-0.009129299
221	0xbd19cb7a	-0.037547566
222	0x3bcce9e4	0.006253468
223	0xbbaf2c77	-0.005345877
224	0xbd2752f8	-0.04085061
225	0x3cc0e909	0.02354862
226	0xbcbdb069	-0.023155408
227	0xbc611572	-0.013738023
228	0xbcc4c545	-0.024019847
229	0xbcafc4ff	-0.02145624
230	0x3acf202f	0.0015802438
231	0xbd2a9e83	-0.041655075
232	0xbc8fdb9a	-0.017560769
233	0xbd1ff127	-0.03904834
234	0xbca08a31	-0.019597145
235	0x3a1f5082	0.0006077365
236	0xbd53828c	-0.05163817
237	0xbd51469f	-0.05109274
238	0x3c2e26b4	0.010629345
239	0xbc89fa19	-0.016842889
240	0x3c6f69a7	0.014612592
241	0xbcf926d4	-0.030414023
242	0xbc96e18e	-0.0184181
243	0x3c7858dc	0.0151579045
244	0xbbe82610	-0.0070846155
245	0xbcf4ae45	-0.029868254
246	0xbd451d9d	-0.048123945
247	0xbc73de8a	-0.0148846
248	0x3c9d5536	0.01920567
249	0xbd00f935	-0.031487662
250	0x3d1dc7ac	0.0385205
251	0x3bf9b9cc	0.0076210257
252	0xb940c902	-0.00018385428
253	0xbc11b843	-0.008894029
254	0x3d3f6c6e	0.046734266
255	0x3b71dc21	0.0036904889

bias f4 [32]
0	0x3cc87164	0.024468131
1	0xbdf8e4f3	-0.121530436
2	0x3cca1928	0.024670199
3	0xbc8f486d	-0.01749059
4	0xbd761fd0	-0.060088933
5	0x3d25691b	0.04038344
6	0xbc98b0ba	-0.018638957
7	0xbdc0301d	-0.09384177
8	0x3b568d8e	0.0032738182
9	0xbd9bd966	-0.07609825
10	0xbd94c728	-0.072645485
11	0x3d85685d	0.06514046
12	0xbd721746	-0.059104227
13	0xbc9f77db	-0.019466331
14	0xbdd513c8	-0.104041636
15	0xbdb2de7d	-0.087338425
16	0xbd058285	-0.032595176
17	0xbdadae8b	-0.08480557
18	0xbd262f5b	-0.040572505
19	0xbddd59f1	-0.108081706
20	0x3d2b52b4	0.04182692
21	0xbddbc482	-0.1073084
22	0xbccbac29	-0.024862366
23	0x39ef4f8d	0.00045644902
24	0x3c9035db	0.017603805
25	0x3d527099	0.051376913
26	0xbdedabdd	-0.11605046
27	0xbe176ff2	-0.14788797
28	0x3d23b656	0.03996881
29	0xbd971115	-0.07376305
30	0xbd318859	-0.043342922
31	0xbdd1e675	-0.10249034

weight f4 [64, 32, 5, 5]
0	0xbcb06dbd	-0.021536702
1	0xbd47ddc6	-0.048795484
2	0xbd1f1e8f	-0.038847502
3	0xbd338739	-0.04383013
4	0xbbcb7bc7	-0.006209824
5	0x3d348397	0.044070806
6	0xba4c7d29	-0.0007800633
7	0xbc21e004	-0.00988007
8	0xbc954c79	-0.018224942
9	0xbc41aa5d	-0.011820403
10	0xbccf5359	-0.025308298
11	0x3cad4600	0.021151543
12	0xbccfae1a	-0.025351573
13	0xbb4ff637	-0.003173245
14	0x3b1287ec	0.0022358848
15	0x3ccb9550	0.024851471
16	0xbcc0bdb7	-0.023527963
17	0x3c46c509	0.012131938
18	0x3bf57bdb	0.0074915714
19	0x3d7e80b6	0.062134467
20	0x3bf16858	0.007367175
21	0x3d00ad13	0.031415056
22	0xba30e4b1	-0.0006747945
23	0xbccd9b4b	-0.025098464
24	0x3ce5e3f2	0.028062794
25	0x3d93a01b	0.07208272
26	0x3cc7ed46	0.024405133
27	0xbd473f8e	-0.048644595
28	0xbc8a0497	-0.016847892
29	0xbd07403f	-0.033020254
30	0x3d3644d7	0.044499245
31	0xbba58682	-0.005051435
32	0x3b8863c5	0.004162284
33	0xbc923e77	-0.017852051
34	0xbc25dc9e	-0.0101234
35	0xbc0b9405	-0.008519177
36	0x3c99144d	0.018686438
37	0x3cd0b78a	0.025478143
38	0x3d4be526	0.04977908
39	0x3d0a5d38	0.033780307
40	0xbc330a3d	-0.010927734
41	0xbaa401ae	-0.0012512708
42	0xbb928949	-0.004471932
43	0xbc627f92	-0.01382436
44	0xbcf7170c	-0.030162357
45	0x3b577b43	0.0032879866
46	0x3ca2e776	0.01988576
47	0x3d3771dc	0.04478632
48	0xbc3d0892	-0.011537688
49	0x3bb9d0a3	0.0056706234
50	0x3cd92eeb	0.02651163
51	0xbc809a97	-0.015698714
52	0xbd0b7a7a	-0.03405235
53	0xbd3ec11f	-0.046570893
54	0x3c80c9ef	0.01572129
55	0x3d00dc22	0.031459935
56	0x3c60dae5	0.0137240635
57	0x3d0c18ff	0.034203526
58	0xbb987bd1	-0.004653432
59	0xbd1b4a8b	-0.037912887
60	0x3caa75e5	0.02080817
61	0x3cac2e1c	0.02101808
62	0xbbb47a0d	-0.0055077136
63	0x3d07e804	0.03318025
64	0x3ce4148d	0.02784183
65	0xbca67a1f	-0.020321904
66	0x3a0d2cca	0.0005385397
67	0x3bc878d6	0.0061179204
68	0xbca4de74	-0.020125605
69	0x3c039e51	0.008033351
70	0xbd0cfec1	-0.03442264
71	0x3bf640a0	0.007515028
72	0x3cf10b37	0.029424293
73	0xbcd93c95	-0.026518146
74	0xbc93a2b6	-0.018021923
75	0xbc642230	-0.013924167
76	0x3c6dfeaf	0.014526053
77	0x3adeff79	0.0017013393
78	0x3c357eea	0.011077622
79	0x3d089af4	0.0333509
80	0x3ca65353	0.020303404
81	0xbb025d1f	-0.001989193
82	0x3c6d14fb	0.014470334
83	0xbc542d33	-0.012950229
84	0xbcc70370	-0.024293631
85	0x3c0c801b	0.008575465
86	0xbb238ef6	-0.0024957038
87	0xbd03ab0c	-0.032145545
88	0xbbf34d15	-0.0074249604
89	0xbc8165f7	-0.015795691
90	0x3d07b93c	0.033135638
91	0x3cd60042	0.02612317
92	0x3cd22753	0.025653517
93	0x3b58b059	0.0033064096
94	0x3abf65f0	0.0014602523
95	0xbd166a2e	-0.036722355
96	0xbd175877	-0.0369496
97	0x3b330453	0.002731581
98	0xbd1019f2	-0.035180993
99	0x39995b79	0.00029250587
100	0xbb8bf1d9	-0.004270774
101	0xbb2d4596	-0.0026439182
102	0xbc503fa1	-0.012710483
103	0xbce205b3	-0.027590608
104	0xbd12b01e	-0.03581249
105	0x3d31abcf	0.04337674
106	0xbbdcda0c	-0.0067398604
107	0x3c2a44fd	0.010392425
108	0x3c6a6588	0.0143064335
109	0x3b3e5ed8	0.002904823
110	0x3c9a2fc3	0.018821603
111	0x3c9eda9c	0.01939135
112	0xbc86fe0a	-0.016478557
113	0x3c310a5b	0.010805692
114	0xbcd712bc	-0.02625405
115	0xbd04a8a2	-0.032387383
116	0xbbbd14a6	-0.0057702838
117	0x3ae5ca9b	0.0017531695
118	0x3d112a26	0.035440587
119	0xbc966a3a	-0.0183612
120	0x3bb1daa2	0.0054276744
121	0xbabbc6fd	-0.0014326271
122	0xbaeb74ce	-0.0017963888
123	0x3b80428c	0.003914183
124	0x3c0eb6fc	0.008710619
125	0xbba96769	-0.005169798
126	0x3b89aba4	0.0042013694
127	0xbd432b6c	-0.047648832
128	0xbd591fae	-0.053008728
129	0x3b860cdc	0.0040908884
130	0x3a9783c9	0.0011559661
131	0xbc117d4b	-0.00887997
132	0xbd05b6ea	-0.032645144
133	0x3b1d717a	0.0024023936
134	0xbd686027	-0.056732323
135	0xbcff77c7	-0.031185044
136	0x3b91cd1d	0.0044495002
137	0xbc4e2fe9	-0.012584665
138	0x3ca59b96	0.02021579
139	0x3c8630a5	0.016380617
140	0xbd041001	-0.032241825
141	0xbd16874b	-0.03675012
142	0x3c97fcc0	0.018553138
143	0xbbb7c21c	-0.0056078564
144	0xbc9585b5	-0.018252233
145	0xbd160eb6	-0.036635123
146	0x3d19c652	0.03754265
147	0x3c9f5ab3	0.019452428
148	0x3d29dcc2	0.041470297
149	0x3d0d9dbb	0.03457425
150	0x3d03bdf3	0.03216357
151	0x3ad54c1a	0.001627329
152	0x3ce88207	0.028382314
153	0x3c30c573	0.010789263
154	0x3c42af15	0.011882563
155	0xbb00c0cb	-0.0019646164
156	0xbd11a73a	-0.03555987
157	0x3d49cc3b	0.049267035
158	0x3d4745d3	0.048650574
159	0xbc964c12	-0.01834682
160	0xbc8498bc	-0.01618611
161	0x3ca4647b	0.020067444
162	0x3d3058a3	0.04305328
163	0x3c1c8916	0.009554168
164	0xbb64faad	-0.0034939453
165	0xbd16d6cb	-0.036825936
166	0xbced4761	-0.0289647
167	0xbcdad9a3	-0.026715105
168	0xbcdaf3af	-0.026727526
169	0x3d609fed	0.054840017
170	0xba0012da	-0.00048856216
171	0xba53c78a	-0.0008078745
172	0x3b518958	0.0031972732
173	0xbc0aa9d9	-0.008463346
174	0x3ba84db7	0.0051362175
175	0xbcaf1880	-0.021373987
176	0x3c751500	0.01495862
177	0xbbdf2de5	-0.006810891
178	0xbc0df950	-0.008665398
179	0xbccab5e6	-0.024744939
180	0xbcc95685	-0.024577389
181	0xbca9caba	-0.02072655
182	0xbc8e72e9	-0.017388778
183	0xbc525e75	-0.012839903
184	0xbb0bc6cd	-0.0021328211
185	0x3c717608	0.0147376135
186	0xbc1d3781	-0.009595753
187	0xbd0f82e0	-0.03503692
188	0x3cd289d1	0.025700482
189	0xbc4f1877	-0.01264011
190	0x3c640b27	0.013918675
191	0x3d191f0b	0.03738312
192	0x3b46f5ef	0.003035899
193	0xbcaf96cd	-0.021434212
194	0x3cc1b417	0.023645444
195	0xbcbb2e82	-0.022849325
196	0xbcfe9544	-0.031077035
197	0xbae31754	-0.0017325678
198	0xbcd5b597	-0.026087565
199	0x3c9f114f	0.019417433
200	0x3c2a4e2e	0.010394616
201	0xbbaf9ddc	-0.0053593945
202	0x3bfc21a3	0.0076944395
203	0xbc26938b	-0.010167013
204	0xbd030d07	-0.031994846
205	0x3bf4cc0d	0.007470614
206	0x3b34f221	0.002761014
207	0xbc5b8e1c	-0.013400581
208	0x3b37ca0d	0.0028044016
209	0xbcb3136f	-0.021859853
210	0x3cb1030e	0.021607902
211	0xbc5fa694	-0.013650555
212	0xbc9e28a0	-0.01930648
213	0xbd07eda5	-0.03318562
214	0x3c974423	0.018465107
215	0xbcdab954	-0.0266997
216	0x3bf53c93	0.0074840277
217	0x3c1b44c6	0.009476846
218	0xbcccb3ea	-0.024988133
219	0xbce94c60	-0.028478801
220	0xbcbbe696	-0.0229371
221	0xbd09baf8	-0.033625573
222	0x3cb9e8d6	0.022694033
223	0x3cd219a5	0.025646994
224	0x3c7ab612	0.015302198
225	0x3b88e807	0.0041780504
226	0xbcce276b	-0.02516528
227	0xbc327e27	-0.010894335
228	0xbce78075	-0.028259495
229	0xbcaaa04f	-0.020828394
230	0xbcc31a1b	-0.023816159
231	0xba6d903e	-0.0009062326
232	0xbc073cc8	-0.0082542375
233	0xbcd1f728	-0.025630549
234	0xbc4719cd	-0.0121521475
235	0xbbb7bb72	-0.005607062
236	0xbcceaf6b	-0.02523013
237	0x3ba45f94	0.0050162766
238	0x3bf33fbc	0.007423369
239	0xbc711187	-0.0147136515
240	0xbb42f90c	-0.0029750494
241	0xbcd8a88b	-0.026447555
242	0xbd0cc95b	-0.034371715
243	0xbcd045fc	-0.025423996
244	0x3bd2188e	0.0064116186
245	0xbd0f1c65	-0.03493919
246	0xbc56c2ad	-0.013107938
247	0x3bb9c018	0.0056686513
248	0x3bf0b030	0.007345222
249	0x3cd1542d	0.025552833
250	0xbc9224da	-0.017839838
251	0xbd1cbfe9	-0.038268957
252	0xbc95cb6d	-0.018285478
253	0xbd1f9e10	-0.0389691
254	0x3c542e66	0.012950515
255	0xbc015514	-0.007893819

bias f4 [64]
0	0xbd0b0f4c	-0.033950135
1	0xbcf473b3	-0.029840326
2	0xbd30b0a9	-0.043137226
3	0xbd57dca7	-0.052700665
4	0xbd05bd56	-0.032651268
5	0x3c6d09d9	0.01446768
6	0xbd696f11	-0.056990687
7	0xbd70af14	-0.058760718
8	0x3d098e82	0.03358317
9	0xbd1f9677	-0.038961854
10	0xbd086108	-0.03329566
11	0xbd2dd091	-0.042435233
12	0xba688e47	-0.00088712986
13	0xbc5458f9	-0.012960666
14	0xbb6eacef	-0.0036418994
15	0xbc1581bd	-0.00912517
16	0xbd1a16a6	-0.037619255
17	0xbc7bd742	-0.015371146
18	0xbd8dbe8a	-0.06921108
19	0xbd846877	-0.064652376
20	0xbcc6894e	-0.024235394
21	0xbda5d7af	-0.08097779
22	0x3b2c429d	0.0026284822
23	0xbd062d1f	-0.032757875
24	0xbd35a72c	-0.04434888
25	0xbdaf8a51	-0.08571304
26	0xbc1ebf9f	-0.009689241
27	0xbd4b7c3a	-0.04967902
28	0xbccac018	-0.0247498
29	0xbd1670cd	-0.03672867
30	0xbd060457	-0.032718983
31	0x3c23bc23	0.009993586
32	0x3acf7ff1	0.0015830976
33	0xbc07d3ed	-0.008290273
34	0xbc11c05a	-0.008895958
35	0x3b55d3f7	0.0032627562
36	0xbd2b8288	-0.04187253
37	0x3c4c6f0d	0.012477648
38	0x3d277948	0.040887147
39	0x3c98bf5a	0.018645931
40	0xbd9177b8	-0.07102913
41	0xbd91489e	-0.07093929
42	0xbd461cd7	-0.048367348
43	0xbd6d3a3f	-0.057916876
44	0x3ba67605	0.005079987
45	0x3cfafe46	0.030638825
46	0x3b667d84	0.0035170028
47	0xbd14f052	-0.036362
48	0xbccdceb2	-0.025122974
49	0xbc80b60c	-0.015711807
50	0x3c9a3e94	0.018828668
51	0xbd93abad	-0.07210479
52	0xbd93ce5d	-0.07217095
53	0xbc1b9de7	-0.009498096
54	0x3c65131f	0.01398161
55	0xbdb3ceef	-0.08779704
56	0xbd35d766	-0.044394873
57	0x3cfcd756	0.030864399
58	0xbc9d8d0e	-0.0192323
59	0xbd617ff6	-0.055053674
60	0xbd0bdbd9	-0.03414521
61	0xbcfe2bcc	-0.031026743
62	0x3d1cad29	0.038251076
63	0x3c094698	0.008378647

weight f4 [64, 1024]
0	0xbb4ba2a2	-0.0031072279
1	0xbcddb479	-0.027063595
2	0x3b9b7328	0.0047439523
3	0x3cc6897e	0.024235483
4	0x3ca1c13c	0.019745462
5	0xb940154b	-0.00018318479
6	0x3ba03a05	0.004889729
7	0xbc6b290e	-0.01435305
8	0x3d053f29	0.032530937
9	0x3c68bc24	0.0142050125
10	0x3ca1323c	0.019677274
11	0x3cc67ee7	0.024230434
12	0xbce65977	-0.028118832
13	0xbcb6f676	-0.022334319
14	0xbbe62abc	-0.0070241373
15	0x3b4335ac	0.002978663
16	0xbd0dec08	-0.034648925
17	0xbc8d8c6f	-0.017278878
18	0xbc668894	-0.014070649
19	0x3cf34f91	0.029701026
20	0xb8a99279	-8.0858306e-05
21	0x3b3519c1	0.0027633759
22	0x3c623bf6	0.013808241
23	0x3c9b0865	0.018924901
24	0x3c34ebb4	0.011042524
25	0x3cd1b8cf	0.025600819
26	0xbcbfd70c	-0.023417972
27	0xbc8595bd	-0.016306752
28	0xbcecebc9	-0.028921025
29	0xbc617326	-0.013760364
30	0x3d1c29f4	0.038125947
31	0x3d2adac4	0.041712537
32	0x3c320242	0.010864796
33	0xbd63b84b	-0.055595677
34	0xbbde9906	-0.006793144
35	0xbba01505	-0.004885318
36	0xbca0c19d	-0.019623572
37	0x39a6743b	0.00031748586
38	0xbcf43f04	-0.029815204
39	0xbc928662	-0.017886344
40	0x3cb6165a	0.022227455
41	0x3cf8dc2e	0.030378427
42	0x3d25b641	0.040457014
43	0x3d278eb4	0.040907577
44	0xbcb4ec88	-0.022085443
45	0xbb10f737	-0.0022120008
46	0x3b4d8253	0.0031358197
47	0x3d465d15	0.048428614
48	0xbc7994e9	-0.015233257
49	0x3bb964e4	0.005657779
50	0x3c166885	0.009180193
51	0xbd115198	-0.035478204
52	0x3d35edf0	0.044416368
53	0x3d08c369	0.033389483
54	0x3cc4803d	0.02398693
55	0x3d1fd88e	0.039024882
56	0xbc588164	-0.013214443
57	0x3d6a345b	0.057178836
58	0x3c8553cc	0.016275309
59	0x3cb3f397	0.021966739
60	0x3ca78e88	0.020453706
61	0xb9171bd6	-0.00014410852
62	0xbca4658e	-0.020067956
63	0x3afb07b0	0.0019152071
64	0xbb9336d4	-0.00449262
65	0xbc9000fc	-0.017578594
66	0x3c8e866a	0.017398078
67	0x3bd6fe1c	0.006561054
68	0x3d2ba0ab	0.04190127
69	0xbaa8b36c	-0.0012870855
70	0x3c9ced76	0.019156199
71	0xbcf08bfc	-0.029363625
72	0xbcbea7d4	-0.023273386
73	0xbc8e8965	-0.0173995
74	0x3c5483d1	0.012970881
75	0xbb0425ea	-0.00201642
76	0x3d1fefa9	0.039046917
77	0xbb74afc2	-0.0037336205
78	0x3c6bf940	0.014402688
79	0x3c985ded	0.018599475
80	0x3aa19a63	0.0012329336
81	0x3d11dbd8	0.03561005
82	0x3ca70413	0.020387685
83	0xbc008d2e	-0.00784616
84	0xbcc28bec	-0.02374836
85	0x3b7486d6	0.0037311814
86	0xbcdb4ece	-0.026770975
87	0x3cbe1e9a	0.023207951
88	0xbb95f335	-0.0045761117
89	0x3bc2e7c1	0.0059480374
90	0xbb8f5e7e	-0.004375278
91	0xbc5ff9ce	-0.013670398
92	0x3b2f405c	0.0026741242
93	0xbcaf5486	-0.021402609
94	0x3aa8e7e1	0.0012886488
95	0xbd0ba512	-0.03409297
96	0x3d11a74e	0.035559945
97	0xbba6c761	-0.005089686
98	0xbc61a6eb	-0.0137727065
99	0xbc3ab89f	-0.011396556
100	0x3cf78a79	0.030217396
101	0x3bb3366d	0.0054691345
102	0xbc019d3a	-0.007911021
103	0x3c4eea43	0.0126290945
104	0xbcda9d9b	-0.02668648
105	0xbca67449	-0.020319121
106	0x3cf98bc4	0.030462153
107	0xbc5a541f	-0.01332572
108	0x3c9fff95	0.01953105
109	0x3ad6f3ec	0.0016399599
110	0x3c5340cc	0.012893867
111	0x3c66c0b4	0.01408403
112	0xbbd539bc	-0.0065071266
113	0x3b103c31	0.0022008533
114	0xbcad8509	-0.0211816
115	0x3c90921f	0.017647801
116	0x3cf53eca	0.029937167
117	0xbd02482d	-0.031807113
118	0xbc5d8523	-0.013520512
119	0x3c974bf7	0.01846884
120	0x3cdca364	0.02693338
121	0xbca04265	-0.01956291
122	0xbbcffb2f	-0.006347082
123	0xbc81748f	-0.01580265
124	0xbccf383f	-0.025295375
125	0xbc67883c	-0.014131602
126	0x3b2dc7cf	0.00265168
127	0x3c836b5d	0.016042406
128	0x3c58093e	0.013185797
129	0x3c2fa59e	0.010720639
130	0xbccb90b3	-0.024849271
131	0x3c86c2b8	0.016450271
132	0xbc9a7078	-0.018852457
133	0xbc282845	-0.010263507
134	0xbcc6a5d3	-0.024248993
135	0x3cf8364b	0.030299326
136	0x3cc1e2ad	0.023667658
137	0x3bd7acb4	0.006581867
138	0xbc8255dc	-0.015910082
139	0x3c5ec797	0.013597391
140	0xbc88a71d	-0.016681248
141	0xbc809b4c	-0.015699051
142	0xbc66f526	-0.014096534
143	0xbbc83e6d	-0.0061109574
144	0xbcb92f4d	-0.022605563
145	0xbb44e3b0	-0.003004294
146	0xbd11c56d	-0.03558867
147	0x3c8e2ebb	0.017356267
148	0xbc4c895d	-0.012483922
149	0xbbb6d756	-0.0055798693
150	0xbbd604bf	-0.0065313275
151	0x3af0fb0a	0.0018385362
152	0xbacfbbe7	-0.0015848846
153	0x3cb350a4	0.021889038
154	0x3c943f70	0.018096656
155	0x3cd4cd42	0.02597678
156	0xbd0219af	-0.031762775
157	0xbcdc7516	-0.0269113
158	0x3ced2ac9	0.028951066
159	0xbc0abbad	-0.008467597
160	0x3ce17272	0.027520392
161	0x3c1213ea	0.008915881
162	0xbbb9e656	-0.00567321
163	0x389dba4e	7.521045e-05
164	0xbcccef4b	-0.025016448
165	0xbc5e948a	-0.013585219
166	0x3b4923a4	0.003069141
167	0xbcda9dc8	-0.026686564
168	0x3c44c536	0.012009909
169	0x3ce212ed	0.027596915
170	0x3c6c5553	0.01442464
171	0xbbd2a988	-0.006428901
172	0xbc8cdb27	-0.017194344
173	0x3958ccb4	0.00020675623
174	0x3d02c529	0.031926308
175	0x3b0a6799	0.0021118878
176	0x3c3dd449	0.011586257
177	0x3b87abee	0.0041403687
178	0x3c8e3c62	0.017362777
179	0x3c1e78e9	0.009672382
180	0xbb1107da	-0.0022129924
181	0x3ccf2273	0.025284981
182	0x3ce499dd	0.027905399
183	0xbc5cab38	-0.013468556
184	0x3b8a942b	0.004229089
185	0xbd2911f0	-0.041276872
186	0xbcb0cf4d	-0.021583224
187	0x3cc45e7b	0.023970833
188	0x3cbb7e86	0.02288748
189	0xbc6d0476	-0.014466396
190	0xb9fa41a3	-0.0004773262
191	0xbcddb4d8	-0.027063772
192	0x3c1e11f5	0.009647836
193	0xbc44bdcf	-0.0120081445
194	0x3d4339a5	0.047662396
195	0x3cf775e2	0.030207578
196	0x3ce86ff6	0.0283737
197	0xbca04bde	-0.019567426
198	0xbca6ffc6	-0.020385634
199	0xbc483117	-0.012218735
200	0xbcf71c1f	-0.030164776
201	0x3d0a4ded	0.033765722
202	0x3d18e305	0.037325878
203	0xbb2958c2	-0.0025840257
204	0xbc88f0b6	-0.016716342
205	0x3af9bedf	0.0019054076
206	0x3a088312	0.0005207519
207	0x3d1e15cc	0.038595006
208	0xbc90b3b0	-0.017663807
209	0xbcb2933c	-0.021798722
210	0x3d1c39ae	0.038140945
211	0xbc5defb2	-0.013545917
212	0x3d075f01	0.033049587
213	0x3d10a6a8	0.035315186
214	0x3ce010d1	0.027351769
215	0xbb41b09a	-0.0029554726
216	0x3b13c0f6	0.0022545434
217	0x3c21d427	0.009877241
218	0x3cd58278	0.026063189
219	0xbc0b2826	-0.008493459
220	0xbc0fc200	-0.008774281
221	0xbc9ab7d9	-0.018886494
222	0x3ccd5c63	0.025068467
223	0xbc592f63	-0.013255927
224	0x3b9cf3c0	0.0047897995
225	0xbd035ce5	-0.032071013
226	0xbd2c1522	-0.04201234
227	0xbd007dbb	-0.031369906
228	0x3b99cde4	0.0046937335
229	0x3ccc9fe7	0.024978591
230	0x3a785ad4	0.00094739837
231	0xbca5fa53	-0.020260965
232	0x3ae4c3de	0.0017453393
233	0xbc91c756	-0.017795246
234	0x3cada42d	0.02119645
235	0xbcd3f907	-0.025875581
236	0xbb229bbb	-0.002481206
237	0xbca034b5	-0.019556383
238	0xbc324b58	-0.010882221
239	0xbb612ed0	-0.0034360178
240	0x3ce297d3	0.027660286
241	0xbcc342c1	-0.023835542
242	0x3b8f432b	0.0043720207
243	0x3b2d63f5	0.0026457284
244	0xbd00c466	-0.0314373
245	0x3c3a1508	0.011357553
246	0x3cb4c788	0.0220678
247	0xbc67be9b	-0.014144565
248	0xbc7de5a7	-0.015496648
249	0x3a092acd	0.0005232513
250	0x3b971475	0.004610593
251	0x3d16a692	0.036779948
252	0x3c7cc952	0.015428858
253	0xb982ebdf	-0.0002497127
254	0x3b2e7975	0.0026622687
255	0xba8ded16	-0.0010828103

bias f4 [64]
0	0xbcf27031	-0.029594513
1	0xbc545a8b	-0.01296104
2	0xbb88f7c0	-0.0041799247
3	0xbd214531	-0.039372627
4	0xbbc8f9d5	-0.006133298
5	0xbbec3710	-0.0072087124
6	0x3bdb7790	0.0066976026
7	0x3c3de018	0.011589073
8	0xbbd7fb7b	-0.006591258
9	0xbc5e10ff	-0.013553857
10	0x3aa5a9f1	0.0012639147
11	0xbcba20b0	-0.022720665
12	0x3ca0d29f	0.019631682
13	0xbc11e140	-0.008903801
14	0xbc6e71c3	-0.01455349
15	0x3b84cbe5	0.0040526264
16	0x3c83653d	0.016039485
17	0x3cb17630	0.021662802
18	0x3c4dc12b	0.012558262
19	0x3c75a567	0.014993048
20	0x3c88a4c1	0.016680123
21	0xbc95d6d5	-0.018290916
22	0xbb11b829	-0.0022235012
23	0xbc877ae7	-0.016538097
24	0xbcf7b6d5	-0.030238548
25	0xbc3f9df2	-0.011695372
26	0x3d12cd68	0.035840422
27	0x3c690cbb	0.014224227
28	0xbd33b538	-0.043873996
29	0xbc66f66c	-0.0140968375
30	0xbd217411	-0.03941733
31	0xbd2fc49b	-0.042912107
32	0x3d256fe1	0.0403899
33	0x3cd9063a	0.026492227
34	0x3d50ad9e	0.050946824
35	0x3ab7a85a	0.0014011965
36	0x3c6573ce	0.014004661
37	0xbd2410a4	-0.040054932
38	0x3c805ecb	0.0156702
39	0x3aeffaa4	0.001830895
40	0x3a9ee575	0.0012122827
41	0x3c0cdf51	0.008598165
42	0xbcc9bc69	-0.024625974
43	0xbd58f282	-0.05296565
44	0xbc911a68	-0.017712787
45	0x3d34bfab	0.0441281
46	0xbca05e09	-0.01957609
47	0x3d8890e8	0.06668264
48	0xba3ae400	-0.00071293116
49	0xbb818ba4	-0.003953414
50	0xbd00b28e	-0.031420283
51	0xbc3b4267	-0.011429406
52	0xbcb8e850	-0.022571713
53	0x3a6dad5e	0.0009066666
54	0xbd5c02c0	-0.05371356
55	0xbc839bfb	-0.016065588
56	0x3cf4630d	0.029832387
57	0xbc02de8d	-0.007987631
58	0xbd006487	-0.03134587
59	0xbd33d38f	-0.04390293
60	0x3c851be6	0.016248655
61	0x3d155543	0.036458265
62	0x3c2c1faf	0.010505601
63	0x3d0d0d46	0.034436487

weight f4 [10, 64]
0	0xbddaf76c	-0.10691723
1	0x3e4910c5	0.19635303
2	0xbd0efa8c	-0.03490691
3	0x3c5aac41	0.013346733
4	0xbe1c6d8f	-0.15276168
5	0x3e448d03	0.19194417
6	0xbe29ec05	-0.1659394
7	0xbd1626a0	-0.03665793
8	0xbd8f3f43	-0.06994488
9	0x3e95de96	0.29271382
10	0xbd9cb5cd	-0.07651863
11	0x3e6c12c1	0.23054029
12	0xbdd6bb39	-0.10484929
13	0xbe121590	-0.14266038
14	0x3e0f490a	0.13992706
15	0xbc501c0e	-0.012702001
16	0x3dfb9672	0.122845545
17	0x3e297a85	0.16550644
18	0x3d68e268	0.056856543
19	0xbdf65067	-0.12027054
20	0x3e19ec83	0.15031628
21	0x3dba99d5	0.091113724
22	0xbde30302	-0.11084558
23	0x3e0a1af0	0.13486838
24	0x3e15116f	0.14557432
25	0x3d0d30c2	0.034470327
26	0xbdfbc174	-0.12292758
27	0x3dd96e96	0.10616796
28	0xbbec40f5	-0.007209892
29	0x3e186610	0.14882684
30	0x3e1fa26e	0.15589306
31	0x3dd34c11	0.10317243
32	0xbe754978	-0.23953807
33	0x3d85f3a0	0.065406084
34	0xbe1eb5c5	-0.15499027
35	0xbd483daf	-0.04888695
36	0x3cf6f069	0.030143933
37	0x3e41aa2d	0.18912573
38	0x3dff8ea5	0.12478379
39	0x3e25677d	0.16152759
40	0xbda858a0	-0.08220029
41	0xbe0dccaf	-0.13847612
42	0xbdb5ece8	-0.08883077
43	0x3dd7210e	0.105043516
44	0xbd87f3bd	-0.06638286
45	0xbdb5cecd	-0.08877335
46	0xbe241408	-0.16023266
47	0xbd9fda3f	-0.07805299
48	0xbdc399cc	-0.09550819
49	0x3e486adb	0.19572012
50	0xbd1d737c	-0.038440213
51	0x3e246cfc	0.16057199
52	0x3e0de95d	0.13858552
53	0x3e0f3ec2	0.13988784
54	0xbc4ab12b	-0.012371342
55	0x3cc00d74	0.023443915
56	0x3e2037d5	0.15646298
57	0x3d5897ee	0.052879266
58	0x3d42d0b7	0.047562327
59	0x3df5c0be	0.11999653
60	0xbd7505a1	-0.05981982
61	0x3ca57ab3	0.02020011
62	0xbc6f8048	-0.014617987
63	0xbca5f8ff	-0.020260332
64	0x3def6b1b	0.116903506
65	0x3e7e409d	0.24829336
66	0xbce36704	-0.027759083
67	0x3e304d1c	0.17216915
68	0x3d2bed3c	0.04197429
69	0xbe5f5cb9	-0.21812715
70	0x3c035921	0.008016855
71	0x3df1ab41	0.11800242
72	0x3e4f9534	0.2027176
73	0x3dd4c540	0.10389185
74	0xbda47e4b	-0.08031901
75	0xbdc94f54	-0.09829584
76	0x3e188dc8	0.14897835
77	0x3e09152d	0.13386984
78	0xbe04de5b	-0.12975447
79	0x3c8d169b	0.017222693
80	0xbe37e0d5	-0.1795686
81	0xbe91c1e7	-0.28468248
82	0x3e83ab9a	0.2571686
83	0x3e336477	0.17518793
84	0xbe34311a	-0.17596856
85	0x3e33b323	0.17548804
86	0x3e0b57a1	0.13607647
87	0x3e723b39	0.23655404
88	0xbdf6db7e	-0.120535836
89	0xbe46fb7b	-0.1943187
90	0x3de8cf46	0.11367659
91	0x3dae6553	0.0851542
92	0xbe25091f	-0.1611676
93	0xbe85e6b0	-0.26152563
94	0x3e6630f7	0.22479616
95	0xbd8a6b4e	-0.06758748
96	0x3e793044	0.24334818
97	0x3d307619	0.043081377
98	0xbdb15ebd	-0.08660648
99	0x3d32242a	0.04349152
100	0x3e8b0713	0.27153835
101	0xbe515aa5	-0.20444734
102	0xbc3b3ffe	-0.011428831
103	0x3d997c4e	0.07494412
104	0xbdd1e5dc	-0.1024892
105	0xbe966101	-0.29370883
106	0x3e6210d1	0.22076727
107	0x3e1ed39b	0.15510409
108	0xbda01215	-0.07815949
109	0x3e4d6c8d	0.2006094
110	0x3cb895d3	0.02253238
111	0xbdd8ef23	-0.10592487
112	0x3dd47c86	0.103753135
113	0x3def613c	0.11688468
114	0xbdd95393	-0.10611644
115	0xbd0349d3	-0.032052826
116	0x3dcdedc9	0.100551195
117	0x3dde3f0d	0.1085187
118	0xbe78da7c	-0.24302095
119	0x3e4070f2	0.18793085
120	0x3c261649	0.010137149
121	0x3d5d2e43	0.053999197
122	0x3dcd7056	0.10031192
123	0xb7faeb13	-2.9911787e-05
124	0x3e811bbf	0.2521648
125	0x3d9a56d0	0.075360894
126	0x3db4a38e	0.08820258
127	0x3e4523ee	0.19251987
128	0x3e002458	0.12513864
129	0xbdb01a90	-0.085988164
130	0xbda767a0	-0.08174062
131	0x3dfc9d20	0.12334657
132	0x3d4a68af	0.04941624
133	0x3e2df0e8	0.1698643
134	0xbe3bdd3a	-0.1834611
135	0xbe6cc156	-0.23120627
136	0x3e01abe6	0.1266323
137	0x3e31a2ed	0.17347308
138	0xba386941	-0.0007034727
139	0xbbb0e735	-0.005398656
140	0xbdc59318	-0.096471965
141	0x3e1a5135	0.1507004
142	0xbe6177e2	-0.22018388
143	0x3ca4373b	0.020045867
144	0xbd8dc62f	-0.06922566
145	0x3e7d6f06	0.24749383
146	0xbe3e86cd	-0.1860611
147	0x3d1e55b9	0.03865597
148	0x3dcebddf	0.10094809
149	0xbc8bff0f	-0.017089395
150	0xbd6ab074	-0.057297185
151	0xbe062fd4	-0.13104182
152	0xbdc41421	-0.09574152
153	0x3e6e061f	0.23244523
154	0x3a4daf88	0.00078462856
155	0xbe252aaf	-0.16129564
156	0x3d27cad9	0.040964935
157	0x3d0d3f34	0.034484103
158	0xbe410f06	-0.18853387
159	0xbda19dd2	-0.0789143
160	0xbe28540e	-0.16438314
161	0x3da822cf	0.08209764
162	0xbd285a06	-0.041101478
163	0xbd7d9392	-0.061908312
164	0xbe036c10	-0.12834191
165	0x3e02e5ae	0.12782928
166	0xbbebff95	-0.0072020986
167	0x3def334a	0.116797045
168	0x3d6f30ff	0.058396336
169	0x3e2aea26	0.16690883
170	0xbd62a16d	-0.05532973
171	0xbe73d036	-0.23809895
172	0xbd9f6bee	-0.07784258
173	0xbd237fd4	-0.03991683
174	0xbe24a16f	-0.16077207
175	0x3d890750	0.06690848
176	0xbcd1099e	-0.025517281
177	0x3e000672	0.12502459
178	0x3e458e0d	0.1929247
179	0x3e590bb6	0.21195874
180	0xbcf1e5d1	-0.02952853
181	0x3e48dd8d	0.19615765
182	0xbe0a0d2d	-0.13481589
183	0xbe19d51f	-0.15022705
184	0xbe364dc1	-0.17803098
185	0xbca65069	-0.020302014
186	0xbd75a249	-0.05996922
187	0xbe12b4ce	-0.14326784
188	0x3d285ab0	0.04110211
189	0x3d2e7b14	0.042597845
190	0xbe0a074c	-0.13479346
191	0x3d9b4aa8	0.07582599
192	0x3ddd69d7	0.10811203
193	0xbe085874	-0.13314992
194	0x3d6a3f1d	0.057189096
195	0xbbaa0793	-0.005188891
196	0xbdf833dd	-0.12119267
197	0xbe56998e	-0.20957014
198	0xbdef9583	-0.11698439
199	0xbdd5d72a	-0.1044143
200	0x3e12a41d	0.14320417
201	0xbe2aa56a	-0.16664663
202	0xbdc3b18b	-0.09555348
203	0x3c22d7d3	0.009939152
204	0xbdf4db1c	-0.11955854
205	0xbd2a597a	-0.041589238
206	0xbe11a1f2	-0.14221933
207	0xbdf74d3e	-0.1207528
208	0x3e3e913e	0.18610093
209	0xbe1fed0d	-0.15617771
210	0xbdd58a24	-0.10426739
211	0xbe1c030e	-0.1523554
212	0xbd962e8a	-0.07333095
213	0xbdd19a0d	-0.10234461
214	0xbdaf0a54	-0.08546892
215	0xbe1d2e4d	-0.15349694
216	0x3dc8ebbd	0.098105885
217	0x3def48bf	0.11683797
218	0xbd2dde7c	-0.042448506
219	0xbc7fc126	-0.015610015
220	0x3cafd5ce	0.021464255
221	0x3d800e0c	0.06252679
222	0xbe28b3c7	-0.1647483
223	0xbdedbe6a	-0.11608584
224	0x3d642e31	0.055708114
225	0x3e066f25	0.13128336
226	0xbe034e08	-0.12822735
227	0xbd2c4596	-0.04205855
228	0x3df0ed2d	0.11763988
229	0xbd8f097a	-0.069842294
230	0xbd14c2bb	-0.036318522
231	0x3dd825e0	0.10554099
232	0xbe253fbd	-0.16137595
233	0xbd4a92c3	-0.04945637
234	0x3d926ba8	0.0714944
235	0xbd35f2f3	-0.044421148
236	0x3d76b691	0.060232703
237	0x3d50cca4	0.05097641
238	0xbd7e612f	-0.0621044
239	0x3dcb029d	0.09912608
240	0xbddfa496	-0.10920064
241	0xbe05c5ca	-0.13063732
242	0xbe15f85b	-0.14645521
243	0x3c05a422	0.008156808
244	0xbdd1fa24	-0.10252789
245	0x3d639ee4	0.05557145
246	0x3d06d22d	0.032915283
247	0xbe4436f6	-0.19161591
248	0xbd9fd5f5	-0.07804481
249	0xbde038be	-0.10948323
250	0x3d92b927	0.07164221
251	0x3e199d0f	0.1500132
252	0xbe21f79b	-0.1581711
253	0x3d3d0d66	0.046155356
254	0xbd9e4586	-0.07728104
255	0xbd8401d9	-0.06445665

bias f4 [10]
0	0xbe4443d3	-0.19166498
1	0xbd1731c0	-0.03691268
2	0x3c01064a	0.007875035
3	0xbc75aa11	-0.01499416
4	0x3e1536b7	0.14571653
5	0xbd02fb2e	-0.031977825
6	0x3d2ae30e	0.041720442
7	0xbd19288d	-0.037392188
8	0xbc9f581a	-0.01945119
9	0x3c189ed4	0.009315211
