models/gpu_train_model14.pth (torch, 587335 bytes, 10 tensors)

weight f4 [32, 3, 5, 5]
0.07171228 0.19050199 0.045496605 -0.04231449 -0.12894665 0.017149694 0.12811296 0.15640555
-0.09585149 -0.076626256 0.046824344 0.12938513 -0.0018251663 -0.061103754 -0.027729189 0.04544875
-0.087089255 -0.09347413 -0.0026232894 0.19046815 -0.1376805 -0.11207605 0.097289 0.082253926
0.15701008 0.12148662 0.13619384 -0.06786593 0.018739294 -0.104585335 0.15019445 0.010709952
0.0395995 -0.12970275 -0.02685181 0.05206454 0.04447896 0.02582257 -0.05536887 -0.07725042
-0.09181606 -0.14499396 -0.0028133718 0.060534302 0.19116448 -0.09096972 -0.021942038 0.054827455
0.041929606 0.109177165 0.08211782 0.10312105 -0.15249777 -0.19578862 -0.11887928 -0.04899689
0.023255164 -0.03814473 -0.20904772 -0.18375745 -0.0634145 -0.013945091 -0.07253159 -0.050239958
0.00052923785 -0.101119585 -0.022632273 -0.15963376 0.0905847 0.07100455 -0.16943844 0.03406979
-0.026008828 -0.05540326 0.008304013 0.09934416 -0.056720447 -0.1298696 -0.020086339 -0.08346344
-0.11948056 -0.17539546 -0.24313304 0.02427503 0.14600416 -0.19928263 -0.15026689 -0.11765075
0.17508966 0.09202482 0.002887455 -0.17349526 0.0372481 0.093408026 0.11015005 0.046811186
-0.19119179 0.08930337 0.13157137 -0.054919977 0.14988747 -0.1128121 -0.0642651 0.027522521
0.16528153 -0.06974213 -0.010657021 -0.18232453 0.13397717 0.17129125 -0.10938108 0.05179546
-0.045057908 0.14889388 0.116838165 0.051294442 -0.13734235 0.18474028 0.19541983 0.10534921
0.018217152 0.011887483 0.15593386 0.061022084 0.046365853 0.11705293 -0.046895236 -0.21033046
-0.053864542 -0.027561512 -0.038185414 -0.050830778 -0.077631086 0.07082076 0.05999979 -0.14965452
0.017364742 0.068403944 0.09768684 -0.024102319 -0.16245413 -0.12987497 0.05561913 -0.011813169
0.0069945063 -0.12987405 -0.02130585 0.0059944442 0.13308482 0.011353546 -0.086635806 0.13184221
0.08787253 0.022680402 0.03521006 -0.14704244 0.18651806 0.1683573 -0.091749825 -0.022586768
-0.097601876 0.13120507 0.17029248 0.008535455 0.13746966 0.081034005 0.18759042 0.00077419373
0.04864719 0.19481114 0.0922691 0.0962046 0.11555147 0.004834189 0.1560285 -0.04206459
0.035417452 -0.045183145 -0.07143976 0.1259917 -0.05412905 -0.007532889 -0.020324755 0.06579439
0.058218155 -0.14987409 -0.0007416664 -0.006478108 -0.13861333 0.052345518 -0.08980731 -0.07385563
-0.116064444 -0.011773418 0.13833998 -0.0038859495 0.007805139 0.038549203 0.074771166 -0.010265804
-0.05891476 -0.076671 -0.04449879 0.040923823 -0.12100492 -0.20081288 0.014840653 -0.12223501
-0.1588539 0.014583319 -0.2478897 -0.01580547 -0.07696417 -0.110677935 0.05600655 -0.09198222
-0.06708767 -0.095879406 -0.012107513 -0.0013938808 -0.1956669 0.033424422 -0.15106171 0.05526554
0.019840093 0.089028254 -0.07251644 -0.06909938 -0.091574185 0.101413004 -0.036675815 0.088253185
-0.062340815 0.02739595 0.0831788 0.09875551 -0.025942901 0.098093994 -0.050226647 0.11564397
-0.11713373 0.12868012 0.082644604 0.18580668 0.08924586 0.0134699745 -0.06996715 0.10142672
0.101134114 -0.04145306 -0.08876977 -0.15580052 0.05307245 -0.037505522 0.07802554 0.110293694
00000000: e3dd 923d f412 433e a65a 3a3d f551 2dbd
00000010: 970a 04be 847d 8c3c 0b30 033e c728 203e
00000020: c94d c4bd 3aee 9cbd e2ca 3f3d 897d 043e
00000030: 6b3a efba ee47 7abd 5328 e3bc 7828 3a3d
00000040: da5b b2bd 5d6f bfbd 7eeb 2bbb 150a 433e
00000050: 1efc 0cbe 2188 e5bd 753f c73d bf74 a83d
00000060: 40c7 203e facd f83d 6676 0b3e 4bfd 8abd
00000070: 2683 993c d630 d6bd 93cc 193e cb78 2f3c
00000080: 1633 223d ccd0 04be 54f8 dbbc a141 553d
00000090: 922f 363d db89 d33c 78ca 62bd 7835 9ebd
000000a0: 0f0a bcbd 4c79 14be 8c60 38bb d1f2 773d
000000b0: 9fc0 433e 554e babd cabf b3bc c192 603d
000000c0: 61be 2b3d 4798 df3d 632d a83d 2131 d33d
000000d0: 6028 1cbe d07c 48be fb76 f3bd f7b0 48bd
000000e0: 9d81 be3c a63d 1cbd 9b10 56be ea2a 3cbe
000000f0: 76df 81bd f379 64bc 718b 94bd 6ac8 4dbd
00000100: 8dbc 0a3a c917 cfbd 5167 b9bc 0877 23be
00000110: 7984 b93d d56a 913d 4581 2dbe c48c 0b3d
00000120: 7710 d5bc 87ee 62bd 8e0d 083c f374 cb3d
00000130: b353 68bd 89fc 04be 1b8c a4bc e1ee aabd
00000140: 39b2 f4bd de9a 33be def7 78be 6ddc c63c
00000150: 1d82 153e bf10 4cbe 90df 19be e0f2 f0bd
00000160: b44a 333e 8277 bc3d 753b 3d3b bea8 31be
00000170: 7791 183d b54c bf3d 5996 e13d 16bd 3f3d
00000180: c8c7 43be afe4 b63d a5ba 063e c5f3 60bd
00000190: 1a7c 193e 080a e7bd 6c9d 83bd e976 e13c
000001a0: 903f 293e f6d4 8ebd c99a 2ebc 48b3 3abe
000001b0: 5031 093e f966 2f3e 3003 e0bd 7a27 543d
000001c0: a48e 38bd a377 183e d948 ef3d 1f1a 523d
000001d0: 79a3 0cbe 8e2c 3d3e 231c 483e 54c1 d73d
000001e0: 233c 953c b8c3 423c 20ad 1f3e 4bf2 793d
000001f0: 1fea 3d3d 72b9 ef3d 3815 40bd de60 57be
00000200: 11a1 5cbd aec8 e1bc 4f68 1cbd ef33 50bd
00000210: 0cfd 9ebd 7a0a 913d 57c2 753d 093f 19be
00000220: 8140 8e3c 5e17 8c3d 0a10 c83d 3a72 c5bc
00000230: 605a 26be f2fd 04be e3d0 633d 068c 41bc
00000240: 2c32 e53b b4fd 04be 9b89 aebc 0b6d c43b
00000250: 6347 083e 3904 3a3c 1d6e b1bd a501 073e
00000260: 83f6 b33d 40cc b93c 6d38 103d 4b92 16be
00000270: 97fe 3e3e db65 2c3e 55e7 bbbd e307 b9bc
00000280: 7ee3 c7bd 9f5a 063e 2761 2e3e 4bd8 0b3c
00000290: d9c4 0c3e 28f5 a53d b417 403e 43f3 4a3a
000002a0: 4742 473d 927c 473e 95f7 bc3d eb06 c53d
000002b0: 40a6 ec3d 1e68 9e3b efc5 1f3e eb4b 2cbd
000002c0: e411 113d f611 39bd 024f 92bd f803 013e
000002d0: 6cb6 5dbd 74d6 f6bb 1a80 a6bc 36bf 863d
000002e0: 2976 6e3d 9878 19be 646c 42ba 4f46 d4bb
000002f0: a7f0 0dbe 4168 563d e5ec b7bd 9f41 97bd
00000300: 32b3 edbd 4be5 40bc ffa8 0d3e 6aab 7ebb
00000310: 40c2 ff3b c5e5 1d3d a021 993d e731 28bc
00000320: 9a50 71bd af05 9dbd 5d44 36bd bd9f 273d
00000330: 6dd1 f7bd e4a1 4dbe 3626 733c 5956 fabd
00000340: 99aa 22be e0ee 6e3c ccd6 7dbe 797a 81bc
00000350: 649f 9dbd 1dab e2bd 2067 653d 2d61 bcbd
00000360: 4365 89bd 6c5c c4bd 975e 46bc e1b2 b6ba
00000370: e75c 48be 0ce8 083d ecaf 1abe 1e5e 623d
00000380: b187 a23c 7254 b63d 8083 94bd fa83 8dbd
00000390: 3f8b bbbd 9fb1 cf3d 6139 16bd 16be b43d
000003a0: 1559 7fbd 796d e03c a659 aa3d 5440 ca3d
000003b0: 3586 d4bc 81e5 c83d 75ba 4dbd bfd6 ec3d
000003c0: cfe3 efbd b9c4 033e 9341 a93d 1b44 3e3e
000003d0: 89c6 b63d 2bb1 5c3c f04a 8fbd d0b8 cf3d
000003e0: 671f cf3d afca 29bd edcc b5bd 2c8a 1fbe
000003f0: 7f62 593d 649f 19bd dbcb 9f3d a9e1 e13d

bias f4 [32]
0.07662887 0.06409039 -0.002249942 -0.17624637 -0.06844354 0.14789876 0.169278 0.14211138
-0.08716599 0.03493662 0.19608451 -0.29530534 -0.29646116 0.10296708 -0.12505893 -0.28292948
-0.20490935 0.0471361 0.22342178 -0.16282192 -0.11662065 -0.34702837 -0.028164366 -0.09917938
-0.059359815 0.028598547 -0.028208245 -0.12604764 -0.07240839 -0.044903375 0.05541538 0.09122513
00000000: 99ef 9c3d d341 833d c373 13bb ee79 34be
00000010: 202c 8cbd c672 173e 3657 2d3e a585 113e
00000020: 1584 b2bd b419 0f3d 61ca 483e 4332 97be
00000030: c2c9 97be 68e0 d23d 730f 00be 22dc 90be
00000040: c2d3 51be c811 413d aec8 643e caba 26be
00000050: cfd6 eebd b4ad b1be f5b8 e6bc 8f1e cbbd
00000060: 4723 73bd 8047 ea3c fa14 e7bc a212 01be
00000070: da4a 94bd 9aec 37bd 3dfb 623d 3ed4 ba3d

weight f4 [32, 32, 5, 5]
-0.018927855 0.020741578 0.013442359 -0.0043068184 0.030526433 -0.0025120804 -0.0071869083 0.041675948
0.019489793 0.055258423 0.0015067131 0.033362743 0.057572532 0.022265524 -0.0006171886 0.009763928
0.05335819 0.057963796 0.047428567 0.019863611 0.019635819 0.026397336 0.018599616 0.019420465
0.028194057 -0.0008651922 -0.027516486 -0.0053530238 0.028814169 0.04431671 0.016252153 0.003851051
-0.015823986 0.005518765 0.057208132 0.0011348049 -0.01128926 0.02038262 0.05932311 0.059599552
-0.0636818 -0.040155318 0.019805787 -0.004759071 0.008241196 -0.024062335 -0.033326562 0.034070782
0.023142729 0.027183628 0.02079785 -0.020654388 -0.023971258 0.0052578948 -0.019412104 0.019660776
-0.05993155 0.0061813975 0.034108628 -0.009054341 -0.056260504 -0.02326159 -0.03774341 -0.013913825
-0.017859241 -0.02865701 -0.052172203 -0.034894947 0.029732583 -0.026280312 -0.028657872 -0.0020637792
-0.0011046182 -0.019359905 0.017585479 -0.032741357 0.013950383 0.016770668 0.017636454 0.00056105247
0.00328415 0.006393289 -0.013981992 -0.010552001 -0.01795983 -0.039871905 -0.009506975 -0.008028339
0.02446689 0.024557823 -0.024310188 -0.02994145 -0.046024878 -0.007875314 -0.01198387 -0.021927133
-0.0060016103 0.01125614 0.026240334 0.023526354 0.030007636 0.043225434 -0.018810395 0.025348011
-0.02020273 0.013543241 0.03583706 0.04175403 0.0059860107 0.011009332 -0.0012791391 0.05346434
0.009926625 -0.0036878607 0.024967311 0.018521605 0.022816353 -0.014042576 -0.04327234 -0.013800547
-0.019228375 0.0037781955 -0.018319773 -0.04432557 -0.012787342 0.054598376 -0.008204161 0.024011672
0.003919405 0.016440468 0.04460846 0.02103989 0.024394142 0.023985367 0.01125832 0.03683479
0.014458397 0.037579257 0.0036817458 -0.008789634 0.05313717 0.0065716323 0.009589681 -0.023861744
0.015987534 0.036715504 0.025335852 0.01648278 -0.0032713923 -0.0038018732 -0.013584994 0.023493856
0.025710182 0.066001855 0.007460583 -0.01383779 0.047602817 0.04837555 0.06736811 0.04705652
-0.020025402 0.0623088 0.03151706 0.035659663 0.06654595 -0.013940306 0.033801623 0.030397698
0.06761915 0.04519446 0.012176154 -0.028697481 0.012570572 -0.031169897 -0.0073218388 0.0029015734
0.021653209 0.007109151 0.033840463 0.031787094 0.040818736 0.019846246 0.05461882 0.050444245
0.029353417 -0.0009976932 0.027294124 0.030883359 -0.0117325215 0.008168148 0.03945425 -0.0041410965
-0.004391791 -0.017196918 -0.01787425 -0.008062833 0.0072659627 -0.049866278 -0.03298342 -0.042670853
0.0022484674 -0.012577087 0.005381474 -0.008169852 0.015246933 -0.020906692 -0.015515965 -0.016725749
0.024386553 -0.010839213 0.02637638 0.0152124865 0.0018086463 -0.021386178 0.034850992 -0.0040071206
0.03485192 0.024094947 0.01507565 0.0051239957 -0.0075331074 -0.037510227 0.0072434368 -0.005135252
-0.04122107 0.025192726 -0.023338815 -0.013941399 -0.029961582 -0.02247359 0.0019354025 -0.042635202
-0.016533393 -0.044096984 -0.020630108 0.0020847218 -0.052831914 -0.048536662 0.009542988 -0.017146625
0.015638893 -0.032579884 -0.016743978 0.012154117 -0.009553276 -0.029962929 -0.050739102 -0.01285861
0.01642915 -0.032580104 0.03803804 0.0056570666 -0.0031493593 -0.007631791 0.046367414 0.0018957151
00000000: 970e 9bbc 3eea a93c 573d 5c3c 3620 8dbb
00000010: 9212 fa3c b7a1 24bb 2880 ebbb 66b4 2a3d
00000020: 0fa9 9f3c a856 623d e77c c53a 5fa7 083d
00000030: 2dd1 6b3d 3066 b63c d3ca 21ba e2f8 1f3c
00000040: 1e8e 5a3d 726b 6d3d 7544 423d 03b9 a23c
00000050: 4cdb a03c 3a3f d83c 395e 983c ab17 9f3c
00000060: 39f7 e63c 11ce 62ba 416a e1bc 6b68 afbb
00000070: b10b ec3c 7085 353d 3c23 853c ea61 7c3b
00000080: 4ea1 81bc c2d6 b43b 1353 6a3d bcbd 943a
00000090: 97f6 38bc 74f9 a63c cafc 723d a91e 743d
000000a0: 9b6b 82bd e779 24bd bf3f a23c fbf1 9bbb
000000b0: 1506 073c 601e c5bc 6f81 08bd ce8d 0b3d
000000c0: d295 bd3c 33b0 de3c 4160 aa3c 6433 a9bc
000000d0: 5f5f c4bc 6b4a ac3b 2206 9fbc a30f a13c
000000e0: c97a 75bd 528d ca3b 7db5 0b3d a958 14bc
000000f0: 6a71 66bd 178f bebc d598 1abd d0f6 63bc
00000100: 8b4d 92bc 1bc2 eabc 85b2 55bd 01ee 0ebd
00000110: bf91 f33c cf49 d7bc eac3 eabc 7840 07bb
00000120: d6c8 90ba aa98 9ebc 6c0f 903c cd1b 06bd
00000130: 2690 643c a462 893c 537a 903c 9813 133a
00000140: e53a 573b cc7e d13b ba14 65bc 4de2 2cbc
00000150: 7e20 93bc b950 23bd 25c3 1bbc 4b89 03bc
00000160: ca6e c83c 7d2d c93c 2926 c7bc c647 f5bc
00000170: 9584 3cbd 7607 01bc fe57 44bc 88a0 b3bc
00000180: 28a9 c4bb ac6b 383c f8f5 d63c 57ba c03c
00000190: 93d2 f53c 270d 313d 4218 9abc a2a6 cf3c
000001a0: 3280 a5bc 78e4 5d3c e2c9 123d 4606 2b3d
000001b0: 4c26 c43b 7c60 343c c9a8 a7ba 6cfd 5a3d
000001c0: 48a3 223c 09b0 71bb 3f88 cc3c 9fba 973c
000001d0: 5ce9 ba3c d512 66bc 563e 31bd b11b 62bc
000001e0: d384 9dbc 9a9b 773b 5913 96bc bb8e 35bd
000001f0: 0082 51bc 8ca2 5f3d bf6a 06bc 20b4 c43c
00000200: 5a6e 803b 29ae 863c 5cb7 363d d95b ac3c
00000210: 39d6 c73c f67c c43c d174 383c 14e0 163d
00000220: eae2 6c3c b5ec 193d 7249 713b 6602 10bc
00000230: 5ca6 593d d956 d73b 0a1e 1d3c b479 c3bc
00000240: 4af8 823c ff62 163d 228d cf3c e506 873c
00000250: db64 56bb d928 79bb 9893 5ebc 3076 c03c
00000260: 299e d23c fb2b 873d e877 f43b e6b7 62bc
00000270: 2cfb 423d 7125 463d 4bf8 893d 56be 403d
00000280: 500c a4bc 8337 7f3d 0818 013d de0f 123d
00000290: 3e49 883d e265 64bc 9273 0a3d 9804 f93c
000002a0: e97b 8a3d d31d 393d 7e7e 473c fb16 ebbc
000002b0: cdf4 4d3c 0358 ffbc 09ec efbb 5328 3e3b
000002c0: 1262 b13c e2f3 e83b 4c9c 0a3d 2f33 023d
000002d0: 8c31 273d 9894 a23c fcb7 5f3d a09e 4e3d
000002e0: 9476 f03c 07c5 82ba ed97 df3c 19ff fc3c
000002f0: c339 40bc b2d3 053c c89a 213d 09b2 87bb
00000300: 03e9 8fbb 8de0 8cbc 056d 92bc f919 04bc
00000310: 5017 ee3b 9540 4cbd 9f19 07bd a2c7 2ebd
00000320: 065b 133b 2010 4ebc 1357 b03b d8da 05bc
00000330: 46ce 793c 8344 abbc ad36 7ebc 7004 89bc
00000340: 4fc6 c73c f496 31bc 4713 d83c cb3d 793c
00000350: 1910 ed3a 1132 afbc eabf 0e3d 2a4e 83bb
00000360: e3c0 0e3d c462 c53c dcff 763c 31e7 a73b
00000370: 49d8 f6bb 53a4 19bd 5a5a ed3b 9e45 a8bb
00000380: 6dd7 28bd fa60 ce3c 0b31 bfbc 776a 64bc
00000390: fe71 f5bc 891a b8bc 55ad fd3a 40a2 2ebd
000003a0: 0a71 87bc 0a9f 34bd 7900 a9bc d49f 083b
000003b0: 4766 58bd 61ce 46bd 315a 1c3c 1477 8cbc
000003c0: 231d 803c 7c72 05bd ab2a 89bc 1022 473c
000003d0: 5885 1cbc d174 f5bc ced3 4fbd ebac 52bc
000003e0: 6d96 863c b772 05bd c7cd 1b3d ea5e b93b
000003f0: 7b65 4ebb 1a14 fabb c2eb 3d3d a579 f83a

bias f4 [32]
0.021270316 -0.14435416 0.03210451 -0.018227411 -0.07600333 0.041158833 -0.023107912 -0.10860861
0.008517327 -0.07796043 -0.0869168 0.07463716 -0.072288 -0.028184894 -0.10758274 -0.0976803
-0.044364464 -0.09357269 -0.04155014 -0.117422156 0.030009927 -0.100399986 -0.037219554 0.0023722884
0.02271742 0.05051414 -0.1417829 -0.16651118 0.041506 -0.08287029 -0.046196166 -0.11843334
00000000: 163f ae3c 94d1 13be 0580 033d a751 95bc
00000010: a2a7 9bbd 2a96 283d ce4c bdbc 316e debd
00000020: 428c 0b3c b8a9 9fbd 6f01 b2bd 5edb 983d
00000030: bb0b 94bd 02e4 e6bc 5754 dcbd 9c0c c8bd
00000040: 83b7 35bd 0aa3 bfbd 7b30 2abd 077b f0bd
00000050: 61d7 f53c 829e cdbd 8873 18bd 6578 1b3b
00000060: e219 ba3c eae7 4e3d 892f 11be e881 2abe
00000070: 3202 2a3d e6b7 a9bd 3138 3dbd 2e8d f2bd

weight f4 [64, 32, 5, 5]
-0.02399901 -0.044253137 -0.041683283 -0.04413211 -0.008581467 0.04389281 0.005241842 -0.011863825
-0.017924117 -0.011641061 -0.026676094 0.019848388 -0.02471121 -0.006328287 0.0038704225 0.020079516
-0.02683788 0.010574079 0.004478577 0.06269437 0.00822119 0.031898897 -0.0014037272 -0.02859883
0.026117409 0.076080084 0.028300852 -0.04822465 -0.020607717 -0.035965573 0.04337875 -0.0042625964
0.004715333 -0.020634357 -0.014002616 -0.014493992 0.016683178 0.023424089 0.047326557 0.033116248
-0.010660056 0.00084756344 -0.0033553704 -0.012009615 -0.03098767 0.002460376 0.021844272 0.048187207
-0.013838532 0.0013094774 0.025878578 -0.015380586 -0.031919114 -0.04636165 0.01798907 0.03393211
0.012037292 0.03679011 -0.0032747411 -0.03559206 0.018946702 0.01849895 -0.0052885273 0.032335974
0.027803022 -0.022609022 -0.00023472802 0.0067336946 -0.018165998 0.006740237 -0.037467547 0.0084612975
0.03193452 -0.028061433 -0.021322064 -0.013707639 0.015603936 0.0045671477 0.011884598 0.031859003
0.022038488 -0.001226819 0.014884994 -0.011477832 -0.022718515 0.008331019 -0.00070927374 -0.031376254
-0.008203514 -0.015268868 0.03406457 0.027724601 0.024430227 0.0033884563 0.0033851778 -0.03625998
-0.035754327 0.0035902034 -0.035710845 0.0030856263 -0.0025774543 -0.0020446298 -0.0114457775 -0.026043788
-0.03560551 0.046448503 -0.0078223 0.010207385 0.01599514 0.0034002515 0.026836615 0.015336216
-0.020972786 0.013485505 -0.026667427 -0.03360847 -0.008318215 0.002402387 0.03637163 -0.021817336
0.005543511 0.0012560377 -0.0008778211 0.0026395773 0.0061040507 -0.005330012 0.001020287 -0.048355088
-0.05560288 0.0043977834 0.0025543424 -0.009637523 -0.033813186 -0.0022513682 -0.059465557 -0.028397696
0.0023689247 -0.015017737 0.018976381 0.0172224 -0.03203017 -0.039368093 0.018766126 -0.0067181876
-0.018817225 -0.039190568 0.036676884 0.020152377 0.04035346 0.03740509 0.034537267 0.00036836017
0.027751498 0.008622682 0.011510507 -0.005481716 -0.036627635 0.049177893 0.048268825 -0.016089598
-0.014893662 0.02069099 0.04662199 0.009264553 0.0007560822 -0.03908581 -0.030637998 -0.028946577
-0.03302982 0.05697503 0.0019883057 -0.000470931 0.002276111 -0.011217046 0.006526023 -0.02030569
0.010538686 -0.0068371096 -0.007131336 -0.024243973 -0.0218969 -0.022629378 -0.018474998 -0.011783644
0.00054181507 0.015958738 -0.01049798 -0.034489766 0.024920095 -0.010499533 0.01554055 0.03810957
0.00655754 -0.021151366 0.026005393 -0.021092305 -0.03223156 -0.00034021965 -0.025985744 0.021523872
0.0053372914 -0.0058748955 0.0041892934 -0.011816623 -0.03485161 0.010256664 -0.0013549048 -0.016616767
-0.0018956609 -0.022368165 0.023324937 -0.014142697 -0.021549378 -0.03513239 0.019035175 -0.022540916
0.0036209796 0.002559616 -0.026362455 -0.029393997 -0.02461715 -0.03396082 0.023901321 0.027112776
0.01593225 0.002042335 -0.028755097 -0.012152681 -0.028976081 -0.0216696 -0.023360435 -0.002582574
-0.008024895 -0.02742997 -0.008085218 -0.008612845 -0.024228476 0.0032950984 0.004940239 -0.016576618
-0.0020530592 -0.028980514 -0.037958123 -0.029537557 0.007495302 -0.039455295 -0.014798814 0.005007434
0.004541671 0.025721956 -0.018316513 -0.04010378 -0.019363953 -0.042059623 0.011634254 -0.0060240845
00000000: 9299 c4bc c742 35bd 17bc 2abd dfc3 34bd
00000010: 4899 0cbc f2c8 333d c2c3 ab3b 7d60 42bc
00000020: 99d5 92bc 26ba 3ebc d387 dabc 1699 a23c
00000030: 2a6f cabc 855d cfbb eaa6 7d3b cc7d a43c
00000040: 1ddb dbbc e73e 2d3c 07c1 923b e865 803d
00000050: 2cb2 063c 6ba8 023d 45fd b7ba 1848 eabc
00000060: 2df4 d53c e0cf 9b3d 30d7 e73c 3687 45bd
00000070: 84d1 a8bc a350 13bd ebad 313d 40ad 8bbb
00000080: 1583 9a3b 6209 a9bc 3a6b 65bc 3578 6dbc
00000090: 29ab 883c e0e3 bf3c 7ed9 413d e7a4 073d
000000a0: 84a7 2ebc 052f 5e3a c6e5 5bbb fac3 44bc
000000b0: dbd9 fdbc 423e 213b c2f2 b23c f35f 453d
000000c0: 03bb 62bc c5a2 ab3a 50ff d33c dafe 7bbc
000000d0: 9ebd 02bd b7e5 3dbd d05d 933c 65fc 0a3d
000000e0: 1038 453c 3ab1 163d 0a9d 56bb fbc8 11bd
000000f0: 1d36 9b3c 1c8b 973c 624b adbb ba72 043d
00000100: 2ac3 e33c 8e36 b9bc 5321 76b9 53a6 dc3b
00000110: dcd0 94bc 35dd dc3b 9277 19bd 41a1 0a3c
00000120: c5cd 023d 17e1 e5bc 9cab aebc 0196 60bc
00000130: a7a7 7f3c 03a8 953b 9eb7 423c 967e 023d
00000140: 0f8a b43c 37cd a0ba 31e0 733c 840d 3cbc
00000150: 2e1c babc d47e 083c 8eee 39ba 6384 00bd
00000160: 0868 06bc 462a 7abc 4a87 0b3d b41e e33c
00000170: e621 c83c dd10 5e3b dcd9 5d3b 5885 14bd
00000180: 2173 12bd 9e49 6b3b 8945 12bd 3838 4a3b
00000190: 82ea 28bb 32ff 05bb 1287 3bbc c859 d5bc
000001a0: 15d7 11bd c940 3e3d 1b29 00bc e03c 273c
000001b0: 3d08 833c c1d6 5e3b 76d8 db3c c144 7b3c
000001c0: 1fcf abbc 4ff2 5c3c a675 dabc 09a9 09bd
000001d0: 1f49 08bc 5e71 1d3b 6bfa 143d 45ba b2bc
000001e0: 57a6 b53b a2a1 a43a 941d 66ba c2fc 2c3b
000001f0: 7d04 c83b 62a7 aebb 27bb 853a fc0f 46bd
00000200: d8bf 63bd 481b 903b c166 273b b4e6 1dbc
00000210: b27f 0abd b18b 13bb 2892 73bd 49a2 e8bc
00000220: f63f 1b3b f40c 76bc 5b74 9b3c fe15 8d3c
00000230: 1132 03bd 7040 21bd 6bbb 993c 3e24 dcbb
00000240: 9526 9abc 4a86 20bd 803a 163d 9916 a53c
00000250: ab49 253d 1436 193d f376 0d3d 7720 c139
00000260: 1c57 e33c 2646 0d3c 9196 3c3c f79f b3bb
00000270: dc06 16bd c26e 493d 88b5 453d 55ce 83bc
00000280: 8c04 74bc 2780 a93c b3f6 3e3d 5aca 173c
00000290: d133 463a 7118 20bd 8afc fabc 5f21 edbc
000002a0: 474a 07bd a65e 693d 3c4e 023b 4ae7 f6b9
000002b0: ce2a 153b b3c7 37bc 40d8 d53b 1e58 a6bc
000002c0: 74aa 2c3c d509 e0bb fbad e9bb 4c9b c6bc
000002d0: 2161 b3bc 3f61 b9bc e158 97bc 2f10 41bc
000002e0: 9808 0e3a e6bb 823c b8ff 2bbc 2445 0dbd
000002f0: 3a25 cc3c 3c06 2cbc cb9d 7e3c c818 1c3d
00000300: a2e0 d63b a145 adbc 4309 d53c c5c9 acbc
00000310: 3e05 04bd 825f b2b9 0ee0 d4bc d552 b03c
00000320: 72e4 ae3b 3282 c0bb 5746 893b 829a 41bc
00000330: 90c0 0ebd 910b 283c 1097 b1ba e31f 88bc
00000340: d377 f8ba 713d b7bc f013 bf3c c5b6 67bc
00000350: 5288 b0bc fbe6 0fbd a8ef 9b3c baa7 b8bc
00000360: f54d 6d3b 3bbf 273b 13f6 d7bc aecb f0bc
00000370: e8a9 c9bc 801a 0bbd b4cc c33c 9d1b de3c
00000380: 5a84 823c b2d8 053b cf8f ebbc 0a1c 47bc
00000390: 3f5f edbc 7284 b1bc 625e bfbc 6740 29bb
000003a0: d97a 03bc d1b4 e0bc dd77 04bc e41c 0dbc
000003b0: cc7a c6bc 94f2 573b bae1 a13b b0cb 87bc
000003c0: 9e8c 06bb 8b68 edbc fa79 1bbd bff8 f1bc
000003d0: 269b f53b e09b 21bd ba76 72bc 6715 a43b
000003e0: 4cd2 943b dab6 d23c 830c 96bc dc43 24bd
000003f0: 27a1 9ebc b646 2cbd 999d 3e3c af65 c5bb

bias f4 [64]
-0.038960572 -0.038800787 -0.04652047 -0.06631673 -0.04317555 0.010751478 -0.063163005 -0.062021576
0.03140864 -0.04500736 -0.035430092 -0.047945626 -0.0052446653 -0.019342223 -0.008637775 -0.011009243
-0.045493476 -0.01160019 -0.078941904 -0.07344625 -0.02878918 -0.09190253 -0.0013126567 -0.036033716
-0.0553916 -0.09553505 -0.019796167 -0.063011974 -0.030326549 -0.040465686 -0.038623024 0.010915827
-0.00022998164 -0.011053717 -0.014055997 0.002920973 -0.04842881 0.016197152 0.040515993 0.012916459
-0.077052 -0.07741596 -0.05536165 -0.066347644 -0.0027192442 0.026986726 -0.0044553494 -0.041526925
-0.028104452 -0.023509013 0.015840294 -0.07921805 -0.079619534 -0.011640317 0.012067015 -0.09987894
-0.049086478 0.025417691 -0.025423745 -0.059381146 -0.03991088 -0.032970525 0.037365444 0.0062556346
00000000: 1f95 1fbd 93ed 1ebd 408c 3ebd 11d1 87bd
00000010: d8d8 30bd f826 303c 9b5b 81bd 560a 7ebd
00000020: 59a6 003d a359 38bd 251f 11bd a262 44bd
00000030: 71db abbb 9573 9ebc 7485 0dbc 1d60 34bc
00000040: 5e57 3abd b90e 3ebc 4bac a1bd fd6a 96bd
00000050: 49d7 ebbc 6537 bcbd 730d acba 1798 13bd
00000060: 4de2 62bd e1a7 c3bd 922b a2bc 6c0c 81bd
00000070: 626f f8bc 59bf 25bd 2d33 1ebd 4cd8 323c
00000080: 3a27 71b9 a61a 35bc 204b 66bc cc6d 3f3b
00000090: 4a5d 46bd e4af 843c 19f4 253d 8e9f 533c
000000a0: 70cd 9dbd 428c 9ebd e6c2 62bd 46e1 87bd
000000b0: 5935 32bb 4413 dd3c 2efe 91bb 2318 2abd
000000c0: 4f3b e6bc f995 c0bc 81c3 813c 133d a2bd
000000d0: 910f a3bd 07b7 3ebc bbb4 453c 548d ccbd
000000e0: e70e 49bd c338 d03c 7545 d0bc a539 73bd
000000f0: 9779 23bd 1a0c 07bd 820c 193d 11fc cc3b

weight f4 [64, 1024]
-0.0015961337 -0.026778942 0.0039766286 0.023835236 0.019675665 0.0015540292 0.0062471805 -0.014004606
0.032567117 0.01709229 0.018188424 0.02404944 -0.026507827 -0.023145016 -0.0077789193 0.002126969
-0.033523872 -0.017996408 -0.015037213 0.028390808 -0.0003890391 0.003292661 0.013078943 0.018016476
0.009504039 0.023126677 -0.022805123 -0.014406713 -0.033306763 -0.015807535 0.03967083 0.04273204
0.010937493 -0.059440766 -0.0073283105 -0.006258778 -0.020871235 0.0014949187 -0.03010414 -0.016929857
0.023940517 0.03023856 0.04035555 0.04034809 -0.024309168 -0.0048394087 0.0028768398 0.05110165
-0.012239487 0.0061506378 0.008174962 -0.0351131 0.049066287 0.0315666 0.022244751 0.04366832
-0.0123892985 0.05804741 0.018273313 0.026103383 0.021028092 -0.0028207551 -0.021101842 0.0005419854
-0.002032313 -0.016419364 0.016819747 0.0062702126 0.04339999 0.0018376292 0.019232204 -0.032574046
-0.023376733 -0.01889147 0.012280984 -0.004750134 0.04082685 -0.0015889675 0.016049527 0.01482922
-4.1465308e-05 0.03583351 0.023280974 -0.005213126 -0.022914866 0.0013930688 -0.025787624 0.024638196
-0.00379973 0.0036804206 -0.00616468 -0.012149797 0.0046547144 -0.023372058 0.00014412643 -0.034281023
0.037721813 -0.0050082705 -0.015217389 -0.011888442 0.030585809 0.0043199584 -0.008540889 0.0117171
-0.027519027 -0.019831277 0.029090365 -0.013001364 0.017752185 0.004079682 0.012789944 0.014992071
-0.00998856 0.0047852225 -0.02196413 0.017277103 0.03024158 -0.032223497 -0.011745698 0.015375156
0.024982115 -0.024040552 -0.0052276943 -0.015815172 -0.023641068 -0.011137918 0.004294045 0.01821692
0.015487169 0.012753846 -0.025139935 0.02011027 -0.018890472 -0.010732537 -0.026649788 0.03001664
0.027689844 0.010156753 -0.016908234 0.011884792 -0.015309439 -0.014689036 -0.012669444 -0.0056568864
-0.023360651 -0.0019592752 -0.03471127 0.017285151 -0.014565638 -0.0066066026 -0.006817392 0.0044191494
-0.0016030141 0.023111187 0.02134698 0.028464776 -0.03152912 -0.027622469 0.029793995 -0.009146232
0.027839895 0.00920745 -0.0073573887 0.0016512537 -0.02899879 -0.018228717 0.00066462654 -0.027882956
0.0119584305 0.02414737 0.016767839 -0.00876462 -0.017270738 0.001225991 0.03296836 0.0026991798
0.013225245 0.006326066 0.015772218 0.008172565 -0.0032889415 0.02446504 0.027907535 -0.016516427
0.0033218737 -0.047387462 -0.022623137 0.021470549 0.023882445 -0.016034901 -0.0016026351 -0.028973963
0.009019315 -0.011731418 0.050737966 0.031080768 0.02669056 -0.025320578 -0.021577178 -0.013152628
-0.032044888 0.031483814 0.038651023 -0.0015116534 -0.016914355 -0.0024427916 -0.002838007 0.040140092
-0.016919805 -0.021393167 0.03900537 -0.012258269 0.035647128 0.035927743 0.024079325 -0.0027813776
0.006687595 0.011323926 0.024210501 -0.009049394 -0.007919219 -0.018843133 0.023742894 -0.014189925
0.004762206 -0.031499013 -0.044876922 -0.03549802 0.0074016806 0.028137336 0.0035901952 -0.019413283
0.0037154232 -0.016189545 0.02112123 -0.027572704 -0.0022809287 -0.019737644 -0.0119211115 -0.0031511937
0.028098937 -0.023526706 0.0035522636 0.0014108215 -0.03315387 0.0061551165 0.01903428 -0.011493915
-0.01654323 -0.00015855097 0.0037277848 0.03737206 0.01701544 -0.0014890926 0.00012714797 -0.0028291137
00000000: 5c35 d1ba 835f dbbc 614e 823b 1d42 c33c
00000010: dc2e a13c 91b0 cb3a 26b5 cc3b 9373 65bc
00000020: 1965 053d 2105 8c3c e4ff 943c 5503 c53c
00000030: f126 d9bc 9e9a bdbc 4ee6 febb 9e64 0b3b
00000040: 5450 09bd 346d 93bc a55e 76bc d793 e83c
00000050: f2f7 cbb9 afc9 573b 1049 563c 4a97 933c
00000060: d4b6 1b3c 2874 bd3c cfd1 babc 220a 6cbc
00000070: ac6c 08bd ce7e 81bc e17d 223d cb07 2f3d
00000080: 2c33 333c 2978 73bd 5322 f0bb 6f16 cdbb
00000090: 27fa aabc 26f1 c33a f59c f6bc 7cb0 8abc
000000a0: e71e c43c dbb6 f73c dc4b 253d 0a44 253d
000000b0: 0524 c7bc e793 9ebb 5d89 3c3b f74f 513d
000000c0: 2188 48bc 4a8b c93b 47f0 053c c1d2 0fbd
000000d0: bbf9 483d fb4b 013d a03a b63c 8ddd 323d
000000e0: 7cfc 4abc 1fc3 6d3d eab1 953c c3d6 d53c
000000f0: 1b43 ac3c 6bdc 38bb c5dd acbc 0614 0e3a
00000100: 8e30 05bb e781 86bc 91c9 893c 5b76 cd3b
00000110: 30c4 313d 9bdc f03a db8c 9d3c 5d6c 05bd
00000120: 9080 bfbc 49c2 9abc 2e36 493c 03a7 9bbb
00000130: 0e3a 273d e744 d0ba 4c7a 833c 42f6 723c
00000140: 09eb 2db8 29c6 123d beb7 be3c dfd2 aabb
00000150: f5b7 bbbc a297 b63a 9140 d3bc 0bd6 c93c
00000160: e404 79bb 3633 713b 1501 cabb f10f 47bc
00000170: 9386 983b c276 bfbc a520 1739 426a 0cbd
00000180: 3082 1a3d 6b1c a4bb 5b52 79bc bdc7 42bc
00000190: 178f fa3c 708e 8d3b 16ef 0bbc 14f9 3f3c
000001a0: 956f e1bc 3475 a2bc eb4e ee3c ac03 55bc
000001b0: 086d 913c daae 853b ea8c 513c 4ea1 753c
000001c0: 0fa7 23bc 5bcd 9c3b 1fee b3bc b688 8d3c
000001d0: 31bd f73c c9fc 03bd 0771 40bc 14e8 7b3c
000001e0: 4ba7 cc3c b1f0 c4bc 144d abbb d28e 81bc
000001f0: eaaa c1bc d07b 36bc 0fb5 8c3b a63b 953c
00000200: e5bd 7d3c 82f5 503c 44f2 cdbc 4bbe a43c
00000210: 31c0 9abc 86d7 2fbc a850 dabc 75e5 f53c
00000220: d0d5 e23c 8268 263c 2383 8abc 6eb8 423c
00000230: 71d4 7abc 48aa 70bc 8093 4fbc 675d b9bb
00000240: d65e bfbc 2f67 00bb 682d 0ebd 9799 8d3c
00000250: b7a4 6ebc 337c d8bb 6e64 dfbb 83ce 903b
00000260: 3a1c d2ba ac53 bd3c dddf ae3c f62e e93c
00000270: ae24 01bd 8448 e2bc 8912 f43c 14da 15bc
00000280: 7e10 e43c d8da 163c 4016 f1bb e16e d83a
00000290: df8e edbc 6454 95bc 553a 2e3a cc6a e4bc
000002a0: 4bed 433c b5d0 c53c b55c 893c 7b99 0fbc
000002b0: 5d7b 8dbc 6fb1 a03a d509 073d b9e4 303b
000002c0: b3ae 583c e34a cf3b bd34 813c 39e6 053c
000002d0: 488b 57bb e86a c83c 589e e43c 754d 87bc
000002e0: cbb3 593b 5b19 42bd 2854 b9bc 01e3 af3c
000002f0: 1ea5 c33c a05b 83bc 830f d2ba ce5a edbc
00000300: c0c5 133c 2235 40bc 9dd2 4f3d 189d fe3c
00000310: 29a6 da3c 1a6d cfbc 9fc2 b0bc 1f7e 57bc
00000320: 8041 03bd 2cf5 003d 8950 1e3d ac22 c6ba
00000330: f98f 8abc 3e17 20bb dbfd 39bb f069 243d
00000340: 679b 8abc b940 afbc 18c4 1f3d e8d6 48bc
00000350: b902 123d f828 133d 0142 c53c c647 36bb
00000360: 9d23 db3b fd87 393c 1a55 c63c e943 14bc
00000370: 9dbf 01bc ea5c 9abc 7580 c23c dc7c 68bc
00000380: 480c 9c3b 1c05 01bd ddd0 37bd 5f66 11bd
00000390: cc89 f23b 4580 e63c 7b49 6b3b 9b08 9fbc
000003a0: 757e 733b f09f 84bc 6e06 ad3c 27e0 e1bc
000003b0: a27b 15bb d7b0 a1bc c450 43bc 4284 4ebb
000003c0: be2f e63c 14bb c0bc 18cd 683b 50eb b83a
000003d0: 5acc 07bd dcb0 c93b c7ed 9b3c f950 3cbc
000003e0: ab85 87bc b440 26b9 da4d 743b 7213 193d
000003f0: f763 8b3c a82d c3ba 0653 0539 a768 39bb

bias f4 [64]
-0.031865295 -0.013927364 -0.0041456604 -0.04371055 -0.0075138393 -0.007136985 0.008083338 0.010882201
-0.010629568 -0.014995141 0.0027374176 -0.02538116 0.020194886 -0.010162896 -0.012699397 0.0043709804
0.018415246 0.021642447 0.014525304 0.015923925 0.01984406 -0.01733834 -0.00094728864 -0.01801652
-0.029606134 -0.012522214 0.037269205 0.01206767 -0.046067823 -0.010540129 -0.041018285 -0.04275659
0.039294235 0.02755824 0.056364045 0.005524638 0.014051863 -0.040405307 0.015930813 0.00043855092
0.00095755095 0.011359885 -0.028057465 -0.053567886 -0.019639825 0.04577293 -0.019183138 0.06799122
-0.0028810264 -0.0045906287 -0.03178767 -0.012025752 -0.020903314 0.0015559655 -0.053674936 -0.016100327
0.03276631 -0.009717053 -0.03277721 -0.044517994 0.014219795 0.03661456 0.013164577 0.034976657
00000000: 2f85 02bd 992f 64bc 52d8 87bb d509 33bd
00000010: a736 f6bb 5fdd e9bb fa6f 043c 424b 323c
00000020: a427 2ebc 2eae 75bc 3f66 333b 27ec cfbc
00000030: bf6f a53c 4682 26bc 2211 50bc 713a 8f3b
00000040: 92db 963c 804b b13c 8afb 6d3c e472 823c
00000050: 0390 a23c 2209 8ebc 7753 78ba 6297 93bc
00000060: 9088 f2bc f929 4dbc 98a7 183d 7ab7 453c
00000070: 9db1 3cbd 81b0 2cbc ca02 28bd 8921 2fbd
00000080: fef2 203d d1c1 e13c fcdd 663d 0608 b53b
00000090: c939 663c 0980 25bd 5681 823c 4fed e539
000000a0: 2804 7b3a d01e 3a3c c5d8 e5bc 006a 5bbd
000000b0: b3e3 a0bc 657c 3b3d f525 9dbc fb3e 8b3d
000000c0: 9acf 3cbb fc6c 96bb ca33 02bd a907 45bc
000000d0: 6d3d abbc 8af1 cb3a 40da 5bbd d5e4 83bc
000000e0: f735 063d 4634 1fbc 6541 06bd 8058 36bd
000000f0: 25fa 683c 26f9 153d 3db0 573c af43 0f3d

weight f4 [10, 64]
-0.11167214 0.20546499 -0.0366996 0.016134031 -0.15401979 0.19718885 -0.17117189 -0.030947207
-0.077253066 0.3084777 -0.0782425 0.24505363 -0.11720701 -0.14507174 0.14001499 -0.014858733
0.1202258 0.1764574 0.058254655 -0.13187964 0.1535883 0.09305921 -0.11690232 0.14883721
0.14684692 0.033461623 -0.13578826 0.11986947 -0.010270976 0.15092583 0.17200989 0.11130102
-0.24372658 0.06398279 -0.1668688 -0.051412202 0.030322576 0.20200843 0.13293634 0.16714676
-0.08212276 -0.1455038 -0.08952488 0.11876962 -0.06549473 -0.095448576 -0.16874686 -0.090060204
-0.094745405 0.20805785 -0.034069967 0.16752537 0.14637446 0.13902077 -0.014009446 0.030051148
0.16083212 0.065395445 0.05297077 0.11843574 -0.061337784 0.020069815 -0.016718682 -0.028740954
0.12507997 0.25180367 -0.02992621 0.18022819 0.036731046 -0.22978358 0.006599703 0.12215943
0.20929603 0.106337436 -0.09009447 -0.0973934 0.14782186 0.13690923 -0.14256154 0.022442749
-0.18214276 -0.2943293 0.27104157 0.18394774 -0.18825503 0.188615 0.1408967 0.23934206
-0.12247402 -0.20666814 0.11968185 0.085929275 -0.17190376 -0.26859343 0.23810725 -0.06927587
0.2524668 0.044562995 -0.087571606 0.04653104 0.28262013 -0.20751965 -0.017341519 0.07731234
-0.10674068 -0.30575803 0.2277675 0.1548588 -0.08359533 0.21074249 0.024166955 -0.11443287
0.10930898 0.11373314 -0.11343675 -0.030562334 0.106293246 0.11238108 -0.25366038 0.19446357
0.006718058 0.049398903 0.10613724 0.006112127 0.26553825 0.08130934 0.09134677 0.19864887
0.12645434 -0.08624191 -0.08647572 0.1335374 0.0564515 0.18781328 -0.19661437 -0.23916942
0.13187191 0.19079933 -0.0010818879 -0.004634727 -0.09997345 0.15960333 -0.22866231 0.027721103
-0.074490994 0.26568636 -0.1976482 0.044832673 0.10299118 -0.019492347 -0.058105387 -0.13779767
-0.0994469 0.24736297 0.0003834011 -0.16809936 0.04040537 0.030356877 -0.19439472 -0.07871806
-0.16644423 0.07910281 -0.044082385 -0.06990238 -0.13837889 0.13647598 -0.0046278727 0.12276503
0.06828913 0.17351174 -0.05616176 -0.25254652 -0.087823026 -0.042248946 -0.16944776 0.063027434
-0.026407808 0.1318861 0.20587717 0.22203438 -0.025499707 0.20639405 -0.14511348 -0.15815274
-0.18682292 -0.019361395 -0.060917083 -0.1550899 0.046283737 0.044661287 -0.14079742 0.08792534
0.11278956 -0.13433352 0.06266413 -0.0113366125 -0.13158864 -0.22243032 -0.12126497 -0.10175022
0.14755872 -0.17581655 -0.10984732 0.010833043 -0.11969955 -0.048996698 -0.14137445 -0.13200471
0.20369732 -0.16413952 -0.1050513 -0.15958442 -0.07693601 -0.109295525 -0.08996641 -0.16355829
0.10302196 0.117173076 -0.03808111 -0.008927283 0.021812221 0.06363834 -0.16694577 -0.12366177
0.06066488 0.1318407 -0.13866529 -0.048662443 0.12734002 -0.076483786 -0.037786577 0.106793754
-0.1717921 -0.05638506 0.07891961 -0.045491505 0.06188028 0.058713358 -0.058094144 0.107497394
-0.11551846 -0.13541815 -0.15921235 -0.0015438398 -0.115329295 0.05578025 0.038366936 -0.20174304
-0.07751654 -0.11530305 0.07852041 0.15748799 -0.16700979 0.056062475 -0.07866209 -0.06647883
00000000: 5db4 e4bd 6a65 523e 5252 16bd 842b 843c
00000010: 5db7 1dbe e0eb 493e af47 2fbe ff84 fdbc
00000020: db36 9ebd caf0 9d3e 9b3d a0bd 57ef 7a3e
00000030: 3b0a f0bd b08d 14be 1760 0f3e 0b72 73bc
00000040: f238 f63d 40b1 343e 6f9c 6e3d 750b 07be
00000050: 4046 1d3e d495 be3d 7c6a efbd c868 183e
00000060: 0a5f 163e 0e0f 093d 140c 0bbe 207e f53d
00000070: 9947 28bc 4d8c 1a3e 5c23 303e caf1 e33d
00000080: 7693 79be 6909 833d a8df 2abe 9a95 52bd
00000090: 0d67 f83c 4cdb 4e3e 7720 083e 8528 2b3e
000000a0: fa2f a8bd f3fe 14be d258 b7bd 7d3d f33d
000000b0: 1a22 86bd 8b7a c3bd facb 2cbe 7c71 b8bd
000000c0: e109 c2bd 1e0d 553e f38c 0bbd c58b 2b3e
000000d0: 30e3 153e 765b 0e3e e087 65bc d32d f63c
000000e0: 2db1 243e 0cee 853d e1f7 583d 708e f23d
000000f0: 543d 7bbd 7469 a43c 9ef5 88bc 2672 ebbc
00000100: f714 003e 69ec 803e d027 f5bc bd8d 383e
00000110: 4b73 163d 634c 6bbe 5242 d83b b92e fa3d
00000120: b351 563e 71c7 d93d 7383 b8bd 3176 c7bd
00000130: 9d5e 173e ef31 0c3e a7fb 11be dbd9 b73c
00000140: a283 3abe 54b2 96be f6c5 8a3e cc5c 3c3e
00000150: edc5 40be 4a24 413e 3947 103e 1616 753e
00000160: a9d3 fabd d0a0 53be c21b f53d b0fb af3d
00000170: 8a07 30be 1485 89be 63d2 733e 82e0 8dbd
00000180: 5443 813e b087 363d be58 b3bd 5597 3e3d
00000190: 96b3 903e 0880 54be cd0f 8ebc ef55 9e3d
000001a0: dc9a dabd 518c 9cbe e23b 693e 4e93 1e3e
000001b0: 0734 abbd e1cc 573e c7f9 c53c c85b eabd
000001c0: 63dd df3d ecec e83d 8751 e8bd dc5d fabc
000001d0: 46b0 d93d 0d28 e63d c6df 81be 7521 473e
000001e0: 2823 dc3b 8156 4a3d 7b5e d93d 3d48 c83b
000001f0: a1f4 873e 8385 a63d 0414 bb3d 9c6a 4b3e
00000200: 3f7d 013e 999f b0bd 2f1a b1bd 07be 083e
00000210: b039 673d 2052 403e 4755 49be d4e8 74be
00000220: 6e09 073e e660 433e 22ce 8dba e8de 97bb
00000230: e1be ccbd 0e6f 233e 7426 6abe 5e17 e33c
00000240: bc8e 98bd 0b08 883e 4a64 4abe 77a2 373d
00000250: 0aed d23d 6aae 9fbc eaff 6dbd d51a 0dbe
00000260: d1aa cbbd b84c 7d3e 3903 c939 3d22 2cbe
00000270: 1a80 253d fcae f83c 690f 47be ef36 a1bd
00000280: 5b70 2abe a700 a23d bb8f 34bd fb28 8fbd
00000290: 32b3 0dbe 5cc0 0b3e 69a5 97bb 3b6c fb3d
000002a0: 2cdb 8b3d 10ad 313e e009 66bd c74d 81be
000002b0: 8fdc b3bd 3b0d 2dbd b783 2dbe 8714 813d
000002c0: 3055 d8bc 260d 073e 77d1 523e fb5c 633e
000002d0: c3e4 d0bc f658 533e a198 14be cbf2 21be
000002e0: 824e 3fbe ca9b 9ebc 3184 79bd e3cf 1ebe
000002f0: 0494 3d3d c1ee 363d 332d 10be 3312 b43d
00000300: 36fe e63d ba8e 09be 0d56 803d 33bd 39bc
00000310: 2cbf 06be c6c4 63be c559 f8bd 6b62 d0bd
00000320: a219 173e 4109 34be a2f7 e0bd 137d 313c
00000330: 0a25 f5bd c3b0 48bd 77c4 10be 3e2c 07be
00000340: 0896 503e 3114 28be 2325 d7bd 196a 23be
00000350: a090 9dbd 55d6 dfbd 4f40 b8bd d37b 27be
00000360: 2dfd d23d 70f8 ef3d f0fa 1bbd bd43 12bc
00000370: 8baf b23c d154 823d d5f3 2abe 6242 fdbd
00000380: bd7b 783d 4001 073e 46fe 0dbe 4552 47bd
00000390: 6c65 023e 88a3 9cbd 19c6 1abd afb6 da3d
000003a0: 45ea 2fbe 05f4 66bd 9ba0 a13d 4d55 3abd
000003b0: 2d76 7d3d 6b7d 703d 20f4 6dbd 9827 dc3d
000003c0: f194 ecbd 0eab 0abe 9008 23be ab5a caba
000003d0: c431 ecbd d579 643d a626 1d3d ba95 4ebe
000003e0: fec0 9ebd 0124 ecbd 4fcf a03d 8844 213e
000003f0: 9d04 2bbe c4a1 653d 9719 a1bd 0e26 88bd

bias f4 [10]
-0.1914489 -0.03980523 0.0035909272 -0.01883914 0.15279828 -0.030742334 0.050617285 -0.039781176
-0.020485412 0.0063298726
00000000: 2e0b 44be cf0a 23bd c355 6b3b 8a54 9abc
00000010: 2777 1c3e 59d7 fbbc 1254 4f3d 96f1 22bd
00000020: 06d1 a7bc d26a cf3b
