models/gpu_train_model18.pth (torch, 587335 bytes, 10 tensors)

weight f4 [32, 3, 5, 5]
0.07421338 0.19346489 0.043918822 -0.04714724 -0.14000598 0.030967426 0.14509264 0.16858356
-0.10730913 -0.1000438 0.0607436 0.13339868 -0.0001822946 -0.060774397 -0.035824835 0.03569886
-0.11847121 -0.106748745 0.018607171 0.21117505 -0.15800546 -0.13626564 0.09602839 0.096197225
0.1617107 0.12987071 0.13998294 -0.07134808 0.012777291 -0.11513757 0.16821836 0.028456612
0.051754013 -0.13949732 -0.047711577 0.06916118 0.04965336 0.030335622 -0.05029412 -0.08150895
-0.098290145 -0.17393644 -0.012224674 0.08547233 0.2136875 -0.10463269 -0.040303297 0.058112778
0.058772296 0.1159695 0.09123756 0.101425596 -0.1649346 -0.21113059 -0.13710953 -0.032738887
0.03385322 -0.035561614 -0.22849084 -0.21344143 -0.05093181 -0.016583577 -0.07732154 -0.054674998
-0.01300783 -0.11000496 -0.05471806 -0.17366005 0.10925712 0.08731848 -0.1856419 0.012555121
-0.026486214 -0.04424337 0.009217614 0.13062088 -0.044888902 -0.15044604 -0.030942263 -0.09255241
-0.10418497 -0.18910076 -0.2752693 0.029199438 0.14932427 -0.20513903 -0.16975373 -0.12772496
0.19534431 0.08997647 -0.005497646 -0.19124793 0.05009646 0.10974135 0.09009579 0.04496304
-0.19635092 0.1041084 0.12766507 -0.08945828 0.17951912 -0.10047106 -0.081438705 0.023547476
0.16428857 -0.05467851 -0.021001598 -0.20874475 0.14605696 0.18054928 -0.112081885 0.037677653
-0.049805995 0.17447965 0.118732385 0.049435392 -0.14858115 0.20160273 0.21577768 0.088938355
0.02124891 0.0105041405 0.17052896 0.058215767 0.014480886 0.14044818 -0.036126964 -0.22654732
-0.057282764 -0.029155595 -0.028652444 -0.061683 -0.10388213 0.08079901 0.06565778 -0.15529072
0.0033671912 0.062739424 0.12036398 -0.025871525 -0.16625494 -0.14124173 0.06939814 0.0057410197
-0.010512362 -0.12720314 -0.021601541 0.018587058 0.13029702 -0.01882747 -0.09460842 0.13812186
0.08691032 0.011895197 0.024405453 -0.15274665 0.2036493 0.17111504 -0.10014527 -0.023656955
-0.1028626 0.15374549 0.17375496 0.0014479631 0.14523304 0.07127473 0.20418598 0.0010647833
0.043272004 0.19901936 0.09015105 0.1107898 0.117504686 0.0022381425 0.15602575 -0.046754267
0.04218957 -0.044745933 -0.07583179 0.12436014 -0.062090106 0.0034799124 -0.022578789 0.058280762
0.061879873 -0.16288404 0.009686358 -0.014246391 -0.15132362 0.05801929 -0.10281526 -0.06479721
-0.12265944 -0.019127673 0.14349326 -0.0038871916 0.021138588 0.039551876 0.075629205 -0.0050080772
-0.059079524 -0.0688653 -0.04359632 0.039021164 -0.11717535 -0.20657672 0.022655109 -0.12704018
-0.16528769 0.021118335 -0.2600162 -0.01017629 -0.088407375 -0.123377845 0.06294388 -0.10401857
-0.061966676 -0.106031865 -0.020779815 0.0039006795 -0.19399911 0.045055408 -0.15085608 0.057756323
0.028048957 0.09036735 -0.08495832 -0.07265209 -0.07628762 0.10581165 -0.021287283 0.09027685
-0.077583745 0.021571329 0.074482836 0.10968004 -0.016193658 0.08802499 -0.061029088 0.09860136
-0.13030514 0.12938394 0.094818026 0.20018531 0.08892913 0.00028080284 -0.08105712 0.106030375
0.109716386 -0.049575333 -0.08446691 -0.16486931 0.053824935 -0.015654145 0.08904001 0.12820622
00000000: 2ffd 973d a91b 463e 39e4 333d 771d 41bd
00000010: ba5d 0fbe 66af fd3c 2a93 143e 2ba1 2c3e
00000020: e4c4 dbbd c4e3 ccbd 48ce 783d aa99 083e
00000030: 5626 3fb9 93ee 78bd 10bd 12bd f838 123d
00000040: 09a1 f2bd 169f dabd 116e 983c 463e 583e
00000050: 2fcc 21be 3889 0bbe 88aa c43d 0d03 c53d
00000060: 7d97 253e d4fc 043e b057 0f3e f11e 92bd
00000070: d857 513c 3fcd ebbd 6f41 2c3e d71d e93c
00000080: 04fc 533d 63d8 0ebe 376d 43bd 60a4 8d3d
00000090: 5261 4b3d 6982 f83c 3501 4ebd 2aee a6bd
000000a0: 584c c9bd 651c 32be 004a 48bc 1e0c af3d
000000b0: e5d0 5a3e aa49 d6bd 1215 25bd aa07 6e3d
000000c0: 38bb 703d 6b81 ed3d c2da ba3d 39b8 cf3d
000000d0: 9ee4 28be 9e32 58be 7166 0cbe 3619 06bd
000000e0: ada9 0a3d 0ea9 11bd 81f9 69be 6490 5abe
000000f0: e09d 50bd 48da 87bc c15a 9ebd e4f2 5fbd
00000100: cb1e 55bc 484a e1bd 0b20 60bd f1d3 31be
00000110: 32c2 df3d 08d4 b23d e918 3ebe ffb3 4d3c
00000120: 9ef9 d8bc 8938 35bd 7a05 173c 7bc1 053e
00000130: 6ddd 37bd 870e 1abe a17a fdbc 1e8c bdbd
00000140: ee5e d5bd a1a3 41be 19f0 8cbe a933 ef3c
00000150: 76e8 183e f70f 52be ecd3 2dbe 55ca 02be
00000160: 5708 483e 9545 b83d 9925 b4bb 7fd6 43be
00000170: f231 4d3d 13c0 e03d 2484 b83d 2a2b 383d
00000180: 3710 49be c936 d53d a2ba 023e e735 b7bd
00000190: dcd3 373e c5c3 cdbd 56c9 a6bd a3e6 c03c
000001a0: 433b 283e 93f6 5fbd 8b0b acbc 2fc1 55be
000001b0: f58f 153e e9e1 383e 308b e5bd e253 1a3d
000001c0: 5f01 4cbd cbaa 323e f729 f33d c47c 4a3d
000001d0: a825 18be f270 4e3e d3f4 5c3e 5025 b63d
000001e0: 3212 ae3c 8f19 2c3c 259f 2e3e a873 6e3d
000001f0: 3d41 6d3c a6d1 0f3e def9 13bd 05fc 67be
00000200: 55a1 6abd b7d7 eebc 88b8 eabc 50a7 7cbd
00000210: 27c0 d4bd f479 a53d 9677 863d 8804 1fbe
00000220: 18ac 5c3b 877d 803d 6481 f63d 85f0 d3bc
00000230: bc3e 2abe aca1 10be 9d20 8e3d 2a1f bc3b
00000240: 0b3c 2cbc 8a41 02be b7f5 b0bc e343 983c
00000250: 956c 053e 113c 9abc 0fc2 c1bd d16f 0d3e
00000260: 0afe b13d 13e4 423c f2ed c73c 9e69 1cbe
00000270: 7189 503e c838 2f3e f718 cdbd 3bcc c1bc
00000280: a0a9 d2bd 756f 1d3e d2ec 313e 94c9 bd3a
00000290: f8b7 143e 7cf8 913d 2116 513e 3390 8b3a
000002a0: fc3d 313d bbcb 4b3e 1da1 b83d c3e5 e23d
000002b0: 4ca6 f03d cdad 123b 37c5 1f3e 6781 3fbd
000002c0: f8ce 2c3d 8347 37bd b34d 9bbd 87b0 fe3d
000002d0: 3252 7ebd 3e0f 643b 27f7 b8bc cfb7 6e3d
000002e0: c075 7d3d 13cb 26be 88b3 1e3c b269 69bc
000002f0: 94f4 1abe a3a5 6d3d cf90 d2bd 66b4 84bd
00000300: df34 fbbd a3b1 9cbc e6ef 123e 41c0 7ebb
00000310: d52a ad3c 2601 223d 7ce3 9a3d cc1a a4bb
00000320: 5ffd 71bd 4009 8dbd 0e92 32bd a8d4 1f3d
00000330: a1f9 efbd d988 53be 3597 b93c d216 02be
00000340: 2d41 29be 5c00 ad3c d820 85be 74ba 26bc
00000350: ed0e b5bd 86ad fcbd b9e8 803d b007 d5bd
00000360: c5d0 7dbd 3c27 d9bd 6e3a aabc 8ba2 7f3b
00000370: b4a7 46be 058c 383d 047a 1abe e591 6c3d
00000380: edc6 e53c 8412 b93d a1fe adbd 9eca 94bd
00000390: af3c 9cbd c7b3 d83d ab62 aebc 12e3 b83d
000003a0: 3ae4 9ebd 5bb6 b03c 758a 983d ee9f e03d
000003b0: 90a8 84bc 7246 b43d a3f9 79bd 83ef c93d
000003c0: b66e 05be 397d 043e f42f c23d 61fd 4c3e
000003d0: 7a20 b63d b838 9339 4601 a6bd 7426 d93d
000003e0: fcb2 e03d 810f 4bbd fdfc acbd 80d3 28be
000003f0: 8977 5c3d 1f3d 80bc 9c5a b63d 7e48 033e

bias f4 [32]
0.07937232 0.061331626 -0.021370314 -0.18023755 -0.08563565 0.12584156 0.18273503 0.13015991
-0.07933606 0.028699355 0.18674755 -0.31141376 -0.30726957 0.100965045 -0.12925893 -0.28900257
-0.22159795 0.052534 0.21825266 -0.17441407 -0.13053776 -0.35125202 -0.031739753 -0.10942886
-0.060903765 0.035902523 -0.043728106 -0.14001895 -0.06945755 -0.044745136 0.057686713 0.072146416
00000000: f48d a23d df36 7b3d cc10 afbc 3190 38be
00000010: be61 afbd 9cdc 003e e41e 3b3e a448 053e
00000020: f27a a2bd e91a eb3c c03a 3f3e a071 9fbe
00000030: 7052 9dbe c3c6 ce3d 745c 04be 25f8 93be
00000040: 93ea 62be e42d 573d a07d 5f3e 9a99 32be
00000050: b1ab 05be 4ed7 b3be 8b01 02bd 3d1c e0bd
00000060: 3a76 79bd 860e 133d 3e1c 33bd 2161 0fbe
00000070: c33f 8ebd ad46 37bd e748 6c3d 80c1 933d

weight f4 [32, 32, 5, 5]
-0.02377719 0.016553184 0.013420201 -0.0024105296 0.029920617 -0.0069211097 -0.010616494 0.045810178
0.019829541 0.058437344 0.00041088008 0.030189728 0.05954661 0.026631929 -2.466246e-05 0.008173641
0.047213 0.06289519 0.049017712 0.023844007 0.020923285 0.02623504 0.01634231 0.0223154
0.030435452 -0.0053087696 -0.03023885 -0.0071903854 0.024797164 0.04192626 0.015150203 0.0051281773
-0.016253842 0.009261327 0.057493526 0.0026423058 -0.007735305 0.02622579 0.061597865 0.0642352
-0.06601236 -0.044714987 0.02375311 -0.0032197156 0.00843697 -0.025745675 -0.03862122 0.040439315
0.022872198 0.028119583 0.015333621 -0.028363056 -0.026925929 0.0066511645 -0.01747966 0.011324523
-0.068782926 0.0013288654 0.033999827 -0.008774509 -0.062246393 -0.03014083 -0.04087801 -0.014678861
-0.01745589 -0.028880684 -0.057868328 -0.038269054 0.031219374 -0.026210241 -0.025923269 -0.0047943704
-0.0008023823 -0.01495199 0.017711578 -0.03443437 0.009766589 0.0144535 0.018915843 0.002094413
0.0018337992 0.0026107952 -0.017953733 -0.010937033 -0.018173296 -0.039764103 -0.013632949 -0.01228161
0.022384014 0.022681275 -0.021809014 -0.033944834 -0.04700602 -0.007034611 -0.011208012 -0.019254602
-0.0072384477 0.009584815 0.026635267 0.02479649 0.031421553 0.044430807 -0.0243493 0.021021446
-0.025971273 0.0153300995 0.034037035 0.040166136 0.0021512588 0.008297539 0.0041338177 0.053216524
0.007045486 -0.004338877 0.026760079 0.022635048 0.025717942 -0.015322644 -0.044975508 -0.010906856
-0.016842442 0.00969825 -0.022925265 -0.04419866 -0.011760078 0.053976078 -0.0066122552 0.024283186
0.0003676621 0.009128821 0.04596842 0.022566805 0.027880203 0.02298855 0.00798563 0.038341746
0.015211114 0.038094796 0.0066025625 -0.0064770035 0.05194365 0.002426807 0.0066489647 -0.029126668
0.013118768 0.031354476 0.025115438 0.011708963 -0.0053880233 -0.0063669765 -0.012305916 0.026369393
0.021790039 0.06963089 0.009057533 -0.011121605 0.052307636 0.04800874 0.07036757 0.049465768
-0.014770936 0.06535949 0.033399794 0.042691644 0.073858924 -0.019841911 0.034204338 0.029968552
0.06855256 0.04738728 0.0027152048 -0.032937553 0.010283321 -0.033496637 -0.010899545 -0.00047535344
0.018257184 0.008268638 0.031751733 0.02961203 0.04002559 0.017241484 0.054445818 0.048679776
0.02673713 -0.0021327932 0.024060523 0.028072448 -0.015245565 0.006897885 0.038459606 -0.005142947
-0.010687772 -0.019313803 -0.015854951 -0.0071224007 0.00999617 -0.05136687 -0.03564276 -0.04101281
0.0023624029 -0.013954893 0.0031848766 -0.012972263 0.011621179 -0.021406358 -0.017611342 -0.020514151
0.021078933 -0.0136223845 0.028183596 0.011790505 -0.0013906694 -0.022952149 0.032829396 0.00028571312
0.034844533 0.02601181 0.015789434 0.0038965885 -0.0037191678 -0.038655657 0.009627673 -0.0053328844
-0.043066747 0.02398228 -0.025579471 -0.012952276 -0.042063992 -0.025550822 -0.00176064 -0.046269033
-0.01410562 -0.05390634 -0.023783648 0.0024689748 -0.055626374 -0.044988316 0.008401785 -0.018368421
0.019705083 -0.03490221 -0.013212749 0.008149104 -0.012998783 -0.02593641 -0.053513724 -0.0057287975
0.013763564 -0.033567276 0.03595836 0.0018574405 -0.01027358 -0.0076397443 0.043333184 -0.0015472501
00000000: 62c8 c2bc 8b9a 873c 67e0 5b3c faf9 1dbb
00000010: 151c f53c 7aca e2bb cef0 2dbc 74a3 3b3d
00000020: 9071 a23c ff5b 6f3d 646b d739 7350 f73c
00000030: 25e7 733d 342b da3c 3be2 ceb7 bcea 053c
00000040: 6b62 413d 32cf 803d ccc6 483d 8254 c33c
00000050: 4f67 ab3c deea d63c 4fe0 853c c9ce b63c
00000060: c553 f93c 30f5 adbb 77b7 f7bc 539d ebbb
00000070: 6c23 cb3c dfba 2b3d 8f38 783c 450a a83b
00000080: c726 85bc d2bc 173c 557e 6b3d 892a 2d3b
00000090: 7178 fdbb 78d7 d63c 0b4e 7c3d bf8d 833d
000000a0: 7d31 87bd 1027 37bd e295 c23c dd01 53bb
000000b0: 383b 0a3c 98e8 d2bc 4931 1ebd b2a3 253d
000000c0: 7a5e bb3c 0a5b e63c de39 7b3c a459 e8bc
000000d0: c493 dcbc 03f2 d93b 8131 8fbc 7e8a 393c
000000e0: 10de 8cbd 532d ae3a 6743 0b3d f5c2 0fbc
000000f0: 13f6 7ebd e7e9 f6bc b36f 27bd 9b7f 70bc
00000100: a8ff 8ebc 2f97 ecbc 5707 6dbd 03c0 1cbd
00000110: c6bf ff3c dcb6 d6bc 095d d4bc 181a 9dbb
00000120: f756 52ba 31f9 74bc df17 913c 0e0b 0dbd
00000130: 0b04 203c 5fce 6c3c 66f5 9a3c 6b42 093b
00000140: 175c f03a e019 2b3b b513 93bc 3e31 33bc
00000150: 2ae0 94bc afdf 22bd bc5c 5fbc ce38 49bc
00000160: ae5e b73c 15ce b93c d1a8 b2bc bd09 0bbd
00000170: 6289 40bd 9882 e6bb cfa1 37bc d4bb 9dbc
00000180: 8030 edbb a109 1d3c 3432 da3c 0222 cb3c
00000190: e3b3 003d 14fd 353d 2f78 c7bc 2b35 ac3c
000001a0: b5c1 d4bc 192b 7b3c 6b6a 0b3d 3f85 243d
000001b0: 22fc 0c3b 67f2 073c fa74 873b 92f9 593d
000001c0: d2dd e63b 232d 8ebb f437 db3c 236d b93c
000001d0: 6fae d23c d40b 7bbc 3d38 38bd abb2 32bc
000001e0: 29f9 89bc 69e5 1e3c c4cd bbbc a709 35bd
000001f0: 58ad 40bc 0516 5d3d 9eab d8bb 88ed c63c
00000200: c6c2 c039 0d91 153c 6249 3c3d 05de b83c
00000210: 0665 e43c 7c52 bc3c 29d6 023c 3c0c 1d3d
00000220: 0938 793c 4a09 1c3d 4f5a d83b 0b3d d4bb
00000230: ddc2 543d 110b 1f3b 8fdf d93b 0d9b eebc
00000240: 1af0 563c 8d6d 003d e4be cd3c f3d6 3f3c
00000250: 048e b0bb 12a2 d0bb c19e 49bc a004 d83c
00000260: 0681 b23c a49a 8e3d 0c66 143c 6437 36bc
00000270: 8840 563d d0a4 443d df1c 903d 9e9c 4a3d
00000280: cc01 72bc 32db 853d 39ce 083d 6fdd 2e3d
00000290: 5943 973d 818b a2bc d919 0c3d 9c80 f53c
000002a0: 4965 8c3d 2a19 423d 94f1 313b 87e9 06bd
000002b0: 607b 283c c533 09bd 0194 32bc dc38 f9b9
000002c0: 1790 953c 2e79 073c 1b0e 023d ee94 f23c
000002d0: e0f1 233d 033e 8d3c 9402 5f3d 7264 473d
000002e0: d307 db3c 55c6 0bbb 931a c53c 31f8 e53c
000002f0: 89c8 79bc a707 e23b d287 1d3d 2b86 a8bb
00000300: c41b 2fbc fb37 9ebc 3ee2 81bc 0763 e9bb
00000310: fac6 233c 1166 52bd 25fe 11bd 0cfd 27bd
00000320: 8bd2 1a3b 10a3 64bc 5db9 503b 9d89 54bc
00000330: c266 3e3c 635c afbc a945 90bc 4b0d a8bc
00000340: baad ac3c 6c30 5fbc 49e1 e63c f62c 413c
00000350: 1f47 b6ba 2506 bcbc 1e78 063d c4cb 9539
00000360: 24b9 0e3d b816 d53c d858 813c e85d 7f3b
00000370: 48bd 73bb 6555 1ebd 63bd 1d3c 7abf aebb
00000380: c266 30bd 7d76 c43c 0a8c d1bc c835 54bc
00000390: 4b4b 2cbd f54f d1bc 46c5 e6ba 9984 3dbd
000003a0: 421b 67bc e5cc 5cbd edd5 c2bc 86ce 213b
000003b0: 7bd8 63bd ab45 38bd a4a7 093c 5f79 96bc
000003c0: 8e6c a13c 9ff5 0ebd 497a 58bc d283 053c
000003d0: d9f8 54bc 9878 d4bc 3531 5bbd a3b8 bbbb
000003e0: 9280 613c d77d 09bd 1349 133d 5c75 f33a
000003f0: 8552 28bc d256 fabb 237e 313d 19cd caba

bias f4 [32]
0.01764502 -0.1844953 0.03828819 -0.019414255 -0.09942008 0.044103723 -0.029118942 -0.12530908
0.01535972 -0.08601367 -0.1073746 0.08167545 -0.09061322 -0.0467645 -0.115236424 -0.106146455
-0.057077557 -0.11353203 -0.046898507 -0.13692003 0.011760983 -0.08670453 -0.05999772 0.007343025
0.030875439 0.041454434 -0.17782451 -0.2002055 0.044334743 -0.10123274 -0.04837729 -0.15066957
00000000: 4a8c 903c 56ec 3cbe 14d4 1c3d a50a 9fbc
00000010: c19c cbbd 1ba6 343d d98a eebc 0651 00be
00000020: 56a7 7b3c ef27 b0bd 37e7 dbbd 7545 a73d
00000030: 6d93 b9bd 228c 3fbd 1301 ecbd 5063 d9bd
00000040: 28ca 69bd 7b83 e8bd a618 40bd c434 0cbe
00000050: 23b1 403c 2592 b1bd 2bc0 75bd c29d f03b
00000060: 7dee fc3c 20cc 293d a117 36be ac02 4dbe
00000070: 5998 353d 1c53 cfbd 4427 46bd 2049 1abe

weight f4 [64, 32, 5, 5]
-0.027997933 -0.034307614 -0.042718142 -0.045961156 -0.013490069 0.039376546 0.014888565 -0.015869845
-0.020005837 -0.01213123 -0.028325347 0.01784816 -0.02198443 -0.012096291 0.007353424 0.012846416
-0.031476375 0.011425882 0.0015119549 0.06679652 0.008108715 0.038011618 -0.000844137 -0.031346355
0.02172992 0.08192445 0.035435427 -0.044770353 -0.029106107 -0.04267331 0.040673986 -0.0047885817
0.0031269996 -0.023830462 -0.018630598 -0.019482486 0.013153469 0.019279335 0.042225055 0.037552524
-0.008189562 0.0052034543 -0.00011546402 -0.008371518 -0.032427575 0.0020765513 0.02739023 0.05664134
-0.019391488 -0.012501863 0.028172445 -0.016418237 -0.029352196 -0.04710207 0.023589512 0.036486
0.009458203 0.044002738 -0.0008454675 -0.029277185 0.019278979 0.013292954 -0.003348162 0.032090634
0.029875549 -0.025509523 0.00017604356 0.0098561 -0.012647037 0.005253589 -0.042220715 0.015909895
0.0372116 -0.031198032 -0.0268716 -0.012644049 0.01804484 0.009833644 0.014368964 0.030956006
0.024841033 -0.003146015 0.015084212 -0.0058245766 -0.020147286 0.0075847157 0.0014891581 -0.028325913
-0.007244659 -0.013643185 0.0358946 0.03014957 0.022886842 0.0056203036 0.00696637 -0.036102016
-0.03353796 0.0071636545 -0.03463673 0.010163388 -0.0009960525 -0.0063771387 -0.012271711 -0.025194509
-0.037860557 0.052032482 -0.00814013 0.009150673 0.017115392 0.002730912 0.039573394 0.0065120095
-0.028925035 0.019933924 -0.026458273 -0.031123469 -0.012462161 0.008561434 0.042350486 -0.021812368
0.006745576 0.0050710076 0.0027336061 0.004137879 0.0019606634 -0.0039535705 -0.0035472382 -0.04792664
-0.058289934 0.002599586 0.0035815951 -0.009206282 -0.035082433 -0.010835469 -0.06277015 -0.0246705
-0.0005380157 -0.020622998 0.017643968 0.02180135 -0.03185636 -0.045169253 0.0185701 -0.008571405
-0.021187404 -0.045292735 0.03526268 0.020672152 0.038275633 0.039150782 0.03520087 -0.0024747797
0.025343519 0.007257367 0.014155778 -0.012024916 -0.038974572 0.048980203 0.04627335 -0.0099172
-0.017901024 0.020894315 0.051888876 0.0066922735 0.005422641 -0.043878417 -0.030294374 -0.031556543
-0.043545324 0.06350057 0.00567862 0.0006492585 0.0025284034 -0.013761904 0.012275228 -0.019332191
0.0018408527 -0.006981824 -0.004257062 -0.022958037 -0.015271621 -0.024829557 -0.01970788 -0.0073895543
0.004639822 0.017726611 -0.011681704 -0.031338762 0.026384283 -0.009262954 0.018412584 0.03471644
0.010915545 -0.020732373 0.029696265 -0.016922215 -0.036203556 0.0028110999 -0.022809943 0.028297998
-0.0027776933 -0.0072235963 -0.0011857137 -0.014346035 -0.040487733 0.016901938 -0.00995728 -0.025380598
-0.008290618 -0.02484284 0.024861306 -0.016760591 -0.023120275 -0.03737863 0.019091252 -0.012544756
-0.003257094 -0.00922288 -0.030465225 -0.027846133 -0.025284786 -0.031811763 0.028149597 0.027595626
0.019142183 -0.0020455574 -0.03298478 -0.010287231 -0.030485904 -0.021687485 -0.022762856 -0.0047665727
-0.006637083 -0.030360844 -0.0034973419 -0.015940452 -0.025170306 0.0006970727 -0.0043362984 -0.022178425
0.0034706823 -0.032219574 -0.04391509 -0.036117937 0.01564204 -0.044066556 -0.018123847 0.0058752084
0.00035867322 0.02968795 -0.01649681 -0.044594698 -0.022212673 -0.04469701 0.007952547 0.0003063371
00000000: ec5b e5bc 2486 0cbd 38f9 2ebd c441 3cbd
00000010: 7305 5dbc 4d49 213d 2bef 733c 7a01 82bc
00000020: 48e3 a3bc 11c2 46bc 8f0a e8bc 4e36 923c
00000030: b118 b4bc 862f 46bc fef4 f03b c679 523c
00000040: 5fed 00bd 9f33 3b3c ca2c c63a 9dcc 883d
00000050: 6ada 043c 12b2 1b3d 1349 5dba 0965 00bd
00000060: f202 b23c 02c8 a73d bd24 113d 1e61 37bd
00000070: ee6f eebc 35ca 2ebd c499 263d 89e9 9cbb
00000080: 59ee 4c3b 1a38 c3bc 329f 98bc bc99 9fbc
00000090: a681 573c b2ef 9d3c 2ef4 2c3d add0 193d
000000a0: 832d 06bc bd81 aa3b 4625 f2b8 b128 09bc
000000b0: c7d2 04bd c016 083b 7a61 e03c c000 683d
000000c0: e6da 9ebc 9dd4 4cbc e6c9 e63c 8a7f 86bc
000000d0: 0474 f0bc 1aee 40bd cb3e c13c 5872 153d
000000e0: 94f6 1a3c 373c 343d 5da2 5dba b5d6 efbc
000000f0: f3ee 9d3c b1ca 593c d66c 5bbb 7871 033d
00000100: 91bd f43c 59f9 d0bc 5598 3839 7b7b 213c
00000110: 8535 4fbc 4c26 ac3b a1ef 2cbd 7855 823c
00000120: 316b 183d 0493 ffbc d421 dcbc fc28 4fbc
00000130: c6d2 933c 4b1d 213c ce6b 6b3c 7397 fd3c
00000140: 6c7f cb3c 602d 4ebb c523 773c 17dc bebb
00000150: ec0b a5bc 3589 f83b db2f c33a bf0b e8bc
00000160: 9b64 edbb aa87 5fbc 3706 133d 3bfc f63c
00000170: 307d bb3c 862a b83b 2646 e43b b5df 13bd
00000180: 1a5f 09bd 17bd ea3b 3edf 0dbd 5784 263c
00000190: fa8d 82ba 51f7 d0bb 490f 49bc b764 cebc
000001a0: ac13 1bbd 0320 553d 2e5e 05bc b4ec 153c
000001b0: 9435 8c3c 1af9 323b b617 223d b262 d53b
000001c0: 32f4 ecbc 784c a33c 05bf d8bc a5f6 febc
000001d0: 172e 4cbc 4245 0c3c b477 2d3d daaf b2bc
000001e0: fe09 dd3b b22a a63b 4d26 333b 0b97 873b
000001f0: 797e 003b f48c 81bb c878 68bb b94e 44bd
00000200: 6dc1 6ebd d15d 2a3b 32b9 6a3b f2d5 16bc
00000210: 99b2 0fbd 4087 31bc a38d 80bd ca19 cabc
00000220: 9f09 0dba 90f1 a8bc 158a 903c bf98 b23c
00000230: d17b 02bd 6503 39bd 5320 983c 146f 0cbc
00000240: 3591 adbc e084 39bd 9a6f 103d a558 a93c
00000250: e9c6 1c3d 925c 203d ca2e 103d ea2f 22bb
00000260: 369d cf3c 35cf ed3b a3ed 673c 2704 45bc
00000270: cda3 1fbd 779f 483d 2089 3d3d c07b 22bc
00000280: 2ba5 92bc 8e2a ab3c 6e89 543d dc4a db3b
00000290: 69b0 b13b dbb9 33bd e82b f8bc 6f41 01bd
000002a0: 955c 32bd 960c 823d b813 ba3b 0033 2a3a
000002b0: 92b3 253b 9c79 61bc 0a1e 493c 8b5e 9ebc
000002c0: c448 f13a c9c7 e4bb d37e 8bbb 7e12 bcbc
000002d0: d235 7abc 5b67 cbbc 6c72 a1bc 1324 f2bb
000002e0: a609 983b 6637 913c 9e64 3fbc 135d 00bd
000002f0: da23 d83c a5c3 17bc fdd5 963c d332 0e3d
00000300: 1dd7 323c f0d6 a9bc 9545 f33c 75a0 8abc
00000310: 2e4a 14bd 6e3a 383b ebdb babc 34d1 e73c
00000320: f609 36bb ebb3 ecbb f369 9bba a20b 6bbc
00000330: 77d6 25bd ef75 8a3c dc23 23bc f9ea cfbc
00000340: 5fd5 07bc 3683 cbbc f0a9 cb3c 824d 89bc
00000350: bb66 bdbc 561a 19bd 4265 9c3c 8588 4dbc
00000360: f874 55bb 901b 17bc 3592 f9bc 931d e4bc
00000370: 0a22 cfbc 0d4d 02bd fc99 e63c 3910 e23c
00000380: 11d0 9c3c c20e 06bb 0c1b 07bd c68b 28bc
00000390: 93bd f9bc f4a9 b1bc 2b79 babc e930 9cbb
000003a0: e37b d9bb 4eb7 f8bc a933 65bb 8d95 82bc
000003b0: f531 cebc c2bb 363a 8217 8ebb 87af b5bc
000003c0: 6374 633b acf8 03bd 4fe0 33bd 67f0 13bd
000003d0: bc23 803c 227f 34bd 7678 94bc d284 c03b
000003e0: 4e0c bc39 2534 f33c 5124 87bc eea8 36bd
000003f0: 5af7 b5bc 3614 37bd 664b 023c df9b a039

bias f4 [64]
-0.04834742 -0.050661378 -0.053323362 -0.08837962 -0.05840468 0.0036022295 -0.072764665 -0.06780768
0.024327435 -0.05684928 -0.03905119 -0.05894469 -0.012725754 -0.031378936 -0.0163396 -0.014860664
-0.05667293 -0.0038454854 -0.090918675 -0.08837971 -0.036532607 -0.11106595 -0.009670157 -0.043505024
-0.075191416 -0.11220348 -0.040922627 -0.084454104 -0.039806213 -0.04732319 -0.049819663 0.008256717
-0.0038443827 -0.01600817 -0.022704797 2.0535295e-05 -0.060362257 0.022057388 0.03969465 0.0019314425
-0.0848529 -0.090079665 -0.06769641 -0.080905005 -0.0168073 0.019589413 -0.019066669 -0.04699328
-0.03410615 -0.037873384 0.010255197 -0.09326206 -0.09300804 -0.017339127 0.005746106 -0.117184706
-0.05685528 0.01125901 -0.03512575 -0.068808846 -0.047513433 -0.041348763 0.03327004 0.001741812
00000000: f207 46bd 4e82 4fbd 9969 5abd 6000 b5bd
00000010: bf39 6fbd 6213 6c3b a405 95bd c1de 8abd
00000020: 544a c73c cada 68bd 24f4 1fbd fd6f 71bd
00000030: ae7f 50bc 3387 00bd a0da 85bc 247a 73bc
00000040: e021 68bd 8a04 7cbb 9233 babd 6c00 b5bd
00000050: 37a3 15bd 8b76 e3bd 946f 1ebc 5332 32bd
00000060: f5fd 99bd f0ca e5bd 7c9e 27bd 46f6 acbd
00000070: d70b 23bd f6d5 41bd b40f 4cbd 2e47 073c
00000080: 0af2 7bbb 9123 83bc 69ff b9bc 3643 ac37
00000090: 6a3e 77bd b2b1 b43c db96 223d 7528 fd3a
000000a0: 5bc7 adbd b07b b8bd 6aa4 8abd 86b1 a5bd
000000b0: 76af 89bc fa79 a03c b431 9cbc 077c 40bd
000000c0: e4b2 0bbd 1f21 1bbd 6a05 283c 2e00 bfbd
000000d0: 007b bebd c90a 8ebc d549 bc3b 89fe efbd
000000e0: 15e1 68bd b677 383c 05e0 0fbd a7eb 8cbd
000000f0: 729d 42bd 525d 29bd 2a46 083d 834d e43a

weight f4 [64, 1024]
0.0011688122 -0.027472407 0.0026029707 0.022526907 0.01857005 0.0032807444 0.006489433 -0.016081331
0.033084672 0.020634651 0.0141756255 0.024350319 -0.02372963 -0.026775878 -0.010883333 -0.000498139
-0.030052379 -0.019958131 -0.017010275 0.026161777 0.00050373236 0.0044952566 0.010958044 0.01695867
0.006045349 0.017830107 -0.02261671 -0.01118564 -0.039627768 -0.021080405 0.04081836 0.04277705
0.012001739 -0.065424 -0.007749703 -0.009441026 -0.02176622 0.002651353 -0.02988082 -0.014106113
0.026832003 0.028546449 0.041450325 0.038587924 -0.02779324 -0.008300824 0.0052181035 0.055803973
-0.00883478 0.009627258 0.0052922084 -0.039391287 0.053593025 0.026271068 0.017334094 0.05106076
-0.012487658 0.055636436 0.020460645 0.034898933 0.02479769 -0.0037734064 -0.020277636 -0.0011798315
0.0030817061 -0.0134006515 0.0148033 0.007604194 0.04453931 0.007772285 0.01901081 -0.036013987
-0.023558315 -0.021651885 0.009731465 -0.006848696 0.042706206 -0.002081591 0.018600343 0.007590421
-0.0027336818 0.036172133 0.027902823 -0.0009019562 -0.022599265 -0.0021501987 -0.023959648 0.02588106
-0.0013228724 0.0006224736 -0.006356566 -0.010515202 0.008258452 -0.024779024 -0.0012219016 -0.033736818
0.041156914 -0.008253379 -0.01800891 -0.012179253 0.030391173 0.0014741872 -0.012762142 0.0075927065
-0.029461376 -0.019729858 0.027175693 -0.011956251 0.014166791 0.0057946807 0.012880628 0.01821041
-0.016108667 0.009954697 -0.022178227 0.017108407 0.03162862 -0.031911664 -0.007405159 0.011147119
0.023379747 -0.028656296 -0.0010844846 -0.013621988 -0.020171097 -0.003926801 0.00836542 0.021820875
0.021616198 0.016048996 -0.025027461 0.029065674 -0.01902043 -0.012262812 -0.028452022 0.029426608
0.03366056 0.015526337 -0.019369107 0.0093047945 -0.017074404 -0.016412469 -0.0121077495 -0.0053327302
-0.024598528 -0.0004103214 -0.03434665 0.016777841 -0.017418742 -0.008844719 -0.007223216 0.008587239
0.00014875822 0.024906933 0.025689684 0.034925126 -0.03000189 -0.029827118 0.03302665 -0.008927855
0.028368711 0.008084887 -0.008858592 0.0050860047 -0.034228362 -0.024653206 -0.005007459 -0.032904293
0.014733267 0.021534193 0.020456403 -0.012739085 -0.013802389 0.005289316 0.03549817 0.0054488755
0.017617006 0.011245998 0.01378152 0.004028399 -0.0053352886 0.025574394 0.026472963 -0.021116512
0.003717601 -0.05467134 -0.023622433 0.016421333 0.025557525 -0.018188767 -0.0020722365 -0.032954663
0.009305798 -0.008691011 0.056093328 0.03298642 0.022172535 -0.035641853 -0.021914646 -0.017602019
-0.034673233 0.029021593 0.03834121 -0.001695444 -0.015443867 -0.007868354 -0.004312909 0.041522205
-0.015762223 -0.02144399 0.040960386 -0.009343344 0.041118376 0.03603476 0.019873913 -0.00309978
0.016044522 0.010897771 0.023513518 -0.010536467 -0.005122309 -0.01842538 0.024143502 -0.017040566
0.0037810893 -0.029782109 -0.048359394 -0.04391157 0.013816034 0.033818685 0.010171485 -0.016591527
0.008310447 -0.014454554 0.020715028 -0.028747153 -0.0006328753 -0.019107368 -0.013395328 -0.0033764818
0.031637166 -0.023569377 0.0034412423 -7.842261e-05 -0.03632481 -0.0029217445 0.0137619395 -0.0062154243
-0.019873621 -0.0022008778 0.0015361705 0.037074484 0.0199018 -0.00255565 -0.0036115278 -0.0052871057
00000000: d432 993a d00d e1bc 9a96 2a3b 598a b83c
00000010: 3820 983c c201 573b 4fa5 d43b ffbc 83bc
00000020: cb83 073d 000a a93c e240 683c 527a c73c
00000030: a464 c2bc 1659 dbbc 0250 32bc 8b95 02ba
00000040: 6830 f6bc 3c7f a3bc 2259 8bbc 3951 d63c
00000050: e80c 043a f24c 933b 5e89 333c e9ec 8a3c
00000060: 1018 c63b 7210 923c ae46 b9bc f943 37bc
00000070: ba50 22bd d0b0 acbc 2731 273d fd36 2f3d
00000080: f1a2 443c 05fd 85bd 38f1 fdbb 88ae 1abc
00000090: 124f b2bc 52c2 2d3b 9fc8 f4bc 541d 67bc
000000a0: cace db3c 3eda e93c d1c7 293d 5f0e 1e3d
000000b0: a6ae e3bc 2e00 08bc a0fc aa3b b592 643d
000000c0: c1bf 10bc a6bb 1d3c 436a ad3b c258 21bd
000000d0: 5c84 5b3d 6c36 d73c 3b00 8e3c 1625 513d
000000e0: 0999 4cbc 08e3 633d 159d a73c 2ff2 0e3d
000000f0: 8624 cb3c 414b 77bb 491d a6bc 93a4 9aba
00000100: 73f6 493b 688e 5bbc 8a89 723c 9a2c f93b
00000110: da6e 363d a7ae fe3b 8fbc 9b3c 6783 13bd
00000120: 5efd c0bc 4b5f b1bc b970 1f3c 076b e0bb
00000130: b4ec 2e3d 4d6b 08bb bf5f 983c 11b9 f83b
00000140: 9227 33bb 3b29 143d 7694 e43c 4271 6cba
00000150: 1822 b9bc 59ea 0cbb 0647 c4bc 8404 d43c
00000160: 3b64 adba 7f2d 233a be4a d0bb f447 2cbc
00000170: 754e 073c 61fd cabc 3728 a0ba 9e2f 0abd
00000180: 2794 283d 2e39 07bc 6c87 93bc 7d8b 47bc
00000190: e9f6 f83c 8439 c13a 4e18 51bc 3dcc f83b
000001a0: fc58 f1bc 83a0 a1bc 8f9f de3c 27e4 43bc
000001b0: d41b 683c 4ee1 bd3b 4509 533c ff2d 953c
000001c0: 53f6 83bc 0719 233c 1daf b5bc ee26 8c3c
000001d0: 038d 013d ceb5 02bd faa6 f2bb 68a2 363c
000001e0: e286 bf3c 9cc0 eabc 4425 8eba c22e 5fbc
000001f0: db3d a5bc 65ac 80bb 1d0f 093c b1c1 b23c
00000200: 7414 b13c 2f79 833c 6406 cdbc 231b ee3c
00000210: bcd0 9bbc f6e9 48bc 3714 e9bc 1210 f13c
00000220: a8df 093d 2d62 7e3c f6ab 9ebc 2373 183c
00000230: 9fdf 8bbc 7173 86bc 955f 46bc 2fbe aebb
00000240: da82 c9bc 6820 d7b9 13af 0cbd af71 893c
00000250: c0b1 8ebc 71e9 10bc bab0 ecbb 7eb1 0c3c
00000260: fbfb 1b39 a009 cc3c 2c73 d23c a60d 0f3d
00000270: 86c6 f5bc 0058 f4bc f446 073d 2346 12bc
00000280: 8065 e83c 7976 043c a123 11bc 80a8 a63b
00000290: 0a33 0cbd 85f5 c9bc 9c15 a4bb a7c6 06bd
000002a0: cd63 713c 7a68 b03c 3094 a73c 98b7 50bc
000002b0: 6a23 62bc 0052 ad3b 8766 113d 7b8c b23b
000002c0: 8a51 903c 2241 383c e2cb 613c a900 843b
000002d0: a5d3 aebb 6481 d13c d4dd d83c 89fc acbc
000002e0: ffa2 733b 0eef 5fbd d583 c1bc 0886 863c
000002f0: 045e d13c 9c00 95bc 5cce 07bb 78fb 06bd
00000300: 5977 183c be64 0ebc 1ec2 653d c51c 073d
00000310: 2da3 b53c 31fd 11bd 5886 b3bc 1c32 90bc
00000320: 8505 0ebd b1be ed3c ac0b 1d3d a939 deba
00000330: 4608 7dbc 45ea 00bc 4e53 8dbb 3013 2a3d
00000340: c71f 81bc 4eab afbc 14c6 273d d314 19bc
00000350: be6b 283d 2f99 133d 9ece a23c ae25 4bbb
00000360: cd6f 833c 918c 323c 6c9f c03c 25a1 2cbc
00000370: 0bd9 a7bb d3f0 96bc 98c8 c53c a898 8bbc
00000380: 27cc 773b 9cf9 f3bc 8014 46bd 9edc 33bd
00000390: a65c 623c 7685 0a3d 4da6 263c f4ea 87bc
000003a0: 8b28 083c cbd2 6cbc 90b2 a93c 267f ebbc
000003b0: 8be7 25ba 0e87 9cbc 1478 5bbc f747 5dbb
000003c0: f995 013d 9114 c1bc 7786 613b d176 a4b8
000003d0: 53c9 14bd bd7a 3fbb c279 613c c2aa cbbb
000003e0: 01ce a2bc 9a3c 10bb 5459 c93a 6adb 173d
000003f0: 1a09 a33c b17c 27bb 62af 6cbb 753f adbb

bias f4 [64]
-0.03412992 -0.015181167 -0.0025495992 -0.048700567 -0.008260252 -0.006311396 0.012362552 0.008817936
-0.014398503 -0.01657475 0.0054013496 -0.029487757 0.021261437 -0.011869692 -0.008616334 0.005078229
0.020366453 0.02166474 0.016720207 0.01510352 0.024995446 -0.016064284 0.0014305648 -0.01975699
-0.028120702 -0.0123473415 0.03949225 0.009598949 -0.04839525 -0.005998352 -0.04430779 -0.04445655
0.037296057 0.028295588 0.063974775 0.0107987495 0.013699588 -0.04178544 0.015556618 -0.0018418691
0.0012036941 0.015728762 -0.03257612 -0.055150565 -0.020643344 0.046259556 -0.01812801 0.06984202
-0.005639232 -0.0054292586 -0.031533375 -0.013314641 -0.01927792 0.0012095394 -0.052517984 -0.01640409
0.03603582 -0.012227268 -0.03535252 -0.045760926 0.010877443 0.035850484 0.016825499 0.03561127
00000000: d1cb 0bbd 6eba 78bc 2d17 27bb 3f7a 47bd
00000010: 0256 07bc d4cf cebb 4d8c 4a3c 1b79 103c
00000020: b3e7 6bbc c5c7 87bc cefd b03b 4f90 f1bc
00000030: 772c ae3c 1979 42bc 862b 0dbc 4667 a63b
00000040: 8cd7 a63c 417a b13c d1f8 883c c174 773c
00000050: 40c3 cc3c 3f99 83bc ca81 bb3a 69d9 a1bc
00000060: 635d e6bc 814c 4abc a0c2 213d e944 1d3c
00000070: 193a 46bd d38d c4bb 167c 35bd 1218 36bd
00000080: c0c3 183d 26cc e73c 3505 833d 3ded 303c
00000090: 3d74 603c 3627 2bbd 2fe1 7e3c df6a f1ba
000000a0: 46c5 9d3a 9bd9 803c 8a6e 05bd 8fe5 61bd
000000b0: 3b1c a9bc a97a 3d3d 3181 94bc 5509 8f3d
000000c0: 4fc9 b8bb ece7 b1bb 2429 01bd a725 5abc
000000d0: baec 9dbc 6889 9e3a 191d 57bd df61 86bc
000000e0: 4c9a 133d e154 48bc cecd 10bd cf6f 3bbd
000000f0: 4d37 323c f5d7 123d a1d5 893c 20dd 113d

weight f4 [10, 64]
-0.11314833 0.21736196 -0.044436265 0.011262526 -0.15922366 0.20368905 -0.18446134 -0.025382709
-0.093206406 0.3292355 -0.08114718 0.27101222 -0.1377381 -0.1412369 0.13789758 -0.01836764
0.11797356 0.19597362 0.06277723 -0.14419803 0.15496817 0.09440662 -0.12379632 0.16503642
0.14503294 0.02816726 -0.15299869 0.13850397 -0.010944865 0.15559223 0.19282743 0.12911128
-0.25449476 0.06392853 -0.18588668 -0.056593407 0.028807959 0.22421023 0.14546913 0.17805547
-0.08083937 -0.1549541 -0.09151923 0.13721763 -0.06630145 -0.10146212 -0.18469736 -0.10711319
-0.09789462 0.22842753 -0.027936827 0.1800677 0.15874429 0.14041421 -0.01788929 0.03326509
0.16242991 0.0815919 0.06094158 0.11624792 -0.05919272 0.01906591 -0.019693399 -0.042644836
0.13683513 0.25919825 -0.030395353 0.19443361 0.026888357 -0.24658588 0.0077990443 0.12993692
0.22184277 0.11286625 -0.10371826 -0.08966977 0.14609796 0.1436661 -0.16200683 0.033589236
-0.1876955 -0.31026858 0.2993049 0.19589601 -0.20560972 0.21150696 0.14836363 0.24933699
-0.12746778 -0.22722559 0.12666468 0.09183892 -0.18443845 -0.28406596 0.26211247 -0.0719677
0.2656882 0.044789758 -0.09343114 0.048196424 0.2990242 -0.21332264 -0.021672342 0.082687356
-0.11685947 -0.3300313 0.24545804 0.16099331 -0.08894933 0.22385031 0.024829362 -0.12944615
0.12405823 0.11251308 -0.121892676 -0.028445978 0.11709947 0.11504943 -0.2724941 0.20723969
-0.00490752 0.04760515 0.11610726 0.012816281 0.29178393 0.09242347 0.09811631 0.2071605
0.12841491 -0.08884807 -0.08839086 0.14951381 0.06481454 0.21387374 -0.21322729 -0.2492542
0.14303897 0.21473202 -0.0041209552 -0.00012649392 -0.100558564 0.17365393 -0.24137351 0.036696743
-0.07989995 0.29282433 -0.21272177 0.051717702 0.10557454 -0.021410145 -0.060331237 -0.1543259
-0.106642045 0.26740748 0.0038650986 -0.17609347 0.044139795 0.021596627 -0.20869158 -0.07982975
-0.16530792 0.07136705 -0.0519879 -0.083924584 -0.15824841 0.14239101 0.0014379096 0.13469586
0.08189574 0.1796544 -0.057113253 -0.28087467 -0.09737802 -0.04533267 -0.1806393 0.06073922
-0.03134703 0.1435089 0.21476017 0.23649645 -0.030969609 0.2202547 -0.15901214 -0.17078334
-0.2062081 -0.01769752 -0.064511456 -0.17088804 0.05884598 0.044116564 -0.14783455 0.10543891
0.12059007 -0.13479051 0.06412887 -0.014970803 -0.14224346 -0.2417572 -0.13407767 -0.102599904
0.15685165 -0.18485501 -0.13267209 0.012106129 -0.12519705 -0.05631326 -0.14662555 -0.15072131
0.22678883 -0.17693825 -0.11681351 -0.17044619 -0.084048174 -0.12156455 -0.10021358 -0.17999542
0.10946189 0.12148311 -0.034658603 0.003069608 0.017183937 0.06721838 -0.17077719 -0.14032035
0.07247926 0.13492812 -0.155982 -0.059559338 0.14362837 -0.0849899 -0.038075056 0.10956943
-0.18341783 -0.066812314 0.09323919 -0.051693276 0.062490225 0.070705734 -0.05395522 0.119111866
-0.123443015 -0.14339307 -0.1748899 -0.017015291 -0.13102981 0.0561815 0.04458093 -0.22227255
-0.07689692 -0.122975744 0.0904205 0.16647068 -0.17919801 0.07255978 -0.085853465 -0.068624884
00000000: 50ba e7bd 2294 5e3e cd02 36bd 7586 383c
00000010: 870b 23be dd93 503e 6fe3 3cbe 66ef cfbc
00000020: 00e3 bebd 8e91 a83e 7e30 a6bd 1dc2 8a3e
00000030: 370b 0dbe 68a0 10be 0635 0d3e bc77 96bc
00000040: 1f9c f13d 4fad 483e 5991 803d a6a8 13be
00000050: faaf 1e3e 4258 c13d ed88 fdbd 4fff 283e
00000060: 8483 143e 07bf e63c b0ab 1cbe fcd3 0d3e
00000070: 1752 33bc 9253 1f3e 8e74 453e bf35 043e
00000080: 234d 82be f6ec 823d 1459 3ebe 7dce 67bd
00000090: abfe eb3c 5e97 653e dcf5 143e 2c54 363e
000000a0: 1d8f a5bd 4aac 1ebe 6f6e bbbd c782 0c3e
000000b0: 0ec9 87bd 5fcb cfbd 4e21 3dbe 295e dbbd
000000c0: f97c c8bd e8e8 693e c6db e4bc ab63 383e
000000d0: dd8d 223e bec8 0f3e 8f8c 92bc fa40 083d
000000e0: 0754 263e a719 a73d e19d 793d 6413 ee3d
000000f0: 1174 72bd 1c30 9c3c 0d54 a1bc 5aac 2ebd
00000100: 821e 0c3e a2b5 843e adff f8bc 9b19 473e
00000110: f944 dc3c 0281 7cbe 208f ff3b 2f0e 053e
00000120: c02a 633e 6c26 e73d 3d6a d4bd c9a4 b7bd
00000130: b49a 153e 351d 133e 1ee5 25be de94 093d
00000140: 4033 40be 86db 9ebe 7e3e 993e f798 483e
00000150: 5b8b 52be 4895 583e a3ec 173e 3252 7f3e
00000160: ea86 02be d3ad 68be 63b4 013e 0b16 bc3d
00000170: 6fdd 3cbe 1871 91be 9b33 863e cd63 93bd
00000180: 4908 883e 7775 373d d358 bfbd 9d69 453d
00000190: b319 993e 4071 5abe 328a b1bc fd57 a93d
000001a0: 0554 efbd ddf9 a8be 5a59 7b3e 6edb 243e
000001b0: 112b b6bd 0439 653e f266 cb3c 888d 04be
000001c0: 3e12 fe3d 426d e63d dea2 f9bd 8a07 e9bc
000001d0: d9d1 ef3d 099f eb3d 5984 8bbe a436 543e
000001e0: 43cf a0bb 9efd 423d a5c9 ed3d 61fb 513c
000001f0: b464 953e 8448 bd3d 34f1 c83d e221 543e
00000200: 337f 033e faf5 b5bd 4406 b5bd 261a 193e
00000210: 7cbd 843d b801 5b3e 4158 5abe 7e3c 7fbe
00000220: cf78 123e b6e2 5b3e 1409 87bb 74a3 04b9
00000230: a6f1 cdbd 56d2 313e 9e2a 77be 534f 163d
00000240: 96a2 a3bd 12ed 953e bcd3 59be f1d5 533d
00000250: 7737 d83d 5464 afbc e31d 77bd 9c07 1ebe
00000260: 2567 dabd a2e9 883e 984d 7d3b d951 34be
00000270: eecb 343d 69eb b03c 3fb3 55be c87d a3bd
00000280: 7b46 29be e328 923d 44f1 54bd a7e0 abbd
00000290: df0b 22be f3ce 113e 3d78 bc3a b6ed 093e
000002a0: f4b8 a73d 53f7 373e 96ef 69bd cece 8fbe
000002b0: 216e c7bd c0ae 39bd 82f9 38be b0c9 783d
000002c0: be65 00bd fff3 123e 17ea 5b3e 202c 723e
000002d0: fab3 fdbc 738a 613e 14d4 22be d4e1 2ebe
000002e0: 3728 53be 64fa 90bc 951e 84bd 46fd 2ebe
000002f0: 7b08 713d 92b3 343d f161 17be 5bf0 d73d
00000300: edf7 f63d 8606 0abe ff55 833d 1948 75bc
00000310: 45a8 11be 338f 77be a84b 09be e61f d2bd
00000320: b89d 203e a24a 3dbe 31db 07be c958 463c
00000330: a833 00be bca8 66bd 0225 16be b056 1abe
00000340: 553b 683e 4d2f 35be ec3b efbd 7289 2ebe
00000350: 7321 acbd d6f6 f8bd c73c cdbd b850 38be
00000360: 8e2d e03d 23cc f83d 2ef6 0dbd 7a2b 493b
00000370: 54c5 8c3c caa9 893d 37e0 2ebe 23b0 0fbe
00000380: 0270 943d 992a 0a3e bfb9 1fbe 7ef4 73bd
00000390: 5113 133e 2f0f aebd 97f4 1bbd f065 e03d
000003a0: e2d1 3bbe e5d4 88bd 30f4 be3d 54bc 53bd
000003b0: c0f5 7f3d 2bce 903d 2600 5dbd ecf0 f33d
000003c0: b1cf fcbd a2d5 12be 5716 33be a763 8bbc
000003d0: ae2c 06be 931e 663d 7e9a 363d 6a9b 63be
000003e0: 227c 9dbd b5da fbbd 622e b93d 4a77 2a3e
000003f0: af7f 37be 399a 943d f1d3 afbd 348b 8cbd

bias f4 [10]
-0.19348311 -0.046232335 -0.0008689865 -0.022840718 0.165369 -0.029085744 0.05899735 -0.04436543
-0.020741137 0.0054859724
00000000: 7020 46be 1e5e 3dbd b2cc 63ba 751c bbbc
00000010: 7e56 293e 3a45 eebc 35a7 713d 86b8 35bd
00000020: 51e9 a9bc acc3 b33b
