models/gpu_train_model6.pth (torch, 587335 bytes, 10 tensors)

weight f4 [32, 3, 5, 5]
0.046995226 0.16315962 0.039458886 -0.031978454 -0.0946949 -0.019489938 0.08674103 0.13397588
-0.06752009 -0.028532278 0.023365065 0.120637536 0.0049060406 -0.050921705 -0.016596511 0.07543453
-0.03321644 -0.061465878 -0.03655688 0.1399916 -0.08070593 -0.06691068 0.09999745 0.0486972
0.1294736 0.082574576 0.105032265 -0.07286114 0.027548054 -0.07533301 0.10309892 -0.03221768
0.016995467 -0.10606158 0.013154091 0.020165717 0.034421474 0.02975629 -0.05352472 -0.076271676
-0.07342391 -0.09691644 0.023468155 0.018639693 0.13288218 -0.048454322 0.01476892 0.053484946
0.0058534914 0.07907407 0.048452504 0.08768279 -0.13925616 -0.17246397 -0.08271165 -0.088098034
-0.002415713 -0.042412598 -0.17252566 -0.13699643 -0.083227426 -0.0056998907 -0.049950417 -0.032520693
0.0133418925 -0.08461355 0.027208196 -0.1293363 0.056015704 0.018882394 -0.13428698 0.06828366
-0.026221527 -0.086206004 -0.018118223 0.06193558 -0.024714993 -0.037358616 0.011760161 -0.07049903
-0.11223592 -0.114102684 -0.1480483 0.015308809 0.13112234 -0.1511908 -0.0916723 -0.083715394
0.13538313 0.084541105 0.04104659 -0.1145475 0.014549733 0.045141 0.12763137 0.08022058
-0.14802356 0.06212704 0.115440845 0.0040977625 0.0957841 -0.10283434 -0.00010514817 0.025140978
0.14070669 -0.07748358 0.02892351 -0.11537916 0.092496604 0.123335205 -0.082454644 0.085499436
-0.03798071 0.08084356 0.08076854 0.062265284 -0.10668719 0.13653593 0.12150029 0.096921004
0.0280903 0.03277184 0.11089925 0.025525805 0.083209686 0.06921071 -0.045644622 -0.15735805
-0.06411845 -0.061156392 -0.040505193 -0.019124478 -0.017009696 0.031712577 0.013355601 -0.12230099
0.042494267 0.07406398 0.037052587 -0.055782873 -0.15058929 -0.10563095 0.012067473 -0.07638031
0.0012745509 -0.12078213 -0.0068363105 -0.036841277 0.099519275 0.043343138 -0.070638485 0.1227816
0.079955876 0.038430665 0.051096458 -0.1283638 0.15747868 0.15151337 -0.07884933 -0.025780493
-0.07898602 0.09181674 0.15362735 0.022981562 0.12182012 0.09748486 0.15470643 -0.010344015
0.0490104 0.17605384 0.11280419 0.07988974 0.10763626 0.0004915922 0.1520019 -0.027073093
0.030277671 -0.051702086 -0.06555497 0.12536691 -0.022216382 -0.016137065 -0.019440647 0.08340286
0.05105642 -0.10574557 -0.0056171934 0.008689048 -0.10553605 0.046453364 -0.053230505 -0.07565427
-0.098806284 0.004549672 0.12661959 0.026060907 0.010919435 0.04835441 0.07761319 -0.013481141
-0.05389271 -0.0868116 -0.054810632 0.03877359 -0.13591877 -0.17436731 0.008814495 -0.118838
-0.1449373 -0.0018919207 -0.20720872 -0.016158666 -0.058414754 -0.080137484 0.042577606 -0.060375016
-0.0680521 -0.079335205 0.0005327011 -0.021032136 -0.17576529 0.030090656 -0.1496429 0.04517307
-0.0016731162 0.08739376 -0.05023206 -0.059808332 -0.101514496 0.09637358 -0.0607748 0.08238909
-0.044141017 0.040744044 0.0944331 0.08603032 -0.03727056 0.108422235 -0.035064656 0.1342699
-0.097281046 0.12298677 0.051666927 0.15510769 0.07457725 0.03763982 -0.061082263 0.080049835
0.08606034 -0.036050633 -0.095006175 -0.14006235 0.05337378 -0.060191453 0.05892382 0.084240064
00000000: 117e 403d 5113 273e a49f 213d d7fb 02bd
00000010: 66ef c1bd 5da9 9fbc 48a5 b13d f930 093e
00000020: f947 8abd 86bc e9bc 1868 bf3c d010 f73d
00000030: dac2 a03b 4793 50bd 68f5 87bc 6b7d 9a3d
00000040: f60d 08bd a5c3 7bbd abbc 15bd f559 0f3e
00000050: 2749 a5bd 7708 89bd 77cb cc3d b776 473d
00000060: ba94 043e dc1c a93d 281b d73d 3938 95bd
00000070: 75ac e13c 3148 9abd 8725 d33d b0f6 03bd
00000080: 143a 8b3c d036 d9bd 4284 573c 9332 a53c
00000090: 88fd 0c3d 77c3 f33c bd3c 5bbd 5334 9cbd
000000a0: 465f 96bd 207c c6bd 4a40 c03c 45b2 983c
000000b0: 4412 083e 0a78 46bd 57f9 713c 0813 5b3d
000000c0: a5ce bf3b 96f1 a13d 2276 463d 0993 b33d
000000d0: 2b99 0ebe 659a 30be ba64 a9bd be6c b4bd
000000e0: f050 1ebb d5b8 2dbd 91aa 30be cb48 0cbe
000000f0: 2473 aabd 26c6 babb cf98 4cbd 6b34 05bd
00000100: f497 5a3c de49 adbd b9e3 de3c bc70 04be
00000110: b970 653d 40af 9a3c 8782 09be 4ed8 8b3d
00000120: 87ce d6bc c68c b0bd ab6c 94bc 2ab0 7d3d
00000130: 1977 cabc 5905 19bd b1ad 403c cc61 90bd
00000140: f2db e5bd abae e9bd f999 17be ccd1 7a3c
00000150: ef44 063e c3d1 1abe b0be bbbd fa72 abbd
00000160: e0a1 0a3e e323 ad3d 7820 283d e197 eabd
00000170: 0162 6e3c c5e5 383d ccb1 023e b04a a43d
00000180: 7d93 17be ec78 7e3d 406c ec3d 8646 863b
00000190: 742a c43d cf9a d2bd fe82 dcb8 74f4 cd3c
000001a0: 6a15 103e b6af 9ebd fff0 ec3c e94b ecbd
000001b0: dc6e bd3d 2b97 fc3d fbdd a8bd 541a af3d
000001c0: a991 1bbd 4f91 a53d fa69 a53d e209 7f3d
000001d0: d07e dabd 13d0 0b3e 25d5 f83d 857e c63d
000001e0: a11d e63c c43b 063d 251f e33d 7e1b d13c
000001f0: d769 aa3d 58be 8d3d dbf5 3abd 7822 21be
00000200: 8950 83bd 207f 7abd c6e8 25bd f0aa 9cbc
00000210: eb57 8bbc 0ce5 013d 73d1 5a3c f178 fabd
00000220: 780e 2e3d dbae 973d 74c4 173d 957c 64bd
00000230: 1434 1abe 0a55 d8bd a6b6 453c 486d 9cbd
00000240: d50e a73a 9f5c f7bd 2103 e0bb e1e6 16bd
00000250: c3d0 cb3d 9388 313d e9aa 90bd eb74 fb3d
00000260: e8bf a33d 7969 1d3d 854a 513d cd71 03be
00000270: 1742 213e 5226 1b3e c27b a1bd 9d31 d3bc
00000280: 6cc3 a1bd 6a0a bc3d 7d50 1d3e d443 bc3c
00000290: d47c f93d 24a6 c73d 5d6b 1e3e f279 29bc
000002a0: 21bf 483d 7547 343e e205 e73d 3b9d a33d
000002b0: 6670 dc3d 32de 003a 63a6 1b3e 64c8 ddbc
000002c0: e108 f83c 91c5 53bd af41 86bd 2f60 003e
000002d0: 21ff b5bc e131 84bc fe41 9fbc 1ecf aa3d
000002e0: 8920 513d 2291 d8bd 6f10 b8bb 825c 0e3c
000002f0: 4923 d8bd e245 3e3d 3b08 5abd a0f0 9abd
00000300: f35a cabd 6a15 953b 91a8 013e af7d d53c
00000310: 6ee7 323c 460f 463d aaf3 9e3d 01e0 5cbc
00000320: 9abe 5cbd 48ca b1bd 1d81 60bd 0ed1 1e3d
00000330: 4a2e 0bbe 588d 32be ac6a 103c 5661 f3bd
00000340: 726a 14be 53fa f7ba 862e 54be 2e5f 84bc
00000350: 4f44 6fbd 1f1f a4bd db65 2e3d cb4b 77bd
00000360: e65e 8bbd 7f7a a2bd f7a4 0b3a 964b acbc
00000370: d1fb 33be ae80 f63c fd3b 19be 6607 393d
00000380: 774c dbba 80fb b23d 22c0 4dbd 95f9 74bd
00000390: d5e6 cfbd 835f c53d ffee 78bd 9cbb a83d
000003a0: 36cd 34bd 3ae3 263d 2466 c13d aa30 b03d
000003b0: 04a9 18bd 7a0c de3d f59f 0fbd 0c7e 093e
000003c0: 493b c7bd 7de0 fb3d b3a0 533d 8dd4 1e3e
000003d0: f5bb 983d 362c 1a3d 6531 7abd 2bf1 a33d
000003e0: 6740 b03d d4a9 13bd 9992 c2bd 816c 0fbe
000003f0: 779e 5a3d 508b 76bd 1a5a 713d 0e86 ac3d

bias f4 [32]
0.040630553 0.072012596 0.048260607 -0.15209538 -0.053006098 0.14027667 0.09543437 0.10993989
-0.07520957 0.06908832 0.16843247 -0.19239484 -0.23142579 0.09772087 -0.10115823 -0.22411309
-0.15340239 0.0050243894 0.16368988 -0.089766115 -0.092879385 -0.26941434 -0.041841343 -0.06687838
-0.040980488 -0.029902067 -0.0049536773 -0.10447322 -0.069197334 -0.047666494 0.025263522 0.12467897
00000000: 396c 263d 577b 933d eaac 453d e4be 1bbe
00000010: ec1c 59bd b0a4 0f3e 1873 c33d 2a28 e13d
00000020: 7a07 9abd 2d7e 8d3d 9079 2c3e 2703 45be
00000030: e2fa 6cbe e121 c83d 0c2c cfbd e77d 65be
00000040: 8415 1dbe a2a3 a43b 529e 273e 4cd7 b7bd
00000050: 8c37 bebd adf0 89be d461 2bbd 88f7 88bd
00000060: 28db 27bd 2ef5 f4bc 7552 a2bb 0ef6 d5bd
00000070: 55b7 8dbd f13d 43bd 72f5 ce3c b057 ff3d

weight f4 [32, 32, 5, 5]
-0.020873882 0.022157855 0.012421884 -0.01099259 0.022944342 -0.002722442 -0.009014143 0.0328459
0.009987367 0.045198914 0.00123362 0.027362207 0.044857237 0.010786311 -0.008440642 2.8840668e-05
0.043372054 0.044714626 0.036079895 0.007809527 0.002209292 0.017855447 0.017670833 0.010714384
0.018404104 -0.010515577 -0.024842152 -0.003337676 0.027400507 0.037384976 0.0059649916 0.007374684
-0.019596033 -0.011744158 0.04630216 -0.003475022 -0.009841771 0.005155101 0.0386562 0.044903502
-0.042341065 -0.030608192 0.0061324537 -0.011614096 0.010775186 -0.01286532 -0.030114202 0.022735192
0.022994112 0.040024966 0.021824438 -0.0079711275 -0.018204834 0.0018983571 -0.023817832 0.03178356
-0.0377194 0.019243617 0.035094284 -0.009534248 -0.038431235 0.00062734267 -0.02626431 -0.012359871
-0.018338028 -0.010746044 -0.033803653 -0.029355241 0.026886573 -0.026809495 -0.022670887 0.00627494
-0.003093463 -0.029722389 0.016616963 -0.030463975 0.026691731 0.029729154 0.024370318 0.0044051684
0.008835485 0.020190822 0.00045557893 -0.0059097554 -0.016680118 -0.03350759 0.0040551466 0.0035939347
0.030257644 0.026840348 -0.020267265 -0.019540811 -0.040423363 -0.006492676 -0.012225961 -0.018163338
0.0001114158 0.015293761 0.027089294 0.022823837 0.029216396 0.039012544 -0.011345721 0.030370817
-0.009744213 0.011961586 0.027164144 0.04022174 0.007303797 0.014978788 -0.009061607 0.037908208
0.009792222 -0.00093532726 0.022999004 -0.0014165908 0.004100652 -0.00894698 -0.037608486 -0.012492486
-0.031248637 -0.0017992957 -0.0041561066 -0.04068656 -0.008001033 0.044569835 -0.021183759 0.017603904
-0.0029853308 0.014726133 0.033021983 0.0051202634 0.011546753 0.014371083 0.006038185 0.024153031
-0.00078732864 0.026828652 -0.00745561 -0.016677897 0.04753621 0.0052187284 0.015949426 -0.017884793
0.018736383 0.03932439 0.029732198 0.028116256 0.0012347895 0.0041234964 -0.016425868 0.021796208
0.022603234 0.053771026 -0.0043512504 -0.022401974 0.04452599 0.040941633 0.05187278 0.033400934
-0.029650126 0.05272979 0.017545735 0.011567909 0.045241155 -0.010225267 0.02564052 0.022496214
0.05758429 0.03506538 0.019963631 -0.024293391 0.01722758 -0.023897791 0.005312553 -0.0023940112
0.0118727535 -0.0008172407 0.026427105 0.023050262 0.03582494 0.012697576 0.05258558 0.05252627
0.03096863 -0.0066442844 0.022601767 0.0379201 -0.0031131676 0.010446964 0.029421348 -0.009352197
0.0058815056 -0.016058221 -0.025543125 -0.020717742 0.0006476756 -0.04164418 -0.028213605 -0.04860882
0.002111875 -0.0044957628 0.017028319 0.0054151407 0.022323517 -0.022199593 -0.0070128036 -0.0043337606
0.034065675 -0.006177474 0.02867968 0.027483875 0.013545542 -0.013009045 0.03951778 -0.00471579
0.038281005 0.02544067 0.019531578 0.008142842 -0.012316249 -0.03878203 0.0051375777 -0.00070077914
-0.036707964 0.015268791 -0.017681472 -0.0050265337 -0.00927947 -0.01837385 -0.0052365577 -0.03294907
-0.007853164 -0.02806749 -0.021669282 -0.0031621135 -0.037385907 -0.04148111 0.01456711 -0.01997134
0.023103155 -0.010114752 -0.010750973 0.02445881 -0.0011863268 -0.014266296 -0.030210694 -0.012218769
0.03094827 -0.024338393 0.032030016 0.00810768 0.0029605143 -0.015232793 0.04194173 0.0041479906
00000000: b4ff aabc 6484 b53c 2885 4b3c 441a 34bc
00000010: c6f5 bb3c ff6a 32bb 0eb0 13bc 6c89 063d
00000020: 0ea2 233c 7f22 393d 6bb1 a13a b526 e03c
00000030: 39bc 373d 11b9 303c 9e4a 0abc ddee f137
00000040: e5a6 313d af26 373d 83c8 133d 10e7 ff3b
00000050: c5c9 103b 9645 923c 6cc2 903c 628b 2f3c
00000060: 34c4 963c 8749 2cbc c581 cbbc e9bc 5abb
00000070: 0777 e03c fd20 193d fa75 c33b 55a7 f13b
00000080: dc87 a0bc 926a 40bc 55a7 3d3d 32bd 63bb
00000090: 613f 21bc 1fec a83b f755 1e3d bcec 373d
000000a0: d36d 2dbd 08be fabc c0f2 c83b 0d49 3ebc
000000b0: 688a 303c 10c9 52bc 0fb2 f6bc 273f ba3c
000000c0: 265e bc3c 38f1 233d 2ac9 b23c 5599 02bc
000000d0: 4e22 95bc 4bd2 f83a 9d1d c3bc 7a2f 023d
000000e0: a87f 1abd caa4 9d3c 06bf 0f3d 8935 1cbc
000000f0: 126a 1dbd 4174 243a 4028 d7bc 0e81 4abc
00000100: a239 96bc 2d10 30bc b375 0abd 677a f0bc
00000110: 3b41 dc3c 969f dbbc 4cb8 b9bc 039e cd3b
00000120: b2bb 4abb 5e7c f3bc 4c20 883c 968f f9bc
00000130: 9ea8 da3c 8e8a f33c 43a4 c73c 3b59 903b
00000140: b6c2 103c 3967 a53c c5da ee39 9fa6 c1bb
00000150: bea4 88bc 413f 09bd 09e1 843b 3888 6b3b
00000160: e1de f73c 4ae0 db3c 8907 a6bc 0d14 a0bc
00000170: f892 25bd 84c0 d4bb 664f 48bc 48cb 94bc
00000180: e7a7 e938 af92 7a3c 5eea dd3c 0ef9 ba3c
00000190: 3957 ef3c 9ecb 1f3d 67e3 39bc 38cc f83c
000001a0: 31a6 1fbc 87fa 433c 5787 de3c 8dbf 243d
000001b0: b154 ef3b 9769 753c 2277 14bc a345 1b3d
000001c0: 8e6f 203c c030 75ba 6868 bc3c e6ac b9ba
000001d0: c35e 863b 5b96 12bc 5b0b 1abd 49ad 4cbc
000001e0: 24fd ffbc 58d6 ebba f32f 88bb f3a6 26bd
000001f0: c416 03bc dc8e 363d 9089 adbc 1036 903c
00000200: 8aa5 43bb e145 713c 0f42 073d e2c7 a73b
00000210: 982e 3d3c b174 6b3c f8db c53b 94dc c53c
00000220: bb64 4eba c3c7 db3c 314e f4bb 16a0 88bc
00000230: 54b5 423d de01 ab3b 5fa8 823c 2183 92bc
00000240: 0b7d 993c 9d12 213d f090 f33c 1054 e63c
00000250: a9d8 a13a 651e 873b 8b8f 86bc f68d b23c
00000260: 6b2a b93c 023f 5c3d ef94 8ebb 5884 b7bc
00000270: e260 363d 6ab2 273d 8d78 543d 6bcf 083d
00000280: d2e4 f2bc 31fb 573d 13bc 8f3c 5487 3d3c
00000290: ca4e 393d e187 27bc 110c d23c fb49 b83c
000002a0: 81dd 6b3d b7a0 0f3d c58a a33c ef02 c7bc
000002b0: db20 8d3c 4dc5 c3bc ed14 ae3b d8e4 1cbb
000002c0: f085 423c 183c 56ba a87d d83c e7d3 bc3c
000002d0: 2cbd 123d 7e09 503c fa63 573d c925 573d
000002e0: edb1 fd3c 4cb8 d9bb 5727 b93c 1b52 1b3d
000002f0: 4906 4cbb be29 2b3c 0a05 f13c f539 19bc
00000300: a5b9 c03b 888c 83bc d13f d1bc 41b8 a9bc
00000310: c6c8 293a 1693 2abd 3820 e7bc 0b1a 47bd
00000320: 6267 0a3b 3151 93bb f97e 8b3c 7e71 b13b
00000330: cfdf b63c ecdb b5bc a9cb e5bb 3802 8ebb
00000340: 7388 0b3d 686c cabb a6f1 ea3c dd25 e13c
00000350: 1fee 5d3c e423 55bc 65dd 213d ea86 9abb
00000360: 8bcc 1c3d f468 d03c b000 a03c 8e69 053c
00000370: 18ca 49bc e8d9 1ebd 2059 a83b 7eb4 37ba
00000380: 175b 16bd f329 7a3c bcd8 90bc 9fb5 a4bb
00000390: eb08 18bc c284 96bc 6e97 abbb 9bf5 06bd
000003a0: 8faa 00bc cbed e5bc c783 b1bc 763b 4fbb
000003b0: f721 19bd 19e8 29bd e3aa 6e3c f09a a3bc
000003c0: d442 bd3c 58b8 25bc d924 30bc d85d c83c
000003d0: 867e 9bba 2fbd 69bc 6b7c f7bc 3b31 48bc
000003e0: 3a87 fd3c 4f61 c7bc e831 033d 13d6 043c
000003f0: 3005 423b f792 79bc 17cb 2b3d deeb 873b

bias f4 [32]
0.024741007 -0.056875307 0.004514683 -0.006352435 -0.02991912 0.034046467 0.0045734695 -0.03881084
-0.0011405464 -0.04856591 -0.030617455 0.02998015 -0.020432338 0.0080454 -0.08805336 -0.043006394
-0.006349812 -0.047726452 -0.036618676 -0.056798056 0.044207316 -0.108595885 -0.006350696 0.009509055
0.006415199 0.054202043 -0.0316813 -0.06212867 0.031212974 -0.03500592 -0.036800753 -0.048089784
00000000: a7ad ca3c 15f6 68bd e8ef 933b 1628 d0bb
00000010: f118 f5bc 4f74 0b3d 0bdd 953b 1ef8 1ebd
00000020: 637e 95ba 0ced 46bd 75d1 fabc ee98 f53c
00000030: b861 a7bc dad0 033c 5255 b4bd 7927 30bd
00000040: 1512 d0bb d07c 43bd 77fd 15bd 14a5 68bd
00000050: bb12 353d 8567 debd 8019 d0bb decb 1b3c
00000060: 9736 d23b f602 5e3d 40c4 01bd a27a 7ebd
00000070: 5ab2 ff3c 5e62 0fbd 63bc 16bd cbf9 44bd

weight f4 [64, 32, 5, 5]
-0.017900158 -0.04423821 -0.028283374 -0.03739873 0.0016924392 0.041523892 -0.001502808 -0.007295929
-0.01797565 -0.017675368 -0.02924747 0.025983743 -0.026791334 0.0039485986 -0.011888203 0.022765184
-0.01700222 0.02005574 0.014772218 0.055991545 0.00026235278 0.021082064 -0.004955781 -0.012473658
0.03718212 0.058358535 0.016985007 -0.03901375 -0.0061912453 -0.030159017 0.040892195 -0.01243047
0.0013041712 -0.01847009 -0.008802449 0.00732032 0.02028488 0.025817426 0.048435666 0.03928244
-0.0033094871 -0.0048546125 -0.0058109616 -0.014333329 -0.024629004 0.0032777616 0.012194685 0.03682769
-0.011477329 0.009040256 0.022835124 -0.0148462355 -0.030622449 -0.04541795 0.0153846145 0.021466697
0.0048078434 0.027633538 -0.009187245 -0.03959972 0.020721687 0.008435706 -0.016750894 0.03021293
0.033628155 -0.013317335 -0.0071277237 -0.0026188372 -0.025562163 0.019115802 -0.025762325 0.006589339
0.019936679 -0.030226732 -0.006914468 -0.0060385196 0.015142108 -0.0018308994 0.007452158 0.027486512
0.01794502 -0.0043904395 0.013541963 -0.015757097 -0.027578115 0.012291775 -0.0025498236 -0.035621606
-0.007734209 -0.015326584 0.034023874 0.02815236 0.032444157 0.002781513 -0.011994588 -0.037651222
-0.03438431 0.010984967 -0.030323025 -0.008005657 -0.013911552 -0.008967761 -0.022634702 -0.031195108
-0.035272487 0.025738701 -0.013337361 -0.0011543581 -5.789357e-05 -0.009192066 -0.0028463206 0.016811948
-0.008992034 0.009762999 -0.018278824 -0.027462583 -0.007139947 0.002333204 0.042678878 0.005805532
0.013774009 -0.0075739413 -0.010556164 0.010648363 0.024730086 -0.0010250562 0.012929525 -0.041420456
-0.039690983 0.006665547 0.0010013652 -0.008039231 -0.025916722 0.015919702 -0.043329883 -0.033536587
0.0065786853 -0.010157338 0.023871692 0.01672841 -0.03484134 -0.03276299 0.01817043 -0.005787125
-0.018176747 -0.032836467 0.039288763 0.015495068 0.04152729 0.030520838 0.030030884 0.0044880803
0.026831115 0.012466284 0.01251784 0.0042525586 -0.03438208 0.037392143 0.039074536 -0.025545921
-0.015683161 0.026023006 0.037451997 0.00489222 -0.022403432 -0.035540763 -0.020441256 -0.017404646
-0.015879782 0.043583475 -0.008405085 -0.0005420138 0.01151947 -0.00023752727 -0.0026051425 -0.024158023
0.016090445 -0.008701647 -0.01242606 -0.025379742 -0.028632177 -0.018136822 -0.013093028 -0.0100437235
-0.007069873 0.0105361715 -0.009443467 -0.034038078 0.030418932 -0.014622695 0.010381229 0.03443141
-0.0065602288 -0.024207223 0.021978945 -0.020075327 -0.024029866 -0.00014729383 -0.020007303 0.01972741
0.023835171 2.6193247e-05 0.01285171 0.0028928474 -0.02628674 0.0031347699 0.0058252825 -0.010903196
0.0137375435 -0.018931594 0.024407737 -0.010253955 -0.010825349 -0.031191068 0.017804185 -0.025166215
0.0155282635 0.022115992 -0.022916682 -0.026309352 -0.01680346 -0.030097848 0.026102742 0.025444388
0.011707777 0.01048061 -0.016962353 -0.004483504 -0.019850701 -0.021393923 -0.019842865 0.0049666534
0.000112831905 -0.013068003 -0.017607655 0.00061979913 -0.02898453 0.007947863 0.007247997 -0.0148915695
0.002007562 -0.024523038 -0.033124976 -0.022712037 0.0004568716 -0.025623348 -0.012584624 0.0076900683
0.00998778 0.022504054 -0.010954528 -0.03374188 -0.022022953 -0.0281009 0.018253388 -0.0049313367
00000000: 5aa3 92bc 2033 35bd 89b2 e7bc 692f 19bd
00000010: d6d4 dd3a f514 2a3d def9 c4ba b012 efbb
00000020: ac41 93bc efcb 90bc 6498 efbc dcdb d43c
00000030: 8079 dbbc 3f63 813b bdc6 42bc 0d7e ba3c
00000040: 3d48 8bbc ef4b a43c 2c07 723c 6457 653d
00000050: 658c 8939 4bb4 ac3c 1b64 a2bb 505e 4cbc
00000060: 474c 183d 5c09 6f3d 2424 8b3c e2cc 1fbd
00000070: eedf cabb 0b10 f7bc 937e 273d 2ca9 4bbc
00000080: b9f0 aa3a 964e 97bc 2638 10bc 4bdf ef3b
00000090: 7a2c a63c 117f d33c 7a64 463d a0e6 203d
000000a0: fbe3 58bb 7113 9fbb e169 bebb 57d6 6abc
000000b0: c4c2 c9bc b7cf 563b 37cc 473c a2d8 163d
000000c0: 680b 3cbc 951d 143c ba10 bb3c a03d 73bc
000000d0: eedb fabc 2c08 3abd c00f 7c3c edda af3c
000000e0: 1d8b 9d3b bb5f e23c 1986 16bc 5133 22bd
000000f0: 87c0 a93c ea35 0a3c 2c39 89bc 1b81 f73c
00000100: adbd 093d f430 5abc ae8f e9bb cca0 2bbb
00000110: be67 d1bc be98 9c3c 830b d3bc 62eb d73b
00000120: 3f52 a33c 0d9e f7bc c392 e2bb c6de c5bb
00000130: 9b16 783c cafa efba 3b31 f43b 652b e13c
00000140: 6f01 933c addd 8fbb 1cdf 5d3c 0715 81bc
00000150: 80eb e1bc 7163 493c f11a 27bb f6e7 11bd
00000160: 3f6f fdbb 5a1c 7bbc 9e5c 0b3d c79f e63c
00000170: 2ae4 043d 0b4a 363b f384 44bc 2b38 1abd
00000180: 90d6 0cbd 4bfa 333c fe67 f8bc 292a 03bc
00000190: 47ed 63bc 84ed 12bc 696c b9bc e28c ffbc
000001a0: e279 10bd f8d9 d23c f284 5abc d54d 97ba
000001b0: bfd2 72b8 529a 16bc 5689 3abb 36b9 893c
000001c0: 5353 13bc fcf4 1f3c 79bd 95bc 36f9 e0bc
000001d0: 37f6 e9bb abe8 183b 0cd0 2e3d 553c be3b
000001e0: 62ac 613c d32e f8bb c3f3 2cbc 7976 2e3c
000001f0: c096 ca3c 2e5b 86ba 5cd6 533c 7fa8 29bd
00000200: 0393 22bd a96a da3b 3e40 833a fbb6 03bc
00000210: 4e4f d4bc 096a 823c ad7a 31bd a95d 09bd
00000220: 0392 d73b f76a 26bc 918e c33c 050a 893c
00000230: cbb5 0ebd 7c32 06bd 27da 943c eca1 bdbb
00000240: 67e7 94bc 887f 06bd 41ed 203d 07df 7d3c
00000250: 8518 2a3d d606 fa3c 5403 f63c bf10 933b
00000260: edcc db3c 633f 4c3c a017 4d3c 0c59 8b3b
00000270: 39d4 0cbd 8128 193d 9f0c 203d ae45 d1bc
00000280: f979 80bc 332e d53c 4467 193d ea4e a03b
00000290: 6787 b7bc 3193 11bd 6c74 a7bc 3094 8ebc
000002a0: 5116 82bc 9684 323d 7bb5 09bc ee15 0eba
000002b0: 29bc 3c3c be10 79b9 0abb 2abb 0ce7 c5bc
000002c0: 1cd0 833c 5a91 0ebc ac96 4bbc 2de9 cfbc
000002d0: 078e eabc ac93 94bc 2484 56bc 6e8e 24bc
000002e0: 65aa e7bb e89f 2c3c c5b8 1abc 836b 0bbd
000002f0: 2031 f93c 0794 6fbc 0816 2a3c f307 0d3d
00000300: 30f7 d6bb 3a4e c6bc 300d b43c 0375 a4bc
00000310: 48da c4bc e372 1ab9 5be6 a3bc 619b a13c
00000320: fa41 c33c 92b9 db37 fb8f 523c ed95 3d3b
00000330: 4a57 d7bc b670 4d3b 03e2 be3b 52a3 32bc
00000340: 6f13 613c 6e16 9bbc bcf2 c73c 3400 28bc
00000350: ce5c 31bc 6984 ffbc 15da 913c 6129 cebc
00000360: 426a 7e3c 992c b53c c4bb bbbc b686 d7bc
00000370: 69a7 89bc c38f f6bc 6bd5 d53c c070 d03c
00000380: fad1 3f3c ddb6 2b3c a2f4 8abc 5cea 92bb
00000390: f09d a2bc 4f42 afbc 818d a2bc 4fbf a23b
000003a0: 2ba0 ec38 2d1b 56bc ee3d 90bc 047a 223a
000003b0: f770 edbc c137 023c 9b80 ed3b c5fb 73bc
000003c0: 4d91 033b 8ae4 c8bc 0eae 07bd 980e babc
000003d0: 4588 ef39 0ee8 d1bc bd2f 4ebc f8fc fb3b
000003e0: c9a3 233c 6c5a b83c 9f7a 33bc ed34 0abd
000003f0: 7b69 b4bc dc33 e6bc 2188 953c 0d97 a1bb

bias f4 [64]
-0.021665119 0.010429994 -0.032314833 -0.018712202 0.00049223256 0.02356301 -0.03086884 -0.04638299
0.024438025 -0.023636665 -0.030558534 -0.029866349 0.012572123 0.009264783 0.0089222 -0.0045507993
-0.0017644397 -0.027958289 -0.044989772 -0.038284365 -0.008973826 -0.045860346 0.015061857 -0.031049559
-0.013080532 -0.05779134 0.012477231 -0.009450675 -0.008488391 -0.023986254 -0.019333402 -0.0020790265
0.0015460437 -0.0041279495 0.012114198 -0.002166128 -0.015013304 0.0005919219 0.03602061 0.034147114
-0.047225356 -0.037059512 -0.019530207 -0.03173328 0.030951012 0.04183932 0.017845245 -0.015538267
-0.010031196 0.010790491 0.024300592 -0.05153789 -0.04636492 -0.022467863 0.0061172238 -0.04370714
-0.030525433 0.044889215 0.009840589 -0.035002306 -0.014820662 -0.04164122 0.034573317 0.007471283
00000000: 0c7b b1bc 91e2 2a3c 8f5c 04bd 554a 99bc
00000010: 2b09 013a 3707 c13c a6e0 fcbc 17fc 3dbd
00000020: 4132 c83c aea1 c1bc e455 fabc 46aa f4bc
00000030: 4efb 4d3c 51cb 173c 6b2e 123c df1e 95bb
00000040: c644 e7ba c808 e5bc 3247 38bd 11d0 1cbd
00000050: f406 13bc 0fd8 3bbd 02c6 763c a55b febc
00000060: ba4f 56bc 9db6 6cbd 4d6d 4c3c 01d7 1abc
00000070: e412 0bbc d27e c4bc 1561 9ebc 4740 08bb
00000080: 9ea4 ca3a c043 87bb a17a 463c 99f5 0dbb
00000090: 5cfa 75bc 352b 1b3a 598a 133d d8dd 0b3d
000000a0: 606f 41bd b7cb 17bd d0fd 9fbc c1fa 01bd
000000b0: fa8c fd3c b55f 2b3d 3130 923c 3794 7ebc
000000c0: e359 24bc 99ca 303c 0912 c73c 6519 53bd
000000d0: 24e9 3dbd 860e b8bc fe72 c83b 4206 33bd
000000e0: 7910 fabc c1dd 373d 6c3a 213c 945e 0fbd
000000f0: 5dd2 72bc fc8f 2abd c09c 0d3d aad1 f43b

weight f4 [64, 1024]
-0.007619222 -0.028248237 0.011173352 0.022291861 0.023484433 -0.0024083282 0.004241726 -0.015136703
0.031951584 0.014709836 0.0270238 0.025000777 -0.027035762 -0.023725333 -0.006156802 0.007539145
-0.036201924 -0.007126006 -0.0118136015 0.026121069 0.0016834803 -0.0046839514 0.0076311505 0.01405704
0.023812486 0.026723254 -0.025278145 -0.028494539 -0.015256764 -0.01169436 0.030631324 0.033060957
0.011522323 -0.043243773 -0.0006766106 0.0030313628 -0.013063735 -0.0014531793 -0.025257505 -0.018682517
0.020163137 0.029584097 0.037338953 0.041624945 -0.014929411 0.006602614 -0.002886007 0.03924594
-0.0330369 0.0073414557 0.01601172 -0.041027144 0.02674803 0.031592246 0.015312495 0.023348693
-0.029793631 0.04162673 0.010923496 0.0073186536 0.017089203 0.00434461 -0.014775335 0.009293222
-0.006016625 -0.018818863 0.016965229 0.011698709 0.03971412 -0.0016421236 0.016357165 -0.021662956
-0.021714067 -0.008410975 0.015069609 0.0017992106 0.035252087 -0.0064348355 0.011042137 0.02441739
-0.00046967348 0.03579795 0.0088236155 -0.018704714 -0.020402292 0.015665874 -0.024271257 0.016990941
-0.013912807 0.01332279 0.002624929 -0.022264311 -0.008430135 -0.00881605 0.009509395 -0.030049516
0.030709734 -0.007298441 -0.0060582757 -0.009266884 0.013008599 -0.0010426611 -0.008177637 0.015855027
-0.02186413 -0.017663281 0.04201794 -0.009464859 0.025796033 -0.0010141582 0.014427015 0.013181005
0.010050045 0.0024435683 -0.016631685 0.022489198 0.033669006 -0.016769841 -0.0151026 0.02651095
0.034679685 -0.007571105 -0.0023364245 -0.012147245 -0.025871295 -0.017058851 -0.0026043274 0.0077677495
0.012195964 0.011832576 -0.020452917 0.013677448 -0.023218509 -0.004001376 -0.016745457 0.029864725
0.011749447 -0.0023866375 -0.016973492 0.020731999 -0.01986518 -0.017727006 -0.017491024 -0.004016386
-0.018641923 0.0008665234 -0.03435144 0.016727528 -0.004356662 -0.0058912123 -0.007786128 -0.0046615005
0.0061122514 0.021265222 0.004138162 0.02037446 -0.026776306 -0.022414466 0.030386144 -0.008101837
0.024116077 0.012570989 0.0031408726 -0.0063370843 -0.015065437 -0.00640702 0.0018585967 -0.025201423
0.008414733 0.03181631 0.004624423 -0.001116653 -0.012328266 0.0011246843 0.030740354 0.0024774699
0.013806746 0.0029199964 0.019290736 0.014014352 -0.0020973824 0.026641108 0.021741757 -0.011411304
0.0030715475 -0.027689114 -0.01893939 0.03143164 0.023855044 -0.0087570185 0.005794648 -0.019109424
0.018517155 -0.013079306 0.037021197 0.023113549 0.029901952 -0.0066057853 -0.024502605 -0.010449151
-0.02694448 0.038059253 0.021099482 -0.010093111 -0.011317029 0.011898411 0.010552408 0.03432742
-0.021859067 -0.024039455 0.035209253 -0.016533552 0.02854661 0.027724762 0.028332548 -0.008489833
-0.009520081 0.005447105 0.027415907 -0.011537579 -0.013364505 -0.018341746 0.031282336 -0.013928876
0.0064504733 -0.02835008 -0.026501691 -0.023895804 0.0027894892 0.014578117 -0.01045357 -0.024758972
-0.002737744 -0.026880125 0.01915123 -0.024366634 -0.0013635538 -0.020969016 -0.008390298 -0.0068694483
0.028246641 -0.020164086 0.010240819 0.007611561 -0.027914405 0.01797529 0.021705093 -0.024585303
-0.014507117 -0.0010301591 0.002372155 0.029847747 0.010227203 0.0026795673 0.0036086838 0.0017140735
00000000: abaa f9bb d968 e7bc 6f10 373c 6c9d b63c
00000010: 6d62 c03c 0bd5 1dbb 2dfe 8a3b efff 77bc
00000020: aadf 023d 8601 713c 0461 dd3c 6ece cc3c
00000030: 1a7a ddbc a15b c2bc 00bf c9bb ef0a f73b
00000040: 7848 14bd 4581 e9bb d68d 41bc dafb d53c
00000050: 3aa8 dc3a d57b 99bb bb0e fa3b 804f 663c
00000060: 6712 c33c baea da3c 1d14 cfbc 616d e9bc
00000070: 82f7 79bc b399 3fbc 8bee fa3c ed6a 073d
00000080: 20c8 3c3c 6220 31bd 925e 31ba d4a9 463b
00000090: 4709 56bc 9b78 beba d4e8 cebc 140c 99bc
000000a0: 2a2d a53c 595a f23c bbf0 183d eb7e 2a3d
000000b0: 7d9a 74bc be5a d83b 2a23 3dbb 5ac0 203d
000000c0: b351 07bd 9890 f03b 032b 833c 140c 28bd
000000d0: af1e db3c df66 013d 42e1 7a3c c245 bf3c
000000e0: c611 f4bc ca80 2a3d 77f8 323c 51d1 ef3b
000000f0: a8fe 8b3c 3b5d 8e3b 3f14 72bc 9942 183c
00000100: 1c27 c5bb 042a 9abc aafa 8a3c f1ab 3f3c
00000110: 46ab 223d 863c d7ba 76ff 853c 8376 b1bc
00000120: b3e1 b1bc 30ce 09bc 85e6 763c 7dd3 eb3a
00000130: 7e64 103d 50db d2bb 14ea 343c fa06 c83c
00000140: 823e f6b9 dfa0 123d ed90 103c a13a 99bc
00000150: b522 a7bc b855 803c 84d4 c6bc 9630 8b3c
00000160: 8bf2 63bc d547 5a3c 0007 2c3b a563 b6bc
00000170: 8d1e 0abc 3271 10bc 4bcd 1b3c 672a f6bc
00000180: fb92 fb3c c327 efbb 8084 c6bb 21d4 17bc
00000190: 0522 553c e7a9 88ba 7ffb 05bc 67e2 813c
000001a0: 671c b3bc 96b2 90bc 011b 2c3d 7f12 1bbc
000001b0: 3452 d33c 81ed 84ba 495f 6c3c 24f5 573c
000001c0: f2a8 243c 4624 203b 2c3f 88bc 443b b83c
000001d0: 83e8 093d e860 89bc e570 77bc 7e2d d93c
000001e0: 490c 0e3d 0817 f8bb b31e 19bb 3d05 47bc
000001f0: 0af0 d3bc 01bf 8bbc 5dad 2abb 9b88 fe3b
00000200: 95d1 473c 6cdd 413c e08c a7bc 6017 603c
00000210: be34 bebc fa1d 83bb c52d 89bc dea6 f43c
00000220: c180 403c 2269 1cbb fe0b 8bbc 27d6 a93c
00000230: 4dbc a2bc 3a38 91bc 5649 8fbc e39b 83bb
00000240: f2b6 98bc 6727 633a 18b4 0cbd 2b08 893c
00000250: 54c2 8ebb 120b c1bb c722 ffbb 80bf 98bb
00000260: 4849 c83b 6734 ae3c 6b99 873b 57e8 a63c
00000270: fc59 dbbc 8b9e b7bc 5dec f83c 91bd 04bc
00000280: 148f c53c 8df6 4d3c 19d7 4d3b 51a7 cfbb
00000290: 06d5 76bc fbf1 d1bb 289c f33a 3773 cebc
000002a0: f3dd 093c d251 023d 7988 973b a85c 92ba
000002b0: 7ffc 49bc 256a 933a 32d3 fb3c 0c5d 223b
000002c0: b135 623c 695d 3f3b 9b07 9e3c 749c 653c
000002d0: 3d74 09bb 743e da3c c51b b23c 7af6 3abc
000002e0: 044c 493b 48d4 e2bc c826 9bbc 77be 003d
000002f0: a76b c33c 9979 0fbc 08e1 bd3b 5e8b 9cbc
00000300: 4ab1 973c 964a 56bc 8aa3 173d a058 bd3c
00000310: f0f4 f43c 5875 d8bb b0b9 c8bc ea32 2bbc
00000320: acba dcbc 05e4 1b3d d2d8 ac3c 935d 25bc
00000330: 0f6b 39bc 8ef1 423c 02e4 2c3c e99a 0c3d
00000340: c911 b3bc 64ee c4bc 9437 103d 5f71 87bc
00000350: 95da e93c 0a1f e33c a919 e83c f118 0bbc
00000360: 1dfa 1bbc a17d b23b 5397 e03c 1d08 3dbc
00000370: ccf6 5abc 6e41 96bc e821 003d f135 64bc
00000380: 7e5e d33b 6d3e e8bc 131a d9bc 22c1 c3bc
00000390: ddcf 363b 0ed9 6e3c 7345 2bbc 54d3 cabc
000003a0: b96b 33bb b533 dcbc 0ae3 9c3c 899c c7bc
000003b0: 46b9 b2ba 37c7 abbc 7677 09bc 1c19 e1bb
000003c0: 8065 e73c 272f a5bc 1cc9 273c 676a f93b
000003d0: c0ac e4bc ea40 933c e1ce b13c 1e67 c9bc
000003e0: 42af 6dbc 6706 87ba 2876 1b3b 4383 f43c
000003f0: 0090 273c ae9b 2f3b ab7f 6c3b c3aa e03a

bias f4 [64]
-0.019520653 -0.011182035 -0.0034118672 -0.016349988 0.004426716 -0.012120015 0.006927906 0.014528307
0.012980308 -0.012064299 -0.0028323126 -0.013593395 0.014710529 -0.0062906407 -0.022038365 0.0018961163
0.0030429412 0.014517978 0.0024477167 0.0053851153 0.0013574668 -0.024365 -0.0073036468 -0.0071110404
-0.032023065 -0.006736938 0.02788425 0.022706017 -0.035544038 -0.029076176 -0.032166902 -0.043367974
0.047636762 0.019112917 0.029586902 -0.011916377 0.015810413 -0.038710438 0.009299315 0.0035713941
0.003771039 -0.00027638522 -0.009204937 -0.047367625 -0.00280516 0.034169875 -0.018024368 0.05792241
0.009829571 -0.0072448472 -0.028375091 -0.010661116 -0.027421214 -0.0064495676 -0.048017092 -0.013878745
0.018273478 -0.003609463 -0.022419056 -0.03784944 0.01977099 0.032415334 -0.0031908108 0.02732991
00000000: c7e9 9fbc db34 37bc a299 5fbb 69f0 85bc
00000010: fc0d 913b 0793 46bc 7d03 e33b 2308 6e3c
00000020: 5cab 543c 56a9 45bc 529e 39bb d5b6 5ebc
00000030: 6e04 713c b821 cebb cd89 b4bc 1b87 f83a
00000040: 156c 473b d0dc 6d3c df69 203b 9f75 b03b
00000050: 07ed b13a 1c99 c7bc 6e53 efbb bb03 e9bb
00000060: 9e2a 03bd 88c1 dcbb 836d e43c f801 ba3c
00000070: a096 11bd 2931 eebc 71c1 03bd 9ea2 31bd
00000080: c41e 433d b192 9c3c 3b60 f23c e83c 43bc
00000090: d784 813c d68e 1ebd 275c 183c 0d0e 6a3b
000000a0: 8923 773b cce7 90b9 4ed0 16bc 8e04 42bd
000000b0: c6d6 37bb b6f5 0b3d d7a7 93bc 0d40 6d3d
000000c0: 350c 213c 2f66 edbb e172 e8bc f6ab 2ebc
000000d0: 74a2 e0bc e556 d3bb 92ad 44bd ad63 63bc
000000e0: 43b2 953c be8c 6cbb 2ba8 b7bc 0408 1bbd
000000f0: c5f6 a13c f1c5 043d ec1c 51bb fae2 df3c

weight f4 [10, 64]
-0.095338255 0.17683978 -0.038859613 -0.0016645876 -0.12563398 0.15764757 -0.117177054 -0.039741077
-0.053939365 0.24017446 -0.046646554 0.20355353 -0.048317518 -0.11600776 0.14991249 -0.014546964
0.111306176 0.113743715 0.07367027 -0.08877746 0.12484377 0.07992809 -0.07751473 0.11801929
0.13279587 0.0035888066 -0.066298805 0.08319221 0.0001289726 0.11870586 0.12119037 0.09240896
-0.21345524 0.038316227 -0.12443989 -0.039719343 0.03867695 0.12745172 0.09219898 0.13971926
-0.073837295 -0.1283447 -0.07322386 0.09052363 -0.039774716 -0.083766535 -0.11191968 -0.05261992
-0.07521015 0.15862131 -0.052434716 0.124047354 0.09436145 0.11112555 0.010754253 0.027540706
0.14185664 0.02173009 0.036318827 0.121967845 -0.027541034 0.0053898757 -0.004596628 0.0013695571
0.09879834 0.21446541 -0.02291031 0.15361981 0.03372099 -0.16649863 0.020590963 0.0935331
0.17112531 0.10842982 -0.04513273 -0.07984154 0.13238701 0.13022102 -0.08466357 0.02280886
-0.1751714 -0.22158895 0.21884573 0.12082729 -0.123121224 0.15070555 0.109821945 0.21419463
-0.11011979 -0.149744 0.09326433 0.080765426 -0.111718215 -0.22221926 0.1839743 -0.059782922
0.18376651 0.042589694 -0.09050562 0.036509894 0.22276372 -0.16275285 0.010161218 0.06796234
-0.09390921 -0.26147008 0.19291906 0.15470144 -0.044809584 0.15133317 0.0016474843 -0.104704395
0.10081359 0.12036739 -0.07413528 -0.015216633 0.09382528 0.08461087 -0.18614821 0.1622746
-0.011480196 0.05661781 0.0863004 -0.0017988204 0.21530223 0.056302443 0.0760503 0.15317132
0.12096011 -0.06798187 -0.061300796 0.1265623 0.045499895 0.12590156 -0.14605649 -0.19087322
0.123520225 0.13725449 -0.0046948874 -0.006288752 -0.08748737 0.106918864 -0.18643019 -0.0039984277
-0.06726973 0.17707735 -0.13766399 0.021368014 0.063698575 0.015548659 -0.061647624 -0.10509873
-0.08788762 0.1720108 -0.007807989 -0.1409665 0.063668594 0.027181271 -0.15527903 -0.08040195
-0.15506582 0.06742967 -0.04409473 -0.045168016 -0.09733002 0.087442726 -0.025889121 0.080800526
0.05028826 0.13193977 -0.049704544 -0.20082586 -0.031831022 -0.043820877 -0.112227865 0.05830666
-0.026063241 0.10571416 0.13393374 0.17853716 -0.044097446 0.15688255 -0.102374986 -0.09991614
-0.14139552 -0.03650973 -0.044523563 -0.09419046 0.034428068 0.017545791 -0.10110035 0.04523131
0.095848486 -0.113014534 0.042790215 0.019141354 -0.0875395 -0.18185517 -0.12115288 -0.09862813
0.15415305 -0.14891301 -0.06818507 -0.020200191 -0.10680334 -0.024514548 -0.17321132 -0.09675189
0.1457141 -0.14421412 -0.12117051 -0.12268522 -0.07907864 -0.09959645 -0.08513243 -0.12801096
0.08637531 0.13089402 -0.05075772 -0.026925672 0.0017853809 0.047481246 -0.1475093 -0.10677674
0.08036628 0.1356343 -0.10656072 -0.03657874 0.09174344 -0.055550344 -0.043233193 0.105186634
-0.124457836 -0.01215058 0.056442294 -0.060179718 0.0406587 0.03722112 -0.049154107 0.09224659
-0.09949529 -0.12149412 -0.12049664 0.026098901 -0.07590682 0.06702255 0.017138211 -0.17245494
-0.06647981 -0.10341634 0.05278481 0.118748516 -0.16186652 0.02202371 -0.09077328 -0.05891221
00000000: b440 c3bd 7d15 353e 422b 1fbd 4b2e daba
00000010: 32a6 00be 5d6e 213e 86fa efbd 8ac7 22bd
00000020: 86ef 5cbd 4bf0 753e 7510 3fbd 5670 503e
00000030: 97e8 45bd 7a95 edbd a982 193e 6456 6ebc
00000040: 7ef4 e33d 77f2 e83d 70e0 963d f5d0 b5bd
00000050: 17ae ff3d 57b1 a33d 0bc0 9ebd 19b4 f13d
00000060: a4fb 073e 2f32 6b3b abc7 87bd ad60 aa3d
00000070: d23c 0739 0f1c f33d a832 f83d e940 bd3d
00000080: 0394 5abe 7af1 1c3d 57da febd c0b0 22bd
00000090: b96b 1e3d b482 023e d2d2 bc3d 9112 0f3e
000000a0: 0238 97bd cb6c 03be 64f6 95bd 7464 b93d
000000b0: d0ea 22bd ca8d abbd 2536 e5bd fc87 57bd
000000c0: c707 9abd a06d 223e c9c5 56bd 8a0c fe3d
000000d0: 9340 c13d cb95 e33d 9b32 303c 0c9d e13c
000000e0: de42 113e 4d03 b23c 0dc3 143d 47ca f93d
000000f0: bc9d e1bc 8e9d b03b 4f9f 96bb b682 b33a
00000100: c956 ca3d d29c 5b3e 67ae bbbc 834e 1d3e
00000110: 051f 0a3d 9e7e 2abe 61ae a83c 488e bf3d
00000120: 793b 2f3e 7410 de3d 19dd 38bd f683 a3bd
00000130: 7690 073e a958 053e 1864 adbd a5d9 ba3c
00000140: 2260 33be 37e8 62be 1819 603e 4c74 f73d
00000150: fb26 fcbd 8e52 1a3e 54ea e03d d655 5b3e
00000160: 7c86 e1bd 7e56 19be 5e01 bf3d 5868 a53d
00000170: 85cc e4bd 728d 63be c263 3c3e f0de 74bd
00000180: 4a2d 3c3e 8872 2e3d 035b b9bd 668b 153d
00000190: 2c1c 643e afa8 26be 3d7b 263c d72f 8b3d
000001a0: 7953 c0bd 68df 85be 938c 453e 0e6a 1e3e
000001b0: 418a 37bd 15f7 1a3e 66f0 d73a 426f d6bd
000001c0: 5b77 ce3d 2e83 f63d 3dd4 97bd 2f4f 79bc
000001d0: 7827 c03d 7748 ad3d a39d 3ebe 502b 263e
000001e0: 6f17 3cbc 14e8 673d 44be b03d 66c6 ebba
000001f0: 3078 5c3e 649d 663d 42c0 9b3d f1d8 1c3e
00000200: efb9 f73d 143a 8bbd 8b16 7bbd 8c99 013e
00000210: 195e 3a3d 57ec 003e d58f 15be 4574 43be
00000220: 2cf8 fc3d 718c 0c3e 92d7 99bb e011 cebb
00000230: 942c b3bd 47f8 da3d 8ee7 3ebe 3e05 83bb
00000240: b6c4 89bd c453 353e caf7 0cbe f90b af3c
00000250: 6674 823d cdbf 7e3c 3882 7cbd 013e d7bd
00000260: 6dfe b3bd 9923 303e 29da ffbb 8659 10be
00000270: ae64 823d 42ab de3c 7701 1fbe c7a9 a4bd
00000280: 93c9 1ebe 9118 8a3d ad9c 34bd 1902 39bd
00000290: f654 c7bd 2c15 b33d 6c15 d4bc bf7a a53d
000002a0: 10fb 4d3d 381b 073e fe96 4bbd 4ba5 4dbe
000002b0: 3f61 02bd 857d 33bd b9d7 e5bd f7d2 6e3d
000002c0: 9482 d5bc aa80 d83d ed25 093e 72d2 363e
000002d0: 869f 34bd d2a5 203e faa9 d1bd d5a0 ccbd
000002e0: fdc9 10be 3a8b 15bd 575e 36bd eee6 c0bd
000002f0: 7204 0d3d 31bc 8f3c b30d cfbd 7744 393d
00000300: 364c c43d 2a74 e7bd cb44 2f3d 54ce 9c3c
00000310: e947 b3bd 3e38 3abe 001f f8bd 8cfd c9bd
00000320: 4cda 1d3e a77c 18be 9da4 8bbd df7a a5bc
00000330: b6bb dabd bcd2 c8bc 4f5e 31be db25 c6bd
00000340: 1436 153e deac 13be 3f28 f8bd 6342 fbbd
00000350: fbf3 a1bd 39f9 cbbd e959 aebd 4e15 03be
00000360: 8ae5 b03d 1509 063e 54e7 4fbd 3a93 dcbc
00000370: 7103 ea3a b27b 423d ae0c 17be c3ad dabd
00000380: 1497 a43d b8e3 0a3e 823c dabd 97d3 15bd
00000390: fce3 bb3d c288 63bd 4a15 31bd 176c d73d
000003a0: c0e3 febd 3a13 47bc 0930 673d 027f 76bd
000003b0: bd89 263d 2c75 183d d155 49bd c8eb bc3d
000003c0: 30c4 cbbd e9d1 f8bd f1c6 f6bd 5dcd d53c
000003d0: 0975 9bbd 1e43 893d 6f65 8c3c 0798 30be
000003e0: 9126 88bd f2cb d3bd e334 583d 6c32 f33d
000003f0: 56c0 25be 116b b43c 57e7 b9bd ee4d 71bd

bias f4 [10]
-0.19795676 -0.029291624 0.013985298 0.005238472 0.11510962 -0.018253615 -0.007101011 -0.027233975
-0.017821187 0.035558425
00000000: 2db5 4abe fdf4 efbc 9722 653c 7da7 ab3b
00000010: 98be eb3d 9b88 95bc 99af e8bb c919 dfbc
00000020: bdfd 91bc b6a5 113d
