models/gpu_train_model15.pth (torch, 587335 bytes, 10 tensors)

weight f4 [32, 3, 5, 5]
00000000: 881c 953d ddc2 433e 68cf 383d 0676 32bd
00000010: 1e9c 07be c519 ad3c 5483 073e 8b6a 233e
00000020: 9b71 cabd e821 aabd 7f95 4e3d 800a 053e
00000030: 6471 eeba bb97 7abd 6909 f4bc 4302 2e3d
00000040: 2c16 c4bd 7531 c7bd d840 473b 7aff 483e
00000050: 0108 13be b359 f3bd 82dd c63d 1c39 b13d
00000060: 9b6c 223e 6083 fe3d 678c 0c3e 1580 8cbd
00000070: 940f 8e3c 20b0 dcbd ab3a 1f3e 2714 7a3c
00000080: 1983 2f3d 9e5a 07be 270d 05bd a51e 683d
00000090: b1f0 393d 5338 d93c 6332 5ebd ea23 a0bd
000000a0: df0e c0bd 2098 1cbe 3c22 b9bb 1785 893d
000000b0: 3458 4a3e f9a7 c2bd 03b3 debc 0244 643d
000000c0: 6815 403d 0e02 e43d 563f ae3d b082 d23d
000000d0: 6f58 1fbe 4886 4cbe 9310 febd 3c08 35bd
000000e0: 0483 d43c bf8c 19bd d641 5bbe 9434 44be
000000f0: 7516 76bd b31c 77bc 6e53 98bd e9f9 53bd
00000100: 65da 36bb af5a d4bd df82 00bd 11a5 27be
00000110: a4a0 c33d 1e80 9b3d b140 32be 2079 e53c
00000120: 3396 d6bc 80f0 54bd 40b9 133c c1a3 db3d
00000130: 0eec 5dbd 81d0 0abe 8634 bbbc c1e1 afbd
00000140: 3b38 eebd d4bb 37be 96e8 80be cd9c ce3c
00000150: 60e9 153e 0242 4ebe 0f72 1fbe 7a25 f7bd
00000160: e51b 383e 6fcf ba3d b44e c239 2b23 37be
00000170: 3bc2 233d 9a44 c73d 8b9e d63d 0963 3c3d
00000180: 6de7 45be fc66 be3d c3c1 053e 1152 84bd
00000190: bf3e 213e f770 e1bd f154 8dbd ed20 da3c
000001a0: b610 293e ea71 88bd 685b 63bc ee06 42be
000001b0: 8b32 0c3e fc8d 313e 2c95 e2bd ff82 433d
000001c0: 98c3 3ebd 60f2 1e3e 5048 f03d cf6a 4f3d
000001d0: d72f 10be 236b 413e 759e 4d3e a49d cf3d
000001e0: d5fd 9b3c bffa 373c 8af8 233e 74b2 793d
000001f0: cc47 1b3d 060a fc3d b824 36bd 55f5 5bbe
00000200: 451b 5fbd 1095 e1bc b992 15bd fea0 5dbd
00000210: be74 adbd 383b 963d 2b42 7c3d 4a3d 1bbe
00000220: 5c98 5e3c e4f2 883d 0304 d43d 16be c5bc
00000230: ed57 27be b42d 08be 279e 723d 25d6 e2bb
00000240: a39a 483b 3703 04be c81f afbc 4d60 213c
00000250: 8671 083e a3d2 6f3b 9943 b5bd a4b4 083e
00000260: 3f33 b43d 0570 a33c 8477 043d 4f35 18be
00000270: 049f 433e b7a5 2d3e 4955 c0bd 573a bbbc
00000280: 7da0 cbbd 3d05 0c3e a28b 2f3e 1ace d33b
00000290: 2893 0e3e 3e3c a03d 690e 443e 73d2 2c3a
000002a0: 3667 403d a15d 483e ff57 bb3d 7a5a cc3d
000002b0: d611 ee3d 0bda 8d3b 46aa 1f3e 9705 31bd
000002c0: 2508 183d d84c 37bd 979d 94bd b682 003e
000002d0: e76c 67bd cae8 97bb 29fa a6bc 83bb 823d
000002e0: a276 723d f582 1dbe 1fb0 df3a c04c 05bc
000002f0: 717c 11be 9202 5c3d c69c bfbd 4d73 93bd
00000300: 1897 f1bd f36f 65bc e6d8 0e3e a04c 89bb
00000310: 754e 343c 72ad 1f3d 61c8 993d 81bd 13bc
00000320: c46a 70bd 64af 98bd 4a5d 33bd f518 263d
00000330: 30b4 f5bd 5460 4fbe d07c 8b3c e78e fbbd
00000340: e652 24be 017b 863c 28c5 80be a451 6cbc
00000350: a991 a2bd b69d e9bd 14e7 6c3d 6c3f c3bd
00000360: a029 87bd dc76 c9bd 490e 6dbc d95f 36b7
00000370: 5118 48be 9fc4 143d 384d 1abe 96b5 653d
00000380: 94ec b33c 4a51 b73d 47b1 9abd b5f4 8ebd
00000390: 2f8d b4bd 07a7 d13d cb5c 06bd c7d2 b53d
000003a0: 3de6 86bd 469d d23c f34c a53d 2516 d03d
000003b0: 9f8a c1bc 555e c43d a392 58bd 3b30 e43d
000003c0: 16fe f5bd 9942 043e e963 b03d 5717 423e
000003d0: f720 b73d 8caf 2b3c 03b1 93bd f29c d33d
000003e0: c5fc d33d 378a 30bd 0f49 b3bd 8dac 21be
000003f0: a815 5b3d 12ba 04bd 614b a53d fa02 eb3d
0.072808325 0.19117303 0.045119673 -0.043569587 -0.13243148 0.021130452 0.13233691 0.15958612
-0.0988495 -0.08307248 0.05043554 0.12992287 -0.0018191752 -0.061179858 -0.029789643 0.042482626
-0.095745414 -0.0972623 0.003040364 0.19628707 -0.14358522 -0.11882343 0.09710218 0.08653471
0.15861742 0.124274015 0.13725434 -0.06860367 0.017341413 -0.10775781 0.15549724 0.015263594
0.042849634 -0.13218161 -0.032483246 0.05666985 0.045395557 0.026516115 -0.05424727 -0.0781935
-0.093778364 -0.15292406 -0.005649833 0.06714838 0.1976021 -0.095046945 -0.027184969 0.05572892
0.046895415 0.111332044 0.08508174 0.10278833 -0.15561078 -0.19973099 -0.12405505 -0.044197306
0.02594138 -0.03748774 -0.21411833 -0.19160682 -0.06008001 -0.015082526 -0.07437788 -0.051752005
-0.002790117 -0.10368859 -0.03137481 -0.16371562 0.09552124 0.07592796 -0.1740749 0.028011858
-0.026194667 -0.05198717 0.009016335 0.10724593 -0.054180197 -0.135561 -0.022852194 -0.08587981
-0.11631819 -0.17942744 -0.2517745 0.025221253 0.14639807 -0.20142367 -0.15570854 -0.12067695
0.17979391 0.09121596 0.00037061202 -0.1788451 0.039980154 0.097298816 0.104794584 0.045992885
-0.19326563 0.092969865 0.13062195 -0.064609654 0.15746592 -0.110078745 -0.06900967 0.026627028
0.16510281 -0.066623524 -0.013876773 -0.18947956 0.13691156 0.17339319 -0.110636085 0.04773235
-0.04657325 0.15522146 0.117325425 0.05063897 -0.1408075 0.18888526 0.20079978 0.101374894
0.019041935 0.011229216 0.16012779 0.0609612 0.037910268 0.12306599 -0.04446861 -0.21480305
-0.054469366 -0.027536899 -0.03651688 -0.054108612 -0.084695324 0.07335514 0.06158654 -0.15160099
0.01358613 0.06686953 0.10352328 -0.024138492 -0.16342135 -0.13298684 0.059232857 -0.0069225007
0.0030609749 -0.12891851 -0.02137746 0.00984962 0.13324556 0.0036594055 -0.08850784 0.13350159
0.08798837 0.019950876 0.03234054 -0.14864086 0.19103628 0.16957746 -0.09391267 -0.022854967
-0.0994272 0.13673873 0.1714311 0.006463778 0.13923323 0.0782399 0.19146122 0.00065926387
0.04697343 0.19566967 0.09147643 0.099781945 0.11624496 0.0043289713 0.15592298 -0.04321822
0.037117142 -0.04475102 -0.072566204 0.12549862 -0.05650034 -0.004635905 -0.020382958 0.06383421
0.05919517 -0.15381987 0.0017066038 -0.008135974 -0.14207627 0.05371339 -0.09356074 -0.07199726
-0.11796397 -0.014003742 0.13949928 -0.0041900426 0.011005034 0.03898377 0.07508922 -0.009017349
-0.05869557 -0.07455328 -0.04379014 0.040551145 -0.11997259 -0.2025159 0.017027289 -0.12283116
-0.16047248 0.016416075 -0.25150418 -0.0144237615 -0.07937939 -0.11407034 0.05783756 -0.09533581
-0.06599736 -0.09837124 -0.014468738 -1.0870362e-05 -0.19540526 0.036320325 -0.15068519 0.056081377
0.021963395 0.089510515 -0.07553344 -0.06980268 -0.08815991 0.10236936 -0.032803338 0.08878093
-0.06586883 0.02570976 0.080713175 0.10160474 -0.02362567 0.09588305 -0.05287422 0.11142012
-0.12011354 0.1291603 0.08612806 0.18954216 0.089418344 0.010478865 -0.07211497 0.10332669
0.10350946 -0.043100562 -0.08754169 -0.15788479 0.05348745 -0.032404013 0.08071018 0.11475177

bias f4 [32]
00000000: 62d2 9f3d e5cd 813d 6a13 e7bb d4a4 35be
00000010: 5cf2 97bd 8ecb 113e e2f0 2e3e 5da0 0d3e
00000020: f5d8 b0bd 2f9d 083d 1b7e 473e 6cb7 99be
00000030: dc8e 99be 77e2 ce3d 2bec 00be 4f88 91be
00000040: 7c5b 57be 1d7e 433d ff5e 633e 8c24 2bbe
00000050: c6d4 f6bd 6bc0 b2be 5a1c efbc b61a d1bd
00000060: 0f4a 79bd 61e6 f43c 8d7d 07bd 3051 04be
00000070: 5ffd 91bd e805 38bd 65d5 613d 2c95 af3d
0.07803799 0.063380994 -0.007051875 -0.17738658 -0.07419273 0.14237806 0.17084077 0.13830705
-0.08635131 0.033353027 0.19481699 -0.30022752 -0.29991806 0.101017885 -0.12590091 -0.28424308
-0.21030992 0.047727693 0.22204207 -0.1671316 -0.12052302 -0.34912428 -0.029188324 -0.10210173
-0.060861643 0.02989501 -0.03307872 -0.12921596 -0.07128405 -0.044927508 0.05513515 0.08573374

weight f4 [32, 32, 5, 5]
00000000: c942 a6bc ffb6 a13c f942 603c 444b 7cbb
00000010: c498 f83c 558b 73bb fb1f 06bc 2aad 2e3d
00000020: e2ec a23c 312d 663d 35e0 9d3a cd95 043d
00000030: 87ca 6d3d cd44 c13c 609a 0239 3f81 203c
00000040: debe 543d c1f6 713d 65e3 453d 7c41 ae3c
00000050: a732 a63c 9b62 d73c 7600 943c 129a a83c
00000060: bb39 ed3c 4886 dcba 1e89 e6bc 2551 cabb
00000070: 4283 e33c dc1c 333d 8c2a 833c ed47 903b
00000080: 7cab 82bc 0043 d23b 2261 693d 28cc e93a
00000090: 144e 27bc 737b b23c b46e 753d 7f6d 783d
000000a0: b0fa 83bd 5c9f 28bd 9d4b aa3c bf9c 93bb
000000b0: 0271 093c 55da c9bc 61c2 0cbd 8d0a 103d
000000c0: c530 bd3c 877d e13c 639f 9e3c 88cf b7bc
000000d0: 4372 cebc f02f b53b b214 9bbc 5492 8d3c
000000e0: d14c 7ebd 4abb 973b f1e5 0a3d e522 19bc
000000f0: 04b1 6dbd c9ba cdbc 6dd0 1ebd af02 68bc
00000100: de20 93bc 52dd edbc 1618 5cbd 9e1e 13bd
00000110: 0f96 f83c 4769 d6bc 50da e5bc f88e 36bb
00000120: 1c0e abba 5f3a 91bc 394c 933c 8afd 07bd
00000130: 070f 553c 1f99 833c 14f8 923c 05b3 793a
00000140: 0d99 363b 0ecd ae3b dfc1 79bc 7b21 2fbc
00000150: 9e4c 94bc 082c 23bd 148f 2dbc 23ba 16bc
00000160: d577 c33c aeeb c43c 7a90 c3bc b2a9 fcbc
00000170: 3220 3ebd f3f4 fcbb 3d60 3fbc 0918 b0bc
00000180: 2f4c d2bb 704b 2d3c bad2 d73c a8e1 c43c
00000190: 058b fc3c 7c3b 323d 9247 a2bc 0ba2 c83c
000001a0: 6cfa aebc 8d48 6e3c f9dd 113d 22f9 283d
000001b0: 5f49 a43b b207 333c 7714 f638 6557 5c3d
000001c0: e76f 193c ad5e 85bb 49a8 d33c 0a10 a23c
000001d0: 7ba7 c43c 0776 69bc 73af 32bd 73a5 52bc
000001e0: 794d 99bc 6105 aa3b e4fc 9cbc 0235 34bd
000001f0: 81c4 4fbc 9265 603d bd69 fbbb b6f9 c63c
00000200: f292 683b b2a7 763c 2165 3a3d eb35 b13c
00000210: cb35 cf3c a0b9 c43c f568 353c f2cc 1a3d
00000220: e4ad 773c 47bd 1b3d a197 953b f624 f8bb
00000230: 882b 5a3d 5f56 c43b 83ef 0f3c 51c3 cdbc
00000240: d0cf 7e3c 05e7 113d 1e42 cf3c 5f05 7d3c
00000250: bc43 7abb 9504 99bb 11b9 5abc ffc9 c73c
00000260: cf4c c53c 511a 883d 8492 043c 8be3 50bc
00000270: 0475 493d 93cf 433d b30c 8b3d 1085 433d
00000280: e386 9bbc 35f1 813d 03ed 013d cb8f 193d
00000290: 33ef 8b3d 3f59 80bc 11bf 0b3d 0797 f63c
000002a0: dd75 8b3d c5ad 3c3d 49c8 203c df13 f5bc
000002b0: 91d0 3e3c e06a 00bd c84f 03bc 3af0 273b
000002c0: faa4 aa3c b773 f83b a04b 0a3d 1d73 033d
000002d0: 0e5b 283d 6484 9c3c 44c6 5e3d f4dc 4c3d
000002e0: 41ae ef3c 5506 7fba 2bb1 d83c 01ce f53c
000002f0: 701d 51bc 2658 023c 3c9d 213d 0d6a 8fbb
00000300: 528b bcbb c37b 90bc e891 8ebc 6bb2 f3bb
00000310: 194e 083c 3aec 4abd 589b 08bd 1c92 2cbd
00000320: dfe9 0d3b 5145 54bc 0981 973b cea6 1bbc
00000330: 32c1 693c a134 acbc dcf1 81bc b27c 91bc
00000340: 17f7 c03c f049 3dbc 1291 d93c 84a6 693c
00000350: 4ff8 3c3a 75d5 b2bc 7433 0c3d 8ece 4abb
00000360: 371e 0e3d 4b3d c73c 7945 7a3c a46d 9b3b
00000370: 6088 d8bb d200 1bbd fcec f93b 066f a6bb
00000380: bf32 2abd b4e5 ca3c 8828 c1bc 0bb7 63bc
00000390: ad14 07bd 6a98 c0bc 82ac 7a3a 409d 31bd
000003a0: a4d4 82bc 2233 3dbd 0331 b0bc 9d68 113b
000003b0: 4f32 5bbd 86fd 42bd 4784 213c efcc 8fbc
000003c0: dbb5 893c 2b02 09bd 2fcf 81bc f169 3a3c
000003d0: b965 31bc 478c ecbc 32de 53bd 9566 3abc
000003e0: 8896 803c 058f 07bd 0ec0 193d c156 963b
000003f0: eb6c a7bb fa82 f5bb c1e7 3b3d 87ba 7e3a
-0.020295518 0.01974058 0.0136878425 -0.003849701 0.030346282 -0.0037161906 -0.008186336 0.04264561
0.019888345 0.05619544 0.0012044968 0.032369424 0.058054473 0.023592377 0.00012455275 0.00979644
0.051939838 0.059073213 0.048312563 0.02127146 0.020287825 0.026292136 0.018066626 0.020581279
0.028958192 -0.0016824687 -0.028141554 -0.006174224 0.02777255 0.043728694 0.016011499 0.0044031055
-0.01595091 0.0064166784 0.0569774 0.0017837333 -0.010211486 0.02178738 0.059920028 0.0606513
-0.06444299 -0.041167602 0.020788008 -0.0045047696 0.00838876 -0.024640242 -0.03436506 0.035166312
0.023094544 0.027525676 0.01936311 -0.022437826 -0.025200969 0.0055293962 -0.018930767 0.017281689
-0.062084977 0.004630481 0.033910695 -0.009346698 -0.058030143 -0.02511348 -0.03877299 -0.014160796
-0.017960008 -0.029036198 -0.053733908 -0.03591787 0.030344991 -0.026173247 -0.028058201 -0.0027856212
-0.001305047 -0.017728029 0.017980682 -0.033200778 0.013004071 0.016064225 0.017940558 0.0009525272
0.0027862221 0.005334503 -0.015243976 -0.010689135 -0.01810294 -0.039836913 -0.0105931945 -0.009199652
0.023860851 0.024038162 -0.023872603 -0.030842636 -0.046417423 -0.00771963 -0.01168066 -0.021495836
-0.006417773 0.010577068 0.0263456 0.024033383 0.030828008 0.04351376 -0.019809518 0.02449133
-0.021359645 0.014543665 0.03561208 0.041253217 0.0050136293 0.010927128 0.00011734006 0.053794283
0.0093650585 -0.004070124 0.02583708 0.019783039 0.024005642 -0.014249331 -0.043624353 -0.012856829
-0.0187137 0.0051886295 -0.019163556 -0.043995865 -0.0126811275 0.054784365 -0.007672517 0.024288993
0.0035487977 0.01505463 0.0455066 0.021632155 0.025294205 0.024014294 0.011072387 0.037793107
0.015117142 0.038022306 0.0045651947 -0.0075727655 0.05326417 0.0059917415 0.008785131 -0.025117548
0.015552476 0.035620708 0.025300082 0.015443175 -0.0038187345 -0.0046697357 -0.013349787 0.024388311
0.024084477 0.066456445 0.008091573 -0.012749563 0.04918386 0.04780538 0.067895316 0.04773432
-0.018985217 0.06344835 0.031720173 0.037490647 0.06832733 -0.015667556 0.034117762 0.030101312
0.0680959 0.046064157 0.009813377 -0.029916702 0.011646406 -0.031351924 -0.008014627 0.0025625364
0.02083062 0.0075821537 0.033763528 0.032092202 0.04110246 0.019106098 0.0543883 0.050015405
0.029257895 -0.00097284216 0.026451668 0.030005457 -0.012763366 0.007955587 0.03945659 -0.004376656
-0.005753913 -0.01763714 -0.017403558 -0.0074370406 0.008319401 -0.04954169 -0.033351272 -0.04213153
0.002165429 -0.012955979 0.0046235365 -0.009500219 0.014267253 -0.02102119 -0.015862398 -0.017759655
0.023555322 -0.011553273 0.026558433 0.014260892 0.0007208632 -0.0218303 0.034228757 -0.003094587
0.034696784 0.024321219 0.015275353 0.004743295 -0.006608054 -0.03784258 0.0076271277 -0.005079153
-0.0415523 0.024767734 -0.023578897 -0.013898621 -0.032978702 -0.023510177 0.0009562449 -0.043362856
-0.015970536 -0.046191342 -0.021507746 0.0022187599 -0.053514775 -0.04760506 0.0098581975 -0.017553775
0.016810348 -0.033449333 -0.015845863 0.011377797 -0.010827475 -0.028875483 -0.051725574 -0.0113769965
0.015696779 -0.03309538 0.037536673 0.0045879786 -0.0051094196 -0.0074924203 0.045875315 0.0009717126

bias f4 [32]
00000000: 9358 a43c 7bed 1ebe ab78 0d3d 261d 96bc
00000010: e7ef a9bd 5539 2b3d d409 cabc 337a e9bd
00000020: cf68 343c 3bc8 a2bd e399 bdbd c541 9f3d
00000030: c54e 9fbd 72cc 06bd cb54 e0bd 29cc cebd
00000040: f543 48bd d93c c9bd 3ac2 2dbd 9b22 fabd
00000050: 892b cb3c 6ccd c6bd f5cd 30bd fef0 623b
00000060: ec97 c83c 213a 483d 257f 1cbe ad58 33be
00000070: a96e 2d3d 98c1 b2bd 59e2 41bd 5a9c 01be
0.020061767 -0.15520279 0.034538906 -0.018324446 -0.08297711 0.041802723 -0.02466289 -0.11400261
0.011011316 -0.07948347 -0.09257867 0.077762164 -0.07778696 -0.032909818 -0.10953673 -0.10097534
-0.048892934 -0.09826059 -0.042421557 -0.12213632 0.024801033 -0.0970715 -0.043165166 0.0034628506
0.024486504 0.04888356 -0.15282877 -0.17514296 0.042341862 -0.08728331 -0.047335003 -0.126573

weight f4 [64, 32, 5, 5]
00000000: 72c5 cdbc e419 2bbd c103 2dbd 92c6 37bd
00000010: bf73 24bc d8dc 2e3d 87a4 023c 38c0 51bc
00000020: 640a 95bc 703f 41bc 20b4 e3bc dd18 a03c
00000030: 0519 c8bc 54bf f3bb 3ca6 af3b f99a 903c
00000040: 91bc e2bc eb1e 2f3c 2ed0 6a3b a9cc 813d
00000050: 2204 0a3c 5748 093d 6914 d2ba ad81 f1bc
00000060: a115 cf3c 8ec9 9e3d ede1 f83c ca0b 42bd
00000070: 1fc9 b7bc 0b59 18bd e657 2f3d 7783 88bb
00000080: 8df5 9c3b ba8f b1bc 4274 79bc 9b51 84bc
00000090: 6ca3 813c 1680 b63c f0f3 3c3d 70b3 093d
000000a0: df6e 22bc a2bd 0e3b ceb8 28bb 0df4 34bc
000000b0: 71a7 02bd 3888 fc3a 37ac bc3c d6d4 4e3d
000000c0: 5bcc 75bc c0da 01bb 8c20 d63c 1419 78bc
000000d0: b035 ffbc f2b0 3ebd 6ea5 9e3c 0601 0e3d
000000e0: 7c4b 3a3c ece7 1c3d 81dd 24bb fb1d 0bbd
000000f0: 1345 9a3c 60cc 8c3c 75a1 96bb 5fca 043d
00000100: ea99 e63c f287 bfbc 8a80 45b9 b68e f23b
00000110: d377 8abc c270 c63b 64e0 1ebd 8ffa 1d3c
00000120: 0161 093d 08fa e8bc a494 bdbc 8f96 59bc
00000130: 67fc 883c 6a25 c83b 32a2 4d3c d54c 013d
00000140: e6cf b83c 60b7 eaba 5aea 743c 6620 2cbc
00000150: 13d8 b5bc 2337 043c 0b42 d2b5 70a6 fcbc
00000160: cec2 0cbc 5cb4 7abc 80a9 0b3d 4082 e63c
00000170: 44e2 c13c 9256 713b 8634 903b a0b8 13bd
00000180: fa2f 0fbd 4717 933b 11bc 11bd 006e a03b
00000190: f596 f7ba c1bc 29bb 0832 3dbc 21af d1bc
000001a0: 79f5 13bd 5889 443d e72f 02bc b14c 2a3c
000001b0: 411d 863c dcce 513b 3f4e f43c 8f58 5b3c
000001c0: 01ed bbbc 4152 7b3c 4394 d6bc 6426 08bd
000001d0: bdc7 13bc 3073 803b 293f 1d3d bbc1 b4bc
000001e0: fee7 aa3b cb77 123b 7e48 0c39 9d43 233b
000001f0: 92bd 9e3b a120 a8bb bf27 17ba 1d0c 46bd
00000200: 0c08 67bd f17f 923b f661 443b 37af 22bc
00000210: b244 0cbd a104 93bb 48e6 77bd 9266 dfbc
00000220: 7854 c23a da26 87bc d6ac 963c 03e0 953c
00000230: 8422 03bd abb7 27bd 7b28 9c3c 2a60 ecbb
00000240: 09c3 9dbc 1944 27bd f2c0 133d 8173 a83c
00000250: cc81 223d 6889 1d3d 9929 103d 2dfe 4cb9
00000260: 64f4 df3c 3e57 ff3b 413a 3c3c 78d5 e5bb
00000270: 9e93 17bd 9f7f 483d e37c 423d 4c72 7abc
00000280: 6b61 77bc a40b ad3c cfc6 443d ee97 0a3c
00000290: 9224 143b 5f2d 25bd e468 fcbc 83b3 f1bc
000002a0: 89b7 11bd 7f1d 6f3d 7769 383b 1b36 efb7
000002b0: 72d8 ee3a 723d 4cbc 6d6a f83b 2b1c a3bc
000002c0: 656f 093c 0352 e9bb d075 d4bb 41dd c6bc
000002d0: 735d a6bc 836a bebc a429 9bbc 363c 30bc
000002e0: 7e33 ea3a bf7c 853c 33be 32bc 90b2 0abd
000002f0: 3b8e cb3c ca00 1dbc bb96 853c 37ab 193d
00000300: 4ff6 ff3b 9377 aebc ac83 df3c d6a4 a1bc
00000310: 1369 07bd 4c77 233a 8cc2 cfbc fb35 bf3c
00000320: 60df 4c3b 933b c1bb 1684 1f3b 7cb2 47bc
00000330: 06c0 13bd 96a6 463c b0b6 70bb 4d1f 9abc
00000340: bc09 73bb 6d3a bcbc 811a c43c 0cea 74bc
00000350: 7a7b b2bc 7105 14bd dc04 9d3c f6fe a6bc
00000360: bbe9 f83a ae44 83ba 6fff ddbc eb0b eebc
00000370: df86 cdbc 84a1 0abd 2ba0 ca3c 820d e43c
00000380: d496 843c dcbb 413a 314a fbbc 28cc 55bc
00000390: 7db9 efbc 8b02 b4bc d54c bcbc 3da2 75bb
000003a0: a0a3 ebbb b5ae e5bc 82d2 cbbb 583f 2cbc
000003b0: 035e c8bc 466c 333b ae67 403b 4800 92bc
000003c0: b8da b6ba 4d25 f7bc 2418 24bd ddaa 00bd
000003d0: 2a0a 173c 7777 28bd 92d0 80bc e80c ac3b
000003e0: 7d88 513b 28fd d53c 21c8 95bc b2ab 28bd
000003f0: aad2 a7bc 59dd 2fbd bfa5 2f3c 0b1d 98bb
-0.025118563 -0.041772738 -0.042239908 -0.044867106 -0.010037362 0.04269108 0.007973797 -0.012802176
-0.018193431 -0.01179491 -0.027795851 0.019543106 -0.024425993 -0.0074385796 0.005360393 0.017652022
-0.027677806 0.010688524 0.0035829651 0.06337864 0.008423837 0.033516254 -0.0016027811 -0.02948078
0.025278868 0.07753287 0.030381167 -0.047374524 -0.02243477 -0.037194293 0.042808436 -0.0041660625
0.004790014 -0.02167498 -0.015225472 -0.016152194 0.015824996 0.022277873 0.046131074 0.03361839
-0.009914129 0.002178051 -0.0025744918 -0.011044514 -0.031897966 0.001926667 0.023031337 0.050495945
-0.015002335 -0.0019814223 0.026138566 -0.015142698 -0.03115353 -0.046555467 0.019365992 0.034668945
0.011370536 0.038307115 -0.002515644 -0.03396414 0.018831765 0.017187297 -0.004596884 0.03241956
0.028149564 -0.023380253 -0.00018835269 0.0074022664 -0.01690284 0.0060559222 -0.038788214 0.009642257
0.033539776 -0.028439537 -0.023142166 -0.013280525 0.016721917 0.0061079757 0.012550877 0.031567413
0.022560071 -0.0017907433 0.014948452 -0.010505771 -0.022197759 0.008069786 -1.566544e-06 -0.030841082
-0.008591367 -0.01530179 0.034097195 0.02813828 0.023667462 0.0036825282 0.0044007925 -0.036064744
-0.034957863 0.004488859 -0.035579745 0.0048959255 -0.0018889593 -0.002589986 -0.011547573 -0.025596203
-0.036122773 0.047982544 -0.007945991 0.010394261 0.016371371 0.0032014167 0.029822467 0.013387813
-0.02294016 0.015339435 -0.026193744 -0.033239737 -0.009019789 0.0039199814 0.038390312 -0.022065034
0.005215644 0.0022349234 0.00013378446 0.0024912127 0.004844376 -0.005130843 -0.00057661155 -0.048351396
-0.05640416 0.004470818 0.0029965616 -0.00992947 -0.0342452 -0.004486636 -0.060522348 -0.027270589
0.0014826199 -0.016498018 0.018392961 0.018295294 -0.03201534 -0.040946644 0.019062271 -0.007213612
-0.01925804 -0.040836427 0.03607268 0.020562889 0.039674565 0.03846112 0.03519592 -0.00019549644
0.027338214 0.0077923825 0.011488498 -0.007013973 -0.037006013 0.048949834 0.047482383 -0.01528604
-0.01509891 0.021123715 0.04804116 0.008459074 0.0022604805 -0.040326472 -0.030811734 -0.029504543
-0.035575423 0.05837774 0.0028139034 -2.8516215e-05 0.0018222465 -0.012465822 0.0075810463 -0.019910892
0.008388375 -0.0071203723 -0.006483771 -0.024275424 -0.020308232 -0.023244148 -0.018940754 -0.010756543
0.0017868129 0.016294835 -0.010909605 -0.033861697 0.024848094 -0.009582708 0.016307225 0.0375168
0.0078113447 -0.021297252 0.027284466 -0.01973192 -0.03305919 0.0006235733 -0.025361322 0.02334117
0.0031261072 -0.0058969944 0.0024340204 -0.01218855 -0.0360718 0.012124678 -0.0036729984 -0.018813754
-0.003708466 -0.022977078 0.02393842 -0.014948379 -0.021787394 -0.036138 0.019167356 -0.020385247
0.0018990556 -0.0010014975 -0.02709934 -0.029058417 -0.025088726 -0.03384544 0.024734577 0.027838472
0.016185202 0.0007390359 -0.030675026 -0.013049163 -0.029263252 -0.021973869 -0.022985855 -0.0037480735
-0.0071911365 -0.028037408 -0.006220163 -0.010513149 -0.02445889 0.0027377768 0.0029358673 -0.0178224
-0.0013950681 -0.030169154 -0.040062085 -0.031412948 0.009218732 -0.041129556 -0.015724454 0.005250562
0.0031972222 0.02612169 -0.018283905 -0.041179366 -0.020486195 -0.042935703 0.010720669 -0.004642134

bias f4 [64]
00000000: 2c87 29bd df8d 2dbd 39b8 45bd faa8 94bd
00000010: b24b 43bd df51 0f3c 24fd 86bd 1af3 81bd
00000020: e513 f53c 87c6 44bd 36f5 14bd f7fc 4fbd
00000030: bb96 ecbb 7dc4 b7bc 0289 31bc 3e90 43bc
00000040: a2d5 47bd 274e 1cbc 7362 a9bd 17c9 9ebd
00000050: 5ff8 fbbc e9cd c6bd 0612 5ebb d7da 1abd
00000060: a2b9 78bd 3333 cdbd 0203 cebc b9ec 8cbd
00000070: b495 06bd a2a9 2cbd e127 2abd 5125 313c
00000080: 00bd 93ba cf8f 48bc eec3 86bc 35e6 1a3b
00000090: 3951 53bd 432c 933c 6b93 253d 1341 263c
000000a0: 82b6 a2bd 1105 a5bd 80d0 6fbd 3b26 90bd
000000b0: a1f3 d5bb 6379 cd3c 5e79 08bc e2fd 31bd
000000c0: fb13 f2bc 6f4b dfbc 84f0 6a3c 118d a9bd
000000d0: e193 aabd 1d61 56bc 1e4c 2d3c 5923 d7bd
000000e0: 5c62 51bd 60e9 b73c 6eb1 e5bc 7d5b 7cbd
000000f0: 6ae0 2cbd 1193 0ebd f1ce 153d 356f a93b
-0.041388676 -0.042371627 -0.04827139 -0.07258792 -0.04767961 0.008747547 -0.065912515 -0.06345196
0.029916713 -0.048040893 -0.036366664 -0.050778355 -0.007220117 -0.02243256 -0.010835888 -0.0119362455
-0.04878772 -0.009540117 -0.08270731 -0.077531986 -0.030758081 -0.09707243 -0.0033885255 -0.03780636
-0.06072391 -0.10019531 -0.025147919 -0.06881089 -0.03285761 -0.042153962 -0.041541938 0.01081212
-0.0011271536 -0.012241318 -0.016450848 0.002363575 -0.05159113 0.017965442 0.04042379 0.010147351
-0.07944967 -0.08057607 -0.05854845 -0.07038542 -0.006529287 0.025082296 -0.008329717 -0.043455012
-0.029550543 -0.02725765 0.01433957 -0.082788594 -0.08328987 -0.013084677 0.01057723 -0.10504789
-0.051119193 0.022450149 -0.028038707 -0.061610688 -0.042206205 -0.034808222 0.036574308 0.0051707276

weight f4 [64, 1024]
00000000: ceb9 77ba 949b dbbc 509f 6e3b b89c c03c
00000010: 06db 9e3c 3381 0f3b bfc0 d93b fec8 67bc
00000020: 46c6 053d 9acb 953c d617 8e3c 8c24 c53c
00000030: 1a6d d2bc 382b c3bc eff2 0abc 968e d03a
00000040: 573a 06bd 30f8 94bc 12e7 7dbc f6dc e23c
00000050: be38 e3b9 b13e 6d3b 91ad 4d3c ffd9 8f3c
00000060: 92fb 0f3c a2ca b13c f7af b9bc b352 5fbc
00000070: f071 10bd 7de4 8bbc 849a 243d 2cba 2f3d
00000080: b116 353c e96e 7abd 6613 f7bb 8416 e4bb
00000090: 3680 aebc 23d5 f93a e2f4 f5bc 3aa5 85bc
000000a0: 47f8 ca3c 468b f53c 17ce 253d de6c 233d
000000b0: ffd3 cfbc 31a0 c1bb 9453 483b 5379 563d
000000c0: ad99 36bc 70e3 dc3b 30e2 f43b f9f4 12bd
000000d0: dee4 4e3d bb20 f83c 0ef5 ab3c 6ecc 3a3d
000000e0: 2588 4bbc 030f 6c3d 8b87 9c3c 0774 e73c
000000f0: ba08 b33c 4e8f 6bbb fa18 aebc 7fc4 9bb8
00000100: a705 38ba 23ce 80bc 9afe 863c 0952 d33b
00000110: e11c 343d a0cc 683b acbc 9d3c a04d 0abd
00000120: f71d c0bc b3f9 9fbc e7b1 403c 2e09 bbbb
00000130: a16b 293d 0297 86ba 074f 8a3c a101 543c
00000140: 6d05 45ba d53e 133d 3189 c93c bc05 82bb
00000150: ffc5 b9bc 4913 c639 30e4 cfbc 34f5 cd3c
00000160: 64f5 58bb b8f1 353b 383a d3bb 8229 3dbc
00000170: 21e1 b83b 0349 c4bc 297f 2cb9 684c 0cbd
00000180: a942 1e3d e11e b1bb 2cf2 81bc 9105 46bc
00000190: 1f6f fa3c b464 673b 4c99 16bc 94fb 313c
000001a0: 1b68 e5bc 6f59 a1bc 5514 ea3c ea12 52bc
000001b0: 361f 893c 34f8 9b3b d94e 523c 35fa 7f3c
000001c0: 3c7f 40bc b67b c53b 0111 b6bc aedc 8c3c
000001d0: 0822 fa3c c857 03bd 9ca3 2cbc 20f3 653c
000001e0: b67f c63c 02ab d2bc 5685 8ebb 2767 7fbc
000001f0: 642d bbbc 4ef4 19bc 08df a93b e0b2 9c3c
00000200: acf7 893c da8e 623c 2cec cebc ade2 b53c
00000210: 21a1 9bbc 277e 32bc 26cb e0bc 1ccc f43c
00000220: e685 f13c f73b 403c 218c 8fbc aa15 373c
00000230: 9c67 78bc 44dc 6fbc 9700 48bc 11ed b3bb
00000240: cd08 c2bc f30c b2ba c42d 0dbd 4aa4 8c3c
00000250: c261 7abc 5205 e7bb afe2 dfbb e6c2 b63b
00000260: cdf9 acba 521e c23c 42fb ba3c 082e f63c
00000270: b4ee ffbc 1997 e5bc f49d fa3c f9cc 17bc
00000280: 2d7c e53c 91d4 153c d261 05bc 7ad8 1f3b
00000290: 2d2e fbbc f9e5 a3bc c119 3cba 8b8e ecbc
000002a0: 86e4 493c 8f4d bc3c c97b 923c b717 20bc
000002b0: 31a2 88bc e409 0b3b 8c84 093d 1d79 573b
000002c0: f635 693c 1a76 f93b 9a95 773c acdd eb3b
000002d0: cc25 80bb c4ab c73c 0a1c e33c 9fd7 92bc
000002e0: 3fb2 523b d1af 4bbd 7074 bbbc 2613 a63c
000002f0: 9191 c73c e5a2 88bc 4df3 e6ba 7636 f4bc
00000300: 0c63 143c 9cc4 38bc 2d88 553d 25fe 003d
00000310: 1864 d13c aea8 e6bc e53d b3bc 0a82 65bc
00000320: 5b72 06bd ac7f fb3c 80ed 1e3d 64bb acba
00000330: ca38 89bc 2d1a 89bb 391a 79bb abcb 263d
00000340: b6ad 87bc 0111 afbc ea6d 213d e43b 3dbc
00000350: de6b 173d 6a2e 133d a5c7 ba3c f1e7 3dbb
00000360: d42b 113c f206 3e3c a58b c23c ba06 1abc
00000370: d50b f0bb b1ea 98bc cd82 c13c 3509 73bc
00000380: 060a 9a3b cac1 febc ff68 3cbd 3136 1abd
00000390: 8807 133c 4862 f33c 7bbc a93b d1be 99bc
000003a0: d556 9e3b 2645 80bc aaff ac3c b087 e7bc
000003b0: 512d f6ba 0703 a1bc 846e 4cbc 4370 59bb
000003c0: 629f ea3c ee02 c0bc 1758 603b d7fd 6b3a
000003d0: 9d2e 0bbd cc17 703b 0ca7 8f3c e3a1 27bc
000003e0: b19b 8ebc 7613 24ba 4871 503b 265e 193d
000003f0: c499 913c 1e16 f5ba 571a 81ba 6cc5 69bb
-0.00094499893 -0.026807584 0.0036410876 0.02351223 0.019391548 0.0021897077 0.0066452916 -0.014147041
0.03265979 0.018285561 0.01734535 0.024065278 -0.02568679 -0.02382432 -0.008480771 0.0015911635
-0.03277048 -0.018184751 -0.015496986 0.027693253 -0.0004333909 0.0036200697 0.0125535885 0.017560003
0.008788006 0.021703068 -0.022666914 -0.013630557 -0.03526491 -0.017076725 0.04018642 0.042902157
0.011052773 -0.06114093 -0.0075401543 -0.006960692 -0.02130137 0.0019060712 -0.030023996 -0.016314138
0.024776591 0.029973637 0.040479746 0.039898746 -0.025369642 -0.005908989 0.0030567395 0.052361798
-0.011145038 0.00674098 0.0074732527 -0.035878155 0.050511234 0.030289045 0.020990875 0.045605116
-0.012422596 0.057631504 0.0191076 0.028253568 0.021854747 -0.003594357 -0.021252144 -7.427576e-05
-0.0007019885 -0.015723294 0.016478825 0.0064489883 0.043972854 0.0035522357 0.019255005 -0.033765435
-0.023451788 -0.019528246 0.011761165 -0.0057078814 0.04136241 -0.0010268393 0.016883386 0.0129398415
-0.0007515762 0.035948593 0.02460155 -0.0039679687 -0.02267742 0.00037779871 -0.025377363 0.025141336
-0.0033105249 0.0027762484 -0.006446149 -0.011545541 0.005642072 -0.023960596 -0.00016450569 -0.034252554
0.03863779 -0.0054052924 -0.015862547 -0.012086288 0.030570565 0.0035307826 -0.009191822 0.010863204
-0.028003743 -0.019695966 0.028574148 -0.012821892 0.016738515 0.0047598127 0.012836182 0.015623619
-0.011749085 0.0060267104 -0.022224905 0.017195072 0.030533805 -0.032066137 -0.010537054 0.014035016
0.02423082 -0.025716309 -0.004349391 -0.015588558 -0.022848792 -0.009396626 0.005184058 0.019128263
0.016841732 0.013828004 -0.0252591 0.022202814 -0.01899773 -0.010894335 -0.027440619 0.029882483
0.029482793 0.011733047 -0.017522873 0.011174599 -0.015161421 -0.014639918 -0.012207172 -0.005490907
-0.023685837 -0.0013584181 -0.034467474 0.017168183 -0.015282096 -0.007050195 -0.0068324427 0.005577433
-0.0013197005 0.023696098 0.022824887 0.030051246 -0.031241752 -0.02802615 0.030592896 -0.009265178
0.028013313 0.009144918 -0.008140998 0.0024390505 -0.030661667 -0.02000712 -0.00071754685 -0.028876564
0.012322551 0.022986202 0.017881291 -0.009771279 -0.016678901 0.0021215612 0.033573672 0.0032878586
0.014234057 0.0076129558 0.015111351 0.007198056 -0.0039107557 0.024373896 0.027723331 -0.017925082
0.00321497 -0.04972822 -0.02288267 0.020272803 0.024361404 -0.016679237 -0.0017620117 -0.029811125
0.009056818 -0.011277344 0.05213182 0.03149237 0.025560424 -0.028156605 -0.0218801 -0.0140080545
-0.0328239 0.030700527 0.038800716 -0.0013178405 -0.016750712 -0.0041840286 -0.0038010015 0.040721577
-0.016562324 -0.021370413 0.039411463 -0.011549924 0.036968105 0.035932936 0.022800276 -0.002897736
0.008860547 0.011598336 0.023748228 -0.009401018 -0.0073256292 -0.018666597 0.023621941 -0.014833738
0.004700902 -0.031098265 -0.04599857 -0.037649337 0.008973964 0.02970995 0.0051799393 -0.018767746
0.0048321285 -0.015657973 0.021118004 -0.028262943 -0.0018781816 -0.019654764 -0.012477521 -0.0033178485
0.028640453 -0.023438897 0.0034232193 0.00090023637 -0.03398 0.0036635278 0.017535709 -0.010231468
-0.017408224 -0.00062590034 0.0031805802 0.037443303 0.017773516 -0.0018698608 -0.0009849769 -0.003567065

bias f4 [64]
00000000: 28c5 05bd 9fdc 6abc 7455 7ebb 38d9 39bd
00000010: f4fd 00bc 4958 e7bb 5e39 153c 87e7 2a3c
00000020: 258f 44bc f629 7fbc 481b 653b 2ad4 d9bc
00000030: c311 a83c 0cb7 2dbc df22 40bc b008 963b
00000040: 8497 9c3c bbc3 b03c 03ba 7a3c 0d1e 833c
00000050: 933d ae3c 91ae 8abc 894f 8ab9 ed1e 98bc
00000060: a201 f0bc 4a19 50bc 1662 1b3d 675b 383c
00000070: 950e 40bd 6342 16bc 5b83 2bbd 7043 30bd
00000080: 8112 1f3d 567e e43c bd33 703d 9b11 ec3b
00000090: 8513 663c 4bf8 26bd 4577 823c a7f4 70b9
000000a0: 6ad2 723a c60e 4e3c 83ef f0bc 96ca 5cbd
000000b0: 4b4f a5bc 4d54 3d3d b436 9bbc fc5a 8c3d
000000c0: 0584 71bb 0fd7 9ebb 5a48 02bd cae9 4abc
000000d0: 0d73 a6bc 356c d13a 8c3a 5bbd 1034 84bc
000000e0: 1177 0a3d e39b 2abc df21 09bd 2cd9 37bd
000000f0: 70fd 5a3c 14a7 153d 1247 6a3c 402e 103d
-0.032658726 -0.014334827 -0.0038808258 -0.04537317 -0.007873047 -0.007060085 0.009107916 0.010431177
-0.011997019 -0.015573969 0.0034958888 -0.026590426 0.020516282 -0.010602724 -0.011727064 0.0045786723
0.019115217 0.021577707 0.015303138 0.01600554 0.021269595 -0.016928943 -0.0002638067 -0.018569434
-0.029297654 -0.012701342 0.03793534 0.011252261 -0.046888907 -0.009171101 -0.041873317 -0.043033063
0.038836006 0.027892273 0.05864309 0.007204247 0.01404274 -0.040764134 0.015926013 -0.00022979324
0.00092629215 0.012576764 -0.029411083 -0.05390414 -0.020179411 0.046222974 -0.018946983 0.068532914
-0.0036852371 -0.0048474143 -0.03180728 -0.012384841 -0.020318532 0.0015977683 -0.05352263 -0.016138107
0.033804957 -0.010413143 -0.033479568 -0.044884846 0.013366088 0.03653629 0.014299171 0.035200357

weight f4 [10, 64]
00000000: 8423 e7bd 591a 563e 79b0 1dbd ceb3 833c
00000010: bc96 1ebe 53c0 4b3e de35 32be 7bf4 ecbc
00000020: 0f07 a6bd c541 a13e bfd0 a1bd 0416 813e
00000030: 8a8e fbbd 1756 14be 38f4 0e3e e69a 82bc
00000040: 8bd5 f33d 5fe2 393e 5398 723d 2aa1 0bbe
00000050: 58d5 1d3e a241 c03d d6cc f3bd 623b 1e3e
00000060: 8455 163e 90f7 033d fa72 10be 45a1 003e
00000070: 709c 33bc c38d 1b3e d3e5 363e 4243 ed3d
00000080: 11eb 7bbe b015 823d 416b 30be 36e3 57bd
00000090: f810 f83c 6ae4 543e a4b0 0b3e b8d9 2d3e
000000a0: 9c86 a7bd 8611 18be 4d37 b8bd 3021 ff3d
000000b0: 3cb5 85bd 25be c8bd 52d0 30be 32d4 c2bd
000000c0: 825f c2bd c0e3 5a3e b099 03bd 30fb 2e3e
000000d0: c683 193e 3c3b 0e3e a6bf 72bc d164 033d
000000e0: a1ef 253e d28b 903d 47e4 623d e7e7 f03d
000000f0: 7546 7abd 0c56 a13c 19b3 8fbc 4e8a 05bd
00000100: 6f60 033e 4dde 813e 578c f7bc f0ac 3c3e
00000110: f664 0c3d 811a 70be bbf5 e53b 00ea fd3d
00000120: 5ac2 593e 7a24 dd3d 464b c0bd d17b c4bd
00000130: 6a9b 163e 24ef 0d3e 817e 17be 08da ce3c
00000140: 575d 3cbe a4df 98be 284e 8e3e 3499 3f3e
00000150: 08d5 45be a83a 473e b22e 123e 1e74 773e
00000160: caf6 fcbd 2a06 59be 3806 f93d 0775 b23d
00000170: 471b 34be 4377 8bbe e24f 7a3e 8b1b 90bd
00000180: b032 833e 118c 363d bad3 b5bd 25ec 413d
00000190: 2c11 933e 61f2 55be af09 9cbc 7523 a13d
000001a0: 018d dfbd e09f 9fbe 0888 6d3e eba5 1f3e
000001b0: fdbd aebd 6a6f 5b3e 40a8 c73c b669 f2bd
000001c0: 13aa e73d b792 e73d a808 edbd 416b f6bc
000001d0: 8a76 df3d 73c9 e73d fc3d 84be b48c 4a3e
000001e0: 3a97 7c3b 7fd8 463d 3823 df3d 046b 043c
000001f0: 635e 8b3e 855e ac3d 3e17 be3d 608f 4d3e
00000200: cb45 023e 70ec b1bd 1a6d b3bd 225f 0d3e
00000210: 67fa 723d f317 483e 59b8 4ebe dffd 77be
00000220: 9ff7 093e aca2 4a3e d1d7 e7ba ff92 7dbb
00000230: dcad cebd 4d16 273e 68ca 6dbe a5d7 fb3c
00000240: a0cf 9bbd 2bf8 8b3e 11ec 4ebe 2edb 403d
00000250: 2b2d d43d 95f0 a5bc 28d5 6fbd b48f 11be
00000260: f760 cfbd 50cb 813e 9424 9c3a dcf1 2ebe
00000270: a92c 283d d278 e43c 3e96 4abe b1e7 a1bd
00000280: b0fd 2abe da3d 9e3d 6697 3bbd 2626 97bd
00000290: 03db 12be 913e 0e3e 2d1b 5cbb 31bd 003e
000002a0: 705e 943d 5adf 333e c6f4 66bd f639 85be
000002b0: 1e74 babd 827d 30bd b8ae 30be ec2c 7d3d
000002c0: 51d5 e1bc 7a01 0a3e 1062 563e 1cfd 673e
000002d0: 6767 d2bc 8180 573e c4b6 18be 11a5 25be
000002e0: b51b 44be 249c 9ebc 790e 7cbd 6535 23be
000002f0: 5b59 493d d829 373d 5059 12be f890 be3d
00000300: 7151 eb3d da8b 09be 7148 833d cbd0 52bc
00000310: bc78 0abe c520 69be 76be fdbd 7abe cfbd
00000320: c73d 193e c05e 37be 5739 eebd 3e58 343c
00000330: 1b4f f6bd 3fae 53bd a2a3 11be 5f62 0cbe
00000340: 388f 573e a382 2bbe 8275 dbbd f1ac 26be
00000350: b6cb a0bd 40b5 e6bd 7231 bdbd 5e22 2cbe
00000360: 9400 d73d cb38 f23d 4952 16bd 0d69 b6bb
00000370: 660a ad3c 71a9 833d 16cd 2bbe 9a1e 03be
00000380: ac54 823d 9268 073e 3eca 12be abfc 53bd
00000390: 8dcb 063e accc a1bd 199c 1cbd d602 dc3d
000003a0: 18eb 33be 6901 72bd ce6d a93d 2929 3fbd
000003b0: 2638 7f3d 1bb7 7e3d 26b7 67bd dc84 e33d
000003c0: 2d5b f1bd 83c2 0cbe 21bc 27be 04c9 c6bb
000003d0: 5044 f6bd 52aa 653d 172e 253d 6dec 53be
000003e0: 6c5c 9ebd 3ca6 f0bd a925 a73d d2c3 233e
000003f0: 3bd4 2ebe 2873 783d d454 a4bd 5a65 89bd
-0.11286071 0.20908488 -0.038498376 0.016076948 -0.15487188 0.19897585 -0.17403361 -0.028925171
-0.08106815 0.3149549 -0.07901143 0.2521211 -0.122830465 -0.14485966 0.1396035 -0.015943002
0.119059645 0.1815276 0.0592273 -0.13635698 0.15413415 0.093875185 -0.11904304 0.1545234
0.14681059 0.032218516 -0.1410636 0.1256152 -0.010962591 0.15190797 0.17861108 0.11585094
-0.2460139 0.06351793 -0.17228414 -0.05270692 0.030281529 0.20790258 0.13641602 0.16977584
-0.081799716 -0.14850435 -0.08994923 0.12457502 -0.06528708 -0.09801892 -0.17266968 -0.09513129
-0.09490873 0.21375942 -0.03212899 0.17088008 0.14991674 0.13889784 -0.0148162 0.032078568
0.16204692 0.070579186 0.055393483 0.11762982 -0.06110235 0.01969435 -0.017541455 -0.0326026
0.12829755 0.25364915 -0.030218286 0.18425345 0.03427597 -0.2344761 0.0070178187 0.123981476
0.21265545 0.10797973 -0.09389357 -0.095939286 0.14707723 0.13860756 -0.14794351 0.02525045
-0.18394981 -0.29858124 0.27794003 0.18710786 -0.19319546 0.1945597 0.14275625 0.24165389
-0.12351759 -0.21193758 0.12159389 0.087137274 -0.1758853 -0.27239427 0.24444535 -0.070365034
0.2562461 0.04456717 -0.08878274 0.047344346 0.2872404 -0.20893241 -0.019047586 0.07868091
-0.10915566 -0.31176662 0.23196423 0.15590636 -0.08532331 0.2142922 0.02437222 -0.11836569
0.11311736 0.113072805 -0.11573917 -0.03008044 0.109112814 0.1131772 -0.2582854 0.19780236
0.0038542286 0.04854631 0.10895389 0.008082155 0.2722045 0.08416466 0.09281777 0.20074224
0.12721936 -0.08687675 -0.08761044 0.13805822 0.059320834 0.19540386 -0.2018751 -0.24217938
0.13473366 0.19788617 -0.001768822 -0.0038692353 -0.10091755 0.16317101 -0.23221743 0.030742476
-0.07607961 0.27337775 -0.2020724 0.047084026 0.103601776 -0.02025632 -0.05855289 -0.14214975
-0.101259165 0.25350428 0.0011912757 -0.1708445 0.041058216 0.027889643 -0.19783875 -0.0790552
-0.16698337 0.07726641 -0.04579868 -0.07380323 -0.14341359 0.13891055 -0.0033585534 0.12572171
0.07244575 0.1756567 -0.056385778 -0.26020783 -0.09104179 -0.043088444 -0.1725415 0.06181042
-0.027567538 0.13477126 0.20935845 0.22655147 -0.025684072 0.21045114 -0.1491347 -0.16176249
-0.19151194 -0.019361563 -0.06153724 -0.15938337 0.04915748 0.04471764 -0.14291883 0.09304994
0.11490143 -0.13432255 0.064103015 -0.012867163 -0.13522619 -0.22766407 -0.12389843 -0.101437524
0.14964972 -0.17907238 -0.116320305 0.011007367 -0.12026807 -0.051679846 -0.14222577 -0.137094
0.21050727 -0.16749053 -0.10715772 -0.1627691 -0.07851355 -0.112650394 -0.092379466 -0.16809985
0.10498157 0.11827239 -0.036699567 -0.0055667222 0.021123122 0.06428803 -0.16777453 -0.12804642
0.06363806 0.13223484 -0.14334962 -0.051754635 0.13163586 -0.07900366 -0.038234804 0.107427284
-0.1757015 -0.059083376 0.08272897 -0.046670113 0.062309407 0.06218634 -0.05657115 0.11109325
-0.117849685 -0.13746075 -0.16380359 -0.0060664434 -0.12024748 0.056070633 0.040327158 -0.20695658
-0.07732472 -0.11750457 0.0816148 0.15992668 -0.17073147 0.060656697 -0.08023992 -0.067087844

bias f4 [10]
00000000: 7b7f 44be 921c 29bd 75c1 073b fa36 a6bc
00000010: 28ed 1f3e d2ae f7bc f80a 5c3d e32d 28bd
00000020: 4c2e a9bc ad14 ba3b
-0.19189255 -0.041287012 0.0020714675 -0.020289887 0.15617812 -0.030234728 0.053721398 -0.041059386
-0.020651959 0.0056787343
