models/gpu_train_model11.pth (torch, 587335 bytes, 10 tensors)

weight f4 [32, 3, 5, 5]
0.06377458 0.18491617 0.04582653 -0.038925387 -0.114594266 0.0011589006 0.11345892 0.14674611
-0.086669035 -0.05457902 0.034726787 0.12758155 -0.0006976578 -0.061045416 -0.020992547 0.05668239
-0.060240254 -0.08072251 -0.021064717 0.17115109 -0.1151678 -0.090044186 0.098045714 0.06717311
0.15008065 0.107986175 0.12922443 -0.06692077 0.022119723 -0.0914395 0.12992536 -0.0049285972
0.02956478 -0.122194745 -0.007421023 0.03670792 0.04161224 0.025122197 -0.05889167 -0.07419082
-0.084216274 -0.12024839 0.007544782 0.039122846 0.16948985 -0.073797666 -0.0036844655 0.0533784
0.02555714 0.10111211 0.06908102 0.10119098 -0.14359209 -0.1840434 -0.10000382 -0.06705862
0.013895263 -0.0396757 -0.19340122 -0.15846054 -0.073735796 -0.009350336 -0.06454907 -0.045066718
0.010583766 -0.09201182 0.004436795 -0.1458317 0.07427338 0.053442124 -0.151764 0.05399503
-0.024782652 -0.06740202 0.0036198122 0.075887464 -0.05892897 -0.10629285 -0.009604669 -0.07471802
-0.12714958 -0.16063182 -0.21345842 0.021871744 0.14595029 -0.19136034 -0.13320707 -0.10696415
0.16170815 0.0950878 0.011522475 -0.15536834 0.028785735 0.07973618 0.1253202 0.052666165
-0.18047003 0.07875959 0.1318923 -0.024709899 0.1257031 -0.11767004 -0.045628164 0.030142594
0.16497144 -0.07827898 0.000399981 -0.1589493 0.1233817 0.16371024 -0.10517255 0.063283265
-0.041104432 0.12804131 0.11339561 0.052981537 -0.12665348 0.16957922 0.17451707 0.11386432
0.017781064 0.016793407 0.14146519 0.056247212 0.07078416 0.096832044 -0.052545823 -0.19397649
-0.053435 -0.03044433 -0.043175805 -0.04082346 -0.05559878 0.06069157 0.05260848 -0.14448707
0.026396558 0.07127514 0.077685095 -0.027195409 -0.16042745 -0.121548206 0.041021258 -0.031788025
0.014299729 -0.13114063 -0.019100605 -0.008482133 0.12696803 0.032103304 -0.08220316 0.12696496
0.08632828 0.02985156 0.044328347 -0.1428566 0.17310062 0.16368842 -0.08518246 -0.020644618
-0.09252371 0.11495619 0.16593572 0.015690435 0.13413937 0.08714753 0.17560123 0.0006386387
0.052918717 0.19210292 0.09592098 0.0871408 0.11400669 0.0055112103 0.15658146 -0.039791275
0.03016169 -0.048042323 -0.06977101 0.12726931 -0.047024008 -0.015640158 -0.020867715 0.07174559
0.056305677 -0.13801879 -0.007357634 -0.0022397756 -0.12750341 0.049786516 -0.08013442 -0.078783
-0.11005853 -0.005624033 0.13446502 -0.00070581574 0.0012592784 0.038981203 0.07381411 -0.013321261
-0.060564287 -0.08350392 -0.048377052 0.040347397 -0.124539204 -0.19545677 0.00844265 -0.12133374
-0.1537398 0.009772456 -0.23681813 -0.019853722 -0.07097083 -0.09999137 0.051238704 -0.083647855
-0.07080795 -0.08935039 -0.0065628234 -0.0074492004 -0.19486862 0.026173407 -0.15209737 0.051177945
0.011747422 0.08656242 -0.06382711 -0.06608696 -0.09840914 0.10102104 -0.04876908 0.08571169
-0.052445244 0.034655776 0.092962496 0.0905281 -0.032826893 0.1043637 -0.041299835 0.12944506
-0.108801305 0.12617436 0.07198415 0.17551878 0.08942463 0.02299433 -0.06478689 0.094980985
0.0958197 -0.035193093 -0.09357355 -0.1501698 0.052380193 -0.04982476 0.07144097 0.096366405
00000000: 3f9c 823d aa5a 3d3e 99b4 3b3d 3a70 1fbd
00000010: 66b0 eabd 40e6 973a 265d e83d 9d44 163e
00000020: 897f b1bd 408e 5fbd ad3d 0e3d bda4 023e
00000030: 06e3 36ba c20a 7abd 90f8 abbc cb2b 683d
00000040: 7cbe 76bd d851 a5bd ea8f acbc 3b42 2f3e
00000050: 18dd ebbd 1669 b8bd 31cc c83d 0e92 893d
00000060: beae 193e db27 dd3d 6953 043e c20d 89bd
00000070: 6c34 b53c a244 bbbd 270b 053e 1280 a1bb
00000080: d631 f23c 3d41 fabd 0e2c f3bb 0b5b 163d
00000090: 9971 2a3d 11cd cd3c 6438 71bd 5bf1 97bd
000000a0: 9579 acbd ca44 f6bd 383a f73b 473f 203d
000000b0: bf8e 2d3e 3b23 97bd 1377 71bb 4fa3 5a3d
000000c0: 355d d13c de13 cf3d 5a7a 8d3d 373d cf3d
000000d0: ce09 13be e075 3cbe cece ccbd 0856 89bd
000000e0: f5a8 633c fd82 22bd f80a 46be 7b43 22be
000000f0: cb02 97bd 2732 19bc 4e32 84bd e197 38bd
00000100: 8867 2d3c b170 bcbd 8962 913b e854 15be
00000110: a41c 983d 21e6 5a3d 0668 1bbe e429 5d3d
00000120: fd04 cbbc 120a 8abd 5f3a 6d3b e36a 9b3d
00000130: 815f 71bd 11b0 d9bd e75c 1dbc c305 99bd
00000140: 8033 02be ab7c 24be d894 5abe 5f2c b33c
00000150: fe73 153e f7f3 43be 6f67 08be 0510 dbbd
00000160: d296 253e 64bd c23d c3c8 3c3c e118 1fbe
00000170: 10d0 eb3c b94c a33d f053 003e 7ab8 573d
00000180: 23cd 38be b54c a13d c60e 073e 6a6c cabc
00000190: 50b8 003e fdfc f0bd 99e4 3abd 9aed f63c
000001a0: 46ee 283e bb50 a0bd 8bb4 d139 9bc3 22be
000001b0: 8baf fc3d a8a3 273e b564 d7bd a89a 813d
000001c0: 1f5d 28bd 431d 033e f53b e83d 2b03 593d
000001d0: 73b1 01be 2da6 2d3e 9ab4 323e b231 e93d
000001e0: 98a9 913c 5492 893c 40dc 103e 7a63 663d
000001f0: 49f7 903d e14f c63d 4a3a 57bd c6a1 46be
00000200: a9de 5abd 6366 f9bc 1dd9 30bd 8036 27bd
00000210: 8cbb 63bd b997 783d fd7b 573d 6bf4 13be
00000220: 983d d83c b3f8 913d 5d19 9f3d e8c8 debc
00000230: 1847 24be 44ee f8bd e805 283d 2934 02bd
00000240: 6949 6a3c bb49 06be df78 9cbc a5f8 0abc
00000250: e803 023e c17e 033d 215a a8bd 1a03 023e
00000260: e2cc b03d 428b f43c a491 353d 0049 12be
00000270: 4a41 313e f09d 273e 2474 aebd e71e a9bc
00000280: 127d bdbd 276e eb3d 0eeb 293e 3a89 803c
00000290: d55b 093e 677a b23d cfd0 333e 516a 273a
000002a0: 4cc1 583d a1b6 443e 3872 c43d e076 b23d
000002b0: 577c e93d 6297 b43b e456 203e 2dfc 22bd
000002c0: a615 f73c 07c8 44bd 1ae4 8ebd e352 023e
000002d0: 3f9c 40bd ca1f 80bc c5f2 aabc 5aef 923d
000002e0: c8a0 663d cc54 0dbe 4f18 f1bb 33c9 12bb
000002f0: 4190 02be f2ec 4b3d 841d a4bd fb58 a1bd
00000300: 5e66 e1bd cf49 b8bb 33b1 093e 7e06 39ba
00000310: 5f0e a53a c1aa 1f3d da2b 973d 6b41 5abc
00000320: 4212 78bd 1a04 abbd 0427 46bd 5043 253d
00000330: 690e ffbd d225 48be 0a53 0a3c d37d f8bd
00000340: f76d 1dbe a71c 203c 7480 72be 46a4 a2bc
00000350: 2859 91bd 47c8 ccbd addf 513d 914f abbd
00000360: c203 91bd 56fd b6bd f40c d7bb 6c18 f4bb
00000370: a48b 47be 9d69 d63c 6abf 1bbe f79f 513d
00000380: 4278 403c a347 b13d cab7 82bd 9a58 87bd
00000390: bb8a c9bd 1ee4 ce3d 16c2 47bd 9c89 af3d
000003a0: d3d0 56bd 37f3 0d3d 1f63 be3d cc66 b93d
000003b0: 7e75 06bd a3bc d53d 042a 29bd 3f8d 043e
000003c0: 38d3 debd da33 013e 6d6c 933d 32bb 333e
000003d0: 4324 b73d 9b5e bc3c fdae 84bd 6485 c23d
000003e0: 1e3d c43d a226 10bd 7da3 bfbd 1dc6 19be
000003f0: 9d8c 563d 0c15 4cbd a54f 923d c05b c53d

bias f4 [32]
0.065842696 0.064899325 0.015413332 -0.17161013 -0.047603127 0.16116557 0.16465533 0.15191668
-0.08170677 0.04334854 0.19355705 -0.27301374 -0.28271794 0.11061176 -0.12063469 -0.27809447
-0.19102964 0.044174902 0.22218798 -0.14167297 -0.10291426 -0.33516046 -0.026114108 -0.09104336
-0.053237133 0.02288606 -0.008764179 -0.11864748 -0.07725205 -0.044931382 0.05727978 0.10996081
00000000: 89d8 863d f0e9 843d 3388 7c3c 91ba 2fbe
00000010: 7ffb 42bd 9608 253e 689b 283e 0c90 1b3e
00000020: e155 a7bd 3d8e 313d d233 463e 75c8 8bbe
00000030: 68c0 90be 6b88 e23d 520f f7bd 6662 8ebe
00000040: 469d 43be bef0 343d 3f85 633e b812 11be
00000050: b6c4 d2bd 279a abbe 41ed d5bc f174 babd
00000060: 2e0f 5abd 8c7b bb3c a297 0fbc 73fd f2bd
00000070: 5336 9ebd f809 38bd 349e 6a3d 2233 e13d

weight f4 [32, 32, 5, 5]
-0.017005429 0.022557842 0.013421331 -0.004831331 0.0313018 -0.00024281026 -0.005774396 0.039490428
0.018796105 0.054189164 0.0031647196 0.035366897 0.055905458 0.019222341 -0.0025615338 0.009165451
0.055735514 0.055541918 0.0436951 0.014689797 0.01569839 0.026459232 0.020030161 0.015685983
0.02522196 -0.0013161602 -0.025637208 -0.003649253 0.030636981 0.044049487 0.01408668 0.002962187
-0.017011253 0.0022531527 0.05738945 -0.0029816611 -0.014722199 0.015371424 0.0562299 0.057161063
-0.059760887 -0.0375685 0.016498748 -0.005401396 0.008358999 -0.02068479 -0.030757744 0.031502552
0.022389531 0.028018335 0.023618447 -0.0149415415 -0.020843757 0.0043445365 -0.021219373 0.025553627
-0.0527887 0.010995086 0.035432223 -0.007506958 -0.051424284 -0.01718484 -0.033774205 -0.012251072
-0.016209273 -0.02504469 -0.046769086 -0.031560514 0.029498328 -0.025825646 -0.028242398 0.001903177
-0.0002339652 -0.02333672 0.01715277 -0.03198167 0.01758648 0.019366091 0.017780757 -0.00029831642
0.005318199 0.010259702 -0.009286313 -0.009618655 -0.017129868 -0.039135586 -0.00585192 -0.0042271162
0.02663642 0.025879845 -0.02479022 -0.027287425 -0.044131022 -0.007975173 -0.012742748 -0.022388566
-0.0042398353 0.0134141585 0.026095482 0.022505157 0.02734827 0.040931474 -0.01555318 0.027390307
-0.016175225 0.01014314 0.034275815 0.043331224 0.007810616 0.011728672 -0.0050888844 0.050716266
0.012474057 -0.002992031 0.022753634 0.01332362 0.017726336 -0.011732221 -0.04252267 -0.015252686
-0.023094242 -8.397093e-05 -0.014799972 -0.044779174 -0.011404184 0.052488714 -0.0114955 0.02226127
0.0029340233 0.019676326 0.041441284 0.01798239 0.021632222 0.0225056 0.011668633 0.03264131
0.0114378 0.0362132 0.00046716857 -0.011858254 0.05152603 0.007603223 0.013328096 -0.020488407
0.017045613 0.038406886 0.026751367 0.020636164 -0.0011814072 -0.00019481128 -0.014403215 0.022968026
0.028476568 0.06323702 0.003756871 -0.020813452 0.04352293 0.04872078 0.06442551 0.043551482
-0.025441244 0.05769275 0.02954919 0.02907173 0.05997962 -0.009573718 0.03166149 0.029032046
0.06433833 0.04218262 0.017378584 -0.026562532 0.013746646 -0.0318011 -0.004985164 0.0031609249
0.022035535 0.0059095356 0.03304631 0.031004827 0.03913819 0.020826029 0.056051716 0.052045222
0.029741282 -0.0019089469 0.02879721 0.035718504 -0.007958399 0.008607427 0.038385212 -0.00351783
0.00035237943 -0.01593165 -0.019366454 -0.011805003 0.003818941 -0.05008627 -0.03180201 -0.043830276
0.0016112464 -0.010644765 0.008610674 -0.0035920022 0.017429901 -0.022662066 -0.014575548 -0.013540538
0.02749977 -0.009372081 0.025459366 0.017657233 0.004969479 -0.018932214 0.036390457 -0.0056146504
0.03488888 0.023009617 0.0151825 0.0057088537 -0.009952069 -0.037886437 0.005752408 -0.005114645
-0.040602807 0.022368308 -0.023058781 -0.013599288 -0.021145059 -0.021185936 0.0010929146 -0.04117288
-0.017497 -0.03637686 -0.019524587 -0.00032221386 -0.051147845 -0.051298812 0.011558325 -0.017018795
0.014841176 -0.029095825 -0.018296832 0.017127931 -0.005863802 -0.028685862 -0.046343666 -0.015276979
0.021565028 -0.030719124 0.038619544 0.008325712 0.0011735071 -0.009622407 0.046708666 0.0046898234
00000000: f84e 8bbc 39cb b83c 24e5 5b3c 2450 9ebb
00000010: 5136 003d e29a 7eb9 2537 bdbb b7c0 213d
00000020: 4afa 993c 75f5 5d3d 2f67 4f3b e1dc 103d
00000030: 1ffd 643d 2c78 9d3c 68df 27bb b02a 163c
00000040: ec4a 643d ec7f 633d a2f9 323d 79ad 703c
00000050: e999 803c 08c1 d83c 4b16 a43c e47f 803c
00000060: 499e ce3c 0283 acba 1f05 d2bc 4e28 6fbb
00000070: 68fa fa3c 3c6d 343d d1cb 663c 4021 423b
00000080: 2f5b 8bbc a1a9 133b 3311 6b3d f967 43bb
00000090: 6135 71bc 6dd8 7b3c 5351 663d b821 6a3d
000000a0: d5c7 74bd 6de1 19bd 6228 873c 32fe b0bb
000000b0: 2ff4 083c 2673 a9bc aaf7 fbbc d208 013d
000000c0: 406a b73c b586 e53c 797b c13c 5ecd 74bc
000000d0: 87c0 aabc 9d5c 8e3b 40d4 adbc d755 d13c
000000e0: f738 58bd bc24 343c 6121 113d eefc f5bb
000000f0: 45a2 52bd 39c7 8cbc d256 0abd b8b8 48bc
00000100: 4fc9 84bc 862a cdbc f190 3fbd 9945 01bd
00000110: 7aa6 f13c 4e90 d3bc 9a5c e7bc 0674 f93a
00000120: 8e54 75b9 a62c bfbc f783 8c3c 36ff 02bd
00000130: 8611 903c a3a5 9e3c f3a8 913c 5a67 9cb9
00000140: 4944 ae3b 4f18 283c 9f25 18bc 9097 1dbc
00000150: f053 8cbc a34c 20bd 77c1 bfbb 9f83 8abb
00000160: 9f34 da3c f801 d43c dc14 cbbc e189 dfbc
00000170: bbc2 34bd 4daa 02bc f5c6 50bc 3a68 b7bc
00000180: 51ee 8abb 0fc7 5b3c 31c6 d53c bc5c b83c
00000190: 7b09 e03c c3a7 273d c4d2 7ebc a361 e03c
000001a0: e881 84bc 6a2f 263c cc64 0c3d 157c 313d
000001b0: 32f0 ff3b 9e29 403c a8c0 a6bb dcbb 4f3d
000001c0: fd5f 4c3c f315 44bb d465 ba3c 504b 5a3c
000001d0: d236 913c 8038 40bc 402c 2ebd 67e6 79bc
000001e0: 2330 bdbc 8d19 b0b8 957b 72bc 5e6a 37bd
000001f0: 9dd8 3abc 68fe 563d 9f57 3cbc 445d b63c
00000200: be48 403b 3f30 a13c 56be 293d ce4f 933c
00000210: 0f36 b13c aa5d b83c cb2d 3f3c e5b2 053d
00000220: 9c65 3b3c 4b54 143d 4eee f439 1f49 42bc
00000230: f50c 533d 7524 f93b 165e 5a3c 4ed7 a7bc
00000240: 3ea3 8b3c 8a50 1d3d af25 db3c 2c0d a93c
00000250: 73d9 9aba 4146 4cb9 76fb 6bbc 7127 bc3c
00000260: b147 e93c 6982 813d d635 763b f980 aabc
00000270: 1a45 323d 718f 473d 86f1 833d 0a63 323d
00000280: 286a d0bc 3c4f 6c3d 2511 f23c d627 ee3c
00000290: 31ad 753d 15db 1cbc 7baf 013d 9dd4 ed3c
000002a0: d0c3 833d afc7 2c3d 885d 8e3c ab99 d9bc
000002b0: 9d39 613c df41 02bd 965a a3bb 8527 4f3b
000002c0: de83 b43c c7a4 c13b 915b 073d d6fd fd3c
000002d0: 5e4f 203d 599b aa3c 7c96 653d 5f2d 553d
000002e0: fda3 f33c a135 faba 20e8 eb3c 914d 123d
000002f0: f263 02bc 2a06 0d3c d039 1d3d 658b 66bb
00000300: 91bf b839 1783 82bc 66a6 9ebc c569 41bc
00000310: 3347 7a3b 4327 4dbd d342 02bd 6087 33bd
00000320: 7530 d33a 6167 2ebc c913 0d3c cc67 6bbb
00000330: 27c9 8e3c cca5 b9bc 47ce 6ebc 22d9 5dbc
00000340: 3347 e13c 5b8d 19bc 2990 d03c e7a5 903c
00000350: 03d7 a23b bb17 9bbc 290e 153d 1afb b7bb
00000360: a4e7 0e3d aa7e bc3c 05c0 783c 5611 bb3b
00000370: 010e 23bc cf2e 1bbd b27e bc3b c198 a7bb
00000380: 214f 26bd be3d b73c c5e5 bcbc 8ccf 5ebc
00000390: 6738 adbc 218e adbc 2140 8f3a e5a4 28bd
000003a0: de55 8fbc e7ff 14bd 07f2 9fbc d0ee a8b9
000003b0: 6780 51bd b41e 52bd 215f 3d3c 006b 8bbc
000003c0: 6728 733c 5e5a eebc 3de3 95bc e04f 8c3c
000003d0: 2325 c0bb 9dfe eabc dbd2 3dbd 4b4c 7abc
000003e0: 24a9 b03c aca6 fbbc 872f 1e3d 9168 083c
000003f0: 5dd0 993a 4da7 1dbc 9651 3f3d 17ad 993b

bias f4 [32]
0.026558118 -0.11026426 0.019871958 -0.016594553 -0.050739292 0.039901968 -0.016339714 -0.0843944
0.00016768281 -0.074675456 -0.0642426 0.05927569 -0.051520046 -0.01459262 -0.103344865 -0.079924576
-0.025600953 -0.08050679 -0.04040129 -0.10296357 0.047907047 -0.110023476 -0.019213106 -0.0004989294
0.014936419 0.050812878 -0.10131057 -0.13669237 0.039173957 -0.06873504 -0.041501846 -0.09428433
00000000: 6990 d93c 3ad2 e1bd 84ca a23c 4df1 87bc
00000010: 01d4 4fbd 3f70 233d ddda 85bc f9d6 acbd
00000020: 03d4 2f39 72ef 98bd a091 83bd 11cb 723d
00000030: af06 53bd e215 6fbc 79a6 d3bd 7faf a3bd
00000040: 17b9 d1bc bee0 a4bd d37b 25bd 90de d2bd
00000050: 2e3a 443d fd53 e1bd ce64 9dbc 96ca 02ba
00000060: e2b7 743c 2a21 503d eb7b cfbd 16f9 0bbe
00000070: df74 203d f5c4 8cbd d7fd 29bd 2518 c1bd

weight f4 [64, 32, 5, 5]
-0.020236418 -0.049846154 -0.037285365 -0.042809203 -0.0039890497 0.043388236 -0.003738947 -0.009319137
-0.017928304 -0.011839651 -0.025178932 0.021231242 -0.025642894 -0.0013245433 0.001091732 0.026638916
-0.02154661 0.013883364 0.009204657 0.06183131 0.0063454453 0.031426173 -5.7415262e-05 -0.022912232
0.029805 0.06988623 0.022072159 -0.047894545 -0.01477405 -0.031506617 0.044380303 -0.0062092943
0.003651057 -0.016714972 -0.008305306 -0.0056685866 0.019042408 0.026436597 0.05119924 0.03506745
-0.011232471 -0.003022326 -0.0047515314 -0.013970479 -0.029040195 0.0030435908 0.017696187 0.042772397
-0.010902588 0.0074483654 0.025946425 -0.01572097 -0.03488965 -0.046481326 0.0146788135 0.030334618
0.013644608 0.032731365 -0.005617098 -0.039000556 0.021883078 0.021687197 -0.0063034985 0.033904612
0.028296025 -0.018918298 0.00082833006 0.005697743 -0.020902092 0.009621401 -0.032843098 0.0074098203
0.027668985 -0.026338013 -0.01617359 -0.013627385 0.014014627 0.00023689869 0.01009911 0.033132058
0.019388579 -0.0020833514 0.014914154 -0.012722444 -0.024472661 0.008636992 -0.0034725713 -0.032870207
-0.0075374143 -0.016326914 0.03277741 0.026017196 0.026903888 0.0033685064 -0.00011693592 -0.036663234
-0.036857728 0.0033927343 -0.03419267 -0.0008423234 -0.0051531023 -0.003006662 -0.0140166 -0.02841078
-0.035936564 0.041117832 -0.006709272 0.009098704 0.012817295 0.0014737498 0.0152756255 0.021123407
-0.014734046 0.010498962 -0.02524431 -0.031149954 -0.0042166393 0.0015929852 0.03595188 -0.01566139
0.005272897 -0.002630259 -0.002293285 0.004381086 0.010088767 -0.0049691163 0.0062947776 -0.047516342
-0.050885092 0.0036875007 0.00060279603 -0.00843911 -0.031920366 0.005407776 -0.055179294 -0.032214936
0.00573978 -0.011671249 0.021135794 0.016230222 -0.03270282 -0.035546064 0.018503012 -0.0046696286
-0.018099826 -0.035899837 0.038873754 0.019267723 0.042030036 0.03367545 0.031388532 0.002078639
0.028791219 0.012155726 0.01226242 -0.0006171112 -0.035480466 0.04870233 0.048685946 -0.01922524
-0.016813725 0.01982127 0.041628905 0.009431308 -0.0062562097 -0.03566528 -0.028150745 -0.02505714
-0.02362726 0.05365934 -0.0012855055 -0.00032872744 0.0048370017 -0.006345669 0.0043880004 -0.021699427
0.016864803 -0.00686052 -0.009740208 -0.025305163 -0.02549266 -0.019514535 -0.01677151 -0.0131368525
-0.00357337 0.014146555 -0.008810677 -0.035191 0.026073243 -0.013969803 0.013365468 0.037307642
0.0008656613 -0.02214408 0.022164674 -0.023181329 -0.030159775 -0.0022444327 -0.025753247 0.018529953
0.012864481 -0.004354254 0.008815509 -0.009026969 -0.031637654 0.0062333182 0.005050061 -0.012156862
0.005394324 -0.021216927 0.021407576 -0.013161447 -0.018048126 -0.03222846 0.018279152 -0.027613958
0.009503137 0.012466225 -0.024172464 -0.02759299 -0.021509413 -0.032838587 0.022844676 0.025623525
0.014670066 0.005501746 -0.023028782 -0.01038229 -0.027712522 -0.020812854 -0.023753121 0.00071895216
-0.007988307 -0.023667987 -0.013715562 -0.0041644587 -0.025707893 0.0053055584 0.0079833185 -0.01465469
-0.0025834923 -0.02521391 -0.032482564 -0.023609065 0.0059108315 -0.03281088 -0.01235521 0.0063331607
0.008910159 0.025379885 -0.017141461 -0.03698275 -0.01811239 -0.036968276 0.013141264 -0.008091589
00000000: d8c6 a5bc 7b2b 4cbd 8ab8 18bd b458 2fbd
00000010: 93b6 82bb ddb7 313d 1f09 75bb 4baf 18bc
00000020: 61de 92bc 18fb 41bc 0c44 cebc 24ed ad3c
00000030: 0c11 d2bc 4c9c adba 7218 8f3a db39 da3c
00000040: 8482 b0bc 0d77 633c 21cf 163c d442 7d3d
00000050: 74ed cf3b bbb8 003d 2bd1 70b8 6fb2 bbbc
00000060: 9e29 f43c 8320 8f3d acd0 b43c 122d 44bd
00000070: db0e 72bc 150d 01bd 1fc8 353d 5677 cbbb
00000080: 9246 6f3b d6ed 88bc fa12 08bc 8dbf b9bb
00000090: d3fe 9b3c 9091 d83c 4bb6 513d e3a2 0f3d
000000a0: 6608 38bc 3712 46bb bcb2 9bbb 70e4 64bc
000000b0: b4e5 edbc fb76 473b 98f7 903c 1c32 2f3d
000000c0: c5a0 32bc 6b11 f43b 998d d43c 44c9 80bc
000000d0: 73e8 0ebd 3463 3ebd 687f 703c 4e80 f83c
000000e0: a28d 5f3c 5311 063d a20f b8bb 0cbf 1fbd
000000f0: 2444 b33c 59a9 b13c 948d cebb 90df 0a3d
00000100: 11cd e73c 8cfa 9abc 4a24 593a 22b4 ba3b
00000110: dd3a abbc 15a3 1d3c 7c86 06bd 14ce f23b
00000120: 11aa e23c d1c2 d7bc 7a7e 84bc 6545 5fbc
00000130: 9b9d 653c 0268 7839 bd76 253c 7bb5 073d
00000140: ccd4 9e3c d688 08bb 7f5a 743c cc71 50bc
00000150: e47a c8bc 2c82 0d3c 1494 63bb e9a2 06bd
00000160: 6afc f6bb 05c0 85bc 9b41 063d 0422 d53c
00000170: 8b65 dc3c 29c2 5c3b 7e3b f5b8 302c 16bd
00000180: 21f8 16bd a358 5e3b 9d0d 0cbd 5ecf 5cba
00000190: 5bdb a8bb 6b0b 45bb e2a5 65bc b9bd e8bc
000001a0: 3832 13bd 2c6b 283d 74d9 dbbb bb12 153c
000001b0: a2ff 513c d62a c13a 9e46 7a3c ff0a ad3c
000001c0: 1167 71bc d703 2c3c 28cd cebc 302e ffbc
000001d0: bc2b 8abb b7cb d03a 4742 133d 514c 80bc
000001e0: 44c8 ac3b 6c60 2cbb f04a 16bb 378f 8f3b
000001f0: 5b4b 253c f8d3 a2bb 6c44 ce3b 7fa0 42bd
00000200: e36c 50bd ffa9 713b f504 1e3a 3144 0abc
00000210: eebe 02bd b733 b13b af03 62bd cff3 03bd
00000220: c414 bc3b c438 3fbc f924 ad3c 3ef5 843c
00000230: 64f3 05bd c098 11bd a193 973c af03 99bb
00000240: 1646 94bc b50b 13bd 163a 1f3d 58d7 9d3c
00000250: b027 2c3d 45ef 093d 4391 003d c739 083b
00000260: 90db eb3c cf28 473c 51e8 483c a2c5 21ba
00000270: f753 11bd 187c 473d ea6a 473d 407e 9dbc
00000280: f0bc 89bc 3760 a23c 1283 2a3d c685 1a3c
00000290: e400 cdbb c215 12bd 649c e6bc a244 cdbc
000002a0: f58d c1bc e5c9 5b3d 687e a8ba 0d59 acb9
000002b0: b67f 9e3b 54ef cfbb 37c9 8f3b ffc2 b1bc
000002c0: 0e28 8a3c 37ce e0bb 6595 1fbc c64c cfbc
000002d0: fcd5 d0bc f2dc 9fbc 6864 89bc f43b 57bc
000002e0: 332f 6abb f4c6 673c a85a 10bc 7024 10bd
000002f0: 8e97 d53c 9ae1 64bc d6fa 5a3c e6cf 183d
00000300: 8ced 623a 8067 b5bc b192 b53c c5e6 bdbc
00000310: a211 f7bc 5517 13bb 79f8 d2bc 21cc 973c
00000320: 8bc5 523c 21ae 8ebb ed6e 103c dae5 13bc
00000330: 7c96 01bd dd40 cc3b fb7a a53b 932d 47bc
00000340: dfc2 b03b 1fcf adbc f15e af3c 1ca3 57bc
00000350: aad9 93bc fd01 04bd 29be 953c ab36 e2bc
00000360: 0cb3 1b3c 233f 4c3c 5505 c6bc b20a e2bc
00000370: 8234 b0bc c181 06bd c224 bb3c 6de8 d13c
00000380: b75a 703c fe47 b43b dba6 bcbc 7b1a 2abc
00000390: 5f05 e3bc b87f aabc e895 c2bc 1078 3c3a
000003a0: 63e1 02bc 5ee3 c1bc 3db7 60bc 0376 88bb
000003b0: 5c99 d2bc 40da ad3b 77cc 023c 3a1a 70bc
000003c0: cf4f 29bb 678d cebc 700c 05bd cc67 c1bc
000003d0: a6af c13b b464 06bd 826d 4abc 6786 cf3b
000003e0: eafb 113c 7ae9 cf3c 406c 8cbc 397b 17bd
000003f0: 6f60 94bc 0c6c 17bd 754e 573c 9692 04bc

bias f4 [64]
-0.031473804 -0.024133839 -0.041558802 -0.045980584 -0.02669887 0.016228076 -0.053462207 -0.056938827
0.033877395 -0.03594279 -0.032090295 -0.039930724 0.0013745278 -0.009737707 -0.0006334503 -0.0083097145
-0.032566197 -0.01720697 -0.063309215 -0.06011122 -0.021604097 -0.075305946 0.004336888 -0.031391595
-0.038512293 -0.08074893 -0.004965319 -0.042109516 -0.021790395 -0.03476526 -0.029984012 0.008799499
0.0021303901 -0.006863554 -0.0060465685 0.002810707 -0.038423978 0.01045669 0.040967464 0.021520808
-0.06734787 -0.06715118 -0.04437051 -0.05357799 0.009066111 0.032153003 0.007216238 -0.03288154
-0.02332277 -0.011738603 0.020047374 -0.06869899 -0.06844134 -0.009476046 0.014123311 -0.080616586
-0.041689783 0.03365614 -0.01526462 -0.052784536 -0.030896839 -0.031171529 0.03810631 0.008912403
00000000: adea 00bd 54b4 c5bc 9039 2abd 2356 3cbd
00000010: 97b7 dabc bef0 843c 30fb 5abd b038 69bd
00000020: 06c3 0a3d bf38 13bd 1d71 03bd 668e 23bd
00000030: 8029 b43a e78a 1fbc 210e 26ba 7825 08bc
00000040: 2264 05bd a2f5 8cbc 43a8 81bd 2f37 76bd
00000050: 13fb b0bc 013a 9abd 741c 8e3b 7994 00bd
00000060: 11bf 1dbd b25f a5bd 1db4 a2bb 077b 2cbd
00000070: c581 b2bc 0466 0ebd 08a1 f5bc c62b 103c
00000080: 049e 0b3b aae7 e0bb 4b22 c6bb d733 383b
00000090: 7662 1dbd 8952 2b3c 80cd 273d 684c b03c
000000a0: aeed 89bd 8f86 89bd dabd 35bd 9874 5bbd
000000b0: 078a 143c deb2 033d 3176 ec3b cbae 06bd
000000c0: 650f bfbc 4553 40bc 643a a43c 0eb2 8cbd
000000d0: f92a 8cbd 6b41 1bbc 7665 673c 4f1a a5bd
000000e0: e8c2 2abd 05db 093d 7518 7abc 9934 58bd
000000f0: 5e1b fdbc 6f5b ffbc 5d15 1c3d 5405 123c

weight f4 [64, 1024]
-0.0040227748 -0.027243197 0.005333805 0.02423282 0.019821849 -0.0011247763 0.004160577 -0.01461376
0.032734383 0.012940685 0.020449143 0.02450004 -0.028659774 -0.022146756 -0.006705159 0.0034037747
-0.035036582 -0.016407663 -0.013665303 0.030014904 0.0001832123 0.0025046743 0.013932063 0.019202432
0.011938708 0.02633973 -0.023832377 -0.017559664 -0.026545914 -0.012927614 0.03716656 0.040900677
0.010749052 -0.053373013 -0.006287884 -0.0040578246 -0.018969074 -0.00040699227 -0.029357793 -0.018292874
0.021397676 0.030070156 0.040514342 0.040999938 -0.02082365 -0.000646235 0.0034332362 0.047032114
-0.01726351 0.005503345 0.009688148 -0.036412455 0.041453082 0.03396237 0.024190605 0.03625805
-0.014598954 0.055453256 0.0149199525 0.019341806 0.020625649 0.0015370811 -0.019319555 0.0027204142
-0.005501369 -0.01807817 0.017727757 0.0070992494 0.041182224 -0.0024573104 0.01899351 -0.027479736
-0.023195354 -0.0163252 0.013244954 -0.0002950234 0.037869863 -0.004651126 0.013732369 0.020674383
0.0016879592 0.035516363 0.018884368 -0.00913951 -0.02420503 0.0050796694 -0.027135074 0.022393866
-0.005148425 0.007206508 -0.0028974933 -0.01467079 0.0014489103 -0.019858688 0.0021445528 -0.033840347
0.034318075 -0.0056300084 -0.012931312 -0.011090846 0.029418992 0.0054390626 -0.007975845 0.012652129
-0.026370177 -0.020602953 0.031762604 -0.013142075 0.02019979 0.00015817724 0.0131045 0.013853608
-0.004609916 0.0010420309 -0.020783003 0.01794118 0.03005614 -0.030825272 -0.014010394 0.020155303
0.028076913 -0.017041178 -0.006578456 -0.015466563 -0.026125034 -0.01538282 0.001629567 0.014918028
0.012291934 0.010075869 -0.024583211 0.015031794 -0.019153938 -0.0095880665 -0.02269216 0.030354716
0.021488208 0.004492067 -0.015627038 0.014717471 -0.01763929 -0.016639614 -0.0149407415 -0.006259122
-0.022201095 -0.0032992112 -0.03617898 0.01716826 -0.011296794 -0.005138312 -0.006005136 0.00044591606
-0.0012933852 0.021444784 0.016257985 0.025015771 -0.03166541 -0.026448458 0.028927116 -0.007976192
0.027444415 0.0090040555 -0.004707234 -0.0008492081 -0.022733597 -0.011014934 0.004060479 -0.026466211
0.012362602 0.029507661 0.01318414 -0.0051323427 -0.016533041 3.9572173e-05 0.03148548 0.0020517725
0.011066384 0.003292876 0.018236622 0.010304163 -0.0019400459 0.025957884 0.02767879 -0.012131257
0.004894778 -0.03764687 -0.0207803 0.025490941 0.02249993 -0.013475607 0.00035503725 -0.025997628
0.010367486 -0.011679713 0.04597152 0.029539848 0.028585393 -0.016747484 -0.019925842 -0.0120321205
-0.029137239 0.035194434 0.03594725 -0.0034490188 -0.0160838 0.0043528117 0.0027575127 0.03780338
-0.018109655 -0.022004388 0.03763664 -0.014126996 0.032041907 0.03451649 0.028884865 -0.00319646
8.655057e-05 0.008441828 0.026973445 -0.008364357 -0.009067127 -0.01869737 0.026316823 -0.013026122
0.0048316563 -0.032153524 -0.040266283 -0.029540895 0.0037172767 0.023618726 5.251061e-05 -0.020403173
0.0008022617 -0.019197172 0.021143293 -0.025208257 -0.0022648687 -0.019499362 -0.010501962 -0.0041012093
0.027730487 -0.02391217 0.0050617713 0.0032970232 -0.030418973 0.013872645 0.023324827 -0.015683934
-0.015224218 0.00054675015 0.0049238475 0.036204036 0.0146206375 0.00048391224 0.004040485 -0.00014018928
00000000: 7bd1 83bb 202d dfbc 33c7 ae3b e883 c63c
00000010: 6e61 a23c 3b6d 93ba 7355 883b 8d6e 6fbc
00000020: 7d14 063d 2b05 543c f684 a73c 4fb4 c83c
00000030: e7c7 eabc 1d6d b5bc f3b6 dbbb dd11 5f3b
00000040: 8582 0fbd 5d69 86bc 6fe4 5fbc d1e1 f53c
00000050: ad1c 4039 7625 243b 4f43 643c 6b4e 9d3c
00000060: 929a 433c 6bc6 d73c 1e3c c3bc 49d9 8fbc
00000070: d176 d9bc 58ce 53bc f63b 183d 7887 273d
00000080: cb1c 303c a99d 5abd 980a cebb 80f7 84bb
00000090: 0865 9bbc 9461 d5b9 c17f f0bc f0da 95bc
000000a0: 2e4a af3c b055 f63c 5ef2 253d 8def 273d
000000b0: 5c96 aabc 1968 29ba 2500 613b bfa4 403d
000000c0: 346c 8dbc 6755 b43b 0abb 1e3c 3a25 15bd
000000d0: b5ca 293d 201c 0b3d 602b c63c 5283 143d
000000e0: 7330 6fbc f422 633d d172 743c b572 9e3c
000000f0: 1ff7 a83c e277 c93a 0b44 9ebc fa48 323b
00000100: d444 b4bb ac18 94bc cd39 913c d2a0 e83b
00000110: b1ae 283d d40a 21bb 4798 9b3c 2f1d e1bc
00000120: 2f04 bebc 6dbc 85bc 5d01 593c 5fad 9ab9
00000130: 6e1d 1b3d 7968 98bb bbfd 603c 535d a93c
00000140: 833e dd3a 9b79 113d 64b3 9a3c e2bd 15bc
00000150: a149 c6bc 5b73 a63b 604a debc 5773 b73c
00000160: 1fb4 a8bb 9224 ec3b dfe3 3dbb c15d 70bc
00000170: 5de9 bd3a b0ae a2bc a08b 0c3b 2d9c 0abd
00000180: 1c91 0c3d ef7b b8bb dbdd 53bc 61b6 35bc
00000190: 1900 f13c 2a3a b23b 1ead 02bc e04a 4f3c
000001a0: 4506 d8bc 86c7 a8bc 8119 023d dc51 57bc
000001b0: 087a a53c 61dc 2539 42b4 563c 3efa 623c
000001c0: c70e 97bb c194 883a 1e41 aabc 62f9 923c
000001d0: 4b38 f63c 4885 fcbc da8b 65bc bc1c a53c
000001e0: 8e01 e63c f199 8bbc 1790 d7bb 7867 7dbc
000001f0: 2b04 d6bc 3908 7cbc 3297 d53a bf6a 743c
00000200: 1c64 493c 4215 253c bb62 c9bc ea47 763c
00000210: b8e8 9cbc 4417 1dbc e9e4 b9bc 74aa f83c
00000220: 0a08 b03c 3032 933b 4604 80bc 8c21 713c
00000230: 4680 90bc cd4f 88bc 03ca 74bc 5219 cdbb
00000240: 12df b5bc 9437 58bb 6930 14bd 73a4 8c3c
00000250: 3016 39bc 495f a8bb bbc6 c4bb d7c9 e939
00000260: ce86 a9ba f9ac af3c 772f 853c e0ed cc3c
00000270: 97b3 01bd 70aa d8bc 8ff8 ec3c 93ae 02bc
00000280: 1cd3 e03c bf85 133c 243f 9abb 649d 5eba
00000290: cf3b babc fb77 34bc c40d 853b abcf d8bc
000002a0: 838c 4a3c 0dba f13c 4b02 583c 362d a8bb
000002b0: 4d70 87bc 4cfa 2538 ebf6 003d 0877 063b
000002c0: c74f 353c 4bcd 573b f864 953c cbd2 283c
000002d0: 2349 feba a1a5 d43c a1be e23c 2ec2 46bc
000002e0: 6064 a03b 9b33 1abd 733b aabc 61d2 d03c
000002f0: c651 b83c cbc8 5cbc 4b24 ba39 faf8 d4bc
00000300: 63dc 293c 445c 3fbc a24c 3c3d 8dfd f13c
00000310: ea2b ea3c 0532 89bc 853b a3bc 5f22 45bc
00000320: 38b1 eebc 0a28 103d 6c3d 133d ef08 62bb
00000330: 2cc2 83bc 08a2 8e3b 63b7 343b b8d7 1a3d
00000340: b35a 94bc 8c42 b4bc e128 1a3d ea74 67bc
00000350: 603e 033d 2a61 0d3d f49f ec3c b37b 51bb
00000360: 7c82 b538 984f 0a3c 6af7 dc3c a80a 09bc
00000370: 498e 14bc 3a2b 99bc 6196 d73c 846b 55bc
00000380: df52 9e3b 6ab3 03bd 42ee 24bd bfff f1bc
00000390: 8e9d 733b 0f7c c13c d73e 5c38 8e24 a7bc
000003a0: df4e 523a 6343 9dbc b334 ad3c 8c81 cebc
000003b0: 316e 14bb 20bd 9fbc 6c10 2cbc 7063 86bb
000003c0: 0c2b e33c 75e3 c3bc 37dd a53b df12 583b
000003d0: 3631 f9bc 174a 633c b513 bf3c 987b 80bc
000003e0: 006f 79bc c853 0f3a 3a58 a13b af4a 143d
000003f0: 668b 6f3c 9ab5 fd39 0b66 843b c6ff 12b9

bias f4 [64]
-0.028138267 -0.012370091 -0.0038534908 -0.03656391 -0.005009493 -0.0073213787 0.006542067 0.0118997935
-0.0038582303 -0.012800873 0.00056853204 -0.021313388 0.019349413 -0.008261273 -0.015281291 0.0038827527
0.0143434545 0.021379245 0.011338283 0.013904112 0.014884237 -0.01889077 -0.002834227 -0.015470104
-0.030441418 -0.011017116 0.035010293 0.015655352 -0.042528436 -0.016283294 -0.038586494 -0.04332915
0.041110486 0.025623867 0.04781004 -0.00097218034 0.014041048 -0.040107705 0.0152780805 0.0024553107
0.0014293772 0.0070835766 -0.02252324 -0.052561577 -0.01610971 0.04278233 -0.019584792 0.0658666
0.000650252 -0.0037492085 -0.031099565 -0.011288111 -0.023609463 0.000120534285 -0.05336127 -0.015967263
0.02805985 -0.0070117596 -0.030514779 -0.0435026 0.01721476 0.036085628 0.008952867 0.03395143
00000000: 3982 e6bc ecab 4abc d98a 7cbb 0ac4 15bd
00000010: ac26 a4bb 2de8 efbb d65e d63b 5af7 423c
00000020: 5dda 7cbb c1ba 51bc 8a09 153a 6a99 aebc
00000030: a982 9e3c 4a5a 07bc 615e 7abc c875 7e3b
00000040: cf00 6b3c 8723 af3c 35c4 393c 13ce 633c
00000050: 04dd 733c d1c0 9abc 70be 39bb 5276 7dbc
00000060: 4860 f9bc 2281 34bc f466 0f3d a73f 803c
00000070: 4c32 2ebd 8b64 85bc df0c 1ebd e879 31bd
00000080: 7863 283d 25e9 d13c 76d4 433d ebd9 7eba
00000090: 6c0c 663c fa47 24bd ea50 7a3c 47e9 203b
000000a0: f159 bb3a 591d e83b a882 b8bc cf4a 57bd
000000b0: 83f8 83bc 863c 2f3d 4970 a0bc 11e5 863d
000000c0: ac75 2a3a 48b5 75bb 84c4 febc c5f1 38bc
000000d0: a268 c1bc 5ac7 fc38 5991 5abd c7cd 82bc
000000e0: c5dd e53c e7c2 e5bb 21fa f9bc c82f 32bd
000000f0: f805 8d3c 86ce 133d 0caf 123c a810 0b3d

weight f4 [10, 64]
-0.10366288 0.19053796 -0.03530103 0.010873676 -0.15158974 0.18851207 -0.16263953 -0.04000273
-0.06685547 0.28318882 -0.074485086 0.22370903 -0.09813472 -0.13994098 0.1392927 -0.01182501
0.12348882 0.15905967 0.056247585 -0.11341355 0.14742161 0.08924371 -0.10683973 0.12748535
0.14392683 0.033510894 -0.11529036 0.098846935 -0.0051453444 0.147088 0.14682306 0.1000247
-0.23706776 0.06522085 -0.14895701 -0.047791284 0.030107912 0.18152528 0.11995038 0.15831384
-0.08172619 -0.13454278 -0.08795737 0.09804521 -0.065929 -0.08573081 -0.1552654 -0.07144652
-0.095270194 0.18909942 -0.040362477 0.15639845 0.13405906 0.13972239 -0.010488212 0.019553266
0.15349165 0.04665748 0.044858646 0.12013319 -0.05744868 0.019470384 -0.013599006 -0.01592654
0.112785414 0.24607067 -0.02583083 0.1693771 0.04453414 -0.21062055 0.010598142 0.115351774
0.1995548 0.10391362 -0.07395277 -0.0972271 0.14897397 0.13312396 -0.12196953 0.015894834
-0.17981811 -0.2784834 0.25005487 0.16841397 -0.16813743 0.16910163 0.13301499 0.23626406
-0.11940488 -0.18639722 0.10958387 0.08582397 -0.1541241 -0.2580295 0.21825683 -0.06739054
0.23698962 0.041578334 -0.08718723 0.041078255 0.26555586 -0.20144792 -0.007833213 0.073699
-0.100773804 -0.28784758 0.21794242 0.15652613 -0.07341567 0.19334164 0.020363266 -0.10274144
0.10287421 0.11907284 -0.100570336 -0.03250998 0.098064564 0.10451176 -0.23600163 0.18537356
0.009559164 0.05768764 0.09755378 -0.0038550738 0.24597166 0.07239953 0.08648857 0.18786547
0.124209315 -0.08591027 -0.07800644 0.11767594 0.045283828 0.16004589 -0.17575896 -0.22622497
0.124002405 0.16408043 -0.0008954879 -0.0051629064 -0.094310105 0.14549883 -0.21446577 0.01605918
-0.06553112 0.23695774 -0.17852072 0.034404162 0.09959478 -0.014887342 -0.056856286 -0.12890911
-0.093867004 0.2232449 0.0015565408 -0.15717134 0.043055452 0.03625951 -0.18641596 -0.07980151
-0.16344865 0.08335149 -0.040290307 -0.05822225 -0.12367738 0.1214735 -0.008093983 0.113247596
0.053073645 0.16148585 -0.054636218 -0.23102307 -0.07099951 -0.038983688 -0.15550952 0.06869955
-0.02568173 0.12153499 0.18266335 0.20695229 -0.03346262 0.18972474 -0.12875678 -0.14562969
-0.17397256 -0.021304214 -0.059597656 -0.13542165 0.03988788 0.040429555 -0.13037004 0.06917293
0.10594642 -0.13166954 0.05326224 -0.00096484623 -0.114739865 -0.20196597 -0.115117736 -0.106619366
0.14118388 -0.16123804 -0.08821535 0.008784213 -0.11897937 -0.03676035 -0.14463201 -0.114756525
0.17609745 -0.15103799 -0.10564685 -0.14812852 -0.07120389 -0.099308155 -0.08381339 -0.14853694
0.09509935 0.117831774 -0.044604648 -0.018960487 0.020459957 0.061949443 -0.16366443 -0.11323019
0.05389356 0.13097337 -0.12265383 -0.039193425 0.11210325 -0.06610772 -0.035465878 0.10514867
-0.15511073 -0.044790007 0.06791028 -0.045261987 0.058463562 0.046814345 -0.06403647 0.095355734
-0.10579203 -0.12758094 -0.1385094 0.013114225 -0.095993444 0.05595461 0.029543195 -0.18725365
-0.07820489 -0.10649384 0.06716928 0.14478227 -0.15337959 0.041249778 -0.077732764 -0.06316124
00000000: 344d d4bd 621c 433e d097 10bd 8127 323c
00000010: 573a 1bbe 4f09 413e fa8a 26be e7d9 23bd
00000020: 85eb 88bd 20fe 903e a38b 98bd fb13 653e
00000030: dbfa c8bd b04c 0fbe bfa2 0e3e b0bd 41bc
00000040: b5e7 fc3d 8ae0 223e de63 663d 5d45 e8bd
00000050: b1f5 163e 68c5 b63d cace dabd 858b 023e
00000060: 8e61 133e b842 093d 5a1d ecbd 4370 ca3d
00000070: 479a a8bb 3d9e 163e c958 163e c0d9 cc3d
00000080: e4c1 72be 8292 853d 3088 18be cbc0 43bd
00000090: dea4 f63c c3e1 393e 8ba8 f53d 061d 223e
000000a0: 1060 a7bd 95c5 09be fe22 b4bd edcb c83d
000000b0: c905 87bd a393 afbd e5fd 1ebe 8e52 92bd
000000c0: 051d c3bd 47a3 413e 2053 25bd ea26 203e
000000d0: c746 093e 6313 0f3e c0d6 2bbc 2c2e a03c
000000e0: ea2c 1d3e ea1b 3f3d b3bd 373d 6408 f63d
000000f0: 4f4f 6bbd 5b80 9f3c 5ece 5ebc 6078 82bc
00000100: 0afc e63d f3f9 7b3e 2d9b d3bc 3171 2d3e
00000110: 6e69 363d eaac 57be d4a3 2d3c 8d3d ec3d
00000120: 1858 4c3e aad0 d43d 8d74 97bd 001f c7bd
00000130: a28c 183e a651 083e 29cb f9bd e235 823c
00000140: 3d22 38be 6095 8ebe 3107 803e b674 2c3e
00000150: 382c 2cbe fa28 2d3e 1535 083e 35ef 713e
00000160: 8c8a f4bd eade 3ebe 826d e03d 7ac4 af3d
00000170: b5d2 1dbe 711c 84be b87e 5f3e 0d04 8abd
00000180: 68ad 723e 0b4e 2a3d 388f b2bd ac41 283d
00000190: f0f6 873e 5d48 4ebe e056 00bc 80ef 963d
000001a0: 7f62 cebd c260 93be 4c2c 5f3e 6348 203e
000001b0: f45a 96bd 5afb 453e ddd0 a63c 1b6a d2bd
000001c0: b7af d23d 76dc f33d d2f7 cdbd 2f29 05bd
000001d0: 13d6 c83d 430a d63d 69aa 71be 91d2 3d3e
000001e0: 0a9e 1c3c e049 6c3d 47ca c73d 68a5 7cbb
000001f0: ffdf 7b3e 3446 943d eb20 b13d ce5f 403e
00000200: 7461 fe3d b9f1 afbd d7c1 9fbd 1500 f13d
00000210: 897b 393d 12e3 233e 28fa 33be 85a7 67be
00000220: f9f4 fd3d b304 283e 2dbf 6aba 992d a9bb
00000230: a825 c1bd a5fd 143e ea9c 5bbe 8b8e 833c
00000240: 2e35 86bd 0da5 723e 23ce 36be 61eb 0c3d
00000250: 59f8 cb3d 0aea 73bc 23e2 68bd c000 04be
00000260: 583d c0bd 509a 643e d804 cc3a 86f1 20be
00000270: ea5a 303d da84 143d d3e3 3ebe f96e a3bd
00000280: 155f 27be 30b4 aa3d 7307 25bd 747a 6ebd
00000290: 914a fdbd 19c7 f83d a09c 04bc 5bee e73d
000002a0: c063 593d 8c5c 253e 3aca 5fbd 5091 6cbe
000002b0: 3168 91bd 5cad 1fbd e33d 1fbe 5ab2 8c3d
000002c0: 7e62 d2bc 56e7 f83d 1a0c 3b3e 4deb 533e
000002d0: 1a10 09bd 3447 423e d1d8 03be f31f 15be
000002e0: dd25 32be 2d86 aebc ac1c 74bd f9ab 0abe
000002f0: 7961 233d 7699 253d b97f 05be 8aaa 8d3d
00000300: 70fa d83d 61d4 06be 8229 5a3d bced 7cba
00000310: bcfc eabd 2bd0 4ebe d9c2 ebbd 415b dabd
00000320: 8292 103e 961b 25be 40aa b4bd a9eb 0f3c
00000330: 75ab f3bd 0592 16bd 6a1a 14be 7805 ebbd
00000340: e452 343e b4a9 1abe 605d d8bd 01af 17be
00000350: 58d3 91bd 1362 cbbd 5ba6 abbd 111a 18be
00000360: 73c3 c23d c951 f13d 5db3 36bd 0653 9bbc
00000370: a49b a73c b3be 7d3d a697 27be 3be5 e7bd
00000380: 7ebf 5c3d e21d 063e ee31 fbbd 4989 20bd
00000390: 6496 e53d 7c63 87bd ab44 11bd 3058 d73d
000003a0: 59d5 1ebe ba75 37bd 8b14 8b3d a264 39bd
000003b0: 7d77 6f3d 66c0 3f3d 8e25 83bd de49 c33d
000003c0: 7ea9 d8bd 94a4 02be 68d5 0dbe 0cdd 563c
000003d0: 3698 c4bd a930 653d 9204 f23c 6cbf 3fbe
000003e0: e329 a0bd 7119 dabd 0c90 893d ce41 143e
000003f0: 8a0f 1dbe 87f5 283d 5b32 9fbd ae5a 81bd

bias f4 [10]
-0.19237874 -0.035776563 0.010049537 -0.012415379 0.14221936 -0.03236799 0.03563028 -0.03623399
-0.018605778 0.012113282
00000000: effe 44be 728a 12bd d0a6 243c e069 4bbc
00000010: f4a1 113e 4c94 04bd 0ef1 113d 186a 14bd
00000020: 256b 98bc ca76 463c
