models/gpu_train_model8.pth (torch, 587335 bytes, 10 tensors)

weight f4 [32, 3, 5, 5]
0.053791102 0.17498742 0.043138646 -0.035767715 -0.099849105 -0.012596861 0.09951458 0.13895868
-0.07606374 -0.03489065 0.026397854 0.12564343 0.0025963709 -0.057686776 -0.0168102 0.0698231
-0.038384687 -0.067744814 -0.035057154 0.1502053 -0.08995391 -0.07063214 0.100163616 0.053364158
0.13805899 0.09179118 0.11720456 -0.06975409 0.024238039 -0.07910851 0.111434236 -0.019933274
0.021332167 -0.11362788 0.008822114 0.024125969 0.03850552 0.026785003 -0.05920454 -0.0744351
-0.07690643 -0.10161461 0.017534342 0.021426626 0.14485672 -0.05544063 0.011586862 0.0532971
0.010392399 0.08778581 0.055652823 0.09551227 -0.13949412 -0.17668095 -0.08594899 -0.08169519
0.0057811798 -0.04104621 -0.18034881 -0.14059995 -0.081317805 -0.005512569 -0.056157194 -0.039765544
0.014041694 -0.085894756 0.02305706 -0.13502353 0.05892496 0.030636111 -0.13729978 0.06723912
-0.025309104 -0.081133544 -0.008928775 0.06066642 -0.04426123 -0.067600176 0.0038858335 -0.068811916
-0.12479812 -0.1358368 -0.17523839 0.018245203 0.14038537 -0.17271888 -0.10972737 -0.09289041
0.14669257 0.09218378 0.0260927 -0.13143793 0.020266492 0.060572997 0.13139462 0.066300474
-0.16193996 0.068669856 0.124791086 -0.0019164621 0.10329392 -0.11229226 -0.018541439 0.02964738
0.15532568 -0.082209215 0.016244425 -0.1319732 0.10655725 0.14441927 -0.095187865 0.07657173
-0.03775783 0.101518355 0.098623164 0.056877926 -0.11404343 0.15093155 0.14506342 0.10957261
0.022351641 0.026577253 0.12432675 0.041517902 0.0849768 0.07592043 -0.051872514 -0.17252916
-0.0579155 -0.04431944 -0.046218056 -0.029427275 -0.0323185 0.044102125 0.03336569 -0.13575827
0.034881666 0.07293961 0.053486556 -0.040784284 -0.15740263 -0.11265943 0.023296377 -0.05802757
0.010602825 -0.12800397 -0.012886854 -0.02571631 0.112346865 0.043728776 -0.07589217 0.12501761
0.08421205 0.037336692 0.052274752 -0.13551432 0.16324873 0.15763393 -0.079064324 -0.019901983
-0.085902855 0.10043896 0.1595872 0.022148928 0.12992917 0.09236968 0.16332029 -0.0035116943
0.053708524 0.18614033 0.10366977 0.08159777 0.11110552 0.004337531 0.15661524 -0.034432996
0.029180832 -0.050230537 -0.06670571 0.12810495 -0.03504771 -0.018052842 -0.020507831 0.07922829
0.055058014 -0.12227823 -0.009041496 0.003221021 -0.11444071 0.04876372 -0.06758341 -0.0791124
-0.10330585 0.0011746472 0.13095042 0.010280123 0.0032288646 0.042975705 0.075437695 -0.013082494
-0.05904557 -0.08699147 -0.05261772 0.039847307 -0.12991202 -0.18560009 0.0064676623 -0.12053681
-0.14803068 0.0043591564 -0.22242075 -0.020305896 -0.06467691 -0.088195175 0.046791922 -0.073028296
-0.07131558 -0.08340927 -0.0015809328 -0.014709876 -0.1880956 0.025068905 -0.15180703 0.04735865
0.0040134746 0.08489476 -0.055901915 -0.06264578 -0.1019801 0.100011826 -0.059197538 0.082589045
-0.04586097 0.039830487 0.09821397 0.084685475 -0.0373947 0.108440325 -0.035318986 0.13734461
-0.10126151 0.12416008 0.05994719 0.16325422 0.08395083 0.03185072 -0.0626001 0.08521605
0.08910102 -0.033173308 -0.09681945 -0.14435798 0.05299026 -0.057636183 0.06555777 0.08535858
00000000: 0f54 5c3d e72f 333e 26b2 303d 2b81 12bd
00000010: b07d ccbd 1163 4ebc 4dce cb3d 2f4b 0e3e
00000020: 4ec7 9bbd 80e9 0ebd 5040 d83c aca8 003e
00000030: e027 2a3b f848 6cbd 8bb5 89bc 6aff 8e3d
00000040: 4339 1dbd cbbd 8abd 1798 0fbd 6bcf 193e
00000050: c139 b8bd 95a7 90bd 9522 cd3d 6094 5a3d
00000060: 565f 0d3e 04fd bb3d f208 f03d 3bdb 8ebd
00000070: da8e c63c a403 a2bd a237 e43d 1b4b a3bc
00000080: ccc0 ae3c bcb5 e8bd a18a 103c d3a3 c53c
00000090: f7b7 1d3d 396c db3c 7680 72bd 6e71 98bd
000000a0: 1e81 9dbd 521b d0bd 2ea4 8f3c e486 af3c
000000b0: 5255 143e b715 63bd d2d6 3d3c 0f4e 5a3d
000000c0: e144 2a3c 0cc9 b33d 37f4 633d f09b c33d
000000d0: 8cd7 0ebe daeb 34be 0606 b0bd cf4f a7bd
000000e0: 0d70 bd3b 1220 28bd 5cad 38be 6ff9 0fbe
000000f0: f389 a6bd c8a2 b4bb 1605 66bd 32e1 22bd
00000100: 220f 663c 97e9 afbd 29e2 bc3c 9c43 0abe
00000110: 4d5b 713d 95f8 fa3c 5098 0cbe aab4 893d
00000120: 0a55 cfbc 5829 a6bd ff49 12bc 5a7d 783d
00000130: 434b 35bd f671 8abd 78a9 7e3b 43ed 8cbd
00000140: 2896 ffbd cd18 0bbe b171 33be f776 953c
00000150: 2fc1 0f3e 38dd 30be beb8 e0bd 543d bebd
00000160: 9436 163e daca bc3d 5cc0 d53c aa97 06be
00000170: ea05 a63c 641b 783d 508c 063e 8bc8 873d
00000180: 97d3 25be c8a2 8c3d 7892 ff3d cc31 fbba
00000190: c38b d33d 7cf9 e5bd 37e4 97bc 10df f23c
000001a0: b20d 1f3e 4e5d a8bd 0713 853c fc23 07be
000001b0: b03a da3d a5e2 133e dbf1 c2bd a4d1 9c3d
000001c0: f4a7 1abd dbe8 cf3d f1fa c93d d4f8 683d
000001d0: 9a8f e9bd cd8d 1a3e 818b 143e 9b67 e03d
000001e0: ca1a b73c 8ab8 d93c 069f fe3d ad0e 2a3d
000001f0: 5108 ae3d 2c7c 9b3d 4678 54bd 7cab 30be
00000200: ce38 6dbd 4d88 35bd 254f 3dbd 7811 f1bc
00000210: 6760 04bd 6ea4 343d 76aa 083d 3704 0bbe
00000220: 14e0 0e3d 5d61 953d b814 5b3d 6c0d 27bd
00000230: 282e 21be fdb9 e6bd 0bd8 be3c 51ae 6dbd
00000240: 79b7 2d3c 7913 03be 6223 53bc 03ab d2bc
00000250: 1d16 e63d f21c 333d 5b6d 9bbd 9e04 003e
00000260: 5e77 ac3d 5cee 183d 0d1e 563d 44c4 0abe
00000270: ad2a 273e ca6a 213e 7aec a1bd 7c09 a3bc
00000280: d6ed afbd f1b2 cd3d d46a 233e ab71 b53c
00000290: 270c 053e 512c bd3d 6f3d 273e 7424 66bb
000002a0: 78fd 5b3d 929b 3e3e d150 d43d bb1c a73d
000002b0: 4a8b e33d d921 8e3b bf5f 203e 9d09 0dbd
000002c0: a40c ef3c 89be 4dbd 019d 88bd f22d 033e
000002d0: 308e 0fbd 8ee3 93bc 0a00 a8bc 7142 a23d
000002e0: 8384 613d 026d fabd c822 14bc c417 533b
000002f0: e45f eabd 77bc 473d 2c69 8abd af05 a2bd
00000300: 0492 d3bd 9ff6 993a de17 063e f66d 283c
00000310: 5c9b 533b 4b07 303d 147f 9a3d f557 56bc
00000320: c5d9 71bd 9528 b2bd ae85 57bd ee36 233d
00000330: a807 05be f30d 3ebe afee d33b 01dc f6bd
00000340: 5b95 17be 41d7 8e3b 44c2 63be 8d58 a6bc
00000350: 5475 84bd ac9f b4bd e3a8 3f3d dc8f 95bd
00000360: e70d 92bd 7bd2 aabd 4d37 cfba b101 71bc
00000370: 229c 40be 4e5d cd3c 4d73 1bbe 25fb 413d
00000380: 7783 833b 4edd ad3d 68f9 64bd 6e4c 80bd
00000390: f1da d0bd 00d3 cc3d 1e79 72bd 7224 a93d
000003a0: b6d8 3bbd 4b25 233d 6824 c93d 946f ad3d
000003b0: 2f2b 19bd f615 de3d a4aa 10bd 11a4 0c3e
000003c0: 3262 cfbd a447 fe3d 2f8b 753d 1d2c 273e
000003d0: 6aee ab3d e775 023d 7b34 80bd c185 ae3d
000003e0: 987a b63d bce0 07bd 4749 c6bd 94d2 13be
000003f0: 510c 593d eb13 6cbd 2743 863d 7bd0 ae3d

bias f4 [32]
0.04985355 0.06772348 0.035383984 -0.165509 -0.03846795 0.15747756 0.13915455 0.14019348
-0.07237373 0.056902017 0.17942238 -0.23010488 -0.25910094 0.10985133 -0.114145376 -0.25797752
-0.1730086 0.02962076 0.19746387 -0.111678205 -0.09348666 -0.30390155 -0.032894734 -0.08034057
-0.049026296 0.0020301722 -0.0012861759 -0.11223267 -0.078190826 -0.048207257 0.04521912 0.12384763
00000000: 3c33 4c3d 9cb2 8a3d ccee 103d 317b 29be
00000010: 9290 1dbd cc41 213e 887e 0e3e e18e 0f3e
00000020: ae38 94bd 1712 693d 80ba 373e 9da0 6bbe
00000030: e1a8 84be bcf9 e03d 0dc5 e9bd a115 84be
00000040: 2b29 31be 3ca7 f23c f833 4a3e 8bb7 e4bd
00000050: ef75 bfbd fc98 9bbe a1bc 06bd 9989 a4bd
00000060: cccf 48bd a30c 053b e794 a8ba 3eda e5bd
00000070: 8322 a0bd f974 45bd af37 393d d4a3 fd3d

weight f4 [32, 32, 5, 5]
-0.018713243 0.023146695 0.012949274 -0.008741219 0.027046783 -0.0012167396 -0.006982947 0.035793856
0.013664176 0.04903896 0.0027314893 0.03198416 0.050271843 0.014335943 -0.006567875 0.0040674484
0.049788427 0.050172642 0.0391762 0.009629206 0.00782328 0.022315577 0.019283062 0.012736414
0.02083708 -0.0063644405 -0.025320726 -0.0037123438 0.030984385 0.041962072 0.00936743 0.0045498833
-0.01940831 -0.004357947 0.0533777 -0.004223933 -0.013142072 0.008502594 0.047573425 0.051910993
-0.049992323 -0.03406356 0.009473942 -0.007360768 0.010620375 -0.016442887 -0.030875366 0.025772281
0.023700602 0.035856616 0.023433868 -0.010646661 -0.019506823 0.0036561373 -0.021693833 0.03052552
-0.043815397 0.015649363 0.036359683 -0.0068574436 -0.043290902 -0.0069137732 -0.029635867 -0.011283221
-0.01593131 -0.0165996 -0.039436545 -0.030397175 0.028695736 -0.025645107 -0.024717562 0.005214591
-0.0016123174 -0.026228806 0.017558645 -0.031209765 0.022415617 0.024814228 0.02151682 0.0021519144
0.0075209453 0.016057383 -0.00361169 -0.007110949 -0.016272651 -0.03573088 0.00023863283 0.00047885577
0.029540097 0.027124247 -0.02244529 -0.02278272 -0.042189907 -0.0065381243 -0.0120442 -0.020521574
-0.0018895121 0.014308588 0.026751563 0.02277372 0.027309999 0.039690025 -0.011668535 0.0292629
-0.013304592 0.009829736 0.030224537 0.043093204 0.0085972315 0.01275444 -0.008213491 0.04384687
0.012686274 -0.001156525 0.021728067 0.0036883426 0.009672742 -0.008944172 -0.039943613 -0.014964677
-0.029301943 -0.0018600737 -0.008301034 -0.044063605 -0.011335223 0.0481808 -0.016708769 0.020004056
-0.00079518184 0.017238744 0.036693066 0.011163564 0.016610721 0.018074136 0.008348076 0.02781721
0.005321486 0.03229901 -0.0033905772 -0.01500512 0.048988227 0.00712308 0.016788073 -0.017837591
0.018013658 0.03929706 0.02965368 0.026672825 0.0010072693 0.0029963762 -0.015292168 0.022684066
0.02677078 0.06030247 0.00012145659 -0.023739165 0.043632865 0.045456596 0.05961109 0.039079804
-0.029700004 0.053839363 0.02299143 0.019950766 0.052092336 -0.00977716 0.027840443 0.025345655
0.061216883 0.0389109 0.01815534 -0.026045155 0.01557233 -0.026849316 0.0009127529 0.0007838449
0.017471256 0.0036960396 0.029534979 0.025733441 0.037383024 0.017535329 0.05612042 0.053317007
0.029874792 -0.005022789 0.026266579 0.03899828 -0.0042366777 0.008971061 0.033473343 -0.005406707
0.0052898326 -0.015712457 -0.023217192 -0.017340045 0.0024736642 -0.04439648 -0.029835997 -0.04713546
0.001645355 -0.007072053 0.013365316 0.002518453 0.020679304 -0.023289694 -0.010607223 -0.008198722
0.03175996 -0.0071341293 0.026264137 0.02265746 0.009529982 -0.01560602 0.038173325 -0.0056009428
0.03631551 0.023514956 0.017385872 0.0069354596 -0.01205969 -0.03911237 0.004409168 -0.0027684679
-0.03862835 0.018578202 -0.02085977 -0.010749547 -0.013302669 -0.018567273 -0.0016584039 -0.036601268
-0.013248401 -0.030495435 -0.018986695 -0.0013267164 -0.043676198 -0.04651586 0.013981754 -0.01709945
0.01991208 -0.018613111 -0.01484535 0.02234655 -0.0016801957 -0.019873656 -0.037381865 -0.014352104
0.028121162 -0.026337836 0.03562662 0.008589075 0.0034294412 -0.012269562 0.04446279 0.0057972763
00000000: 844c 99bc 239e bd3c 3129 543c 5437 0fbc
00000010: 3791 dd3c 027b 9fba 34d1 e4bb 949c 123d
00000020: b5df 5f3c 14dd 483d c902 333b d301 033d
00000030: d9e9 4d3d 4ee1 6a3c 5437 d7bb 3b48 853b
00000040: f3ee 4b3d d481 4d3d 3977 203d d1c3 1d3c
00000050: 372d 003c 28cf b63c 83f7 9d3c 64ac 503c
00000060: 86b2 aa3c cc8c d0bb 696d cfbc cb4a 73bb
00000070: f7d2 fd3c 6ce0 2b3d d979 193c 3017 953b
00000080: 2dfe 9ebc 1ccd 8ebb 93a2 5a3d eb68 8abb
00000090: d851 57bc 774e 0b3c 5adc 423d 9fa0 543d
000000a0: c0c4 4cbd 3b86 0bbd 9838 1b3c 9932 f1bb
000000b0: 1501 2e3c 3cb3 86bc 56ee fcbc 6420 d33c
000000c0: c427 c23c 63de 123d 62f8 bf3c 556f 2ebc
000000d0: c6cc 9fbc ce9b 6f3b 44b7 b1bc a810 fa3c
000000e0: c677 33bd 1833 803c e4ed 143d 68b4 e0bb
000000f0: cd51 31bd ef8c e2bb ebc6 f2bc 42dd 38bc
00000100: 6182 82bc e2fb 87bc 3788 21bd 7f03 f9bc
00000110: 5213 eb3c b015 d2bc 7c7c cabc 29df aa3b
00000120: 6554 d3ba cbdd d6bc 26d7 8f3c 9fab ffbc
00000130: f5a0 b73c 3547 cb3c 0b44 b03c 2207 0d3b
00000140: 4372 f63b c68a 833c 1ab2 6cbb f702 e9bb
00000150: 394e 85bc 8b5a 12bd 8339 7a39 ef0e fb39
00000160: 13fe f13c ab33 de3c 2fdf b7bc d4a2 babc
00000170: 53cf 2cbd c33d d6bb 0955 45bc dc1c a8bc
00000180: 81a9 f7ba 916e 6a3c 1826 db3c f48f ba3c
00000190: 38b9 df3c 0292 223d 622d 3fbc c0b8 ef3c
000001a0: 81fb 59bc e70c 213c 7399 f73c 8082 303d
000001b0: 67db 0c3c 00f8 503c e191 06bc c798 333d
000001c0: 17da 4f3c 8a96 97ba 0fff b13c 1fb8 713b
000001d0: 6c7a 1e3c 948a 12bc ea9b 23bd 682e 75bc
000001e0: a10a f0bc b7cd f3ba 0f01 08bc 0a7c 34bd
000001f0: 5fb7 39bc 3b59 453d d4e0 88bc 8cdf a33c
00000200: c073 50ba 4438 8d3c 784b 163d 62e7 363c
00000210: 3513 883c 3610 943c 5ec6 083c ebe0 e33c
00000220: dc5f ae3b f74b 043d 7234 5ebb 09d8 75bc
00000230: e1a7 483d ba68 e93b 2487 893c 2420 92bc
00000240: 6191 933c f4f5 203d 46ec f23c f880 da3c
00000250: 5906 843a da5e 443b 008c 7abc efd3 b93c
00000260: 654e db3c b9ff 763d 83b6 fe38 a378 c2bc
00000270: 60b8 323d b230 3a3d c22a 743d 2512 203d
00000280: 6c4d f3bc aa86 5c3d 8658 bc3c ca6f a33c
00000290: c65e 553d 6230 20bc a411 e43c b1a1 cf3c
000002a0: 8ebe 7a3d 0961 1f3d 82ba 943c a65c d5bc
000002b0: 1623 7f3c 19f3 dbbc cf45 6f3a f17a 4d3a
000002c0: e11f 8f3c 4139 723b 57f3 f13c f0ce d23c
000002d0: f11e 193d 40a6 8f3c 87de 653d ef62 5a3d
000002e0: fbbb f43c 3596 a4bb 022d d73c a9bc 1f3d
000002f0: d4d3 8abb 5bfb 123c 581b 093d bf2a b1bb
00000300: 5556 ad3b 69b7 80bc fb31 bebc b60c 8ebc
00000310: 331d 223b 15d9 35bd 9f6a f4bc 1d11 41bd
00000320: f4a8 d73a aebc e7bb 33fa 5a3c a10c 253b
00000330: a567 a93c 07ca bebc ebc9 2dbc ef53 06bc
00000340: bb16 023d 6ac5 e9bb e327 d73c 239c b93c
00000350: a423 1c3c 64b0 7fbc a25b 1c3d 1d88 b7bb
00000360: 92bf 143d 70a2 c03c d16c 8e3c da42 e33b
00000370: 0296 45bc 4b34 20bd c87a 903b 2f6f 35bb
00000380: c338 1ebd 5031 983c 1ce2 aabc de1e 30bc
00000390: 70f3 59bc 651a 98bc cd5e d9ba 36eb 15bd
000003a0: d20f 59bc 90d1 f9bc fc89 9bbc 37e5 adba
000003b0: d0e5 32bd 6a87 3ebd ba13 653c 2514 8cbc
000003c0: a91e a33c 867a 98bc e939 73bc 1d10 b73c
000003d0: 033a dcba 14ce a2bc ba1d 19bd 1625 6bbc
000003e0: 5a5e e63c 72c2 d7bc 38ed 113d 31b9 0c3c
000003f0: 7ac0 603b 4606 49bc 9d1e 363d 14f7 bd3b

bias f4 [32]
0.028718054 -0.078890346 0.008628232 -0.011884769 -0.03061607 0.037787046 -0.006877712 -0.0545534
-0.0045858677 -0.06139168 -0.03930558 0.038313463 -0.030064614 0.0030640266 -0.100650646 -0.055012066
-0.009287716 -0.06551421 -0.04249645 -0.0792979 0.056779705 -0.113207586 -0.00888865 0.0016333298
0.008838003 0.048694078 -0.0557912 -0.09209909 0.036686044 -0.049816173 -0.03698957 -0.06628324
00000000: 2042 eb3c 4391 a1bd 6e5d 0d3c 56b8 42bc
00000010: 8dce fabc 97c6 1a3d 6e5e e1bb 6373 5fbd
00000020: 0c45 96bb d875 7bbd e3fe 20bd 94ee 1c3d
00000030: 114a f6bc d6cd 483b ed21 cebd 5554 61bd
00000040: 812b 18bc 502c 86bd c210 2ebd f066 a2bd
00000050: d691 683d 61d9 e7bd b3a1 11bc 7415 d63a
00000060: 45cd 103c 7173 473d 5085 64bd 739e bcbd
00000070: 1b44 163d 0b0c 4cbd 6082 17bd 82bf 87bd

weight f4 [64, 32, 5, 5]
-0.017777018 -0.047674887 -0.031787295 -0.038143415 -0.00023119978 0.0429841 -0.0046806205 -0.008417145
-0.018220969 -0.015283161 -0.026545562 0.023266494 -0.027061539 0.002385642 -0.00477995 0.025638774
-0.018497229 0.017746173 0.013635933 0.059452213 0.0024160913 0.026583375 -0.0005762604 -0.014592202
0.03495043 0.062825724 0.017453887 -0.04331394 -0.008630978 -0.02883589 0.040771894 -0.012199832
0.0005260478 -0.015908856 -0.0069615664 0.0031808247 0.02122504 0.029349318 0.054591283 0.0403252
-0.007684002 -0.0030907996 -0.002015013 -0.010858557 -0.024343712 0.0016269191 0.011857083 0.037880424
-0.009455116 0.010071868 0.023661401 -0.015782675 -0.03491989 -0.04752389 0.013544862 0.023893878
0.008043888 0.027998958 -0.009053664 -0.040991567 0.021640336 0.015313386 -0.01176186 0.03349955
0.031765822 -0.015719043 -0.0021533591 0.0027073228 -0.022446552 0.016707094 -0.029256621 0.0064668125
0.02190596 -0.027478062 -0.010554048 -0.009624182 0.014114255 -0.002499581 0.007407199 0.030005442
0.017427877 -0.0029700503 0.015606166 -0.013190991 -0.02543408 0.011489054 -0.0028957985 -0.034536395
-0.008006382 -0.016488262 0.03310981 0.027279602 0.030210469 0.001744886 -0.0074751247 -0.036371756
-0.03539891 0.007038456 -0.03248247 -0.005030175 -0.009346369 -0.00524661 -0.019010201 -0.029455462
-0.035855036 0.033603583 -0.0076332553 0.0025773242 0.003433996 -0.006517883 0.0035390279 0.020763516
-0.01119144 0.009702559 -0.021410251 -0.02745078 -0.0046576685 0.0009704936 0.040449087 -0.0022852058
0.009241407 -0.0037208665 -0.004180324 0.010096628 0.018725092 -0.0034005665 0.011885499 -0.044463083
-0.043500587 0.0040832497 0.00029668704 -0.0072072744 -0.02806338 0.012396748 -0.048809938 -0.03361145
0.0078116744 -0.010510655 0.022012426 0.016806863 -0.034321707 -0.033333443 0.017665893 -0.0046010762
-0.01716573 -0.03428762 0.040778764 0.017463766 0.042620737 0.031574175 0.029304387 0.0023310205
0.028607983 0.013532668 0.012722199 0.004077322 -0.034819186 0.04309762 0.043973915 -0.022526389
-0.01608355 0.022804642 0.03914983 0.006626201 -0.016199378 -0.03397968 -0.023838207 -0.020015204
-0.017415076 0.047366835 -0.0047520655 0.00032634978 0.010368379 -0.0009521978 0.0004708507 -0.0228007
0.018899083 -0.008144615 -0.013396958 -0.026227148 -0.027392492 -0.017659405 -0.015449912 -0.012633502
-0.005871857 0.011594541 -0.00843115 -0.035519734 0.028280301 -0.015722776 0.012068991 0.03650657
-0.004671179 -0.024653487 0.019518556 -0.020961013 -0.025253458 -0.0014640046 -0.023680449 0.018197307
0.019750757 -0.0018379452 0.010769324 -0.0035129285 -0.029044567 0.0031989582 0.007502613 -0.010600309
0.011232192 -0.019632712 0.023024406 -0.010266691 -0.0132201435 -0.03108634 0.01700175 -0.026121603
0.014614536 0.019310601 -0.023789236 -0.026789565 -0.017434947 -0.030505383 0.024051743 0.024819812
0.012860403 0.009002067 -0.017516209 -0.008183768 -0.023594184 -0.020924944 -0.022155104 0.004521699
-0.0042804815 -0.016460191 -0.017317291 -0.0004138215 -0.026711311 0.0068512796 0.007549024 -0.016241752
0.00043174363 -0.022753898 -0.031041048 -0.022180008 0.0024427006 -0.027765177 -0.011838584 0.00642863
0.010173928 0.0247437 -0.013375002 -0.033958327 -0.019376509 -0.031415645 0.015814576 -0.0065650316
00000000: 1ca1 91bc be46 43bd 6533 02bd 453c 1cbd
00000010: 386e 72b9 1810 303d e45f 99bb 11e8 09bc
00000020: 2444 95bc 3966 7abc 1476 d9bc 6099 be3c
00000030: 29b0 ddbc 6e58 1c3b 20a1 9cbb 6808 d23c
00000040: 8087 97bc 6c60 913c 4069 5f3c 2a84 733d
00000050: 4957 1e3b 61c5 d93c 2e10 17ba 2214 6fbc
00000060: 2f28 0f3d c6aa 803d 74fb 8e3c f569 31bd
00000070: f268 0dbc 3f39 ecbc 6e00 273d cee1 47bc
00000080: 78e6 093a 4a53 82bc da1d e4bb 6275 503b
00000090: 23e0 ad3c fb6d f03c 1c9b 5f3d 092c 253d
000000a0: 15ca fbbb 038f 4abb 4f0e 04bb 17e8 31bc
000000b0: 776c c7bc 593e d53a 3644 423c 8128 1b3d
000000c0: a1e9 1abc 7a04 253c 8ed5 c13c ab4a 81bc
000000d0: 2908 0fbd 69a8 42bd 45eb 5d3c 18bd c33c
000000e0: 83ca 033c 125e e53c d255 14bc c6e6 27bd
000000f0: 1347 b13c ffe4 7a3c d1b4 40bc d336 093d
00000100: e11c 023d 39c5 80bc 5f1f 0dbb 576d 313b
00000110: d5e1 b7bc 51dd 883c 95ab efbc 8ee7 d33b
00000120: 2174 b33c ac19 e1bc e3ea 2cbc bfae 1dbc
00000130: 7a3f 673c 03d0 23bb 17b8 f23b f9cd f53c
00000140: e8c4 8e3c 2da5 42bb 01b1 7f3c 071f 58bc
00000150: 225b d0bc 963c 3c3c 70c7 3dbb 0976 0dbd
00000160: 332d 03bc 6412 87bc 279e 073d 7979 df3c
00000170: f27b f73c a9b4 e43a e4f1 f4bb 8dfa 14bd
00000180: 73fe 10bd d9a2 e63b 570c 05bd 2bd4 a4bb
00000190: 8321 19bc c1eb abbb 48bb 9bbc 954c f1bc
000001a0: bbdc 12bd e9a3 093d 6320 fabb 53e8 283b
000001b0: e50c 613b f793 d5bb 09ef 673b 4018 aa3c
000001c0: 4d5c 37bc 7bf7 1e3c 8d64 afbc 75e0 e0bc
000001d0: 5b9f 98bb b968 7e3a f1ad 253d 64c3 15bb
000001e0: 4569 173c c8d9 73bb 19fb 88bb 546c 253c
000001f0: 5d65 993c 0adc 5ebb 65bb 423c ec1e 36bd
00000200: ac2d 32bd c8cc 853b a98c 9b39 002b ecbb
00000210: 2ce5 e5bc bb1b 4b3c eeec 47bd 29ac 09bd
00000220: 13f9 ff3b e234 2cbc 6753 b43c 8cae 893c
00000230: eb94 0cbd a688 08bd 10b8 903c a0c4 96bb
00000240: 259f 8cbc 2d71 0cbd a207 273d 2c10 8f3c
00000250: 1593 2e3d ec53 013d c10f f03c 09c4 183b
00000260: 4a5b ea3c 20b8 5d3c c570 503c 0e9b 853b
00000270: 909e 0ebd 2187 303d fe1d 343d 4389 b8bc
00000280: a6c1 83bc cdd0 ba3c 925b 203d 9a20 d93b
00000290: 8fb4 84bc 472e 0bbd 5848 c3bc edf6 a3bc
000002a0: 10aa 8ebc ba03 423d 37b7 9bbb ed19 ab39
000002b0: 22e0 293c ea9c 79ba 83dc f639 89c8 babc
000002c0: 40d2 9a3c fe70 05bc ea7e 5bbc 51da d6bc
000002d0: 3866 e0bc 75aa 90bc a121 7dbc bffc 4ebc
000002e0: b568 c0bb 08f7 3d3c ce22 0abc 247d 11bd
000002f0: 17ac e73c 0dcd 80bc 04bd 453c ea87 153d
00000300: b110 99bb 1cf6 c9bc 61e5 9f3c 6eb6 abbc
00000310: 57e0 cebc d8e3 bfba 80fd c1bc 8512 953c
00000320: 57cc a13c 35e7 f0ba d271 303c 2939 66bb
00000330: dfee edbc 9da5 513b 7bd8 f53b ebac 2dbc
00000340: 3a07 383c c8d4 a0bc ae9d bc3c a035 28bc
00000350: 4d99 58bc c8a8 febc 4147 8b3c f9fc d5bc
00000360: cf71 6f3c 4431 9e3c a5e1 c2bc ca75 dbbc
00000370: bcd3 8ebc 6de6 f9bc 2908 c53c eb52 cb3c
00000380: 71b4 523c 687d 133c 277e 8fbc 3615 06bc
00000390: 9748 c1bc ca6a abbc 9f7e b5bc c32a 943b
000003a0: 4843 8cbb 86d7 86bc fedc 8dbc 2ef6 d8b9
000003b0: aed1 dabc b380 e03b ce5d f73b 6c0d 85bc
000003c0: a65b e239 6266 babc cc49 febc d9b2 b5bc
000003d0: b715 203b cc73 e3bc 9ff6 41bc 42a7 d23b
000003e0: 8cb0 263c 4db3 ca3c d322 5bbc e317 0bbd
000003f0: 7cbb 9ebc b1ad 00bd 928d 813c 7a1f d7bb

bias f4 [64]
-0.025681796 -0.0025827887 -0.036541153 -0.029997103 -0.008213721 0.021305246 -0.04104417 -0.050987504
0.030170728 -0.027783128 -0.029816372 -0.034650758 0.0077916114 0.00056792324 0.008953711 -0.0066643744
-0.011921529 -0.023477038 -0.0471531 -0.047948446 -0.013345873 -0.058204122 0.008804119 -0.030111287
-0.020856656 -0.06747797 0.0073472657 -0.019058103 -0.013057235 -0.028477574 -0.024243638 0.0021244027
0.0011722476 -0.0040252376 0.0035380847 -0.001007753 -0.026642716 0.0043242066 0.040056106 0.02948873
-0.05606739 -0.050639898 -0.029575648 -0.04060731 0.022681348 0.035891786 0.014263101 -0.019758793
-0.015584517 0.0005203113 0.022644082 -0.05952907 -0.05768075 -0.016456576 0.009818715 -0.056534514
-0.03303706 0.04294875 0.0010380188 -0.043964323 -0.021518726 -0.0371206 0.035253774 0.0057954974
00000000: a162 d2bc 0144 29bb 2dac 15bd 7cbc f5bc
00000010: d892 06bc 5788 ae3c ee1d 28bd 46d8 50bd
00000020: 9a28 f73c 7199 e3bc 7741 f4bc f4ed 0dbd
00000030: c650 ff3b afe0 143a 96b2 123c d360 dabb
00000040: 8452 43bc eb52 c0bc 9c23 41bd 9765 44bd
00000050: a6a8 5abc 7267 6ebd 273f 103c f2ab f6bc
00000060: 94db aabc e431 8abd 55c1 f03b bd1f 9cbc
00000070: 03ee 55bc cd49 e9bc 989a c6bc 9039 0b3b
00000080: 1aa6 993a 24e6 83bb 36df 673b 9416 84ba
00000090: d341 dabc 13b2 8d3b df11 243d 5992 f13c
000000a0: eba6 65bd c86b 4fbd a148 f2bc da53 26bd
000000b0: 3cce b93c 4403 133d c8af 693c 31dd a1bc
000000c0: 3456 7fbc 8065 083a 1580 b93c c1d4 73bd
000000d0: a642 6cbd f1cf 86bc adde 203c bc90 67bd
000000e0: de51 07bd 07eb 2f3d 220e 883a ef13 34bd
000000f0: 0a48 b0bc c50b 18bd 4366 103d 28e8 bd3b

weight f4 [64, 1024]
-0.007280744 -0.027935319 0.00783417 0.022943096 0.022021491 -0.0025730676 0.0037738103 -0.015495934
0.03363272 0.012396619 0.0244233 0.024846328 -0.028092392 -0.021745352 -0.005915421 0.0058315326
-0.03639921 -0.011834954 -0.012895634 0.028626041 0.0011323147 -0.00017816226 0.011823394 0.017558778
0.01659398 0.027107403 -0.025618367 -0.023200516 -0.019636739 -0.0115205515 0.03350828 0.037778635
0.010881124 -0.046085317 -0.0024053354 -0.0004999012 -0.016154315 -0.0016765179 -0.026812388 -0.019047797
0.020136181 0.029586053 0.03959668 0.04114921 -0.016198738 0.005203107 0.002360093 0.042265125
-0.026034618 0.005570808 0.0123603325 -0.04025008 0.031936217 0.03385988 0.020345097 0.027280759
-0.023280302 0.047708023 0.011640845 0.010725234 0.020273468 0.0046309927 -0.016773082 0.0067203576
-0.0068780445 -0.020014187 0.017099954 0.009833881 0.040012404 -0.0033963448 0.017200107 -0.022171354
-0.02251963 -0.011678368 0.014583181 0.0034663477 0.035422646 -0.005178056 0.012732098 0.026015904
0.0010782672 0.03553657 0.013536487 -0.013888733 -0.022944394 0.010913127 -0.026629142 0.019206246
-0.009378331 0.012081172 0.0019327834 -0.019712446 -0.0038939286 -0.013251582 0.006084699 -0.03150575
0.031278398 -0.007905575 -0.009354254 -0.010144267 0.022126162 0.002592713 -0.008416502 0.014158863
-0.024328059 -0.020032072 0.03844421 -0.01059245 0.023486821 -0.0017041592 0.013939488 0.013189829
0.0030627532 -0.00019209654 -0.01929143 0.019711727 0.031834263 -0.024415558 -0.014802979 0.024823535
0.031656988 -0.010023395 -0.0045146053 -0.013168029 -0.027456045 -0.01744354 -0.0014158731 0.010984164
0.010659256 0.0099884495 -0.02280228 0.012460871 -0.021898422 -0.005366334 -0.017642513 0.029472338
0.014969122 -8.9575515e-05 -0.015330248 0.0191297 -0.019779861 -0.01815619 -0.0156205 -0.0052993284
-0.020799952 -0.002204137 -0.03656568 0.016603418 -0.007271099 -0.004356304 -0.005405175 -0.0030210922
0.0021354053 0.020849528 0.009086366 0.02260316 -0.029553639 -0.024325417 0.029984469 -0.0066686017
0.02605036 0.010569661 -0.0006412082 -0.0045928825 -0.016896741 -0.0058532194 0.0040411945 -0.026039027
0.011405993 0.032894973 0.00833558 -0.0019505285 -0.013611851 0.0010126089 0.03127271 0.0029922456
0.011704865 0.0021039478 0.019889837 0.01251655 -0.0019134193 0.027339954 0.025251323 -0.010448064
0.005825806 -0.028446883 -0.017988363 0.030561522 0.022720553 -0.009889685 0.0039056062 -0.021980083
0.014881553 -0.011162029 0.040762685 0.02560916 0.027572503 -0.010059633 -0.021285772 -0.011663795
-0.027467744 0.03800231 0.02914276 -0.006913873 -0.013097049 0.010805381 0.00926326 0.036688946
-0.020341171 -0.022692567 0.036208168 -0.015612918 0.029392386 0.030691985 0.030288033 -0.00569035
-0.006316902 0.0047641443 0.027979312 -0.009584752 -0.010651157 -0.017925767 0.030537855 -0.013441309
0.0055419155 -0.031004235 -0.03312586 -0.025720757 0.002909151 0.019296143 -0.0040191053 -0.022369577
-0.0021378847 -0.024647571 0.020155676 -0.024528954 -0.0005629379 -0.019220348 -0.008905139 -0.0056496304
0.028069079 -0.022761172 0.0076768664 0.005556478 -0.02734712 0.018297601 0.023728285 -0.02164623
-0.014936485 -0.0008323203 0.0038385335 0.033281755 0.01233058 0.002595238 0.0063203247 0.0018239557
00000000: 4f93 eebb 9cd8 e4bc e45a 003c 29f3 bb3c
00000010: 6a66 b43c e9a0 28bb 0852 773b a8e2 7dbc
00000020: 77c2 093d 301b 4b3c 5f13 c83c 878a cb3c
00000030: 0422 e6bc 4f23 b2bc 26d6 c1bb 7116 bf3b
00000040: 5717 15bd 65e7 41bc 3648 53bc 2981 ea3c
00000050: 2d6a 943a 11d1 3ab9 e9b6 413c 6dd7 8f3c
00000060: 19f0 873c 5810 de3c 9cdd d1bc 020f bebc
00000070: 3add a0bc b2c0 3cbc fa3f 093d c5bd 1a3d
00000080: be46 323c f5c3 3cbd d5a2 1dbb cd0b 03ba
00000090: 0e56 84bc 9bbe dbba a7a5 dbbc 200a 9cbc
000000a0: a2f4 a43c 735e f23c 2130 223d 138c 283d
000000b0: 37b3 84bc d37e aa3b caab 1a3b 321e 2d3d
000000c0: 8d46 d5bc 538b b63b fe82 4a3c 45dd 24bd
000000d0: 8dcf 023d a8b0 0a3d c3aa a63c e67b df3c
000000e0: 55b6 bebc 7d69 433d 3eb9 3e3c e4b8 2f3c
000000f0: 8b14 a63c 95bf 973b b467 89bc 7236 dc3b
00000100: 3861 e1bb cbf4 a3bc 3415 8c3c 491e 213c
00000110: 0ce4 233d 3695 5ebb 3de7 8c3c b3a0 b5bc
00000120: 167b b8bc a056 3fbc 4bee 6e3c aa2b 633b
00000130: 5617 113d afac a9bb 4a9a 503c 4e1f d53c
00000140: a554 8d3a cb8e 113d 24c8 5d3c 928d 63bc
00000150: e2f5 bbbc f9cc 323c 5c25 dabc 6b56 9d3c
00000160: 92a7 19bc 1cf0 453c 7355 fd3a ff7b a1bc
00000170: 4831 7fbb 2a1d 59bc 2862 c73b 2c0c 01bd
00000180: c71d 003d 6386 01bc 9642 19bc 2434 26bc
00000190: ed41 b53c 82ea 293b 5ee5 09bc 93fa 673c
000001a0: a34b c7bc 4d1a a4bc ad77 1d3d f58b 2dbc
000001b0: 6f67 c03c 185e dfba 7362 643c 271a 583c
000001c0: 79b8 483b 866d 49b9 1009 9ebc 7d7a a13c
000001d0: a564 023d 2303 c8bc 3288 72bc ba5a cb3c
000001e0: c2aa 013d 2a39 24bc 41ef 93bb b7be 57bc
000001f0: 80eb e0bc c1e5 8ebc d194 b9ba ecf6 333c
00000200: 29a4 2e3c 98a6 233c d9cb babc ae28 4c3c
00000210: 5264 b3bc 13d8 afbb 0887 90bc f96f f13c
00000220: 0c41 753c 7dda bbb8 b82b 7bbc e3b5 9c3c
00000230: 6009 a2bc 4abc 94bc 20ed 7fbc fda5 adbb
00000240: a964 aabc 4873 10bb e5c5 15bd e403 883c
00000250: 6642 eebb 54bf 8ebb e51d b1bb 84fd 45bb
00000260: 28f2 0b3b a1cc aa3c fbde 143c 432a b93c
00000270: 791a f2bc 1946 c7bc fda1 f53c 4984 dabb
00000280: 9167 d53c 5f2c 2d3c c116 28ba e47f 96bb
00000290: 096b 8abc 5dcc bfbb ff6b 843b cc4f d5bc
000002a0: 34e0 3a3c e1bc 063d f591 083c e0a8 ffba
000002b0: 3e04 5fbc 84b9 843a d017 003d 8d19 443b
000002c0: c3c5 3f3c 63e2 093b 03f0 a23c 3712 4d3c
000002d0: b3cb faba 0af8 df3c dddb ce3c 5b2e 2bbc
000002e0: 67e6 be3b 7009 e9bc 555c 93bc 285c fa3c
000002f0: 7420 ba3c 5808 22bc 33f5 7f3b 930f b4bc
00000300: c2d1 733c f1e0 36bc c6f6 263d 4dca d13c
00000310: bbdf e13c 29d1 24bc 805f aebc 8119 3fbc
00000320: 0904 e1bc 4fa8 1b3d ccbc ee3c c58d e2bb
00000330: 0195 56bc 0e09 313c eec4 173c 2647 163d
00000340: 87a2 a6bc c3e5 b9bc 044f 143d 53cd 7fbc
00000350: 4dc8 f03c c26d fb3c 9c1e f83c 1e76 babb
00000360: 04fe cebb 8a1c 9c3b df34 e53c 5d09 1dbc
00000370: 3182 2ebc 0fd9 92bc 862a fa3c f038 5cbc
00000380: f598 b53b 98fc fdbc fbae 07bd 56b4 d2bc
00000390: 74a7 3e3b f212 9e3c b3b2 83bb 6740 b7bc
000003a0: c11b 0cbb b4e9 c9bc 841d a53c f2f0 c8bc
000003b0: 1f92 13ba fe73 9dbc dce6 11bc 8920 b9bb
000003c0: 20f1 e53c a375 babc 398e fb3b 1e13 b63b
000003d0: 1107 e0bc dae4 953c d261 c23c 6f53 b1bc
000003e0: 29b8 74bc 1230 5aba e88f 7b3b 7352 083d
000003f0: 3306 4a3c de14 2a3b ba1a cf3b cc11 ef3a

bias f4 [64]
-0.022793349 -0.010486755 -0.0016361831 -0.025413927 0.00012099951 -0.009485365 0.008497696 0.01347665
0.006631894 -0.011889758 -0.0015550274 -0.016966637 0.018092077 -0.007446121 -0.016789049 0.0026988897
0.007975519 0.017622588 0.007091671 0.007887115 0.0075933994 -0.021496102 -0.0046617836 -0.010536596
-0.030200932 -0.008604546 0.031931743 0.021293797 -0.03794341 -0.024247931 -0.0351828 -0.04497637
0.044562157 0.021288084 0.037218563 -0.008415453 0.015075827 -0.041258216 0.0122772185 0.0035145858
0.002288871 0.001900899 -0.014551659 -0.05010955 -0.008015702 0.036807388 -0.017776584 0.062302884
0.005520047 -0.0051416825 -0.03058123 -0.011713904 -0.027119873 -0.00459893 -0.049817443 -0.014677039
0.022680007 -0.0047921645 -0.026798801 -0.04027736 0.018770779 0.03333921 0.0033068424 0.030729065
00000000: 1eb9 babc a3d0 2bbc 3275 d6ba de30 d0bc
00000010: 1ec1 fd38 8168 1bbc ec39 0b3c 2bcd 5c3c
00000020: 5c50 d93b 42cd 42bc 10d2 cbba 9efd 8abc
00000030: d635 943c 97fe f3bb 3089 89bc dbdf 303b
00000040: c0ab 023c 3f5d 903c 4061 e83b f538 013c
00000050: 0dd2 f83b 9818 b0bc e0c1 98bb b0a1 2cbc
00000060: f267 f7bc 15fa 0cbc dcca 023d 5470 ae3c
00000070: 8d6a 1bbd 99a3 c6bc d71b 10bd 2439 38bd
00000080: cf86 363d 5964 ae3c 7e72 183d f8e0 09bc
00000090: 9a00 773c 60fe 28bd 6326 493c f754 663b
000000a0: e200 163b 9627 f93a 156a 6ebc ac3f 4dbd
000000b0: 4a54 03bc 58c3 163d 33a0 91bc 4f31 7f3d
000000c0: 83e1 b43b 8f7b a8bb 7d85 fabc adeb 3fbc
000000d0: 7f2a debc 9fb2 96bb 600d 4cbd f777 70bc
000000e0: 6ccb b93c 9707 9dbb 2989 dbbc dff9 24bd
000000f0: 2dc5 993c b28e 083d 9cb7 583b 85bb fb3c

weight f4 [10, 64]
-0.09753541 0.17755824 -0.037908472 -0.00080114626 -0.14187384 0.17341891 -0.14098959 -0.043047257
-0.06151997 0.25509378 -0.060378898 0.20877719 -0.0699139 -0.12565692 0.14312054 -0.010177043
0.11909085 0.13377436 0.062567756 -0.09402183 0.1354231 0.08216659 -0.09118603 0.11392618
0.13726677 0.016577546 -0.08665205 0.083352745 -0.00041071384 0.13501 0.1256039 0.09582462
-0.22362702 0.054450102 -0.13350087 -0.044354152 0.032424137 0.15010151 0.10571699 0.14801183
-0.07958239 -0.12924665 -0.08120263 0.08692451 -0.057029586 -0.08169537 -0.13459896 -0.05495455
-0.086597174 0.17130521 -0.04742988 0.13827257 0.11309158 0.12919807 -0.00058175036 0.016640117
0.14600034 0.031647675 0.038465716 0.11975513 -0.040105034 0.013346207 -0.007166547 -0.0035422868
0.10456902 0.23087709 -0.021249129 0.16300488 0.04391078 -0.18443768 0.020299492 0.10231481
0.18822607 0.10893184 -0.05343276 -0.08893265 0.14091219 0.13427538 -0.09926444 0.01986605
-0.18192376 -0.2495553 0.22966073 0.14031734 -0.14069179 0.15616845 0.12162441 0.22995043
-0.11517039 -0.16089292 0.09735279 0.085189395 -0.12864903 -0.24085745 0.1971556 -0.068188675
0.2086019 0.040558837 -0.09087747 0.036207516 0.2439665 -0.1810345 0.003289984 0.06906742
-0.09572743 -0.2714956 0.20816815 0.159738 -0.05384488 0.16772614 0.007711307 -0.10322889
0.1038609 0.12276927 -0.080788285 -0.027111037 0.09448718 0.09016978 -0.20859529 0.17460795
-0.004300015 0.063474424 0.09086194 -0.009088773 0.22939697 0.06422074 0.08140286 0.16869664
0.12295198 -0.07759565 -0.06658818 0.116405524 0.04214405 0.13516362 -0.15538909 -0.20460038
0.12187104 0.14350389 -0.0051882025 -0.0035229728 -0.08697503 0.12449091 -0.19631222 0.0033908898
-0.06346944 0.20142443 -0.15312321 0.02559434 0.083711416 0.0013670592 -0.058265954 -0.11712097
-0.0912357 0.19227114 -0.00049522327 -0.14486022 0.05748362 0.032694187 -0.16958883 -0.08066861
-0.15944164 0.07777631 -0.043516275 -0.050553538 -0.110254146 0.100145705 -0.015430311 0.09569036
0.046353005 0.13880503 -0.049925447 -0.20970748 -0.045288112 -0.041490883 -0.13124031 0.06680766
-0.025535438 0.11344904 0.14821705 0.19191018 -0.043274667 0.1703433 -0.111165814 -0.11921401
-0.15800254 -0.026805583 -0.052305292 -0.1080286 0.04055903 0.027380908 -0.11384201 0.05233448
0.09983523 -0.12023456 0.045628652 0.013649361 -0.09716558 -0.18187368 -0.11390142 -0.10595049
0.14386559 -0.14751522 -0.07287454 -0.004916843 -0.11124085 -0.027192855 -0.15609172 -0.101026475
0.1535704 -0.1410448 -0.11272296 -0.13490239 -0.072624914 -0.09563378 -0.08188924 -0.1350212
0.09074426 0.124447614 -0.048098385 -0.023652585 0.011784085 0.056091856 -0.15620339 -0.11048041
0.06161217 0.13190976 -0.108178034 -0.035835 0.09694804 -0.058210943 -0.038836773 0.107507594
-0.13710488 -0.02594483 0.058819804 -0.055841822 0.04785004 0.036184955 -0.058030654 0.09061157
-0.101736255 -0.12060074 -0.123015374 0.02473137 -0.081990354 0.06112768 0.022298882 -0.17602506
-0.07166171 -0.10431485 0.053991925 0.12858418 -0.15211546 0.02755921 -0.08312151 -0.059709992
00000000: a5c0 c7bd d4d1 353e ea45 1bbd 0404 52ba
00000010: 6047 11be ba94 313e 935f 10be 5252 30bd
00000020: 5dfc 7bbd a79b 823e dd4f 77bd b0c9 553e
00000030: 052f 8fbd 35ac 00be 318e 123e 9dbd 26bc
00000040: e7e5 f33d 25fc 083e 8623 803d 848e c0bd
00000050: 5aac 0a3e f546 a83d bebf babd 2152 e93d
00000060: a98f 0c3e a2cd 873c a176 b1bd d8b4 aa3d
00000070: 1455 d7b9 1040 0a3e 4f9e 003e b33f c43d
00000080: 7bfe 64be 1207 5f3d 74b4 08be b3ac 35bd
00000090: 2ccf 043d 36b4 193e 2682 d83d 6a90 173e
000000a0: 18fc a2bd 3c59 04be 914d a6bd 7a05 b23d
000000b0: db97 69bd e74f a7bd 4fd4 09be 0618 61bd
000000c0: dc59 b1bd a26a 2f3e d545 42bd 5397 0d3e
000000d0: 8f9c e73d 804c 043e 9b80 18ba db50 883c
000000e0: 1d81 153e fea0 013d 3a8e 1d3d 2d42 f53d
000000f0: 2d45 24bd 0daa 5a3c 5ad5 eabb b625 68bb
00000100: 4828 d63d 0b6b 6c3e a712 aebc c0ea 263e
00000110: cadb 333d 3bdd 3cbe 1f4b a63c 6d8a d13d
00000120: 56be 403e a817 df3d 4fdc 5abd 5222 b6bd
00000130: 494b 103e 7c7f 093e 284b cbbd 20be a23c
00000140: 394a 3abe 6d8b 7fbe 2f2c 6b3e 59af 0f3e
00000150: 8211 10be 9fea 1f3e 3816 f93d 2078 6b3e
00000160: 74de ebbd 1dc1 24be e660 c73d c777 ae3d
00000170: 92bc 03be 56a3 76be 28e3 493e 81a6 8bbd
00000180: bd9b 553e 0621 263d f81d babd 554e 143d
00000190: 5bd2 793e 1c61 39be c69c 573b 3873 8d3d
000001a0: be0c c4bd 7901 8bbe 082a 553e 5c92 233e
000001b0: 738c 5cbd 67c0 2b3e 22af fc3b ab69 d3bd
000001c0: 06b5 d43d 746e fb3d 5474 a5bd f717 debc
000001d0: 7f82 c13d efaa b83d 019a 55be 6dcc 323e
000001e0: 24e7 8cbb e1fe 813d d315 ba3d 14e9 14bc
000001f0: 0ae7 6a3e 2a86 833d 8bb6 a63d d0be 2c3e
00000200: 3fce fb3d 78ea 9ebd 625f 88bd 0566 ee3d
00000210: 3d9f 2c3d 5568 0a3e 511e 1fbe c382 51be
00000220: 8697 f93d aff2 123e cc01 aabb ade1 66bb
00000230: f71f b2bd 17f5 fe3d 1206 49be b139 5e3b
00000240: 44fc 81bd 3542 4e3e 55cc 1cbe 39ab d13c
00000250: e470 ab3d e52e b33a 48a8 6ebd 1edd efbd
00000260: c8d9 babd bae2 443e dfd1 01ba 3d56 14be
00000270: f273 6b3d 57ea 053d b2a8 2dbe 9635 a5bd
00000280: ab44 23be 3049 9f3d 1f3e 32bd 3a11 4fbd
00000290: edcc e1bd 3119 cd3d 6acf 7cbc 4ff9 c33d
000002a0: a6dc 3d3d e822 0e3e a07e 4cbd 8fbd 56be
000002b0: 0780 39bd 58f2 29bd dc63 06be 74d2 883d
000002c0: b22f d1bc f857 e83d 36c6 173e 1a84 443e
000002d0: c740 31bd 796e 2e3e e7aa e3bd 7a26 f4bd
000002e0: 6bcb 21be 6297 dbbc 133e 56bd 193e ddbd
000002f0: 3a21 263d ed4d e03c 0026 e9bd ae5c 563d
00000300: 6a76 cc3d 893d f6bd 1ce5 3a3d 92a1 5f3c
00000310: bffe c6bd 183d 3abe 2645 e9bd 92fc d8bd
00000320: 8051 133e 3b0e 17be 3f3f 95bd 781d a1bb
00000330: 3ed2 e3bd 8dc3 debc 82d6 1fbe f8e6 cebd
00000340: 8f41 1d3e 0c6e 10be 4cdb e6bd da23 0abe
00000350: 5fbc 94bd a5db c3bd 8cb5 a7bd ff42 0abe
00000360: 20d8 b93d 64de fe3d d002 45bd 11c3 c1bc
00000370: 0912 413c 93c0 653d c8f3 1fbe 8e43 e2bd
00000380: 0b5d 7c3d 5a13 073e 728c ddbd b9c7 12bd
00000390: b28c c63d 996e 6ebd 4f13 1fbd f12c dc3d
000003a0: 3965 0cbe 418a d4bc 09ed 703d 65ba 64bd
000003b0: 67fe 433d ad36 143d 8db1 6dbd 8f92 b93d
000003c0: 195b d0bd 85fd f6bd 7cef fbbd 7199 ca3c
000003d0: 8fea a7bd 0561 7a3d 25ac b63c ea3f 34be
000003e0: 60c3 92bd 06a3 d5bd a326 5d3d 92ab 033e
000003f0: 28c4 1bbe dac3 e13c 9c3b aabd 7792 74bd

bias f4 [10]
-0.1966772 -0.03355871 0.010846438 -0.00044648402 0.13204698 -0.029345779 0.010091782 -0.031561736
-0.01522823 0.026066836
00000000: bf65 49be dc74 09bd 42b5 313c 1216 eab9
00000010: 5337 073e 8f66 f0bc 0058 253c e146 01bd
00000020: d37f 79bc 1e8a d53c
