models/gpu_train_model1.pth (torch, 587335 bytes, 10 tensors)

weight f4 [32, 3, 5, 5]
0	0x3c77356f	0.015088423
1	0x3dea23e3	0.11432626
2	0x3ccfcf54	0.025367416
3	0xbc58e6a0	-0.013238579
4	0xbdae3cdf	-0.08507704
5	0xbd3b243b	-0.04568885
6	0x3d1a7712	0.03771121
7	0x3de553bb	0.11197611
8	0xbd2ae56e	-0.041722707
9	0xbc989248	-0.01862444
10	0x3cc12acc	0.023579977
11	0x3dd73606	0.10508351
12	0x3be1b11e	0.006887569
13	0xbcd74a90	-0.026280671
14	0xbc64fa90	-0.013975754
15	0x3db1f9e2	0.086902395
16	0xbd00a657	-0.031408634
17	0xbd5efbb3	-0.054439258
18	0xbd1308d6	-0.0358971
19	0x3deb0834	0.11476174
20	0xbd793745	-0.060843725
21	0xbd81d93b	-0.063402615
22	0x3dc840ca	0.097779825
23	0x3d42ad7c	0.04752873
24	0x3de1fa2b	0.11034044
25	0x3d6c4d9d	0.057691205
26	0x3d85a5c0	0.06525755
27	0xbd9d6caf	-0.076867454
28	0x3d618778	0.055060834
29	0xbd73a82f	-0.059486564
30	0x3da63bf5	0.08116905
31	0xbd9a09e1	-0.075214155
32	0x3a54a0a1	0.0008111094
33	0xbd9d733b	-0.07687994
34	0x3cc2e556	0.023790997
35	0x3cc077ff	0.023494719
36	0x3cc73323	0.024316376
37	0x3d18c381	0.037295822
38	0xbcd3005b	-0.025757005
39	0xbd962096	-0.07330434
40	0xbd88b621	-0.06675363
41	0xbdc73cd8	-0.09728402
42	0x3ce9ead4	0.028554358
43	0x3c82ebd5	0.015981594
44	0x3dd14f34	0.10220185
45	0xbd13d681	-0.03609324
46	0x3c565a9b	0.013083125
47	0x3d3aa403	0.04556657
48	0xbb337d31	-0.0027387852
49	0x3d520fb0	0.051284492
50	0x3d1ce1fb	0.03830145
51	0x3d8c0298	0.06836432
52	0xbdff33d2	-0.12461056
53	0xbe06d704	-0.1316796
54	0xbd61e2c5	-0.055147905
55	0xbdc47955	-0.09593455
56	0xbcd0f09a	-0.025505353
57	0xbd24d346	-0.04024055
58	0xbe05ee65	-0.13079222
59	0xbdeaf30e	-0.1147214
60	0xbd7fdb62	-0.06246508
61	0x3bf6bcbf	0.0075298245
62	0xbca139e5	-0.019680927
63	0x3c609624	0.013707671
64	0x3d0dcf5f	0.034621593
65	0xbd811bd5	-0.06304137
66	0x3d426202	0.04745675
67	0xbdd414dd	-0.10355542
68	0x3d92a8c4	0.07161096
69	0x3bdf26b2	0.0068100328
70	0xbdd9941d	-0.106239535
71	0x3db38d72	0.08767213
72	0xbc52362f	-0.012830301
73	0xbd9b773c	-0.075911015
74	0xbcdf923a	-0.027291406
75	0x3dc69ebc	0.09698245
76	0x3d14dfde	0.03634631
77	0x3cd875ec	0.026423417
78	0x3d0637c8	0.03276804
79	0xbd796f49	-0.060897145
80	0xbd9766e6	-0.07392673
81	0xbd8f17ff	-0.06986999
82	0xbdd52c2a	-0.10408814
83	0x3c20d2f7	0.009815923
84	0x3defac16	0.11702745
85	0xbdcf4424	-0.10120419
86	0xbd636a74	-0.055521443
87	0xbd8f6e86	-0.070035025
88	0x3dee66a6	0.116406724
89	0x3d9072c2	0.07053138
90	0x3d9f0fc9	0.07766683
91	0xbd9d7464	-0.076882154
92	0x3c0b1667	0.008489228
93	0x3c9e158b	0.019297382
94	0x3ded538f	0.11588203
95	0x3def3e6f	0.1168183
96	0xbddd148d	-0.107949354
97	0x3d84bd23	0.064813875
98	0x3dd45b0e	0.1036893
99	0x3c0fc06d	0.008773905
100	0x3dda356a	0.10654719
101	0xbd8d783f	-0.06907701
102	0x3d06124d	0.032732297
103	0x3c5adc27	0.0133581525
104	0x3dee86a5	0.11646775
105	0xbd701f5a	-0.05862365
106	0x3d544351	0.05182201
107	0xbdc5b325	-0.0965331
108	0x3d71774f	0.058951672
109	0x3da1e8d3	0.07905736
110	0xbd45d9bd	-0.048303355
111	0x3dd7a5da	0.105296806
112	0xbd31e7e5	-0.043434042
113	0x3d224264	0.039614096
114	0x3d2b573a	0.041831233
115	0x3da8526a	0.08218844
116	0xbdb018be	-0.08598469
117	0x3de6141e	0.11234306
118	0x3d9b146e	0.07572256
119	0x3d814875	0.06312648
120	0x3d556952	0.052102394
121	0x3d769edc	0.060210094
122	0x3dcc4402	0.09973909
123	0xbab6d0f9	-0.0013947777
124	0x3d918f15	0.07107369
125	0x3dc8386f	0.09776389
126	0x3b063e22	0.0020483811
127	0xbddc5cd1	-0.10759891
128	0xbd66a7ee	-0.056312494
129	0xbd8c09e4	-0.06837824
130	0x38e67f30	0.00010990945
131	0x3cb42ed0	0.021994978
132	0x3cc195e6	0.023631047
133	0x3cc07369	0.023492532
134	0xbc0cce54	-0.008594114
135	0xbd84244f	-0.06452238
136	0x3daac99b	0.083392344
137	0x3dc1f50f	0.09470569
138	0x3ccded32	0.025137518
139	0xbd8da265	-0.0691574
140	0xbdd77beb	-0.10521682
141	0xbd7d5a5a	-0.061853744
142	0x3c8b7015	0.017021218
143	0xbdb8e8aa	-0.09028752
144	0xbb92a134	-0.0044747833
145	0xbd968a4a	-0.07350595
146	0x3d2b4f00	0.041823387
147	0xbcaef739	-0.02135812
148	0x3dcf7945	0.10130552
149	0x3d66e890	0.056374133
150	0xbd2dc8eb	-0.04242794
151	0x3de1a8d2	0.11018528
152	0x3d944c52	0.072411194
153	0x3d3e9e49	0.04653767
154	0x3d316b2f	0.04331511
155	0xbdcec428	-0.100960076
156	0x3df7cb80	0.120993614
157	0x3df5da09	0.120044775
158	0xbda86e41	-0.08224154
159	0xbd6f1971	-0.058373872
160	0xbd594565	-0.053044695
161	0x3d70032d	0.05859678
162	0x3e0575c2	0.13033202
163	0x3cb5aa03	0.022175794
164	0x3da98d89	0.08278949
165	0x3dd8b634	0.105816275
166	0x3e018cb3	0.12651329
167	0xbccb525b	-0.024819544
168	0x3cf09c6b	0.02937146
169	0x3e0229d7	0.12711273
170	0x3dfead09	0.124353476
171	0x3d86b518	0.0657751
172	0x3dcdfd01	0.10058022
173	0xbc7fe63a	-0.015618855
174	0x3dfc7754	0.123274475
175	0x3c6e84c2	0.014558019
176	0x3cf3e8a6	0.029774021
177	0xbd49f05d	-0.049301494
178	0xbd56238b	-0.05227999
179	0x3df5b89d	0.11998103
180	0x3cd6c140	0.026215196
181	0xbd01b7a2	-0.031669267
182	0xbd02c71a	-0.03192816
183	0x3dc00650	0.09376204
184	0x3cebe260	0.028794467
185	0xbd41f613	-0.047353815
186	0xbbb6be2e	-0.0055768704
187	0x3c886066	0.016647529
188	0xbda4fa92	-0.08055605
189	0x3cef3dd1	0.029204281
190	0xbc3d8dc9	-0.011569449
191	0xbd8d62a0	-0.06903577
192	0xbda42c3b	-0.08016249
193	0x3c5ab2d5	0.013348301
194	0x3dd10361	0.102057226
195	0x3d87a1bf	0.066226475
196	0x3ce39cd7	0.027784748
197	0x3d916bba	0.07100625
198	0x3db2990e	0.08720599
199	0xbca75f96	-0.020431321
200	0x3b80f99d	0.003936006
201	0xbd82ba4c	-0.063831896
202	0xbcf2c276	-0.029633742
203	0x3d90b089	0.070649214
204	0xbdfdbf2a	-0.12389977
205	0xbddd7b52	-0.10814537
206	0x3c9ee042	0.019394044
207	0xbdd8573e	-0.10563515
208	0xbde86005	-0.11346439
209	0xbb8a182b	-0.004214307
210	0xbe01045f	-0.12599324
211	0x3c72f042	0.01482779
212	0xbca5e802	-0.020252232
213	0xbceef481	-0.029169323
214	0x3d4c9ecc	0.049956128
215	0x3c05b822	0.008161576
216	0xbce14aea	-0.027501542
217	0xbce42ee9	-0.0278544
218	0x3d22eda8	0.039777428
219	0xbc85ece9	-0.01634832
220	0xbde5d4be	-0.11222218
221	0x3d9b88a5	0.07594422
222	0xbdcb564c	-0.09928569
223	0x3da3db27	0.08000784
224	0x3c72c5f0	0.0148177
225	0x3dc84c94	0.09780231
226	0xbd1e778b	-0.038688224
227	0xbd6e6271	-0.05819935
228	0xbdd03e4c	-0.10168132
229	0x3d9a91dd	0.075473525
230	0xbd8f0df2	-0.06985082
231	0x3d941e57	0.07232349
232	0xbd5c2143	-0.05374266
233	0x3d171905	0.036889095
234	0x3d92312e	0.071382865
235	0x3d91f628	0.07127029
236	0xbd67b2ed	-0.05656712
237	0x3dac72ae	0.08420311
238	0xbd52b842	-0.051445253
239	0x3dd38363	0.103277944
240	0xbddeda53	-0.10881486
241	0x3dca8250	0.098881364
242	0x3c01c340	0.007920086
243	0x3def42da	0.11682673
244	0x3cdbf1b9	0.02684866
245	0x3d337bbb	0.04381917
246	0xbd8316d5	-0.06400839
247	0x3d6c6b03	0.05771924
248	0x3d8d5279	0.06900496
249	0xbd73b1c1	-0.05949569
250	0xbd74ea4d	-0.05979376
251	0xbdda6800	-0.10664368
252	0x3d91faf3	0.07127943
253	0xbd38537d	-0.045001496
254	0x3d5c3680	0.053762913
255	0x3dd3de61	0.1034515

bias f4 [32]
0	0xbc0aba85	-0.008467321
1	0x3de2c808	0.11073309
2	0x3de6d84f	0.11271726
3	0xbda08071	-0.07836998
4	0xbd7d3f9b	-0.061828237
5	0x3d973940	0.073839664
6	0x3b1168f5	0.0022187803
7	0x3ca2c728	0.019870356
8	0xbd8b2da3	-0.06795814
9	0x3e016b57	0.12638603
10	0x3e079889	0.13241781
11	0xbd98e3a1	-0.07465292
12	0xbdbfe51d	-0.09369872
13	0x3dc57b7d	0.09642694
14	0xbd7c28a4	-0.061562195
15	0xbdb53e4a	-0.08849771
16	0xbd02d327	-0.03193965
17	0xbcb39415	-0.021921197
18	0x3d869f8d	0.06573401
19	0x3c9b4751	0.018954905
20	0xbd85b124	-0.065279275
21	0xbd91751b	-0.07102414
22	0xbd887410	-0.06662762
23	0xbb7a58aa	-0.003819982
24	0x3da5a00b	0.080871664
25	0xbdb9c166	-0.09070091
26	0xbd0ab956	-0.033868156
27	0xbdbe2e55	-0.09286181
28	0xbd7fb920	-0.06243241
29	0xbd82e59a	-0.06391449
30	0xbcb6a161	-0.022293748
31	0x3df04806	0.117324874

weight f4 [32, 32, 5, 5]
0	0xbcb4c7df	-0.022067962
1	0x3c8edbba	0.017438758
2	0x3bf9607d	0.0076103793
3	0xbcabe31b	-0.020982316
4	0x3c35d558	0.011098228
5	0xbb995c6c	-0.004680207
6	0xbc6b02ad	-0.0143439
7	0x3cceb630	0.025233358
8	0xbae51be2	-0.0017479623
9	0x3d084550	0.033269227
10	0xbb0ad1d2	-0.0021182192
11	0x3c8e0c06	0.017339718
12	0x3d03a8a6	0.032143258
13	0xba58149a	-0.0008242816
14	0xbc5b29e9	-0.013376691
15	0xbbfd4421	-0.007729069
16	0x3ce6f6df	0.02819389
17	0x3cf216d6	0.029551905
18	0x3ce6dbb0	0.028180927
19	0x3c22479e	0.00990477
20	0xbba9698f	-0.0051700543
21	0x3c0b9bee	0.008521063
22	0x3c711203	0.014713767
23	0x3c5e1aaa	0.013556162
24	0x3ce1e634	0.02757559
25	0xbc5cc0ee	-0.013473732
26	0xbcc95ec3	-0.024581319
27	0xbbe9350e	-0.0071169203
28	0x3c8a4197	0.016876979
29	0x3cb1ecda	0.021719385
30	0x3b996dd9	0.0046822843
31	0x3c5675c4	0.013089601
32	0xbcac75a7	-0.021052195
33	0xbcd1396b	-0.025540074
34	0x3cc78640	0.024356008
35	0x3a2e049b	0.00066382595
36	0x3905769e	0.00012728057
37	0x3af67c98	0.0018805442
38	0x3ca59f4a	0.020217557
39	0x3ca13dee	0.01968285
40	0xbd1065b2	-0.035253234
41	0xbcd7064b	-0.026248118
42	0xbbeb4657	-0.007180016
43	0xbd07e7b6	-0.03317996
44	0xbc141db2	-0.009040283
45	0xbc43458d	-0.011918438
46	0xbd02d958	-0.031945556
47	0x3c135f08	0.008994825
48	0x3c0a4609	0.008439549
49	0x3cfc89d9	0.03082745
50	0x3c85985e	0.016308006
51	0xbc2260f8	-0.009910814
52	0xbcc22ec6	-0.023703944
53	0xbc0545df	-0.008134334
54	0xbd103867	-0.03521004
55	0x3d06bcab	0.03289477
56	0xbcf6aae6	-0.030110788
57	0x3cbaf04c	0.02281966
58	0x3cfcbc75	0.030851582
59	0xbc9fc6c9	-0.019503968
60	0xbcd63d85	-0.026152382
61	0x3c9e7466	0.019342612
62	0xbc7ceb5e	-0.015436975
63	0xbc46e4b4	-0.012139488
64	0xbccb3579	-0.024805771
65	0x3b6cacd8	0.0036113765
66	0xbc9384ac	-0.018007599
67	0xbcd3461f	-0.025790272
68	0x3cbc2f27	0.022971703
69	0xbd04c08d	-0.032410193
70	0xbc436f3c	-0.011928376
71	0x3c88d80f	0.016704587
72	0xba9eab73	-0.0012105539
73	0xbd000ea8	-0.031263977
74	0x3c925f27	0.017867638
75	0xbce9e778	-0.028552756
76	0x3cf1792c	0.029476725
77	0x3d022205	0.031770725
78	0x3cc5daad	0.024152124
79	0x3b52c759	0.0032162277
80	0x3c48d84c	0.0122586
81	0x3cca5664	0.024699397
82	0x3b60a1ae	0.0034276056
83	0xbbe6fa9b	-0.0070489175
84	0xbcaebee9	-0.021331267
85	0xbcdba33e	-0.026811238
86	0x3c387322	0.011257919
87	0x3c0ca972	0.008585321
88	0x3d00010b	0.031250995
89	0x3cc664aa	0.024217922
90	0xbc187fbf	-0.009307801
91	0xbc02b0ac	-0.007976692
92	0xbd0b5616	-0.034017645
93	0xbb83ba55	-0.0040200152
94	0xbc48859b	-0.012238885
95	0xbc008ace	-0.007845594
96	0x3c041edb	0.008063997
97	0x3c94774d	0.018123293
98	0x3ce5009c	0.027954392
99	0x3cb19ca1	0.021681132
100	0x3cf75819	0.030193375
101	0x3ce2ea22	0.027699534
102	0xbcb6403e	-0.02224743
103	0x3cb23dba	0.02175795
104	0xbc2cd9cd	-0.010549975
105	0x3c61bcb1	0.013777898
106	0x3c3331ae	0.0109371375
107	0x3cb2f204	0.021843918
108	0xbc1143bf	-0.00886625
109	0x3c28cb92	0.010302441
110	0xbc41dbee	-0.0118322205
111	0x3c8d7113	0.017265832
112	0xbbfff1b2	-0.0078107947
113	0xbc402f61	-0.011730046
114	0x3cb8bcc8	0.022550955
115	0xba9b9782	-0.0011870714
116	0xbbc1b0f8	-0.005910989
117	0xbc1fdae6	-0.009756779
118	0xbcf6ea37	-0.03014098
119	0x3b05e361	0.0020429718
120	0xbcc3ce82	-0.023902182
121	0x3b3153b7	0.0027057955
122	0x3c327878	0.01089298
123	0xbcbf976d	-0.023387635
124	0x3c2fe6d3	0.010736185
125	0x3d121c54	0.035671547
126	0xbcf86350	-0.030320793
127	0x3c5eac50	0.013590887
128	0xbc190a74	-0.009340871
129	0x3be9daba	0.00713667
130	0x3cb64a28	0.022252157
131	0xbbfdde22	-0.0077474276
132	0x3b62195a	0.0034499974
133	0x3bd8d285	0.0066168928
134	0xb9796962	-0.00023785749
135	0x3c4029e5	0.011728738
136	0xbc8fac62	-0.017538253
137	0x3c524adf	0.0128352335
138	0xbc9ed485	-0.019388447
139	0xbcb46293	-0.02201966
140	0x3d1e5138	0.038651675
141	0xbc110a3e	-0.00885254
142	0x3b825e4b	0.0039785258
143	0xbcdc0f94	-0.026862897
144	0x3c915328	0.017739847
145	0x3d0c5ba2	0.034267075
146	0x3ca1f2fd	0.019769186
147	0x3cb64497	0.022249503
148	0xbb574ff9	-0.0032854064
149	0x3bd6adf5	0.006551499
150	0xbc340673	-0.010987866
151	0x3c693317	0.014233372
152	0x3bdcb582	0.0067355046
153	0x3d1b37a7	0.03789487
154	0xbc80e20b	-0.015732786
155	0xbc6671e0	-0.014065236
156	0x3d0c73c8	0.034290105
157	0x3c802812	0.015644107
158	0x3cbc9263	0.023019021
159	0x3c4082d2	0.01174994
160	0xbcc8fbea	-0.024534184
161	0x3d1e5056	0.038650833
162	0xbc4363ba	-0.011925632
163	0xbcb0a3c6	-0.021562468
164	0x3c9ba8f7	0.019001467
165	0xbc0fc4f0	-0.008774981
166	0x3c581584	0.0131887235
167	0x3a4ebc67	0.00078863505
168	0x3d131a36	0.03591367
169	0x3c8f9e0a	0.017531414
170	0x3cf6b862	0.030117217
171	0xbcaa56ab	-0.02079328
172	0x3c7383c5	0.014862959
173	0xbcbd0a7e	-0.023076292
174	0x3bf9a8fc	0.0076190215
175	0xbc40a011	-0.011756913
176	0xbbc1005f	-0.005889937
177	0xbc872f1b	-0.016501954
178	0x3c48abae	0.012247963
179	0x3c7302eb	0.014832239
180	0x3cdaaea9	0.026694613
181	0xbc160e9d	-0.0091587575
182	0x3cfe7580	0.031061888
183	0x3d13373e	0.035941355
184	0x3cda5f93	0.026656901
185	0xbc438541	-0.011933626
186	0x3b89dd27	0.0042072716
187	0x3ca98f74	0.020698287
188	0xbc6e0c6c	-0.014529329
189	0x3c34e60e	0.011041177
190	0x3cab5629	0.020915108
191	0xbcd85cea	-0.026411492
192	0xbb92b68e	-0.0044773286
193	0xbcb1405d	-0.021637136
194	0xbcc6ae14	-0.024252929
195	0xbc47aade	-0.012186734
196	0x3c0830ef	0.008312448
197	0xbcc5b8d1	-0.024135979
198	0xbc073e59	-0.008254611
199	0xbceb7de5	-0.028746555
200	0x3bcbd14e	0.0062200194
201	0xbbd20c4c	-0.0064101573
202	0x3c5f42b7	0.013626746
203	0x3b1464b6	0.0022643036
204	0x3c9f470f	0.019443063
205	0xbc8e7470	-0.017389506
206	0xbc2c23cc	-0.0105065815
207	0xbc4b24ad	-0.012398881
208	0x3ccbd96a	0.024883945
209	0xbc5bea30	-0.013422534
210	0x3d0fea93	0.035135817
211	0x3cd37ee9	0.025817351
212	0x3bc9bbb5	0.0061564096
213	0xbcaa208d	-0.020767475
214	0x3d0ab4f2	0.03386397
215	0xba88a098	-0.0010423837
216	0x3d10e39a	0.035373308
217	0x3c9dd421	0.01926619
218	0x3c831f6f	0.0160062
219	0x3bdf934a	0.006822978
220	0xbb472b3c	-0.003039076
221	0xbd0732f4	-0.033007577
222	0x3c20670c	0.009790193
223	0x3c0deb94	0.008662123
224	0xbcdcd93f	-0.02695906
225	0x3c0d6d4d	0.008632016
226	0xbc916db8	-0.017752513
227	0xbbafe2e6	-0.0053676246
228	0xbc4d02be	-0.012512861
229	0xbcce3ad5	-0.025174538
230	0xbc3a9e4c	-0.01139028
231	0xbcf912f8	-0.030404553
232	0xbbb76935	-0.0055972585
233	0xbcf00c81	-0.029302837
234	0xbcff6c46	-0.031179558
235	0xbbcbe03f	-0.0062218006
236	0xbce8960b	-0.028391859
237	0xbd114d1f	-0.03547394
238	0x3c611b95	0.013739486
239	0xbceb0054	-0.02868668
240	0x3ce5f83a	0.028072465
241	0x3b9718fe	0.0046111336
242	0xbbddc0b3	-0.0067673563
243	0x3cc58755	0.024112383
244	0xbbe86574	-0.0070921723
245	0xbc213a65	-0.0098405825
246	0xbcab3d24	-0.020903178
247	0xbc87dbea	-0.016584355
248	0x3cd37175	0.025810936
249	0xbd016a51	-0.03159553
250	0x3cddecf2	0.027090523
251	0x3b78dcea	0.0037973472
252	0xbb115853	-0.002217789
253	0xbcc68c20	-0.024236739
254	0x3d00dec3	0.031462442
255	0x3ad01a20	0.0015876926

bias f4 [32]
0	0xbc58b7fb	-0.013227458
1	0xbcbd2248	-0.023087636
2	0x3bbec2eb	0.005821576
3	0xbb01dfbe	-0.0019817199
4	0xbc9c95c8	-0.01911439
5	0x3d1a0340	0.037600756
6	0x3c1ff136	0.009762099
7	0xbc0939f2	-0.008375632
8	0x3c55c155	0.013046582
9	0xbbab2dd7	-0.0052239704
10	0xbc0552b2	-0.008137392
11	0x3c288377	0.01028525
12	0xbc675788	-0.01411999
13	0x3c2a4d7a	0.010394448
14	0xbce64b72	-0.028112147
15	0x3bec8fc9	0.007219289
16	0x3c1c0e92	0.009524958
17	0xbc85d66f	-0.016337601
18	0x3a2b769a	0.00065408053
19	0xbaee35a1	-0.0018173942
20	0x3b91cc70	0.0044494197
21	0xbcede1c8	-0.029038325
22	0x3c9b9e19	0.018996285
23	0x3cd49618	0.025950477
24	0x3c7c7edf	0.015411108
25	0x3d026259	0.031832073
26	0x3c54af76	0.012981286
27	0xbcc74eeb	-0.024329623
28	0x3cf02b79	0.029317604
29	0x3bb6ef9c	0.005582763
30	0xbd08acd9	-0.033367965
31	0xbcf725d1	-0.0301694

weight f4 [64, 32, 5, 5]
0	0xbc6b108c	-0.014347207
1	0xbd02dc68	-0.031948477
2	0xbc9f53f4	-0.019449212
3	0xbd0d1453	-0.03444321
4	0x3c08d3ac	0.008351248
5	0x3d071116	0.03297528
6	0xbb2514c1	-0.0025189372
7	0xbbd814fc	-0.0065942984
8	0xbc6c7d61	-0.01443419
9	0xbcadfafa	-0.021237839
10	0xbd12c7da	-0.035835125
11	0x3cdd3f20	0.02700764
12	0xbce226a8	-0.027606323
13	0x3ba6c7f1	0.005089753
14	0xbce493b3	-0.02790246
15	0x3ce75611	0.028239282
16	0xbc63ef20	-0.013911992
17	0x3c5d6223	0.013512167
18	0x3b6cc9cc	0.0036131022
19	0x3d11373c	0.035453066
20	0xbb2d8150	-0.0026474781
21	0x3c4abc14	0.012373943
22	0xbc5d1750	-0.013494328
23	0xbc25e6fb	-0.010125871
24	0x3d21118f	0.039323386
25	0x3d186dad	0.03721397
26	0x3c7603d2	0.015015559
27	0xbce45000	-0.027870178
28	0x3a0af692	0.0005301024
29	0xbcf34680	-0.029696703
30	0x3d0f8ded	0.03504746
31	0xb83982d3	-4.4229277e-05
32	0x3cda8b58	0.026677772
33	0xbb9f7433	-0.004866147
34	0x3aa2b635	0.0012413921
35	0x3bfbb13b	0.0076810396
36	0x3ccdddc8	0.025130168
37	0x3ce01fae	0.027358856
38	0x3d1bdebf	0.038054224
39	0x3d0b7bd4	0.03405364
40	0xbbb7524e	-0.0055945283
41	0xbbc79e7b	-0.0060918904
42	0xbc11ce5c	-0.008899298
43	0xbc9c433c	-0.019075029
44	0xbc9f25f1	-0.019427272
45	0x3980ef97	0.0002459257
46	0x3c705779	0.014669293
47	0x3d11f675	0.03563543
48	0xbc9cca4f	-0.019139437
49	0x3c7dd0f0	0.015491709
50	0x3c7d151d	0.015446928
51	0xbc6408a3	-0.013918075
52	0xbc735f01	-0.014854194
53	0xbcf8037a	-0.030275095
54	0x3cd6bd00	0.02621317
55	0x3c540b61	0.012942166
56	0x3ade74bd	0.0016972047
57	0x3d117283	0.035509598
58	0x3aaab96a	0.0013025228
59	0xbcf990fb	-0.03046464
60	0x3cc86212	0.024460826
61	0x3c389f08	0.011268385
62	0xbc5faac1	-0.013651551
63	0x3ce6fbdc	0.028196268
64	0x3d07aa66	0.03312149
65	0xbc0d264c	-0.008615088
66	0xbbf3c184	-0.0074388403
67	0xbbe879e2	-0.0070946077
68	0xbcfaaa9f	-0.030598937
69	0x3ca133c6	0.019678008
70	0xbce40f43	-0.027839309
71	0x3b81675d	0.0039490894
72	0x3c94c879	0.018161999
73	0xbd02a09d	-0.031891454
74	0x3a9ced17	0.0011972514
75	0xbb98828c	-0.0046542343
76	0x3c1db840	0.009626448
77	0xbc07de0d	-0.008292687
78	0xbaa02bcb	-0.0012220083
79	0x3c885880	0.016643763
80	0x3cd6f190	0.026238233
81	0xbb480137	-0.0030518302
82	0x3bf5fe26	0.0075071035
83	0xbce561b3	-0.028000688
84	0xbd069542	-0.032857187
85	0x3c9033db	0.017602852
86	0x39f76cab	0.00047192475
87	0xbd0ecb48	-0.034861833
88	0xbbe841c2	-0.007087917
89	0xbc3c7244	-0.011501852
90	0x3cee8d23	0.029120034
91	0x3cc48a26	0.023991656
92	0x3cf87d94	0.030333318
93	0x3b942825	0.004521387
94	0xbc4bc782	-0.012437703
95	0xbd13c2ce	-0.036074452
96	0xbd0fad98	-0.03507766
97	0x3c0fca56	0.008776268
98	0xbd0a3209	-0.033739123
99	0xbc90dcba	-0.017683376
100	0xbca73a72	-0.020413611
101	0xbc37d8a6	-0.011221087
102	0xbc80168a	-0.015635747
103	0xbc9d1633	-0.019175624
104	0xbcb9b362	-0.022668544
105	0x3b3fc49e	0.002926148
106	0xbd15e47f	-0.036594864
107	0xbc23af2e	-0.009990497
108	0x3b2df02c	0.0026540859
109	0xbc650266	-0.013977623
110	0xbc403e88	-0.011733659
111	0x3c226418	0.0099115595
112	0xbc1f3ec7	-0.009719557
113	0x3c2df32a	0.010617057
114	0xbcbea7b5	-0.023273328
115	0xbc5fd193	-0.013660806
116	0xbb913c24	-0.004432218
117	0xbc05e4f6	-0.008172264
118	0x3cc74acd	0.02432766
119	0xbc4fb09c	-0.012676384
120	0x3be56cde	0.0070015034
121	0xbcdec262	-0.027192298
122	0xbcd084a3	-0.025453871
123	0x3c61d05e	0.013782589
124	0x3d02c7fc	0.031929
125	0x3b839c81	0.0040164595
126	0x3c866a09	0.016407983
127	0xbd1309c0	-0.03589797
128	0xbd084d37	-0.033276763
129	0x3c7801d3	0.015137154
130	0x3b949362	0.004534171
131	0xbbe7eb6f	-0.0070776264
132	0xbcc6c886	-0.024265539
133	0x3ca66a94	0.020314492
134	0xbd0de449	-0.034641538
135	0xbd068a49	-0.032846723
136	0x3bb8cd22	0.005639688
137	0xbc06f154	-0.008236248
138	0x3cdef1eb	0.027214965
139	0x3c8a74bd	0.016901368
140	0xbd023391	-0.03178746
141	0xbd01f7d5	-0.03173049
142	0x3c791f3b	0.0152052
143	0xbc49af6b	-0.012309889
144	0xbcc8d187	-0.024513973
145	0xbd02539b	-0.031818014
146	0x3d041b55	0.03225263
147	0x3be9b444	0.007132085
148	0x3d0dfd61	0.03466547
149	0x3ce5ce8e	0.028052595
150	0x3d081d57	0.033231106
151	0x3c02ac0a	0.007975588
152	0x3cc2f553	0.02379862
153	0x3bdb37f7	0.006690021
154	0x3c18ddd1	0.009330229
155	0x3b022d8b	0.0019863572
156	0xbd12234b	-0.03567819
157	0x3ceee41c	0.029161505
158	0x3d003992	0.031304903
159	0xbceff3d3	-0.02929107
160	0xbcb1c5a3	-0.021700686
161	0x3cb40e96	0.021979611
162	0x3cfcd051	0.030861052
163	0xba83f387	-0.0010067084
164	0xbd0059db	-0.031335693
165	0xbd17e20d	-0.037080813
166	0xbca9160b	-0.020640394
167	0xbc9585be	-0.01825225
168	0xbcb335cb	-0.021876236
169	0x3d0c76ec	0.0342931
170	0xbc1f67c4	-0.0097293295
171	0xbb3d0756	-0.0028843484
172	0x3be0b18f	0.006857104
173	0xbc2e3f3a	-0.010635192
174	0xbc5ae5f1	-0.013360486
175	0xbcf604c7	-0.030031575
176	0x3b946950	0.004529156
177	0xbc7006cd	-0.014650059
178	0xbc4dfeff	-0.012573003
179	0xbcb7c75a	-0.022433925
180	0xbce55409	-0.027994173
181	0xbca60706	-0.02026702
182	0xbc2f7b19	-0.010710501
183	0xbc49d791	-0.012319461
184	0xbc5222cc	-0.012825679
185	0x3c6986d1	0.014253334
186	0xbc36a063	-0.011146638
187	0xbd061752	-0.032737084
188	0x3ce52548	0.027971879
189	0xbc6342cc	-0.013870906
190	0x3a462398	0.00075584045
191	0x3ccbe312	0.024888549
192	0xbc265769	-0.010152676
193	0xbcc3ea25	-0.02391536
194	0x3ce79a8a	0.028271932
195	0xbcde4b52	-0.027135525
196	0xbcfd3154	-0.03090731
197	0xbac13bee	-0.0014742592
198	0xbc704ebf	-0.014667212
199	0x3cab163e	0.02088463
200	0x3cc9a49b	0.024614623
201	0xbb0927c4	-0.0020928243
202	0x3c900fcc	0.017585658
203	0x3c7966f2	0.015222298
204	0xbcaee967	-0.02135153
205	0x3c0c5bc4	0.0085668005
206	0x3bf5d093	0.0075016706
207	0xbc028698	-0.00796666
208	0x3c9eb7d4	0.019374765
209	0xbc873f7d	-0.016509766
210	0x3cfa7ce8	0.030577138
211	0xbc033265	-0.00800762
212	0xbc0fbd65	-0.0087731825
213	0xbce43624	-0.027857848
214	0x3cb79b63	0.022412961
215	0xbcba1152	-0.022713337
216	0x3c8d7fad	0.017272795
217	0x3cc232a0	0.02370578
218	0xbcba1d48	-0.02271904
219	0xbcd438d1	-0.025905998
220	0xbc8888cc	-0.016666792
221	0xbcfd5095	-0.030922214
222	0x3cd6c5ba	0.02621733
223	0x3cbd9410	0.02314189
224	0x3c057ac8	0.008146949
225	0x3c18dba7	0.009329713
226	0xbcb7f9f7	-0.02245806
227	0xbab0a5a3	-0.0013477098
228	0xbc823397	-0.01589374
229	0xbcb6f797	-0.022334857
230	0xbc445dbf	-0.011985241
231	0x3bdd1556	0.006746928
232	0x3b3fcbc2	0.0029265736
233	0xbc5c2230	-0.013435885
234	0xbc823f0e	-0.015899207
235	0x3bf63081	0.0075131063
236	0xbccce483	-0.025011307
237	0x3c6648bb	0.014055426
238	0x3c6edfdf	0.014579742
239	0xbb148d4e	-0.0022667232
240	0x3ab90aec	0.0014117635
241	0xbce7a4fa	-0.02827691
242	0xbd14d4a0	-0.036335588
243	0xbc98d138	-0.01865445
244	0x3bb10d58	0.005403202
245	0xbcc3de1e	-0.023909625
246	0xbc782588	-0.015145667
247	0x3b9b2396	0.004734467
248	0x3c0fc5b9	0.008775168
249	0x3ca05234	0.019570448
250	0xbbf93e21	-0.0076062833
251	0xbd00f2ec	-0.03148167
252	0xbcbf802d	-0.023376549
253	0xbcc79bd8	-0.024366304
254	0x3cd54c87	0.026037468
255	0xbb1ce578	-0.0023940485

bias f4 [64]
0	0xbc4359b5	-0.011923243
1	0x3ced49ee	0.028965916
2	0xbca965dc	-0.020678453
3	0x3cad8ce4	0.021185346
4	0x3b60bd5b	0.0034292552
5	0x3d01563c	0.03157638
6	0xbb9a1235	-0.0047018775
7	0xbd1bead9	-0.038065765
8	0x3c93f3e9	0.018060641
9	0xbcca04e0	-0.024660528
10	0xbc306c06	-0.010767942
11	0xbca3cc48	-0.01999487
12	0x3c52e341	0.012871564
13	0x3cb761d8	0.022385523
14	0x3ba5a951	0.0050555845
15	0x3b54292d	0.0032373175
16	0x3b578149	0.0032883456
17	0xbcfca4dd	-0.030840332
18	0xbd00c0b5	-0.03143378
19	0xbc0c8ab6	-0.008577993
20	0xba28a6ca	-0.0006433545
21	0xbcd6ccda	-0.026220728
22	0x3cba7a11	0.022763284
23	0xbd02bd96	-0.031919084
24	0x3b32f3ea	0.0027306029
25	0xbce726c3	-0.028216725
26	0x3cba859a	0.022768784
27	0x3bbd44ea	0.0057760375
28	0xbb331c03	-0.0027329929
29	0xbc98f3c2	-0.01867092
30	0xbc79ad13	-0.015239018
31	0xbc08ccc3	-0.0083496
32	0x3c2b36bf	0.010450064
33	0xba3572e7	-0.0006921724
34	0x3ceb85db	0.02875035
35	0xbc02d0cc	-0.007984351
36	0xbbe796dc	-0.0070675444
37	0x3a16a7ba	0.0005747039
38	0x3cae56d4	0.021281637
39	0x3d326e0b	0.043561976
40	0xbcf438c1	-0.029812219
41	0xbb8365c9	-0.0040099365
42	0x3bc15eb6	0.005901183
43	0xbc464328	-0.012100972
44	0x3d181380	0.03712797
45	0x3d21c2b7	0.039492335
46	0x3ce3ae13	0.027792966
47	0xbb781def	-0.0037859639
48	0x3be192e6	0.0068839667
49	0x3d04c387	0.032413032
50	0x3c53b73a	0.012922103
51	0xbd1e93e5	-0.038715262
52	0xbca1670c	-0.019702457
53	0xbcc20c90	-0.02368763
54	0xbc23b8e8	-0.009992816
55	0xbc5c3b91	-0.013441936
56	0xbd16e7d5	-0.036842186
57	0x3d13fb92	0.036128588
58	0x3cc5b4f2	0.024134133
59	0xbca6dfe9	-0.02037044
60	0xbb10393c	-0.002200677
61	0xbd08e168	-0.03341809
62	0x3ce21e95	0.027602473
63	0x3c9196d1	0.01777211

weight f4 [64, 1024]
0	0xbb843d7d	-0.0040356503
1	0xbce7769b	-0.028254798
2	0x3c2a148e	0.010380877
3	0x3caf9f70	0.02143833
4	0x3cdd7bab	0.027036509
5	0xba3d721d	-0.0007226782
6	0x3c4e59ba	0.012594635
7	0xbc1b2a4b	-0.009470533
8	0x3ccf99ea	0.025341947
9	0x3caf8c85	0.02142931
10	0x3cc37301	0.02385855
11	0x3c6fb2f1	0.014630065
12	0xbce0f7d2	-0.02746192
13	0xbcea0473	-0.028566575
14	0xbc36ac1b	-0.011149432
15	0x3b90d71d	0.0044201748
16	0xbcdcacd0	-0.026937872
17	0xbb8baa79	-0.0042622653
18	0xbc9131e4	-0.017723985
19	0x3cdc110f	0.026863603
20	0x3bf75d36	0.0075489534
21	0xbc892bd0	-0.016744524
22	0xbbb3c7c9	-0.0054864627
23	0x3ca64d72	0.0203006
24	0x3d0254ef	0.03181928
25	0x3c82de17	0.015975041
26	0xbcee32c9	-0.02907695
27	0xbceb383b	-0.028713336
28	0xbc228de1	-0.009921522
29	0xbc61450d	-0.013749373
30	0x3cd9f84f	0.02660766
31	0x3cfb8308	0.030702129
32	0x3c37838d	0.011200798
33	0xbd09b137	-0.03361627
34	0x3bc8b539	0.006125119
35	0x3bfb7de2	0.0076749185
36	0xbc6c338b	-0.014416586
37	0x3b97fc7c	0.004638253
38	0xbc89ff6c	-0.016845427
39	0xbcd8dcdf	-0.026472507
40	0x3ca40073	0.020019745
41	0x3ce0a4b8	0.027422294
42	0x3cfca532	0.03084049
43	0x3cfffcc6	0.031248461
44	0xbc943da7	-0.018095804
45	0xb8b01cf9	-8.3977306e-05
46	0xbcb22fee	-0.02175137
47	0x3d010068	0.031494528
48	0xbd04b009	-0.032394443
49	0x3bea17e2	0.0071439603
50	0x3c440013	0.011962908
51	0xbd05338b	-0.03251986
52	0x3ce07f68	0.027404502
53	0x3c9c669d	0.019091899
54	0xbbc81062	-0.0061054686
55	0x3cc28290	0.023743898
56	0xbcc183b4	-0.023622371
57	0x3d0a866a	0.033819593
58	0x3b8282e1	0.003982887
59	0x3c48dcfd	0.012259719
60	0x3c9fcf0e	0.019507911
61	0xbb86725f	-0.0041029896
62	0xbc9dfddd	-0.01928609
63	0x3c5882f3	0.0132148145
64	0xbb9c16a4	-0.004763441
65	0xbbfecf73	-0.0077761947
66	0x3ca129b4	0.019673206
67	0x3c30a55e	0.010781614
68	0x3cf0105a	0.029304672
69	0x3bf61517	0.0075098383
70	0x3baac350	0.0052112713
71	0xbcecaf02	-0.028892044
72	0xbcff2514	-0.03114561
73	0xbb756527	-0.0037444325
74	0xbb1b8fb9	-0.0023736788
75	0xbc1800f0	-0.009277567
76	0x3ceed59b	0.02915459
77	0xbc007a83	-0.007841709
78	0x3b722c20	0.003695257
79	0x3c9bbb8e	0.019010331
80	0xbb7f21a7	-0.003892997
81	0x3d099822	0.03359235
82	0x3b84e68f	0.004055805
83	0xbc8268c0	-0.01591909
84	0xbc90810d	-0.017639661
85	0x3ceae562	0.028673831
86	0xbcac0a8c	-0.021001123
87	0x3c8a63bb	0.016893258
88	0xbc93b5a2	-0.018030945
89	0xba8f8ad8	-0.0010951413
90	0xbc3d7779	-0.011564129
91	0xbc9ad64f	-0.018901018
92	0xbbd4d813	-0.0064954846
93	0xbb34d129	-0.002759049
94	0x3c9c5c54	0.019086994
95	0xbcb3ac10	-0.021932632
96	0x3cfacd16	0.03061537
97	0xbc83e938	-0.016102418
98	0x3c1c278b	0.009530912
99	0xba95115e	-0.0011372974
100	0xbb06bf2c	-0.0020560725
101	0xbbd5fdaa	-0.0065304833
102	0xbbf7eb18	-0.007565867
103	0x3ca138b8	0.019680366
104	0xbca57c21	-0.02020079
105	0xbc4652eb	-0.01210473
106	0x3ce3c038	0.027801618
107	0xbcb19676	-0.02167819
108	0x3cc672ef	0.024224726
109	0xbb170855	-0.0023045738
110	0x3c44d7cf	0.012014343
111	0x3c7a816f	0.015289648
112	0x3c8aef0c	0.01695969
113	0x3c84e087	0.016220344
114	0xbaabab3b	-0.0013097295
115	0x3cd776f0	0.026301831
116	0x3cde3621	0.02712542
117	0x39ece81b	0.0004518636
118	0xbc8680d7	-0.016418857
119	0x3c8742b7	0.016511304
120	0x3ce0f1e6	0.027459096
121	0xbc45c1b9	-0.012070113
122	0xbbdd3d9f	-0.0067517306
123	0xbcbde77a	-0.023181666
124	0xbce3e671	-0.027819844
125	0xbcb46a34	-0.022023298
126	0xbc68c958	-0.01420816
127	0xbbae4e34	-0.005319381
128	0x3c6ffeea	0.014648179
129	0x3c443af7	0.011976949
130	0xbcd71c54	-0.026258625
131	0x3c998d61	0.018744173
132	0xbcd8201e	-0.026382502
133	0xbbf17bd9	-0.0073695
134	0xbc4a61ed	-0.012352449
135	0x3cf7d5be	0.030253287
136	0x3b5b7b6d	0.0033490316
137	0xbc61dbb3	-0.0137852905
138	0xbcba09a0	-0.022709668
139	0x3c381c1e	0.011237172
140	0xbca4162e	-0.020030107
141	0xbca0f871	-0.019649716
142	0xbcdb5fc0	-0.026779056
143	0xbc6204bb	-0.013795073
144	0xbc9853a6	-0.018594574
145	0x3afe5cdc	0.0019406336
146	0xbcf64a3b	-0.030064693
147	0x3ca20c50	0.019781262
148	0x3a55d4e6	0.00081570295
149	0xbc233f8c	-0.009963881
150	0xbc696ea2	-0.014247568
151	0xbbc6bae6	-0.0060647605
152	0x3c0bbc6f	0.008528813
153	0x3cc1c753	0.023654616
154	0x3a0c96c7	0.0005363044
155	0x3c8f934d	0.017526293
156	0xbcdc3dc2	-0.026884917
157	0xbcb8750a	-0.022516746
158	0x3cc92e63	0.024558252
159	0xbca1d5ed	-0.019755328
160	0x3ce3178e	0.027721193
161	0x3c745ed9	0.014915192
162	0x3bc70546	0.0060736267
163	0x39de6da2	0.00042424822
164	0xbc42a9c0	-0.011881292
165	0xbbfe74f4	-0.0077654067
166	0x3bce712a	0.0063001113
167	0xbc7d954e	-0.015477492
168	0x3c02ca71	0.007982836
169	0x3ce9534e	0.028482106
170	0x3b115dbe	0.002218112
171	0x39cfe548	0.00039652945
172	0xbc0cb7d6	-0.008588752
173	0xbacc560a	-0.0015589606
174	0x3cdfe687	0.027331604
175	0xb82b52f8	-4.0846848e-05
176	0x3ca17ae7	0.019711925
177	0x3c0ebd66	0.008712148
178	0x3c512bfa	0.0127668325
179	0x3c300f09	0.010745772
180	0x3b14e3d4	0.0022718804
181	0x3cfe9c03	0.031080252
182	0x3c8404ee	0.016115632
183	0xbc27626b	-0.010216336
184	0xbb8ec5cf	-0.0043570767
185	0xbcf1f2f6	-0.029534798
186	0xbcab6be4	-0.02092547
187	0x3ccbe98a	0.024891634
188	0x3cb5a319	0.022172498
189	0xbc4578aa	-0.012052694
190	0x3bd03d3e	0.006354957
191	0xbc98060f	-0.018557576
192	0x3c957429	0.018243866
193	0xbc62cde2	-0.013843032
194	0x3cf47015	0.029838601
195	0x3ccd5dbd	0.025069112
196	0x3cfdc984	0.03097988
197	0xbc86ad88	-0.016440168
198	0xbcdfe09e	-0.027328786
199	0xbbfbea2a	-0.0076878266
200	0xbcf97764	-0.030452438
201	0x3cbdf810	0.023189574
202	0x3be27d42	0.0069119046
203	0xbc6b8568	-0.014375068
204	0xbbb39f9a	-0.0054816725
205	0x3be69617	0.007036935
206	0x3c3d68ab	0.011560599
207	0x3cfc3087	0.030784858
208	0xbcbb5a50	-0.022870213
209	0xbce46e24	-0.02788455
210	0x3cf389ff	0.029728888
211	0xbc8bab40	-0.017049432
212	0x3cef4013	0.029205358
213	0x3c85df31	0.016341778
214	0x3ccfb8c5	0.02535666
215	0xbc51dcf7	-0.01280903
216	0xbc13a625	-0.00901178
217	0x3baf064f	0.005341328
218	0x3cd2af8e	0.025718477
219	0xbc8b7d2b	-0.017027458
220	0xbc7b8523	-0.0153515665
221	0xbca8b185	-0.02059246
222	0x3cfb2fe0	0.030662477
223	0xbc33367e	-0.010938285
224	0x3c166828	0.009180106
225	0xbcbaf93f	-0.022823928
226	0xbc9568e1	-0.018238487
227	0xbc8d497a	-0.01724695
228	0x3b8eb3ea	0.0043549435
229	0x3c60337d	0.013684151
230	0xbc81831f	-0.015809594
231	0xbcd9e3c2	-0.026597861
232	0x3b309083	0.0026941604
233	0xbce5c905	-0.028049955
234	0x3c97d803	0.01853562
235	0xbcd7b665	-0.02633209
236	0xbb589816	-0.0033049635
237	0xbcc2061e	-0.023684558
238	0xbc068d2b	-0.008212368
239	0xbc4fe322	-0.01268843
240	0x3cef72e8	0.029229596
241	0xbc71e9f3	-0.0147652505
242	0x3ccd5d16	0.0250688
243	0x3c31c85a	0.01085099
244	0xbcfe8392	-0.031068597
245	0x3c405b22	0.011740478
246	0x3caf2fe9	0.02138515
247	0xbcee10f5	-0.02906082
248	0xbc97b1dc	-0.018517427
249	0xbbaa7819	-0.005202305
250	0xbb5eb1da	-0.003398052
251	0x3ccae091	0.024765285
252	0x3b282d0a	0.002566161
253	0xba67f639	-0.0008848641
254	0xbb73c3d5	-0.0037195582
255	0xbb0831a1	-0.0020781534

bias f4 [64]
0	0xbcbe6337	-0.023240669
1	0xbc297979	-0.010343903
2	0xbca4a8e4	-0.020100065
3	0x3b921f47	0.004459295
4	0x3c3ff5f6	0.0117163565
5	0xbc12a0f2	-0.008949505
6	0xba08909a	-0.00052095356
7	0x3c8c862e	0.017153826
8	0x3c697acc	0.014250468
9	0xbb18db30	-0.0023324005
10	0xbbcbb69f	-0.0062168385
11	0x3b758233	0.0037461638
12	0x39f55e20	0.0004680017
13	0xbc5a0de2	-0.013308974
14	0xbcddbe06	-0.02706815
15	0xb92a7de6	-0.00016259364
16	0xbaaacdb8	-0.001303128
17	0x3c7aacef	0.01530002
18	0xbb822871	-0.003972106
19	0x3af36d53	0.001857201
20	0xbbaab328	-0.0052093454
21	0xbcf09738	-0.029368982
22	0xbc81d62f	-0.015849201
23	0x3c208b2c	0.009798806
24	0xbd0d474c	-0.034491822
25	0xbba8f518	-0.0051561706
26	0x3c5e7ef9	0.013580077
27	0x3cb7bf2a	0.022430021
28	0xbd07cbef	-0.03315347
29	0xbcf134be	-0.029444095
30	0xbc6503b3	-0.013977933
31	0xbcaef45a	-0.02135675
32	0x3d19d201	0.03755379
33	0x3c3e70e7	0.011623598
34	0x3c8fd533	0.017557716
35	0xbc3061c7	-0.010765499
36	0x3c6ce19b	0.014458085
37	0xbc5dbb1b	-0.013533379
38	0x3adbd1d1	0.0016770904
39	0x3b03cf95	0.0020112742
40	0x3c426246	0.0118642505
41	0xbb655b06	-0.003499688
42	0xbbf32acd	-0.0074208737
43	0xbd08ce76	-0.03340002
44	0x3bfb0200	0.0076601505
45	0x3cc70821	0.024295868
46	0xbcadeefc	-0.02123212
47	0x3d12e270	0.03586048
48	0x3c899a99	0.01679735
49	0xbc156ef9	-0.009120696
50	0xbca0eedd	-0.019645149
51	0x3b016846	0.001974599
52	0xbc810bf2	-0.015752766
53	0xbbd76208	-0.0065729655
54	0xbd1e8c54	-0.038708046
55	0xbb51e046	-0.0032024547
56	0x3cb298a8	0.021801308
57	0xbb9dd563	-0.0048166974
58	0xbbf0807f	-0.0073395367
59	0xbcd0d43b	-0.025491824
60	0x3c96b5bb	0.018397203
61	0x3cfbc2de	0.030732568
62	0xbcc1a905	-0.023640165
63	0x3c7efe07	0.0155634945

weight f4 [10, 64]
0	0xbdf26170	-0.11834991
1	0x3dc8b264	0.0979965
2	0xbd218c69	-0.039440546
3	0x3b8c8746	0.004288587
4	0xbda2237b	-0.079169236
5	0x3dc8e367	0.098089986
6	0xbdbf28a0	-0.093339205
7	0xbd1a2000	-0.037628174
8	0xbcaecdc3	-0.02133835
9	0x3e069c61	0.13145591
10	0xbc5c9ac7	-0.013464636
11	0x3e26c386	0.16285524
12	0xbd472b74	-0.048625425
13	0xbdee8fb9	-0.11648507
14	0x3da7c200	0.081912994
15	0xbd57738d	-0.052600432
16	0x3dfb164a	0.12260111
17	0x3d3c543f	0.04597878
18	0x3cb9d7d0	0.022685915
19	0xbdf4d85e	-0.11955331
20	0x3dd162bc	0.1022391
21	0x3b1dd4a8	0.0024083052
22	0xbd8b301b	-0.06796285
23	0x3dbb8023	0.091552995
24	0x3df4031a	0.11914654
25	0x3d0efad4	0.034907177
26	0xbd68ac8e	-0.056805186
27	0x3d8ac04e	0.067749605
28	0x3b0b36cb	0.0021242376
29	0x3dee27c9	0.11628682
30	0x3d99cdca	0.07509954
31	0x3db54703	0.08851435
32	0xbe1c77b5	-0.1528004
33	0x3c47a3a7	0.012185014
34	0xbdac036b	-0.083990894
35	0xbc19bd6f	-0.009383543
36	0x3d7ecda8	0.062207848
37	0x3db5c629	0.08875687
38	0x3d5249a2	0.051339753
39	0x3dd1b07c	0.1023874
40	0xbd3c8564	-0.04602565
41	0xbd5ec606	-0.05438807
42	0xbda2c049	-0.07946832
43	0x3db82f35	0.08993379
44	0xbc89ed4b	-0.016836783
45	0xbd875bc4	-0.066093
46	0xbd8c6d7d	-0.06856821
47	0xbc77f1e6	-0.015133357
48	0xbd7eb044	-0.06217982
49	0x3d89d0b8	0.06729263
50	0xbcdb8f47	-0.026801718
51	0x3dc93edc	0.098264426
52	0x3d86ec99	0.06588096
53	0x3da9266f	0.08259284
54	0x3d3da1d5	0.046296913
55	0x3cf0dbc1	0.029401662
56	0x3de82272	0.11334695
57	0x3cf5c6ec	0.03000208
58	0x3d3dd72c	0.046347782
59	0x3dc99296	0.09842412
60	0xbde43726	-0.11143331
61	0xbb835257	-0.0040076184
62	0xbd34f259	-0.044176433
63	0xbd3784d6	-0.044804417
64	0x3db60d88	0.088893
65	0x3dfa71db	0.122287475
66	0xbcc26212	-0.023728404
67	0x3de3daa2	0.11125685
68	0xbbc38ed8	-0.005967956
69	0xbddd6f81	-0.10812283
70	0xbc8f906c	-0.01752492
71	0x3ca3d4d8	0.019998953
72	0x3de7e069	0.113221
73	0x3d434dda	0.047681667
74	0xbd3f96bf	-0.046774622
75	0xbdac6653	-0.08417954
76	0x3db81702	0.089887634
77	0x3d9f4f7d	0.07778833
78	0xbd8a71f5	-0.06760017
79	0xbbfee95c	-0.0077792834
80	0xbddb0177	-0.10693639
81	0xbe08727f	-0.13324927
82	0x3e053806	0.13009652
83	0x3d8c6169	0.06854517
84	0xbdab2afb	-0.08357807
85	0x3db36df6	0.08761208
86	0x3d849b96	0.06474988
87	0x3de4fe59	0.111813255
88	0xbdb5e57c	-0.08881661
89	0xbda9596b	-0.08269008
90	0x3d9e2bcc	0.07723197
91	0x3cef16f7	0.029185755
92	0xbd902d37	-0.07039874
93	0xbe051835	-0.12997515
94	0x3d981420	0.074257135
95	0xbd121edc	-0.03567396
96	0x3db3f43c	0.087868184
97	0x3d4add3c	0.04952739
98	0xbd14d73c	-0.036338076
99	0x3d086e31	0.03330821
100	0x3e05d7ee	0.13070652
101	0xbdda17cc	-0.1064907
102	0xbbf8dbc0	-0.0075945556
103	0x3d70ce34	0.0587904
104	0xbd8baf4b	-0.06820544
105	0xbe0a890c	-0.13528842
106	0x3e0018ad	0.12509413
107	0x3d82f1df	0.063937895
108	0xbc966490	-0.018358499
109	0x3da15508	0.078775465
110	0xbb8247b4	-0.003975833
111	0xbd2632bc	-0.040575728
112	0x3d7a0246	0.061037324
113	0x3dac9f13	0.084287785
114	0xbd0f6d6d	-0.035016466
115	0x3ce879f4	0.028378464
116	0x3d8ee978	0.069781244
117	0x3dc55fc7	0.09637409
118	0xbdfc41aa	-0.12317212
119	0x3dc9f6f0	0.09861553
120	0xbce724d1	-0.028215798
121	0x3b7638b8	0.0037570428
122	0x3d1ecb26	0.038767956
123	0x3c43ac4e	0.011942936
124	0x3de7b9a1	0.11314703
125	0x3ca8c3a4	0.020601101
126	0x3cc61436	0.02417956
127	0x3ddaaaf9	0.10677142
128	0x3d76be99	0.06024036
129	0xbcba063d	-0.022708053
130	0xbd1af773	-0.037833642
131	0x3d84ca29	0.064838715
132	0x3d7c43b4	0.061588004
133	0x3ddc997c	0.10771462
134	0xbdba268d	-0.09089384
135	0xbde6e04b	-0.11273249
136	0x3da8e7da	0.08247347
137	0x3dc7e0cc	0.097596735
138	0x3d06c9ad	0.032907177
139	0xbcec97a4	-0.028880902
140	0xbd0a1ace	-0.03371697
141	0x3dc4decc	0.09612808
142	0xbded3e27	-0.1158412
143	0x3c11d501	0.008900882
144	0xbdc92fa1	-0.098235376
145	0x3e040266	0.1289154
146	0xbd750304	-0.05981733
147	0x3cc85612	0.024455104
148	0x3d93e565	0.07221488
149	0x3d0170f9	0.03160188
150	0xbd0eb455	-0.034839947
151	0xbd873298	-0.06601447
152	0xbd83c6b9	-0.06434388
153	0x3dad2fd4	0.08456388
154	0xbb8096d9	-0.0039242324
155	0xbdb52f92	-0.08846964
156	0x3d350f14	0.044203833
157	0x3bda5ae6	0.006663668
158	0xbde5f7e2	-0.112289205
159	0xbd8b4751	-0.06800712
160	0xbdf33862	-0.118759885
161	0x3d3d9092	0.04628045
162	0xbd628114	-0.05529888
163	0xbd642cec	-0.055706903
164	0xbd6ba1b2	-0.05752725
165	0x3bc26c16	0.005933295
166	0xbb550eb3	-0.0032509982
167	0x3d82e2a2	0.06390883
168	0x3c7fc85d	0.015611735
169	0x3dc1a7c7	0.09455829
170	0xbd24f1bb	-0.040269595
171	0xbdd8d0d6	-0.10586707
172	0xbd1aa9e6	-0.037759684
173	0xbce40fd0	-0.027839571
174	0xbdd5d138	-0.10440296
175	0x3d43ff5b	0.047850948
176	0x3c069cec	0.008216124
177	0x3dd167a6	0.102248475
178	0x3dac07a6	0.08399896
179	0x3ddf7c3e	0.10912369
180	0xbd12be20	-0.03582585
181	0x3dd01d5f	0.10161852
182	0xbddcc827	-0.107803635
183	0xbd70adef	-0.058759626
184	0xbdad30da	-0.08456583
185	0xbbd285a3	-0.006424622
186	0xbd5fe74d	-0.054663945
187	0xbdd7211e	-0.105043635
188	0x3d7f33db	0.062305313
189	0x3c1761fa	0.009239668
190	0xbd0671c4	-0.03282334
191	0x3d53f23a	0.051744677
192	0x3db7623d	0.08954284
193	0xbd059513	-0.03261287
194	0x3d0e7122	0.03477586
195	0x3d090f9e	0.03346216
196	0xbd52a4e0	-0.05142677
197	0xbdfca645	-0.12336401
198	0xbde85c99	-0.113457866
199	0xbd784a5b	-0.060617786
200	0x3dfabe0e	0.12243281
201	0xbdd66ef4	-0.104703814
202	0xbd6ea876	-0.058266126
203	0xbc44e1bd	-0.012016711
204	0xbd6e1a45	-0.05813052
205	0xbce088d1	-0.02740899
206	0xbe026be7	-0.12736474
207	0xbdc8dc9c	-0.09807703
208	0x3ddff474	0.109352976
209	0xbdd8f4e8	-0.10593587
210	0xbda9592b	-0.082689606
211	0xbdbeeee2	-0.09322907
212	0xbd6e0b1f	-0.058116075
213	0xbd97d065	-0.07412795
214	0xbda73ef0	-0.08166301
215	0xbdac340e	-0.08408366
216	0x3d9bdce5	0.07610492
217	0x3debdae5	0.1151636
218	0xbca23b8b	-0.019803783
219	0x3c4dab46	0.012553042
220	0x3c2fb826	0.010725057
221	0x3c36fb64	0.011168335
222	0xbdb36040	-0.087585926
223	0xbd93001b	-0.071777545
224	0x3d699ad6	0.05703243
225	0x3dc119e7	0.094287686
226	0xbdcd5574	-0.100260645
227	0xbd7d3eca	-0.06182746
228	0x3d9df5c8	0.07712895
229	0xbd6b2355	-0.057406742
230	0xbce373cb	-0.027765175
231	0x3df43ebe	0.119260296
232	0xbdc79d83	-0.0974684
233	0xbd2eee61	-0.042707805
234	0x3d4abfe4	0.049499407
235	0xbce80db4	-0.028326847
236	0x3d38e086	0.045135997
237	0x3ba9005b	0.005157513
238	0xbc9bf284	-0.019036539
239	0x3dd82677	0.105542116
240	0xbda6ae61	-0.08138729
241	0xbdad0bf5	-0.08449546
242	0xbe0316b8	-0.12801635
243	0x3d12995d	0.03579079
244	0xbdb33591	-0.08750451
245	0x3d7755af	0.06038445
246	0x3c0eed77	0.008723608
247	0xbdf3e6fb	-0.119092904
248	0xbce89888	-0.028393045
249	0xbdaf2362	-0.085516706
250	0x3ce3c879	0.027805554
251	0x3de14cbd	0.11000965
252	0xbe042061	-0.12902977
253	0x3a0ae440	0.0005298294
254	0xbd7fe444	-0.06247355
255	0xbd67ad85	-0.056561965

bias f4 [10]
0	0xbe136fe7	-0.14398156
1	0xbcb38c56	-0.021917503
2	0x3c16ef45	0.00921232
3	0xbd00b4f1	-0.03142256
4	0x3d7531a6	0.0598618
5	0x3d46fefe	0.048583023
6	0xbd3a0571	-0.045415346
7	0xbc05efdf	-0.0081748655
8	0xbd2bd57b	-0.041951638
9	0x3d42504a	0.04743985
