models/gpu_train_model17.pth (torch, 587335 bytes, 10 tensors)

weight f4 [32, 3, 5, 5]
0.07401798 0.1926376 0.044029575 -0.046315633 -0.1381892 0.027893335 0.14081632 0.16539639
-0.10478187 -0.09487478 0.057275906 0.1320685 -0.0010238428 -0.06100057 -0.03389606 0.03761077
-0.11135139 -0.103850506 0.01355324 0.20631915 -0.15386719 -0.1308429 0.09645026 0.09340344
0.16075316 0.12834059 0.13906738 -0.07067053 0.01402888 -0.1133454 0.1643089 0.02404228
0.048583876 -0.13729212 -0.043048784 0.065058984 0.048048247 0.02869596 -0.051703077 -0.08042728
-0.09713033 -0.16745031 -0.010402276 0.07949094 0.20850582 -0.102128975 -0.036433775 0.05725465
0.05519404 0.11449916 0.0896978 0.10199183 -0.16204199 -0.20764379 -0.13341619 -0.0361007
0.031262353 -0.036434 -0.22402996 -0.20662536 -0.05388089 -0.016279258 -0.07681431 -0.054026216
-0.00978162 -0.108171046 -0.04739696 -0.17074277 0.10467423 0.08364443 -0.1823966 0.017193196
-0.026580812 -0.04661633 0.009148003 0.123195685 -0.048082188 -0.14561786 -0.028307723 -0.090422176
-0.10854758 -0.18611045 -0.26753998 0.027776822 0.14819624 -0.20416154 -0.16522124 -0.12559098
0.18997824 0.09022554 -0.0037008163 -0.1875821 0.0464006 0.10525136 0.094542675 0.045153484
-0.195653 0.10038979 0.12833598 -0.08208668 0.17266366 -0.10370104 -0.077434614 0.024557514
0.1645637 -0.058901265 -0.018815013 -0.2024595 0.14301057 0.17815924 -0.111856855 0.04087234
-0.04890793 0.16801251 0.11829019 0.04974901 -0.14632289 0.19727217 0.21073425 0.092926145
0.020578431 0.010675505 0.16735663 0.05920283 0.021732535 0.13499206 -0.03899278 -0.22285089
-0.05635388 -0.02848179 -0.03158292 -0.05935431 -0.09767515 0.07834508 0.064486444 -0.15430279
0.0066824257 0.06400121 0.11483814 -0.025087882 -0.16532956 -0.13868082 0.066021815 0.0016258659
-0.0059977644 -0.12760963 -0.021520484 0.015991174 0.13149762 -0.011709271 -0.092460476 0.1367677
0.08729331 0.0143191945 0.026743643 -0.15130144 0.19987434 0.17089137 -0.09824684 -0.023650384
-0.10177331 0.14833131 0.17324837 0.0028536941 0.14289685 0.07346836 0.20006426 0.0009916875
0.044131227 0.19738121 0.090754464 0.107562564 0.11740879 0.0030133263 0.15578018 -0.045447566
0.040653795 -0.04479354 -0.07510326 0.12437095 -0.0602068 0.0011213998 -0.021651763 0.059844535
0.060653094 -0.16000184 0.0071764793 -0.0120043615 -0.1485667 0.05619648 -0.09989797 -0.067228496
-0.12111358 -0.017815113 0.1416125 -0.0038122556 0.018112667 0.039638743 0.075518176 -0.006578071
-0.058623776 -0.070409656 -0.043437175 0.039439384 -0.118224554 -0.20509438 0.021246096 -0.12523253
-0.16377117 0.019455416 -0.2572447 -0.011337362 -0.08501208 -0.12043483 0.06106099 -0.1012682
-0.063241005 -0.103306465 -0.018889079 0.0022252295 -0.19434905 0.042432982 -0.15054034 0.057302468
0.025873533 0.090136245 -0.0818984 -0.07177672 -0.08054796 0.104299955 -0.02505128 0.08969916
-0.07365818 0.022732448 0.07605168 0.107025884 -0.018861903 0.090618245 -0.05838011 0.10258616
-0.12682773 0.12937135 0.091949284 0.19649851 0.08898998 0.0035787611 -0.07806662 0.1052512
0.10764718 -0.047444943 -0.08543617 -0.16255254 0.05367318 -0.021517387 0.085918315 0.12379825
00000000: bd96 973d ca42 453e 5b58 343d 76b5 3dbd
00000010: 7881 0dbe 9080 e43c 2732 103e ac5d 293e
00000020: e197 d6bd b54d c2bd 249a 6a3d f73c 073e
00000030: 7732 86ba bcdb 79bd 98d6 0abd c00d 1a3d
00000040: 330c e4bd 93af d4bd 690e 5e3c 5445 533e
00000050: 5c8f 1dbe aefb 05be b787 c53d 4e4a bf3d
00000060: 7a9c 243e b76b 033e ae67 0e3e b6bb 90bd
00000070: 63d9 653c a221 e8bd 9840 283e 51f4 c43c
00000080: e3ff 463d 4e96 0cbe ec53 30bd a53d 853d
00000090: 3dce 443d ca13 eb3c 9bc6 53bd 0fb7 a4bd
000000a0: 44ec c6bd 1878 2bbe 4f6e 2abc 25cc a23d
000000b0: 8d82 553e ff28 d1bd 953b 15bd da83 6a3d
000000c0: 2513 623d 897e ea3d 7bb3 b73d 18e1 d03d
000000d0: 56ee 25be 93a0 54be 419e 08be 54de 13bd
000000e0: f40c 003d d13b 15bd 1c68 65be 9995 53be
000000f0: 35b2 5cbd 145c 85bc d250 9dbd 984a 5dbd
00000100: 1743 20bc c888 ddbd 5123 42bd 31d7 2ebe
00000110: 715f d63d c54d ab3d 2dc6 3abe bfd8 8c3c
00000120: 01c0 d9bc c4f0 3ebd 81e1 153c 054e fc3d
00000130: d4f1 44bd d91c 15be 99e5 e7bc 432f b9bd
00000140: 324e debd bd93 3ebe 00fb 88be 388c e33c
00000150: c1c0 173e b90f 51be c22f 29be ec9a 00be
00000160: a889 423e 2bc8 b83d 6589 72bb 8615 40be
00000170: 8e0e 3e3d 068e d73d 979f c13d dcf2 383d
00000180: 4359 48be 2a99 cd3d 826a 033e 101d a8bd
00000190: bece 303e 3661 d4bd 0a96 9ebd d72c c93c
000001a0: 6383 283e 7442 71bd f121 9abc 8b51 4fbe
000001b0: 5d71 123e 606f 363e 3515 e5bd c169 273d
000001c0: ae53 48bd 790b 2c3e 2142 f23d 9ec5 4b3d
000001d0: abd5 15be b701 4a3e b8ca 573e 1050 be3d
000001e0: 1994 a83c 50e8 2e3c 895f 2b3e ab7e 723d
000001f0: 6e08 b23c 5c3b 0a3e e5b6 1fbd 0633 64be
00000200: 53d3 66bd a552 e9bc 185d 01bd 811d 73bd
00000210: e909 c8bd 6373 a03d 7811 843d 8d01 1ebe
00000220: 40f8 da3b 1113 833d 4230 eb3d 1a85 cdbc
00000230: 274c 29be 5802 0ebe 7236 873d 021b d53a
00000240: e588 c4bb 19ac 02be ba4b b0bc ecff 823c
00000250: 50a7 063e 3ed8 3fbc eb5b bdbd d50c 0c3e
00000260: d6c6 b23d 0e9b 6a3c 7c15 db3c c4ee 1abe
00000270: dcab 4c3e 26fe 2e3e a435 c9bd 73be c1bc
00000280: 866e d0bd 2ae4 173e 0568 313e 0b05 3b3b
00000290: 8d53 123e 9476 963d a5dd 4c3e 83fb 813a
000002a0: f2c2 343d 4d1e 4a3e 7add b93d c349 dc3d
000002b0: 0574 f03d 3a7b 453b d784 1f3e 3a27 3abd
000002c0: 9884 263d 6e79 37bd bdcf 99bd 32b6 fe3d
000002d0: 689b 76bd effb 923a 0a5f b1bc 8b1f 753d
000002e0: 616f 783d 86d7 23be ac28 eb3b f1ad 44bc
000002f0: de21 18be 482e 663d 4f97 ccbd 18af 89bd
00000300: 660a f8bd 00f1 91bc de02 113e 09d7 79bb
00000310: 0461 943c 3c5c 223d 46a9 9a3d dc8c d7bb
00000320: 7c1f 70bd f032 90bd 2eeb 31bd 318b 213d
00000330: b71f f2bd 4304 52be 4b0c ae3c f53c 00be
00000340: a1b3 27be f760 9f3c 94b5 83be 58c0 39bc
00000350: d01a aebd 89a6 f6bd 171b 7a3d b465 cfbd
00000360: 8084 81bd 5792 d3bd 45bd 9abc 28d5 113b
00000370: 7003 47be 35ce 2d3d 3f27 1abe feb5 6a3d
00000380: bbf4 d33c 5a99 b83d 59ba a7bd acff 92bd
00000390: 54f6 a4bd 379b d53d 5838 cdbc 31b4 b73d
000003a0: 1ada 96bd 6639 ba3c fcc0 9b3d 6330 db3d
000003b0: 4784 9abc 0f96 b93d fb1f 6fbd b118 d23d
000003c0: 21df 01be ec79 043e e84f bc3d e836 493e
000003d0: 6140 b63d a689 6a3b 64e1 9fbd f18d d73d
000003e0: 2076 dc3d a155 42bd 29f9 aebd 2c74 26be
000003f0: 69d8 5b3d 3b45 b0bc f1f5 af3d f089 fd3d

bias f4 [32]
0.0791318 0.06191858 -0.016906802 -0.17961963 -0.08331779 0.13112472 0.17852966 0.13216864
-0.0822753 0.030276228 0.18978983 -0.30814397 -0.30522633 0.10053857 -0.12856354 -0.287672
-0.21855879 0.050261375 0.2192423 -0.17307153 -0.12692441 -0.35130018 -0.030534025 -0.10733625
-0.06133009 0.03378815 -0.040670406 -0.13632172 -0.06971122 -0.044485196 0.057040352 0.075701356
00000000: da0f a23d 569e 7d3d 2280 8abc 35ee 37be
00000010: 84a2 aabd 8f45 063e 7bd0 363e 3757 073e
00000020: f47f a8bd da05 f83c 4458 423e 0cc5 9dbe
00000030: a046 9cbe 2ae7 cd3d 29a6 03be bf49 93be
00000040: e0cd 5fbe dfde 4d3d 0e81 603e aa39 31be
00000050: 79f8 01be 9edd b3be 7e22 fabc 1cd3 dbbd
00000060: 4335 7bbd 7165 0a3d 0396 26bd ec97 0bbe
00000070: c2c4 8ebd 1c36 36bd 25a3 693d 5009 9b3d

weight f4 [32, 32, 5, 5]
-0.02264131 0.017732318 0.01372862 -0.0029562437 0.029985774 -0.0059454166 -0.009900502 0.044732142
0.01999299 0.05757592 0.000643949 0.03077326 0.058950115 0.025824862 0.0003773163 0.0091349045
0.048650634 0.061366245 0.049144316 0.023454074 0.020716654 0.026038472 0.016823566 0.021969313
0.030379275 -0.0040696 -0.029532084 -0.007114982 0.026113885 0.04256145 0.015464709 0.0049463087
-0.016142702 0.008466196 0.057143684 0.0024327387 -0.008442979 0.02486506 0.061207276 0.06278554
-0.065611154 -0.043273143 0.022717172 -0.0036190576 0.008350259 -0.025526913 -0.03709779 0.038255457
0.022808135 0.027868127 0.016426586 -0.026564939 -0.026538836 0.006456785 -0.017778559 0.013062567
-0.066489436 0.0023318364 0.03405067 -0.009155881 -0.061010417 -0.028459104 -0.040137958 -0.014398208
-0.017743303 -0.029077474 -0.05653134 -0.037573468 0.031004263 -0.026319891 -0.026619613 -0.004277155
-0.0012562877 -0.015675193 0.017834375 -0.034075122 0.01088875 0.014951323 0.018771525 0.0018666517
0.0020114903 0.0033669441 -0.017241921 -0.010845328 -0.01821385 -0.0398765 -0.012618435 -0.011344313
0.02290286 0.023073496 -0.022512691 -0.032782026 -0.046873167 -0.007389338 -0.011367226 -0.020115413
-0.007009399 0.009843233 0.026440976 0.024626598 0.031794928 0.044159625 -0.02252505 0.022168085
-0.024461186 0.015549421 0.03462776 0.040523995 0.0030494132 0.009470822 0.0029271494 0.05335265
0.007835725 -0.004515103 0.02672462 0.021885546 0.024917794 -0.0149616385 -0.04478776 -0.0114246495
-0.017490195 0.0078164 -0.02152366 -0.04416507 -0.012225123 0.054597482 -0.0070043784 0.024474287
0.0015721838 0.011173213 0.046044927 0.022186609 0.027012061 0.023433164 0.009237777 0.03847482
0.015375496 0.038356267 0.0060513364 -0.0063660843 0.052688174 0.003690556 0.0076346714 -0.027723912
0.0143294325 0.032890752 0.025041258 0.013151736 -0.0048317146 -0.005643281 -0.012569742 0.025842333
0.022326235 0.06859395 0.008939469 -0.011184981 0.051608358 0.047827855 0.06953528 0.049088825
-0.016389266 0.06481181 0.032770682 0.040975723 0.07197807 -0.018929243 0.034131534 0.02977784
0.068411395 0.046847373 0.005043283 -0.032244228 0.010393841 -0.032578018 -0.009855035 0.0006715631
0.018946605 0.008046838 0.032550223 0.030715117 0.04080438 0.017873999 0.054319844 0.04911586
0.027941277 -0.0015445361 0.024769971 0.028700339 -0.014407295 0.007652082 0.038816556 -0.0050384346
-0.008746766 -0.018657936 -0.016077051 -0.0071903686 0.009146889 -0.050536808 -0.034730066 -0.04116949
0.0021737742 -0.013600629 0.0035422668 -0.011884011 0.0125358915 -0.021328686 -0.016795415 -0.019657517
0.02193167 -0.012905686 0.027430477 0.01260746 -0.0008869564 -0.022603707 0.033163585 -0.0009871838
0.034718413 0.025183376 0.015574122 0.003973818 -0.0046725464 -0.038313005 0.008660959 -0.0054118643
-0.042662308 0.024063112 -0.024654396 -0.013597113 -0.039255887 -0.024660803 -0.0011259249 -0.045076415
-0.014928919 -0.05125518 -0.02286849 0.0020675508 -0.054753657 -0.04591625 0.009472075 -0.01790958
0.018534545 -0.034353685 -0.014293965 0.009668874 -0.012388524 -0.027077148 -0.052692164 -0.008045079
0.0144769205 -0.033358146 0.036432102 0.0026095333 -0.008607027 -0.0074893767 0.044401675 -0.00069692096
00000000: 457a b9bc 5e43 913c 01ee 603c 8abd 41bb
00000010: baa4 f53c c5d1 c2bb b735 22bc 0d39 373d
00000020: 57c8 a33c bad4 6b3d b0ce 283a 3418 fc3c
00000030: ad75 713d a98e d33c 89d2 c539 91aa 153c
00000040: e345 473d 2c5b 7b3d 8d4b 493d c222 c03c
00000050: f9b5 a93c a24e d53c 93d1 893c fdf8 b33c
00000060: f5dd f83c 475a 85bb 45ed f1bc cc24 e9bb
00000070: c9ec d53c ea54 2e3d b15f 7d3c a514 a23b
00000080: b33d 84bc cdb5 0a3c 7f0f 6a3d 956e 1f3b
00000090: 6c54 0abc cfb1 cb3c 7bb4 7a3d b595 803d
000000a0: 245f 86bd 2e3f 31bd 5d19 ba3c b62d 6dbb
000000b0: 86cf 083c d11d d1bc daf3 17bd c1b1 1c3d
000000c0: 20d8 ba3c b34b e43c 0c91 863c b79e d9bc
000000d0: f967 d9bc 7093 d33b 57a4 91bc 6104 563c
000000e0: 9d2b 88bd b9d1 183b b778 0b3d 8c02 16bc
000000f0: 0fe6 79bd 1123 e9bc b367 24bd 76e6 6bbc
00000100: 675a 91bc e233 eebc 688d 67bd a3e6 19bd
00000110: a7fc fd3c d09c d7bc 6011 dabc 6027 8cbb
00000120: 05aa a4ba 4369 80bc 6519 923c 5b92 0bbd
00000130: ba66 323c 65f6 743c bec6 993c 70aa f43a
00000140: 35d3 033b f3a7 5c3b ee3e 8dbc 9ab0 31bc
00000150: 3635 95bc 8a55 23bd 8dbd 4ebc 7fdd 39bc
00000160: c79e bb3c a104 bd3c 896c b8bc 7246 06bd
00000170: 14fe 3fbd 4322 f2bb 9a3d 3abc 14c9 a4bc
00000180: 1aaf e5bb 8345 213c bf9a d83c b8bd c93c
00000190: 663b 023d b9e0 343d 7486 b8bc d899 b53c
000001a0: d362 c8bc 00c3 7e3c d7d5 0d3d 7dfc 253d
000001b0: aad8 473b 822b 1b3c 6bd5 3f3b 4f88 5a3d
000001c0: 6a61 003c 6ef3 93bb 97ed da3c 5149 b33c
000001d0: 6720 cc3c a921 75bc 5f73 37bd 742e 3bbc
000001e0: 9947 8fbc 5c10 003c 6352 b0bc 6fe6 34bd
000001f0: e24b 48bc 9ca1 5f3d fc84 e5bb 4d7e c83c
00000200: bc11 ce3a da0f 373c 9b99 3c3d b1c0 b53c
00000210: 6648 dd3c e8f6 bf3c 0c5a 173c c697 1d3d
00000220: 81e9 7b3c 761b 1d3d 4a4a c63b 969a d0bb
00000230: 8ecf 573d 41dd 713b 442c fa3b 421d e3bc
00000240: ffc5 6a3c 74b8 063d 5323 cd3c 617a 573c
00000250: 5c53 9ebb 46eb b8bb 52f1 4dbc 4db3 d33c
00000260: 82e5 b63c fc7a 8c3d da76 123c 3641 37bc
00000270: 4963 533d 24e7 433d 8368 8e3d 5d11 493d
00000280: c842 86bc 0ebc 843d 8d3a 063d 29d6 273d
00000290: 3d69 933d 8011 9bbc 82cd 0b3d a8f0 f33c
000002a0: 461b 8c3d 08e3 3f3d 2042 a53b 8612 04bd
000002b0: ee4a 2a3c 8770 05bd 0377 21bc d60b 303a
000002c0: e935 9b3c e3d6 033c 6253 053d 459e fb3c
000002d0: 7e22 273d 7e6c 923c 7c7e 5e3d b62d 493d
000002e0: 1be5 e43c 0872 caba 65ea ca3c f91c eb3c
000002f0: 930c 6cbc 51be fa3b 1cfe 1e3d 7419 a5bb
00000300: 984e 0fbc 87d8 98bc 05b4 83bc 2f9d ebbb
00000310: d5dc 153c afff 4ebd 1d41 0ebd 57a1 28bd
00000320: e175 0e3b 2cd5 5ebc 6025 683b 28b5 42bc
00000330: 5763 4d3c 7fb9 aebc 8a96 89bc cd08 a1bc
00000340: 0caa b33c 5f72 53bc e1b5 e03c 858f 4e3c
00000350: a382 68ba 692b b9bc 8ad6 073d 6464 81ba
00000360: e534 0e3d 5e4d ce3c 9a2a 7f3c cd36 823b
00000370: 291c 99bb 19ee 1cbd b2e6 0d3c 0256 b1bb
00000380: acbe 2ebd 0120 c53c 04f8 c9bc 6dc6 5ebc
00000390: c8ca 20bd 7405 cabc c593 93ba 0ca2 38bd
000003a0: 6d98 74bc f4f0 51bd b356 bbbc bf7f 073b
000003b0: 5f45 60bd ae12 3cbd c330 1b3c 1db7 92bc
000003c0: c2d5 973c 73b6 0cbd 3c31 6abc 326a 1e3c
000003d0: 3cf9 4abc e5d0 ddbc bdd3 57bd 82cf 03bc
000003e0: 9b30 6d3c 8da2 08bd d439 153d b404 2b3b
000003f0: 7d04 0dbc 7269 f5bb 88de 353d 93b1 36ba

bias f4 [32]
0.01838482 -0.17491095 0.03760316 -0.01934552 -0.09435593 0.043276295 -0.027613742 -0.12268006
0.014383524 -0.08381601 -0.10281651 0.08128712 -0.08702753 -0.04204633 -0.113361076 -0.10505988
-0.05482888 -0.10860878 -0.04551438 -0.13202716 0.01596663 -0.090568684 -0.054565057 0.005864056
0.028664147 0.0442785 -0.17063712 -0.19179285 0.043623444 -0.09653107 -0.04807775 -0.14279677
00000000: c39b 963c db1b 33be c505 1a3d 7f7a 9ebc
00000010: af3d c1bd 7c42 313d 3736 e2bc af3f fbbd
00000020: dfa8 6b3c baa7 abbd 7691 d2bd dd79 a63d
00000030: 7d3b b2bd c638 2cbd da29 e8bd a229 d7bd
00000040: 3f94 60bd 486e debd 496d 3abd 2132 07be
00000050: 73cc 823c 137c b9bd 9c7f 5fbd 4427 c03b
00000060: 13d1 ea3c 5f5d 353d 7fbb 2ebe 5865 44be
00000070: 7fae 323d 15b2 c5bd 2ded 44bd 5139 12be

weight f4 [64, 32, 5, 5]
-0.026750218 -0.036916308 -0.043048102 -0.045913726 -0.012532111 0.04041811 0.01313372 -0.014911665
-0.019530311 -0.012437065 -0.028613897 0.01871264 -0.023062704 -0.010459535 0.0068351286 0.0140604675
-0.02988533 0.011307187 0.0020638665 0.06534591 0.008353711 0.03686894 -0.0010552347 -0.030997567
0.022813728 0.08067841 0.03426698 -0.045263298 -0.026928388 -0.041005876 0.041219074 -0.004526956
0.003384643 -0.0235025 -0.017936688 -0.018688787 0.013851562 0.020131117 0.043599647 0.036009397
-0.008790172 0.004236863 -0.00074830104 -0.008947143 -0.032533027 0.002189009 0.026205292 0.054863505
-0.017725527 -0.008938057 0.027336052 -0.015285675 -0.029734595 -0.047122557 0.021852586 0.035768658
0.010186701 0.0418909 -0.0015941254 -0.031006569 0.018857006 0.014431107 -0.0036713125 0.03189116
0.029362278 -0.024707733 0.00039030198 0.0091796145 -0.013995053 0.0055095362 -0.041063942 0.013991973
0.036193397 -0.030259287 -0.025944907 -0.013022359 0.017705182 0.0087419925 0.014222259 0.0313206
0.024010275 -0.0029509945 0.015171775 -0.0075258752 -0.020685367 0.0077355336 0.0011732345 -0.029066391
-0.007943083 -0.01424929 0.034826864 0.029119438 0.022740677 0.0048506376 0.006209414 -0.035986
-0.033989444 0.006593149 -0.0350627 0.008530905 -0.0005738283 -0.0042334786 -0.012046207 -0.02594649
-0.037852395 0.050347075 -0.008061251 0.009628265 0.01628143 0.0028346109 0.03566306 0.008751584
-0.02693171 0.018151704 -0.026029538 -0.03160278 -0.010868028 0.0074869487 0.041645814 -0.021901982
0.0060111005 0.004231345 0.0019542128 0.002992967 0.002496491 -0.004485271 -0.00255195 -0.048043415
-0.05768282 0.0032899259 0.0034282005 -0.009781411 -0.035023216 -0.0089791855 -0.062143996 -0.0253738
9.196848e-05 -0.019310609 0.017626112 0.020530598 -0.031749625 -0.043693013 0.019030884 -0.008039806
-0.020313868 -0.043798666 0.035648093 0.020953378 0.038578402 0.039578214 0.035425983 -0.0021084442
0.02572192 0.0072968435 0.013081403 -0.010379453 -0.03830072 0.048330072 0.046578694 -0.0118793305
-0.016947255 0.021372229 0.050933745 0.007555442 0.004640292 -0.042833056 -0.030533068 -0.030906128
-0.040968582 0.06150341 0.0046866373 0.00054748356 0.0020732176 -0.013433097 0.0104500465 -0.01932762
0.0039075487 -0.0070196795 -0.004702496 -0.023428146 -0.016789788 -0.024482323 -0.019285021 -0.008553617
0.0037740446 0.017507145 -0.011464467 -0.03193422 0.02573324 -0.008929955 0.01786699 0.035706192
0.009837126 -0.021222802 0.02917813 -0.017762084 -0.035297785 0.002107666 -0.023700612 0.026882384
-0.0008305626 -0.006322028 1.1806242e-05 -0.013512408 -0.03899736 0.015194599 -0.0077584265 -0.023417752
-0.00720012 -0.024551112 0.02430773 -0.016167441 -0.02222138 -0.037002992 0.01923265 -0.015246975
-0.001295916 -0.0068032034 -0.029275749 -0.028411008 -0.025277229 -0.03265638 0.026863279 0.028420305
0.01826855 -0.0013555019 -0.032403503 -0.011572978 -0.029760903 -0.02180036 -0.022483572 -0.004453397
-0.006237367 -0.029458892 -0.004072374 -0.014308449 -0.024955062 0.0012260898 -0.001983636 -0.020785866
0.001535183 -0.031755213 -0.043259982 -0.034722276 0.0129604135 -0.043497305 -0.017614214 0.0058427057
0.0010869309 0.028459562 -0.01750646 -0.04348741 -0.021820838 -0.044171754 0.008674733 -0.0012033992
00000000: 4623 dbbc 8e35 17bd 3553 30bd 0810 3cbd
00000010: 7c53 4dbc 768d 253d d02e 573c 0e50 74bc
00000020: 08fe 9fbc d5c4 4bbc b167 eabc 404b 993c
00000030: ffed bcbc 785e 2bbc 37f9 df3b e05d 663c
00000040: 14d2 f4bc c841 393c ef41 073b 14d4 853d
00000050: 01de 083c e303 173d cd4f 8aba 9cee fdbc
00000060: dbe3 ba3c b93a a53d 885b 0c3d 0266 39bd
00000070: ec98 dcbc c7f5 27bd 55d5 283d dc56 94bb
00000080: e3d0 5d3b 5188 c0bc f6ef 92bc 3a19 99bc
00000090: a9f1 623c 03ea a43c 8b95 323d 977e 133d
000000a0: a704 10bc 62d5 8a3b a229 44ba 0a97 12bc
000000b0: 5a41 05bd 7a75 0f3b 7bac d63c 8eb8 603d
000000c0: 2035 91bc ee70 12bc dbef df3c c570 7abc
000000d0: f795 f3bc 9503 41bd 3204 b33c 2882 123d
000000e0: 1fe6 263c cb95 2b3d f9f1 d0ba 7d01 febc
000000f0: 027a 9a3c 7370 6c3c 679a 70bb 4ea0 023d
00000100: 2989 f03c df67 cabc 72a1 cc39 1866 163c
00000110: 824b 65bc 5789 b43b aa32 28bd 973e 653c
00000120: 873f 143d 53e2 f7bc 6a8a d4bc bc5b 55bc
00000130: 750a 913c 933a 0f3c 7a04 693c 084a 003d
00000140: 32b1 c43c 7965 41bb 0993 783c 9e9b f6bb
00000150: 5c74 a9bc 5c7a fd3b 38c7 993a a41c eebc
00000160: b423 02bc db75 69bc 9da6 0e3d e38b ee3c
00000170: a84a ba3c 19f2 9e3b 5778 cb3b 0e66 13bd
00000180: 8438 0bbd 580b d83b e89d 0fbd 35c5 0b3c
00000190: f76c 16ba feb8 8abb 745d 45bc bc8d d4bc
000001a0: 1d0b 1bbd bc38 4e3d 5613 04bc dfbf 1d3c
000001b0: a260 853c e1c4 393b 6e13 123d ce62 0f3c
000001c0: e49f dcbc e2b2 943c e63b d5bc eb71 01bd
000001d0: d00f 32bc 1455 f53b cd94 2a3d c96b b3bc
000001e0: c4f8 c43b 18a7 8a3b 4012 003b a725 443b
000001f0: 2b9c 233b 2ef9 92bb 9e3e 27bb 2cc9 44bd
00000200: d244 6cbd cc9b 573b a9ab 603b 3642 20bc
00000210: 8174 0fbd 6f1d 13bc b48a 7ebd b7dc cfbc
00000220: 34df c038 4831 9ebc a364 903c c92f a83c
00000230: e50b 02bd 72f7 32bd a8e6 9b3c 64b9 03bc
00000240: 4569 a6bc 3b66 33bd bc03 123d 6ba6 ab3c
00000250: 6304 1e3d c41c 223d d61a 113d d32d 0abb
00000260: c7b6 d23c 5c1a ef3b 6253 563c 950e 2abc
00000270: 37e1 1cbd c1f5 453d 4dc9 3e3d 86a1 42bc
00000280: f8d4 8abc d014 af3c e79f 503d a493 f73b
00000290: 970d 983b b771 2fbd 7c20 fabc d92e fdbc
000002a0: acce 27bd 00eb 7b3d 5d92 993b 0085 0f3a
000002b0: d2de 073b 7e16 5cbc ac36 2b3c f554 9ebc
000002c0: e50a 803b 5705 e6bb 6517 9abb 62ec bfbc
000002d0: bd8a 89bc 278f c8bc 9ffb 9dbc 7824 0cbc
000002e0: f655 773b 256b 8f3c 76d5 3bbc 75cd 02bd
000002f0: 84ce d23c f24e 12bc cb5d 923c a840 123d
00000300: e62b 213c 71db adbc f906 ef3c ca81 91bc
00000310: 6994 10bd c520 0a3b c927 c2bc 7238 dc3c
00000320: 1dba 59ba 0429 cfbb 6c13 4637 2663 5dbc
00000330: b2bb 1fbd c4f2 783c 663a febb 96d6 bfbc
00000340: fcee ebbb 6a1f c9bc 0121 c73c 9571 84bc
00000350: 9d09 b6bc 7390 17bd ca8d 9d3c 73ce 79bc
00000360: badb a9ba 68ed debb b2d3 efbc 34be e8bc
00000370: 3112 cfbc b2c2 05bd 6110 dc3c b3d1 e83c
00000380: eda7 953c 19ab b1ba 89b9 04bd 979c 3dbc
00000390: 23cd f3bc ab96 b2bc 782f b8bc cded 91bb
000003a0: d462 ccbb c653 f1bc 8d71 85bb fc6d 6abc
000003b0: 8f6e ccbc bfb4 a03a e4ff 01bb 1f47 aabc
000003c0: 3238 c93a c111 02bd 6131 31bd f238 0ebd
000003d0: ea57 543c 3b2a 32bd af4b 90bc 2b74 bf3b
000003e0: 5977 8e3a 0724 e93c b569 8fbc db1f 32bd
000003f0: 9dc1 b2bc 71ed 34bd 7820 0e3c 60bb 9dba

bias f4 [64]
-0.04604939 -0.048157584 -0.051651962 -0.083547354 -0.055214446 0.0051893243 -0.070690826 -0.066254295
0.026319118 -0.054009385 -0.038131326 -0.05631807 -0.0109680705 -0.028496785 -0.014651298 -0.013854261
-0.05435879 -0.0056227874 -0.08854346 -0.085008286 -0.034616053 -0.106668726 -0.007571406 -0.041578807
-0.07059307 -0.10853816 -0.03576565 -0.079474755 -0.037557624 -0.045554943 -0.04712824 0.0094012255
-0.002962097 -0.014659754 -0.02080014 0.0008445307 -0.057564195 0.02095367 0.040052995 0.0045685796
-0.083299704 -0.08685728 -0.06467107 -0.07765055 -0.013544118 0.021337604 -0.01561846 -0.04605559
-0.03256294 -0.034584098 0.011536657 -0.08978137 -0.089936495 -0.015907593 0.0074077155 -0.11366586
-0.054957215 0.015264027 -0.0328515 -0.06634611 -0.045956813 -0.038989916 0.034438286 0.002847812
00000000: 499e 3cbd e340 45bd 0291 53bd e01a abbd
00000010: 8b28 62bd 350b aa3b 5ac6 90bd 55b0 87bd
00000020: 319b d73c f238 5dbd 982f 1cbd c7ad 66bd
00000030: 6cb3 33bc 1772 e9bc ff0b 70bc fbfc 62bc
00000040: 53a7 5ebd 5c3f b8bb 4656 b5bd d318 aebd
00000050: 90c9 0dbd 2275 dabd 8f19 f8bb 8a4e 2abd
00000060: 1993 90bd 4149 debd 017f 12bd a9c3 a2bd
00000070: 06d6 19bd d297 3abd 8b09 41bd 9907 1a3c
00000080: be1f 42bb 772f 70bc 0e65 aabc 7f63 5d3a
00000090: 6fc8 6bbd 08a7 ab3c 9c0e 243d 06b4 953b
000000a0: 0999 aabd 3be2 b1bd 4472 84bd 4007 9fbd
000000b0: 26e8 5dbc 33cc ae3c 92e4 7fbc c9a4 3cbd
000000c0: b860 05bd 0ea8 0dbd 3f04 3d3c 4bdf b7bd
000000d0: a030 b8bd a450 82bc 6cbc f23b a5c9 e8bd
000000e0: d11a 61bd f815 7a3c 4b8f 06bd 78e0 87bd
000000f0: 363d 3cbd e4b3 1fbd 290f 0d3d 5ba2 3a3b

weight f4 [64, 1024]
0.00044085365 -0.02709609 0.0029390345 0.022841513 0.018790917 0.0029773219 0.006711537 -0.01523641
0.033004567 0.020003486 0.015311808 0.024277484 -0.024315134 -0.025672285 -0.010035526 0.00030148777
-0.03102981 -0.019158833 -0.016525282 0.02650663 2.5348505e-05 0.004219241 0.011428617 0.016992535
0.007031964 0.01901876 -0.02247799 -0.011985083 -0.038374115 -0.019740183 0.04073465 0.042869538
0.011569256 -0.06414505 -0.0077593243 -0.008581132 -0.021729175 0.0024761476 -0.029926894 -0.014914693
0.026201583 0.0292147 0.04105825 0.039014913 -0.027181057 -0.007632345 0.0043799942 0.05476459
-0.009567271 0.008626435 0.0061192964 -0.038087502 0.05261536 0.027556626 0.01851348 0.04929473
-0.012518866 0.056292843 0.020143505 0.03267447 0.023863401 -0.003905863 -0.020786498 -0.0009483127
0.0019694306 -0.014266565 0.015504337 0.0071008042 0.044616766 0.0065765367 0.019092126 -0.035468966
-0.023618618 -0.020923015 0.010442268 -0.006764328 0.042230997 -0.0013907495 0.018140359 0.009295407
-0.0020297738 0.036219683 0.026911544 -0.0018263514 -0.022545327 -0.0012969732 -0.024404291 0.025779724
-0.0020556864 0.0011946525 -0.0065343734 -0.010774159 0.007505764 -0.024601517 -0.00074680586 -0.03401489
0.040321592 -0.0070678857 -0.01727 -0.012211027 0.030518105 0.002121814 -0.011340799 0.008670638
-0.028949464 -0.019655315 0.02773689 -0.012228118 0.01489577 0.0055688447 0.012894403 0.017376525
-0.014808104 0.0085181985 -0.022399506 0.017143931 0.03136592 -0.031854723 -0.008395093 0.011983476
0.023510393 -0.027857458 -0.0022454935 -0.014384973 -0.021183372 -0.005710099 0.007327778 0.020952823
0.01993721 0.015463037 -0.025170203 0.02677716 -0.019154193 -0.011659042 -0.028232826 0.029623084
0.032425642 0.01441748 -0.018725414 0.009901576 -0.016085535 -0.015555731 -0.01194177 -0.0053595314
-0.024295093 -0.00067014794 -0.034288466 0.016837765 -0.016657107 -0.008165238 -0.0070137875 0.007651315
-0.00047804095 0.024578467 0.025012119 0.033337418 -0.030473527 -0.029131917 0.032297816 -0.009137789
0.02821855 0.008562378 -0.008822756 0.004165871 -0.033300728 -0.023158189 -0.0034753568 -0.03139276
0.013746357 0.021813197 0.019764597 -0.011703473 -0.014885846 0.0042402735 0.034827765 0.0046682986
0.016477812 0.010060198 0.014132841 0.0051401844 -0.004951634 0.02501051 0.026940802 -0.02022722
0.0035370647 -0.053292442 -0.023287188 0.01770577 0.025278391 -0.017700838 -0.0019394779 -0.031743746
0.009300043 -0.00972403 0.05481049 0.03251092 0.023347182 -0.033396903 -0.022046147 -0.01625174
-0.03405777 0.029610453 0.038666725 -0.0014081028 -0.01593411 -0.0067974916 -0.004425212 0.041406073
-0.015982212 -0.021359542 0.040405575 -0.010050166 0.039719123 0.036046524 0.020759659 -0.0029761766
0.013600844 0.01129688 0.023486057 -0.0101589905 -0.005968179 -0.018329412 0.023866313 -0.01624475
0.004245315 -0.030194841 -0.04771252 -0.041814636 0.012175416 0.032615814 0.008640697 -0.01728259
0.0070547704 -0.014911069 0.020849468 -0.028859971 -0.0009846749 -0.019271847 -0.013262657 -0.0034735955
0.030475624 -0.023496017 0.0034421075 0.00016792136 -0.035546858 -0.0008601277 0.014926923 -0.0075989333
-0.019108325 -0.0016945052 0.002124876 0.03732929 0.019269733 -0.0023823332 -0.002829696 -0.0047920244
00000000: 6022 e739 9ff8 ddbc d19c 403b 201e bb3c
00000010: 69ef 993c 2c1f 433b 74ec db3b 23a2 79bc
00000020: cc2f 073d 5ade a33c 61de 7a3c 93e1 c63c
00000030: 8830 c7bc af4e d2bc 0c6c 24bc 0111 9e39
00000040: 3a32 febc fcf2 9cbc 0760 87bc 6f24 d93c
00000050: 80a3 d437 8f41 8a3b 183f 3b3c ee33 8b3c
00000060: 646c e63b 3bcd 9b3c c323 b8bc 155d 44bc
00000070: 2d2e 1dbd 2ab6 a1bc 60d9 263d f897 2f3d
00000080: fa8c 3d3c 7b5e 83bd ee41 febb e097 0cbc
00000090: 6201 b2bc dd46 223b 3f29 f5bc c25c 74bc
000000a0: b4a4 d63c ab53 ef3c b22c 283d 1ace 1f3d
000000b0: cfaa debc c018 fabb 0e86 8f3b d650 603d
000000c0: 0bc0 1cbc e455 0d3c 6184 c83b a401 1cbd
000000d0: 3483 573d 6fbe e13c 95a9 973c 45e9 493d
000000e0: ee1b 4dbc 5393 663d fe03 a53c aad5 053d
000000f0: 2e7d c33c 82f9 7fbb 7248 aabc 3098 78ba
00000100: 9011 013b 50be 69bc e705 7e3c ddad e83b
00000110: 12c0 363d fd7f d73b 1767 9c3c e847 11bd
00000120: d57b c1bc be66 abbc 0c16 2b3c 4ca7 ddbb
00000130: 69fa 2c3d cf49 b6ba 179b 943c c34b 183c
00000140: f405 05bb 175b 143d 9975 dc3c 2f62 efba
00000150: fab0 b8bc 33ff a9ba 82eb c7bc 0030 d33c
00000160: b2b8 06bb e395 9c3a 4c1e d6bb 1986 30bc
00000170: e9f2 f53b 1f89 c9bc 4bc5 43ba 3353 0bbd
00000180: 4128 253d b999 e7bb d179 8dbc c210 48bc
00000190: 1b01 fa3c 220e 0b3b c2ce 39bc 4b0f 0e3c
000001a0: 6d27 edbc 2f04 a1bc 7938 e33c 7258 48bc
000001b0: 630d 743c db7a b63b 0c43 533c 3759 8e3c
000001c0: b19d 72bc ea8f 0b3c 2b7f b7bc 6e71 8c3c
000001d0: 8d79 003d 197a 02bd 928b 09bc 5756 443c
000001e0: de98 c03c 5335 e4bc 2129 13bb f3ae 6bbc
000001f0: c088 adbc c81b bbbb db1d f03b 41a5 ab3c
00000200: 5c53 a33c ae58 7d3c be31 cebc c65b db3c
00000210: 41e9 9cbc 9105 3fbc 8748 e7bc 1cac f23c
00000220: c0d0 043d 4b37 6c3c 0a66 99bc 383a 223c
00000230: d0c5 83bc 77dd 7ebc 6aa7 43bc 029f afbb
00000240: 8106 c7bc deac 2fba 1072 0cbd 5aef 893c
00000250: 7c74 88bc 7ec7 05bc ead3 e5bb e2b7 fa3b
00000260: 92a1 fab9 c858 c93c 37e6 cc3c d18c 083d
00000270: 9ea3 f9bc 0fa6 eebc b74a 043d aab6 15bc
00000280: 972a e73c 3749 0c3c 528d 10bc dc81 883b
00000290: 5866 08bd 3eb6 bdbc d0c2 63bb b295 00bd
000002a0: 6638 613c 97b1 b23c 5de9 a13c ecbf 3fbc
000002b0: c3e3 73bc fef1 8a3b 8fa7 0e3d 87f8 983b
000002c0: 7afc 863c 87d3 243c 6e8d 673c fe6e a83b
000002d0: 5141 a2bb d7e2 cc3c f5b2 dc3c 8eb3 a5bc
000002e0: 19ce 673b 2d49 5abd c6c4 bebc b10b 913c
000002f0: a114 cf3c 5901 91bc 1436 feba bb05 02bd
00000300: 355f 183c 8a51 1fbc f780 603d 2c2a 053d
00000310: 9742 bf3c 31cb 08bd 1f9a b4bc 5e22 85bc
00000320: 2980 0bbd 9f91 f23c 0061 1e3d 1790 b8ba
00000330: 4088 82bc 7ebd debb 5e01 91bb 6a99 293d
00000340: 21ed 82bc 35fa aebc 5180 253d 74a9 24bc
00000350: 85b0 223d 85a5 133d 2910 aa3c f50b 43bb
00000360: 13d6 5e3c 8d16 393c d565 c03c e571 26bc
00000370: b790 c3bb 9027 96bc 4983 c33c b613 85bc
00000380: 491c 8b3b 2c5b f7bc 346e 43bd d345 2bbd
00000390: 657b 473c 2998 053d b691 0d3c 3894 8dbc
000003a0: b42b e73b 8e4d 74bc 81cc aa3c bf6b ecbc
000003b0: 3510 81ba fedf 9dbc 9e4b 59bc 43a5 63bb
000003c0: 04a8 f93c b87a c0bc fb94 613b 0c14 3039
000003d0: 9599 11bd 317a 61ba 0e90 743c 7900 f9bb
000003e0: 1089 9cbc 291a deba 8141 0b3b 99e6 183d
000003f0: 8fdb 9d3c eb20 1cbb 6c72 39bb 6a06 9dbb

bias f4 [64]
-0.033770334 -0.014975697 -0.003061766 -0.047839824 -0.0082277395 -0.006648074 0.011292017 0.009397268
-0.013855376 -0.016377145 0.004840789 -0.028598873 0.02104356 -0.01145311 -0.0096659595 0.0049333936
0.02005917 0.021590486 0.016390672 0.015541097 0.023836872 -0.016303683 0.00092515204 -0.019419353
-0.028546823 -0.012605999 0.03904172 0.010048226 -0.0480025 -0.0069180466 -0.043523785 -0.04388631
0.037805103 0.028235601 0.06240544 0.009801902 0.013849874 -0.04146129 0.015728114 -0.0013769228
0.0010519214 0.014738878 -0.031645067 -0.054678317 -0.0206096 0.04640903 -0.01841294 0.06943598
-0.0050367275 -0.0052749743 -0.03168546 -0.013022109 -0.019539766 0.0013709329 -0.05289856 -0.01628632
0.03540972 -0.01166204 -0.034768045 -0.045471493 0.011702134 0.036123097 0.01610759 0.03548169
00000000: c352 0abd a05c 75bc e9a7 48bb b1f3 43bd
00000010: a4cd 06bc 16d8 d9bb 2702 393c 00f7 193c
00000020: a901 63bc 5d29 86bc 7b9f 9e3b 2f48 eabc
00000030: 8b63 ac3c d3a5 3bbc f95d 1ebc 4ea8 a13b
00000040: 2153 a43c 88de b03c bb45 863c 16a0 7e3c
00000050: 8b45 c33c 4d8f 85bc e785 723a 5615 9fbc
00000060: 07db e9bc 6489 4ebc 36ea 1f3d 51a1 243c
00000070: 459e 44bd c8b0 e2bb ff45 32bd 22c2 33bd
00000080: 86d9 1a3d 594e e73c d99c 7f3d 2898 203c
00000090: 95ea 623c 50d3 29bd 3fd8 803c dd79 b4ba
000000a0: a0e0 893a 567b 713c 429e 01bd 5ff6 5fbd
000000b0: 77d5 a8bc 6517 3e3d bcd6 96bc 7334 8e3d
000000c0: 220b a5bb b1d9 acbb 9dc8 01bd af5a 55bc
000000d0: dc11 a0bc e0b0 b33a 29ac 58bd e36a 85bc
000000e0: c809 113d 2412 3fbc f068 0ebd 5140 3abd
000000f0: 4fba 3f3c d0f5 133d 11f4 833c 4055 113d

weight f4 [10, 64]
-0.113342054 0.21467334 -0.04255137 0.013417696 -0.15750597 0.20210904 -0.18066333 -0.026302898
-0.08930657 0.32491484 -0.08026042 0.2651745 -0.1330333 -0.14266895 0.13841437 -0.017488774
0.11792093 0.19136669 0.06155856 -0.14218472 0.15463312 0.094676785 -0.12229441 0.16231072
0.1456258 0.029435327 -0.14932029 0.1346333 -0.011226589 0.15426005 0.18887177 0.12483611
-0.25163138 0.063426994 -0.18163173 -0.055186067 0.029559258 0.21887442 0.14241654 0.17515819
-0.08112817 -0.15299393 -0.09093807 0.13352303 -0.065596536 -0.10088422 -0.1807195 -0.10364164
-0.0964548 0.22383454 -0.029184194 0.17736128 0.15604013 0.13946305 -0.016781528 0.033530608
0.16255306 0.07843092 0.059248235 0.11658787 -0.059773497 0.019149493 -0.018992431 -0.03955983
0.13413207 0.25763875 -0.030451505 0.19167025 0.029348528 -0.2425645 0.0075429785 0.12793016
0.21904516 0.111663476 -0.10071602 -0.09175944 0.14610878 0.14190847 -0.15746816 0.03077316
-0.18676382 -0.3063786 0.29237345 0.19278859 -0.2017309 0.2061263 0.14642534 0.24685968
-0.12589788 -0.22216308 0.12499731 0.090355605 -0.1819759 -0.28029937 0.25675783 -0.07151381
0.2625517 0.044547435 -0.09205316 0.047983553 0.29552165 -0.21162112 -0.021173669 0.08142711
-0.114324845 -0.324013 0.24094082 0.15920444 -0.087927096 0.22052492 0.024811272 -0.12615247
0.12056655 0.112735026 -0.11986776 -0.028965896 0.11466687 0.11435052 -0.26770964 0.20438002
-0.0019935193 0.047834724 0.11391312 0.011637137 0.28528053 0.0897325 0.09609555 0.20493199
0.12834464 -0.0882305 -0.08836599 0.1459253 0.063573144 0.20811509 -0.20996119 -0.2468832
0.14026447 0.20946267 -0.003433826 -0.0016382592 -0.10093878 0.16998802 -0.23851736 0.034888722
-0.07863565 0.28678116 -0.20941247 0.050375603 0.104663715 -0.021254422 -0.0596791 -0.15038995
-0.10469932 0.26320243 0.0031688828 -0.17473307 0.043138966 0.023456424 -0.20512202 -0.07957262
-0.16623232 0.073248185 -0.04979214 -0.08078355 -0.15349917 0.14167099 -0.00034631207 0.1316742
0.07926938 0.17869309 -0.056912974 -0.27438 -0.09564646 -0.044605825 -0.17771104 0.060769413
-0.030140717 0.14052434 0.21337286 0.2336025 -0.028809674 0.21720017 -0.1558265 -0.16784541
-0.2010963 -0.018678432 -0.06335044 -0.16691448 0.055384167 0.044214386 -0.146343 0.10156056
0.1187516 -0.1345554 0.06475589 -0.014622765 -0.14046732 -0.2370625 -0.13028584 -0.10220465
0.15432881 -0.18350722 -0.12752825 0.011625506 -0.12302089 -0.054962553 -0.14509715 -0.14625232
0.22185512 -0.17394088 -0.11337749 -0.16808768 -0.082010284 -0.11887845 -0.09750993 -0.17639579
0.10779759 0.120611064 -0.03501887 0.00053848047 0.01863504 0.066197574 -0.16986562 -0.13658483
0.069603726 0.13404582 -0.15178473 -0.05709667 0.13959153 -0.0831877 -0.038270045 0.108712785
-0.18136653 -0.064028695 0.08987679 -0.049940404 0.062447075 0.06812944 -0.05474213 0.11681199
-0.12170069 -0.14147238 -0.1712519 -0.01381341 -0.12789047 0.056342456 0.04316043 -0.21724458
-0.07722046 -0.12111311 0.08770757 0.164049 -0.17677957 0.069123715 -0.08387251 -0.06802032
00000000: e11f e8bd 54d3 5b3e 584a 2ebd e5d5 5b3c
00000010: 3f49 21be acf5 4e3e cfff 38be 2d79 d7bc
00000020: 5de6 b6bd 3d5b a63e 935f a4bd f4c4 873e
00000030: e239 08be cf17 12be 7fbc 0d3e 9e44 8fbc
00000040: 8780 f13d a1f5 433e d424 7c3d df98 11be
00000050: 2558 1e3e e7e5 c13d 7e75 fabd c834 263e
00000060: ee1e 153e 5b22 f13c 6be7 18be 50dd 093e
00000070: baef 37bc 59f6 1d3e 9a67 413e 13aa ff3d
00000080: d4d5 80be 03e6 813d abfd 39be c90a 62bd
00000090: 4226 f23c 9e20 603e a4d5 113e ab5c 333e
000000a0: 8726 a6bd 71aa 1cbe bd3d babd 43ba 083e
000000b0: 7a57 86bd 639c cebd 880e 39be 1142 d4bd
000000c0: 188a c5bd e234 653e b113 efbc 329e 353e
000000d0: fcc8 1f3e 67cf 0e3e 6a79 89bc 6457 093d
000000e0: 4f74 263e 64a0 a03d 47ae 723d 9fc5 ee3d
000000f0: 0ed5 74bd 66df 9c3c 0496 9bbc 7d09 22bd
00000100: eb59 093e 3ae9 833e 6f75 f9bc 3545 443e
00000110: 536c f03c d462 78be 172b f73b 2000 033e
00000120: 604d 603e d2af e43d 3344 cebd 60ec bbbd
00000130: 8a9d 153e 7450 113e 553f 21be fe17 fc3c
00000140: 043f 3fbe a8dd 9cbe f9b1 953e 5f6a 453e
00000150: 8c92 4ebe c612 533e 86f0 153e c9c8 7c3e
00000160: 60eb 00be b87e 63be 97fe ff3d 5c0c b93d
00000170: e457 3abe 6683 8fbe c375 833e d575 92bd
00000180: 2d6d 863e 5f77 363d 5e86 bcbd 678a 443d
00000190: 9d4e 973e 35b3 58be 6774 adbc 42c3 a63d
000001a0: 2523 eabd 08e5 a5be 31b9 763e 7d06 233e
000001b0: 1f13 b4bd 49d1 613e 0241 cb3c 1d2e 01be
000001c0: 98eb f63d 9fe1 e63d 3a7d f5bd e349 edbc
000001d0: 77d6 ea3d 9b30 ea3d 3d11 89be ff48 513e
000001e0: b4a5 02bb 58ee 433d 484b e93d b1a9 3e3c
000001f0: 4a10 923e acc5 b73d becd c43d b1d9 513e
00000200: c76c 033e 31b2 b4bd 3af9 b4bd 716d 153e
00000210: a332 823d 1f1c 553e 1100 57be f3ce 7cbe
00000220: 7da1 0f3e 627d 563e 0a0a 61bb dbba d6ba
00000230: feb8 cebd 5711 2e3e e53d 74be 7ae7 0e3d
00000240: ba0b a1bd fbd4 923e 3970 56be a656 4e3d
00000250: ee59 d63d c11d aebc 1272 74bd d3ff 19be
00000260: 996c d6bd 78c2 863e 08ad 4f3b 3aed 32be
00000270: 7cb2 303d b027 c03c 820b 52be f8f6 a2bd
00000280: ce38 2abe 2503 963d d8f2 4bbd d971 a5bd
00000290: e32e 1dbe 3312 113e 3891 b5b9 9ad5 063e
000002a0: fc57 a23d 52fb 363e 941d 69bd 897b 8cbe
000002b0: 4be2 c3bd 99b4 36bd e2f9 35be 59e9 783d
000002c0: aae9 f6bc 9de5 0f3e 6a7e 5a3e 7e35 6f3e
000002d0: 4402 ecbc b969 5e3e fb90 1fbe abdf 2bbe
000002e0: 30ec 4dbe 8303 99bc e0bd 81bd a1eb 2abe
000002f0: 82da 623d 251a 353d f0da 15be fcfe cf3d
00000300: 0a34 f33d e4c8 09be bc9e 843d 5294 6fbc
00000310: aad6 0fbe 83c0 72be a769 05be ac50 d1bd
00000320: 5f08 1e3e 51e9 3bbe c496 02be e878 3e3c
00000330: 60f2 fbbd 6a20 61bd 5994 14be 2bc3 15be
00000340: fd2d 633e 8f1d 32be 7532 e8bd 2d1f 2cbe
00000350: 02f5 a7bd 8b76 f3bd 49b3 c7bd 19a1 34be
00000360: fcc4 dc3d ef02 f73d f26f 0fbd d028 0d3a
00000370: 83a8 983c 9892 873d 41f1 2dbe e5dc 0bbe
00000380: 668c 8e3d 4f43 093e 756d 1bbe 33de 69bd
00000390: 15f1 0e3e 505e aabd 0dc1 1cbd cfa4 de3d
000003a0: 26b8 39be 7a21 83bd 5311 b83d 4f8e 4cbd
000003b0: 81c8 7f3d 7387 8b3d 4939 60bd 203b ef3d
000003c0: 363e f9bd 23de 10be a85c 2fbe a451 62bc
000003d0: b8f5 02be 59c7 663d fec8 303d 5d75 5ebe
000003e0: c325 9ebd 260a f8bd 07a0 b33d 76fc 273e
000003f0: b405 35be bc90 8d3d 5ac5 abbd 3d4e 8bbd

bias f4 [10]
-0.19291683 -0.044552807 -0.00016186602 -0.022245126 0.1624383 -0.029370535 0.057771213 -0.043342542
-0.020700539 0.0053151394
00000000: fd8b 45be 017d 36bd 94ba 29b9 693b b6bc
00000010: 3a56 263e 7a9a f0bc 82a1 6c3d f387 31bd
00000020: 2d94 a9bc 9f2a ae3b
