models/gpu_train_model19.pth (torch, 587335 bytes, 10 tensors)

weight f4 [32, 3, 5, 5]
00000000: c879 973d d9d8 463e ab95 343d b84f 44bd
00000010: 34b3 10be 4743 0a3d 4100 193e bc19 303e
00000020: fad0 e0bd 9450 d6bd e0fa 823d a717 0a3e
00000030: c6e2 3a3a 9bdf 78bd 7ecc 1abd c812 0b3d
00000040: 116d 00be 809f e0bd a425 bf3c 5f08 5d3e
00000050: 5bc0 25be 6d04 11be 7c44 c33d ccd3 c93d
00000060: 4795 263e 6d0a 063e cc41 103e 9ab2 92bd
00000070: 6543 403c 240c eebd 6409 303e 31bf 073d
00000080: 81a8 623d 3cd9 10be 769f 53bd 24d5 953d
00000090: b466 533d 4ff5 033d 6f46 48bd c0e1 a8bd
000000a0: 3be3 cabd b66a 38be c3ff 64bc 15ea ba3d
000000b0: 4e15 603e 5672 dabd 9804 34bd f4cd 703d
000000c0: ed42 7e3d d5f7 f03d a005 bd3d 2c93 ce3d
000000d0: 1169 2bbe e76d 5bbe fc41 0fbe a2a6 f2bc
000000e0: 1670 163d 8222 0cbd 4829 6ebe 8f97 60be
000000f0: 4ed8 44bd e0a3 86bc 908d 9ebd 93ee 61bd
00000100: 7245 82bc f826 e4bd ee55 7cbd f18c 34be
00000110: b517 e93d 90a1 ba3d 41d4 40be 1544 073c
00000120: 2a3d d8bc 51c5 2bbd 908c 1f3c 633e 0d3e
00000130: cc4d 2abd 1e7e 1ebe 34d4 07bd 8b08 c2bd
00000140: 3a20 ccbd 149c 44be 16a9 90be a770 fe3c
00000150: 8253 1a3e efe0 52be 10a9 32be 1d0f 05be
00000160: 5598 4d3e e9d5 b73d 7ce9 e8bb 439f 47be
00000170: 67da 5a3d 4088 e93d 9921 af3d 790c 383d
00000180: d2ba 49be a579 dc3d 3ef9 013e 4cad c5bd
00000190: 6bc3 3e3e a1eb c6bd 3e1f aebd 9086 ba3c
000001a0: 0fb3 273e 376a 4dbd 626a bcbc 73c9 5bbe
000001b0: c0dd 183e 9660 3b3e 7a65 e5bd 8489 0c3d
000001c0: d38c 50bd 0e1f 393e 7ad5 f33d 3721 4a3d
000001d0: 2791 1abe 3c4f 523e 66bf 613e 9ba7 ad3d
000001e0: 1689 b53c 5c3f 2a3c 31a6 313e b824 6a3d
000001f0: 153a fa3b 983e 153e a51c 08bd 00a0 6bbe
00000200: d919 6fbd 9027 fabc 6b26 d0bc 429a 82bd
00000210: fe06 e1bd ed18 aa3d 34fe 873d 57b9 1fbe
00000220: 5e40 cdb8 4974 7a3d ee66 003e 2ce3 ddbc
00000230: 8cfa 2abe c472 13be b4c7 933d dbf8 193c
00000240: db9c 7abc 3c9f 01be 7397 b1bc 458d ab3c
00000250: 241f 043e 4ccd d1bc 7e39 c7bd f5ad 0e3e
00000260: 523d b13d e580 1d3c 26f9 b43c 39f6 1dbe
00000270: 9f94 543e b657 2f3e e18d d0bd 4e57 c0bc
00000280: d9df d5bd 92de 223e 4d18 323e dd79 e135
00000290: 3209 173e 14d9 8c3d 3657 553e a685 913a
000002a0: 2e78 2d3d 7a65 4d3e cd41 b73d a0be e93d
000002b0: bde3 f03d 02d0 b43a 93e8 1f3e 703d 46bd
000002c0: 6359 333d acc5 36bd 218c 9cbd a79e fe3d
000002d0: 14d0 82bd 822f ca3b 108f c1bc 2cd1 683d
000002e0: 1e6b 813d ed24 2abe 3179 463c c17a 8abc
000002f0: 90f8 1dbe 660c 743d 6b1c d9bd 8055 7fbd
00000300: 9e89 febd 70c9 a8bc 8aac 143e b31e 86bb
00000310: 3a26 c63c bc37 213d 9fb4 9a3d fd5c 72bb
00000320: 663b 76bd ba4d 8abd cff0 33bd 92db 1d3d
00000330: 0366 eebd aa1b 55be aa46 c63c e43a 04be
00000340: c1ce 2abe 5cb2 b93c 81c4 86be 33af 16bc
00000350: 5c08 bdbd ae87 01be 423e 843d 9660 dbbd
00000360: 37ec 78bd 46f7 debd 832d babc ff95 b43b
00000370: 4f8f 46be 8cec 423d beea 1abe 6ff3 6d3d
00000380: 5221 f63c e5e5 b83d aca6 b4bd e6d7 96bd
00000390: b21d 94bd 8aa2 db3d 8025 91bc efd7 b93d
000003a0: 6413 a7bd 58d6 a73c 4225 963d b454 e53d
000003b0: 5d08 62bc a47c ae3d 978d 82bd 465d c23d
000003c0: c42f 09be 7c49 043e 036d c73d 749d 503e
000003d0: 7e4a b63d e095 33bb 28ae abbd 24aa da3d
000003e0: c43e e53d 3fb9 52bd 08ad abbd 0664 2bbe
000003f0: 1072 5c3d c4b8 25bc 6b79 bc3d a89a 073e
0.07396275 0.19418658 0.044088047 -0.04792759 -0.1413086 0.033755567 0.14941503 0.17197317
-0.10977359 -0.10464588 0.06395507 0.13485585 0.0007129129 -0.06076012 -0.037792675 0.033953458
-0.12541606 -0.10967922 0.023333378 0.21585225 -0.16186659 -0.14161845 0.09534547 0.0985485
0.16267882 0.13089915 0.140876 -0.07162972 0.011734818 -0.116234094 0.17191082 0.03314132
0.05533648 -0.14145368 -0.051665746 0.07316044 0.051611617 0.032216366 -0.048895296 -0.082461834
-0.09906622 -0.18009457 -0.013976994 0.09126679 0.21883127 -0.10666339 -0.043949693 0.058790162
0.062075544 0.1176602 0.092295885 0.100866646 -0.16739298 -0.21428643 -0.13990015 -0.029620472
0.036727987 -0.034212597 -0.23257935 -0.21932815 -0.048057847 -0.016435564 -0.07741845 -0.055159163
-0.015902255 -0.11140245 -0.061605386 -0.1763189 0.11381475 0.09112847 -0.18830968 0.008255978
-0.026396353 -0.041936222 0.009738103 0.1379333 -0.0415781 -0.15477797 -0.033161357 -0.09474286
-0.09967084 -0.19200164 -0.28254002 0.031059576 0.15070918 -0.20593618 -0.17447305 -0.12994047
0.20077641 0.08976347 -0.0071079116 -0.19494347 0.05343094 0.11402941 0.0855133 0.04493377
-0.19700173 0.10765389 0.12692735 -0.096521944 0.18629234 -0.097129114 -0.08502053 0.022769243
0.16376899 -0.050150122 -0.022999946 -0.21463566 0.14928341 0.18298563 -0.11200996 0.034310833
-0.05091555 0.18078253 0.11905952 0.049348082 -0.15094434 0.20538038 0.22045669 0.08479234
0.022160094 0.010391083 0.17348553 0.057163924 0.0076363184 0.14574659 -0.033230443 -0.23010254
-0.05837426 -0.030536443 -0.025408944 -0.063770786 -0.10987662 0.083055355 0.06640282 -0.15598045
-9.787151e-05 0.061146054 0.12539265 -0.027085863 -0.16697139 -0.14399248 0.07215825 0.009397711
-0.015296186 -0.126584 -0.021678662 0.020941386 0.12902504 -0.025610588 -0.09727763 0.13933547
0.08654274 0.00961325 0.02209146 -0.15425958 0.2075982 0.17123303 -0.10183311 -0.02347913
-0.10443086 0.15905216 0.17392083 1.6799273e-06 0.14749601 0.06877342 0.2083405 0.0011102452
0.04235094 0.20058241 0.089480974 0.11413312 0.11762188 0.0013794901 0.15616064 -0.048398435
0.043786418 -0.04462211 -0.07643915 0.12432604 -0.06387344 0.006170214 -0.023627788 0.056840107
0.06319259 -0.16615649 0.012113855 -0.016904237 -0.1542685 0.059582137 -0.106011234 -0.0623374
-0.12428592 -0.020603865 0.14518943 -0.004093015 0.02418815 0.039359793 0.07553982 -0.0036981695
-0.06011524 -0.067531064 -0.043930825 0.038539477 -0.11640551 -0.20811334 0.024203617 -0.1291309
-0.16680433 0.022668056 -0.26321796 -0.009197044 -0.0923011 -0.12649414 0.06457187 -0.10711782
-0.060772147 -0.108870074 -0.02272678 0.005511045 -0.19390605 0.04758887 -0.1512861 0.058093484
0.030045185 0.09028224 -0.08820853 -0.07365398 -0.072322264 0.10724361 -0.017718077 0.09074389
-0.08157995 0.02048795 0.07331325 0.111977965 -0.013795939 0.08519867 -0.06374662 0.09490447
-0.13397127 0.12918657 0.09737589 0.20372564 0.08900927 -0.0027402565 -0.08382827 0.10676983
0.11193612 -0.051446196 -0.083826125 -0.16737375 0.053819716 -0.010114852 0.09202846 0.1324259

bias f4 [32]
00000000: 8765 a33d 379f 763d 32c3 d7bc 1d3a 39be
00000010: bf6c b1bd 00b9 f73d 672d 3f3e 0db1 033e
00000020: 676d 9bbd e178 da3c e21e 3c3e 2a6b a1be
00000030: c66e 9ebe 159b cf3d 4a40 04be f7b1 94be
00000040: 602d 66be 5b8f 633d a97c 5e3e 074e 33be
00000050: b27e 09be 147f b3be 0bb4 05bd c863 e4bd
00000060: b50b 76bd 6c96 1d3d e213 3fbd 438e 13be
00000070: 26a3 8dbd 85da 36bd d696 733d 1fd6 8c3d
0.07978349 0.060210433 -0.026338194 -0.18088575 -0.0866332 0.12095833 0.18669663 0.12860508
-0.07589226 0.026668968 0.18371156 -0.31527072 -0.30943888 0.101370014 -0.1291515 -0.29042026
-0.22478247 0.055556636 0.21727242 -0.17510234 -0.13427237 -0.3505789 -0.032642405 -0.11151844
-0.06006976 0.03847353 -0.04664982 -0.14409737 -0.06915884 -0.04464199 0.05947002 0.06876778

weight f4 [32, 32, 5, 5]
00000000: b855 cdbc 8f7c 753c f7e2 553c 2d01 dbba
00000010: 2d5e f63c b658 07bc 7da7 3dbc 203d 403d
00000020: 2097 a33c 9822 733d 04b6 3eb9 c8fe f13c
00000030: 0511 773d 46ca de3c 52a9 b6b9 c65d f43b
00000040: 5ad0 3b3d 1d6b 833d 553b 483d 33db c63c
00000050: 3499 ae3c 3c1b d63c 047b 833c 5c61 bb3c
00000060: afda f73c 42d5 cfbb 2175 00bd c5e1 e9bb
00000070: 286d c03c 2efa 283d 7015 743c 291a a13b
00000080: ed92 87bc ec07 253c 15c3 6b3d 1ef0 273b
00000090: 0c69 edbb 154a e53c a51e 7e3d bfcd 853d
000000a0: 7c77 88bd c826 3cbd 26f7 cc3c 0f98 4abb
000000b0: db20 0f3c 857e d3bc 99e6 24bd 43e0 2e3d
000000c0: 473d bd3c eb5c eb3c 8ca3 683c a878 f7bc
000000d0: 4899 e0bc 41b2 e53b e483 8cbc 8280 1e3c
000000e0: 2420 92bd e582 2a39 ce62 0b3d d336 08bc
000000f0: 1813 82bd ad41 03bd cd4c 2abd d92d 76bc
00000100: a3c3 8dbc 35ff eabc 6501 74bd da4a 20bd
00000110: 00e6 003d aa4c d7bc 6d11 cfbc f787 b8bb
00000120: 5e59 9fb9 a598 68bc c832 903c a07a 0ebd
00000130: dcbc 0b3c f640 633c e8f0 9b3c 36f0 173b
00000140: edaf c93a b933 e53a 2594 98bc b7a8 33bc
00000150: db1a 95bc ffce 22bd d661 78bc 1709 5cbc
00000160: ce2c b03c 3e89 b43c 02c6 acbc fd04 10bd
00000170: 8f8e 41bd 5019 debb 9fa3 35bc 9c4e 96bc
00000180: bac5 f6bb 9bf7 153c c8ad dc3c 8d36 cc3c
00000190: 9c73 fe3c 2689 363d 07af d6bc 2760 a33c
000001a0: befc dfbc 4fe2 763c 0675 093d 8b37 243d
000001b0: 45d1 ac3a f66c ec3b 62f5 ad3b 0198 593d
000001c0: 7b38 c73b 158d 8bbb 43f4 db3c 9d93 c03c
000001d0: 84bb d93c b846 83bc ed0d 39bd 7c8f 2fbc
000001e0: b63f 84bc 4ecb 3b3c 057f c8bc 46ea 34bd
000001f0: 4fb8 3fbc 338c 593d 36a5 cfbb bbb3 c33c
00000200: dee5 87ba d1c7 e23b 70b8 3a3d 321d ba3c
00000210: 1733 eb3c 84c6 b63c f8ba d73b 20ea 1b3d
00000220: 90e7 753c 7829 1c3d fbd6 e93b b9f2 d2bb
00000230: c361 523d 1f6f 9e3a e35e c13b 3dc7 f8bc
00000240: 8e28 433c bd2e f43c 589d cd3c 909e 2c3c
00000250: f534 bdbb 1fdd e9bb 88a5 44bc ba25 dd3c
00000260: 8514 af3c d4b5 903d 1831 103c f2e8 33bc
00000270: 13a4 583d 12e9 453d 7edb 913d 6227 4c3d
00000280: abbf 5bbc ee91 863d f196 0a3d d4d7 343d
00000290: 8f59 9a3d c53c aabc edc6 0c3d 19fd f73c
000002a0: 022f 8c3d 1de4 423d 0451 1b3a 09bf 08bd
000002b0: 0687 273c 6d4b 0dbd 78b8 4cbc e79a f1ba
000002c0: f09b 8e3c e14b 093c 2b18 fc3c c0a8 e63c
000002d0: 372f 1f3d 6057 873c e6a0 603d 38f9 453d
000002e0: 81a3 d23c ab06 29bb fbaf c23c 150c e33c
000002f0: b605 82bc 0d06 d63b 3ec6 1b3d 4899 b6bb
00000300: 49b7 51bc 4e0a a6bc 42c3 81bc 6ae8 e8bb
00000310: a008 313c edd9 55bd bbd8 17bd ea45 29bd
00000320: 6e42 2c3b e4c2 66bc d065 453b ce79 64bc
00000330: 2d3f 313c 73d0 afbc f1fe 96bc a35b aebc
00000340: 6b80 a53c 58a8 6abc 15d6 ec3c b65f 343c
00000350: 9b9b dcba bbf4 bdbc 90db 043d beda b53a
00000360: 9bbf 0e3d 2388 dc3c 7f3b 823c c762 663b
00000370: 58aa 3bbb 6ff2 1fbd 8eff 2f3c a306 adbb
00000380: 4f27 32bd 18ff c03c 1a45 d9bc f483 4abc
00000390: 1d77 36bd 2bf4 d4bc ee88 35bb 64c4 41bd
000003a0: 9c4a 5dbc fa9a 67bd 7add cabc f3d9 263b
000003b0: 6cc0 67bd eb7a 34bd e487 f23b 87bc 9bbc
000003c0: e1ef a93c 6dc1 11bd 6da1 3ebc eb05 df3b
000003d0: 1f64 61bc 5e16 ccbc 1aae 5ebd 4023 3abb
000003e0: f13f 543c dfad 09bd 2f47 123d d576 833a
000003f0: 8d7d 42bc 61bb fdbb 4b7c 2d3d f574 1abb
-0.025065288 0.01498331 0.013054601 -0.0016708724 0.030074203 -0.008260896 -0.011575577 0.046933293
0.019969523 0.059359163 -0.00018187618 0.029540434 0.060318965 0.02719606 -0.000348399 0.0074574677
0.045852996 0.064169146 0.04888471 0.024274444 0.021313287 0.026136033 0.01604987 0.022873573
0.030255644 -0.006342561 -0.031361703 -0.0071375095 0.02348955 0.041254215 0.014897689 0.0049164486
-0.016549552 0.0100726895 0.05755909 0.0025625299 -0.0072451886 0.027989427 0.062040944 0.065333836
-0.06663415 -0.045935422 0.025020193 -0.0030913388 0.008735861 -0.025817165 -0.040258978 0.04269434
0.023100508 0.02873083 0.014199149 -0.0302089 -0.02741684 0.007009775 -0.017152734 0.009674193
-0.071350366 0.00016261225 0.034029774 -0.008313852 -0.06351298 -0.032045055 -0.04157715 -0.015025579
-0.0173052 -0.028686145 -0.059571642 -0.039133884 0.031469345 -0.026281673 -0.025276864 -0.0056314426
-0.00030393427 -0.01419655 0.01760234 -0.034784913 0.008528914 0.013870468 0.019035771 0.0023183948
0.0015387513 0.0017486728 -0.018625328 -0.010965518 -0.018201282 -0.039748188 -0.015160045 -0.013429902
0.02150574 0.022038098 -0.021090511 -0.035161007 -0.047255095 -0.00677792 -0.011086374 -0.01834803
-0.007530895 0.009153272 0.026938334 0.024928356 0.031060986 0.04456439 -0.026206506 0.01994331
-0.027342197 0.015068605 0.033558868 0.040092032 0.0013184926 0.0072151376 0.005308793 0.053123478
0.006079731 -0.0042587616 0.026849872 0.023507887 0.026578672 -0.016024932 -0.045179296 -0.010715362
-0.016143661 0.011462046 -0.02447463 -0.044168733 -0.011701657 0.05311222 -0.0063368334 0.023889413
-0.0010368188 0.0069207926 0.04558605 0.022719 0.028710885 0.022311457 0.0065835677 0.038065076
0.015008822 0.038125485 0.0071362234 -0.006437626 0.051362764 0.001208756 0.005901204 -0.030368442
0.011911524 0.029807443 0.025099441 0.010535851 -0.0057741352 -0.0071369554 -0.012002356 0.026995528
0.02137209 0.07065931 0.008800767 -0.010980831 0.05289085 0.048317976 0.07121943 0.049842246
-0.013412396 0.06570803 0.033835355 0.044151142 0.07536613 -0.02078093 0.034369398 0.030272054
0.068449035 0.047580827 0.0005924853 -0.03338531 0.010225063 -0.03449576 -0.012495153 -0.0018433005
0.017408341 0.008379907 0.030773243 0.028156638 0.038863387 0.016521156 0.054840945 0.048333377
0.02571273 -0.0025791328 0.023765555 0.027715722 -0.015871864 0.006531483 0.038030855 -0.005572472
-0.012800046 -0.020268586 -0.015840176 -0.007107784 0.010805279 -0.052209783 -0.037071925 -0.04132644
0.0026284712 -0.0140845515 0.00301205 -0.013945056 0.010818285 -0.021461701 -0.018432112 -0.02128393
0.020202836 -0.014322363 0.028910676 0.011009147 -0.0016831042 -0.023187986 0.032435954 0.0013874394
0.034850698 0.026920384 0.01589751 0.003515409 -0.0028635468 -0.039049562 0.010742081 -0.005280332
-0.04349452 0.023559138 -0.026522208 -0.012360562 -0.04454719 -0.025995335 -0.0027700025 -0.047306433
-0.013506558 -0.05654428 -0.024763811 0.0025459498 -0.056579992 -0.044062536 0.0074014533 -0.019010795
0.020744266 -0.035584856 -0.011635167 0.0068061254 -0.013756781 -0.02491301 -0.054365255 -0.0028402358
0.012954698 -0.033613082 0.035712417 0.0010029922 -0.011870754 -0.0077432846 0.042354863 -0.0023568247

bias f4 [32]
00000000: 52aa 8a3c e064 46be 6554 1e3d 8f15 9fbc
00000010: 324f d4bd 7b51 373d 9673 f5bc e7e6 02be
00000020: 5364 843c e3d5 b4bd 926f e4bd 9bf1 a63d
00000030: 2d38 c0bd bad4 54bd c6f5 efbd a018 dcbd
00000040: e930 72bd 89ea f1bd a0fa 45bd 9589 10be
00000050: 3ba9 013c 4be2 a9bd 3293 85bd 4bad 0f3c
00000060: 0695 063d 1f5d 1f3d a863 3dbe 4277 55be
00000070: 42fa 363d 4106 d8bd 8a75 46bd 3fe7 21be
0.016926918 -0.19374418 0.038654704 -0.01941946 -0.10366668 0.04475544 -0.029962342 -0.12783395
0.01616112 -0.08829858 -0.11154093 0.08151551 -0.09385715 -0.051960684 -0.117167994 -0.10746884
-0.059128676 -0.11812312 -0.048334718 -0.14114983 0.007913883 -0.08295115 -0.06522216 0.008769344
0.032856964 0.038907167 -0.18495047 -0.20846274 0.04467226 -0.10548068 -0.048451938 -0.1581087

weight f4 [64, 32, 5, 5]
00000000: 3b2e f1bc fff3 ffbc ba35 2cbd 4ad5 3ebd
00000010: 74a9 6abc e1b0 1a3d 9785 883c 01b7 8cbc
00000020: 2e9d aabc 45b8 48bc 189f e6bc 9d3d 903c
00000030: 46a3 a4bc 855a 5dbc c1b2 fe3b 727f 4b3c
00000040: 8881 05bd 8424 3e3c a049 ee3a 7f4e 8d3d
00000050: f1b8 033c e98c 1e3d e1cc 21ba c08f 01bd
00000060: a225 a73c 9c41 aa3d 3b60 163d fffb 34bd
00000070: 58ca 00bd ade1 37bd 5152 273d 2314 9bbb
00000080: f394 3d3b 9b15 c5bc 049d 9dbc 5007 a5bc
00000090: d725 533c 7c8f 953c 2c6d 263d eec8 203d
000000a0: ff32 e0bb cb5f d53b 8e96 093a c08d 06bc
000000b0: 2d71 04bd cbc2 eb3a 3d75 e93c b4dc 6f3d
000000c0: 2dab abbc 4506 81bc 5636 ee3c f733 90bc
000000d0: 5ad7 efbc a1ac 40bd bcd8 cb3c b2f0 153d
000000e0: 4454 0c3c 8c1f 3e3d 4664 9039 e544 dcbc
000000f0: 493b a13c 4eac 463c 0992 55bb 2095 083d
00000100: c468 fd3c 5745 d4bc b1af 8739 62fe 2d3c
00000110: e45e 41bc 5cbc af3b 26de 32bd 86ad 923c
00000120: 9122 1b3d 4865 05bd 1dbf e4bc 6e3b 48bc
00000130: 7454 943c 77de 323c 85bb 743c c108 fa3c
00000140: b1be d23c 7c0e 6abb 3ec4 6f3c ecef 86bb
00000150: 5af4 a1bc d09d fb3b 1125 013b 67f5 e3bc
00000160: 7f00 d7bb 8814 56bc 83cd 153d 17fa fa3c
00000170: 103d be3c 9050 d23b 2345 f43b 3009 16bd
00000180: fbc0 08bd 5a53 023c 0ad4 0abd d736 433c
00000190: ad83 9cba 132c 09bc 7d61 49bc 51b0 ccbc
000001a0: bdb4 19bd c4fb 593d 4b94 06bc 3fad 0f3c
000001b0: dbe1 8f3c 63ad 2d3b 4d17 2e3d 2e23 8e3b
000001c0: f198 f3bc b94e ba3c c062 d8bc 2ae2 f5bc
000001d0: a8b9 5cbc 9416 223c cfc1 2f3d 6094 abbc
000001e0: 4fac f93b dd28 ad3b e114 4c3b 928d 9e3b
000001f0: 375a 983a bed0 5ebb 810e 8dbb 2b0e 46bd
00000200: f72b 72bd 5d91 0c3b 2704 4f3b a59f 10bc
00000210: 3001 13bd cf3d 54bc 6345 81bd a37b c8bc
00000220: 1d6b 36ba 88da b1bc 267c 923c 1a81 c13c
00000230: a486 01bd a56b 3bbd 2363 953c 459d 16bc
00000240: f9b8 b2bc 5811 3fbd ba2d 0f3d 724b a53c
00000250: cddd 1c3d c86e 1e3d da3e 103d c135 1abb
00000260: 71b2 ce3c e10a f03b 981c 853c b8a6 5dbc
00000270: 98b2 1fbd 351b 4a3d e47f 393d 9ab2 00bc
00000280: 45b5 9cbc 50f1 a83c d0c6 5a3d 7f2a b43b
00000290: c943 b73b fec4 38bd 080c fcbc 6ee1 03bd
000002a0: b71d 3abd 6b4b 863d 0035 e43b 62c7 5a3a
000002b0: 3d5a 4b3b 5ba5 5bbc 70f2 703c c9c2 9fbc
000002c0: 70e4 18ba 2e40 eebb f5b9 63bb f018 b5bc
000002d0: 7995 5dbc 9509 cebc 8c78 a4bc b464 b5bb
000002e0: e9d6 b23b 0fb4 963c 95e2 42bc 6b5d fdbc
000002f0: 73e7 e03c 8149 1fbc 3794 963c b822 083d
00000300: daa7 3a3c 7215 a6bc 59ff f13c a1b3 84bc
00000310: 1dbe 17bd 61a9 523b ec35 b4bc 747a f03c
00000320: 11a3 8fbb 548c 07bc 76b7 19bb f5b7 80bc
00000330: 3318 2cbd 649b 963c 4160 4abc f79e e1bc
00000340: c809 23bc 0872 ccbc 49cf cb3c da3b 8ebc
00000350: 66de c4bc 1780 18bd 96af 9b3c e07e 27bc
00000360: 6cf3 b1bb 2b94 2fbc 5fac 00bd dc24 dcbc
00000370: 72da cbbc da47 f7bc cadb f13c 4968 d93c
00000380: cd41 a53c e436 42bb 7fd1 0abd cae1 0fbc
00000390: d8b5 fdbc 14ae b4bc f2da bebc b7ea abbb
000003a0: 234d e9bb f638 01bd d9c2 68bb 6118 94bc
000003b0: b283 d3bc 370e c2b9 03b7 e5bb 2e8e c2bc
000003c0: 1df5 b53b 005c 03bd b2a2 33bd 6b7c 18bd
000003d0: 2295 9a3c fe99 34bd 97cf 93bc c094 c03b
000003e0: f5cf aab9 fa43 fd3c 7bf8 81bc b5d7 38bd
000003f0: d7bc bdbc ff98 3abd d289 003c b660 c93a
-0.02944099 -0.031244276 -0.042043425 -0.046590127 -0.014322627 0.03776634 0.016665263 -0.017177107
-0.020826902 -0.0122509645 -0.028152034 0.017607505 -0.020097386 -0.013510351 0.007772774 0.012420522
-0.032594234 0.011605386 0.0018179901 0.068997376 0.008039699 0.0387086 -0.0006172192 -0.03163123
0.020403687 0.08313295 0.036712866 -0.044185635 -0.03144297 -0.044892956 0.040849987 -0.004732625
0.0028927892 -0.024058154 -0.01923991 -0.020145088 0.01288744 0.018256895 0.04063146 0.03925412
-0.0068420167 0.0065116636 0.00052485697 -0.008212507 -0.032334495 0.001798713 0.028498286 0.05856009
-0.020955646 -0.01575006 0.029078644 -0.017602904 -0.029277492 -0.04703963 0.02488362 0.036606498
0.008565012 0.046416804 0.0002754053 -0.02688832 0.01968159 0.012126042 -0.0032588264 0.03334534
0.030933745 -0.02591197 0.00025880107 0.010619732 -0.011802409 0.0053630304 -0.04366889 0.017905008
0.037874762 -0.032567292 -0.027923161 -0.0122212 0.018106677 0.010917298 0.014937286 0.030521752
0.025725694 -0.00357142 0.01463419 -0.0041179564 -0.019769836 0.007678725 0.0019705931 -0.027826978
-0.0065613384 -0.0130664185 0.036572944 0.03063683 0.023222476 0.006418295 0.007454531 -0.036629856
-0.033387166 0.007954443 -0.033893622 0.01191493 -0.0011941098 -0.0083723245 -0.012291309 -0.024986418
-0.03752588 0.053218618 -0.008214067 0.008769332 0.017563751 0.0026501052 0.04250269 0.00433769
-0.029736014 0.022742616 -0.026414275 -0.03001507 -0.013471998 0.009893078 0.04290944 -0.020944774
0.0076194177 0.0052844123 0.0031140374 0.004838654 0.0011623566 -0.0033998932 -0.0043047075 -0.048353355
-0.05912396 0.0021448948 0.0031588168 -0.008827125 -0.035889804 -0.012954189 -0.063120626 -0.024473017
-0.000695871 -0.02171065 0.017881464 0.02362113 -0.031622544 -0.045756955 0.018235749 -0.009192769
-0.021816717 -0.0466474 0.034955718 0.020177577 0.038297463 0.038679868 0.03521619 -0.0023530575
0.025231572 0.0073255156 0.016248986 -0.013528518 -0.03898868 0.049342353 0.04528798 -0.007855082
-0.019129405 0.02062288 0.05341226 0.00549823 0.0055927974 -0.04510974 -0.030767456 -0.03219741
-0.045438495 0.065573536 0.006964326 0.00083457504 0.0031029128 -0.013406123 0.014706239 -0.01950206
-0.00058323797 -0.0072708344 -0.003474829 -0.022106618 -0.013524407 -0.025151053 -0.020077012 -0.0055356864
0.005457748 0.018396406 -0.011894842 -0.030928334 0.027454114 -0.009722115 0.018381221 0.033236235
0.011392558 -0.020273898 0.029540705 -0.016198935 -0.03704654 0.0032144415 -0.021998368 0.029355265
-0.0043834527 -0.008273203 -0.0023455299 -0.015712718 -0.042015266 0.018384643 -0.01235205 -0.02754162
-0.0099510625 -0.024956718 0.024879115 -0.017362524 -0.02403183 -0.03723153 0.019004624 -0.01022312
-0.0054306295 -0.010716478 -0.031414386 -0.026873045 -0.024884436 -0.030185629 0.029523749 0.026538985
0.020172978 -0.0029634768 -0.033891197 -0.00878186 -0.030970499 -0.022055663 -0.02329776 -0.005246486
-0.007119791 -0.031548463 -0.003551653 -0.018078031 -0.025819633 -0.00037013154 -0.007010342 -0.023749437
0.0055529014 -0.03207016 -0.04385633 -0.03722803 0.01886994 -0.04409217 -0.018043322 0.0058771074
-0.00032579867 0.030916203 -0.015865555 -0.04512759 -0.023161335 -0.045556065 0.007845359 0.0015363905

bias f4 [64]
00000000: da2e 4fbd 4819 59bd 1225 61bd 87f7 bdbd
00000010: b84c 7bbd 2546 0d3b 79f4 98bd a862 8ebd
00000020: 5f5d b63c add3 73bd f227 24bd a3f4 7bbd
00000030: 2e89 6bbc efb0 0bbd 92cb 93bc 0572 82bc
00000040: f003 71bd 4d07 16bb 3fcd bebd da7f bbbd
00000050: 8b7b 1dbd 96d6 ebbd aeb8 3fbc f213 3abd
00000060: 78e0 a2bd 0e9a ecbd f5b3 3bbd 51b8 b6bd
00000070: 1ecb 2bbd 4116 49bd b003 57bd 5e44 e03b
00000080: e358 9abb a884 8ebc cc36 c8bc c414 53ba
00000090: 1a09 81bd b9aa bb3c 315f 203d c271 efb9
000000a0: dcbd b0bd fff5 bebd 5aad 90bd 65f3 abbd
000000b0: 2fe8 a2bc 731e 933c 7c8a b7bc 7d0c 44bd
000000c0: 2ec9 11bd b18b 27bd 82b3 143c cce1 c5bd
000000d0: 7c67 c4bd 4e58 9abc 4a52 833b b553 f6bd
000000e0: a0b9 70bd 8e96 ec3b 7cf3 18bd b9de 91bd
000000f0: 4297 48bd e1a6 33bd 1e3c 033d 2f8a 3b3a
-0.05058179 -0.053002626 -0.054966994 -0.09275728 -0.06135246 0.0021556702 -0.074685045 -0.06952411
0.02226132 -0.05952804 -0.040077157 -0.0615126 -0.014375968 -0.034104284 -0.018041406 -0.01592351
-0.058841646 -0.0022892535 -0.09316491 -0.09155245 -0.038447898 -0.115155384 -0.011701746 -0.045429178
-0.0795297 -0.11552821 -0.045825917 -0.08921874 -0.041941755 -0.04909349 -0.05249375 0.0068440875
-0.004710303 -0.01739724 -0.024440192 -0.00080521055 -0.06300564 0.022908555 0.03915328 -0.00045670388
-0.08629963 -0.09324264 -0.07064314 -0.08396033 -0.019886104 0.017958855 -0.022404902 -0.047863472
-0.03559225 -0.040904704 0.009076001 -0.09662208 -0.095900506 -0.018840935 0.0040076124 -0.120276846
-0.058770776 0.007220096 -0.03734158 -0.07122559 -0.048972376 -0.04386032 0.032039754 0.0007154075

weight f4 [64, 1024]
00000000: 60a9 f83a 9a2b e5bc d3cb 143b 8149 b63c
00000010: 7c49 973c 2748 663b 8373 cc3b 2f41 8bbc
00000020: 3e0f 083d d6e5 ad3c b333 563c 6196 c83c
00000030: 09ed bdbc 42fd e4bc 3155 41bc 75b9 a5ba
00000040: 7557 eebc 4bbe abbc a369 8fbc ac98 d43c
00000050: 6d19 9a3a 0970 9b3b e3f3 2c3c c5ac 8a3c
00000060: 0e23 a73b cd60 893c ac1e bbbc 3ecc 29bc
00000070: 20e7 26bd 29fe b6bc 1b5b 273d 1875 2f3d
00000080: 6e48 4e3c c256 88bd e0de fbbb fb89 26bc
00000090: ffba b1bc 1c88 333b 8a83 f5bc a4fa 57bc
000000a0: 4293 e03c db17 e43c 3ce3 2b3d 37c1 1c3d
000000b0: 9495 e7bc 8ed5 0ebc 1417 ca3b e081 683d
000000c0: a734 05bc 96fc 303c 3555 973b 6741 26bd
000000d0: 75fa 5e3d 3a1c cd3c f24e 853c 2adf 573d
000000e0: aae1 4abc 123d 613d 5c78 a93c 9207 173d
000000f0: f3bd d23c b435 6bbb 30ce a0bc 0804 a4ba
00000100: e6e2 843b 9143 4abc 716a 643c 87c7 043c
00000110: f8d6 343d bbfa 0e3c bd80 9b3c b596 15bd
00000120: d564 bfbc ce4a b6bc 5e20 153c 95df dcbb
00000130: 56f5 303d 191b 3abb 7005 9b3c 7e87 c13b
00000140: bda5 64bb 09c2 133d c763 ec3c ef68 35b9
00000150: 32ca babc 2a22 49bb 250d c1bc 9ce8 d33c
00000160: e444 4dba 2e03 50b6 ab09 cebb b371 2abc
00000170: ee1e 123c 778f cabc dc44 dbba 5b7d 08bd
00000180: b335 2c3d e7b0 1bbc f014 99bc bd1d 46bc
00000190: b39f f83c b578 7d3a 26f3 6bbc 2fa3 da3b
000001a0: f564 f4bc e2ef a1bc 1668 db3c 010d 3ebc
000001b0: 3119 5e3c 7c30 c23b 2336 553c 2825 9c3c
000001c0: 506e 8ebc b4bf 3a3c 5ae5 b2bc 9c48 8b3c
000001d0: 74b1 023d a637 03bd 3626 d4bb 1767 2b3c
000001e0: 4387 bf3c 4b1f efbc 9efc 2839 c1c1 51bc
000001f0: 906d 9cbc 5dd9 0abb 976d 193c 4700 b93c
00000200: 18e6 be3c c660 873c 14da cbbc 0c67 003d
00000210: 4628 9abc ffad 56bc b636 eabc bcb3 f03c
00000220: e14a 0e3d 36d1 873c cc9a a4bc e66e 0f3c
00000230: 87fd 95bc 3930 8ebc 3393 4abc 710c afbb
00000240: c058 ccbc 6036 5fb9 fcd9 0dbd 9482 893c
00000250: 2721 96bc 3530 1dbc 3e05 fbbb 936b 173c
00000260: 9dd4 6b3a c6fa ce3c 3e8a d53c b46e 153d
00000270: 6647 f1bc a123 fabc 3cbf 093d 5fc6 0ebc
00000280: 8aca e83c 4ef5 f53b ea18 0ebc 1c61 c53b
00000290: 8028 0fbd 6c5c d5bc 3917 d5bb e62f 0dbd
000002a0: d182 823c f691 b03c 5009 ac3c de55 64bc
000002b0: e54a 50bc ed26 d03b a424 143d d56e ce3b
000002c0: e328 993c e3e3 493c 70dc 5e3c c86c 3c3b
000002d0: 84c4 b3bb d4a3 d63c 50c4 d43c 69ca b2bc
000002e0: 3cc2 853b 08b2 63bd 6ed5 c3bc 8870 7a3c
000002f0: e581 d23c 7530 98bc fc6c 0dbb d540 0cbd
00000300: 210f 163c bfab f8bb 7deb 6a3d 6334 093d
00000310: 0b2a ac3c 8814 1abd dda1 b0bc db77 9bbc
00000320: 8cc2 10bd be26 ea3c 33b8 1b3d a8c1 11bb
00000330: 53c0 75bc 8493 11bc 77c7 85bb 0433 2a3d
00000340: ff81 80bc bfd9 afbc 1645 2a3d d681 0ebc
00000350: 4a60 2d3d dba3 133d 28ef 9c3c 957b 5bbb
00000360: 1f99 963c bb0b 293c 9482 c03c 1792 31bc
00000370: 0e4c 8ebb c086 99bc f4fd c83c a0e1 91bc
00000380: 2941 4c3b e84e f1bc a78b 48bd 1b76 3cbd
00000390: a96e 7c3c 0648 0e3d 0d4e 3d3c 6220 82bc
000003a0: 48e2 1e3c 12e0 64bc f58f a93c 61ad e8bc
000003b0: 7181 8cb9 eeed 9abc 4704 59bc 99bd 48bb
000003c0: 0a71 063d 850c c2bc d9f2 5f3b 1463 6ab9
000003d0: 59e5 17bd 7dab 9dbb 22da 513c 84c5 a0bb
000003e0: f0c8 a8bc 4339 37bb 8200 843a 5f59 163d
000003f0: 791f a73c fb4f 31bb e8df 88bb 90bc b8bb
0.0018971376 -0.027974892 0.0022704497 0.022251846 0.018467657 0.003513822 0.006239356 -0.016998855
0.03321766 0.021227758 0.0130738495 0.024485769 -0.023184316 -0.027952794 -0.011800096 -0.0012643771
-0.029094437 -0.020964762 -0.017506426 0.025951706 0.0011756845 0.0047435802 0.010556194 0.016928086
0.0051006144 0.016769791 -0.022841774 -0.010363637 -0.04074776 -0.02233799 0.04085837 0.04283628
0.012590511 -0.06657173 -0.007686481 -0.010164733 -0.021695612 0.002739436 -0.02996995 -0.013182316
0.027413968 0.027843406 0.041964754 0.0382702 -0.028269567 -0.008717908 0.006167302 0.056764483
-0.008130229 0.010802409 0.0046183118 -0.040589716 0.054438073 0.025037874 0.016272996 0.05270306
-0.012382904 0.05498988 0.020687275 0.036872454 0.02572534 -0.0035890164 -0.019629568 -0.0012513408
0.0040553687 -0.012345211 0.013941393 0.008104212 0.044150323 0.008726771 0.018982286 -0.03652068
-0.02336351 -0.022252467 0.009101955 -0.0067405202 0.04320272 -0.00283975 0.018923491 0.0059060445
-0.0034888827 0.03607372 0.028856171 -0.00017300596 -0.022801492 -0.003069053 -0.023565838 0.025867753
-0.0007830395 -3.0996266e-06 -0.0062877736 -0.010403085 0.008918507 -0.024726612 -0.0016728896 -0.033322673
0.0420434 -0.009502626 -0.018686742 -0.012092051 0.030349588 0.0009669171 -0.014401233 0.006672285
-0.029833296 -0.019767705 0.02678303 -0.01159978 0.013555811 0.00592619 0.0130133955 0.019060686
-0.017386585 0.011398245 -0.021837879 0.017002396 0.031907514 -0.032035492 -0.0064742817 0.01046159
0.023379928 -0.029189726 0.00016115836 -0.012802542 -0.019095212 -0.0021186688 0.009364507 0.02258314
0.023303077 0.016525637 -0.024884261 0.031348273 -0.018818032 -0.013103007 -0.028590541 0.029382579
0.03473938 0.016579252 -0.020093344 0.008754468 -0.018309368 -0.017356979 -0.012364197 -0.0053420593
-0.024944663 -0.00021287194 -0.034631714 0.016785897 -0.018326355 -0.009594013 -0.007660537 0.009241956
0.00089962204 0.025266062 0.026066896 0.036482528 -0.02945299 -0.030534567 0.03362964 -0.008714288
0.02841689 0.0075060492 -0.008672932 0.006023539 -0.034950733 -0.026045047 -0.0065030125 -0.034469508
0.015931519 0.021553975 0.021000534 -0.013936488 -0.012713169 0.0063522966 0.036167756 0.0062998333
0.018696254 0.012322399 0.013602361 0.0028751362 -0.005486073 0.026201166 0.025972515 -0.021825032
0.0040819924 -0.055589706 -0.023905482 0.015285619 0.025696704 -0.018577794 -0.0021579852 -0.034241516
0.00915888 -0.007588833 0.057353485 0.033497225 0.021016141 -0.037617236 -0.021561557 -0.01897805
-0.035341784 0.028582927 0.038017463 -0.0022240672 -0.014999467 -0.008885268 -0.004082616 0.04155256
-0.015686987 -0.021466134 0.04156979 -0.0086979475 0.042328157 0.036044937 0.019157007 -0.0033490409
0.01838356 0.010317738 0.023499765 -0.010838053 -0.0043425625 -0.018741012 0.024535157 -0.017807782
0.0031166768 -0.02945657 -0.048961308 -0.04601107 0.015407243 0.034736656 0.011554253 -0.015884582
0.009697504 -0.013969438 0.020698527 -0.028402986 -0.00026799322 -0.018912282 -0.013245649 -0.0030630587
0.032822646 -0.02368761 0.0034171848 -0.00022352888 -0.037083957 -0.0048117028 0.012808355 -0.004906358
-0.020603627 -0.0027957715 0.0010070952 0.036706325 0.02040075 -0.0027055729 -0.0041770823 -0.005637713

bias f4 [64]
00000000: a5dd 0cbd cd23 7bbc c943 05bb b429 4abd
00000010: 3f17 07bc a337 c3bb 3e74 5a3c 8123 073c
00000020: 8ddf 71bc 9ab7 88bc bb1e c03b 901e f8bc
00000030: 9089 af3c a941 49bc f70e fabb c011 aa3b
00000040: 92e9 a83c 651e b23c 19bc 8a3c bb50 6f3c
00000050: 593a d53c 6b0c 82bc 992e f33a 7134 a4bc
00000060: 43cf e2bc 4fd6 44bc 4b48 233d d925 173c
00000070: ef8e 47bd c448 aabb 5267 38bd 917f 38bd
00000080: f1dc 163d cbf8 e73c 98ce 853d a8a2 3e3c
00000090: 7d11 5e3c 774d 2cbd 649d 7b3c 6260 12bb
000000a0: 51d4 b43a 743a 883c 78bc 08bd 88d6 63bd
000000b0: bdd5 a8bc c18e 3c3d 6441 92bc c8c7 8f3d
000000c0: 40fe cabb a079 b6bb 2272 00bd fe8a 5ebc
000000d0: c124 9cbc b77a 8a3a ca86 55bd 9581 87bc
000000e0: fed1 153d 6df7 50bc bbe1 12bd b179 3cbd
000000f0: fd0c 253c 4eba 113d 75b5 8e3c fd52 123d
-0.034391064 -0.01532836 -0.0020334593 -0.049356177 -0.008245288 -0.00595756 0.013333378 0.008248211
-0.014762771 -0.01668911 0.0058630384 -0.03028801 0.0214279 -0.012283721 -0.0076311785 0.0051901042
0.020619188 0.021743009 0.016935395 0.01460665 0.026028799 -0.015875062 0.0018553316 -0.020044537
-0.02768672 -0.012013986 0.039863866 0.009225332 -0.048720296 -0.0051966626 -0.04502041 -0.04504353
0.0368318 0.028316876 0.06533545 0.01163546 0.013553974 -0.042066064 0.015357349 -0.002233528
0.0013796185 0.016629435 -0.033382863 -0.055624515 -0.02060973 0.04603458 -0.017853446 0.07020527
-0.0061948597 -0.005568698 -0.031358846 -0.013582943 -0.019060494 0.0010565136 -0.052130498 -0.016541282
0.036577217 -0.012754303 -0.035859805 -0.04601449 0.010073897 0.035578065 0.01742051 0.035723675

weight f4 [10, 64]
00000000: 7467 e7bd 2746 613e 9db8 3cbd c0c6 0b3c
00000010: c944 25be 035b 523e 4ae9 40be eba1 c9bc
00000020: 04a3 c6bd 19af aa3e 3f67 a8bd 7093 8d3e
00000030: 95a2 11be a92d 0fbe 6319 0d3e dc78 9cbc
00000040: c9b7 f23d 2851 4d3e 353d 833d 39af 15be
00000050: d732 1f3e 16a5 c03d dd45 00be ef6c 2b3e
00000060: 023c 143e b674 de3c cf41 20be ec7d 113e
00000070: d6bf 2ebc ef09 213e 6911 493e a62c 083e
00000080: fc04 84be e41a 853d c07d 42be a090 6dbd
00000090: d308 e53c c127 6b3e c326 183e d055 393e
000000a0: f428 a5bd aac9 20be 7f27 bdbd 08f0 0f3e
000000b0: b1f7 89bd 7927 d0bd a04a 41be 154d e2bd
000000c0: bb35 ccbd e565 6e3e 1817 debc a1fb 3a3e
000000d0: 4e3f 253e ebfd 103e f353 9bbc 4c15 053d
000000e0: 7624 263e 94b3 ac3d cd0b 803d 0501 ee3d
000000f0: 8d86 70bd 19ef 9a3c 44d7 a6bc bee8 39bd
00000100: 1108 0f3e bc99 853e b788 f8bc 28e6 493e
00000110: c4ce ca3c 8863 80be bac7 003c 9a5a 073e
00000120: 7507 663e ba79 e93d b7b7 dabd a782 b3bd
00000130: 17d2 153e 7af4 143e f877 2abe 1c37 143d
00000140: ab10 41be 8c00 a1be 089f 9c3e 790e 4c3e
00000150: fbc1 56be 72b6 5d3e 7e0c 1a3e d90f 813e
00000160: d94e 04be 94fe 6dbe 0d5a 033e 8bff be3d
00000170: 9119 3fbe bc83 93be 3fcf 883e 51e0 93bd
00000180: b8bf 893e c0a1 383d 2643 c2bd 4d37 463d
00000190: c9e5 9a3e f165 5cbe 8827 b5bc a8bc ab3d
000001a0: 0df8 f3bd 6816 acbe fc01 803e 5fd8 263e
000001b0: a845 b8bd d486 683e 5b84 cb3c 2baa 07be
000001c0: bf9a 023e dd00 e63d 4702 febd 020a e5bc
000001d0: 0dc2 f43d 594e ed3d 5df6 8dbe a804 573e
000001e0: 47a2 f8bb 73f4 423d fc1d f23d 6169 623c
000001f0: c5b6 983e b864 c23d adcb cc3d 03bd 563e
00000200: 817a 033e b5fe b7bd a9a3 b4bd 249f 1c3e
00000210: 1030 863d c476 603e 785a 5dbe 61d4 80be
00000220: 841e 153e 66be 603e 084b 94bb 35b8 c93a
00000230: d88b cdbd 13a4 353e c319 7abe 1c08 1d3d
00000240: f6c4 a5bd 3dd8 983e 51f2 5cbe 5be2 573d
00000250: 14b3 da3d 9d80 b0bc 5782 79bd 3e0d 22be
00000260: 3c44 debd 0ad5 8a3e a704 8e3b cda4 35be
00000270: b0fa 383d 20a3 a43c d368 59be 41aa a3bd
00000280: 8160 28be df49 8f3d 2692 5dbd 2e6d b1bd
00000290: d7bf 26be d5b6 123e 65a5 523b 36cb 0c3e
000002a0: 864d ac3d bef0 383e 1b22 6abd 09e9 92be
000002b0: 6fb7 c9bd 348c 3cbd a51d 3cbe 8e45 793d
000002c0: a118 06bd 7fe9 153e c114 5d3e ee23 753e
000002d0: a730 08bd d360 643e 57a9 25be 86e8 31be
000002e0: 2a71 58be 05df 88bc c599 86bd 07f2 32be
000002f0: 2194 7e3d 48e5 343d acad 18be c713 df3d
00000300: d579 fa3d ef5c 0abe c28a 813d cc44 7bbc
00000310: 0761 13be 5e4a 7cbe 060a 0dbe 0d17 d3bd
00000320: e379 233e 4f2b 3ebe a0cb 0cbe 3e73 4e3c
00000330: b5d1 02be bb6e 6cbd bf8e 17be 1a8e 1ebe
00000340: b72f 6d3e 3d1f 38be eaf9 f5bd e407 31be
00000350: 3044 b0bd 8cc1 fdbd 09aa d2bd a2ac 3bbe
00000360: 4cda e33d 6607 fa3d 8bce 0cbd eba5 b23b
00000370: 05fa 7e3c 73c6 8c3d f5f8 2fbe 2b36 13be
00000380: 21a4 993d da1f 0b3e e7d3 23be d374 7cbd
00000390: 503c 173e 1478 b1bd cf73 1abd 540e e23d
000003a0: 5b82 3dbe efd2 8ebd 1afa c43d 9f90 5bbd
000003b0: e0a3 7f3d eb72 953d e06b 5abd 560a f83d
000003c0: 0e57 00be 806a 14be 96c0 36be cc9f a1bc
000003d0: b2e1 08be 4d01 653d 52a0 3c3d 6d89 68be
000003e0: 3adf 9cbd eaaf ffbd 22c1 be3d 9754 2d3e
000003f0: 21b0 39be 6e19 9b3d 4ac5 b3bd 96ce 8dbd
-0.11299029 0.21999417 -0.0460745 0.008531272 -0.1613952 0.2054253 -0.18838993 -0.024613341
-0.096990615 0.33336714 -0.08222818 0.27651548 -0.14222176 -0.13982262 0.13779216 -0.019100599
0.118514605 0.2005049 0.06408159 -0.14617623 0.15546738 0.09406488 -0.1252665 0.16740774
0.14476016 0.027155261 -0.15650104 0.14208192 -0.010665854 0.15726446 0.19635548 0.13298282
-0.25785053 0.064992696 -0.18993282 -0.057999253 0.02795831 0.22964384 0.14858536 0.18099141
-0.08064452 -0.15701929 -0.09236049 0.14056408 -0.067366965 -0.10163779 -0.18876123 -0.110498585
-0.09971186 0.23281057 -0.027110621 0.18260051 0.1613743 0.14159362 -0.018960929 0.032491013
0.16224846 0.08432689 0.06252251 0.11621288 -0.058722068 0.018912839 -0.020366319 -0.045387976
0.13967921 0.26093853 -0.030338628 0.19716704 0.024756797 -0.25075936 0.0078601185 0.13218156
0.22463782 0.114001706 -0.10679572 -0.08765154 0.14630924 0.14546385 -0.16647327 0.03618537
-0.18854015 -0.3144573 0.3059008 0.19927396 -0.20972435 0.21651629 0.15043828 0.25207403
-0.12920703 -0.23241645 0.1282732 0.09326085 -0.18662097 -0.28811443 0.26720616 -0.07220519
0.26904082 0.04507613 -0.09485464 0.048392583 0.30253437 -0.21523263 -0.022113577 0.08385593
-0.11912546 -0.33610845 0.25001514 0.16293477 -0.08997661 0.22707683 0.024843385 -0.13248508
0.12754343 0.112306334 -0.12402778 -0.027958874 0.11951075 0.11587209 -0.27727023 0.2099787
-0.0075877043 0.047596406 0.11822125 0.01381907 0.29826942 0.09491867 0.099997856 0.2097054
0.128397 -0.089841284 -0.08820278 0.15295082 0.06552136 0.21920305 -0.21616542 -0.25162032
0.14562422 0.21947631 -0.004525546 0.0015389981 -0.10036439 0.1773837 -0.2442389 0.03833781
-0.08094208 0.29852477 -0.21576811 0.052706104 0.10678688 -0.021545703 -0.060915317 -0.15825364
-0.108528584 0.2711566 0.0043340507 -0.17738648 0.04516095 0.020097315 -0.21231394 -0.07991458
-0.16443063 0.06996512 -0.054094456 -0.086634025 -0.16284119 0.14327557 0.003214204 0.13749394
0.08413224 0.18060586 -0.05716143 -0.28693417 -0.0984944 -0.046032146 -0.18370683 0.06085735
-0.03273833 0.14639853 0.21589948 0.23939487 -0.033249523 0.2230256 -0.1617788 -0.17373857
-0.21136919 -0.016707906 -0.06572298 -0.17475139 0.062152985 0.044163972 -0.1491 0.10892444
0.12230269 -0.13512014 0.06325294 -0.015336227 -0.14392482 -0.24637744 -0.13773355 -0.10307131
0.15964465 -0.18571208 -0.13749552 0.012600718 -0.1277531 -0.05772279 -0.14800547 -0.15483895
0.23162733 -0.17980666 -0.12010558 -0.17288166 -0.08606756 -0.12390432 -0.10286338 -0.18327573
0.11125621 0.122084424 -0.034376662 0.005451908 0.015562539 0.06873789 -0.17184813 -0.14376132
0.07502008 0.13586369 -0.15998803 -0.06163485 0.14769101 -0.08665481 -0.0377081 0.11037889
-0.18506758 -0.06973826 0.096180156 -0.05360472 0.062412143 0.072973095 -0.053325534 0.121113464
-0.12533209 -0.14493752 -0.17846903 -0.019729517 -0.13367346 0.055909444 0.04605133 -0.22708674
-0.076597646 -0.12484725 0.09314181 0.169268 -0.18133594 0.0757321 -0.08777864 -0.06924169

bias f4 [10]
00000000: a7a9 46be 63ec 43bd 2f07 b8ba abe7 bdbc
00000010: 9b10 2c3e 1d50 ecbc 1d23 753d 9a75 39bd
00000020: cfd1 aabc c0a5 bc3b
-0.19400655 -0.047832858 -0.0014040227 -0.023181757 0.1680321 -0.028846795 0.05984794 -0.04527817
-0.020851998 0.0057570636
