models/gpu_train_model10.pth (torch, 587335 bytes, 10 tensors)

weight f4 [32, 3, 5, 5]
000000 9b 4e 76 3d 18 99 3a 3e 0b 1f 3a 3d d9 d3 1b bd
       0.060133558 0.18222463 0.04543976 -0.03804383
000010 41 80 df bd c4 c9 8d bb d1 c0 de 3d fc 42 13 3e
       -0.10913134 -0.004327031 0.108766206 0.14381021
000020 01 16 ab bd e9 3c 40 bd 30 62 ff 3c 55 57 02 3e
       -0.08353806 -0.04693309 0.03117475 0.12728627
000030 bd d3 5a 37 c8 c9 79 bd 8c bd 9b bc 5c a0 7a 3d
       1.3043112e-05 -0.06098345 -0.019011281 0.061188087
000040 09 76 53 bd ca 8f 9c bd a2 42 e1 bc 40 a3 27 3e
       -0.05162624 -0.07644613 -0.027497593 0.16370869
000050 10 33 d9 bd 3f de a8 bd 2b e3 c9 3d 90 d1 7b 3d
       -0.106054425 -0.08245515 0.09857782 0.06147915
000060 89 b7 15 3e 97 87 d1 3d f0 f4 00 3e 5f b9 89 bd
       0.14620794 0.1023094 0.12593436 -0.0672481
000070 66 9a bb 3c 9d 05 b1 bd 0c 9f fb 3d 6a 13 23 bc
       0.022900771 -0.08643649 0.12286195 -0.009953359
000080 9c 35 d9 3c 3f ea f4 bd 87 98 2f ba 75 f3 01 3d
       0.02651482 -0.119587414 -0.00066984486 0.03172632
000090 2a 6d 27 3d e9 e8 ce 3c ba db 75 bd a5 b5 96 bd
       0.04087559 0.025257545 -0.060024 -0.07358865
0000a0 d5 11 a7 bd 5e b8 e6 bd 55 01 32 3c 23 15 01 3d
       -0.08157698 -0.11265634 0.010864575 0.0315143
0000b0 45 ca 24 3e 9c 3a 89 bd 7f 10 22 3b c9 a4 59 3d
       0.16092785 -0.06700632 0.002472907 0.053135667
0000c0 5b de 9e 3c de 42 c6 3d 7e d3 82 3d 0e 3d cc 3d
       0.019393137 0.09680723 0.06387995 0.09972583
0000d0 9f d7 10 be b3 4c 39 be 81 36 c0 bd f6 b3 95 bd
       -0.14144753 -0.18095665 -0.09385396 -0.073097154
0000e0 f0 b2 34 3c f6 a6 24 bd b6 3d 41 be 70 39 1a be
       0.01102899 -0.04019829 -0.18871197 -0.15060973
0000f0 ab 84 9d bd 83 f0 fa bb ef 55 7d bd 94 46 33 bd
       -0.0769132 -0.0076580658 -0.06184953 -0.04376848
000100 50 20 53 3c 58 e7 b6 bd a3 d3 4a 3c 68 3e 11 be
       0.012886122 -0.08930844 0.01237956 -0.14183962
000110 ab 3a 8b 3d 0c f1 3b 3d f1 23 15 be 0e db 75 3d
       0.067982994 0.045884177 -0.14564492 0.06002336
000120 d6 fc c9 bc 69 7b 94 bd b5 cc 06 38 b7 0b 8e 3d
       -0.024656694 -0.07250101 3.2138738e-05 0.06935828
000130 29 64 66 bd 78 e5 c2 bd 0f e9 ae bb e5 15 93 bd
       -0.056247864 -0.09516424 -0.0053378413 -0.071819104
000140 9a 50 03 be a5 82 1d be a3 a1 4e be 33 93 a9 3c
       -0.12823716 -0.15381868 -0.20178847 0.020700073
000150 88 b4 14 3e 2e 89 3f be 37 74 01 be b7 98 d2 bd
       0.14521992 -0.18704674 -0.12641989 -0.10283034
000160 f2 86 20 3e 70 c2 c2 3d cb b9 7c 3c cd 81 17 be
       0.15676478 0.09509742 0.015425156 -0.14795609
000170 c9 05 d3 3c 6b 39 97 3d db c1 03 3e ba be 66 3d
       0.025759595 0.073839985 0.12866919 0.056334235
000180 e0 01 33 be d7 5c 9a 3d e4 7e 05 3e cc 30 82 bc
       -0.17481184 0.07537239 0.13036686 -0.015892409
000190 90 6d f1 3d 00 9d ef bd c9 9d 18 bd 51 b7 fb 3c
       0.117884755 -0.11699867 -0.03725985 0.03072706
0001a0 7f 7f 27 3e 02 c9 a4 bd 74 3e a8 3b 4a d1 19 be
       0.1635723 -0.08046152 0.005134398 -0.15021244
0001b0 5e c3 f2 3d 35 15 23 3e e2 93 d2 bd ed 3b 8a 3d
       0.118536696 0.15926059 -0.10282113 0.06749711
0001c0 16 50 23 bd 34 69 f5 3d 1a b3 e1 3d 04 f0 5c 3d
       -0.039871298 0.119829565 0.11020489 0.053939834
0001d0 af b8 fa bd 32 a1 27 3e 52 93 29 3e ef 24 ea 3d
       -0.12242257 0.16370085 0.16560104 0.11432826
0001e0 c1 14 9b 3c e8 3c a4 3c 16 86 0b 3e f1 75 57 3d
       0.018930795 0.020048574 0.13625368 0.052602712
0001f0 77 45 9e 3d 89 8b b7 3d 21 f3 59 bd e4 c9 3f be
       0.07728093 0.08962161 -0.05321038 -0.18729359
000200 dc f7 5d bd 9f 5c 08 bd 60 01 38 bd b7 11 19 bd
       -0.054191455 -0.033291455 -0.044923186 -0.03737041
000210 24 bf 44 bd 6a 4e 64 3d 4d 97 44 3d 2e f5 11 be
       -0.04803385 0.055738844 0.047995854 -0.14253685
000220 55 42 ed 3c 10 bb 92 3d fb d4 8e 3d a4 d8 f8 bc
       0.028962294 0.071645856 0.069742166 -0.03037674
000230 dc b5 23 be 31 36 f3 bd be 81 0f 3d ea e5 24 bd
       -0.15987343 -0.118755706 0.03503584 -0.040258326
000240 fb f7 6b 3c d1 d7 05 be b7 80 8d bc 2a b7 66 bc
       0.014402385 -0.13070609 -0.01727329 -0.014081756
000250 cc 8a fb 3d 7a aa 18 3d 58 5f a4 bd 1d 75 01 3e
       0.12282333 0.037271954 -0.08025998 0.12642331
000260 c5 8b b0 3d 1b cf 05 3d 8d 48 43 3d 66 1c 10 be
       0.08620409 0.032668214 0.04767661 -0.14073333
000270 35 c8 2d 3e f8 2e 26 3e 7e 51 a9 bd 65 d5 a0 bc
       0.16970904 0.16228855 -0.082674965 -0.019633004
000280 e6 aa b9 bd c3 57 e1 3d 30 4e 28 3e f8 1b 95 3c
       -0.090657994 0.11003067 0.16436076 0.018201813
000290 75 82 08 3e 42 db b5 3d d2 d6 2f 3e eb bb e6 38
       0.13331015 0.08879711 0.17171791 0.00011002257
0002a0 fe 22 5c 3d 81 52 43 3e ce 4f c8 3d fd 9b ad 3d
       0.05374431 0.19074441 0.097808465 0.08477018
0002b0 57 bf e7 3d 42 da a6 3b cf 4b 20 3e 74 d5 1c bd
       0.11315792 0.0050919363 0.15653919 -0.038289502
0002c0 d2 07 f4 3c bd 31 46 bd c9 98 8c bd 63 1b 03 3e
       0.029788885 -0.048387278 -0.06865079 0.12803416
0002d0 d9 25 32 bd 5d 7b 89 bc c5 54 a7 bc a8 68 98 3d
       -0.043493126 -0.016782457 -0.020426163 0.074418366
0002e0 dd b1 66 3d ec 8c 08 be 62 ae 09 bc 1f de a9 b9
       0.056321967 -0.13335007 -0.0084033925 -0.00032399685
0002f0 b7 4d fc bd 44 f7 4a 3d cf 90 9c bd f1 47 a2 bd
       -0.123195104 0.049552217 -0.076448075 -0.07923878
000300 bb 3a dc bd 02 ca 59 bb 31 98 08 3e b5 f9 ee 3a
       -0.107533894 -0.0033231978 0.13339306 0.0018232377
000310 13 b4 56 3a 60 3b 23 3d 16 1e 97 3d b5 f2 61 bc
       0.00081902853 0.039851546 0.07378785 -0.013790776
000320 70 01 78 bd 46 c5 ad bd 00 ee 4a bd 11 aa 24 3d
       -0.060548246 -0.084848925 -0.04954338 0.04020125
000330 b4 f6 00 be 33 56 45 be 98 25 f3 3b e2 7f f7 bd
       -0.1259411 -0.19271164 0.007420253 -0.120849386
000340 24 66 1b be 6c f7 07 3c 89 2a 6e be b9 61 a7 bc
       -0.15175682 0.008298736 -0.23258413 -0.02043234
000350 83 f6 8c bd 2f ea c4 bd d9 ff 4b 3d 16 18 a5 bd
       -0.06882956 -0.096149795 0.049804542 -0.08061235
000360 77 fe 91 bd e5 5d b2 bd 89 f9 9e bb 37 77 20 bc
       -0.071286134 -0.08709315 -0.0048515243 -0.009794048
000370 9b 4b 46 be b5 bb cb 3c c8 f9 1b be 23 c0 4a 3d
       -0.19364779 0.02486978 -0.15232003 0.049499642
000380 ee 7b 0f 3c 09 1f af 3d 62 c3 7a bd 39 5e 85 bd
       0.0087575745 0.08550841 -0.061221488 -0.06512112
000390 d8 5a cd bd ca 7c ce 3d fe 55 59 bd ba ec ac 3d
       -0.10027093 0.100823954 -0.053060524 0.084435895
0003a0 b7 4b 4c bd 98 f6 15 3d e8 0d c4 3d ca eb b3 3d
       -0.049876895 0.036612123 0.09572965 0.087852076
0003b0 e7 e6 0e bd 9a 48 d9 3d 1e a0 1e bd c0 a1 08 3e
       -0.034888174 0.10609551 -0.03872692 0.13342953
0003c0 6f 3c d9 bd ed 87 00 3e b2 7b 8b 3d e9 b2 2f 3e
       -0.1060723 0.12551852 0.068107024 0.17158093
0003d0 83 4a b5 3d 09 65 d4 3c ac cc 82 bd 63 d4 bb 3d
       0.088521026 0.025927084 -0.06386694 0.09171369
0003e0 24 37 bf 3d 55 ae 0b bd 6f 21 c3 bd e9 ec 17 be
       0.09336689 -0.034101803 -0.09527861 -0.14836468
0003f0 af b1 56 3d c8 7d 59 bd 55 7c 8e 3d 5d e8 bb 3d
       0.052415546 -0.05309847 0.06957308 0.09175179

bias f4 [32]
000000 06 cd 77 3d 18 0e 86 3d 4f 1e b6 3c b7 49 2e be
       0.06049826 0.06545657 0.02223125 -0.17020307
000010 91 34 28 bd fe 49 27 3e 45 a7 24 3e 46 39 1c 3e
       -0.041065756 0.1633682 0.16079433 0.15256223
000020 af eb 9f bd e9 e2 42 3d af e4 42 3e 64 ac 85 be
       -0.07808625 0.04757968 0.19032548 -0.26108086
000030 c1 86 8d be cd 99 e6 3d 36 00 f4 bd c4 9f 8c be
       -0.27641872 0.11259804 -0.11914103 -0.27465641
000040 b5 8b 3e be eb a0 2a 3d 9c 6c 5f 3e 55 79 07 be
       -0.18607982 0.04165737 0.21818775 -0.13229878
000050 62 64 c9 bd a1 15 a8 be 2c e7 db bc b7 4c b5 bd
       -0.098335996 -0.32829002 -0.02684363 -0.08852523
000060 43 2c 53 bd 4e 29 9d 3c f9 22 49 bb 76 1e ee bd
       -0.051555883 0.019184735 -0.0030691011 -0.11626904
000070 e0 1b a1 bd 38 62 3b bd 66 4c 66 3d 1a 75 ee 3d
       -0.07866645 -0.045747966 0.056225203 0.11643429

weight f4 [32, 32, 5, 5]
000000 81 a3 8b bc 1f 51 bd 3c 50 91 5d 3c e9 23 bb bb
       -0.017045738 0.02310997 0.013523415 -0.005711068
000010 77 0a fb 3c b0 fd b9 b9 9e 90 b7 bb c4 8f 1e 3d
       0.030644638 -0.00035474962 -0.0056019565 0.038711324
000020 c6 c1 90 3c da 52 59 3d 32 b0 6f 3b 68 1e 10 3d
       0.017670523 0.05305753 0.0036573526 0.035185248
000030 37 9a 5e 3d 21 2a 93 3c 94 8d 67 bb 26 a4 08 3c
       0.05434629 0.017964425 -0.003533219 0.008339917
000040 5e 31 61 3d 81 ad 5d 3d 77 ce 2d 3d a9 0b 55 3c
       0.05497872 0.054120544 0.04243323 0.013003268
000050 d1 74 5e 3c 8a 1a d3 3c cb 51 a4 3c 20 52 6e 3c
       0.013577656 0.02576949 0.020058533 0.014545947
000060 08 18 c2 3c f8 75 0b bb 73 e3 ce bc 7f 8f 5a bb
       0.0236931 -0.0021280032 -0.02525494 -0.003334969
000070 aa d9 fe 3c d9 43 33 3d 75 1e 52 3c 73 25 45 3b
       0.03110965 0.043765876 0.012824644 0.0030082136
000080 9a 79 8e bc 7a 0e 2b 3a 85 bd 68 3d 6e fc 89 bb
       -0.017391969 0.00065252895 0.056821365 -0.004211
000090 51 d5 74 bc 0a 08 60 3c 5f fd 5c 3d c2 b5 65 3d
       -0.014943437 0.013673792 0.05395257 0.05608154
0000a0 d7 15 6a bd 52 c8 14 bd 44 f1 6e 3c 45 a8 b8 bb
       -0.057149734 -0.036323853 0.014583889 -0.0056352937
0000b0 72 be 16 3c cf de 9b bc 93 6c f9 bc 97 21 f6 3c
       0.009200679 -0.019027142 -0.03044728 0.030045314
0000c0 5d f8 ba 3c 63 f6 f5 3c 06 66 c6 3c 4d f7 57 bc
       0.022823507 0.030024713 0.02421857 -0.01318152
0000d0 9e b4 a3 bc 59 53 88 3b d3 1f af bc 72 d1 e1 3c
       -0.019983586 0.0041603264 -0.02137748 0.027565692
0000e0 90 7c 4c bd 0d 06 52 3c 05 e5 12 3d 81 5d e6 bb
       -0.04992348 0.012818825 0.03586294 -0.0070301895
0000f0 19 6f 48 bd ab a1 69 bc c8 02 04 bd d6 00 42 bc
       -0.048934076 -0.014259736 -0.032229215 -0.01184102
000100 15 8a 82 bc 0e 4a b7 bc 43 b3 35 bd c2 9b fb bc
       -0.015934983 -0.02237418 -0.04436041 -0.03071392
000110 2a 7f f1 3c e3 d6 d1 bc 21 d4 dc bc 5e 0e 69 3b
       0.029479582 -0.025615161 -0.02695662 0.0035561542
000120 79 93 88 b9 8a 15 c7 bc fc 5b 8d 3c b4 85 01 bd
       -0.00026049817 -0.024302263 0.017255776 -0.03162165
000130 ce 5a 9c 3c b2 85 ab 3c 71 45 99 3c 45 85 ba 38
       0.019086268 0.020937774 0.01870987 8.8939945e-05
000140 b6 1d c9 3b ab 84 42 3c fa a4 f4 bb ef 7f 14 bc
       0.006137575 0.011872451 -0.007465956 -0.009063705
000150 f3 5f 8a bc 90 66 1c bd 7d b2 7f bb f6 d0 31 bb
       -0.016891455 -0.03818375 -0.00390163 -0.0027132607
000160 a2 7c e1 3c 9b fc d7 3c eb 16 c7 bc 13 05 d4 bc
       0.02752525 0.026365569 -0.02430292 -0.025881326
000170 8a 21 32 bd f2 cb fc bb 00 c1 4f bc 9a 96 b3 bc
       -0.043489017 -0.007714742 -0.012680292 -0.021922398
000180 56 1f 65 bb b9 f7 64 3c 8d b0 d6 3c a6 17 b7 3c
       -0.0034961305 0.013975077 0.026207233 0.022350144
000190 64 ef d8 3c 7a b8 24 3d f3 0a 6b bc f2 24 e4 3c
       0.026481338 0.040214993 -0.014345872 0.027849648
0001a0 40 7c 78 bc 21 a4 14 3c ae 62 08 3d 64 9c 31 3d
       -0.015166342 0.0090723345 0.033297233 0.043362036
0001b0 82 10 02 3c b0 c0 41 3c 33 09 c7 bb 53 72 49 3d
       0.007938506 0.011825725 -0.0060740947 0.049181294
0001c0 4c fc 54 3c 4e 5d 17 bb 3f 7e b6 3c 3e 64 2f 3c
       0.012999605 -0.0023096385 0.022276996 0.010705052
0001d0 d8 37 79 3c 60 40 2e bc 48 6f 2b bd 8a aa 7d bc
       0.015211068 -0.010635465 -0.041854173 -0.015482554
0001e0 41 5d cd bc 09 29 a8 ba 1d 1b 53 bc 04 70 38 bd
       -0.025068881 -0.0012829612 -0.012884882 -0.0450287
0001f0 65 99 3b bc 56 ea 51 3d e4 d3 54 bc ab 97 b0 3c
       -0.011450146 0.05124887 -0.012989972 0.021556696
000200 e7 56 fd 3a f0 b7 a0 3c ae e6 23 3d 0b 38 87 3c
       0.0019328267 0.019618958 0.040014915 0.016506216
000210 95 bf a6 3c 12 86 af 3c a5 80 37 3c 03 1d ff 3c
       0.020355025 0.021426234 0.011200105 0.031141764
000220 c3 63 23 3c 8f 6f 10 3d a4 65 d0 b9 de bf 4f bc
       0.0099725155 0.03526264 -0.0003974858 -0.012680022
000230 2c 76 50 3d 0a 95 f8 3b 49 ae 73 3c 83 40 9d bc
       0.050893947 0.007586126 0.014873096 -0.0191958
000240 d4 65 8f 3c 2f 2a 1f 3d b0 0a e2 3c 6d 67 ba 3c
       0.01750461 0.03885859 0.027592987 0.022754395
000250 a5 8e ca b9 d4 a6 8d 3a fa a1 6f bc 46 39 ba 3c
       -0.0003863472 0.0010807165 -0.014626021 0.022732388
000260 c4 a1 e9 3c 1a 16 80 3d 7c 01 3b 3b a7 a8 ba bc
       0.028519519 0.062542155 0.002853482 -0.022785498
000270 50 f1 30 3d 7a 3f 46 3d 80 5c 81 3d 1d 03 2e 3d
       0.043198884 0.04840038 0.06316471 0.042483438
000280 3f ae df bc 91 92 66 3d a1 43 e7 3c 0d 2b d8 3c
       -0.027304767 0.05629212 0.02823049 0.026387716
000290 4e 0f 6d 3d 15 68 15 bc 11 06 f9 3c e0 25 e7 3c
       0.057875924 -0.009119053 0.0303984 0.028216302
0002a0 73 93 81 3d f1 c1 28 3d 11 e6 93 3c 24 c9 da bc
       0.06326952 0.041200582 0.01805404 -0.02670724
0002b0 48 e0 64 3c db de fd bc ff dd 67 bb 16 d8 30 3b
       0.013969488 -0.030990055 -0.0035380123 0.0026984266
0002c0 85 e4 ad 3c 84 b4 b0 3b 62 2b 04 3d f8 ac f4 3c
       0.02122713 0.005392613 0.032267936 0.029867634
0002d0 4f 9a 1e 3d 66 8f aa 3c 7d 03 67 3d 98 d9 58 3d
       0.03872138 0.02082033 0.05639981 0.05294189
0002e0 05 e2 f6 3c 28 61 2a bb 28 33 eb 3c d3 76 18 3d
       0.030137071 -0.002599785 0.028710917 0.037222695
0002f0 70 62 d4 bb 18 c7 0f 3c 57 1f 19 3d 53 16 68 bb
       -0.006481461 0.008775495 0.037383404 -0.0035413697
000300 27 6e 1a 3b a1 25 7f bc 49 c9 a6 bc 36 65 5d bc
       0.002356419 -0.015572936 -0.020359652 -0.0135129
000310 11 d9 3e 3b db 6a 48 bd d2 96 00 bd fd 9b 37 bd
       0.002912108 -0.04893003 -0.031393833 -0.044826496
000320 82 c7 c6 3a 2f 65 21 bc 7a fb 20 3c f9 dd e5 ba
       0.0015165659 -0.009850784 0.009825582 -0.0017537466
000330 06 d8 95 3c c2 44 be bc 79 15 64 bc bd 14 46 bc
       0.018291485 -0.023226146 -0.013921135 -0.012089905
000340 d4 21 eb 3c 1e ab 11 bc 64 14 cf 3c 81 47 99 3c
       0.028702654 -0.008890895 0.025278278 0.018710854
000350 d1 a5 cd 3b af b5 93 bc 52 a2 16 3d a2 6e bc bb
       0.0062758704 -0.01803097 0.036775894 -0.005750493
000360 44 18 10 3d ad b3 bb 3c 8d e3 80 3c 3a 44 c5 3b
       0.03517939 0.022912825 0.015733505 0.006020096
000370 16 bf 2e bc 4a 71 1c bd ae 93 a6 3b 2e 83 96 bb
       -0.010665676 -0.03819398 0.0050835228 -0.0045932746
000380 e9 99 24 bd 0c 2c af 3c 38 82 b9 bc a0 b2 58 bc
       -0.040185843 0.021383308 -0.022645101 -0.013226181
000390 1c ef 95 bc d5 27 a7 bc f0 3f 36 3a 3e fc 24 bd
       -0.018302493 -0.020404736 0.00069522765 -0.04027962
0003a0 db 2c 89 bc 2a 02 0b bd 3f 88 9e bc f1 26 13 ba
       -0.016745022 -0.03393761 -0.019352077 -0.00056134077
0003b0 17 81 4b bd 0c 49 4e bd 67 95 4f 3c e8 92 8c bc
       -0.049683657 -0.05036263 0.012669898 -0.017159894
0003c0 09 92 82 3c 3a e4 d7 bc b0 04 90 bc 16 3e 9d 3c
       0.015938776 -0.026353944 -0.01758036 0.019194644
0003d0 ee c6 8e bb 2e 75 d8 bc 53 f4 31 bd 5f 7d 7e bc
       -0.0043572104 -0.026423063 -0.043445896 -0.0155328205
0003e0 71 ea c4 3c 02 db f0 bc 95 25 1d 3d 8f 4f 10 3c
       0.024037572 -0.029401306 0.03836592 0.008808031
0003f0 be 55 20 3b 3c 0d 29 bc 1e cd 3d 3d 92 75 b5 3b
       0.0024465169 -0.010318097 0.046338193 0.005537697

bias f4 [32]
000000 61 83 e6 3c 48 fd ca bd 4c 23 77 3c 3a 7b 79 bc
       0.028138818 -0.09911591 0.015084099 -0.015227133
000010 3b 6d 2b bd 39 7d 22 3d b4 de 60 bc 5c a2 97 bd
       -0.041852217 0.039670203 -0.013724972 -0.074040145
000020 a8 6c 2e bb 11 3c 93 bd 55 7d 61 bd 90 24 55 3d
       -0.0026615057 -0.07189191 -0.055051167 0.05203682
000030 1c 86 33 bd 4f 83 17 bc 27 12 d3 bd 5d d2 91 bd
       -0.04382907 -0.009247615 -0.10306197 -0.07120202
000040 79 4a 97 bc 00 5c 9b bd 4a 2c 27 bd 16 48 c8 bd
       -0.018468129 -0.07585907 -0.04081372 -0.09779374
000050 69 31 5b 3d 62 3b e5 bd 34 fe 68 bc 20 43 89 ba
       0.053513918 -0.11192967 -0.014220763 -0.0010472275
000060 37 96 4d 3c ca 53 4c 3d 2c 2c b0 bd af 30 fd bd
       0.012548021 0.049884595 -0.08602175 -0.12362801
000070 ac 2b 1e 3d 1b 69 81 bd b1 03 22 bd 69 61 af bd
       0.038615867 -0.063188754 -0.0395543 -0.085635014

weight f4 [64, 32, 5, 5]
000000 69 2f 9c bc e1 2f 4a bd 1a 34 12 bd b1 c7 27 bd
       -0.019065576 -0.049362067 -0.03569422 -0.040961925
000010 b5 94 1e bb 9e 5a 31 3d de 3b ab bb b1 6a 11 bc
       -0.0024197523 0.04329931 -0.0052256426 -0.008875535
000020 ea 86 92 bc 69 11 55 bc 61 0f cf bc 23 1e ad 3c
       -0.017886598 -0.013004639 -0.025275888 0.021132534
000030 96 18 d8 bc 91 25 44 b7 cf 2f c7 b9 dc 45 e1 3c
       -0.026378911 -1.1691257e-05 -0.00037991858 0.027499132
000040 e1 4b a1 bc e0 fc 78 3c 03 de 2a 3c ed 6b 7b 3d
       -0.019689502 0.015197009 0.010428908 0.061382223
000050 77 38 ba 3b c3 85 fd 3c 18 aa c0 39 dd 43 a8 bc
       0.0056830007 0.030947572 0.00036747823 -0.020540172
000060 03 12 01 3d c3 9e 8a 3d 43 f7 a7 3c 01 c4 3d bd
       0.031511318 0.06768563 0.020503646 -0.046329502
000070 57 a7 48 bc b0 af f6 bc d1 b8 30 3d 77 40 08 bc
       -0.012246928 -0.030113071 0.043145005 -0.008316151
000080 0b b6 2b 3b ee 0c 84 bc be d0 f3 bb 2e 2f 12 bb
       0.0026201035 -0.016119447 -0.0074406555 -0.0022305953
000090 e4 a1 a4 3c 80 e2 e5 3c 01 8d 58 3d 5e 1e 18 3d
       0.020096727 0.028062105 0.052868847 0.037138335
0000a0 21 78 2b bc 28 5d 5b bb 45 38 66 bb 3a 42 51 bc
       -0.010465653 -0.0033472273 -0.0035128754 -0.012772137
0000b0 7f 33 de bc 9b 14 36 3b 0f 11 7b 3c e3 a6 27 3d
       -0.027124165 0.0027783278 0.015323891 0.04093064
0000c0 35 2c 28 bc fa 91 14 3c f7 59 d1 3c 9d 7e 80 bc
       -0.010264446 0.009068007 0.025555594 -0.015685374
0000d0 aa a1 0f bd f1 6c 3f bd 5d 29 62 3c 55 cc e9 3c
       -0.035066284 -0.046734754 0.013803807 0.028539816
0000e0 28 f3 4b 3c d7 1a fd 3c 62 66 de bb 78 74 25 bd
       0.01244811 0.030896587 -0.0067871073 -0.040394276
0000f0 fb e5 ba 3c 21 f0 af 3c a8 77 f2 bb 27 b5 0a 3d
       0.022814741 0.021476807 -0.007399518 0.033864167
000100 4d 08 f0 3c 8a a3 8e bc 83 1c a0 3a 7b c9 c1 3b
       0.029300833 -0.017411966 0.0012215528 0.005913911
000110 ef 5c ad bc de 49 44 3c bb f8 00 bd f3 be e6 3b
       -0.021162478 0.011980502 -0.031487208 0.007041806
000120 a8 37 d3 3c 7a 94 d5 bc f0 3a 68 bc a0 33 4e bc
       0.025783375 -0.026071776 -0.014174208 -0.012585551
000130 be 6b 62 3c 89 9c 87 ba a4 e9 12 3c 6e ba 04 3d
       0.013819633 -0.0010346334 0.008966837 0.032404356
000140 6a e4 92 3c 48 a5 23 bb de 93 7a 3c d4 88 4f bc
       0.017931182 -0.0024970341 0.015294043 -0.0126669
000150 c4 e2 c8 bc 53 ee 1c 3c 82 73 6b bb 40 09 08 bd
       -0.024522193 0.009578305 -0.0035927002 -0.033211946
000160 f0 f8 f1 bb 6f db 88 bc a1 3e 03 3d 41 bb d2 3c
       -0.007384412 -0.016706197 0.03204215 0.025724055
000170 b3 83 e3 3c 5f e3 4c 3b f3 0f 11 bb 05 b3 15 bd
       0.02777276 0.0031263453 -0.002213475 -0.03654768
000180 b4 3e 16 bd 06 f3 83 3b 11 09 0a bd 13 11 17 bb
       -0.036680892 0.0040267734 -0.033700053 -0.0023050949
000190 9c 67 d3 bb 91 dd 6d bb f9 e5 81 bc 60 ea f1 bc
       -0.00645156 -0.0036295394 -0.01585673 -0.029530704
0001a0 02 71 15 bd 56 ba 21 3d 0d 7d cb bb 3e f1 f3 3b
       -0.036484726 0.039484344 -0.0062099756 0.00744453
0001b0 e7 26 26 3c 63 09 8c ba 28 35 3b 3c 2c e5 b2 3c
       0.010141111 -0.001068395 0.011426248 0.021837793
0001c0 f8 94 61 bc 02 62 20 3c 01 ce c6 bc ae 22 f0 bc
       -0.013768427 0.009788992 -0.024268152 -0.029313412
0001d0 07 25 56 bb 76 05 ae 3a ad 44 17 3d 53 65 45 bc
       -0.0032675879 0.0013276774 0.03693073 -0.012048083
0001e0 d2 6c c0 3b 88 1b 48 bb 5c 90 29 bb 78 67 be 3b
       0.0058723474 -0.0030533988 -0.0025873398 0.0058106743
0001f0 a8 46 42 3c 19 93 99 bb a3 30 0c 3c 6f c4 3f bd
       0.011857666 -0.004686725 0.008556518 -0.046818193
000200 ad f9 45 bd 34 70 5c 3b 12 6d 10 3a 75 b3 f2 bb
       -0.048333813 0.0033636214 0.0005509417 -0.007406647
000210 3d 83 fb bc 61 fb 03 3c 10 c8 5a bd e5 7a 07 bd
       -0.030702228 0.008055539 -0.05341345 -0.033076186
000220 4f 64 e4 3b cf e8 32 bc c0 9b b3 3c e9 0f 86 3c
       0.0069699655 -0.010919764 0.021924853 0.016365008
000230 42 18 08 bd b5 8d 0d bd 16 db 95 3c a8 d6 86 bb
       -0.03322626 -0.03455897 0.018292945 -0.0041149445
000240 ad 96 91 bc 42 2d 10 bd 81 49 24 3d 9a 78 9b 3c
       -0.017772043 -0.03519941 0.04010916 0.018978406
000250 1e f5 2d 3d 37 56 07 3d fd 4a fa 3c 51 2b f7 3a
       0.04247009 0.033041205 0.030553335 0.0018857514
000260 55 75 eb 3c d7 ba 54 3c 15 e1 4b 3c d4 88 a4 3a
       0.028742472 0.012983999 0.0124438 0.0012552985
000270 87 6c 0f bd 9b af 43 3d 46 b1 45 3d 3e fd a3 bc
       -0.03501561 0.047774892 0.048264764 -0.020018216
000280 36 94 8c bc b2 91 a2 3c a7 65 25 3d 0c 04 17 3c
       -0.017160516 0.019844864 0.040380146 0.009217273
000290 4e bd 18 bc 4a 17 0f bd 02 c8 e0 bc 02 23 c5 bc
       -0.0093224775 -0.03493432 -0.027439121 -0.024064545
0002a0 3d 5c ad bc 9e b1 55 3d fe 7d 0a bb 7c 44 87 39
       -0.021162147 0.052171342 -0.0021132226 0.0002580023
0002b0 81 0f d6 3b 3b 08 8d bb d7 d7 56 3b 2b d0 b4 bc
       0.00653261 -0.0043039597 0.003278246 -0.022071918
0002c0 4e b8 94 3c ba 1d f2 bb 2e f9 39 bc 8f 5f d3 bc
       0.01815429 -0.0073887976 -0.011350913 -0.025802402
0002d0 9c 15 d6 bc f7 a0 97 bc d4 ac 87 bc 73 ea 5b bc
       -0.026133351 -0.018509371 -0.016561903 -0.013422596
0002e0 be 6b 96 bb 68 9b 58 3c 0a 58 0c bc 69 93 12 bd
       -0.0045904806 0.0132206455 -0.008565912 -0.035785113
0002f0 39 04 db 3c 53 e6 79 bc 98 5d 4e 3c a2 3b 17 3d
       0.026735412 -0.0152526675 0.012595557 0.036922105
000300 9f a2 c0 ba fb 33 bc bc b6 5d a7 3c bf d8 bd bc
       -0.0014696902 -0.022974005 0.020430427 -0.023174642
000310 0d 38 ed bc 38 6a 1e bb 1c d9 cd bc 18 12 93 3c
       -0.028957391 -0.0024172198 -0.02512794 0.017952964
000320 23 43 7d 3c c8 d1 5c bb ec 3b 20 3c 86 43 00 bc
       0.015457901 -0.0033694375 0.0097799115 -0.007828599
000330 ef bc ff bc 0e 9c a1 3b 7f 53 df 3b 7e b2 34 bc
       -0.03121802 0.0049319332 0.0068153734 -0.011028884
000340 aa 7f 01 3c 60 fb a6 bc 80 50 b3 3c 03 4c 45 bc
       0.007903973 -0.020383537 0.021888971 -0.012042048
000350 35 28 86 bc 4c 3f ff bc b6 8a 92 3c b2 5e e4 bc
       -0.016376594 -0.031158112 0.017888408 -0.027877185
000360 39 9a 37 3c a1 8a 73 3c 51 74 c3 bc b7 2c dd bc
       0.011206203 0.014864595 -0.023859175 -0.02699886
000370 2d bf a4 bc 4a ed 02 bd 0a 5c be 3c fa 2a d0 3c
       -0.020110691 -0.031964578 0.023237247 0.025411118
000380 6a f1 65 3c 14 1e dd 3b c9 39 aa bc 39 02 21 bc
       0.014034608 0.0067479704 -0.020779507 -0.00982719
000390 8d ce da bc 16 74 a9 bc b4 c8 c0 bc f1 46 12 3b
       -0.02670982 -0.020685237 -0.023533203 0.0022320116
0003a0 10 04 f2 bb 2b c5 ac bc 01 b1 78 bc 6c b6 43 bb
       -0.007385738 -0.02109011 -0.01517892 -0.002986337
0003b0 21 34 d7 bc 12 7d be 3b 6b 35 07 3c 06 32 7c bc
       -0.026269974 0.0058132494 0.008252482 -0.015392786
0003c0 4b a3 00 bb a5 1e c5 bc 36 b3 fd bc 34 8d b6 bc
       -0.001962858 -0.024062464 -0.030969243 -0.022284128
0003d0 6a a5 9f 3b 25 11 fd bc 33 fa 40 bc 6f 17 db 3b
       0.004872014 -0.030891964 -0.011778402 0.006686143
0003e0 7e b7 24 3c 6c b4 ce 3c dd e8 83 bc f4 04 13 bd
       0.010053514 0.025232516 -0.016102249 -0.035893396
0003f0 34 b2 96 bc 88 26 0f bd 79 ca 5d 3c 4c 21 01 bc
       -0.01839552 -0.034948856 0.013537043 -0.007881474

bias f4 [64]
000000 cc 38 ef bc f7 66 8f bc 04 8a 23 bd d5 7c 22 bd
       -0.029201888 -0.017505152 -0.039926544 -0.03966983
000010 18 dd a6 bc 7a 94 93 3c d3 6b 4b bd 40 f3 60 bd
       -0.020369098 0.018015135 -0.049663376 -0.05491948
000020 34 da 08 3d 38 74 07 bd ef e5 fc bc dc e9 1a bd
       0.03341122 -0.03306982 -0.03087136 -0.037820682
000030 7b 57 65 3b 1b b3 d7 bb ba 2f 38 3b 92 85 fa bb
       0.003499477 -0.0065826303 0.002810462 -0.0076453174
000040 c4 50 d9 bc 40 5b 9c bc 1b 96 69 bd 74 05 64 bd
       -0.02652777 -0.01908648 -0.057027917 -0.055669263
000050 ce 3a 9a bc a2 79 8e bd 19 ba bd 3b 8f 68 f8 bc
       -0.018826868 -0.06956793 0.005790007 -0.030323295
000060 8d 92 04 bd 01 a3 9b bd 27 e2 b8 b9 44 6a 0b bd
       -0.032366324 -0.0759945 -0.00035263711 -0.03403689
000070 84 6a 99 bc 1f fa 05 bd d1 2c e4 bc 79 7b e1 3b
       -0.018727548 -0.032709237 -0.027853401 0.006881174
000080 fc 4a 13 3b 56 33 b5 bb 45 db 46 bb e7 4b e8 3a
       0.0022475114 -0.0055298014 -0.0030343097 0.0017722816
000090 3d 06 0f bd e3 bd 09 3c f9 93 27 3d 24 c6 c7 3c
       -0.03491806 0.008407089 0.040912602 0.024386473
0000a0 a5 ef 81 bd e0 b9 7f bd 92 bd 22 bd 76 bc 49 bd
       -0.06344537 -0.062433124 -0.03973157 -0.049251996
0000b0 a6 81 58 3c b2 67 08 3d 04 d8 29 3c ee a9 e9 bc
       0.013214504 0.033302017 0.010366444 -0.028523412
0000c0 b4 80 ac bc 40 f2 00 bc 7c ef aa 3c 1f 20 86 bd
       -0.021057464 -0.007870257 0.020866148 -0.06549095
0000d0 57 c4 84 bd 64 95 2c bc 8f d8 5b 3c 10 c4 94 bd
       -0.06482761 -0.010533664 0.013418331 -0.072639585
0000e0 ce bf 1e bd 24 4d 16 3d 04 1e 2a bc cd ac 4e bd
       -0.038757138 0.03669466 -0.010383133 -0.050457764
0000f0 d9 4b e2 bc 37 d5 03 bd 32 05 19 3d 1e 93 0d 3c
       -0.027624058 -0.03218576 0.03735847 0.0086410325

weight f4 [64, 1024]
000000 f1 15 a7 bb e3 38 e1 bc b7 6c c0 3b e7 f7 c4 3c
       -0.005099051 -0.027492946 0.005872335 0.02404399
000010 7f 67 a5 3c 4c 99 ea ba df c6 75 3b 27 f6 74 bc
       0.020190952 -0.0017898469 0.003750257 -0.014951265
000020 ab 12 08 3d c3 6f 48 3c c2 5f af 3c 8c a8 ca 3c
       0.03322093 0.012233677 0.021407966 0.024738573
000030 a1 83 ec bc 3c c8 b3 bc 6f 33 d4 bb c6 6f 81 3b
       -0.02887136 -0.021946065 -0.006475858 0.003950092
000040 44 65 11 bd 57 59 7a bc 22 bd 5b bc e1 ea f5 3c
       -0.035496965 -0.015280089 -0.013411792 0.030019226
000050 ea a6 fc 39 26 85 02 3b 3b 41 5f 3c 70 49 9d 3c
       0.00048189546 0.0019915788 0.013626392 0.019200057
000060 2d 5d 55 3c ce 57 db 3c 7c 51 c8 bc e8 79 9c bc
       0.013022703 0.026775267 -0.024452917 -0.019101098
000070 20 2f c6 bc 2d 2a 48 bc 32 20 14 3d 47 07 24 3d
       -0.024192393 -0.012217087 0.036163516 0.040046003
000080 4c 2f 2f 3c 24 8d 50 bd b1 29 af bb 6f 2f 50 bb
       0.010692429 -0.050915852 -0.005345546 -0.0031766554
000090 c4 ef 95 bc 4f 2f 8f ba b7 1f eb bc e6 03 99 bc
       -0.018302806 -0.0010924133 -0.028701646 -0.018678617
0000a0 2f 87 a9 3c 69 35 f4 3c 89 e7 25 3d 80 54 28 3d
       0.020694343 0.029810624 0.040504012 0.04109621
0000b0 d4 bf 9e bc 69 d9 94 3a 6c ef 6d 3b b5 a7 3a 3d
       -0.01937858 0.0011356297 0.0036306037 0.045570094
0000c0 2d 78 a1 bc 6e 27 b1 3b dd b9 27 3c 71 3d 1a bd
       -0.019710625 0.0054063117 0.010237184 -0.03765625
0000d0 29 59 1d 3d 1a a9 0c 3d a6 a3 c2 3c 5a f3 08 3d
       0.038415108 0.034340955 0.023759674 0.033435203
0000e0 0c c3 88 bc c5 c8 59 3d 4d 46 5c 3c 04 05 86 3c
       -0.016694568 0.053169984 0.013444495 0.016359814
0000f0 3b 46 ab 3c 1a f2 41 3b f3 4e 99 bc 8d 76 70 3b
       0.020907512 0.0029593767 -0.018714404 0.0036691756
000100 1f 75 ce bb 0f 84 99 bc 37 bb 91 3c 4b 47 01 3c
       -0.006300583 -0.018739728 0.017789466 0.007890533
000110 8a ee 25 3d 47 43 59 bb 90 4a 98 3c 25 45 d0 bc
       0.04051069 -0.0033151673 0.018590242 -0.025423596
000120 ef 9e bd bc c8 a2 77 bc e5 18 60 3c 08 12 b3 3a
       -0.023147075 -0.015114494 0.01367781 0.001366199
000130 46 4e 16 3d c6 ea a5 bb 39 38 5a 3c 78 ea ba 3c
       0.03669574 -0.0050633876 0.013319069 0.022816882
000140 64 ad eb 3a 12 ff 10 3d 79 7b 8d 3c e2 f2 2a bc
       0.0017980752 0.035399504 0.01727079 -0.010433884
000150 66 00 c7 bc 7a 5c db 3b 16 10 e1 bc 0c 48 af 3c
       -0.024292182 0.0066943737 -0.02747349 0.02139666
000160 c3 5c c9 bb 96 87 0b 3c 23 0b b2 ba d4 63 83 bc
       -0.0061450913 0.008516213 -0.0013583641 -0.016038813
000170 2c 2f ad b8 a3 b4 92 bc 6f 6a 55 3b 14 6b 08 bd
       -8.258069e-05 -0.0179084 0.003256466 -0.033305243
000180 5f 8c 07 3d 7d bf d4 bb b7 0d 43 bc 51 74 30 bc
       0.033092853 -0.0064925537 -0.011905125 -0.0107699195
000190 e9 f0 e4 3c 2c a3 a0 3b 03 5e 06 bc 1d d2 4f 3c
       0.027946906 0.004902264 -0.008201125 0.012684372
0001a0 d7 07 d4 bc 57 38 a9 bc 36 0b 09 3d d6 9d 4d bc
       -0.025882645 -0.020656748 0.033457957 -0.012549838
0001b0 6a 6c ac 3c a8 2a 7a ba a9 76 5b 3c 73 91 5f 3c
       0.02104779 -0.00095430994 0.01339499 0.013645518
0001c0 c8 76 27 bb cb bc bb b7 08 d5 a7 bc 1d 57 95 3c
       -0.0025552977 -2.238005e-05 -0.020487323 0.018230015
0001d0 4e 18 f9 3c de 68 f0 bc e3 c0 69 bc 7e 71 b3 3c
       0.030407097 -0.02934688 -0.014267179 0.021904703
0001e0 52 bb ee 3c 20 89 6d bc fd 28 ce bb 28 ad 71 bc
       0.029142056 -0.014498025 -0.0062915073 -0.014750756
0001f0 7d e1 dc bc ec 79 87 bc 83 a2 09 3a 96 29 60 3c
       -0.02696299 -0.016537629 0.00052503514 0.01368179
000200 71 4d 3b 3c 57 23 1f 3c 7e 7a c6 bc bc 1c 63 3c
       0.011432038 0.0097130155 -0.02422833 0.013861831
000210 42 18 a2 bc 95 95 08 bc ce 95 aa bc 39 9f f6 3c
       -0.019786958 -0.008336444 -0.020823386 0.03010522
000220 bc 40 9d 3c eb 5d 2f 3b 3c 6a 7d bc 30 58 83 3c
       0.019195907 0.002675886 -0.015467223 0.016033262
000230 9b 30 98 bc c3 ce 8e bc ea e8 7c bc 9f c0 cc bb
       -0.018577864 -0.017432576 -0.01543639 -0.006248548
000240 00 d0 b2 bc 22 0b 5c bb e3 19 16 bd df 9c 8a 3c
       -0.021827698 -0.0033575972 -0.03664578 0.016920505
000250 e1 3c 23 bc 39 e7 98 bb fc 3c b1 bb 76 e2 74 ba
       -0.009963245 -0.0046662358 -0.005408881 -0.00093416066
000260 6f 0d 21 ba a6 a2 ac 3c 9a a2 68 3c c7 34 c6 3c
       -0.00061436644 0.02107365 0.0141989235 0.024195088
000270 b7 47 00 bd 0f 68 d4 bc e7 75 ee 3c 0f b2 f2 bb
       -0.031318393 -0.025928525 0.029108955 -0.00740648
000280 48 09 df 3c c7 e3 16 3c 8b f5 6d bb 1d 27 f8 ba
       0.027226105 0.00920958 -0.0036309685 -0.0018932555
000290 9c fd a6 bc b5 8c 0a bc 93 2c 9a 3b d7 5e d7 bc
       -0.020384602 -0.008456399 0.0047050207 -0.02629034
0002a0 7e c9 4e 3c 47 19 ff 3c 2d 52 3f 3c 01 ba 79 bb
       0.012621282 0.031139983 0.011677307 -0.0038105252
0002b0 5e a6 7f bc 12 bd ed 38 28 1d ff 3c 59 85 10 3b
       -0.01560363 0.00011336258 0.031141832 0.0022052138
0002c0 bb 43 32 3c d7 35 2e 3b 63 5c 9b 3c 2f 98 33 3c
       0.010880406 0.0026582384 0.018964952 0.010961576
0002d0 6d f9 f2 ba 80 b0 d8 3c c1 5c de 3c 64 61 35 bc
       -0.001853747 0.02645135 0.027143838 -0.011070583
0002e0 4b b4 b5 3b bd 2d 0b bd 5e bd a2 bc db 45 de 3c
       0.0055451742 -0.033979166 -0.019865688 0.027132919
0002f0 f1 e0 b6 3c 6c ff 47 bc a5 09 c0 3a f8 7b ca bc
       0.022324057 -0.012206893 0.0014651312 -0.024717316
000300 11 54 3b 3c f1 d6 39 bc 96 bc 34 3d 20 e2 e8 3c
       0.011433617 -0.01134275 0.044125162 0.028428137
000310 c7 77 e7 3c 4f af 6a bc ae cd a1 bc 0e c3 43 bc
       0.028255356 -0.014324023 -0.019751396 -0.01194836
000320 92 8e e7 bc 60 c0 15 3d 9a de 0b 3d 5e 42 92 bb
       -0.028266225 0.036560416 0.034147836 -0.004463478
000330 ea c3 76 bc 43 f6 df 3b cd 10 aa 3b 67 83 18 3d
       -0.015061358 0.0068347766 0.005189991 0.03723469
000340 b1 73 99 bc c9 ee b5 bc 72 f7 17 3d 1f 5f 70 bc
       -0.018731924 -0.022208588 0.037101217 -0.014671116
000350 db bf fe 3c 5c d1 08 3d 7b f0 f5 3c 97 30 6e bb
       0.031097343 0.033402786 0.030021897 -0.003634488
000360 e5 a4 08 bb ea fc de 3b e8 67 e2 3c da 54 0a bc
       -0.0020850238 0.006805052 0.027637437 -0.008443082
000370 9d bc 18 bc fa 1d 97 bc 6a ca e2 3c ad 7e 54 bc
       -0.009322313 -0.018446911 0.02768441 -0.012969655
000380 31 7c a4 3b ef 84 03 bd da 2c 1d bd 6e 40 e5 bc
       0.0050196876 -0.032109197 -0.038372852 -0.027984824
000390 40 92 50 3b f7 0a b8 3c 0f a5 5c ba 44 54 a9 bc
       0.0031825453 0.022466166 -0.00084169296 -0.020670064
0003a0 6d 05 34 b9 b0 45 ab bc 6c bd ab 3c cb cb ca bc
       -0.00017168159 -0.020907253 0.020964347 -0.02475538
0003b0 3f 11 eb ba 08 bd 9e bc 2a ba 27 bc de 0b a2 bb
       -0.0017934217 -0.019377246 -0.010237256 -0.0049452623
0003c0 57 03 e4 3c c6 2e c3 bc 2b 80 bf 3b 47 e7 80 3b
       0.027833624 -0.023826014 0.0058441362 0.0039338204
0003d0 76 63 f0 bc b7 3f 82 3c 26 42 c5 3c 48 05 8f bc
       -0.029344302 0.015899522 0.024079394 -0.017458573
0003e0 dc 3b 77 bc f1 0a 5f 39 57 e0 a2 3b 94 79 11 3d
       -0.015089955 0.00021271013 0.004970591 0.035516337
0003f0 a4 11 64 3c de 1d a8 3a 00 96 af 3b cc 07 3d 3a
       0.0139202215 0.0012826284 0.0053584576 0.00072109397

bias f4 [64]
000000 33 75 d9 bc f4 07 3f bc 9d e1 56 bb 86 6a 08 bd
       -0.026545143 -0.011659611 -0.0032788285 -0.033304714
000010 20 9c 6a bb 69 b1 f9 bb c2 92 df 3b 04 a6 4a 3c
       -0.0035798624 -0.007620026 0.006822915 0.012368683
000020 d1 f1 42 ba 42 dd 47 bc 1c b6 e6 b8 ae f0 a1 bc
       -0.0007436546 -0.012198748 -0.00011001175 -0.019768085
000030 46 4f 9c 3c 2f 46 ff bb 0b 32 81 bc 5c bb 6c 3b
       0.01908077 -0.007790349 -0.015770933 0.0036122417
000040 2d 86 4a 3c d1 a0 a9 3c 26 1a 24 3c ce fa 49 3c
       0.012361092 0.020706566 0.010016 0.012327863
000050 7e c0 51 3c c7 bf a0 bc 95 02 64 bb 9b 45 66 bc
       0.012802241 -0.019622697 -0.0034791578 -0.014054681
000060 96 c9 f9 bc da 9b 28 bc 93 88 0b 3d 86 f0 8e 3c
       -0.030491631 -0.010291064 0.034065794 0.017448675
000070 e1 d9 27 bd f7 c7 99 bc 7d cf 19 bd e3 60 33 bd
       -0.04097927 -0.018772108 -0.037551392 -0.04379357
000080 85 fd 2b 3d c2 e6 c7 3c 9e a0 35 3d 37 78 69 bb
       0.041989822 0.024402026 0.04434263 -0.0035624632
000090 a7 2b 68 3c f6 52 25 bd 04 36 70 3c 7d 13 43 3b
       0.014170564 -0.04036232 0.014661316 0.0029766255
0000a0 e6 f3 db 3a 6e ba af 3b f4 cf a4 bc 1c 8f 54 bd
       0.0016781061 0.0053628003 -0.020118691 -0.051894292
0000b0 cd ec 63 bc 66 ed 27 3d b8 0a 9e bc 44 e7 84 3d
       -0.013911438 0.040997885 -0.01929222 0.06489423
0000c0 18 3d 10 3b d9 e4 77 bb 36 d9 fc bc 37 45 39 bc
       0.002200907 -0.0037825613 -0.030865293 -0.011308006
0000d0 d4 1e cb bc 1b 4e 93 ba 5a 49 57 bd 1e 45 80 bc
       -0.024794973 -0.0011238487 -0.052560188 -0.015657958
0000e0 6e 21 d7 3c c5 20 c5 bb c9 d6 f1 bc 5f 42 2f bd
       0.026261058 -0.0060158693 -0.029521363 -0.042787906
0000f0 40 b5 93 3c 29 03 11 3d f8 5b ed 3b 53 cb 07 3d
       0.018030763 0.035403404 0.0072436295 0.03315289

weight f4 [10, 64]
000000 ee e1 ce bd 1e eb 3c 3e d8 b7 14 bd 5b 3a f5 3b
       -0.101016864 0.18449065 -0.03630814 0.007483763
000010 ad 23 19 be cb de 3c 3e 58 a1 21 be b4 86 2e bd
       -0.14955015 0.18444364 -0.15784204 -0.04260893
000020 dc 29 84 bd 95 c8 8b 3e 8a 41 91 bd d2 b2 5e 3e
       -0.064532965 0.2730147 -0.07092579 0.21747902
000030 b4 ed b8 bd 5d 66 0b be 4a 7b 0e 3e 2b 46 35 bc
       -0.09029713 -0.13613267 0.13914219 -0.011064093
000040 c0 19 fc 3d da 2f 1b 3e 0f 62 66 3d 96 6a da bd
       0.12309599 0.15154973 0.05624586 -0.10664861
000050 8d 4a 13 3e 77 7d b1 3d e1 d0 d1 bd d0 46 f7 3d
       0.14383908 0.08666509 -0.102449186 0.12074053
000060 62 96 11 3e 37 ff f9 3c aa e2 da bd 56 50 bc 3d
       0.14217523 0.030517204 -0.10687764 0.0919501
000070 0a 90 40 bb f4 25 14 3e 2d 56 0d 3e b3 51 c8 3d
       -0.002938273 0.14467603 0.13802405 0.09781208
000080 a1 23 6f be 09 1d 82 3d 7b cb 12 be 6f 7f 3f bd
       -0.23353435 0.06353194 -0.14335434 -0.04675239
000090 36 96 f8 3c ec 64 30 3e 2f d4 eb 3d e9 97 1e 3e
       0.030345064 0.17225999 0.1151508 0.15487637
0000a0 ee 51 a6 bd 5f 1e 06 be 65 65 b1 bd 66 7a bc 3d
       -0.081210956 -0.13097523 -0.086619176 0.09203033
0000b0 71 d8 83 bd 43 dc aa bd dc 2a 19 be 71 ac 84 bd
       -0.06437767 -0.08342793 -0.14957756 -0.06478203
0000c0 1a 58 c0 bd 2a de 3a 3e b1 1a 2d bd 8b c3 1a 3e
       -0.09391804 0.18248811 -0.042261783 0.15113656
0000d0 14 85 03 3e 12 78 0d 3e be d1 fb bb cc 78 86 3c
       0.12843734 0.13815334 -0.0076849153 0.016415022
0000e0 1c 1d 1a 3e 55 46 29 3d 16 6a 2d 3d 10 0e f5 3d
       0.15050167 0.04132684 0.0423375 0.11965573
0000f0 36 ac 5b bd 35 b0 93 3c 3e 8b 45 bc 85 ae 43 bc
       -0.05363103 0.018028358 -0.012057124 -0.011943464
000100 7e d4 df 3d 6a 8d 78 3e 28 20 c4 bc 57 42 2b 3e
       0.109292015 0.24272695 -0.023941115 0.16724525
000110 e5 c9 3d 3d a5 13 4f be b6 60 65 3c 43 6f e5 3d
       0.04633512 -0.20222338 0.014000108 0.11202862
000120 9d 23 49 3e 76 04 d7 3d 31 f9 88 bd cc 3e c3 bd
       0.19642492 0.10498898 -0.066881545 -0.09533462
000130 c2 81 17 3e d9 68 08 3e 3a cf e9 bd cc 6b 83 3c
       0.14795592 0.13321246 -0.114164785 0.016042612
000140 75 8f 39 be 93 b1 8a be 76 ac 78 3e c3 36 24 3e
       -0.18121131 -0.27088603 0.24284539 0.16036515
000150 0b 69 23 be c2 6d 27 3e 44 95 04 3e e0 81 71 3e
       -0.1595804 0.16350463 0.12947565 0.235847
000160 59 9b f2 bd 07 11 36 be 5a 1d d7 3d fa fb b0 3d
       -0.118460365 -0.17779933 0.10503645 0.08641811
000170 4e a1 15 be 9a 20 82 be 61 de 58 3e 13 8a 8a bd
       -0.14612314 -0.25415498 0.21178581 -0.06764617
000180 09 17 6b 3e 16 b8 24 3d 72 a9 b4 bd 63 b3 1e 3d
       0.22958006 0.04021462 -0.08821382 0.038745295
000190 29 ba 84 3e 70 81 49 be f0 60 8a bb a7 ed 93 3d
       0.2592328 -0.19678283 -0.0042229816 0.07223063
0001a0 78 b1 ca bd 29 5b 90 be 70 bf 5c 3e ae 00 22 3e
       -0.09897131 -0.2819455 0.21557403 0.15820572
0001b0 4f bc 89 bd b3 6b 3d 3e 65 ab 8c 3c 82 0f cf bd
       -0.0672537 0.18498115 0.017171571 -0.1011038
0001c0 77 54 d3 3d 9b bc f7 3d cd ea bf bd 5e 70 04 bd
       0.10318845 0.120965205 -0.093709566 -0.032333724
0001d0 71 cf c4 3d 9b 4d cc 3d cf 79 69 be 5d 6b 3b 3e
       0.09609879 0.099757396 -0.22800373 0.18302675
0001e0 47 50 de 3b 90 9a 7a 3d 65 e8 c2 3d d9 4a f0 bb
       0.006784472 0.06118256 0.09516982 -0.0073331413
0001f0 6f 03 76 3e 87 36 8e 3d 85 a4 ad 3d c2 a0 3a 3e
       0.24024747 0.06943994 0.08478645 0.18225387
000200 66 d6 fc 3d 18 bc ad bd e8 a5 96 bd fe db e7 3d
       0.12345581 -0.08483142 -0.07355863 0.11321257
000210 4f 34 2b 3d ac 46 1a 3e bb 13 2c be 70 73 61 be
       0.041797932 0.15066022 -0.16804402 -0.22016692
000220 77 3c fa 3d 5f 85 1f 3e df 9f f8 ba 59 b4 92 bb
       0.12218564 0.15578221 -0.0018968544 -0.0044770655
000230 82 b4 bb bd 8f e2 0e 3e c4 07 55 be f4 72 43 3c
       -0.091652885 0.13953613 -0.20803744 0.011929262
000240 f1 af 7f bd b8 24 67 3e 87 eb 2d be 97 0f f9 3c
       -0.06242365 0.22572601 -0.16984378 0.030402942
000250 1c 22 c7 3d b7 33 36 bc d0 51 67 bd e2 a6 01 be
       0.09723303 -0.011120728 -0.056474507 -0.12661317
000260 71 6f bd bd 49 51 5a 3e b5 79 05 3b f8 53 1c be
       -0.092497714 0.2132007 0.0020366732 -0.15266407
000270 23 9b 3f 3d ab 40 17 3d 35 c3 3b be 7a 09 a6 bd
       0.04677881 0.036926907 -0.18336184 -0.08107276
000280 83 7e 26 be cb cc ab 3d 67 30 25 bd 73 1f 61 bd
       -0.16259198 0.083886705 -0.040329363 -0.054961633
000290 da 34 f4 bd 29 d0 e9 3d 8d 54 14 bc 92 2f df 3d
       -0.11924143 0.114166565 -0.009053362 0.10897745
0002a0 d2 cc 46 3d 47 b3 1d 3e ff fe 5a bd d1 25 65 be
       0.048535176 0.1540042 -0.05346584 -0.22377707
0002b0 91 75 81 bd a0 64 1e bd 8a b8 18 be f0 cc 8e 3d
       -0.06321252 -0.038670182 -0.14914146 0.069726825
0002c0 54 ad d5 bc 33 1f f3 3d f0 de 2e 3e fe ea 4e 3e
       -0.026083626 0.11871185 0.17077231 0.2020683
0002d0 8f 53 1a bd cd aa 3b 3e da ab fb bd e7 d4 0e be
       -0.037677344 0.18326874 -0.122886375 -0.13948403
0002e0 77 de 2d be 2e 5d b9 bc 5b d6 6f bd 3e d0 01 be
       -0.16979395 -0.02262744 -0.058554035 -0.12677094
0002f0 8e f7 23 3d 8e 78 18 3d 54 b9 ff bd 23 44 81 3d
       0.04003101 0.037224345 -0.124865204 0.06311824
000300 da b2 d4 3d 45 22 04 be 2a ef 4a 3d ed fe 82 3b
       0.10385676 -0.12903698 0.04954449 0.0039976747
000310 90 52 dd bd 54 94 46 be be ca e8 bd 94 c1 dd bd
       -0.10806763 -0.1939252 -0.11366795 -0.10827938
000320 7f 65 0f 3e 6a 9b 1f be 02 c5 a6 bd 5d 26 d8 3b
       0.14003561 -0.1558663 -0.08143045 0.00659637
000330 a3 63 f0 bd 53 f1 02 bd e1 8f 17 be 36 4f df bd
       -0.11737754 -0.031968426 -0.14800979 -0.1090378
000340 5f 6d 2a 3e 98 66 15 be c8 08 dd bd 0e 45 13 be
       0.16643284 -0.14589918 -0.107926905 -0.14381811
000350 91 eb 8e bd a3 c8 c6 bd 8a 1e a9 bd 22 17 13 be
       -0.069785245 -0.09706237 -0.08257778 -0.14364293
000360 93 76 bd 3d af d3 f4 3d a7 1d 3e bd 24 b9 af bc
       0.09251132 0.11954438 -0.046414997 -0.021450587
000370 a8 24 9b 3c 2a 39 7a 3d 60 43 26 be 58 07 e4 bd
       0.018938377 0.061089672 -0.16236639 -0.11134213
000380 29 f9 5a 3d bd ed 05 3e 34 16 f0 bd 63 78 18 bd
       0.053460274 0.13078971 -0.11722985 -0.037224185
000390 d0 88 d9 3d 23 90 7f bd 58 74 10 bd 0e bc d7 3d
       0.10621798 -0.06239332 -0.035267204 0.105339155
0003a0 33 53 18 be 71 09 20 bd 88 80 84 3d 9e 01 43 bd
       -0.14875488 -0.039071504 0.06469828 -0.047608964
0003b0 3c ab 64 3d 26 81 2d 3d 42 59 84 bd e6 6c bd 3d
       0.055827364 0.042359494 -0.06462337 0.09249286
0003c0 f3 6d d2 bd b5 34 ff bd b9 1a 06 be 7a db 92 3c
       -0.102748774 -0.12461225 -0.13096131 0.01792692
0003d0 f5 02 b9 bd 31 52 69 3d 79 e7 d8 3c d5 8d 3b be
       -0.09033767 0.05696315 0.026477562 -0.18315823
0003e0 99 5c 9f bd fb 4b d5 bd 38 d2 7e 3d 90 8f 0e 3e
       -0.077813335 -0.10414883 0.0622122 0.13921952
0003f0 e8 92 19 be e5 54 15 3d d8 bb a1 bd b7 f1 7d bd
       -0.14997447 0.036457915 -0.078971565 -0.061998095

bias f4 [10]
000000 c4 f3 45 be 77 0e 0f bd fc 8f 3a 3c a4 fc 16 bc
       -0.1933127 -0.034925904 0.011386868 -0.009215508
000010 75 00 0e 3e 06 6c 04 bd 9b 5d e7 3c 20 8c 0e bd
       0.13867362 -0.03232958 0.028242877 -0.034801602
000020 17 b0 8e bc f4 87 82 3c
       -0.01741795 0.015933968
