models/gpu_train_model26.pth (torch, 587335 bytes, 10 tensors)

weight f4 [32, 3, 5, 5]
0	0x3d968ba5	0.07350854
1	0x3e4d3c66	0.20042571
2	0x3d36f8a1	0.044670705
3	0xbd5ed250	-0.05439979
4	0xbe164140	-0.14673328
5	0x3d4d3138	0.050095767
6	0x3e382eb1	0.17986561
7	0x3e49e989	0.19717993
8	0xbe00eb14	-0.12589675
9	0xbe04dc17	-0.12974583
10	0x3d9f97b6	0.077926084
11	0x3e12ab54	0.14323169
12	0x3bf301d0	0.0074159876
13	0xbd84339e	-0.06455158
14	0xbd64387e	-0.055717938
15	0x3cc1dac2	0.023663882
16	0xbe2c1b7b	-0.16807358
17	0xbe0469db	-0.12931006
18	0x3d48a511	0.048985545
19	0x3e75b723	0.23995642
20	0xbe3b568f	-0.18294738
21	0xbe316f35	-0.17327578
22	0x3db38008	0.087646544
23	0x3dda8378	0.10669607
24	0x3e2d498b	0.16922586
25	0x3e0d8f55	0.13824208
26	0x3e17b4f2	0.14815119
27	0xbd980ffc	-0.07424924
28	0x3b4cdd1d	0.0031259723
29	0xbdf82023	-0.121155046
30	0x3e471ad2	0.19443825
31	0x3d87a0ff	0.066225044
32	0x3da74557	0.081675224
33	0xbe1e6b05	-0.15470512
34	0xbd98c31d	-0.0745909
35	0x3dbe388b	0.092881285
36	0x3d81894e	0.06325017
37	0x3d3c19cd	0.045923043
38	0xbd328f10	-0.043593466
39	0xbdc342dd	-0.095342375
40	0xbdd340e9	-0.10315115
41	0xbe5f0cee	-0.21782276
42	0xbcd2a437	-0.02571307
43	0x3dfeae64	0.12435606
44	0x3e7c5d1c	0.24644893
45	0xbdedb13d	-0.11606071
46	0xbd8365f8	-0.06415933
47	0x3d788135	0.060670096
48	0x3d9e444d	0.07727871
49	0x3e049775	0.12948401
50	0x3dc452b9	0.095860906
51	0x3dc5e1cd	0.09662209
52	0xbe3c6989	-0.18399633
53	0xbe70679b	-0.23477022
54	0xbe1c7c63	-0.15281825
55	0xbc530624	-0.012879882
56	0x3d6c26db	0.057654243
57	0xbcb43a18	-0.022000358
58	0xbe8470b9	-0.2586725
59	0xbe817a4f	-0.25288627
60	0xbd147575	-0.03624483
61	0xbc81b369	-0.01583262
62	0xbd9d1edc	-0.076719016
63	0xbd7b8131	-0.061402503
64	0xbd23d4bd	-0.039997805
65	0xbdf42255	-0.11920611
66	0xbdd2d2ab	-0.10294088
67	0xbe4597b7	-0.19296156
68	0x3e100bc1	0.14066984
69	0x3de7637d	0.11298273
70	0xbe4ca061	-0.19983055
71	0xbc5deabf	-0.013544737
72	0xbccf731b	-0.025323441
73	0xbced1c14	-0.028944053
74	0x3c95a75c	0.01826828
75	0x3e31e46c	0.17372292
76	0xbcdaf1b7	-0.026726587
77	0xbe3ea18c	-0.18616313
78	0xbd4810f8	-0.048844308
79	0xbdd1b0f7	-0.102388315
80	0xbd9525fb	-0.07282635
81	0xbe56f086	-0.2099019
82	0xbea7f20b	-0.32801852
83	0x3d3866ee	0.045020036
84	0x3e2b8bd6	0.16752562
85	0xbe595691	-0.21224429
86	0xbe511695	-0.2041877
87	0xbe108c63	-0.14116053
88	0x3e7485e8	0.23879206
89	0x3dc13321	0.0943358
90	0xbcaa0dff	-0.020758627
91	0xbe5e81a6	-0.21729144
92	0x3d9d316c	0.07675442
93	0x3e12705f	0.14300679
94	0x3d7c4420	0.061588407
95	0x3d358094	0.044312075
96	0xbe497bf8	-0.19676197
97	0x3e077eed	0.13232012
98	0x3e019b3b	0.12656872
99	0xbe02256a	-0.12709585
100	0x3e5f8d8b	0.21831338
101	0xbda96991	-0.08272088
102	0xbde63658	-0.11240834
103	0x3c72ec65	0.014826869
104	0x3e280e95	0.16411813
105	0xbcaba541	-0.020952823
106	0xbd0c76bc	-0.03429292
107	0xbe80cda5	-0.25156894
108	0x3e2f2a8b	0.17106073
109	0x3e513e12	0.20433834
110	0xbde11994	-0.10991207
111	0x3c6de1da	0.014519179
112	0xbd65103c	-0.055923685
113	0x3e6419dc	0.2227549
114	0x3dfe4fa0	0.12417531
115	0x3d3ebb52	0.04656536
116	0xbe29110d	-0.1651041
117	0x3e6a665f	0.22890614
118	0x3e7f8630	0.24953532
119	0x3d794ae2	0.06086243
120	0x3cdc2185	0.026871452
121	0x3c3df753	0.011594611
122	0x3e4242a2	0.18970731
123	0x3d4a76d3	0.049429726
124	0xbcdedf63	-0.027206128
125	0x3e2ed73c	0.17074293
126	0xbca62937	-0.020283325
127	0xbe8220fa	-0.25415784
128	0xbd86d0cc	-0.065827936
129	0xbd101f37	-0.03518602
130	0xbb0973ac	-0.0020973487
131	0xbd9971ab	-0.074923836
132	0xbe15ac10	-0.14616418
133	0x3dcc186a	0.09965594
134	0x3d9c0db4	0.07619801
135	0xbe2256ef	-0.15853475
136	0xbcb44d77	-0.022009594
137	0x3d50938c	0.05092196
138	0x3e212bde	0.1573939
139	0xbd09e175	-0.03366228
140	0xbe33c38e	-0.17555067
141	0xbe27a64b	-0.1637203
142	0x3db16d96	0.0866348
143	0x3cffbcf7	0.031218035
144	0xbd319017	-0.043350305
145	0xbdff1f05	-0.124570884
146	0xbcb0220c	-0.02150061
147	0x3d04e974	0.0324492
148	0x3df6ded9	0.120542236
149	0xbd733bbd	-0.059383143
150	0xbdef8cef	-0.11696803
151	0x3e162023	0.14660697
152	0x3da76325	0.08173207
153	0xbab3bdb9	-0.0013713158
154	0x3c2b887d	0.010469553
155	0xbe295b0d	-0.1653864
156	0x3e6e5b74	0.23277074
157	0x3e2fc577	0.1716517
158	0xbddc808a	-0.107667044
159	0xbca4125f	-0.020028291
160	0xbde8028a	-0.11328609
161	0x3e479927	0.19492017
162	0x3e3318a3	0.17489867
163	0xbb9ac154	-0.0047227535
164	0x3e285ad0	0.16440892
165	0x3d5f8b5e	0.05457627
166	0x3e741154	0.23834735
167	0x3b834dfb	0.0040070987
168	0x3d26a2f1	0.040682737
169	0x3e5c1784	0.21493345
170	0x3daf909c	0.08572504
171	0x3e08e715	0.13369401
172	0x3df027a7	0.11726313
173	0xbb222a20	-0.0024744347
174	0x3e24a7a4	0.16079575
175	0xbd7d3018	-0.061813444
176	0x3d56a808	0.05240634
177	0xbd4033bd	-0.04692434
178	0xbd9d9173	-0.07693758
179	0x3e01cba6	0.12675342
180	0xbd9d3ff8	-0.07678217
181	0x3cb3ff77	0.021972401
182	0xbd03f763	-0.03221835
183	0x3d52e296	0.05148562
184	0x3d942e03	0.072353385
185	0xbe3f57d7	-0.18685852
186	0x3cdee1ad	0.02720722
187	0xbd1918e7	-0.037377264
188	0xbe2f5251	-0.17121245
189	0x3d8e1268	0.069371045
190	0xbe018895	-0.12649758
191	0xbd3aa857	-0.045570698
192	0xbe0bf171	-0.13666321
193	0xbcf5735a	-0.02996223
194	0x3e2151cb	0.15753858
195	0xbbe49f74	-0.006977016
196	0x3d234d23	0.039868485
197	0x3d0a124e	0.033708863
198	0x3d9729bd	0.07381008
199	0x3be4532e	0.0069679236
200	0xbd8bbaed	-0.06822763
201	0xbd73665d	-0.059423793
202	0xbd43011f	-0.04760849
203	0x3d28cda3	0.041211735
204	0xbdd95fdc	-0.10613987
205	0xbe5ee82d	-0.21768256
206	0x3d08611f	0.033295747
207	0xbe13111e	-0.14361998
208	0xbe2ec7d7	-0.1706842
209	0x3d10e340	0.035372972
210	0xbe90e444	-0.28299153
211	0xbb97fa99	-0.004638028
212	0xbdf77db5	-0.120845236
213	0xbe11c5b6	-0.14235577
214	0x3d9dbbcf	0.07701837
215	0xbe022cc7	-0.12712394
216	0xbd5c10b0	-0.053726852
217	0xbe04566d	-0.12923594
218	0xbd06d871	-0.03292126
219	0x3ca392f9	0.019967543
220	0xbe468d32	-0.19389799
221	0x3d774af5	0.06037422
222	0xbe207994	-0.15671378
223	0x3d80fd0e	0.06298266
224	0x3d4a48b9	0.04938576
225	0x3db0a07d	0.08624361
226	0xbde4ac65	-0.11165694
227	0xbda0ffa4	-0.078612596
228	0xbd3e3173	-0.046433877
229	0x3df1ea47	0.11812263
230	0x3ac49833	0.0014998972
231	0x3dbd8b00	0.09255028
232	0xbddc20a2	-0.10748412
233	0x3c5d123b	0.013493116
234	0x3d931d01	0.071832664
235	0x3dfa546a	0.12223132
236	0x3b1d7ae4	0.0024029547
237	0x3d8b8777	0.06812947
238	0xbda87738	-0.08225864
239	0x3d9cc89f	0.07655453
240	0xbe233a0d	-0.15940113
241	0x3e030585	0.12795074
242	0x3dede1bb	0.1161532
243	0x3e695b1b	0.2278866
244	0x3dc50b80	0.09621334
245	0xbcac8a74	-0.021062113
246	0xbdd2ea15	-0.10298554
247	0x3de4d588	0.1117354
248	0x3e014641	0.12624456
249	0xbd72b3ba	-0.05925343
250	0xbdb0fac8	-0.08641583
251	0xbe415e83	-0.1888371
252	0x3d5a74b9	0.05333397
253	0x3cc4b7c4	0.024013408
254	0x3de1ca3c	0.11024901
255	0x3e1dbc1f	0.15403794

bias f4 [32]
0	0x3da6ca8e	0.08144103
1	0x3d60b7d3	0.05486281
2	0xbd42ebff	-0.047588345
3	0xbe3a6d32	-0.18205717
4	0xbdbd3a5d	-0.092396475
5	0x3db13707	0.08653074
6	0x3e5a55c8	0.21321785
7	0x3e0049a4	0.12528092
8	0xbd703ed7	-0.05865368
9	0x3c5c2d27	0.0134384995
10	0x3e2b3f07	0.16723262
11	0xbeabe79f	-0.3357515
12	0xbea24a68	-0.31697392
13	0x3dd78ccd	0.105249025
14	0xbe033cf7	-0.12816225
15	0xbe9a2944	-0.30109608
16	0xbe78c59f	-0.24294136
17	0x3da468e4	0.08027819
18	0x3e5eeaa6	0.21769199
19	0xbe32f1e4	-0.17475086
20	0xbe195e7b	-0.14977448
21	0xbeaf0f6d	-0.34191456
22	0xbd17e5b9	-0.037084315
23	0xbdffa293	-0.124821804
24	0xbd654b1f	-0.055979844
25	0x3d5d6a4c	0.05405645
26	0xbd80cf60	-0.06289554
27	0xbe2c73ed	-0.16841097
28	0xbd902a56	-0.07039325
29	0xbd328e9d	-0.043593038
30	0x3d8d3385	0.06894592
31	0x3d4aa3dd	0.04947268

weight f4 [32, 32, 5, 5]
0	0xbd154983	-0.03644706
1	0x3c01f2b1	0.007931397
2	0x3c418a9b	0.011812831
3	0x3b33cbca	0.00274347
4	0x3cedbba9	0.029020147
5	0xbc95e147	-0.018295897
6	0xbc59653e	-0.013268767
7	0x3d6c32d2	0.057665654
8	0x3ca1a346	0.019731175
9	0x3d7bd824	0.061485425
10	0xbb103e13	-0.0022009655
11	0x3cd2ffd0	0.025756747
12	0x3d843415	0.06455246
13	0x3d03941d	0.032123674
14	0xbb532568	-0.003221834
15	0x38f572b5	0.00011703876
16	0x3d232198	0.03982696
17	0x3d905dca	0.07049139
18	0x3d35f54b	0.044423383
19	0x3cb1eef2	0.021720383
20	0x3ca50db5	0.020148138
21	0x3cbafe17	0.022826238
22	0x3c591727	0.013250149
23	0x3cc5477e	0.024081942
24	0x3cd54894	0.026035585
25	0xbc60164c	-0.013677191
26	0xbd328ecd	-0.043593217
27	0xbbe6f903	-0.0070487275
28	0x3c80750b	0.01568081
29	0x3d177110	0.03697306
30	0x3c14a8c8	0.009073444
31	0x3bc09508	0.005877141
32	0xbcac535b	-0.02103584
33	0x3c64c482	0.013962867
34	0x3d69635b	0.05697952
35	0xbb36702f	-0.0027837863
36	0xbad8a047	-0.0016527259
37	0x3d18bc2a	0.037288822
38	0x3d8359ff	0.0641365
39	0x3d96bf18	0.07360667
40	0xbd8816a5	-0.06644944
41	0xbd5d4602	-0.054021843
42	0x3d02fd68	0.03197995
43	0x3a6b27bf	0.0008970461
44	0x3c01db0b	0.007925759
45	0xbccfed22	-0.025381628
46	0xbd4eef1c	-0.050521
47	0x3d5f8f78	0.05458018
48	0x3cd1bff4	0.025604226
49	0x3d11abaf	0.03556412
50	0x3c0ccb7a	0.0085934345
51	0xbd27768a	-0.040884532
52	0xbce0fe23	-0.027464932
53	0x3c2000d3	0.0097658215
54	0xbc73357f	-0.014844297
55	0x3a12e7e3	0.0005604012
56	0xbdb363b6	-0.08759253
57	0xbb754054	-0.0037422376
58	0x3d05891b	0.032601457
59	0xbb0382a5	-0.0020066884
60	0xbd98dac3	-0.074636005
61	0xbd357054	-0.044296578
62	0xbd2fe7c3	-0.042945635
63	0xbc8b285f	-0.016987024
64	0xbc3b5616	-0.011434099
65	0xbcdb573b	-0.026774993
66	0xbd924bd2	-0.07143368
67	0xbd305d93	-0.04305799
68	0x3cfc76ee	0.030818429
69	0xbcd2d2af	-0.025735227
70	0xbcbb4be1	-0.02286333
71	0xbc2d15c6	-0.010564273
72	0x3baeab70	0.0053304955
73	0xbc3a74d0	-0.011380389
74	0x3c8f9cc5	0.017530808
75	0xbd15d11c	-0.036576375
76	0x3935d3ff	0.0001734048
77	0x3c50f46e	0.012753589
78	0x3ca4b757	0.020106955
79	0x3b15c489	0.002285274
80	0x39778a7c	0.00023607345
81	0xbb007dac	-0.0019606156
82	0xbca700fc	-0.020386212
83	0xbc277b8d	-0.010222328
84	0xbc838cbe	-0.016058322
85	0xbd20d4ff	-0.03926563
86	0xbcd9cb14	-0.026586093
87	0xbcad1095	-0.021126071
88	0x3c55cd0f	0.013049378
89	0x3c8562f5	0.016282538
90	0xbc86bbe5	-0.016447017
91	0xbd2ae6eb	-0.041724127
92	0xbd4b5ffe	-0.049652092
93	0xbbb7c312	-0.005607971
94	0xbc26acdb	-0.010173048
95	0xbc2efd25	-0.010680472
96	0xbbf5a09a	-0.007495952
97	0x3bce7643	0.006300719
98	0x3cec06f0	0.028811902
99	0x3cccf6ba	0.025019992
100	0x3cc7d2e0	0.024392545
101	0x3d402cda	0.046917774
102	0xbd0b1c66	-0.03396263
103	0x3c486c72	0.012232887
104	0xbd18328b	-0.037157577
105	0x3c789076	0.015171161
106	0x3ce705a8	0.02820094
107	0x3d30ee99	0.043196294
108	0xbb8d2702	-0.0043076286
109	0x3b1f22db	0.002428225
110	0x3ca1db6c	0.019757949
111	0x3d516dc1	0.05113006
112	0x3b1c7e7c	0.0023879101
113	0xbb1abcb3	-0.0023611009
114	0x3ce5d85e	0.028057273
115	0x3d1397f4	0.036033586
116	0x3d0bf00c	0.034164473
117	0xbca219b4	-0.019787647
118	0xbd422c2c	-0.047405407
119	0xbc232a14	-0.009958763
120	0xba9ba001	-0.0011873246
121	0x3cafd7d5	0.021465221
122	0xbcfc5385	-0.030801544
123	0xbd3bb02f	-0.04582232
124	0xbc281edd	-0.010261265
125	0x3d181d48	0.0371373
126	0xbc130296	-0.0089727845
127	0x3ca80316	0.020509284
128	0xbc5b300a	-0.013378153
129	0xbc39d99a	-0.011343384
130	0x3d207981	0.039178375
131	0x3caab4d2	0.020838175
132	0x3d09834a	0.033572473
133	0x3c5e8f86	0.013584023
134	0xbb4186b1	-0.0029529745
135	0x3d158d12	0.03651149
136	0x3c479b2d	0.012182993
137	0x3d27c3d5	0.040958244
138	0x3bfc53f4	0.0077004377
139	0xbbbb8720	-0.0057228953
140	0x3d4644f1	0.04840559
141	0xbbf5423f	-0.007484704
142	0x3b8811fa	0.0041525336
143	0xbd2023f8	-0.039096802
144	0x3b131ff6	0.002244947
145	0x3cb8a972	0.022541735
146	0x3cbb5116	0.022865813
147	0x3bd6eb72	0.006558829
148	0xbc0b4c19	-0.00850203
149	0xbc4b027c	-0.012390729
150	0xbc2f7c31	-0.010710762
151	0x3cd9afe7	0.026573135
152	0x3cae3a9f	0.021268187
153	0x3da4f70a	0.080549315
154	0x3c314d26	0.010821616
155	0xbc238438	-0.009980254
156	0x3d615701	0.055014614
157	0x3d521202	0.051286705
158	0x3d99523d	0.07486389
159	0x3d5e7067	0.054306414
160	0xbc00aae1	-0.007853241
161	0x3d8a1e74	0.0674409
162	0x3d20640c	0.039157912
163	0x3d4f8803	0.05066682
164	0x3dace0a4	0.08441284
165	0xbcdb38b4	-0.026760437
166	0x3d09db39	0.033656333
167	0x3d088dee	0.03333848
168	0x3d8d62eb	0.06903633
169	0x3d559aa6	0.052149437
170	0xbc741fcf	-0.014900162
171	0xbd1944f1	-0.037419263
172	0x3c123aab	0.00892512
173	0xbd346229	-0.044038925
174	0xbcc3e419	-0.023912476
175	0xbc788372	-0.015168058
176	0x3c252db0	0.0100816935
177	0x3c11e032	0.00890355
178	0x3ccda703	0.025104051
179	0x3c68269a	0.01416936
180	0x3cecfd7d	0.028929466
181	0x3c25c391	0.010117427
182	0x3d741166	0.059586905
183	0x3d3b534a	0.045733728
184	0x3c6ddb93	0.014517683
185	0xbbdb4416	-0.006691466
186	0x3cd3f602	0.025874142
187	0x3cecefd6	0.028922956
188	0xbc8c7b65	-0.017148683
189	0x3b74b431	0.0037338848
190	0x3d04620e	0.032320075
191	0xbc52a468	-0.01285658
192	0xbcdaef7d	-0.026725525
193	0xbcdd49e6	-0.027012777
194	0xbc9b8156	-0.01898257
195	0xbc123417	-0.008923552
196	0x3c59d104	0.013294462
197	0xbd6bf10a	-0.05760292
198	0xbd44077a	-0.047858693
199	0xbd3c9375	-0.046039063
200	0x3bbbb207	0.0057280096
201	0xbc5eaff3	-0.013591754
202	0x3a8cbae1	0.0010736847
203	0xbc8c4c8f	-0.01712635
204	0x3c0e44e5	0.008683418
205	0xbca89f4a	-0.020583767
206	0xbcb412f6	-0.021981698
207	0xbcd3bae2	-0.025845949
208	0x3c7df3c2	0.015500011
209	0xbc9714c0	-0.018442512
210	0x3d0b549b	0.034016233
211	0x3be94e9c	0.0071199667
212	0xbb3e5dc6	-0.0029047593
213	0xbcba74c6	-0.02276076
214	0x3cf8323c	0.030297391
215	0x3c263995	0.010145565
216	0x3d1d8ea4	0.03846611
217	0x3d0c8978	0.034310788
218	0x3c86d553	0.016459143
219	0x3b0e4b32	0.00217123
220	0x3b28845b	0.0025713656
221	0xbd20af9e	-0.03922998
222	0x3c9b74ae	0.018976536
223	0xbbabb78f	-0.0052403877
224	0xbd35cdb7	-0.044385638
225	0x3cc9a669	0.024615483
226	0xbd0a0bb9	-0.033702586
227	0xbc8852ab	-0.016640982
228	0xbd6ab809	-0.057304416
229	0xbcf20763	-0.029544538
230	0xbc28dd0a	-0.010306606
231	0xbd66b650	-0.05632621
232	0xbc6f6e68	-0.014613725
233	0xbd90d10f	-0.07071125
234	0xbd0cd5fd	-0.034383763
235	0x3b16cd8f	0.0023010706
236	0xbd7fd4b0	-0.062458694
237	0xbd2ad9d2	-0.041711636
238	0x3b43bb25	0.0029866186
239	0xbcdd8040	-0.027038693
240	0x3ce0bc20	0.027433455
241	0xbd0b4877	-0.034004655
242	0xbaf0c05a	-0.0018367872
243	0xbb74e62e	-0.0037368643
244	0xbc99d2ad	-0.018777216
245	0xbc8d48f9	-0.01724671
246	0xbd661818	-0.05617532
247	0x3c8ae66b	0.016955575
248	0x3c0d4432	0.008622216
249	0xbd0245bf	-0.031804796
250	0x3cef00d0	0.029175192
251	0xbb932649	-0.004490648
252	0xbcaf5b21	-0.021405758
253	0xbc0573e9	-0.008145311
254	0x3d0a3c1e	0.03374874
255	0xbc39f369	-0.011349537

bias f4 [32]
0	0x3c058406	0.008149153
1	0xbe7795d6	-0.24178252
2	0x3d05860f	0.03259855
3	0xbc6c60a0	-0.014427334
4	0xbe03a756	-0.12856802
5	0x3d202e09	0.039106403
6	0xbd135b70	-0.035975873
7	0xbe0db031	-0.13836743
8	0x3c3072ab	0.0107695265
9	0xbdc8aaf5	-0.097982325
10	0xbe0f0d4b	-0.13969915
11	0x3d8c3972	0.06846894
12	0xbdec7a8c	-0.115468115
13	0xbdb0a827	-0.086258225
14	0xbe0d29c1	-0.13785459
15	0xbdf0ec06	-0.11763768
16	0xbd91a30e	-0.07111178
17	0xbe161570	-0.14656615
18	0xbd74f860	-0.05980718
19	0xbe294997	-0.16531979
20	0xbc5bceef	-0.013416036
21	0xbd60bb1f	-0.054865953
22	0xbdc29985	-0.09501938
23	0x3c4b2a0e	0.012400163
24	0x3d1f4c05	0.038890857
25	0x3ca4a81f	0.020099698
26	0xbe6bfd9b	-0.23045962
27	0xbe8668b1	-0.26251748
28	0x3d276a1d	0.040872682
29	0xbe043aec	-0.12913102
30	0xbd56a408	-0.052402526
31	0xbe508780	-0.20364189

weight f4 [64, 32, 5, 5]
0	0xbd169d12	-0.036770888
1	0xbc041fd3	-0.008064228
2	0xbd04d07f	-0.0324254
3	0xbd2f774f	-0.04283839
4	0xbc3a62f3	-0.01137613
5	0x3d091798	0.033469766
6	0x3cabb521	0.020960392
7	0xbce37e46	-0.027770173
8	0xbcb68d33	-0.022284126
9	0xbc7b5c22	-0.01534179
10	0xbcf30cc3	-0.029669171
11	0x3c44a969	0.012003281
12	0xbb6ba9b1	-0.0035959298
13	0xbcdd6c4a	-0.027029175
14	0x3b06d2c4	0.0020572403
15	0x3c2613f7	0.010136596
16	0xbd20694f	-0.03916293
17	0x3ba4e9da	0.00503276
18	0x3b49bf51	0.00307842
19	0x3da55487	0.08072763
20	0x3c3e0839	0.01159864
21	0x3d427b6a	0.047480978
22	0x3bb3ea0a	0.005490546
23	0xbcea169f	-0.02857524
24	0x3cca864e	0.024722245
25	0x3db389ed	0.08766542
26	0x3d21f228	0.03953758
27	0xbd17e3e9	-0.037082586
28	0xbd2f69dc	-0.042825565
29	0xbd4c4bec	-0.049877092
30	0x3d267b6f	0.04064506
31	0xb978e089	-0.00023734769
32	0x3b64eb59	0.0034930317
33	0xbc95fa52	-0.018307839
34	0xbcbbfb69	-0.02294703
35	0xbc9ced37	-0.019156082
36	0x3c9ae7a3	0.018909281
37	0x3c27d22d	0.010242981
38	0x3cea669a	0.028613377
39	0x3d4e50ac	0.050369903
40	0x3ad08ec4	0.0015911688
41	0x3c66bbbe	0.014082847
42	0xbb149cac	-0.0022676392
43	0xbbf65030	-0.0075168833
44	0xbd097d64	-0.033566847
45	0xbb8cccf1	-0.004296892
46	0x3cf6a3db	0.03010743
47	0x3d818549	0.0632425
48	0xbce6d45d	-0.028177435
49	0xbce74900	-0.028233051
50	0x3d076daf	0.033063587
51	0xbcffef35	-0.031241992
52	0xbd04c0ba	-0.03241036
53	0xbd442f95	-0.04789694
54	0x3d19c62a	0.0375425
55	0x3cfc9086	0.030830633
56	0xbac257c6	-0.0014827184
57	0x3d7439a6	0.05962529
58	0x3bd4e3f5	0.006496901
59	0xbbb9b247	-0.0056670043
60	0x3ca994e3	0.020700878
61	0x3bd2e9bc	0.0064365547
62	0x3b65f3ab	0.0035087864
63	0x3d26fc32	0.040767856
64	0x3d2365f0	0.039892137
65	0xbd146b76	-0.036235295
66	0x3b450b26	0.003006646
67	0x3c099222	0.008396657
68	0xbc261842	-0.010137619
69	0x3bb1937b	0.0054191924
70	0xbd6c2282	-0.057650097
71	0x3ce2ffa2	0.027709786
72	0x3d5d4db5	0.054029185
73	0xbd06c9de	-0.03290736
74	0xbd0bb499	-0.03410778
75	0xbc0a33c2	-0.008435192
76	0x3c9700f5	0.018433074
77	0x3cbd33e4	0.023096032
78	0x3c987401	0.018610002
79	0x3cb92c4d	0.022604132
80	0x3cebfbeb	0.028806647
81	0xbc35e104	-0.011101011
82	0x3c6d952f	0.0145009
83	0x3c3f3337	0.011669925
84	0xbc8e44ee	-0.017366853
85	0x3c26f737	0.010190777
86	0x3a8219bf	0.0009925886
87	0xbcea6649	-0.028613226
88	0x3b6e2770	0.0036339425
89	0xbbf4c040	-0.007469207
90	0x3d3f61ff	0.046724316
91	0x3d111e42	0.035429247
92	0x3ce82884	0.028339632
93	0x3c4d640d	0.012536061
94	0x3b932d4c	0.004491484
95	0xbd3b4626	-0.045721196
96	0xbd0f4cc2	-0.03498531
97	0x3c68a359	0.014199101
98	0xbcc7873b	-0.024356475
99	0x3cb82d92	0.022482667
100	0xbb7dfe6e	-0.0038756388
101	0xbc9446eb	-0.018100223
102	0xbc38c9cf	-0.011278584
103	0xbcbf0d1f	-0.023321686
104	0xbcf892eb	-0.030343493
105	0x3d755040	0.059890985
106	0xbbe447b1	-0.006966554
107	0x3c06e7c8	0.008233972
108	0x3cd0ea13	0.02550224
109	0x3b8055ee	0.0039164936
110	0x3d697e8a	0.057005443
111	0xbb7cf84b	-0.0038600143
112	0xbcdca9a4	-0.02693636
113	0x3d24b8b0	0.040215194
114	0xbce7990f	-0.028271226
115	0xbce554e7	-0.027994586
116	0xbcbc4f84	-0.022987135
117	0x3c4e76b2	0.012601541
118	0x3d23eba5	0.04001965
119	0xbc6d1552	-0.014470415
120	0x3c8f11a2	0.017464463
121	0x3c2ff78e	0.010740174
122	0x3c808f0f	0.015693216
123	0x3c33d7b6	0.010976722
124	0xbb9552d1	-0.0045569916
125	0x3bbf1695	0.0058315494
126	0xbb65061f	-0.0034946275
127	0xbd48d7d8	-0.04903397
128	0xbd7aa293	-0.0611902
129	0x3a86ed4a	0.0010294106
130	0xbaadc43b	-0.0013257334
131	0xbab49aa7	-0.0013779
132	0xbd2a2dc3	-0.041547548
133	0xbcfa4ed2	-0.030555163
134	0xbd8339d4	-0.06407514
135	0xbccfeb94	-0.025380887
136	0xbb56b8de	-0.0032763998
137	0xbce6b56b	-0.028162679
138	0x3ca0d97c	0.019634955
139	0x3d15b1f6	0.03654667
140	0xbd02ec2d	-0.031963516
141	0xbd54f781	-0.05199385
142	0x3c7acbbb	0.015307362
143	0xbc2b1011	-0.010440842
144	0xbd006cab	-0.031353634
145	0xbd73be38	-0.05950758
146	0x3d07b8b5	0.033135135
147	0x3c3773d0	0.011197045
148	0x3d135c17	0.035976496
149	0x3cdf6eae	0.027274456
150	0x3d213b2e	0.03936308
151	0x390f18b5	0.00013646747
152	0x3d06245c	0.03274952
153	0x3c0ad567	0.008473731
154	0x3d0786c1	0.033087496
155	0xbcd5c386	-0.02609421
156	0xbd0d46d0	-0.03449136
157	0x3d65c97a	0.056100346
158	0x3d2b4980	0.041818142
159	0x3bf491b1	0.007463657
160	0xbd026400	-0.03183365
161	0x3c71df20	0.01476267
162	0x3d75737d	0.05992459
163	0xbb68aa20	-0.0035501793
164	0xbaf28815	-0.001850369
165	0xbd6373a8	-0.05553022
166	0xbce8fbe6	-0.028440427
167	0xbd27133d	-0.04078983
168	0xbd3daeec	-0.046309397
169	0x3da00eed	0.07815347
170	0x3c8eb68a	0.017421026
171	0x3b903f6b	0.0044020913
172	0x3adcde9f	0.0016851014
173	0xbc83bce2	-0.016081277
174	0x3cedfdb6	0.029051643
175	0xbc9e4dff	-0.0193243
176	0xbc796257	-0.0152212
177	0xbbe65496	-0.0070291264
178	0xbb855850	-0.0040693656
179	0xbcb16840	-0.021656156
180	0xbb9cf7cc	-0.004790282
181	0xbcdd63ec	-0.027025186
182	0xbce1cace	-0.027562525
183	0x3bdb816b	0.0066987774
184	0x3c1a75a9	0.009427466
185	0x3ca0c86f	0.019626824
186	0xbc1f773e	-0.009733019
187	0xbcea8582	-0.028628115
188	0x3d1d8af7	0.038462605
189	0xbc3c518e	-0.0114940535
190	0x3c8cb84e	0.017177727
191	0x3ce53966	0.027981471
192	0x3c9a561f	0.018839894
193	0xbc63cdc5	-0.01390404
194	0x3ce2bc6b	0.027677735
195	0xbc24cb03	-0.010058167
196	0xbd144aa3	-0.03620399
197	0x3c0aa040	0.008461058
198	0xbca25a38	-0.01981841
199	0x3cfe09d1	0.03101054
200	0xbc5d9880	-0.013525128
201	0xbc224059	-0.009903037
202	0xbaf4ba37	-0.0018671219
203	0xbc973188	-0.018456236
204	0xbd59e948	-0.05320099
205	0x3ca9f77a	0.020747889
206	0xbd03e79c	-0.0322033
207	0xbd21d115	-0.039506037
208	0xbcc2a9d7	-0.023762627
209	0xbd0961e0	-0.033540606
210	0x3cba626b	0.022752007
211	0xbcb2576c	-0.021770202
212	0xbcd524a9	-0.026018457
213	0xbd3af7fd	-0.045646656
214	0x3cbb262f	0.022845356
215	0x3a724ba7	0.00092428405
216	0xbcd94ed3	-0.026526844
217	0xbcc7d5ec	-0.024393998
218	0xbd17b7df	-0.037040588
219	0xbcc01e75	-0.023452023
220	0xbcb633d1	-0.022241505
221	0xbc8d353e	-0.017237302
222	0x3d25b8fc	0.040459618
223	0x3cae42de	0.02127212
224	0x3cb397e2	0.02192301
225	0xbbf8e9ef	-0.0075962464
226	0xbd0aa2a4	-0.033846512
227	0x3c0bba2c	0.008528274
228	0xbd153c37	-0.03643438
229	0xbcee1590	-0.029063016
230	0xbcefc08e	-0.029266622
231	0xbc21c000	-0.0098724365
232	0xbc6a9fe5	-0.014320348
233	0xbd20a66a	-0.039221205
234	0xbc453abb	-0.012037928
235	0xbcf10097	-0.029419227
236	0xbcf6f418	-0.03014569
237	0xbbc0284c	-0.0058641788
238	0xbccfe769	-0.0253789
239	0xbd1791e6	-0.037004374
240	0x3c8dae93	0.017295158
241	0xbce5dda8	-0.028059795
242	0xbd209264	-0.03920211
243	0xbd3d7939	-0.046258185
244	0x3d250036	0.040283404
245	0xbd28a8ea	-0.041176714
246	0xbc813bfe	-0.015775677
247	0x3ad0c9b3	0.0015929252
248	0x3a223814	0.0006188166
249	0x3d0a782a	0.033806004
250	0xbc079fcf	-0.008277847
251	0xbd449fa9	-0.048003826
252	0xbcddb6a8	-0.027064636
253	0xbd2bff36	-0.041991435
254	0x3bcc2820	0.006230369
255	0x3ba444c2	0.0050130794

bias f4 [64]
0	0xbd87525a	-0.06607504
1	0xbd87a1ce	-0.06622659
2	0xbd86c3d5	-0.06580321
3	0xbdeda235	-0.11603204
4	0xbda045dc	-0.078258246
5	0xbb90169e	-0.0043972274
6	0xbdb1706d	-0.08664022
7	0xbdacc4aa	-0.08435948
8	0x3bd62f70	0.0065364167
9	0xbd9c4281	-0.07629872
10	0xbd493f78	-0.049132794
11	0xbda09aaa	-0.07842
12	0xbcc24aa6	-0.023717236
13	0xbd4dd93c	-0.050256
14	0xbcf424ca	-0.029802699
15	0xbcce6fc8	-0.025199786
16	0xbd901fa4	-0.07037285
17	0x3b77d724	0.0037817443
18	0xbdde5879	-0.108567186
19	0xbde41e98	-0.11138648
20	0xbd54dd25	-0.051968712
21	0xbe0f9326	-0.14020976
22	0xbcce1d57	-0.025160475
23	0xbd6960d4	-0.056977108
24	0xbdd38f73	-0.10330095
25	0xbe082d8a	-0.13298622
26	0xbd943ad5	-0.07237784
27	0xbdf13ad4	-0.11778799
28	0xbd5e0d42	-0.054211862
29	0xbd787f9d	-0.060668577
30	0xbd8e1a6a	-0.06938632
31	0xbbc45da4	-0.005992608
32	0xbc14167f	-0.009038567
33	0xbce8d71f	-0.02842289
34	0xbd03708a	-0.032089747
35	0xbbdd0512	-0.006744989
36	0xbda2bd01	-0.07946206
37	0x3cbf5b40	0.023358941
38	0x3d02c01e	0.0319215
39	0xbc67c8b5	-0.014146973
40	0xbdc24885	-0.09486488
41	0xbde92ac3	-0.11385109
42	0xbdb8b74b	-0.09019335
43	0xbdd0d75a	-0.10197325
44	0xbd162dad	-0.036664654
45	0x3c0426f8	0.0080659315
46	0xbd3d662e	-0.046240024
47	0xbd5750b2	-0.05256719
48	0xbd2ede83	-0.042692672
49	0xbd6b6db8	-0.057477683
50	0x3b1052d0	0.0022022016
51	0xbdf104d0	-0.11768496
52	0xbde90321	-0.1137755
53	0xbcffd2bc	-0.031228416
54	0xbc218203	-0.009857657
55	0xbe09bdd6	-0.13451323
56	0xbd95202b	-0.07281526
57	0xbca1c355	-0.019746462
58	0xbd4d720f	-0.050157603
59	0xbdb24465	-0.087044515
60	0xbd70a713	-0.058753084
61	0xbd85ae01	-0.06527329
62	0x3cc4645e	0.02397364
63	0xbbe4da97	-0.0069840658

weight f4 [64, 1024]
0	0x3be2aebd	0.006917803
1	0xbd0393ee	-0.0321235
2	0x3768d471	1.38777405e-05
3	0x3cb0ef30	0.021598428
4	0x3ca89858	0.020580456
5	0x3b9a50de	0.004709347
6	0x3b2eb67d	0.0026659064
7	0xbcc5ea82	-0.024159674
8	0x3d048a29	0.032358322
9	0x3cc5cd2f	0.02414569
10	0x3bd05b03	0.0063585057
11	0x3cd65a17	0.026166005
12	0xbca82c3f	-0.02052891
13	0xbd0edec9	-0.034880433
14	0xbc89d77e	-0.016826387
15	0xbbcd2b00	-0.0062612295
16	0xbcc6fdd2	-0.024290953
17	0xbcf3e2a4	-0.029771157
18	0xbc97ddc7	-0.018538369
19	0x3cede9ee	0.02904221
20	0x3bfe0bed	0.0077528865
21	0x3bde68ba	0.0067873867
22	0x3c09caad	0.008410138
23	0x3c89cd3c	0.016821496
24	0xbab399c6	-0.0013702444
25	0x3c435e1d	0.011924294
26	0xbcd5c39c	-0.02609425
27	0xbb9d7d74	-0.004806215
28	0xbd3e26e9	-0.046423826
29	0xbcf08f30	-0.029365152
30	0x3d270e69	0.040785227
31	0x3d39279b	0.045203786
32	0x3c99aa2d	0.018757904
33	0xbd90e7f7	-0.07075494
34	0xbb949e20	-0.0045354515
35	0xbc43916d	-0.011936528
36	0xbc9eb6b0	-0.019374222
37	0x39bc5707	0.00035922995
38	0xbd118d8c	-0.03553538
39	0xbc080409	-0.008301743
40	0x3d019034	0.031631663
41	0x3cb7a928	0.022419527
42	0x3d3938a2	0.045220025
43	0x3d1bf22f	0.03807276
44	0xbceaaaed	-0.028645957
45	0xbbc1148a	-0.005892341
46	0x3c53ff00	0.012939215
47	0x3d75f524	0.060048237
48	0xbb0503f6	-0.002029655
49	0x3ca3c475	0.019991139
50	0x3b68de0b	0.0035532739
51	0xbd43effa	-0.04783628
52	0x3d70b2db	0.05876432
53	0x3caf4e14	0.021399535
54	0x3c215fb9	0.009849482
55	0x3d7c0592	0.06152875
56	0xbc182fff	-0.009288787
57	0x3d4e8b67	0.050425913
58	0x3c8e084b	0.017337939
59	0x3d4330d2	0.04765398
60	0x3cf979f7	0.030453665
61	0xbb06283a	-0.0020470754
62	0xbc5259ef	-0.012838825
63	0xbb023bfa	-0.0019872175
64	0x3bab2e57	0.00522403
65	0xbb8cdadc	-0.004298551
66	0x3bce3ada	0.0062936367
67	0x3c217127	0.009853638
68	0x3d174c4c	0.036937997
69	0x3c618b5b	0.013766135
70	0x3ca75a8b	0.020428916
71	0xbd24f9c1	-0.040277246
72	0xbcb1c4c5	-0.021700272
73	0xbcc503d5	-0.024049679
74	0x3b9870d0	0.00465212
75	0xbb693a7d	-0.003558784
76	0x3d43b159	0.047776554
77	0xbbf4b402	-0.0074677477
78	0x3ca0c399	0.019624518
79	0xbb7d702a	-0.0038671591
80	0xbc01a6c8	-0.007913299
81	0x3d081f8b	0.033233207
82	0x3d180d87	0.037122276
83	0x3af4f3e8	0.0018688412
84	0xbcda4251	-0.02664295
85	0xbbdd86fd	-0.0067604766
86	0xbc965d83	-0.018355137
87	0x3cc7ac4e	0.024374153
88	0xba483e63	-0.0007638691
89	0xbb45655d	-0.0030120232
90	0xbbaecc72	-0.0053344304
91	0xbc138d67	-0.009005881
92	0x3c54113a	0.01294356
93	0xbcbd064a	-0.023074288
94	0xbbd4e00e	-0.006496436
95	0xbcf9cbfc	-0.030492775
96	0x3d417cb9	0.047238085
97	0xbc97a69e	-0.018512066
98	0xbcaee686	-0.021350157
99	0xbc3bb646	-0.011457032
100	0x3cf901fd	0.030396456
101	0xb99af644	-0.0002955665
102	0xbcebbcdc	-0.028776579
103	0xb9f4374e	-0.00046580512
104	0xbd080ec7	-0.033217218
105	0xbc96b471	-0.018396588
106	0x3cd5e288	0.026108995
107	0xbc271197	-0.010197065
108	0x3c3ac1bb	0.011398728
109	0x3b9303a9	0.0044865203
110	0x3c80ce8a	0.015723485
111	0x3cc658a2	0.024212185
112	0xbcd9a909	-0.02656986
113	0x3ca473a0	0.020074666
114	0xbc8f9239	-0.01752578
115	0x3c5a7b48	0.013335057
116	0x3d10d6a3	0.035360944
117	0xbd119399	-0.03554115
118	0xba0eb844	-0.0005444328
119	0x3bf022bd	0.00732836
120	0x3cf154d5	0.029459396
121	0xbd028f09	-0.03187469
122	0x3c04f3f6	0.008114805
123	0xbc02dbb4	-0.007986952
124	0xbc0af0df	-0.00848028
125	0x3c16df57	0.009208522
126	0x3c7814e1	0.015141697
127	0x3cc645f2	0.024203274
128	0x3d0dd2b9	0.03462479
129	0x3c90eb50	0.01769033
130	0xbcc9d4ed	-0.024637664
131	0x3d3555f3	0.04427142
132	0xbc74f497	-0.014950893
133	0xbca6195a	-0.02027576
134	0xbccd94cf	-0.025095372
135	0x3cf0a506	0.029375564
136	0x3d227e19	0.039671037
137	0x3cb23ed3	0.021758473
138	0xbccddced	-0.02512976
139	0x3b8e53fe	0.0043435087
140	0xbcf33bdc	-0.02969163
141	0xbcb9383e	-0.022609826
142	0xbc8745bb	-0.016512742
143	0xbbd503d0	-0.0065006986
144	0xbce12f78	-0.027488455
145	0x3b04fbb1	0.0020291621
146	0xbd18ef1a	-0.0373374
147	0x3ca35561	0.019938173
148	0xbcd378a1	-0.025814356
149	0xbc74c670	-0.014939889
150	0xbc40d211	-0.011768834
151	0x3c120276	0.00891172
152	0x3bd31eb0	0.006442867
153	0x3cea3456	0.028589409
154	0x3cc60c85	0.024175892
155	0x3d3df3eb	0.046375196
156	0xbcb82f26	-0.02248342
157	0xbd08ad4d	-0.033368398
158	0x3d1800ca	0.037110128
159	0xbba121dd	-0.004917367
160	0x3cf44401	0.029817583
161	0x3b2d0911	0.002640311
162	0xbb86edd0	-0.004117705
163	0x3c46faee	0.012144787
164	0xbd151c52	-0.03640396
165	0xbd09324d	-0.033495236
166	0xbc606c9f	-0.013697772
167	0xbd391903	-0.04518987
168	0x3ccbaf09	0.024863737
169	0x3cceff47	0.02526821
170	0x3cc315d8	0.023814127
171	0xbc9ff0d5	-0.019524017
172	0xbbe9de19	-0.007137072
173	0x3c29fc4e	0.0103750955
174	0x3d247a93	0.04015596
175	0x3c332aa3	0.010935458
176	0x3cbb9ccf	0.02290192
177	0x3c81762f	0.015803425
178	0x3c8559bc	0.01627814
179	0xbbac2101	-0.005252958
180	0xbb9867d0	-0.0046510473
181	0x3cfb666d	0.030688489
182	0x3ccc8a0d	0.024968171
183	0xbcc2896e	-0.023747172
184	0x3bb8e244	0.0056422073
185	0xbd6fa08d	-0.058502723
186	0xbccae5f2	-0.02476785
187	0x3c2a3356	0.010388216
188	0x3cb789ac	0.022404514
189	0xbca0d48e	-0.019632604
190	0xba80bb6d	-0.0009821482
191	0xbd30011b	-0.042969804
192	0x3bab21e9	0.0052225483
193	0x3a868302	0.0010262432
194	0x3d836320	0.06415391
195	0x3d1adc8d	0.03780799
196	0x3c791139	0.01520186
197	0xbd48c782	-0.04901839
198	0xbc82eb5a	-0.015981365
199	0xbcc39b73	-0.023877835
200	0xbd299e2a	-0.041410603
201	0x3ce69f9b	0.028152278
202	0x3d11858f	0.035527762
203	0xbc068567	-0.008210517
204	0xbc4e412e	-0.012588782
205	0xbc5d6419	-0.013512635
206	0x3aaebf9b	0.0013332249
207	0x3d2415fd	0.040060032
208	0xbc815839	-0.015789138
209	0xbcbccc66	-0.023046684
210	0x3d3a744a	0.04552106
211	0xbbd363d3	-0.006451109
212	0x3d448ac0	0.047983885
213	0x3d1b14b4	0.03786154
214	0x3c941070	0.018074244
215	0xbbc0fff6	-0.005889888
216	0x3cfa114e	0.03052583
217	0x3bcbb4b8	0.0062166117
218	0x3cac9d63	0.021071142
219	0xbc2acf4d	-0.010425401
220	0x3a98b1e5	0.0011649696
221	0xbcb0e71c	-0.021594577
222	0x3ce37ffa	0.027770985
223	0xbcb0cb18	-0.021581218
224	0xba8a2e41	-0.0010542349
225	0xbcf1c51a	-0.02951293
226	0xbd5711fa	-0.05250738
227	0xbd706257	-0.058687534
228	0x3cce4b47	0.02518238
229	0x3d1b1b91	0.037868086
230	0x3c943223	0.018090313
231	0xbc1e1360	-0.009648174
232	0x3cacce19	0.021094369
233	0xbc1724b3	-0.009225058
234	0x3cd0b257	0.025475664
235	0xbcccac98	-0.024984643
236	0xbaeb1460	-0.0017935149
237	0xbca44ac3	-0.02005518
238	0xbc4371e0	-0.011929005
239	0x398f6e64	0.00027357333
240	0x3d20a07e	0.039215557
241	0xbcd40f93	-0.025886333
242	0x3b1839f9	0.0023227914
243	0xb84f50c3	-4.942786e-05
244	0xbd23334e	-0.03984385
245	0xbc729277	-0.014805428
246	0x3c3488ee	0.011018975
247	0x3b955cb2	0.0045581693
248	0xbcd9d115	-0.026588956
249	0xbc01e267	-0.007927514
250	0xb960bc6a	-0.00021432494
251	0x3d0da46d	0.034580637
252	0x3cb03a07	0.021512045
253	0xbacf907d	-0.0015835908
254	0xbb284ce7	-0.0025680603
255	0xbbda7593	-0.006666848

bias f4 [64]
0	0xbd0f01a1	-0.034913663
1	0xbc794190	-0.015213385
2	0x3a8d9d10	0.0010804255
3	0xbd5061c4	-0.050874487
4	0xbbf69f14	-0.007526288
5	0xbb675c6f	-0.0035302897
6	0x3c90444f	0.017610697
7	0x3ba8f22b	0.005155822
8	0xbc77070d	-0.015077365
9	0xbc885d47	-0.01664604
10	0x3beb5b91	0.0071825464
11	0xbd0df2b3	-0.034655284
12	0x3cb4dcab	0.022077879
13	0xbc7d3433	-0.01545434
14	0xbb120533	-0.002228093
15	0x3ba306c1	0.0049751704
16	0x3cb4655b	0.022020986
17	0x3cb4cc7c	0.022070162
18	0x3c882021	0.016616883
19	0x3c39a110	0.011329904
20	0x3cfa486a	0.030552108
21	0xbc7fea04	-0.0156197585
22	0x3b506e30	0.0031803958
23	0xbcaf6f40	-0.021415353
24	0xbccad808	-0.024761215
25	0xbc13ec9b	-0.009028579
26	0x3d28e3fc	0.041233048
27	0x3bfcda93	0.0077164858
28	0xbd4d4ccf	-0.05012208
29	0xbae06cfc	-0.0017122324
30	0xbd45d80f	-0.048301753
31	0xbd46ff75	-0.048583467
32	0x3d0ec582	0.034856327
33	0x3ce271ee	0.027642217
34	0x3d92b041	0.07162524
35	0x3c739fa9	0.014869609
36	0x3c4e4c63	0.012591454
37	0xbd31c314	-0.04339893
38	0x3c5f9af1	0.013647781
39	0xbb73b260	-0.0037185177
40	0x3b3d1a59	0.0028854816
41	0x3cafc8a9	0.021457987
42	0xbd183781	-0.037162308
43	0xbd71531e	-0.058917157
44	0xbca2713e	-0.019829389
45	0x3d337c03	0.04381944
46	0xbc7ece2f	-0.015552088
47	0x3d94c2fd	0.072637536
48	0xbc1b855a	-0.009492243
49	0xbbdae372	-0.0066799456
50	0xbcf84b32	-0.030309293
51	0xbc78189f	-0.015142589
52	0xbc9702a1	-0.01843387
53	0x39e3126b	0.00043310536
54	0xbd4ad08c	-0.049515292
55	0xbc8ed256	-0.01743428
56	0x3d226b3a	0.03965304
57	0xbc831ec6	-0.016005885
58	0xbd1bccf6	-0.038037263
59	0xbd40cc45	-0.047069807
60	0x3b99f99a	0.0046989443
61	0x3d0a9ad5	0.033839066
62	0x3ca0a382	0.019609217
63	0x3d147f21	0.036254052

weight f4 [10, 64]
0	0xbdec972d	-0.11552272
1	0x3e75ad25	0.2399183
2	0xbd52ee5a	-0.05149684
3	0xbc36a7cc	-0.011148404
4	0xbe3bb11a	-0.18329278
5	0x3e603fea	0.21899381
6	0xbe5d1d7f	-0.21593283
7	0xbc996bdd	-0.018728191
8	0xbdf148bf	-0.11781453
9	0x3eb94383	0.3618432
10	0xbdb86ab5	-0.09004728
11	0x3e9e15d1	0.3087602
12	0xbe2d0a02	-0.16898349
13	0xbe0f3796	-0.13986048
14	0x3e159d72	0.14610842
15	0xbcdac242	-0.026703957
16	0x3e045799	0.12924041
17	0x3e64392a	0.22287431
18	0x3d99a3fd	0.075019814
19	0xbe2058a9	-0.15658821
20	0x3e27451a	0.16334954
21	0x3dbe724e	0.09299146
22	0xbe1009e6	-0.14066276
23	0x3e3c32e6	0.18378791
24	0x3e18f73a	0.1493806
25	0x3cd1aa1d	0.025593812
26	0xbe395c8b	-0.18101709
27	0x3e288eb3	0.16460685
28	0xbc1b1d8c	-0.009467494
29	0x3e30e461	0.1727462
30	0x3e618f2e	0.22027275
31	0x3e1c8cbc	0.15288061
32	0xbe90001d	-0.28125086
33	0x3d97133c	0.073767155
34	0xbe5d73bd	-0.21626182
35	0xbd803af3	-0.06261244
36	0x3cd7a104	0.026321895
37	0x3e87520d	0.26429787
38	0x3e2b9899	0.1675743
39	0x3e4add0d	0.19810887
40	0xbda9a09a	-0.082825854
41	0xbe348619	-0.17629279
42	0xbdccdf53	-0.10003533
43	0x3e290582	0.16506007
44	0xbda44184	-0.080203086
45	0xbdcc2b0e	-0.099691495
46	0xbe5df831	-0.21676709
47	0xbe093707	-0.13399898
48	0xbdee90eb	-0.11648735
49	0x3e83684b	0.25665507
50	0xbcd7689c	-0.026294999
51	0x3e491290	0.19635987
52	0x3e3afa67	0.18259583
53	0x3e20a331	0.15687253
54	0xbcb665e3	-0.02226538
55	0x3ce28226	0.02764995
56	0x3e2f16a3	0.17098479
57	0x3dcf0eb1	0.10110224
58	0x3d966914	0.07344261
59	0x3df31d38	0.118708074
60	0xbd7ff2b6	-0.062487327
61	0x3cade9d8	0.02122967
62	0xbcc6b4e9	-0.024256187
63	0xbd706682	-0.05869151
64	0x3e229122	0.15875676
65	0x3e8b7e4e	0.272448
66	0xbd0859f4	-0.03328891
67	0x3e58d667	0.21175538
68	0x3c5f6282	0.013634326
69	0xbe8ee4be	-0.2790889
70	0x3c0aad86	0.008464223
71	0x3e173516	0.14766344
72	0x3e750361	0.2392707
73	0x3deada03	0.11467364
74	0xbe00e917	-0.12588917
75	0xbda220b5	-0.079163946
76	0x3e210402	0.15724185
77	0x3e23f167	0.16010056
78	0xbe4ac806	-0.19802865
79	0x3d555c2f	0.052089866
80	0xbe45bca6	-0.19310245
81	0xbeb08e3e	-0.34483522
82	0x3eb2b81d	0.34906092
83	0x3e6b054a	0.22951236
84	0xbe7354f5	-0.23762877
85	0x3e7e121e	0.24811599
86	0x3e2c97f2	0.16854838
87	0x3e8b638e	0.27224392
88	0xbe1236ab	-0.14278667
89	0xbe8a8ab6	-0.27058953
90	0x3e1286f4	0.14309293
91	0x3dcba866	0.09944229
92	0xbe4c55d3	-0.19954614
93	0xbea205c9	-0.3164504
94	0x3e985e8e	0.2975964
95	0xbd92dbea	-0.071708515
96	0x3e943874	0.2894932
97	0x3d423f70	0.04742378
98	0xbdc98d81	-0.09841443
99	0x3d582376	0.052768193
100	0x3ea6d362	0.32583147
101	0xbe6ca301	-0.23109056
102	0xbcc5f5ac	-0.024164997
103	0x3db70992	0.08937372
104	0xbe0470cd	-0.12933655
105	0xbebeb9c4	-0.37251103
106	0x3e8e7867	0.27826235
107	0x3e3280e8	0.17431986
108	0xbdbff429	-0.09372742
109	0x3e7f618c	0.24939555
110	0x3cd07725	0.025447438
111	0xbe1c07b9	-0.15237321
112	0x3e175c16	0.14781222
113	0x3dde974a	0.108687
114	0xbe0dc01f	-0.1384282
115	0xbcd5934d	-0.026071215
116	0x3e08bd8d	0.13353558
117	0x3e00c574	0.12575322
118	0xbe9f552e	-0.31119674
119	0x3e6a66de	0.22890803
120	0xbcbdef9b	-0.023185542
121	0x3d3abdfd	0.045591343
122	0x3e04e96b	0.12979667
123	0x3c9ae8f3	0.018909907
124	0x3eaf8a4f	0.3428521
125	0x3de08e1a	0.10964604
126	0x3de68be6	0.11257152
127	0x3e70069b	0.2344002
128	0x3dfe6e6d	0.12423406
129	0xbdca5639	-0.09879727
130	0xbdad9cee	-0.084771976
131	0x3e2caf7f	0.16863821
132	0x3d8847d5	0.06654326
133	0x3e80446d	0.25052205
134	0xbe6d5086	-0.23175249
135	0xbe8a6bb8	-0.27035308
136	0x3e253bcd	0.16136093
137	0x3e79e84d	0.24405022
138	0xbb974575	-0.004616434
139	0x3c1e972c	0.009679597
140	0xbdcc6f51	-0.099821694
141	0x3e503e67	0.20336305
142	0xbe88899f	-0.26667497
143	0x3d4568db	0.0481957
144	0xbdbda2d4	-0.092595726
145	0x3eab6ab4	0.33479846
146	0xbe7094ee	-0.23494312
147	0x3d74282f	0.059608635
148	0x3df1c62b	0.11805376
149	0xbc9ccb46	-0.019139897
150	0xbd7a6205	-0.061128635
151	0xbe3e2181	-0.18567468
152	0xbdfdc89d	-0.123917796
153	0x3e941569	0.28922585
154	0x3b92cf67	0.0044802907
155	0xbe3d8151	-0.18506362
156	0x3d61f55b	0.05516563
157	0x3c517ce5	0.012786125
158	0xbe748090	-0.23877168
159	0xbda8d200	-0.08243179
160	0xbe228f74	-0.15875036
161	0x3d8a8037	0.06762736
162	0xbd7e2c65	-0.062054057
163	0xbdcea5aa	-0.10090192
164	0xbe44dd54	-0.19225055
165	0x3e1550d6	0.14581618
166	0x3c9ef184	0.019402273
167	0x3e1f9cf0	0.1558721
168	0x3dbfb180	0.09360027
169	0x3e419ef0	0.18908286
170	0xbd5e1f4e	-0.054229073
171	0xbea61ade	-0.32442373
172	0xbdd617fb	-0.10453793
173	0xbd3eb7fd	-0.046562184
174	0xbe53c121	-0.20679142
175	0x3d8e67c1	0.06953383
176	0xbd1fa62c	-0.038976833
177	0x3e290830	0.1650703
178	0x3e6411e7	0.22272454
179	0x3e82f449	0.25577
180	0xbd4f64e2	-0.05063332
181	0x3e7483aa	0.23878351
182	0xbe3a4504	-0.1819039
183	0xbe473dc4	-0.19457155
184	0xbe7e4ebc	-0.24834722
185	0xbc092e49	-0.008372852
186	0xbd9d92bb	-0.07694002
187	0xbe5388e3	-0.20657687
188	0x3daf4d4b	0.08559664
189	0x3d485ec2	0.048918493
190	0xbe1e88a2	-0.15481809
191	0x3e0570fe	0.13031384
192	0x3e068f4e	0.13140604
193	0xbe18a979	-0.14908399
194	0x3d58963d	0.052877653
195	0xbc3d6247	-0.011559076
196	0xbe1b456a	-0.15163198
197	0xbe8cea2c	-0.2752241
198	0xbe2443b4	-0.16041452
199	0xbdd9490f	-0.10609638
200	0x3e3869bc	0.18009084
201	0xbe4182e7	-0.18897592
202	0xbe275ccd	-0.16343994
203	0x3c849a0f	0.016186742
204	0xbe1d3b1d	-0.15354581
205	0xbd88b042	-0.066742435
206	0xbe22040f	-0.1582186
207	0xbe35cac8	-0.17753136
208	0x3e879341	0.26479533
209	0xbe49e7f3	-0.19717388
210	0xbe12ce8b	-0.14336602
211	0xbe47f48d	-0.19526882
212	0xbdceb699	-0.100934215
213	0xbe0b4103	-0.13599019
214	0xbdf0cab8	-0.117574155
215	0xbe4c9522	-0.19978765
216	0x3e05d280	0.1306858
217	0x3dfea664	0.1243408
218	0xbd1bc6e2	-0.038031466
219	0x3c835bc1	0.016034963
220	0x3c032916	0.008005401
221	0x3dade3a8	0.084906876
222	0xbe3c0092	-0.18359593
223	0xbe225893	-0.15854101
224	0x3db2ccb2	0.08730449
225	0x3e17a3e8	0.14808619
226	0xbe3ed86a	-0.18637243
227	0xbd8ba234	-0.06818047
228	0x3e32d58f	0.17464279
229	0xbdc1e896	-0.0946819
230	0xbd147b47	-0.03625038
231	0x3deada13	0.114673756
232	0xbe47631d	-0.19471402
233	0xbdb0098b	-0.0859557
234	0x3de1151d	0.10990355
235	0xbd838834	-0.06422463
236	0x3d840907	0.06447034
237	0x3da8a946	0.08235411
238	0xbd586c8e	-0.0528379
239	0x3e0465f9	0.12929524
240	0xbe0e8cca	-0.13920894
241	0xbe1d177c	-0.1534099
242	0xbe4fda1f	-0.2029805
243	0xbce9c1ac	-0.028534733
244	0xbe11b30e	-0.1422846
245	0x3d575563	0.052571665
246	0x3d73534c	0.05940561
247	0xbe84b417	-0.25918648
248	0xbd9fc617	-0.078014545
249	0xbe0d4407	-0.13795482
250	0x3de27abd	0.11058567
251	0x3e4495d4	0.1919778
252	0xbe47f3d0	-0.19526601
253	0x3dbaf07f	0.09127902
254	0xbdd86496	-0.1056606
255	0xbd9f8965	-0.07789878

bias f4 [10]
0	0xbe49b562	-0.19698098
1	0xbd68d492	-0.056843348
2	0xbb5455c5	-0.0032399755
3	0xbcb32fbe	-0.021873351
4	0x3e39b4a2	0.18135312
5	0xbce6f01c	-0.028190665
6	0x3d7b14bf	0.061299082
7	0xbd4631cb	-0.04838733
8	0xbcbcd477	-0.02305053
9	0x3c05826a	0.008148769
