models/gpu_train_model23.pth (torch, 587335 bytes, 10 tensors)

weight f4 [32, 3, 5, 5]
000000 7d 77 95 3d 16 25 4a 3e d5 95 37 3d 81 df 52 bd
       0.07298181 0.1974071 0.044820625 -0.05148268
000010 a0 c9 14 be b3 cc 31 3d 2e 3f 2b 3e de ef 3e 3e
       -0.14530039 0.043408107 0.1672332 0.1864619
000020 39 8f f4 bd ef 2b f6 bd 1c 10 96 3d fb 36 0f 3e
       -0.1194138 -0.120200984 0.07327291 0.13985817
000030 5b 8a 98 3b 7e 15 7f bd 73 9a 41 bd fe 46 e1 3c
       0.004655165 -0.062276356 -0.047266435 0.027499672
000040 c2 01 1b be f2 8c f8 bd a5 2d 1f 3d de 84 6c 3e
       -0.1513739 -0.12136258 0.03886189 0.2309756
000050 19 67 33 be 40 cc 24 be 3f 75 ba 3d c4 0f d5 3d
       -0.17519797 -0.1609354 0.09104394 0.10403398
000060 3e 0a 2a 3e 5f 66 09 3e f8 c4 13 3e 4e 72 95 bd
       0.1660547 0.13417958 0.14430606 -0.072971925
000070 c6 63 de 3b f5 e0 f5 bd f6 15 3d 3e 60 77 55 3d
       0.0067867963 -0.12005798 0.18465409 0.052115798
000080 96 17 90 3d 28 1f 19 be 08 f0 86 bd 4f de ae 3d
       0.07035749 -0.14953291 -0.06588751 0.08538496
000090 05 f4 6e 3d 4a db 23 3d 65 4b 3a bd 99 b1 b6 bd
       0.058338184 0.040004052 -0.045482058 -0.08920593
0000a0 69 87 d0 bd 05 e1 4f be 77 67 ad bc 28 01 e3 3d
       -0.101820774 -0.20300682 -0.0211675 0.11084205
0000b0 71 5b 71 3e 82 cc e6 bd 35 fd 65 bd 84 5a 76 3d
       0.23570038 -0.112694755 -0.05614968 0.060144916
0000c0 5b 76 92 3d 0d cb fd 3d fa b1 c1 3d d8 d9 c8 3d
       0.07151481 0.123922445 0.094577745 0.098071754
0000d0 3b 00 35 be 59 b6 67 be 75 3c 18 be 63 a4 a0 bc
       -0.17675869 -0.22628154 -0.14866813 -0.019609636
0000e0 ef 28 47 3d 27 ae e1 bc b1 3e 7e be e3 b2 75 be
       0.04862302 -0.027548863 -0.24828602 -0.23994021
0000f0 5c 2b 24 bd 7b e5 84 bc aa 30 9e bd 68 a4 6f bd
       -0.040080413 -0.016222706 -0.07724126 -0.0585064
000100 08 32 ef bc 00 81 ed bd 11 53 b1 bd 80 f4 3e be
       -0.029198661 -0.115968704 -0.08658422 -0.18647957
000110 23 b0 04 3e d2 85 d5 3d f8 76 48 be 9f fd ab bb
       0.12957816 0.10425915 -0.19576633 -0.00524874
000120 db 3e d5 bc 10 e8 0d bd 42 6b 55 3c 3e 8c 25 3e
       -0.026030948 -0.03464514 0.013026061 0.1616678
000130 fd 13 00 bd ae dc 30 be 88 6f 2e bd d0 0c ce bd
       -0.031269062 -0.17271683 -0.042586833 -0.100610375
000140 0b 0c aa bd 83 66 4f be d0 21 9e be e9 28 21 3d
       -0.08303078 -0.20253949 -0.30885172 0.039345656
000150 31 50 23 3e 6a 4b 56 be b8 a1 44 be 02 3b 0c be
       0.1594856 -0.20927206 -0.19202316 -0.13694385
000160 8e 1a 64 3e c8 de bb 3d 33 bc 66 bc 23 26 55 be
       0.22275755 0.091733515 -0.014082956 -0.20815329
000170 73 d0 88 3d 75 b6 05 3e 12 2c 90 3d 4e 23 39 3d
       0.066803835 0.13057883 0.07039656 0.045199685
000180 a1 6f 4a be 10 d9 f9 3d 8d 6f 01 3e 68 5f ef bd
       -0.19769146 0.121996045 0.1264021 -0.11688119
000190 7f 22 55 3e b9 f5 b1 bd f5 4a cd bd 82 ec 97 3c
       0.2081394 -0.08689446 -0.100240625 0.018545393
0001a0 a0 3d 27 3e 7c ac 04 bd ca 93 f4 bc 5c 77 71 be
       0.16332102 -0.032391056 -0.029855628 -0.23580688
0001b0 36 70 26 3e 80 7c 47 3e 88 0a e3 bd d3 1e b7 3c
       0.16253743 0.19481087 -0.11085993 0.022353565
0001c0 a9 d7 5d bd f1 42 52 3e 5d 23 f9 3d 6b d4 45 3d
       -0.054160748 0.20533349 0.12164948 0.04829828
0001d0 91 53 23 be 1c 55 60 3e dc ee 72 3e 77 1b 8f 3d
       -0.15949847 0.21907467 0.2372393 0.069876604
0001e0 c5 61 d0 3c fb de 2c 3c 32 d4 3b 3e 6f 2c 59 3d
       0.025437245 0.01055121 0.18342665 0.05302089
0001f0 c9 96 6c bc b6 76 26 3e c5 48 c8 bc 32 f5 79 be
       -0.014440247 0.16256222 -0.024448762 -0.24409941
000200 b2 14 81 bd df cc 0c bd bc 0a 44 bc 88 47 91 bd
       -0.063027754 -0.034375068 -0.01196545 -0.07093722
000210 cc 2a 06 be a8 2d be 3d 3b cb 91 3d bc cd 21 be
       -0.13102263 0.09286052 0.07118841 -0.15801138
000220 cb 99 5a bc 18 4c 61 3d f6 c6 13 3e be cf ff bc
       -0.013342331 0.05500421 0.14431366 -0.031226989
000230 b6 a4 2f be 84 3f 1f be e6 62 a5 3d cb c3 b3 3c
       -0.17152676 -0.15551573 0.08075504 0.021943947
000240 25 c6 06 bd 4e 9d ff bd d6 ee b3 bc ee ee e5 3c
       -0.03290381 -0.12481175 -0.021964472 0.028068032
000250 23 32 fe 3d a0 50 42 bd dc b6 df bd 2b 50 13 3e
       0.124119066 -0.04744017 -0.109235495 0.1438605
000260 a0 08 ac 3d 84 f3 33 3b 43 51 6b 3c 79 cc 24 be
       0.084000826 0.002745838 0.014362636 -0.16093625
000270 16 2b 64 3e 4c 30 2f 3e 87 5d d9 bd 31 c9 b1 bc
       0.22282061 0.17108268 -0.10613542 -0.02170238
000280 85 61 e1 bd c6 2b 38 3e 81 3b 32 3e bf e5 64 bb
       -0.110049285 0.17985448 0.17405511 -0.0034926978
000290 13 3a 21 3e 02 2b 75 3d 87 2a 67 3e d2 23 27 3b
       0.1574481 0.05985547 0.22574817 0.0025503528
0002a0 5d 96 27 3d 49 c6 55 3e 21 60 b2 3d 01 32 01 3e
       0.040914882 0.20876421 0.087097414 0.12616731
0002b0 fd 59 f1 3d 7c 3d 1a ba ba d6 22 3e 32 8e 65 bd
       0.11784742 -0.00058837957 0.15902224 -0.05604381
0002c0 b5 38 4a 3d 75 c7 3b bd 35 9b 9e bd 5e 7f ff 3d
       0.049370486 -0.045844514 -0.07744447 0.12475465
0002d0 ea ce 91 bd 3b 21 83 3c 24 c3 ee bc 07 b5 57 3d
       -0.07119544 0.016007056 -0.029145785 0.052662876
0002e0 af fc 8b 3d b6 81 36 be 0f b4 ab 3c 2b 48 ef bc
       0.06835305 -0.17822918 0.020959882 -0.029209217
0002f0 74 d0 28 be f6 3e 86 3d 18 71 f1 bd 0c e5 55 bd
       -0.16485769 0.065549776 -0.11789149 -0.05222039
000300 42 55 06 be f6 e1 d5 bc 09 1c 1c 3e 55 9d aa bb
       -0.13118461 -0.026108723 0.1524507 -0.0052067437
000310 50 91 0c 3d 48 12 17 3d 09 ab 99 3d 13 1e 2f 3b
       0.03431827 0.03688267 0.075033255 0.0026720806
000320 a3 84 85 bd d8 61 80 bd 2d 92 3d bd 44 52 1f 3d
       -0.06519439 -0.06268662 -0.046281982 0.038896814
000330 87 67 e5 bd b5 10 5b be 76 50 f6 3c 84 63 0d be
       -0.11201387 -0.21393092 0.030067664 -0.13807493
000340 4e a3 2e be 08 9e ef 3c 2e ab 8c be 18 96 c2 bb
       -0.17054483 0.02925016 -0.2747435 -0.0059383027
000350 57 09 df bd c5 f6 0b be 73 af 92 3d 17 c3 f2 bd
       -0.10890453 -0.13668354 0.071623705 -0.11853617
000360 d8 23 64 bd 0f e3 f5 bd fb b4 ec bc 1d c3 5f 3c
       -0.055698246 -0.120061986 -0.028894892 0.0136573585
000370 4b f4 45 be ba e5 66 3d a5 26 1d be 63 cb 7a 3d
       -0.19331472 0.056371428 -0.15346773 0.06122912
000380 27 1f 28 3d a7 6f b4 3d 4a ba d0 bd d1 1d 9e bd
       0.041045334 0.088103585 -0.10191782 -0.07720531
000390 20 12 69 bd d0 0c e8 3d 23 b4 b9 bb f8 55 bc 3d
       -0.05690205 0.11330569 -0.005667226 0.09196085
0003a0 39 e6 c6 bd ca 0e 88 3c 61 b1 92 3d 33 9b f3 3d
       -0.0971188 0.016608614 0.071627386 0.11894836
0003b0 84 ca 90 bb 51 98 99 3d bf a2 97 bd 20 5d aa 3d
       -0.004418673 0.07499755 -0.07404088 0.083185434
0003c0 45 51 18 be ee a1 03 3e 54 f3 dc 3d 3a 06 5f 3e
       -0.14874752 0.1285474 0.10788599 0.21779719
0003d0 27 a4 bc 3d c4 32 68 bc 18 be c2 bd 0b 67 df 3d
       0.09210997 -0.01417226 -0.09508914 0.10908326
0003e0 f0 0b f6 3d 47 77 6a bd c4 3c ad bd e8 ae 37 be
       0.12013996 -0.057242658 -0.08458856 -0.17937815
0003f0 9c 05 5a 3d 73 75 2a 3c ad 62 d2 3d 7d 70 15 3e
       0.053228006 0.010403979 0.10272727 0.14593692

bias f4 [32]
000000 e1 fa a3 3d c1 af 63 3d 01 41 29 bd 27 20 3a be
       0.08006836 0.055587534 -0.04132176 -0.18176328
000010 97 7d b8 bd 5f 1d cd 3d 7b 1a 4f 3e 12 b0 ff 3d
       -0.09008329 0.10015368 0.20224945 0.124847546
000020 9d 35 85 bd 88 7a 95 3c 63 10 2f 3e c9 04 a8 be
       -0.065043665 0.018246904 0.17096095 -0.3281615
000030 f3 b6 a0 be 25 13 d4 3d 4b 10 03 be 5d 64 97 be
       -0.3138958 0.10355214 -0.12799184 -0.2956876
000040 4c ee 70 be 75 e9 8e 3d 89 68 5c 3e 28 01 34 be
       -0.23528403 0.06978122 0.21524252 -0.17578566
000050 76 dd 14 be 49 2b b0 be cc 3d 12 bd 2f 6d f3 bd
       -0.14537606 -0.34408024 -0.035703465 -0.118860595
000060 ec 0e 6a bd f4 20 45 3d 9d 96 68 bd f5 14 23 be
       -0.057143137 0.04812713 -0.05678426 -0.15925963
000070 b8 36 8f bd 6c 50 38 bd 94 d9 84 3d 0a 82 66 3d
       -0.06992859 -0.04499857 0.06486812 0.05627636

weight f4 [32, 32, 5, 5]
000000 3f 6f 01 bd 68 45 2a 3c 7f f2 43 3c 8e 88 40 3a
       -0.031600233 0.010392524 0.011959671 0.0007344567
000010 06 ff f2 3c 8a 12 53 bc e8 7c 5b bc 20 c3 57 3d
       0.02966262 -0.012882838 -0.013396479 0.05267632
000020 9e 85 a3 3c db ae 7b 3d e9 1e 96 b9 ff 07 e0 3c
       0.019961175 0.061446052 -0.0002863326 0.027347563
000030 99 d6 7f 3d a2 ce f7 3c 73 00 bb ba 16 80 5a 3b
       0.062460516 0.030249897 -0.0014267102 0.0033340505
000040 6f ed 27 3d 8b 81 8d 3d d3 b8 40 3d e4 2a c0 3c
       0.04099792 0.06909474 0.047051262 0.023457952
000050 fe 60 a8 3c 3b 9a c7 3c 4e 49 75 3c 67 87 c6 3c
       0.020554062 0.024365535 0.0149710905 0.024234487
000060 f2 a1 e7 3c d4 31 35 bc 13 99 18 bd a6 4b d9 bb
       0.028275464 -0.011059243 -0.037255358 -0.0066313324
000070 fe 02 93 3c 58 9f 1c 3d 3c 47 3e 3c 3d 30 b7 3b
       0.017945763 0.0382379 0.011613663 0.0055904672
000080 c7 2d 9d bc 2b 2f 52 3c 44 39 6c 3d 9a 89 76 39
       -0.019186867 0.0128286285 0.0576718 0.00023511649
000090 36 e0 6c bb d8 2c 0b 3d 5c 6b 80 3d fb e6 8f 3d
       -0.0036144382 0.033978313 0.06270477 0.07026478
0000a0 f0 fa 88 bd b6 51 52 bd 67 7f f2 3c a6 a4 8d ba
       -0.066884875 -0.051347457 0.029601766 -0.0010806515
0000b0 22 48 15 3c 2c 0f d8 bc 36 1a 44 bd ef aa 50 3d
       0.009111436 -0.026374422 -0.04787656 0.050944265
0000c0 08 26 c7 3c 08 47 03 3d ab 6c 2a 3c 22 4c 15 bd
       0.024310127 0.032050163 0.010401885 -0.03644956
0000d0 c6 e3 e3 bc de 8c 0b 3c 81 f1 84 bc f4 48 6c 3b
       -0.027818572 0.008517472 -0.01622844 0.0036054226
0000e0 72 89 a5 bd 71 c1 14 bb eb 3a 09 3d e2 a4 a8 bb
       -0.08082856 -0.0022698308 0.033503454 -0.0051466087
0000f0 4d b0 8e bd 39 5e 20 bd 76 57 2d bd b2 ed 81 bc
       -0.069672205 -0.039152358 -0.042319737 -0.015860412
000100 3c 84 65 bc 9a 54 e0 bc ab 1c 88 bd 1a c5 26 bd
       -0.014008578 -0.027384091 -0.06646093 -0.040715314
000110 79 8f 04 3d 62 e0 ce bc 39 c3 c4 bc 91 15 18 bc
       0.03236339 -0.025253478 -0.02401887 -0.009282486
000120 4d 73 41 3b 09 8b 36 bc 09 cb 8f 3c 45 1c 13 bd
       0.0029518188 -0.011141547 0.01755287 -0.03591563
000130 ce e1 42 3b 10 fc 52 3c 03 f9 a1 3c a6 f7 16 3b
       0.002973664 0.012877479 0.019772058 0.0023035794
000140 50 37 a5 3a 09 b2 f1 b8 73 87 a3 bc 20 58 2d bc
       0.0012604985 -0.00011524937 -0.019962048 -0.010580093
000150 c1 8c 90 bc 99 97 22 bd 6c 5b b1 bc f8 d7 8d bc
       -0.017645242 -0.039695356 -0.021650039 -0.017314896
000160 0b 8c 8e 3c de d7 9b 3c 88 0d 96 bc f1 d6 21 bd
       0.017400762 0.019023832 -0.018317 -0.039511625
000170 b5 b7 44 bd 13 85 b4 bb 57 4b 2d bc 2a 89 6e bc
       -0.04802676 -0.0055090277 -0.010577044 -0.01455907
000180 87 ea 05 bc 61 9e 00 3c ca b3 e7 3c 2e 2a cf 3c
       -0.008173591 0.0078502605 0.028283972 0.025288668
000190 69 d6 ed 3c 87 b4 3b 3d f4 2f 01 bd 63 8e 76 3c
       0.029032903 0.04582646 -0.031539872 0.015048596
0001a0 f2 bc 07 bd 12 52 81 3c dd bc fa 3c ca 86 27 3d
       -0.033139177 0.015786204 0.030607635 0.04090003
0001b0 62 18 0f bb 87 06 86 3b 54 07 5b 3c aa 74 53 3d
       -0.0021834602 0.0040901336 0.013368446 0.05162493
0001c0 95 de 51 3b 76 13 37 bb 07 81 e3 3c f2 a4 f0 3c
       0.0032023538 -0.0027935184 0.027771486 0.029375527
0001d0 27 87 f5 3c 2d 2c 8f bc 5b 5b 3d bd f3 9d 18 bc
       0.029971672 -0.01747712 -0.0462297 -0.009315002
0001e0 0c 82 1b bc 41 9e 8f 3c 88 8e e3 bc 19 1f 38 bd
       -0.009491455 0.017531516 -0.027777925 -0.044951532
0001f0 38 fc 27 bc 7b bb 3c 3d e5 47 f2 bb 6d ba ab 3c
       -0.010253005 0.046077233 -0.0073938244 0.020962918
000200 73 2d 04 bc 03 50 84 bb 38 f3 30 3d 79 45 af 3c
       -0.008067477 -0.0040378585 0.0432007 0.021395432
000210 9e 05 fc 3c 3c 51 90 3c 76 7d 55 3a dc b0 19 3d
       0.030764397 0.01761686 0.00081440003 0.037522182
000220 ae 27 58 3c 53 ec 1e 3d 14 1a fb 3b 31 1f bf bb
       0.013193054 0.038799595 0.007663021 -0.0058325757
000230 ab bd 49 3d ce 72 89 bb 45 9b 94 3b c6 5b 13 bd
       0.049253147 -0.004194594 0.004535111 -0.035976194
000240 8f 95 db 3b fa 64 cc 3c 8f 20 c4 3c 21 45 01 3c
       0.0067011784 0.024950493 0.023941306 0.007890017
000250 1b 67 fd bb 31 12 2a bc ae c1 2a bc 6e ea e8 3c
       -0.0077332384 -0.010380314 -0.010422153 0.028432097
000260 52 c1 b1 3c 43 e6 9b 3d 17 ae 20 3c 25 5b 2d bc
       0.021698628 0.07612278 0.009807131 -0.010580813
000270 df e3 63 3d 7c 77 50 3d af 5b 97 3d fa 0c 56 3d
       0.055637237 0.0508952 0.07390534 0.05225847
000280 7e fe 1c bc d5 b5 89 3d 55 ec 16 3d 2a f8 45 3d
       -0.00958216 0.06724135 0.036846478 0.04833237
000290 9a 08 a6 3d 8a 36 cc bc 31 be 09 3d ee c3 03 3d
       0.08107109 -0.02492835 0.033628646 0.032169275
0002a0 8d 76 8b 3d 06 d3 49 3d 7b 93 0f bc 1e 3a 13 bd
       0.06809721 0.049273513 -0.008763189 -0.035944097
0002b0 5c ab 23 3c a6 57 25 bd b3 56 9b bc 45 84 fc bb
       0.009989586 -0.04036679 -0.01896224 -0.0077061974
0002c0 51 d2 57 3c 1c 41 f5 3b 6a a5 dd 3c 10 bd a6 3c
       0.013172702 0.0074845683 0.027056415 0.020353824
0002d0 ea 98 0e 3d f9 ce 5b 3c 2d c9 66 3d 50 81 40 3d
       0.0348138 0.013416045 0.0563442 0.046998322
0002e0 86 e5 a4 3c 4c 70 73 bb 45 c9 c5 3c 82 6d e2 3c
       0.020128977 -0.0037145792 0.024143824 0.027640108
0002f0 1e f1 8b bc 23 18 ba 3b 26 bb 0f 3d fd bd 15 bc
       -0.017082747 0.005679147 0.035090588 -0.009139535
000300 dd 35 a9 bc f9 d8 c4 bc 51 62 89 bc 72 74 05 bc
       -0.020655567 -0.024029242 -0.016770514 -0.0081454385
000310 72 83 50 3c 9a 9d 66 bd 53 45 31 bd 63 16 31 bd
       0.0127266515 -0.056302644 -0.043279003 -0.04323424
000320 53 3b 8a 3b 2b 2e 58 bc db 9e 16 3b 32 d6 84 bc
       0.004218498 -0.013194601 0.0022982869 -0.016215418
000330 10 52 1b 3c 1b 67 af bc 7f 7f a9 bc 7e 7c c4 bc
       0.009480014 -0.02141147 -0.020690678 -0.023985144
000340 7d a8 8d 3c ea ef 88 bc ee 0e 03 3d 03 aa 0f 3c
       0.017292256 -0.016715962 0.03199666 0.008768561
000350 9e 3d 20 bb a5 96 bc bc 67 57 ff 3c e9 83 ce 3b
       -0.002445079 -0.023021052 0.031169606 0.006302346
000360 e9 f0 14 3d 7c 14 ff 3c a2 ce 87 3c 01 1d 1a 3b
       0.036362562 0.031137697 0.016578022 0.0023515823
000370 09 78 ab 39 d5 63 23 bd 41 a6 7a 3c 09 c8 a4 bb
       0.00032705095 -0.03989013 0.015298427 -0.005028729
000380 ce c4 37 bd 7e 29 bb 3c 49 9a ee bc a2 cc 76 bc
       -0.044865422 0.022846933 -0.029126303 -0.015063437
000390 9a 75 59 bd 1f 29 df bc 05 28 01 bc 5c f7 55 bd
       -0.05309067 -0.027241288 -0.007883077 -0.052237853
0003a0 97 d4 6f bc e3 cf 87 bd 63 eb f6 bc 2c 50 0c 3b
       -0.014638088 -0.06631448 -0.030141538 0.002141009
0003b0 06 d3 75 bd 12 dd 30 bd d6 31 8c 3b 17 3b c1 bc
       -0.0600157 -0.04317958 0.004278402 -0.023587747
0003c0 4c b8 c7 3c 30 4d 11 bd 9c 49 d2 bb 35 0e c2 3a
       0.024379872 -0.035474002 -0.0064174663 0.0014805259
0003d0 5e 60 90 bc 67 e6 a8 bc c4 bf 65 bd de 60 07 3c
       -0.017624076 -0.020617677 -0.056091085 0.008262841
0003e0 a4 10 33 3c e3 df 08 bd 1f 68 08 3d c5 1f 0b bb
       0.01092926 -0.03341664 0.033302423 -0.0021228653
0003f0 3e 2e 8e bc f4 61 fd bb 24 a1 17 3d 21 25 db bb
       -0.017356034 -0.007732624 0.03701891 -0.0066877757

bias f4 [32]
000000 e6 71 46 3c d9 f1 64 be d8 ab 16 3d e2 7d 8b bc
       0.012112116 -0.22357883 0.036784977 -0.017027799
000010 a6 50 f3 bd 70 df 30 3d 23 7b 06 bd 54 26 09 be
       -0.11880617 0.043181837 -0.032832276 -0.13393527
000020 0e 1e 66 3c 8c b9 c2 bd d7 80 02 be bc 2a 9a 3d
       0.0140452515 -0.095080465 -0.12744461 0.07527682
000030 f9 7c d8 bd 2c a1 94 bd 94 09 03 be 6f ad e6 bd
       -0.10570712 -0.072573036 -0.12796623 -0.112635486
000040 2d 0e 85 bd d1 bd 0a be 89 bc 5e bd 77 7e 1f be
       -0.064968444 -0.13548972 -0.05437902 -0.15575586
000050 88 16 b3 bb 56 1f 87 bd ee 9a ac bd f0 06 3f 3c
       -0.0054653324 -0.06597774 -0.08427988 0.011659369
000060 47 40 1c 3d 13 70 dc 3c b6 60 58 be b6 28 75 be
       0.038147237 0.02690891 -0.21130642 -0.23941311
000070 e7 ac 35 3d bc 91 f5 bd f4 0e 4d bd cc 70 3d be
       0.044354346 -0.11990687 -0.05006309 -0.1850006

weight f4 [64, 32, 5, 5]
000000 73 5a 05 bd ce 67 a0 bc 2a 3f 18 bd 85 ba 35 bd
       -0.032556962 -0.019580748 -0.037169613 -0.044367332
000010 6d 48 46 bc 3e 99 0a 3d 57 6f 9b 3c 76 8d bd bc
       -0.012102229 0.03383755 0.01897399 -0.023138743
000020 35 17 c9 bc c8 49 6c bc d8 6c eb bc b9 c0 5b 3c
       -0.024547199 -0.014421888 -0.028738424 0.013412648
000030 cc ff 3b bc f3 2b b5 bc 27 29 f6 3b 1f 8c 4b 3c
       -0.011474561 -0.022115683 0.00751223 0.012423544
000040 91 c9 14 bd 19 7a 1a 3c b5 13 1a 3b ef a5 9f 3d
       -0.03632504 0.009428524 0.0023510281 0.07795321
000050 1c 0f 19 3c b3 3b 32 3d f5 5b 12 3b af 4d 00 bd
       0.009341981 0.043513965 0.0022332643 -0.031324085
000060 8a fb a8 3c b6 00 b1 3d e9 e6 1e 3d 24 f4 27 bd
       0.020627756 0.08642714 0.03879443 -0.041004315
000070 58 1a 22 bd ce cf 49 bd d9 65 2a 3d 8a 3e 45 bb
       -0.039575905 -0.049270444 0.041601036 -0.003009709
000080 c0 46 2f 3b 20 6e ad bc 40 dd a1 bc 3f 67 98 bc
       0.002674505 -0.021170676 -0.01975882 -0.01860392
000090 c8 d3 6e 3c ca bf 61 3c ac cb 05 3d 35 72 45 3d
       0.01457686 0.013778636 0.03266494 0.04820462
0000a0 c5 41 ae ba 27 0b 26 3c cc 58 ad 38 50 62 fc bb
       -0.0013294747 0.010134495 8.2658225e-05 -0.0077021495
0000b0 1a e5 05 bd ae b4 af ba fd 05 f2 3c 7e 8e 7f 3d
       -0.03268919 -0.0013405287 0.029543871 0.06239175
0000c0 a4 04 d0 bc c0 b6 c4 bc 02 01 01 3d 91 fb c9 bc
       -0.025392838 -0.024012923 0.0314951 -0.024656089
0000d0 fe c2 f7 bc 09 cf 47 bd 42 34 03 3d d5 49 0b 3d
       -0.030244347 -0.04878143 0.03203226 0.03400596
0000e0 35 9f 6e 3b 56 5e 61 3d e0 a9 87 3b dd 05 82 bc
       0.0036410813 0.055021606 0.0041401237 -0.015871936
0000f0 dc b1 a5 3c 99 f7 08 3c 0e a7 c4 ba 82 b6 1e 3d
       0.020226412 0.008359813 -0.00150034 0.03874827
000100 4f db 16 3d e8 09 f7 bc e5 ad f6 3a c8 92 2c 3c
       0.036830243 -0.03015609 0.0018820135 0.010533042
000110 be c4 33 bc 70 d0 b6 3b c7 47 53 bd ed d9 c4 3c
       -0.0109722 0.005579047 -0.051582124 0.024029696
000120 2a 53 3c 3d e2 e3 07 bd 61 c9 04 bd 0a 68 16 bc
       0.04597775 -0.03317631 -0.032418612 -0.009180078
000130 3c c1 9a 3c ce bb 90 3c d7 b1 91 3c 70 8c dd 3c
       0.01889097 0.017667677 0.017784996 0.027044505
000140 59 52 df 3c d4 f4 04 bc 20 7d 5b 3c b9 b2 b1 3b
       0.027260946 -0.008115012 0.013396531 0.0054229167
000150 35 13 92 bc 12 c1 0c 3c 3d 08 bb 3a 66 a3 e1 bc
       -0.017831424 0.008590953 0.0014269423 -0.027543735
000160 2c be 07 bb 2b 27 2e bc 5c 7e 2a 3d 7c 2c 0a 3d
       -0.0020712717 -0.010629456 0.041624412 0.03373383
000170 c5 93 d5 3c e1 e8 21 3c b4 f7 de 3b eb de 28 bd
       0.026071439 0.009882183 0.006804431 -0.041228216
000180 c1 2d 0a bd f3 f3 44 3c 21 19 e8 bc ee f6 9a 3c
       -0.03373504 0.012021053 -0.028332295 0.018916573
000190 b6 92 13 bb a8 b8 73 bc 8e 4a 46 bc b3 02 be bc
       -0.0022517866 -0.014875568 -0.012102736 -0.023194646
0001a0 d8 0a 07 bd 2e a6 66 3d 91 8d 02 bc df 84 11 3c
       -0.032969326 0.056310825 -0.007968322 0.008881777
0001b0 e3 43 ae 3c 89 4c 58 3b 8e e8 52 3d 7a 65 30 bb
       0.021272605 0.0033004603 0.051491313 -0.0026915953
0001c0 5f 37 f8 bc 5b 43 05 3d 37 3b e5 bc 2e 05 e5 bc
       -0.03029984 0.03253494 -0.027982337 -0.027956571
0001d0 5f c6 94 bc c2 fb 57 3c 79 5d 32 3d ec 82 87 bc
       -0.018160997 0.013182582 0.043546174 -0.01654192
0001e0 ef a9 54 3c 2c 98 18 3c d3 7e 28 3c 88 38 ff 3b
       0.012979968 0.009313624 0.0102841435 0.0077887215
0001f0 45 2a 82 bb 0d 19 77 3a 3b 3d c5 bb b1 59 4a bd
       -0.003972324 0.0009426035 -0.006019262 -0.049401943
000200 33 ed 75 bd fa 35 96 3a 29 2e 94 3a 66 79 c6 bb
       -0.060040664 0.0011460178 0.0011305261 -0.0060569523
000210 ad 11 1e bd 52 d6 b0 bc 97 2c 81 bd 88 17 cd bc
       -0.038591076 -0.02158657 -0.06307333 -0.025035635
000220 c1 73 29 bb b0 2f d4 bc b0 a2 a3 3c ea 7b 01 3d
       -0.0025856348 -0.025901645 0.019975036 0.031612314
000230 c8 57 01 bd f7 d7 4b bd 0a 03 85 3c 67 1b 20 bc
       -0.031577855 -0.049766507 0.0162368 -0.009772158
000240 9b 59 dd bc 46 36 5c bd a8 a6 0a 3d 0d 33 82 3c
       -0.027020266 -0.053762697 0.033850342 0.015893484
000250 f2 c4 19 3d 84 21 07 3d a9 7a 18 3d 9b 60 4d ba
       0.037541337 0.032990947 0.037226353 -0.0007834525
000260 b8 a1 ec 3c 4f dc 18 3c 5e 47 e0 3c 86 6a a3 bc
       0.028885707 0.009329869 0.02737778 -0.019948255
000270 1a cb 18 bd 7d 1c 55 3d 7d 48 2e 3d 68 24 de 3a
       -0.037303068 0.05202912 0.0425496 0.0016948106
000280 14 27 da bc 86 23 97 3c f0 b5 6b 3d a9 93 07 ba
       -0.026629962 0.018449556 0.057546556 -0.00051718444
000290 0d 47 d1 3a 8c 16 4e bd 01 aa f8 bc ae 06 18 bd
       0.0015966609 -0.05031447 -0.030354502 -0.037115745
0002a0 4f bd 44 bd b0 c1 94 3d c9 b8 59 3c 16 19 68 3b
       -0.0480321 0.072635055 0.013288685 0.0035415343
0002b0 9c 93 e1 3a c9 28 82 bc 71 c0 c6 3c 54 fa a3 bc
       0.0017210129 -0.015888589 0.024261685 -0.020016827
0002c0 6b 25 22 bc 38 1c f9 bb b9 3d 30 bb 2b 17 b3 bc
       -0.009896616 -0.007602241 -0.0026892258 -0.021861633
0002d0 66 6a 00 bc 23 60 d4 bc 1b 6d c3 bc 8a 32 e0 3a
       -0.007837867 -0.025924748 -0.023855736 0.0017104906
0002e0 9e d0 ee 3b e4 ce 97 3c f3 37 39 bc f1 b3 f7 bc
       0.0072880527 0.01853127 -0.011304843 -0.03023717
0002f0 1e 48 0a 3d c4 65 4d bc 9f e5 8c 3c 62 3f f3 3c
       0.033760183 -0.01253647 0.017199336 0.02969331
000300 47 b1 80 3c e4 fb 87 bc 06 ee e8 3c 80 26 4b bc
       0.015709532 -0.016599603 0.02843381 -0.012399316
000310 92 06 1b bd 94 5f e0 3b 70 54 a4 bc 8b 6d 03 3d
       -0.037848063 0.0068473313 -0.020059794 0.03208689
000320 ba 6f 01 bc 8f 48 32 bc e9 a2 45 bb 4d e6 96 bc
       -0.007900173 -0.010881557 -0.0030156916 -0.018420363
000330 74 1b 3d bd 42 b5 aa 3c 9d b8 c2 bc 2f 2d 0b bd
       -0.04616876 0.020838384 -0.023769671 -0.033978637
000340 14 05 88 bc 97 5f ea bc 09 41 c1 3c fc 83 a6 bc
       -0.016603984 -0.028610034 0.023590581 -0.020326607
000350 66 88 d5 bc 61 ee 25 bd 06 4f a4 3c ca cf 31 bb
       -0.026066016 -0.04051054 0.020057213 -0.0027131909
000360 cc 1b 84 bc a0 74 9b bc 24 e8 0c bd f6 69 c6 bc
       -0.016126536 -0.01897651 -0.034401074 -0.024220448
000370 71 c2 bb bc bb 3c b8 bc 36 d6 0f 3d 56 e3 b5 3c
       -0.022919865 -0.022489896 0.035116397 0.022203129
000380 27 6a ac 3c 3a 3b 9f bb f3 8f 0b bd 66 16 70 b9
       0.021046711 -0.0048593553 -0.034072828 -0.00022896528
000390 c6 85 09 bd a6 d5 ce bc 07 ae da bc 76 31 09 bc
       -0.033574842 -0.02524836 -0.02669431 -0.008373609
0003a0 8e 32 3a bc ad b7 10 bd a1 da 05 bc 8a 54 c7 bc
       -0.011364592 -0.035331417 -0.008169801 -0.024332304
0003b0 ba 8a ec bc ec 97 63 bb 08 66 96 bc a7 5f fa bc
       -0.028874744 -0.0034728004 -0.0183592 -0.030563189
0003c0 1b ca 47 3c 46 a3 f4 bc 3b b3 2a bd 41 df 32 bd
       0.012194182 -0.029863011 -0.041674834 -0.043669943
0003d0 30 16 06 3d 0e 42 2d bd 43 b7 8f bc 18 fa 8d 3b
       0.032736003 -0.042299323 -0.01754344 0.004332792
0003e0 22 ca 87 b9 f7 89 0e 3d 02 e6 3c bc 4f 4c 40 bd
       -0.00025899807 0.034799542 -0.0115294475 -0.046947774
0003f0 8c b3 d6 bc 2f f2 35 bd 5a f4 e2 3b 96 1a 76 3b
       -0.026208661 -0.044420417 0.0069261016 0.0037552468

bias f4 [64]
000000 5e 60 73 bd d1 c1 79 bd 29 41 7b bd c6 16 dc bd
       -0.059418075 -0.060975853 -0.06134144 -0.10746531
000010 0f 3f 92 bd 7a c4 08 bb 63 1f a7 bd 62 8a 9e bd
       -0.07140934 -0.0020869062 -0.081602834 -0.07741238
000020 5b 66 5c 3c f6 da 8d bd 07 fe 37 bd 2f d0 91 bd
       0.013452138 -0.06926529 -0.044919994 -0.07119786
000030 fc b9 a4 bc 9c 0e 33 bd 46 9e cb bc ce c9 ab bc
       -0.020108216 -0.043715104 -0.024855744 -0.020970251
000040 65 f2 86 bd 92 63 f5 3a c1 6c d0 bd 0b 20 d3 bd
       -0.06589202 0.0018721691 -0.10176993 -0.10308846
000050 eb f4 3c bd 7a 12 05 be cd 3e a0 bc 50 ff 56 bd
       -0.04613201 -0.1299533 -0.019561196 -0.05248958
000060 26 86 c1 bd ce 53 01 be e0 32 80 bd d4 0a da bd
       -0.09449415 -0.12629625 -0.06259704 -0.106465966
000070 d8 00 4a bd a2 96 65 bd e2 d2 7f bd 0d ac d4 b9
       -0.04931721 -0.056051858 -0.062456973 -0.0004056398
000080 c4 2a ff bb ab bc c0 bc 59 53 f1 bc 89 b9 86 bb
       -0.0077870805 -0.023527464 -0.029458689 -0.004111473
000090 c7 a2 94 bd 88 6e c3 3c 42 46 11 3d 87 e7 0e bc
       -0.0725761 0.023856416 0.035467394 -0.008722193
0000a0 61 fb ba bd 9e e0 d7 bd 28 d8 a7 bd f6 af c1 bd
       -0.09129978 -0.10540889 -0.081955254 -0.0945739
0000b0 26 cb f6 bc 02 bc 46 3c 14 88 12 bd 55 20 4f bd
       -0.030126166 0.0121297855 -0.035774305 -0.050567944
0000c0 70 99 25 bd 2c cc 50 bd 9e 7f a0 3b 53 9c df bd
       -0.040429533 -0.050975963 0.0048980257 -0.10918488
0000d0 c7 b1 d9 bd 7d e5 d3 bc e9 dd 73 bb ab 78 04 be
       -0.106296115 -0.025866264 -0.0037211126 -0.12936656
0000e0 d1 81 88 bd 9d 35 0f bc 57 43 38 bd bf ed a4 bd
       -0.066653855 -0.00874081 -0.044986095 -0.08053159
0000f0 5b 26 5f bd 5a c3 63 bd 81 81 df 3c 72 cb 63 bb
       -0.054479938 -0.055606224 0.027283432 -0.0034758714

weight f4 [64, 1024]
000000 b0 5c 97 3b af 2e f9 bc 7e 2a 88 3a 9e ac b1 3c
       0.0046192035 -0.030417768 0.001038864 0.021688756
000010 28 50 9e 3c ac ec 8a 3b 24 c7 8f 3b be a1 ac bc
       0.01932533 0.0042396393 0.004387753 -0.021073218
000020 43 3f 07 3d 05 fe bd 3c 30 e6 0e 3c 7d fb cf 3c
       0.033019315 0.023192415 0.008721873 0.025388474
000030 4c 5c b0 bc 96 55 05 bd 3c d8 7a bc 1e f4 8c bb
       -0.021528386 -0.032552324 -0.015310343 -0.004301562
000040 81 7c d5 bc e4 3a d4 bc ce 59 98 bc 1e 78 df 3c
       -0.026060345 -0.025906987 -0.01859751 0.027278956
000050 e8 25 98 3b 3a 56 b6 3b c2 f6 17 3c dd 19 8c 3c
       0.0046431907 0.005564478 0.00927514 0.017102176
000060 da 20 ac 3a 45 be 5a 3c a8 c3 ca bc 8e fd e7 bb
       0.0013132349 0.013351028 -0.0247515 -0.0070797866
000070 b8 2e 35 bd 30 98 dc bc 04 f3 26 3d cd 99 34 3d
       -0.044234008 -0.026928037 0.0407591 0.04409199
000080 a6 fc 82 3c a6 49 8e bd fa f8 d1 bb 60 dd 46 bc
       0.015989613 -0.06947641 -0.006407854 -0.012137741
000090 f1 9a ab bc ad 0f f7 3a 4a 8a 04 bd 5f 73 21 bc
       -0.020947905 0.0018849276 -0.032358445 -0.009854167
0000a0 22 a8 f5 3c b1 42 ce 3c 36 12 34 3d b5 65 1a 3d
       0.029987399 0.025178285 0.04396268 0.03769465
0000b0 9b fb ea bc 6d 23 fd bb c4 7d 25 3c 81 be 72 3d
       -0.028684428 -0.0077251703 0.010100786 0.05926371
0000c0 ec 29 9e bb 67 0d 84 3c 15 95 49 3b 12 78 38 bd
       -0.004826775 0.016119672 0.0030759026 -0.045036383
0000d0 ce 99 6a 3d 5a d9 b3 3c 23 b1 50 3c de 29 70 3d
       0.057275586 0.021954227 0.012737545 0.058633678
0000e0 b4 49 3d bc 22 48 55 3d 28 3e a2 3c 11 06 33 3d
       -0.011553217 0.052070744 0.019805029 0.043706957
0000f0 4b b2 e7 3c 00 09 32 bb 96 68 87 bc 80 94 09 bb
       0.028283259 -0.002716601 -0.016529363 -0.0020993054
000100 b8 f1 b8 3b 48 ac f7 bb c1 6d 19 3c c2 97 1b 3c
       0.0056440495 -0.0075583793 0.009364546 0.009496631
000110 1b 93 26 3d 9b 55 37 3c 55 85 9f 3c e7 6f 1f bd
       0.040667634 0.0111898435 0.019472757 -0.038925078
000120 53 dc b5 bc 82 9b c1 bc 77 30 da 3b d8 ce 9e bb
       -0.022199785 -0.023633722 0.0066586095 -0.004846435
000130 db 4f 3b 3d 02 ff be bb a0 b9 9e 3c d3 80 3d 39
       0.045730453 -0.005828739 0.019375622 0.00018072435
000140 86 25 ca bb cd e1 0d 3d 3c 40 08 3d 2d 12 c2 3a
       -0.006169024 0.03463917 0.033264384 0.0014806442
000150 50 c9 c8 bc 60 0c c0 bb 78 0e af bc fa 89 cd 3c
       -0.024510056 -0.00586085 -0.021369204 0.025090206
000160 80 3a 58 39 6c 0a de ba 8e 12 c0 bb 3b 9c 21 bc
       0.00020621158 -0.0016940362 -0.005861587 -0.009863908
000170 5b 56 37 3c ba 93 c4 bc 91 90 81 bb 33 4e 01 bd
       0.011190022 -0.023996223 -0.0039540012 -0.031568717
000180 18 b2 38 3d 9a ff 6f bc 4c 68 a5 bc 3f 4c 3a bc
       0.04509172 -0.0146483425 -0.020191334 -0.011370718
000190 d1 e0 f4 3c 25 16 12 ba 9d b0 b5 bc 23 8a 44 3b
       0.029892357 -0.0005572758 -0.022178942 0.0029989562
0001a0 03 57 00 bd 98 48 a0 bc 6b cc d1 3c c0 0a 2a bc
       -0.03133298 -0.019565865 0.02561017 -0.01037854
0001b0 c8 6b 47 3c 44 e8 be 3b 1f d5 6d 3c 11 a8 b6 3c
       0.012171693 0.005826028 0.014516144 0.022296937
0001c0 e5 c0 b8 bc ee cb 8b 3c 86 38 a1 bc ba a7 7a 3c
       -0.022552917 0.017065015 -0.019680273 0.015298778
0001d0 81 6b 09 3d 0b 8d 09 bd 1c 16 5d bb 29 19 08 3c
       0.03354979 -0.033581775 -0.0033735102 0.00830678
0001e0 ab f5 d7 3c 16 61 fd bc 58 08 9f 3b 52 4f 21 bc
       0.02636226 -0.030930083 0.0048532896 -0.009845572
0001f0 fc bb 59 bc 32 68 9d 3b 55 7b 57 3c 3e 2a c7 3c
       -0.013289448 0.004803681 0.013151963 0.024312135
000200 eb 09 f6 3c 3b 82 91 3c d0 07 c7 bc 9a 1b 21 3d
       0.030034026 0.017762294 -0.024295717 0.039332964
000210 d0 6b 8a bc 10 35 8c bc 9c 04 de bc 02 eb ed 3c
       -0.016897112 -0.017115146 -0.027101807 0.029042725
000220 9d 91 1a 3d 89 72 a3 3c 30 1e be bc ba 9c c4 3b
       0.037736524 0.019952076 -0.023207754 0.0060001286
000230 11 21 c9 bc d5 f1 a8 bc 13 27 71 bc c8 22 c7 bb
       -0.0245519 -0.020623127 -0.014718789 -0.0060771443
000240 ef 2d d8 bc d2 cc 50 3a 5b 31 14 bd b7 b5 93 3c
       -0.02638909 0.0007965091 -0.03617988 0.018030984
000250 6d 41 b8 bc 5e 98 53 bc 38 21 22 bc 6f dd 25 3c
       -0.022492135 -0.012914745 -0.009895615 0.010123595
000260 f3 56 8d 3b ec c8 dc 3c f3 54 d0 3c 06 19 2e 3d
       0.0043133437 0.026951276 0.025431132 0.042504333
000270 a9 77 d5 bc c0 2c 05 bd d1 2b 12 3d 9a 88 dc bb
       -0.026058035 -0.03251338 0.035686318 -0.0067301514
000280 aa 6c ea 3c 8e 68 98 3b 70 f6 d4 bb 12 35 1d 3c
       0.028616268 0.0046511358 -0.006499104 0.0095951725
000290 73 e1 14 bd d5 22 fd bc 49 4d 39 bc 77 3c 27 bd
       -0.036347818 -0.030900398 -0.01130993 -0.04082915
0002a0 38 fd ac 3c bf 49 c1 3c 24 51 b9 3c b4 e4 92 bc
       0.021116838 0.023594735 0.022621699 -0.01793132
0002b0 21 d6 0f bc d9 16 1b 3c f5 7b 1e 3d 3a 34 1c 3c
       -0.00877908 0.0094658965 0.038692433 0.009533936
0002c0 50 2a b4 3c b4 40 72 3c 91 0a 70 3c 8d dc 09 bb
       0.021992832 0.014785934 0.014650957 -0.0021036
0002d0 df 35 b1 bb 4b d2 ed 3c c3 aa ce 3c 83 6c bf bc
       -0.0054080333 0.02903094 0.02522791 -0.023367172
0002e0 67 22 ac 3b 11 ed 6b bd 76 a9 c6 bc 24 2e 40 3c
       0.0052531245 -0.05759913 -0.024250727 0.011729751
0002f0 1f be c8 3c 7c 18 9b bc 56 c0 cd ba 56 f7 20 bd
       0.02450472 -0.018932573 -0.0015697579 -0.039298378
000300 e4 02 fc 3b ce 05 35 bb ef 90 7c 3d bc d9 12 3d
       0.0076907743 -0.0027621868 0.061661657 0.03585218
000310 1d dc 8c 3c 14 1e 37 bd b6 36 9c bc b9 01 bc bc
       0.017194802 -0.04470642 -0.019069057 -0.02295004
000320 76 4b 1d bd 35 36 de 3c 04 94 15 3d f0 9f ba bb
       -0.038402043 0.027125457 0.03651811 -0.0056953356
000330 c6 60 5c bc 16 b9 3e bc 9b 43 c2 ba dd e1 25 3d
       -0.013450807 -0.011640808 -0.0014821173 0.040498603
000340 ba 3e 81 bc 43 6f b5 bc d4 9e 32 3d cd ff e3 bb
       -0.01577698 -0.02214778 0.0436085 -0.006957984
000350 1b 90 3b 3d 91 24 15 3d 7f 47 92 3c c6 8a 95 bb
       0.045791727 0.036411826 0.017856358 -0.004563662
000360 30 4b d8 3c 1d 2e 03 3c 9c fb ba 3c e6 ae 31 bc
       0.02640304 0.0080066 0.022825055 -0.010844922
000370 a6 9b 90 ba f1 88 a8 bc 8d 52 d9 3c 07 bd a7 bc
       -0.0011032715 -0.020573111 0.026528621 -0.020475877
000380 0f 97 cd 39 90 06 ee bc ca 1c 50 bd c4 4a 5c bd
       0.00039213194 -0.029055864 -0.050808705 -0.05378224
000390 fd 12 ae 3c a2 22 17 3d fb fd 83 3c 9c c0 4b bc
       0.021249289 0.036898263 0.016112318 -0.012436058
0003a0 fa 1a 85 3c c8 ff 38 bc a7 ac b9 3c 97 a9 d4 bc
       0.016248215 -0.011291452 0.022665335 -0.025959773
0003b0 7a 4b e8 b9 06 bb 9c bc 74 8f 49 bc 6d c5 bd ba
       -0.00044306723 -0.019132148 -0.012302268 -0.0014478393
0003c0 b1 53 17 3d df 2f c9 bc a5 96 49 3b 01 dd 74 b9
       0.03694505 -0.02455896 0.0030759957 -0.00023351984
0003d0 41 fc 1f bd 87 1a 34 bc 57 a5 37 3c 7b 62 51 3a
       -0.039058927 -0.010992653 0.011208854 0.0007987392
0003e0 09 02 c4 bc 37 90 b6 bb 38 0a 8a b9 9e e0 10 3d
       -0.023926752 -0.005571391 -0.00026329025 0.03537046
0003f0 ba 1b b0 3c 77 cf 12 bb 0c c3 7b bb 7d f6 c6 bb
       0.021497596 -0.002240149 -0.0038415818 -0.006071864

bias f4 [64]
000000 71 a0 0e bd 6c ef 7c bc 3e 59 e5 b8 6d cf 4e bd
       -0.034820978 -0.015437942 -0.000109361936 -0.050490785
000010 82 dc ff bb 08 dd 92 bb 60 64 85 3c 65 9f cb 3b
       -0.007808269 -0.0044819154 0.016283214 0.0062140697
000020 80 cb 77 bc 00 b0 88 bc 32 f6 e2 3b 2a 17 07 bd
       -0.015124202 -0.016685486 0.0069263214 -0.032981075
000030 84 65 b2 3c ca b8 66 bc 1a 34 8a bb 8f 2e ac 3b
       0.021776922 -0.014082143 -0.004217637 0.0052545737
000040 fd 1f af 3c 8f f8 b3 3c 44 6e 8a 3c 59 17 4c 3c
       0.021377558 0.021969108 0.016898282 0.012456738
000050 38 61 ee 3c de 93 7f bc b3 24 3b 3b 00 db aa bc
       0.029099092 -0.015599219 0.002855581 -0.02085638
000060 85 6c d4 bc 6d 60 27 bc ec f1 26 3d 6b 62 06 3c
       -0.025930652 -0.010215861 0.04075806 0.008202176
000070 2a 49 4b bd c4 c0 3b bb ba 51 41 bd bd 87 41 bd
       -0.04963032 -0.0028648833 -0.04719708 -0.04724859
000080 40 2b 11 3d fd 5f e5 3c f3 1e 8e 3d 9e 73 63 3c
       0.035441637 0.027999872 0.06939497 0.013882546
000090 54 a8 54 3c f0 82 2f bd 5e c8 6a 3c e4 21 58 bb
       0.012979586 -0.04284948 0.014329998 -0.0032979185
0000a0 eb 84 15 3b f0 86 a1 3c 03 b0 12 bd c7 a2 6b bd
       0.002281482 0.019717664 -0.03581239 -0.057528283
0000b0 b7 92 a4 bc a6 ff 36 3d 2f 24 88 bc 6d 71 92 3d
       -0.02008949 0.0446774 -0.016618816 0.071505405
0000c0 8f 89 05 bc 25 fd ca bb f8 82 fa bc e3 be 6d bc
       -0.008150472 -0.006194728 -0.030580029 -0.014510843
0000d0 d3 81 97 bc 2a 05 16 3a 65 d7 4e bd 10 15 8c bc
       -0.018494522 0.00057228154 -0.050498385 -0.017099887
0000e0 02 42 1d 3d 2c 86 70 bc 51 ae 18 bd a4 6e 3f bd
       0.038393028 -0.014680427 -0.037275616 -0.046736374
0000f0 96 e5 e0 3b 8a 34 0d 3d 8a a8 9a 3c 58 89 13 3d
       0.0068633063 0.034473933 0.018879194 0.036019653

weight f4 [10, 64]
000000 82 ae e8 bd 00 cc 6c 3e 54 6d 4f bd fc 78 49 bb
       -0.1136141 0.23124695 -0.050641373 -0.0030742278
000010 f6 17 31 be 8e dd 59 3e fe 72 51 be a1 4b ad bc
       -0.17294297 0.21275923 -0.20454022 -0.021154227
000020 0f 55 e0 bd 17 c6 b2 3e 3a e3 b1 bd 87 3c 97 3e
       -0.10953724 0.34916756 -0.08685918 0.29538366
000030 69 b5 22 be 4b fd 0c be f8 d8 0f 3e 20 97 be bc
       -0.15889515 -0.13768499 0.14047611 -0.023265421
000040 90 c8 fc 3d 4e b8 5b 3e 72 77 8f 3d df 66 1c be
       0.12342942 0.21457025 0.07005204 -0.15273617
000050 cc 82 22 3e e6 2e be 3d 1b 5b 08 be 0e f5 34 3e
       0.15870208 0.09286289 -0.13316004 0.17671606
000060 ef bf 15 3e 8e 49 d0 3c 2b ea 2e be b3 cf 1e 3e
       0.14623998 0.025425699 -0.17081515 0.15508918
000070 7a c2 28 bc 73 a8 29 3e 0c 92 56 3e 49 d4 14 3e
       -0.010300273 0.16568165 0.2095415 0.14534105
000080 0c 89 8a be 0b 22 90 3d 49 35 52 be d7 00 7c bd
       -0.27057683 0.07037743 -0.20528139 -0.06152424
000090 00 3b d6 3c 7f e7 7f 3e f5 da 23 3e 60 0f 44 3e
       0.02615118 0.24990653 0.16001494 0.1914649
0000a0 66 b8 a6 bd 3e 3a 2b be 35 d9 c4 bd c5 75 1d 3e
       -0.0814064 -0.16721436 -0.096117415 0.15376957
0000b0 95 f3 97 bd e0 0a cd bd 88 b9 51 be c7 ec fc bd
       -0.074195065 -0.1001184 -0.20480931 -0.12349849
0000c0 f1 7b df bd ca 7b 7d 3e 5c 5c d3 bc 81 4b 43 3e
       -0.10912312 0.24754253 -0.025800876 0.19071771
0000d0 aa e4 30 3e 43 1e 19 3e 3c 57 b5 bc 33 76 ec 3c
       0.17274728 0.1495295 -0.022136323 0.028864956
0000e0 07 ac 28 3e c4 3b c1 3d f8 b8 8c 3d 89 20 ef 3d
       0.16471873 0.094352275 0.068712175 0.116761275
0000f0 f1 ca 74 bd c7 0d a1 3c f1 49 ba bc 08 fd 5c bd
       -0.059763853 0.01965989 -0.022740336 -0.053952247
000100 f6 24 1a 3e 0d de 88 3e ed 7c 00 bd 5c 9c 52 3e
       0.15053162 0.2673191 -0.03136914 0.20567459
000110 0a fb 92 3c d0 f8 88 be fc 3d 0c 3c 55 da 0f 3e
       0.01794197 -0.2675233 0.0085597 0.14048131
000120 77 a3 6f 3e fc 67 eb 3d 9b 92 f1 bd 04 a4 a8 bd
       0.234022 0.11494443 -0.11795541 -0.082344085
000130 13 43 1b 3e c2 e5 1c 3e e0 ae 3c be 0f 8e 3a 3d
       0.15162306 0.1532202 -0.18426085 0.045545634
000140 e7 67 43 be ea f5 a9 be 5c 77 a9 3e 81 88 5c 3e
       -0.19082604 -0.3319543 0.33098876 0.21536447
000150 1a cf 66 be 94 c5 70 3e f3 3c 24 3e 76 ad 86 3e
       -0.2253994 0.2351287 0.16038875 0.26304215
000160 c1 2a 0c be 3b dc 81 be 81 a8 0b 3e 9f 91 c7 3d
       -0.13688184 -0.25363335 0.13638498 0.09744572
000170 fb 2f 47 be 49 c6 9b be 2a f1 91 3e 23 3f 94 bd
       -0.19451897 -0.30424717 0.28504306 -0.07238605
000180 32 91 90 3e 66 0c 3e 3d f7 6c c8 bd 38 75 50 3d
       0.28235775 0.046398543 -0.097864084 0.05089304
000190 f7 b8 a1 3e 69 c0 65 be 5b 1b be bc 75 d4 b1 3d
       0.3158643 -0.2243668 -0.023206403 0.08683101
0001a0 02 c2 00 be 1a 28 b7 be 71 9d 88 3e c5 dd 2d 3e
       -0.12574008 -0.35772783 0.26682618 0.1697913
0001b0 90 bf bd bd 13 99 75 3e 92 7c cd 3c a6 f9 12 be
       -0.09265053 0.23984174 0.025083814 -0.14353046
0001c0 c5 64 0f 3e 7d e0 e1 3d b9 80 07 be e0 73 dd bc
       0.14003284 0.11029146 -0.13232698 -0.027032793
0001d0 b5 4c 03 3e 46 88 f7 3d 91 e6 97 be 79 14 62 3e
       0.1282223 0.12086539 -0.29668096 0.22078122
0001e0 1b 02 8c bc ca 7d 3f 3d 37 bf ff 3d 25 67 8a 3c
       -0.017090848 0.04675082 0.12487643 0.016894886
0001f0 dd c1 a5 3e 60 98 d3 3d ef 81 dc 3d 93 15 64 3e
       0.32374468 0.103317976 0.1076697 0.22273855
000200 90 6f 01 3e b4 4d c1 bd a1 20 b0 bd 94 93 27 3e
       0.12640214 -0.09438649 -0.085999735 0.1636489
000210 3d 43 88 3d 01 59 74 3e ef 31 66 be 9b 32 86 be
       0.0665345 0.23862077 -0.22479986 -0.26210484
000220 a8 ca 1e 3e 21 3a 71 3e 27 8a 9e bb 85 84 09 3c
       0.15506995 0.2355733 -0.0048382464 0.0083934115
000230 a7 ab cb bd 7c 22 45 3e e3 1f 83 be a6 97 35 3d
       -0.099448495 0.19251436 -0.25610265 0.044334076
000240 0d f7 b2 bd 6a c1 a3 3e 17 38 68 be 46 97 67 3d
       -0.087385274 0.319835 -0.22677647 0.05654075
000250 67 74 e8 3d ba 07 a2 bc 4d 06 7b bd e1 ee 31 be
       0.11350327 -0.019779075 -0.061285306 -0.17376281
000260 e2 6f ef bd fc b1 90 3e 7a 3b a7 3b a9 10 3a be
       -0.11691262 0.2826079 0.0051035257 -0.18170418
000270 db c4 4e 3d c2 af 7c 3c 2f 91 68 be 31 65 a4 bd
       0.050480705 0.015422763 -0.22711633 -0.08027113
000280 9e 67 25 be 7f f7 88 3d 24 da 76 bd d6 3d c3 bd
       -0.16152808 0.06687831 -0.06026663 -0.09533279
000290 e9 9a 38 be 81 b4 14 3e 0a 93 41 3c e4 f7 17 3e
       -0.18027844 0.14521982 0.011814842 0.14840657
0002a0 0b 48 b9 3d 65 7b 3c 3e 83 4e 64 bd ee 28 9e be
       0.09046944 0.18406446 -0.055738937 -0.30890602
0002b0 91 f5 ce bd b6 10 42 bd e5 52 49 be e3 87 82 3d
       -0.10105432 -0.047379218 -0.19660528 0.063735746
0002c0 06 8a 16 bd a7 25 21 3e 86 f5 60 3e ee 62 7f 3e
       -0.036752723 0.1573702 0.2196866 0.24940082
0002d0 2c ba 2f bd 15 05 6e 3e 93 18 31 be d4 e6 3d be
       -0.042902157 0.23244126 -0.1729453 -0.18545085
0002e0 3c ab 6d be 0f 08 44 bc 3f 2b 92 bd ac 7f 44 be
       -0.23209852 -0.011964812 -0.07137155 -0.19189328
0002f0 44 c3 9c 3d ce d0 3b 3d 4d 56 1c be 97 56 f9 3d
       0.076544315 0.04585343 -0.15267296 0.12174719
000300 28 fd 02 3e fc 23 11 be 45 9c 69 3d 18 08 5d bc
       0.12791884 -0.14173883 0.057033796 -0.013490699
000310 e5 29 18 be d2 4c 87 be 53 c5 1b be 50 dd d5 bd
       -0.14859731 -0.26425797 -0.15211992 -0.10442603
000320 9d f0 2e 3e 32 45 40 be 8e 40 1d be be c7 71 3c
       0.17083974 -0.18776396 -0.15356657 0.014757095
000330 27 42 11 be 02 87 80 bd 19 c0 1d be 33 d2 2c be
       -0.14185391 -0.06275751 -0.1540531 -0.1687706
000340 eb 8a 80 3e 06 15 43 be f4 8a 08 be a3 33 3c be
       0.25105986 -0.19050989 -0.13334256 -0.18379073
000350 0a 12 c2 bd bd 2e 07 be 9a 01 e7 bd 8b 04 46 be
       -0.09476097 -0.13201423 -0.11279602 -0.1933767
000360 20 d2 f7 3d bf 45 fb 3d 42 bc 10 bd bd 87 52 3c
       0.12100625 0.122691624 -0.035335787 0.012849745
000370 90 73 2c 3c 97 f1 9d 3d 15 ea 35 be b1 c8 1c be
       0.010525599 0.07712095 -0.17765076 -0.15310933
000380 d6 db a9 3d 38 ba 11 3e 68 dd 33 be d1 d7 88 bd
       0.082938835 0.14231193 -0.17564929 -0.06681789
000390 db a0 27 3e 8e 29 bb bd da 1b 15 bd 9a fc e7 3d
       0.16369955 -0.09138785 -0.036403514 0.11327477
0003a0 af 45 43 be 2f 44 a3 bd e3 a9 d7 3d 30 5b 77 bd
       -0.19069551 -0.07971989 0.1053045 -0.060389698
0003b0 9b 49 80 3d d7 c4 a2 3d 7d ca 56 bd 45 1c 02 3e
       0.06264039 0.079477005 -0.0524392 0.12706096
0003c0 4d 79 08 be e8 b7 19 be c2 b3 45 be 74 fd d6 bc
       -0.13327523 -0.15011561 -0.19306853 -0.026243903
0003d0 b8 6d 0f be 18 a5 5b 3d 69 69 59 3d 85 a6 7b be
       -0.14006698 0.053624243 0.053079043 -0.24575241
0003e0 b6 b9 9c bd c1 2c 07 be 7b 29 d3 3d 25 a8 3a 3e
       -0.07652609 -0.13200666 0.10310646 0.18228205
0003f0 ca 74 41 be a8 54 b0 3d bf bf c7 bd 1a 11 96 bd
       -0.18892208 0.08609897 -0.097533695 -0.073274806

bias f4 [10]
000000 5b 89 48 be fa 81 5b bd 74 c1 2c bb ce 01 bc bc
       -0.19583647 -0.053590752 -0.0026360424 -0.02295008
000010 ef de 34 3e 83 6c e6 bc fe e8 79 3d 2b 39 43 bd
       0.17663167 -0.028127914 0.061013214 -0.04766194
000020 1f 03 b4 bc e6 69 f1 3b
       -0.021974145 0.0073673604
