models/gpu_train_model30.pth (torch, 587335 bytes, 10 tensors)

weight f4 [32, 3, 5, 5]
0.07274434 0.20511733 0.044338584 -0.058282074 -0.14897478 0.054166682 0.19380267 0.20883556
-0.13545203 -0.14319788 0.080633886 0.14633752 0.009677276 -0.068268895 -0.06864841 0.01827265
-0.18707907 -0.13789113 0.061257195 0.24788861 -0.1926062 -0.18598871 0.08551132 0.109955914
0.17424648 0.1426113 0.15433398 -0.07571824 -0.0015030744 -0.1222928 0.203099 0.082179986
0.0942518 -0.1622397 -0.08591542 0.09936723 0.06753643 0.05167065 -0.04183593 -0.10415861
-0.10567477 -0.23532662 -0.030212104 0.14169344 0.2580727 -0.12220111 -0.073291235 0.0626522
0.08457158 0.13823621 0.09609249 0.09617186 -0.19244143 -0.24506271 -0.157371 -0.0074147508
0.06821675 -0.015848678 -0.2723384 -0.26914176 -0.03325684 -0.016187472 -0.07734445 -0.06589771
-0.055141393 -0.1225371 -0.12146184 -0.19962804 0.15505415 0.122474335 -0.20523253 -0.022296663
-0.02294456 -0.020844424 0.028068734 0.1865122 -0.021413546 -0.20171826 -0.05648573 -0.10517672
-0.060857225 -0.21961607 -0.35271367 0.05132351 0.17660269 -0.21743092 -0.2204615 -0.14784408
0.25744796 0.09629448 -0.030666713 -0.2281273 0.08948654 0.15912323 0.05059994 0.04240694
-0.19499335 0.14666645 0.1286484 -0.13682131 0.22825342 -0.07789255 -0.12637086 0.009244293
0.16380158 -0.0070626372 -0.039371222 -0.2708187 0.18062058 0.21526018 -0.10877562 0.0058096587
-0.05756047 0.24407826 0.1269074 0.044010166 -0.17032325 0.2423947 0.26617557 0.050679017
0.02756902 0.012649786 0.19794281 0.04577975 -0.040671796 0.17839503 -0.015375028 -0.2658318
-0.070196554 -0.037232783 0.010563731 -0.0790283 -0.16503409 0.106790856 0.081318185 -0.1588815
-0.03222513 0.04505716 0.17237432 -0.037235647 -0.18078484 -0.17307875 0.09371768 0.043193568
-0.054952145 -0.12565994 -0.022485916 0.036399543 0.115607336 -0.07238691 -0.12519556 0.15165524
0.081019826 -0.0059020296 0.005367124 -0.17263806 0.24455719 0.17238392 -0.11051379 -0.02060233
-0.117405936 0.21598992 0.17863129 -0.004644655 0.17178157 0.0492275 0.25646317 0.008227495
0.041856654 0.22350495 0.0858041 0.14301842 0.1167956 -0.0045198435 0.16234334 -0.06835854
0.05723452 -0.046178877 -0.075573355 0.12830134 -0.08472561 0.029423168 -0.03519031 0.050153088
0.075292684 -0.1973114 0.03773691 -0.04400201 -0.17610985 0.073589705 -0.13641898 -0.03544111
-0.14142245 -0.032533024 0.1655266 -0.007817579 0.04641868 0.029956933 0.07335335 0.01252598
-0.07156678 -0.05554329 -0.048502684 0.04386454 -0.1002571 -0.22266763 0.036480986 -0.15029213
-0.17106473 0.041252457 -0.29259804 -0.0014644223 -0.13341871 -0.14741372 0.08301332 -0.13700417
-0.050255857 -0.13968366 -0.036620244 0.029337665 -0.19343884 0.06444336 -0.16148278 0.06548486
0.059446175 0.083185524 -0.124315225 -0.0790708 -0.03292657 0.123784594 0.00891701 0.09380618
-0.11808496 0.01092356 0.07268718 0.12464519 0.010446743 0.05972642 -0.09296514 0.06881353
-0.17285876 0.12630102 0.12619427 0.23956633 0.10156713 -0.029575823 -0.11328654 0.1150115
0.13220075 -0.06277664 -0.09072056 -0.20229135 0.054165203 0.041646343 0.120364 0.16215089
00000000: fcfa 943d 470a 523e 609c 353d 2fb9 6ebd
00000010: d88c 18be e2dd 5d3d 3574 463e fdd8 553e
00000020: f0b3 0abe 77a2 12be 6123 a53d 81d9 153e
00000030: 708d 1e3c 90d0 8bbd 8a97 8cbd 86b0 953c
00000040: a891 3fbe 5533 0dbe d3e8 7a3d 83d6 7d3e
00000050: 8f3a 45be d373 3ebe 8f20 af3d 9130 e13d
00000060: ab6d 323e b208 123e ba09 1e3e 2a12 9bbd
00000070: cf02 c5ba a674 fabd 2ff9 4f3e fb4d a83d
00000080: 1607 c13d 2a22 26be 6cf4 afbd 0c81 cb3d
00000090: 8a50 8a3d 9aa4 533d 275c 2bbd 1c51 d5bd
000000a0: 046c d8bd 76f9 70be 607f f7bc 1618 113e
000000b0: 1b22 843e 9344 fabd b719 96bd cc4f 803d
000000c0: dd33 ad3d cb8d 0d3e 24cc c43d c1f5 c43d
000000d0: 5e0f 45be b8f1 7abe dd25 21be 70f7 f2bb
000000e0: 39b5 8b3d 16d5 81bc f06f 8bbe f3cc 89be
000000f0: 5338 08bd 979b 84bc c466 9ebd 61f5 86bd
00000100: f1db 61bd bbf4 fabd fcc0 f8bd 4b6b 4cbe
00000110: 84c6 1e3e d3d3 fa3d 7a28 52be 7ea7 b6bc
00000120: 3bf6 bbbc edc1 aabc 67f0 e53c 0efd 3e3e
00000130: 766b afbc 3b8f 4ebe 955d 67bd e466 d7bd
00000140: 6d45 79bd 09e3 60be e396 b4be 9a38 523d
00000150: 56d7 343e 36a6 5ebe a9c0 61be 7064 17be
00000160: 38d0 833e 0a36 c53d c238 fbbc 349a 69be
00000170: b844 b73d 33f1 223e e241 4f3d e6b2 2d3d
00000180: 56ac 47be bb2f 163e 68bc 033e e31a 0cbe
00000190: 44bb 693e 2186 9fbd 5d67 01be 6075 173c
000001a0: 9abb 273e b26d e7bb b843 21bd c0a8 8abe
000001b0: 9af4 383e 2a6d 5c3e c1c5 debd f35e be3b
000001c0: 87c4 6bbd a7ef 793e 03f4 013e 0144 343d
000001d0: 3869 2ebe 5136 783e 2a48 883e cd94 4f3d
000001e0: 6dd8 e13c 0c41 4f3c 85b1 4a3e 8c83 3b3d
000001f0: 7897 26bd 30ad 363e 8be7 7bbc 1b1b 88be
00000200: 36c3 8fbd 6781 18bd 8013 2d3c 97d9 a1bd
00000210: b2fe 28be 2ab5 da3d 268a a63d d5b1 22be
00000220: 7ffe 03bd db8d 383d e582 303e 6884 18bd
00000230: a91f 39be 8e3b 31be 0eef bf3d bdeb 303d
00000240: 8015 61bd 00ad 00be 6234 b8bc b017 153d
00000250: 8ac3 ec3d 973f 94bd 4433 00be 834b 1b3e
00000260: b9ed a53d d065 c1bb b3de af3b 08c8 30be
00000270: 336d 7a3e 6985 303e 0e55 e2bd 38c6 a8bc
00000280: 8672 f0bd 762c 5d3e 1feb 363e 3132 98bb
00000290: 82e7 2f3e c6a2 493d 244f 833e 9dcc 063c
000002a0: e271 2b3d 7bde 643e 0fba af3d 6c73 123e
000002b0: 8832 ef3d 321b 94bb 553d 263e 90ff 8bbd
000002c0: be6e 6a3d 1026 3dbd 34c6 9abd 6d61 033e
000002d0: 9f84 adbd db08 f13c b723 10bd 536d 4d3d
000002e0: 0d33 9a3d 000c 4abe 0592 1a3d 743b 34bd
000002f0: 2456 34be 33b6 963d 6bb1 0bbe b32a 11bd
00000300: 0cd1 10be 5941 05bd ce7f 293e 4e15 00bc
00000310: 8421 3e3d 3e68 f53c 483a 963d c539 4d3c
00000320: 9b91 92bd 5c81 63bd c0aa 46bd 4eab 333d
00000330: 9853 cdbd fc02 64be 166d 153d 2ee6 19be
00000340: 982b 2fbe 56f8 283d 69cf 95be dcf1 bfba
00000350: ea9e 08be 9ff3 16be e302 aa3d d24a 0cbe
00000360: 16d9 4dbd 3c09 0fbe 1cff 15bd 8b55 f03c
00000370: d514 46be e1fa 833d be5b 25be ed1c 863d
00000380: d57d 733d 2c5d aa3d fb98 febd dfef a1bd
00000390: 03de 06bd c782 fd3d a718 123c 741d c03d
000003a0: 87d6 f1bd bbf8 323c 04dd 943d fa45 ff3d
000003b0: d128 2b3c b1a3 743d 8264 bebd 1cee 8c3d
000003c0: e301 31be 0e55 013e 1239 013e e050 753e
000003d0: 6d02 d03d ff48 f2bc c602 e8bd 268b eb3d
000003e0: a25f 073e 0a91 80bd b3cb b9bd 7725 4fbe
000003f0: 55dc 5d3d 5b95 2a3d 6781 f63d e20a 263e

bias f4 [32]
0.07984177 0.057594728 -0.053877264 -0.18702334 -0.090872295 0.073215984 0.22639439 0.12694731
-0.050726935 0.012232934 0.16822243 -0.34795994 -0.32186404 0.10844049 -0.13169873 -0.3104184
-0.25136074 0.09194626 0.22451419 -0.16989338 -0.15319031 -0.34398016 -0.041499123 -0.13272841
-0.054104023 0.057200566 -0.07536173 -0.17720577 -0.072147146 -0.04267289 0.071964934 0.0430476
00000000: 1584 a33d 73e8 6b3d 68ae 5cbd 0c83 3fbe
00000010: 411b babd 43f2 953d eed3 673e 7afe 013e
00000020: 0cc7 4fbd a56c 483c 8042 2c3e ce27 b2be
00000030: 5dcb a4be 0c16 de3d 08dc 06be 29ef 9ebe
00000040: 5bb2 80be 524e bc3d 0ce7 653e 88f8 2dbe
00000050: ecdd 1cbe 2b1e b0be fcfa 29bd f5e9 07be
00000060: 2e9c 5dbd 244b 6a3d 4057 9abd 6e75 35be
00000070: e2c1 93bd c5c9 2ebd 5a62 933d ae52 303d

weight f4 [32, 32, 5, 5]
-0.04531589 0.0061956355 0.013019179 0.0068359314 0.02606846 -0.029262334 -0.016496437 0.06398295
0.01956482 0.061397273 -0.007438213 0.024115948 0.06815464 0.034817748 -0.0027955256 -0.0024524706
0.041055586 0.07252441 0.042001892 0.019071741 0.019664943 0.021298137 0.008770267 0.021645788
0.024349824 -0.014372837 -0.05315262 -0.008331714 0.01375313 0.037011508 0.006710405 0.005889673
-0.021135926 0.017311305 0.053696796 -0.007755501 0.0015125228 0.041403946 0.06642881 0.07876664
-0.06720052 -0.0555224 0.036539122 0.0035836995 0.0054949536 -0.024512658 -0.05373513 0.05811852
0.027500648 0.0387205 0.003909139 -0.046100877 -0.026734298 0.008485349 -0.012027304 -0.0031035682
-0.09761159 -0.0053713648 0.029742273 0.001264549 -0.08128026 -0.0524147 -0.04302446 -0.019169956
-0.009094539 -0.025696317 -0.07820973 -0.045549322 0.02849204 -0.02764886 -0.022199959 -0.012358468
0.008276425 -0.013546286 0.018230401 -0.03582442 -0.0036471179 0.016670845 0.021691876 0.0014486258
-0.0014988692 -0.0037499627 -0.021032365 -0.010590117 -0.013353221 -0.038412195 -0.032109976 -0.025134698
0.006690471 0.01239358 -0.013996818 -0.043976057 -0.051466707 -0.004515148 -0.010174463 -0.0050711506
-0.004979063 0.0044806562 0.028299434 0.025084332 0.019666828 0.045340624 -0.034953274 0.0121617075
-0.043070335 0.013182563 0.02455615 0.04633933 -0.0069678454 0.0018481523 0.027122986 0.052490678
0.0017191146 -0.0034968231 0.027327359 0.046447277 0.039901104 -0.021512227 -0.0504568 -0.0136205135
0.012533912 0.026238892 -0.033340417 -0.049523402 -0.009885427 0.027105672 -0.011576043 0.02394237
-0.018911393 -0.018681217 0.03365533 0.019243348 0.038110696 0.009017175 -0.005267894 0.035337236
0.011289187 0.04486219 0.008188761 -0.004954072 0.048243776 -0.010430449 0.0061429 -0.043289714
-0.0034509997 0.019797996 0.021642387 0.006162974 -0.012082664 -0.013429254 -0.011005505 0.023860145
0.01918774 0.08680033 0.010993881 -0.009435913 0.05431188 0.05131735 0.076245934 0.05733643
-0.009292673 0.06462957 0.04142344 0.054650184 0.087368414 -0.030503105 0.03103038 0.034589466
0.06996507 0.055560812 -0.021736672 -0.041164953 0.006350178 -0.047917277 -0.031539347 -0.026888344
0.002425353 0.010683912 0.02410806 0.009733186 0.021142684 0.0051687327 0.06444096 0.04504613
0.0100290235 -0.013031147 0.028260335 0.03208532 -0.01609694 0.00082389015 0.028442455 -0.01716526
-0.033999883 -0.030371713 -0.018650362 -0.012122709 0.012146188 -0.05804913 -0.05475275 -0.048476625
0.0073224674 -0.014098538 -0.0011136334 -0.019189104 0.007737972 -0.01951284 -0.024250297 -0.028012436
0.012240706 -0.020937439 0.03608026 0.0037037057 -0.0047699856 -0.023799367 0.027854478 0.015340267
0.041086297 0.036601834 0.0155850155 0.0005822718 0.005621742 -0.037254464 0.022378929 -0.006059788
-0.044833932 0.021723622 -0.037369248 -0.018562572 -0.060985632 -0.03209301 -0.016039599 -0.06127257
-0.013066435 -0.073711954 -0.037855368 0.0030807653 -0.066598386 -0.040633082 0.0020240506 -0.028803566
0.033206265 -0.032590676 5.941086e-05 -0.008590201 -0.017815137 -0.012367869 -0.05297522 0.02597489
0.0070906677 -0.03102973 0.023538329 -0.009432098 -0.023832425 -0.010298101 0.030715104 -0.017505169
00000000: 289d 39bd c204 cb3b 654e 553c f3ff df3b
00000010: 868d d53c 90b7 efbc 8923 87bc 7e09 833d
00000020: 6746 a03c b57b 7b3d 41bc f3bb cf8e c53c
00000030: a994 8b3d 0e9d 0e3d 2335 37bb a1b9 20bb
00000040: e729 283d ae87 943d 2d0a 2c3d 573c 9c3c
00000050: 6018 a13c 6e79 ae3c 2ab1 0f3c 8252 b13c
00000060: 4879 c73c 0c7c 6bbc 90b6 59bd be81 08bc
00000070: cf54 613c 6199 173d f5e2 db3b 28fe c03b
00000080: 4025 adbc 70d0 8d3c 2cf1 5b3d dc21 febb
00000090: d83f c63a 2f97 293d d40b 883d 6750 a13d
000000a0: 6da0 89bd 756b 63bd 0caa 153d 80dc 6a3b
000000b0: 030f b43b c5ce c8bc 5e19 5cbd af0d 6e3d
000000c0: 0a49 e13c 6399 1e3d 3c18 803b 46d4 3cbd
000000d0: e301 dbbc 2206 0b3c 2b0e 45bc 3c65 4bbb
000000e0: 96e8 c7bd 4602 b0bb 11a6 f33c 39bf a53a
000000f0: 4476 a6bd ccb0 56bd 6b3a 30bd 500a 9dbc
00000100: 4301 15bc 1581 d2bc 6c2c a0bd ed91 3abd
00000110: 2368 e93c dd7f e2bc b0dc b5bc 2c7b 4abc
00000120: d899 073c 3ef1 5dbc ec57 953c a1bc 12bd
00000130: 7c04 6fbb 4c91 883c 29b3 b13c d1df bd3a
00000140: b475 c4ba efc1 75bb 114c acbc 2c82 2dbc
00000150: 78c7 5abc 1b56 1dbd c085 03bd 48e7 cdbc
00000160: bd3b db3b 710e 4b3c e952 65bc 3d20 34bd
00000170: c1ce 52bd cef3 93bb cab2 26bc e52b a6bb
00000180: 6827 a3bb 78d2 923b 37d4 e73c a87d cd3c
00000190: 541c a13c 17b7 393d 2a2b 0fbd e641 473c
000001a0: 856a 30bd adfb 573c fb29 c93c 4fce 3d3d
000001b0: 8652 e4bb b33d f23a 0631 de3c 7700 573d
000001c0: ea53 e13a f52a 65bb a0dd df3c 803f 3e3d
000001d0: 576f 233d 693a b0bc caab 4ebd 9328 5fbc
000001e0: 0a5b 4d3c f2f2 d63c f68f 08bd 0dd9 4abd
000001f0: 7cf6 21bc b70c de3c 72a9 3dbc ca22 c43c
00000200: 11ec 9abc 5a09 99bc 2cda 093d 3aa4 9d3c
00000210: f619 1c3d c6bc 133c 4c9e acbb c7bd 103d
00000220: 48f6 383c 6ac1 373d 272a 063c c555 a2bb
00000230: 449b 453d 79e4 2abc 614a c93b 8e50 31bd
00000240: 2b2a 62bb 682f a23c 604b b13c c6f2 c93b
00000250: 5ef6 45bc 6006 5cbc 6f50 34bc 5a76 c33c
00000260: 9b2f 9d3c 5fc4 b13d ae1f 343c 1699 1abc
00000270: 2276 5e3d 2432 523d d426 9c3d 9bd9 6a3d
00000280: 4c40 18bc 825c 843d a0ab 293d dfd8 5f3d
00000290: 36ee b23d a6e1 f9bc 6c33 fe3c afad 0d3d
000002a0: d949 8f3d bc93 633d 1b11 b2bc 959c 28bd
000002b0: 2715 d03b e844 44bd 672f 01bd f244 dcbc
000002c0: acf2 1e3b 930b 2f3c 447e c53c f177 1f3c
000002d0: 6c33 ad3c 795e a93b 9ff9 833d 4a82 383d
000002e0: c650 243c 9880 55bc 3882 e73c e66b 033d
000002f0: bbdd 83bc 55fa 573a 2700 e93c 299e 8cbc
00000300: 7643 0bbd 19ce f8bc a5c8 98bc 549e 46bc
00000310: ce00 473c edc4 6dbd 6b44 60bd 6d8f 46bd
00000320: 4ff1 ef3b 8efd 66bc 56f7 91ba 7832 9dbc
00000330: d08e fd3b 64d9 9fbc 8fa8 c6bc 567a e5bc
00000340: 3e8d 483c fe84 abbc e5c8 133d dfb9 723b
00000350: 8a4d 9cbb e4f6 c2bc 132f e43c be55 7b3c
00000360: 1b4a 283d ceeb 153d 4b58 7f3c 99a3 183a
00000370: 9736 b83b 2398 18bd 0454 b73c 3091 c6bb
00000380: c9a3 37bd bdf5 b13c 7f10 19bd 8910 98bc
00000390: 12cc 79bd f673 03bd 7a65 83bc f2f8 7abd
000003a0: 9a14 56bc 4bf6 96bd 3b0e 1bbd aae6 493b
000003b0: bc64 88bd e06e 26bd efa5 043b 75f5 ebbc
000003c0: 4b03 083d cd7d 05bd ed2f 7938 eabd 0cbc
000003d0: 0df1 91bc 9aa2 4abc 8bfc 58bd 4bc9 d43c
000003e0: d558 e83b 0f32 febc 74d3 c03c 1689 1abc
000003f0: 383c c3bc 5eb9 28bc 3e9e fb3c 0067 8fbc

bias f4 [32]
0.0001358396 -0.26088336 0.024074769 -0.016161125 -0.1419791 0.031357672 -0.040978324 -0.14820468
0.0032689276 -0.101997666 -0.15783276 0.05680579 -0.1297993 -0.10257109 -0.15022816 -0.12562689
-0.07988077 -0.15999885 -0.06647682 -0.17890567 -0.021281365 -0.044424895 -0.101920694 0.010354469
0.03576845 0.011727691 -0.2527331 -0.29020876 0.034489606 -0.1419932 -0.055866845 -0.22332035
00000000: 2a70 0e39 8192 85be 7338 c53c 5664 84bc
00000010: f862 11be e770 003d e3d8 27bd f8c2 17be
00000020: 813b 563b 27e4 d0bd e99e 21be 30ad 683d
00000030: 1cea 04be cb10 d2bd 69d5 19be 56a4 00be
00000040: 8798 a3bd bdd6 23be 0025 88bd 0c33 37be
00000050: 4256 aebc e1f6 35bd ccbb d0bd caa5 293c
00000060: f081 123d 8025 403c 3c66 81be 3e96 94be
00000070: f944 0d3d aa66 11be a2d4 64bd 17ae 64be

weight f4 [64, 32, 5, 5]
-0.0424396 0.006653706 -0.0274574 -0.03996957 -0.01602793 0.031588174 0.023454444 -0.031484343
-0.017550478 -0.017022273 -0.031410825 0.010436633 0.009543655 -0.031412233 -0.008575671 0.0065399334
-0.043247513 -0.0010661313 0.007358284 0.082649864 0.013702156 0.051903274 0.009000844 -0.029876754
0.024134655 0.09003136 0.04049594 -0.03376556 -0.048208978 -0.05274194 0.04070411 -0.0005251721
-0.0013786268 -0.014311597 -0.025746712 -0.019061064 0.024518378 0.0077200686 0.02837037 0.053400595
0.005192692 0.021061447 -0.0037331309 -0.0073033804 -0.032681417 -0.008680861 0.029800253 0.066870876
-0.031494487 -0.0334827 0.037400153 -0.04258492 -0.036194053 -0.049558785 0.04355638 0.025834398
-0.010293933 0.063005894 0.006948804 0.0055248095 0.022971213 0.0013093771 0.011658603 0.043496273
0.03881539 -0.041475866 0.0012987561 0.0019127076 -0.00917084 0.0069915233 -0.06716099 0.037323277
0.066060826 -0.033524416 -0.033231698 -0.0071602417 0.01913148 0.030134993 0.021412997 0.019675009
0.030236052 -0.015975922 0.015093615 0.021337502 -0.01708384 0.014911379 0.0031809153 -0.03058481
0.013546169 -0.0028876748 0.052491494 0.03818561 0.030222226 0.012435216 -0.002680675 -0.05062403
-0.03690672 0.016348258 -0.020056332 0.02451994 -0.005559205 -0.021959143 -0.012280627 -0.024127092
-0.027621366 0.06926932 -0.006107847 0.007835167 0.031254273 0.0044998853 0.06647675 -0.005524402
-0.018258285 0.04708033 -0.02943883 -0.026225323 -0.029642653 0.008653034 0.033030145 -0.011297227
0.025420101 0.01069526 0.019923834 0.013902233 -0.0045257346 0.008755558 0.0012891244 -0.050652206
-0.06292184 -0.001967548 -0.0032535528 0.0027916187 -0.043794733 -0.04101786 -0.067334525 -0.026526269
-0.004774326 -0.029152395 0.017973343 0.039390605 -0.031767026 -0.054913774 0.014799823 -0.009687265
-0.03509113 -0.06119545 0.031565577 0.0034385468 0.03160952 0.018537665 0.03955775 0.0025258
0.03447404 0.0064951056 0.04130443 -0.034036916 -0.032609206 0.063756496 0.04124585 0.01453
-0.037704367 0.011728896 0.059965048 -0.0057443916 -0.006112646 -0.06200493 -0.024318717 -0.042369045
-0.041325655 0.08617208 0.0240768 0.0031591565 0.0013959807 -0.015816327 0.030529594 -0.01768371
-0.018954517 -0.0026154334 -0.006156804 -0.020173062 -0.00038658557 -0.026284901 -0.030841175 0.0139949415
0.011915058 0.02138883 -0.009285552 -0.025058633 0.04460353 -0.009190058 0.021060815 0.023366794
0.021760317 -0.010457696 0.025752468 -0.005812809 -0.034015965 0.007949057 -0.022402393 0.027138174
-0.02293885 -0.00938949 0.001077159 -0.0203267 -0.063678265 0.019651754 -0.04525131 -0.051333897
-0.02858527 -0.03870975 0.026484258 -0.02461509 -0.02493576 -0.050459534 0.024774043 0.0052179317
-0.040383596 -0.03078855 -0.040441457 -0.023422737 -0.021323968 -0.013016688 0.04663973 0.022879764
0.025192609 -0.010697419 -0.02929726 0.019781299 -0.042056397 -0.036317356 -0.034278695 -0.01073109
-0.017488265 -0.04112572 -0.01921675 -0.032183003 -0.032151833 -0.0055946647 -0.034760848 -0.04700653
0.027220804 -0.025459446 -0.037529472 -0.05092519 0.045897163 -0.0438205 -0.020013884 -0.00073790393
0.00021183837 0.030073907 -0.005241312 -0.049677998 -0.028787315 -0.03997706 0.005034945 0.006735298
00000000: 25d5 2dbd 5507 da3b 57ee e0bc 22b7 23bd
00000010: 014d 83bc 9a62 013d 8923 c03c baf5 00bd
00000020: 05c6 8fbc 4b72 8bbc a3a8 00bd 69fe 2a3c
00000030: fe5c 1c3c 1daa 00bd f980 0cbc f04c d63b
00000040: 4e24 31bd 6ebd 8bba c31d f13b 5544 a93d
00000050: 027f 603c 8798 543d 4778 133c 18c0 f4bc
00000060: 0ab6 c53c 5d62 b83d 12df 253d c14d 0abd
00000070: c776 45bd ef07 58bd 5ab9 263d b4ab 09ba
00000080: 0ab3 b4ba 307b 6abc c5ea d2bc f325 9cbc
00000090: c4da c83c a1f8 fc3b fa68 e83c 95ba 5a3d
000000a0: 7527 aa3b 0e89 ac3c 8ba7 74bb 3251 efbb
000000b0: f3dc 05bd 2c3a 0ebc a91f f43c 99f3 883d
000000c0: 5d00 01bd 2825 09bd e730 193d 866d 2ebd
000000d0: 3740 14bd 27fe 4abd 2d68 323d a9a2 d33c
000000e0: e2a7 28bc 3c09 813d cbb2 e33b 7609 b53b
000000f0: 202e bc3c 689f ab3a ba03 3f3c 2629 323d
00000100: e3fc 1e3d 99e2 29bd 063b aa3a d1b3 fa3a
00000110: 4a41 16bc 2619 e53b b38b 89bd 4be0 183d
00000120: e64a 873d e650 09bd f61d 08bd 76a0 eabb
00000130: 9fb9 9c3c a9dd f63c 4f6a af3c 7c2d a13c
00000140: 99b1 f73c f0df 82bc 364b 773c fccb ae3c
00000150: 69f3 8bbc db4e 743c e776 503b ff8c fabc
00000160: c0f0 5d3c 253f 3dbb 5201 573d 8468 1c3d
00000170: 9a94 f73c 14bd 4b3c 43ae 2fbb 255b 4fbd
00000180: 802b 17bd c8ec 853c 2d4d a4bc 0bde c83c
00000190: fe29 b6bb a9e3 b3bc af34 49bc 2ea6 c5bc
000001a0: 3446 e2bc 13dd 8d3d 5624 c8bb 135f 003c
000001b0: 7b04 003d c673 933b f624 883d 0b06 b5bb
000001c0: 6692 95bc 4ed7 403d b429 f1bc 7dd6 d6bc
000001d0: 26d5 f2bc 75c5 0d3c 9e4a 073d 0118 39bc
000001e0: d13d d03c 2c3b 2f3c 4f37 a33c 31c6 633c
000001f0: 9d4c 94bb 7973 0f3c d6f7 a83a b078 4fbd
00000200: 2add 80bd faf1 00bb 8f39 55bb 97f3 363b
00000210: 1b62 33bd 5802 28bd afe6 89bd 9e4d d9bc
00000220: f371 9cbb 01d1 eebc d53c 933c 0b58 213d
00000230: 241e 02bd 44ed 60bd f57a 723c 56b7 1ebc
00000240: b7bb 0fbd 15a8 7abd e84a 013d 3e59 613b
00000250: fc78 013d 4ddc 973c 4f07 223d e487 253b
00000260: a734 0d3d e5d4 d43b d62e 293d 4b6a 0bbd
00000270: 3b91 05bd c492 823d 69f1 283d 3d0f 6e3c
00000280: e56f 1abd 8e2a 403c e99d 753d 733b bcbb
00000290: 974c c8bb e2f8 7dbd 0c38 c7bc 2a8b 2dbd
000002a0: 1745 29bd fd7a b03d b63c c53c da09 4f3b
000002b0: 57f9 b63a 3e91 81bc 3319 fa3c 6edd 90bc
000002c0: 8146 9bbc b167 2bbb 04bf c9bb fa41 a5bc
000002d0: a3ae cab9 6f53 d7bc a2a6 fcbc 0a4b 653c
000002e0: 6037 433c a137 af3c 6e22 18bc c347 cdbc
000002f0: 31b2 363d e691 16bc bb87 ac3c b86b bf3c
00000300: b142 b23c c256 2bbc d7f6 d23c 6079 bebb
00000310: 5354 0bbd c33c 023c 3985 b7bc e050 de3c
00000320: 41ea bbbc 60d6 19bc 752f 8d3a 2e84 a6bc
00000330: c069 82bd b7fc a03c 7059 39bd 7e43 52bd
00000340: a82b eabc 1d8e 1ebd 84f5 d83c 96a5 c9bc
00000350: 1446 ccbc a8ae 4ebd eff2 ca3c 2ffb aa3b
00000360: 4569 25bd 4538 fcbc f1a5 25bd 0ae1 bfbc
00000370: 9aaf aebc f243 55bc 4d09 3f3d 586e bb3c
00000380: bb60 ce3c 3a44 2fbc cf00 f0bc 640c a23c
00000390: 5443 2cbd 82c1 14bd d167 0cbd 74d1 2fbc
000003a0: 8d43 8fbc 7173 28bd 726c 9dbc 53d2 03bd
000003b0: a4b1 03bd 7353 b7bb 6461 0ebd eb89 40bd
000003c0: 2afe de3c 5490 d0bc 81b8 19bd ef96 50bd
000003d0: aafe 3b3d 207d 33bd 28f4 a3bc e56f 41ba
000003e0: ee20 5e39 8e5d f63c 50bf abbb 287b 4bbd
000003f0: 60d3 ebbc fcbe 23bd 2efc a43b c6b3 dc3b

bias f4 [64]
-0.074777566 -0.07232447 -0.07121419 -0.124218576 -0.08658901 -0.007134829 -0.09352039 -0.09313669
-0.002344442 -0.08518769 -0.055042926 -0.087962836 -0.027979882 -0.058447715 -0.035973236 -0.03150134
-0.075649776 0.005816072 -0.11697325 -0.1224399 -0.060020052 -0.1532147 -0.033302 -0.062364183
-0.11231879 -0.14059784 -0.08288945 -0.1310539 -0.060270865 -0.06602756 -0.07775924 -0.013556502
-0.009819153 -0.034673274 -0.03541873 -0.010581168 -0.08873237 0.022203837 0.027690552 -0.020526601
-0.100161634 -0.12409065 -0.10098362 -0.11139343 -0.04418726 0.0022704883 -0.058897402 -0.054883804
-0.04622757 -0.06570969 -0.00076739135 -0.1270385 -0.12327316 -0.036634754 -0.017974945 -0.14118356
-0.08070853 -0.03324818 -0.05605072 -0.09591245 -0.06441148 -0.077399224 0.020087207 -0.012248192
00000000: fb24 99bd da1e 94bd bfd8 91bd 4f66 febd
00000010: 9455 b1bd 49cb e9bb 9e87 bfbd 73be bebd
00000020: 36a5 19bb e276 aebd b174 61bd dc25 b4bd
00000030: 1136 e5bc df66 6fbd ac58 13bd 8d07 01bd
00000040: 45ee 9abd c094 be3b ac8f efbd c5c1 fabd
00000050: 96d7 75bd 50e4 1cbe ae67 08bd 9671 7fbd
00000060: 6507 e6bd e1f8 0fbe f2c1 a9bd fe32 06be
00000070: 95de 76bd 7539 87bd 3d40 9fbd 171c 5ebc
00000080: 83e0 20bc 9005 0ebd 3b13 11bd a35c 2dbc
00000090: 51b9 b5bd d2e4 b53c 4cd7 e23c 6727 a8bc
000000a0: 8b21 cdbd 3d23 febd 80d0 cebd 3d22 e4bd
000000b0: b3fd 34bd 79cc 143b 673e 71bd d7cd 60bd
000000c0: 1f59 3dbd cd92 86bd c32a 49ba 6116 02be
000000d0: a376 fcbd 530e 16bd 3140 93bc 6c92 10be
000000e0: 844a a5bd 3e2f 08bd 7195 65bd bf6d c4bd
000000f0: 2bea 83bd 7c83 9ebd ed8d a43c a4ac 48bc

weight f4 [64, 1024]
0.010272274 -0.03463835 -0.001690808 0.021567801 0.022478845 0.0049819136 0.00036261458 -0.027623901
0.030554587 0.024848018 0.0051890975 0.02711993 -0.018642183 -0.03680393 -0.018417267 -0.009696662
-0.02311351 -0.03329477 -0.01767761 0.031950995 0.011056613 0.008740629 0.0066638594 0.015790936
-0.0034451012 0.010848118 -0.027817452 -0.0010237781 -0.048775394 -0.031762447 0.041086756 0.04584177
0.021420354 -0.07200759 -0.0015957773 -0.010813474 -0.016720854 -0.0017624854 -0.039622393 -0.007871274
0.032873213 0.01811837 0.045897625 0.03980712 -0.028953042 -0.0028689748 0.016242662 0.05942093
0.00134331 0.023569133 0.0043347604 -0.051149104 0.059622932 0.022710415 0.0054231314 0.06404476
-0.005670791 0.04805504 0.0126139475 0.053194463 0.03400415 -0.0013524352 -0.008551861 -0.0015247707
0.0043892744 -0.0009924123 0.0038271875 0.009748654 0.03247799 0.018744897 0.021262333 -0.04121742
-0.022177842 -0.024177656 0.0009971289 -0.0015979834 0.05029582 -0.008886949 0.02064176 -0.0087939715
-0.008012462 0.03229029 0.04345868 0.0024473453 -0.029600415 -0.006750146 -0.014234922 0.023495246
-0.0027908655 -0.0031759876 -0.0040089064 -0.0060924413 0.016573325 -0.022116706 -0.010333226 -0.030282091
0.049217995 -0.023628067 -0.02326672 -0.012683607 0.031437457 0.0010567136 -0.03715948 -0.00523713
-0.035926554 -0.017289799 0.026496716 -0.0114025315 0.010597328 0.0025804613 0.017896494 0.025920473
-0.032352384 0.02231101 -0.014433761 0.011010619 0.038815882 -0.03964245 0.004255676 0.0075577134
0.03362014 -0.032773774 0.011234167 -0.006311302 -0.0029024107 0.013945452 0.016015882 0.024029871
0.04001547 0.016409518 -0.026204513 0.04979177 -0.013821303 -0.024459418 -0.02268904 0.030190852
0.040547635 0.0232722 -0.027584432 0.0022310016 -0.03595534 -0.024742063 -0.018402738 -0.0077800187
-0.029419342 0.003922616 -0.037725545 0.022257624 -0.031281833 -0.017829793 -0.014878469 0.0054808175
0.0073973006 0.030797638 0.022517188 0.05050041 -0.017889839 -0.03414971 0.039340947 -0.0032283803
0.032473944 -0.00028764404 -0.00063566864 0.014844135 -0.035336204 -0.035780698 -0.014755884 -0.051112816
0.03005883 0.027783088 0.025213428 -0.019131845 -0.006349315 0.00986243 0.042374007 0.011567544
0.022159752 0.01637175 0.018205734 -0.0077053076 -0.003755769 0.03166283 0.02438237 -0.022407185
0.006418907 -0.059835866 -0.024477532 0.009924535 0.018529747 -0.020847706 0.00030959796 -0.046627708
0.00056376297 0.004313217 0.06631285 0.040207054 0.012681837 -0.05456034 -0.012135408 -0.023541454
-0.045571193 0.032939717 0.034161303 -0.009919286 -0.011448052 -0.016116299 0.004966989 0.040945448
-0.016207261 -0.023875205 0.04838453 -0.005911383 0.05064952 0.040396653 0.01915794 -0.007782287
0.03385775 0.0040108697 0.018938784 -0.01012711 0.0045717997 -0.023612702 0.029294189 -0.021863082
-0.0017693901 -0.030439522 -0.05480393 -0.06401086 0.029308287 0.03978937 0.01910361 -0.0066333683
0.026074354 -0.006655028 0.029060574 -0.02413891 -0.0036616025 -0.021882404 -0.012685939 0.002702446
0.04145481 -0.028338986 0.0016017522 0.0006226606 -0.040642235 -0.020944737 0.011395162 0.008419192
-0.028920041 -0.010900752 0.0006769476 0.03289853 0.021501409 -0.0008551641 -0.001962039 -0.0079201255
00000000: 0a4d 283c f1e0 0dbd 1a9e ddba f5ae b03c
00000010: 8e25 b83c 523f a33b 4e1d be39 854b e2bc
00000020: 9d4d fa3c 128e cb3c 4e09 aa3b 9e2a de3c
00000030: 7eb7 98bc b8bf 16bd cfdf 96bc c0de 1ebc
00000040: 8b58 bdbc 1960 08bd a3d0 90bc 0cdf 023d
00000050: cc26 353c db34 0f3c 815c da3b fe5b 813c
00000060: 35c7 61bb 4ebc 313c 6de1 e3bc 4b30 86ba
00000070: b5c8 47bd 5719 02bd 964a 283d 94c4 3b3d
00000080: bd79 af3c b778 93bd 6729 d1ba ff2a 31bc
00000090: 2cfa 88bc 3203 e7ba 174b 22bd 84f6 00bc
000000a0: 10a6 063d fa6c 943c 26ff 3b3d ca0c 233d
000000b0: ee2e edbc 6905 3cbb 550f 853c 5c63 733d
000000c0: 0112 b03a 0e14 c13c 9b0a 8e3b b981 51bd
000000d0: 2d37 743d 310b ba3c 86b4 b13b e629 833d
000000e0: 0bd2 b9bb 5dd5 443d bbaa 4e3c 70e2 593d
000000f0: f047 0b3d 3244 b1ba 1b1d 0cbc d1da c7ba
00000100: e7d3 8f3b d513 82ba 8dd1 7a3b d2b8 1f3c
00000110: a407 053d e68e 993c 582e ae3c 99d3 28bd
00000120: 4eae b5bc 3810 c6bc 18b2 823a 6d73 d1ba
00000130: fd02 4e3d 919a 11bc e918 a93c 9714 10bc
00000140: b446 03bc d342 043d bb01 323d a463 203b
00000150: 927c f2bc 5430 ddbb 9739 69bc 1a79 c03c
00000160: f4e6 36bb 3b24 50bb 255d 83bb 1aa3 c7bb
00000170: c8c4 873c 182e b5bc b14c 29bc 2612 f8bc
00000180: cf98 493d a68f c1bc d999 bebc e7ce 4fbc
00000190: 90c4 003d 6d81 8a3a 8a34 18bd 3b9c abbb
000001a0: b927 13bd 56a3 8dbc a40f d93c afd1 3abc
000001b0: 6aa0 2d3c f51c 293b ab9b 923c 2c57 d43c
000001c0: ef83 04bd 94c5 b63c 957b 6cbc e265 343c
000001d0: 67fd 1e3d 1f60 22bd 3373 8b3b b2a6 f73b
000001e0: 46b5 093d cb3d 06bd 830f 383c 0acf cebb
000001f0: 5f36 3ebb 777b 643c bd33 833c 4bda c43c
00000200: 43e7 233d 416d 863c d9aa d6bc 74f2 4b3d
00000210: bf72 62bc 1e5f c8bc 5ede b9bc ce52 f73c
00000220: 4715 263d 57a5 be3c bff8 e1bc ff35 123b
00000230: e845 13bd deaf cabc 57c1 96bc 87ef febb
00000240: d500 f1bc 4a89 803b 1a86 1abd 9f55 b63c
00000250: 6121 00bd c90f 92bc d2c4 73bc 6e98 b33b
00000260: 0e65 f23b 544b fc3c f775 b83c 85d9 4e3d
00000270: b68d 92bc 91e0 0bbd f923 213d 3c93 53bb
00000280: 6603 053d eece 96b9 00a3 26ba d134 733c
00000290: b2bc 10bd c88e 12bd aac2 71bc ac5b 51bd
000002a0: ef3d f63c 5c99 e33c 648c ce3c 63ba 9cbc
000002b0: ea0d d0bb 0896 213c 5e90 2d3d cc85 3d3c
000002c0: 5e88 b53c 0c1e 863c 3124 953c ce7c fcbb
000002d0: 5923 76bb e2b0 013d 89bd c73c 468f b7bc
000002e0: b255 d23b 7416 75bd 1b85 c8bc 849a 223c
000002f0: b2cb 973c cfc8 aabc 8951 a239 b2fc 3ebd
00000300: 7ec9 133a e355 8d3b 08cf 873d 27b0 243d
00000310: 7bc7 4f3c aa7a 5fbd 97d3 46bc 02da c0bc
00000320: dca8 3abd cceb 063d b9ec 0b3d 8084 22bc
00000330: 9c90 3bbc 5406 84bc 20c2 a23b 6ab6 273d
00000340: 17c5 84bc ef95 c3bc db2e 463d 46b4 c1bb
00000350: df75 4f3d f676 253d 1df1 9c3c 8e02 ffbb
00000360: 6dae 0a3d 9d6d 833b 8225 9b3c 2eec 25bc
00000370: 09cf 953b 6d6f c1bc 5efa ef3c 351a b3bc
00000380: e1ea e7ba 4e5c f9bc 167a 60bd 2018 83bd
00000390: ef17 f03c 2efa 223d 2d7f 9c3c ba5c d9bb
000003a0: e299 d53c 6c12 dabb 7110 ee3c f7be c5bc
000003b0: 7ff7 6fbb ba42 b3bc afd8 4fbc 851b 313b
000003c0: 85cc 293d 2927 e8bc e3f1 d13a 0c3a 233a
000003d0: 7978 26bd 4c94 abbc c6b2 3a3c a7f0 093c
000003e0: b9e9 ecbc 1199 32bc 2f75 313a 9cc0 063d
000003f0: b923 b03c 172d 60ba 8d95 00bb 6ac3 01bc

bias f4 [64]
-0.034544606 -0.014789855 0.002572068 -0.05098172 -0.007356364 -0.0023761226 0.018948853 0.0039327485
-0.014628417 -0.016315829 0.007008321 -0.036322895 0.022440648 -0.017083665 -3.7906848e-05 0.0044874004
0.022933964 0.022437882 0.016503032 0.010091631 0.03188856 -0.015468931 0.0036303455 -0.022129472
-0.023356691 -0.007759603 0.042047173 0.0072896536 -0.050458148 -0.0007146209 -0.049462527 -0.05033891
0.033933878 0.02718002 0.07397209 0.01560397 0.012032796 -0.044141795 0.012814678 -0.0038863833
0.0036165512 0.022967335 -0.03841896 -0.060975544 -0.019390976 0.042755596 -0.014107649 0.07397084
-0.011161675 -0.0070842025 -0.030426487 -0.015600864 -0.018828506 0.00032063347 -0.048468586 -0.017846562
0.040946882 -0.017959507 -0.03891325 -0.047113825 0.0024784568 0.03313627 0.020404156 0.036790367
00000000: a57e 0dbd 2651 72bc 2490 283b 35d2 50bd
00000010: a70d f1bb b9b8 1bbb a03a 9b3c 49de 803b
00000020: 07ac 6fbc c6a8 85bc 0fa6 e53b 51c7 14bd
00000030: 73d5 b73c 0bf3 8bbc 2bfe 1eb8 0b0b 933b
00000040: 02e0 bb3c a6cf b73c 5e31 873c 5e57 253c
00000050: 949d 023d 6671 7dbc 17eb 6d3b de48 b5bc
00000060: 8856 bfbc 4544 febb a839 2c3d 0cde ee3b
00000070: 34ad 4ebd 6655 3bba 3899 4abd 2c30 4ebd
00000080: 40fe 0a3d a2a8 de3c ae7e 973d cba7 7f3c
00000090: 3425 453c 07ce 34bd a8f4 513c b1b2 7ebb
000000a0: a903 6d3b fe25 bc3c 335d 1dbd 7ec1 79bd
000000b0: d3d9 9ebc 7e20 2f3d c523 67bc 067e 973d
000000c0: 75df 36bc 9922 e8bb f840 f9bc c49a 7fbc
000000d0: 3d3e 9abc b21a a839 ff86 46bd f432 92bc
000000e0: ebb7 273d d11f 93bc 8063 1fbd 6dfa 40bd
000000f0: 9b6d 223b e6b9 073d 9e26 a73c 7fb1 163d

weight f4 [10, 64]
-0.12027934 0.25209114 -0.05085698 -0.019037435 -0.19656362 0.2279021 -0.22800352 -0.01581307
-0.1265399 0.3805449 -0.092380695 0.32643673 -0.18056095 -0.14424254 0.15613565 -0.028283639
0.13763495 0.23175454 0.082828365 -0.16232832 0.17152476 0.09514517 -0.14967066 0.19546066
0.15330568 0.025707694 -0.19372842 0.17707253 -0.00847604 0.18173566 0.23589405 0.16251287
-0.29457992 0.078370914 -0.23090541 -0.062399972 0.028889654 0.28330696 0.17722948 0.2068275
-0.084539965 -0.189545 -0.105200134 0.1820963 -0.08779552 -0.10161404 -0.23210676 -0.15028264
-0.12586018 0.2693249 -0.026491804 0.2043661 0.19705029 0.16629113 -0.02064449 0.02720538
0.1818709 0.11044768 0.080197595 0.12329022 -0.06539679 0.02371695 -0.025348643 -0.06301337
0.17033337 0.279676 -0.037590403 0.22030348 0.008761791 -0.2935635 0.006895192 0.1588135
0.2461494 0.11346933 -0.13600561 -0.07507161 0.16519326 0.16927063 -0.21621047 0.058626246
-0.1959358 -0.36137596 0.37186313 0.25047645 -0.25518543 0.26168045 0.17788953 0.28451097
-0.1503039 -0.29185936 0.15170932 0.100930676 -0.2063147 -0.33224106 0.31451264 -0.07030689
0.2983281 0.047650125 -0.10026264 0.053152036 0.33865115 -0.23906617 -0.026346339 0.09350701
-0.13375911 -0.39174864 0.29336897 0.17943701 -0.0944704 0.26219574 0.0266929 -0.1629717
0.15486664 0.105999805 -0.14749424 -0.026229922 0.13788538 0.13277729 -0.3290292 0.23894757
-0.028435953 0.04446762 0.13846919 0.023001287 0.36602318 0.11850007 0.1175944 0.24997592
0.12152785 -0.10223869 -0.084682755 0.17375176 0.06631224 0.26498392 -0.24335507 -0.2816947
0.1704514 0.2555866 -0.0046889246 0.007631354 -0.10283054 0.21496084 -0.27998737 0.051440734
-0.09875225 0.3525469 -0.24551731 0.06372253 0.124450386 -0.017131967 -0.06117241 -0.20032208
-0.13357778 0.29726452 0.0027221723 -0.18939988 0.060202286 0.010401405 -0.25186008 -0.0877632
-0.15472953 0.07079105 -0.06196462 -0.10740481 -0.20580365 0.14654799 0.02916005 0.16426706
0.097457126 0.19749407 -0.05192438 -0.3428628 -0.11163449 -0.043103166 -0.22002299 0.07887007
-0.041676536 0.17501841 0.22854543 0.26455528 -0.058290787 0.24755517 -0.19379565 -0.205842
-0.26892763 -0.0031766023 -0.08394951 -0.22745799 0.09316837 0.05459459 -0.15803894 0.13966444
0.13516717 -0.15954001 0.04906837 -0.009419881 -0.15488462 -0.28670186 -0.16658919 -0.11059807
0.19036599 -0.19360554 -0.17333728 0.016219633 -0.16818164 -0.06992152 -0.16385987 -0.18631402
0.27872545 -0.20481214 -0.15463841 -0.21090399 -0.107531585 -0.14132333 -0.121365644 -0.20884739
0.1431813 0.12836306 -0.04326047 0.017641863 0.0065111825 0.09433287 -0.19264062 -0.16371801
0.09261755 0.15470973 -0.19725762 -0.067873485 0.1857365 -0.099074416 -0.03701232 0.11501025
-0.20019262 -0.09105252 0.11286663 -0.06684829 0.066308424 0.08601849 -0.054696605 0.13048653
-0.1446618 -0.15726908 -0.21300544 -0.03190761 -0.14347784 0.052556448 0.066819236 -0.2752823
-0.08152711 -0.14576821 0.11884817 0.20258674 -0.20527788 0.09615137 -0.11563646 -0.084205754
00000000: 0455 f6bd 1712 813e 694f 50bd 65f4 9bbc
00000010: f947 49be 2b5f 693e c179 69be 698a 81bc
00000020: ad93 01be c8d6 c23e 1732 bdbd b722 a73e
00000030: f8e4 38be 51b4 13be 06e2 1f3e 17b3 e7bc
00000040: 2df0 0c3e 1051 6d3e eba1 a93d 6539 26be
00000050: 30a4 2f3e 79db c23d 4443 19be d726 483e
00000060: 2afc 1c3e f198 d23c be60 46be 8052 353e
00000070: 17df 0abc ea18 3a3e 368e 713e c669 263e
00000080: 2ed3 96be ee80 a03d 7872 6cbe 1d97 7fbd
00000090: ffa9 ec3c 9c0d 913e a57b 353e 97ca 533e
000000a0: 4a23 adbd 1618 42be 2b73 d7bd 7477 3a3e
000000b0: 23ce b3bd 061b d0bd 65ad 6dbe b1e3 19be
000000c0: 7ee1 00be f4e4 893e 5705 d9bc 5945 513e
000000d0: 8dc7 493e 3948 2a3e a21e a9bc d1dd de3c
000000e0: 5d3c 3a3e 6532 e23d a33e a43d 957f fc3d
000000f0: c1ee 85bd 0d4a c23c f5a7 cfbc 270d 81bd
00000100: df6b 2e3e b131 8f3e 65f8 19bd 3c97 613e
00000110: 9d8d 0f3c f44d 96be 10f1 e13b 02a0 223e
00000120: 970e 7c3e 9c62 e83d 0e45 0bbe 25bf 99bd
00000130: 6c28 293e 4855 2d3e 4766 5dbe 1322 703d
00000140: 65a3 48be 4506 b9be d864 be3e 733e 803e
00000150: aaa7 82be fbfa 853e ac28 363e 6cab 913e
00000160: 44e9 19be 976e 95be b059 1b3e beb4 ce3d
00000170: 2944 53be 801b aabe cd07 a13e 0ffd 8fbd
00000180: 76be 983e c72c 433d 8056 cdbd f3b5 593d
00000190: af63 ad3e c3cd 74be 47d4 d7bc 9a80 bf3d
000001a0: 26f8 08be 4793 c8be 7534 963e 56be 373e
000001b0: b279 c1bd 853e 863e 12ab da3c 0ee2 26be
000001c0: 5c95 1e3e 6d16 d93d bb08 17be 22e0 d6bc
000001d0: d331 0d3e c5f6 073e 8476 a8be acae 743e
000001e0: 84f2 e8bc ae23 363d deca 0d3e 326d bc3c
000001f0: 6467 bb3e 2ab0 f23d 55d5 f03d b0f9 7f3e
00000200: 98e3 f83d 8562 d1bd 276e adbd fbeb 313e
00000210: b6ce 873d f9ab 873e 1232 79be 4a3a 90be
00000220: d08a 2e3e 3fdc 823e 8da5 99bb 7010 fa3b
00000230: d198 d2bd b21e 5c3e 815a 8fbe 85b3 523d
00000240: 9f3e cabd 0781 b43e e468 7bbe f580 823d
00000250: d8df fe3d 5758 8cbc ec8f 7abd 3b21 4dbe
00000260: 9dc8 08be 0e33 983e 7966 323b 0bf2 41be
00000270: ac96 763d a86a 2a3c cef3 80be 31bd b3bd
00000280: 6b71 1ebe e6fa 903d 9dce 7dbd 0ef7 dbbd
00000290: 31be 52be ad10 163e 0fe1 ee3c a035 283e
000002a0: 9a97 c73d e33b 4a3e a9ae 54bd b78b afbe
000002b0: a0a0 e4bd f28c 30bd b54d 61be a286 a13d
000002c0: 04b5 2abd 0738 333e d007 6a3e ca73 873e
000002d0: 52c2 6ebd 1a7f 7d3e 5e72 46be 3fc8 52be
000002e0: e2b0 89be 8b2e 50bb b8ed abbd bfea 68be
000002f0: 0fcf be3d 949e 5f3d f6d4 21be 3204 0f3e
00000300: 4369 0a3e 755e 23be eafb 483d d855 1abc
00000310: 139a 1ebe 96ca 92be 5b96 2abe 3e81 e2bd
00000320: 4def 423e 8840 46be 547f 31be 09df 843c
00000330: cf37 2cbe 0433 8fbd e2ca 27be 1ac9 3ebe
00000340: 1ab5 8e3e 46ba 51be 8859 1ebe 37f7 57be
00000350: 8539 dcbd 10b7 10be 8d8e f8bd 17dc 55be
00000360: 1e9e 123e 9b71 033e e431 31bd ab85 903c
00000370: c25b d53b 9731 c13d 9543 45be b2a5 27be
00000380: 45ae bd3d 3a6c 1e3e e7fd 49be 4101 8bbd
00000390: b631 3e3e 87e7 cabd 3b9a 17bd 7e8a eb3d
000003a0: 4bff 4cbe be79 babd 9f26 e73d c2e7 88bd
000003b0: b6cc 873d 762a b03d 8c09 60bd 439e 053e
000003c0: 3922 14be 250b 21be 191e 5abe 8eb1 02bd
000003d0: dbeb 12be 6e45 573d 86d8 883d cdf1 8cbe
000003e0: aff7 a6bd 4344 15be ab66 f33d e672 4f3e
000003f0: 5d34 52be 02eb c43d cfd2 ecbd 1174 acbd

bias f4 [10]
-0.19821975 -0.059980806 -0.0035413452 -0.019925717 0.18658218 -0.02861498 0.060770366 -0.04895442
-0.024115209 0.008235627
00000000: 1efa 4abe 6fae 75bd ea15 68bb 423b a3bc
00000010: 660f 3f3e f669 eabc 59ea 783d 6e84 48bd
00000020: 428d c5bc b9ee 063c
