models/gpu_train_model16.pth (torch, 587335 bytes, 10 tensors)

weight f4 [32, 3, 5, 5]
000000 66 b5 96 3d 9c 7d 44 3e 16 df 36 3d 56 45 38 bd
       0.07358818 0.19188541 0.044646345 -0.044988
000010 19 d9 0a be 81 3c ca 3c 26 d7 0b 3e 63 84 26 3e
       -0.13559379 0.024687054 0.13656291 0.16261439
000020 d9 b4 d0 bd 3c be b6 bd 07 c6 5c 3d 5b f3 05 3e
       -0.10190744 -0.08923003 0.05389979 0.13081114
000030 32 bd d0 ba d3 be 7a bd 6a db 02 bd a3 b0 23 3d
       -0.0015925525 -0.06121714 -0.03194753 0.039963376
000040 f1 83 d4 bd 5f 36 ce bd b3 87 09 3c 15 42 4e 3e
       -0.10376728 -0.10068964 0.00839417 0.20142396
000050 78 6a 18 be c1 10 00 be 87 43 c6 3d ba 7d b8 3d
       -0.14884365 -0.12506391 0.096808486 0.090083554
000060 03 6e 23 3e e0 95 01 3e 81 8a 0d 3e 32 51 8e bd
       0.15959935 0.12654829 0.13822366 -0.069490805
000070 24 c6 80 3c 2a e0 e2 bd 86 01 24 3e b9 4a a1 3c
       0.01571948 -0.11077912 0.16016206 0.01968895
000080 d0 e2 3b 3d b8 05 0a be 5b 86 1b bd d3 b7 79 3d
       0.045870602 -0.13478744 -0.03796993 0.060966324
000090 4e aa 3e 3d d0 8d e0 3c 08 91 59 bd 99 94 a2 bd
       0.046549134 0.027411371 -0.05311683 -0.07938499
0000a0 6d 9e c3 bd db 45 24 be cd 69 06 bc 08 52 96 3d
       -0.09551702 -0.16042273 -0.008203936 0.07339865
0000b0 14 13 50 3e e1 22 ca bd bc 2f 03 bd 50 93 67 3d
       0.20319778 -0.09869934 -0.032027945 0.056536973
0000c0 f4 9d 51 3d b4 2b e7 3d 76 79 b3 3d b3 bd d1 3d
       0.051176026 0.112876326 0.08763401 0.102412604
0000d0 42 91 22 be de 99 50 be b6 16 04 be c7 56 23 bd
       -0.15875724 -0.20371196 -0.12899289 -0.03987768
0000e0 fb 5c ea 3c b3 08 17 bd 3f 6b 60 be 0a 1f 4c be
       0.02860879 -0.03687353 -0.21915911 -0.19933715
0000f0 9e f3 68 bd b6 f4 81 bc 7b 51 9b bd aa 70 59 bd
       -0.056872956 -0.015863758 -0.075839005 -0.05308596
000100 e3 9c d0 bb 36 0b d9 bd 69 3d 22 bd af 72 2b be
       -0.0063663586 -0.105978414 -0.039609347 -0.16742967
000110 50 28 cd 3d 2f ca a3 3d 81 90 36 be 7f 7c b7 3c
       0.100174546 0.07997548 -0.17828561 0.022398232
000120 37 10 d8 bc 6b 3b 49 bd 29 4a 16 3c 98 2e ec 3d
       -0.02637492 -0.04912893 0.009172955 0.115323246
000130 1c cb 51 bd be 12 10 be 8c fe d0 bc 0e 65 b4 bd
       -0.05121909 -0.1406965 -0.025512002 -0.08808337
000140 45 9c e6 bd 9c 43 3b be 31 03 85 be 89 00 d8 3c
       -0.11260275 -0.1828751 -0.25978997 0.026367443
000150 b4 b3 16 3e 36 ce 4f be 2e 4a 24 be 60 45 fc bd
       0.14716989 -0.20293507 -0.16043922 -0.1231792
000160 45 0e 3d 3e 4b 58 b9 3d 4f a9 e0 ba 66 c5 3b be
       0.18462475 0.09050044 -0.0017140302 -0.1833702
000170 64 5c 30 3d 68 09 cf 3d 53 99 cb 3d b4 bd 39 3d
       0.04305686 0.10109216 0.09941354 0.04534693
000180 ad 7c 47 be 8b 8c c5 3d 20 70 04 3e 36 03 97 bd
       -0.19481154 0.09645947 0.12933397 -0.07373659
000190 f7 2b 29 3e 55 f6 da bd ba 03 96 bd dd e7 d2 3c
       0.16520678 -0.10691515 -0.073249295 0.025745327
0001a0 b8 f7 28 3e d8 db 80 bd b2 82 86 bc ef bf 48 be
       0.16500747 -0.06291932 -0.016419742 -0.19604467
0001b0 97 4b 0f 3e 09 fc 33 3e 2d 22 e4 bd 04 97 35 3d
       0.13993679 0.17576613 -0.11139331 0.044333473
0001c0 70 75 43 bd 3d 5d 25 3e ce 29 f1 3d 3c 85 4d 3d
       -0.04771942 0.16148849 0.11775552 0.05017589
0001d0 d1 1d 13 be 53 b2 45 3e cc b6 52 3e 6f d5 c6 3d
       -0.14366843 0.19306307 0.20577544 0.09708678
0001e0 b6 d7 a1 3c d3 1f 30 3c 4f a5 27 3e 13 87 76 3d
       0.01975618 0.010749775 0.16371654 0.06018741
0001f0 81 e0 f2 3c a0 36 04 3e 18 f8 2a bd 50 19 60 be
       0.029648067 0.12911463 -0.041740507 -0.21884656
000200 38 41 62 bd 21 8e e3 bc a6 49 0c bd 6d ab 68 bd
       -0.05523798 -0.027777733 -0.034249924 -0.05680411
000210 80 e4 ba bd 9a 61 9b 3d 1a 59 81 3d 55 c4 1c be
       -0.09125614 0.075869754 0.06315823 -0.1530927
000220 77 61 27 3c 17 36 86 3d b6 8c df 3d a8 07 c9 bc
       0.0102161085 0.065532856 0.1091551 -0.024539784
000230 85 47 28 be b3 13 0b be 37 6f 80 3d eb 78 27 bb
       -0.16433533 -0.13581733 0.062712125 -0.002555425
000240 dd 4c bc ba 45 47 03 be 45 00 b0 bc 55 2d 55 3c
       -0.0014366169 -0.12820156 -0.021484504 0.013011296
000250 a2 c1 07 3e 7b d9 84 bb 58 75 b9 bd 2b 54 0a 3e
       0.13257459 -0.004054246 -0.09055585 0.1350867
000260 15 a5 b3 3d bd a0 8b 3c 15 d7 ef 3c 9e 97 19 be
       0.08771721 0.01704442 0.029277364 -0.14999244
000270 a3 3b 48 3e 13 84 2e 3e df 0c c5 bd 7b 1d c1 bc
       0.19554 0.1704257 -0.096215956 -0.023573628
000280 83 02 ce bd 4e 0f 12 3e 3e ab 30 3e 65 1b 97 3b
       -0.10059073 0.14263651 0.17252824 0.00461142
000290 97 19 10 3e 15 37 9b 3d 94 7b 48 3e 96 6d 59 3a
       0.14072262 0.075788654 0.19578391 0.00082942226
0002a0 ce f8 39 3d 86 f1 48 3e e4 7c ba 3d f2 62 d4 3d
       0.045403294 0.19623384 0.09105852 0.10370435
0002b0 14 4e ef 3d 29 ca 66 3b 63 52 1f 3e ea c2 35 bd
       0.11684814 0.0035215712 0.15558772 -0.044375338
0002c0 c8 fa 1e 3d f0 19 37 bd 0f 53 97 bd e4 6d ff 3d
       0.038813382 -0.04470247 -0.07388889 0.12472132
0002d0 f6 33 6f bd 4f 2e e2 ba ca ce aa bc 3d ca 7c 3d
       -0.058399163 -0.0017256233 -0.020850558 0.061716307
0002e0 d0 64 74 3d f3 b7 20 be 2a 79 92 3b ab 80 22 bc
       0.059666455 -0.15695171 0.0044700103 -0.009918372
0002f0 38 dc 14 be 88 03 60 3d e5 4e c6 bd 02 b3 8e bd
       -0.14537132 0.054690868 -0.09683017 -0.06967737
000300 d8 ea f4 bd 34 a4 83 bc 6d b1 0f 3e e8 e2 82 bb
       -0.119588554 -0.01606951 0.14032526 -0.0039943345
000310 c6 ea 6e 3c 6e 18 21 3d ff 08 9a 3d ee 8c 02 bc
       0.014582342 0.03932994 0.07521247 -0.007968171
000320 ef 61 70 bd d8 ab 94 bd 6d 89 32 bd cd b1 23 3d
       -0.058687147 -0.07259339 -0.04358809 0.039964486
000330 2e 2b f4 bd 42 c2 50 be 59 cc 9c 3c cc bf fd bd
       -0.11922298 -0.20386603 0.01914041 -0.12390098
000340 14 21 26 be dd af 91 3c 05 42 82 be 19 84 52 bc
       -0.16223556 0.017784053 -0.25440994 -0.012848877
000350 c4 ff a7 bd b6 23 f0 bd 88 de 72 3d aa 94 c9 bd
       -0.0820308 -0.11725561 0.059294254 -0.098428085
000360 24 7f 84 bd 4b 90 ce bd e3 5f 89 bc e4 e5 79 3a
       -0.06469563 -0.100861154 -0.016769355 0.00095328526
000370 2d 93 47 be 9f 34 21 3d a5 32 1a be d8 20 68 3d
       -0.19489737 0.039356824 -0.15058382 0.056671947
000380 e2 5b c3 3c ba 70 b8 3d 88 ec a0 bd 60 fb 90 bd
       0.023847524 0.09005876 -0.07857615 -0.07079196
000390 ff 20 ad bd 66 43 d3 3d 17 79 eb bc 42 d8 b6 3d
       -0.08453559 0.103155896 -0.028744264 0.08927967
0003a0 f8 e5 8e bd 13 1f c5 3c 34 ef 9f 3d 84 96 d5 3d
       -0.06977457 0.024062669 0.07809296 0.10429099
0003b0 b5 6d af bc c2 a2 be 3d 7c c7 64 bd db 6d da 3d
       -0.021414617 0.09308387 -0.055854306 0.106654845
0003c0 a1 be fc bd de 70 04 3e 88 3e b6 3d 47 7a 45 3e
       -0.12341047 0.1293368 0.08898646 0.19284926
0003d0 29 56 b6 3d 89 b6 e8 3b af 7e 99 bd d5 c0 d5 3d
       0.089031525 0.007101838 -0.07494866 0.104371704
0003e0 e8 ea d7 3d a6 13 3a bd c6 ae b0 bd 3d e5 23 be
       0.10542852 -0.045428894 -0.086270854 -0.16005416
0003f0 94 6d 5b 3d 0f 79 de bc 5e 45 aa 3d 69 a5 f4 3d
       0.0535713 -0.027157335 0.08314012 0.11945612

bias f4 [32]
000000 0e 5d a1 3d e3 54 80 3d 2e 35 43 bc a8 e3 36 be
       0.07879077 0.06266191 -0.0119145345 -0.17860281
000010 79 03 a2 bd d5 eb 0b 3e e5 43 32 3e a6 30 0a 3e
       -0.079108186 0.13664182 0.17408712 0.1349512
000020 0e 6d ad bd 53 ae 02 3d 31 37 45 3e a9 d0 9b be
       -0.08468066 0.03190453 0.19259335 -0.30432633
000030 70 06 9b be 4c 82 cd 3d b1 3c 02 be 7b 54 92 be
       -0.3027835 0.10034618 -0.12718464 -0.28580078
000040 b6 ec 5b be 90 f5 47 3d fc e8 61 3e ab ae 2e be
       -0.21477017 0.04881817 0.22061533 -0.17058818
000050 ca 4d fd bd f4 5b b3 be 87 8a f5 bc ea b2 d6 bd
       -0.12368353 -0.35031092 -0.029973282 -0.10483344
000060 1c a0 7b bd 9a a4 01 3d ce 84 18 bd 3b c0 07 be
       -0.06143199 0.031651117 -0.037236027 -0.13256924
000070 9c 26 90 bd 3a b6 37 bd 0c 03 65 3d 90 2a a5 3d
       -0.07038614 -0.04485152 0.05591111 0.08064759

weight f4 [32, 32, 5, 5]
000000 8d c2 b0 bc f8 00 9a 3c d0 61 62 3c 85 9f 5c bb
       -0.021577144 0.01879929 0.013817266 -0.0033664417
000010 26 07 f6 3c 93 29 9f bb 17 75 14 bc e6 7b 32 3d
       0.030032706 -0.004857251 -0.0090611195 0.04357519
000020 be 71 a4 3c 47 3c 69 3d b5 de 68 3a 8f e7 00 3d
       0.020073768 0.05694225 0.00088832836 0.03147083
000030 b0 46 6f 3d bd a9 cb 3c 57 28 f2 39 51 7a 1d 3c
       0.058417022 0.024861211 0.00046187892 0.009611682
000040 50 4b 4e 3d 4e e7 76 3d 91 79 48 3d fd d1 b7 3c
       0.050364792 0.060279183 0.04894406 0.022438997
000050 5e c7 a8 3c 11 38 d6 3c 6e e3 8e 3c 01 f5 ae 3c
       0.020602878 0.026149781 0.017442431 0.021357061
000060 b8 c0 f4 3c 05 11 34 bb 8b dd ed bc a1 66 da bb
       0.029877052 -0.0027475965 -0.029036304 -0.0066650664
000070 d5 25 dc 3c 50 6a 30 3d 89 12 82 3c 36 f4 9b 3b
       0.026873508 0.043070138 0.015877979 0.004759337
000080 ef 17 82 bc 5d eb f1 3b 78 ed 68 3d e2 72 18 3b
       -0.015880553 0.007382794 0.056867093 0.0023261835
000090 87 05 18 bc 29 c3 be 3c 06 c7 77 3d d1 78 7c 3d
       -0.009278662 0.023286419 0.060492538 0.061638657
0000a0 55 ba 84 bd 4e 10 2c bd b3 06 b3 3c 72 0a 83 bb
       -0.064808525 -0.042007737 0.02185378 -0.003999048
0000b0 4f 18 09 3c 5d 0f cd bc 2b 66 11 bd 98 55 16 3d
       0.008367612 -0.02503174 -0.035497826 0.036702722
0000c0 71 89 ba 3c 24 fb e1 3c 3e bd 90 3c 36 de c9 bc
       0.022770615 0.027585573 0.017668363 -0.024642091
0000d0 e0 20 d6 bc c2 95 be 3b 09 93 97 bc 37 c1 75 3c
       -0.026138723 0.0058161924 -0.018502729 0.014999679
0000e0 45 ab 83 bd 0a d0 58 3b 6b 91 0a 3d 16 dd 1c bc
       -0.064291514 0.0033082985 0.033830088 -0.009574195
0000f0 d6 39 74 bd a8 17 dc bc 57 da 21 bd 42 47 6a bc
       -0.05962547 -0.026866749 -0.039514866 -0.014299216
000100 c0 e0 93 bc 05 0d ee bc 42 6e 61 bd 35 f0 15 bd
       -0.018051505 -0.029058943 -0.05503679 -0.036606032
000110 ce 2e fc 3c fe 98 d7 bc cc 4b df bc 1f 5a 60 bb
       0.030784037 -0.02631807 -0.027257822 -0.0034233404
000120 b6 b8 a9 ba 21 98 87 bc 60 8f 92 3c e5 0a 0a bd
       -0.0012948725 -0.016552033 0.017890632 -0.033701796
000130 06 52 44 3c 8c 6b 7d 3c 87 6c 95 3c 0b 2f b1 3a
       0.011982447 0.015467536 0.018240226 0.0013518048
000140 28 bc 18 3b e1 71 8b 3b 38 49 86 bc 8a 40 32 bc
       0.002330551 0.004255519 -0.016392335 -0.010879645
000150 4e c7 94 bc 11 4c 23 bd 5a 15 3d bc 06 ef 28 bc
       -0.018161442 -0.039867464 -0.011540735 -0.010310894
000160 2d ea be 3c 48 82 c0 3c 5a 24 be bc 84 0d 02 bd
       0.023305023 0.023499623 -0.023210693 -0.03175117
000170 bd 25 3f bd 68 2c f8 bb 6d 2c 3d bc 07 8d aa bc
       -0.04666685 -0.007573653 -0.011546236 -0.0208192
000180 87 fa da bb 60 f7 26 3c f4 13 d8 3c a2 58 c7 3c
       -0.006682697 0.010190815 0.026376702 0.024334256
000190 32 f6 ff 3c 5f da 33 3d 4f 62 ad bc 14 e4 bd 3c
       0.031245325 0.043909427 -0.021165041 0.023180045
0001a0 f5 8a bb bc 04 e4 75 3c 76 94 10 3d 2f 5f 26 3d
       -0.022893408 0.015007976 0.035297833 0.040618118
0001b0 5a 51 80 3b 56 34 2a 3c e2 6f c1 3a 50 57 5c 3d
       0.003915948 0.010388454 0.0014758075 0.053794205
0001c0 49 99 09 3c 00 11 8d bb 28 52 d8 3c 32 ca a9 3c
       0.008398362 -0.004305005 0.026406363 0.020726297
0001d0 2c 31 c9 3c fd 90 72 bc 78 72 35 bd 87 b7 47 bc
       0.02455958 -0.014805076 -0.04429862 -0.012189752
0001e0 c1 80 95 bc 4c e3 d5 3b c6 d3 a7 bc 53 01 34 bd
       -0.018249871 0.00652734 -0.020486724 -0.043946575
0001f0 4b c2 4b bc cf de 5f 3d 73 f4 ea bb 44 a0 c7 3c
       -0.01243646 0.054655846 -0.007170254 0.024368413
000200 fc 26 2f 3b 13 84 5a 3c 11 b6 3b 3d 0c 37 b5 3c
       0.0026726117 0.013337153 0.04582793 0.022120975
000210 bb 7f d5 3c 4c 8e c3 3c c8 c5 2b 3c 34 6c 1c 3d
       0.026061883 0.023871563 0.010484166 0.038189128
000220 87 2a 7c 3c 18 f5 1b 3d 9b 46 b1 3b 76 b9 dd bb
       0.015390999 0.038075536 0.005410028 -0.0067664934
000230 54 5e 59 3d fe a9 a3 3b 41 c5 05 3c e2 98 d7 bc
       0.053068474 0.00499463 0.008164705 -0.026318017
000240 3e 22 76 3c 93 9f 0c 3d bb 17 cf 3c a2 ae 69 3c
       0.015022812 0.03433187 0.02527987 0.014262827
000250 de ca 8a bb a4 af a7 bb 3a c2 52 bc 6a 33 ce 3c
       -0.0042356094 -0.0051173735 -0.01286369 0.025171
000260 f3 c5 bc 3c d0 96 89 3d 8f 88 0a 3c 17 c0 3f bc
       0.023043608 0.06718218 0.00845541 -0.011703513
000270 c3 f2 4e 3d 2b ca 42 3d de 22 8c 3d 67 dd 45 3d
       0.050524484 0.047556084 0.06842588 0.04830685
000280 e9 73 8f bc 4c e4 83 3d 53 1b 04 3d 3c e8 20 3d
       -0.017511325 0.064400285 0.03225262 0.039283976
000290 00 bc 8f 3d b5 89 8e bc 6d c4 0b 3d 71 cf f2 3c
       0.0701828 -0.017399648 0.034122873 0.029639931
0002a0 dd c0 8b 3d a5 39 3e 3d d3 d7 f0 3b 65 e6 ff bc
       0.06823895 0.046441693 0.007349947 -0.03123779
0002b0 7e 3a 2f 3c 7d 0e 03 bd 69 86 12 bc 47 b9 c8 3a
       0.010695098 -0.03199624 -0.008943179 0.0015314006
0002c0 1e 04 a3 3c 41 2f fc 3b 67 5c 08 3d cc 55 02 3d
       0.019899424 0.007696063 0.033291247 0.031820104
0002d0 38 75 27 3d 56 8e 96 3c 40 53 5d 3d b9 63 4a 3d
       0.040883273 0.018378418 0.05403447 0.04941151
0002e0 e1 14 eb 3c cf 6c 9e ba 3c f5 d1 3c 8a f3 ef 3c
       0.02869648 -0.0012086871 0.025629632 0.029290933
0002f0 36 1f 5c bc 03 fa 01 3c 46 97 20 3d 67 33 97 bb
       -0.013435176 0.007933143 0.039206766 -0.004614282
000300 57 e3 e8 bb e8 fc 92 bc b8 f1 87 bc c5 49 ed bb
       -0.007107179 -0.01794286 -0.016594753 -0.00724146
000310 0d 94 0f 3c 7c c7 4c bd 7a 8a 0a bd 35 3e 2a bd
       0.008763325 -0.04999493 -0.033823468 -0.04156323
000320 02 91 0f 3b b4 35 5b bc c3 e5 83 3b 55 f3 30 bc
       0.00219065 -0.013379503 0.0040251925 -0.010800202
000330 0c 6e 59 3c e6 c9 ac bc 10 e5 85 bc 34 7c 99 bc
       0.013270866 -0.021092366 -0.016344577 -0.018735982
000340 2e a0 b9 3c 42 c9 49 bc 9b 2e dd 3c 1f cb 5a 3c
       0.022659387 -0.01231605 0.026999762 0.013354092
000350 3d fe 25 b9 16 cf b6 bc 12 e6 09 3d 62 d6 04 bb
       -0.00015830337 -0.022315543 0.033666678 -0.0020269384
000360 b3 fc 0d 3d 29 5c ca 3c 10 ad 7b 3c 27 c9 8d 3b
       0.03466482 0.024702149 0.0153610855 0.0043269577
000370 78 89 b8 bb bf 54 1c bd ad 84 04 3c b4 e8 ae bb
       -0.005631622 -0.038166758 0.008088273 -0.005337799
000380 f8 8c 2c bd 52 a0 c8 3c 36 7e c7 bc 4c 7e 60 bc
       -0.042126626 0.02449051 -0.024352174 -0.0137019865
000390 3c 40 14 bd 49 8d c7 bc a6 6e b6 38 7d 1a 36 bd
       -0.03619407 -0.024359362 8.699046e-05 -0.044458855
0003a0 f9 e5 79 bc 57 e0 46 bd eb 0e b7 bc f1 02 1a 3b
       -0.015252584 -0.04855379 -0.02234598 0.0023500288
0003b0 1c ce 5e bd 49 02 3f bd 1d fa 20 3c 59 ab 90 bc
       -0.05439578 -0.04663304 0.009825257 -0.01765983
0003c0 29 11 93 3c 40 ad 0b bd 82 c0 72 bc 54 f9 2c 3c
       0.017952519 -0.03410077 -0.014816405 0.010557491
0003d0 41 c5 3d bc a5 be e3 bc d3 c1 56 bd de 60 1c bc
       -0.0115826735 -0.027800867 -0.05243094 -0.009544579
0003e0 47 e6 76 3c 8b 42 08 bd 2d d2 16 3d 9f e8 64 3b
       0.015069551 -0.033266585 0.036821533 0.0034928692
0003f0 02 c5 e4 bb e8 cb f6 bb f9 3a 39 3d 21 72 99 38
       -0.006981493 -0.0075316317 0.045222256 7.316867e-05

bias f4 [32]
000000 ae 74 9d 3c 6e 67 29 be 4d 8d 14 3d 98 b3 9a bc
       0.019220676 -0.16543362 0.036267567 -0.018884465
000010 fa 74 b6 bd 90 32 2e 3d fe dc d6 bc de 1c f3 bd
       -0.0890903 0.04252869 -0.026228424 -0.1187074
000020 63 a2 54 3c 99 e9 a6 bd 18 7f c8 bd f9 9e a3 3d
       0.012978169 -0.08150024 -0.09789866 0.07989306
000030 14 5f a9 bd 6e 27 19 bd 27 0f e4 bd b4 e1 d3 bd
       -0.08270088 -0.03739112 -0.111357026 -0.10345784
000040 d5 34 55 bd fd a8 d3 bd b0 6f 33 bd e0 0d 02 be
       -0.052052338 -0.10334966 -0.043807685 -0.12700605
000050 5f 92 a5 3c 4f f7 bf bd 59 e7 47 bd eb 04 97 3b
       0.020211397 -0.09373342 -0.048804615 0.0046087406
000060 d6 4a d8 3c ea dc 3e 3d 78 13 26 be 23 db 3b be
       0.026402872 0.0465974 -0.16218364 -0.18345313
000070 2b 6c 30 3d 4b 53 bc bd 2c c2 43 bd d0 16 0a be
       0.043071907 -0.091955744 -0.0477926 -0.13485265

weight f4 [64, 32, 5, 5]
000000 60 32 d3 bc 79 50 21 bd 4f b2 30 bd 4f 22 3b bd
       -0.025780857 -0.039383385 -0.0431388 -0.045687016
000010 06 46 38 bc cc ae 2a 3d 0d bd 2e 3c df 23 65 bc
       -0.011247164 0.041670606 0.01066519 -0.013985603
000020 95 97 99 bc 7c 59 4a bc 04 d1 e6 bc 7f f1 9d 3c
       -0.018749038 -0.012350436 -0.028175838 0.019280193
000030 c0 53 c4 bc 17 ee 0e bc 5f af c6 3b 75 87 81 3c
       -0.023965716 -0.008723757 0.0060633863 0.015811661
000040 9d 81 e9 bc d3 97 36 3c c1 79 32 3b 90 68 83 3d
       -0.028504187 0.011144596 0.0027233216 0.06416428
000050 4d 78 09 3c 14 39 10 3d a5 9f a8 ba ea f1 f7 bc
       0.008390498 0.035210684 -0.0012864961 -0.03026672
000060 c3 91 c3 3c 34 9e a2 3d 85 93 05 3d 30 11 3e bd
       0.023873216 0.07940331 0.03261139 -0.04640311
000070 31 20 ca bc 8a 37 20 bd 74 0e 2d 3d 0a e2 86 bb
       -0.024673553 -0.039115466 0.04225011 -0.0041163014
000080 af 8a 90 3b a1 3d b8 bc 99 9d 86 bc 6f ab 90 bc
       0.0044110636 -0.022490324 -0.01643257 -0.01765987
000090 f9 fb 73 3c ed 20 af 3c c9 74 39 3d 0e 03 0f 3d
       0.014891618 0.021378005 0.04527739 0.034915023
0000a0 a3 0e 1a bc ba 21 57 3b 51 6f ec ba 42 c7 1f bc
       -0.009402904 0.00328265 -0.0018038546 -0.009752097
0000b0 23 61 04 bd 8d 83 09 3b 98 07 c9 3c 08 ec 58 3d
       -0.0323192 0.0020982951 0.024539754 0.052959472
0000c0 a2 aa 83 bc c4 1f ac bb 1e 8e da 3c 91 fa 78 bc
       -0.016072575 -0.00525281 0.026679095 -0.015196458
0000d0 46 cb f9 bc 07 24 40 bd b5 87 a5 3c 57 42 10 3d
       -0.030492436 -0.04690936 0.020206312 0.035219517
0000e0 82 41 32 3c e6 90 24 3d ee f5 ff ba dc 46 04 bd
       0.010879876 0.04017725 -0.0019528249 -0.03229414
0000f0 56 6f 9a 3c 0d da 82 3c df df 7a bb 29 b4 03 3d
       0.018851917 0.015973115 -0.003828041 0.032154236
000100 33 c5 ea 3c 0c ec c6 bc 0b 5a 9a 39 b9 3d 0a 3c
       0.028658485 -0.024282478 0.00029440256 0.008437567
000110 55 7f 79 bc 54 a8 c1 3b 17 bb 24 bd ed 91 3e 3c
       -0.015228112 0.005909959 -0.040217485 0.011631471
000120 ff 9e 0f 3d b3 47 f0 bc ad 24 c9 bc 59 41 54 bc
       0.03506374 -0.029331064 -0.024553621 -0.012955033
000130 c5 f4 8f 3c f1 00 00 3c 8a ce 5e 3c ae 2c 01 3d
       0.01757277 0.007812724 0.013599047 0.03153675
000140 ba 2b be 3c b3 fb 1e bb 89 6f 75 3c cc 0c 19 bc
       0.02321421 -0.002425891 0.014980205 -0.00934143
000150 df 55 b0 bc 03 74 fa 3b 2a a6 01 3a 61 52 f5 bc
       -0.021525322 0.007643224 0.000494572 -0.029946508
000160 b0 0b 0a bc b9 3b 71 bc e3 ae 0c 3d c7 2a e8 3c
       -0.008425638 -0.014723712 0.034346472 0.02834071
000170 88 83 bc 3c cd e8 85 3b 04 a4 a8 3b 9e 44 13 bd
       0.023011938 0.00408659 0.0051465053 -0.03595411
000180 c9 52 0c bd 34 8c b9 3b db d0 10 bd ab 7c dc 3b
       -0.034258638 0.0056624655 -0.03535543 0.006728729
000190 a4 47 76 ba 84 39 46 bb 5b 39 44 bc a9 17 d5 bc
       -0.00093948306 -0.0030246684 -0.011976565 -0.026012259
0001a0 21 e8 17 bd c7 98 49 3d 78 d8 01 bc 31 ac 24 3c
       -0.03708661 0.049217965 -0.007925145 0.010050819
0001b0 fd 1f 85 3c 5f 39 44 3b 00 6c 06 3d 26 94 3c 3c
       0.016250605 0.0029941422 0.03281784 0.011509931
0001c0 e2 df cd bc e2 1c 86 3c 74 2a d7 bc b8 02 05 bd
       -0.02513117 0.016371194 -0.02626536 -0.032473296
0001d0 0c b7 18 bc 81 fe c5 3b de 3f 24 3d fb fb b4 bc
       -0.0093209855 0.006042302 0.04009997 -0.02209281
0001e0 24 54 a4 3b f6 e8 50 3b d0 db a7 3a 80 53 1e 3b
       0.005014913 0.0031877137 0.0012806598 0.0024158657
0001f0 c7 99 66 3b 8b 41 96 bb c1 ca cd ba f1 e6 45 bd
       0.0035186873 -0.00458545 -0.0015700684 -0.048315946
000200 1d 77 6a bd 34 75 81 3b 98 c5 63 3b 51 9d 22 bc
       -0.0572425 0.0039507393 0.0034755226 -0.0099252025
000210 66 1d 0d bd 42 c1 d5 bb 36 1c 7a bd 16 5b d7 bc
       -0.034451865 -0.0065232823 -0.06106206 -0.02628855
000220 e7 fe 1c 3a e8 0c 93 bc 9b 84 93 3c f0 bd 9d 3c
       0.0005988911 -0.01795049 0.018007567 0.019255608
000230 6c ba 02 bd 1d 88 2d bd fa 8a 9d 3c 73 01 f5 bb
       -0.031916067 -0.042366136 0.019231308 -0.0074769794
000240 c2 61 a2 bc 14 6e 2d bd ba 34 12 3d 42 b9 a9 3c
       -0.019822005 -0.042341307 0.035694815 0.02071822
000250 11 ba 1f 3d 30 da 20 3d 36 f8 11 3d 95 5e 7f ba
       0.038995806 0.03927058 0.035637103 -0.0009741572
000260 51 0e d9 3c 1f 6b f3 3b 55 3f 48 3c 22 74 12 bc
       0.026496084 0.0074285413 0.012222131 -0.008938821
000270 c1 43 1a bd 7a ae 45 3d 8d 5d 40 3d 9a 3d 5e bc
       -0.03766227 0.048262097 0.046964217 -0.013564492
000280 78 76 82 bc b3 d0 ac 3c e5 61 49 3d f0 72 00 3c
       -0.01592563 0.02109561 0.049165625 0.007839903
000290 90 81 5c 3b 42 41 29 bd 28 ee fa bc 92 d2 f9 bc
       0.0033646561 -0.041322 -0.03063114 -0.030495916
0002a0 3c 46 1d bd fe 9c 74 3d 0a 7c 7a 3b e4 41 e1 39
       -0.03839706 0.059720032 0.0038220906 0.00042964437
0002b0 31 14 d5 3a fa 51 5a bc 37 20 0e 3c c5 2c a2 bc
       0.0016256628 -0.013325209 0.008674673 -0.019796738
0002c0 dc bb ca 3b e8 e8 e3 bb 3f 5d b5 bb f6 be c3 bc
       0.0061869454 -0.006955255 -0.0055347974 -0.023894768
0002d0 45 d8 98 bc e8 8c c3 bc 5a 86 9d bc fa 81 24 bc
       -0.018657813 -0.0238709 -0.019229103 -0.010040754
0002e0 e8 b9 2a 3b 1a a3 8b 3c 5e ba 37 bc 85 95 06 bd
       0.002605075 0.017045546 -0.011213867 -0.032857437
0002f0 51 75 cd 3c a0 98 15 bc 89 70 8c 3c 2d eb 15 3d
       0.025080355 -0.009130627 0.017143505 0.036601234
000300 e7 26 11 3c d0 5e ae bc f9 01 e8 3c e2 24 99 bc
       0.008859373 -0.021285444 0.028321253 -0.018694345
000310 83 c0 0b bd 88 3e b1 3a db 84 c9 bc fb 7b ce 3c
       -0.03411914 0.0013522664 -0.024599483 0.025205603
000320 8d ae b4 3a e5 bc bd bb 22 4c a6 3a 39 ae 50 bc
       0.001378493 -0.0057903402 0.0012687484 -0.01273685
000330 7d 98 19 bd 21 f1 61 3c 92 93 b9 bb 1e 61 ad bc
       -0.03749894 0.0137904 -0.0056633437 -0.021164473
000340 71 30 b4 bb 9d 80 c2 bc 0b 3d c6 3c 22 39 7e bc
       -0.0054989387 -0.023742968 0.02419903 -0.015516551
000350 18 15 b5 bc 0b da 16 bd 2f 27 9e 3c 4d 87 91 bc
       -0.022104785 -0.036829036 0.019305794 -0.017764712
000360 2e 0f c0 39 c7 d5 85 bb a5 b9 e6 bc 31 7d ed bc
       0.00036632403 -0.004084322 -0.028164694 -0.02899036
000370 e8 52 d0 bc a8 d1 08 bd 61 72 d2 3c ef 13 ea 3c
       -0.025430158 -0.03340307 0.025689306 0.028573958
000380 a6 c1 8b 3c c2 35 0f ba f5 85 02 bd b4 71 51 bc
       0.017060112 -0.00054630276 -0.031866033 -0.012783457
000390 31 25 f2 bc 80 ae b3 bc b6 a3 b8 bc 6c 0f 88 bb
       -0.02955875 -0.021933794 -0.022539001 -0.004152229
0003a0 64 40 dd bb 6a 9d ed bc d9 df a2 bb 76 e5 49 bc
       -0.0067520607 -0.029005725 -0.0049705324 -0.012322774
0003b0 22 ec c9 bc 29 e8 0a 3b 70 68 2b 3a ff 5a 9c bc
       -0.02464873 0.0021195507 0.0006538695 -0.01908636
0003c0 a3 e3 93 b9 a7 95 fe bc 81 ad 2b bd e9 3b 07 bd
       -0.00028207627 -0.03107722 -0.041913513 -0.03301612
0003d0 60 b3 32 3c 7b 5b 2e bd 9b c1 88 bc 23 dc ba 3b
       0.010907024 -0.04256771 -0.01669388 0.005702512
0003e0 22 55 0a 3b 81 20 de 3c ba 5a 93 bc 18 3b 2d bd
       0.0021107872 0.027115108 -0.017987598 -0.042292684
0003f0 f2 cf b0 bc 81 03 32 bd bc 94 1d 3c 30 34 47 bb
       -0.021583531 -0.043460373 0.009617981 -0.0030396096

bias f4 [64]
000000 53 2d 33 bd ea 22 3a bd 30 be 4c bd 27 76 a0 bd
       -0.043744396 -0.045443453 -0.049986064 -0.07835036
000010 5b b9 53 bd cb 6d e1 3b 5b 21 8c bd ed cf 84 bd
       -0.05169044 0.0068795434 -0.068422996 -0.06484971
000020 be 2b e7 3c 92 27 51 bd 4a 77 18 bd 6d 8e 5b bd
       0.0282191 -0.051063128 -0.037223138 -0.053602625
000030 b7 4b 15 bc 39 04 d1 bc 5c d3 51 bc 63 f8 52 bc
       -0.00911229 -0.025514709 -0.01280674 -0.012876603
000040 fd c4 53 bd 03 52 f6 bb 6f d2 af bd da ba a6 bd
       -0.051701535 -0.007517101 -0.08585059 -0.08141108
000050 a3 d7 05 bd 72 f3 d0 bd d8 3b b4 bb 17 6c 22 bd
       -0.03267635 -0.102026835 -0.005500298 -0.039653864
000060 b5 c0 86 bd e9 1b d6 bd a2 f4 f9 bc f4 07 98 bd
       -0.06579725 -0.10454542 -0.030512158 -0.07423392
000070 2b 5b 10 bd 39 8b 33 bd ab b6 35 bd 84 19 29 3c
       -0.035243195 -0.043833945 -0.04436366 0.010321025
000080 92 a9 04 bb 71 da 5b bc a6 4c 99 bc cd fb d5 3a
       -0.0020242673 -0.01341878 -0.018713307 0.0016325653
000090 9f da 5f bd 88 7e a0 3c 00 0c 25 3d 6d 25 f1 3b
       -0.054651853 0.019591585 0.040294647 0.007359198
0000a0 48 fe a6 bd 26 7f ab bd 96 87 7c bd 5e ee 97 bd
       -0.08153969 -0.08373861 -0.061652742 -0.07418512
0000b0 1d 05 26 bc 83 cf bd 3c e3 ac 45 bc 06 33 38 bd
       -0.010133055 0.023170238 -0.012065145 -0.044970535
0000c0 4f 09 fe bc 8d b4 fd bc c4 3b 53 3c bc c3 b0 bd
       -0.031010298 -0.030969882 0.012892667 -0.08631083
0000d0 88 a8 b1 bd e6 74 6e bc e8 7d 13 3c 0f 95 e0 bd
       -0.08674723 -0.014554238 0.009002186 -0.10965931
0000e0 5e 51 59 bd 68 4a 9c 3c 1b f3 f9 bc 0c ea 82 bd
       -0.053056113 0.019078448 -0.03051143 -0.06392297
0000f0 57 07 35 bd a3 f7 16 bd b2 ae 11 3d 72 e3 82 3b
       -0.044196453 -0.03685726 0.035566993 0.0039943988

weight f4 [64, 1024]
000000 59 7e 92 b9 9c 2d dc bc e9 fd 58 3b 3e ec bd 3c
       -0.00027941426 -0.026877217 0.0033110327 0.023183938
000010 83 f9 9b 3c 34 44 2c 3b fd f5 dd 3b 2e 41 6e bc
       0.019039875 0.002628577 0.006773709 -0.014541907
000020 d4 90 06 3d 37 d4 9d 3c 1b 26 86 3c f4 03 c6 3c
       0.032852963 0.019266231 0.016375592 0.024171807
000030 ab 79 cc bc d4 ef c9 bc b5 84 17 bc 2a f3 81 3a
       -0.02496036 -0.024650492 -0.009247948 0.0009914387
000040 de bb 02 bd e0 b3 97 bc d2 62 83 bc 58 6e dd 3c
       -0.031917445 -0.018518388 -0.016038332 0.027030155
000050 1d 3a a1 b9 8c 02 82 3b 71 3c 43 3c 09 da 8c 3c
       -0.0003075161 0.003967589 0.011916266 0.017193811
000060 91 87 02 3c 87 98 a6 3c fe 5e b8 bc c1 17 52 bc
       0.007966892 0.020336403 -0.022506233 -0.012823046
000070 d1 51 17 bd 2d c4 96 bc 89 05 26 3d bc cb 2f 3d
       -0.03694326 -0.01840409 0.040532622 0.042918906
000080 d7 d2 37 3c b7 8e 80 bd 6f ee fc bb 7c ae fd bb
       0.011219702 -0.06277221 -0.007718853 -0.0077417474
000090 70 b1 b0 bc 57 58 0e 3b e6 6c f5 bc c2 26 80 bc
       -0.021568984 0.0021720135 -0.029959153 -0.015643481
0000a0 42 d1 d0 3c 81 30 f3 3c b2 c9 26 3d 4b 86 21 3d
       0.025490407 0.029686214 0.040719695 0.039434712
0000b0 44 a3 d7 bc b9 8d df bb ce dd 6c 3b dc a3 5b 3d
       -0.026322968 -0.0068223146 0.0036142948 0.053623065
0000c0 52 0c 28 bc 14 2f fc 3b 75 1a e0 3b 6d 20 17 bd
       -0.010256844 0.007696042 0.0068390914 -0.036896158
0000d0 f3 a6 53 3d a9 da ec 3c e0 9e a1 3c 5a 8c 42 3d
       0.051672887 0.028912859 0.019729078 0.04749713
0000e0 56 54 4c bc 44 57 69 3d 22 46 a1 3c 9a d3 f9 3c
       -0.012471279 0.05696799 0.019686762 0.030496407
0000f0 bc 1f bb 3c b9 5d 80 bb fa 58 ad bc c2 51 0a ba
       0.02284228 -0.0039174226 -0.021160591 -0.0005276465
000100 4b 0f 32 3a 6f 0c 77 bc 43 87 83 3c b5 dd dc 3b
       0.000679244 -0.015078648 0.016055709 0.0067402967
000110 dd ea 35 3d 7f d6 a6 3b b5 76 9d 3c c3 1b 0e bd
       0.044413436 0.005091488 0.019221643 -0.034694444
000120 61 88 c0 bc dd c0 a5 bc 2b 2c 36 3c 7c ed d0 bb
       -0.02350253 -0.020233566 0.011118929 -0.0063759666
000130 e5 27 2b 3d f7 1b 85 ba 48 06 90 3c 30 c9 35 3c
       0.041786093 -0.0010155429 0.01758112 0.01109533
000140 b2 e2 b1 ba ef 1d 14 3d e2 aa d3 3c c2 cd 39 bb
       -0.0013571589 0.03616136 0.02583832 -0.00283514
000150 32 e7 b8 bc ab 98 03 ba 3b f7 cb bc 68 fc d0 3c
       -0.02257118 -0.0005020003 -0.024898162 0.025510982
000160 2c 90 30 bb a2 4a 00 3b fa e0 d6 bb 18 07 36 bc
       -0.0026941402 0.0019575735 -0.006557581 -0.01111009
000170 6e 7c d7 3b 1c c4 c7 bc 97 c4 dd b9 45 05 0c bd
       0.0065761125 -0.024385504 -0.00042298876 -0.034184713
000180 61 97 21 3d 52 88 c8 bb fe 8e 87 bc 3a c6 47 bc
       0.039451007 -0.0061197663 -0.016547676 -0.012193257
000190 c3 14 fa 3c d7 fc 38 3b 5f 17 26 bc 46 24 21 3c
       0.030527478 0.0028226876 -0.010137408 0.009835308
0001a0 9e fe e8 bc 46 c5 a0 bc 97 1b e7 3c 54 37 4d bc
       -0.028441723 -0.019625317 0.028211398 -0.012525398
0001b0 ef 30 81 3c dd 35 ac 3b 8d 34 53 3c 1a 17 87 3c
       0.015770404 0.0052554444 0.012890947 0.016490508
0001c0 7a ef 5a bc dc 5c ec 3b aa 66 b7 bc 6b e0 8c 3c
       -0.01336276 0.007213218 -0.022387821 0.017196855
0001d0 b8 89 fd 3c c2 0b 03 bd c9 5c 1a bc aa 83 53 3c
       0.030949458 -0.031993635 -0.009421536 0.012909809
0001e0 70 e3 c2 3c 50 ab dc bc 4f c5 59 bb f9 6a 77 bc
       0.023790091 -0.026937157 -0.0033229177 -0.015101188
0001f0 0e da b4 bc c9 49 f7 bb 6f 48 cd 3b 6d 3f a4 3c
       -0.022076633 -0.0075466377 0.0062647383 0.020049775
000200 60 11 96 3c 0c 2a 71 3c 3e ba ce bc 82 3a c8 3c
       0.018318832 0.014719497 -0.025235292 0.024441961
000210 47 82 9c bc 39 31 38 bc d0 99 e4 bc 17 03 f4 3c
       -0.01910509 -0.011242204 -0.027905375 0.02978663
000220 e6 5d fe 3c 03 8c 57 3c 8b 1a 94 bc f1 cd 2c 3c
       0.031050634 0.01315594 -0.018079063 0.010547147
000230 45 bf 7c bc cd 4c 75 bc 59 77 43 bc e0 c2 b0 bb
       -0.015426462 -0.014971924 -0.01193031 -0.0053943247
000240 c3 8c c4 bc 48 f4 7a ba 2f 7d 0c bd c9 48 8b 3c
       -0.023992902 -0.0009573144 -0.034299072 0.01700248
000250 b7 c0 82 bc 90 5f f8 bb 77 ff e0 bb 5c 7e d9 3b
       -0.015961034 -0.0075797513 -0.0068663913 0.0066373777
000260 06 df 7b ba 1e b7 c5 3c cb f6 c4 3c 50 d7 01 3d
       -0.0009608123 0.024135169 0.024043461 0.03169948
000270 6a e1 fc bc e8 e1 e9 bc 00 ce 00 3d b0 9d 17 bc
       -0.030869205 -0.028550103 0.031446457 -0.009253904
000280 23 73 e6 3c 7a b2 12 3c 77 09 0d bc 22 77 55 3b
       0.028131073 0.008953685 -0.008608214 0.003257223
000290 21 72 03 bd 48 4b b1 bc 45 e0 09 bb e2 23 f6 bc
       -0.032091264 -0.021642342 -0.0021038216 -0.030046407
0002a0 1a d8 54 3c a8 2c b6 3c ef a0 9a 3c 67 4b 30 bc
       0.012990976 0.02223809 0.018875567 -0.010760165
0002b0 eb 1b 82 bc ec 97 4c 3b ef f4 0b 3d d6 d4 80 3b
       -0.015882453 0.0031218482 0.034169134 0.003931622
0002c0 98 7e 7b 3c c6 41 11 3c eb 38 6e 3c ba 05 ca 3b
       0.0153500065 0.008865779 0.0145399375 0.0061652334
0002d0 a7 5c 93 bb b3 20 c9 3c 29 4e e0 3c 77 ee 9c bc
       -0.004497129 0.024551725 0.02738102 -0.019156678
0002e0 aa e1 5b 3b 7b a0 53 bd db 3c bd bc 18 e6 9b 3c
       0.0033551254 -0.051666718 -0.023100307 0.019030616
0002f0 7c 51 cb 3c d6 0d 8d bc 8d a0 f1 ba 0c a4 fb bc
       0.024819128 -0.017218512 -0.0018434689 -0.030717872
000300 5c 89 16 3c 98 33 2f bc 7e 1a 5b 3d 7b 07 03 3d
       0.009188022 -0.010693453 0.05349206 0.031989556
000310 bb 72 c8 3c e2 92 fd bc ae 8c b4 bc e8 d6 76 bc
       0.02446877 -0.030953828 -0.022039738 -0.015065886
000320 12 10 09 bd 79 2a f7 3c 4f 32 1f 3d 34 60 a1 ba
       -0.03346259 0.03017162 0.038866337 -0.0012311996
000330 32 06 86 bc 93 6b b7 bb 0e 39 8c bb 79 6a 28 3d
       -0.016360376 -0.0055975406 -0.0042792624 0.041117165
000340 61 93 84 bc 13 0a af bc 5f 6f 23 3d 8d e7 30 bc
       -0.016183557 -0.021367108 0.039901134 -0.0107973935
000350 19 0a 1d 3d d8 8b 13 3d 8e 45 b2 3c f1 9a 41 bb
       0.038339708 0.036022037 0.021761682 -0.0029541815
000360 0e 95 36 3c 93 32 3d 3c e9 da c0 3c 96 05 20 bc
       0.011143936 0.011547702 0.023541884 -0.009766957
000370 b6 b1 da bb 76 f5 96 bc 63 fb c1 3c 56 08 7e bc
       -0.006674017 -0.018427592 0.02367944 -0.015504917
000380 1e 39 96 3b 72 02 fb bc cc fd 3f bd 07 ac 22 bd
       0.0045844456 -0.030640814 -0.0468729 -0.03971484
000390 b7 51 2d 3c ea 93 ff 3c 61 21 e3 3b 9a c7 93 bc
       0.010578564 0.03119846 0.0069314693 -0.018039513
0003a0 df 68 c2 3b ab 74 7a bc 85 d6 ab 3c 22 5c eb bc
       0.0059329118 -0.015286605 0.020976314 -0.028730456
0003b0 98 b1 be ba 7a c6 9f bc 00 24 54 bc f5 44 63 bb
       -0.0014548777 -0.01950382 -0.012948036 -0.0034678553
0003c0 21 6d f1 3c 23 55 c0 bc 30 49 5e 3b 04 cf f4 39
       0.029470982 -0.023478096 0.0033918135 0.00046693545
0003d0 db 56 0e bd bc d4 aa 3a 28 31 84 3c dd db 12 bc
       -0.0347508 0.001303337 0.01613672 -0.008963552
0003e0 e4 91 95 bc ac a7 9a ba d6 10 2f 3b 18 65 19 3d
       -0.018258043 -0.0011799238 0.0026712916 0.037449926
0003f0 7d fb 97 3c 16 ba 0e bb ab 54 00 bb 0c 9b 8a bb
       0.018552536 -0.0021778396 -0.0019581716 -0.004229909

bias f4 [64]
000000 c0 51 08 bd e0 85 70 bc 28 c0 64 bb 17 7f 3f bd
       -0.033281088 -0.014680356 -0.0034904573 -0.04675206
000010 29 eb 04 bc 3d 55 e2 bb 0d 5a 27 3c 29 aa 22 3c
       -0.008112707 -0.006907134 0.010214341 0.009928265
000020 fe bf 55 bc 93 5c 83 bc ac 9b 89 3b d0 a8 e2 bc
       -0.013046263 -0.016035354 0.0041994657 -0.027668387
000030 cf 76 aa 3c ed be 34 bc d3 36 2f bc f7 41 9c 3b
       0.020808605 -0.011031848 -0.010694223 0.004768606
000040 cc 06 a1 3c da 7c b0 3c 5b 94 82 3c 4f d7 81 3c
       0.019656561 0.021543909 0.015939882 0.015849737
000050 14 30 b9 3c 1d c8 87 bc 3f 00 c6 39 4d ed 9b bc
       0.022605933 -0.016574914 0.00037765686 -0.019034052
000060 75 00 ed bc 3c 89 50 bc 6a d9 1d 3d 8a 92 2d 3c
       -0.028930882 -0.012728032 0.03853742 0.01059402
000070 80 b0 42 bd 42 93 02 bc 70 fc 2e bd e7 f5 31 bd
       -0.047531605 -0.007969679 -0.042721212 -0.0434474
000080 39 10 1d 3d e1 57 e6 3c f7 72 78 3d 79 60 0d 3c
       0.03834555 0.028118076 0.060656514 0.008628958
000090 9f 30 65 3c 28 86 28 bd cb df 81 3c 99 4b 5b ba
       0.013988643 -0.041143566 0.015853783 -0.0008365452
0000a0 24 94 78 3a 37 49 60 3c 87 a4 fa bc e2 51 5e bd
       0.0009482524 0.013689331 -0.03059603 -0.05427731
0000b0 36 d3 a7 bc 6d 2c 3e 3d 5e 11 99 bc 3b 57 8d 3d
       -0.020486455 0.046429086 -0.01868504 0.069014035
0000c0 e6 4a 90 bb ac 3b a6 bb ff 2f 02 bd 1c 9b 50 bc
       -0.00440346 -0.0050730314 -0.031784054 -0.012732293
0000d0 8b d3 a2 bc f7 fc c6 3a e7 24 5a bd 89 c0 84 bc
       -0.019876262 0.001518159 -0.05325785 -0.01620509
0000e0 66 08 0e 3d c4 46 35 bc 23 e0 0b bd 6f 24 39 bd
       0.034675978 -0.011064235 -0.0341493 -0.04520076
0000f0 f0 39 4d 3c 54 f6 14 3d d0 94 7a 3c be e3 10 3d
       0.01252602 0.03636773 0.015294269 0.035373442

weight f4 [10, 64]
000000 26 08 e8 bd 4c 28 59 3e 36 e0 25 bd f4 e4 76 3c
       -0.11329679 0.21206778 -0.040497027 0.015069235
000010 97 dc 1f be ae 5d 4d 3e d9 63 35 be 3d a4 e0 bc
       -0.15611492 0.20055267 -0.1771387 -0.027422065
000020 07 67 ae bd 66 f1 a3 3e 89 ff a2 bd 72 8b 84 3e
       -0.08515745 0.3202011 -0.07958896 0.25887638
000030 fd 2a 03 be 4c 68 13 be ba 5d 0e 3e 1c 89 88 bc
       -0.12809367 -0.14395255 0.13902941 -0.016666941
000040 28 28 f2 3d 49 f4 3e 3e a4 2a 77 3d f8 0c 0f be
       0.118240654 0.18647875 0.0603434 -0.13969791
000050 d1 24 1e 3e 99 a0 c1 3d c7 5c f7 bd 7a b2 22 3e
       0.15443732 0.0945446 -0.12078243 0.15888396
000060 c7 c6 15 3e 58 ad fb 3c cb ee 14 be 71 95 05 3e
       0.14626609 0.030722305 -0.14544217 0.13045289
000070 a8 8f 36 bc f7 ac 1c 3e 45 95 3c 3e 9e b9 f6 3d
       -0.011142649 0.15300356 0.18416317 0.120471224
000080 76 b9 7e be 07 8e 81 3d 1c 6f 35 be eb 27 5d bd
       -0.24875435 0.06325918 -0.17718166 -0.053993147
000090 04 52 f5 3c d3 8c 5a 3e c8 d0 0e 3e 50 7e 30 3e
       0.029946335 0.21342783 0.13946831 0.17235684
0000a0 c9 d3 a6 bd 90 7d 1a be 9e 4d b9 bd 39 89 04 3e
       -0.081458636 -0.15086961 -0.090480074 0.12942971
0000b0 ed bc 85 bd de 5c cc bd 59 db 34 be 1e 16 cc bd
       -0.06530175 -0.099786505 -0.176618 -0.09965156
0000c0 43 92 c3 bd 35 4d 60 3e b2 c6 f9 bc 20 60 32 3e
       -0.095493816 0.21904452 -0.030490253 0.17419481
0000d0 66 cb 1c 3e d0 39 0e 3e ff e7 80 bc 7d 11 08 3d
       0.15311965 0.13889241 -0.015735624 0.033219803
0000e0 17 5a 26 3e 4c 4d 99 3d 9a 30 6b 3d ca a6 ef 3d
       0.16245304 0.07485446 0.057419397 0.11701734
0000f0 e8 96 77 bd 4b de 9e 3c 4d 38 95 bc db 7c 14 bd
       -0.06044665 0.019393107 -0.018215323 -0.036251884
000100 81 66 06 3e 8e e2 82 3e d8 07 f9 bc 36 b1 40 3e
       0.1312504 0.25563473 -0.030399248 0.188176
000110 97 8a 02 3d 57 54 74 be 41 71 f0 3b 6c e3 00 3e
       0.03187045 -0.23860298 0.0073377197 0.12586755
000120 4d 17 5d 3e 52 2e e1 3d 8a 4e c7 bd 0f 60 c0 bd
       0.2159092 0.10995163 -0.09731777 -0.09393322
000130 1e f6 15 3e f4 ab 0f 3e f4 80 1c be 74 8c e5 3c
       0.14644668 0.14030439 -0.15283567 0.028021075
000140 30 00 3e be f8 df 9a be 2e 02 92 3e 3d 72 42 3e
       -0.18554759 -0.30249 0.28517288 0.18988891
000150 93 41 4a be a5 30 4d 3e b4 03 14 3e c7 0c 7a 3e
       -0.19751577 0.20038088 0.14454538 0.24418937
000160 1e 19 ff bd 5c 40 5e be e3 7e fc 3d ce d0 b5 3d
       -0.124559626 -0.21704239 0.12328889 0.08877717
000170 d8 7e 37 be 93 7d 8d be 5e 59 80 3e a9 a7 91 bd
       -0.17919481 -0.27634868 0.25068182 -0.07112057
000180 8a d8 84 3e ad 17 36 3d 52 3a b9 bd 9a 64 43 3d
       0.25946456 0.044456173 -0.09044327 0.047703363
000190 b2 49 95 3e 47 39 57 be 5b 54 a6 bc 76 06 a4 3d
       0.29157788 -0.21017943 -0.020303896 0.08009045
0001a0 7e e2 e4 bd 97 bc a2 be 35 13 72 3e 55 36 21 3e
       -0.111760125 -0.31784508 0.2364014 0.15743382
0001b0 27 7d b1 bd a3 95 5e 3e 67 1e c9 3c a9 a0 fa bd
       -0.08666449 0.2173677 0.02455063 -0.12237675
0001c0 98 8d ef 3d 9a 31 e7 3d 20 48 f1 bd 31 ec f1 bc
       0.11696929 0.112887576 -0.11781335 -0.02953157
0001d0 4d 35 e5 3d d1 ea e8 3d 6c 9e 86 be ec eb 4d 3e
       0.11191807 0.11372913 -0.2629274 0.20109528
0001e0 ff 7d 5e 3a df 30 45 3d af 5a e4 3d 12 53 22 3c
       0.0008487403 0.04814231 0.11150109 0.009907501
0001f0 e9 c0 8e 3e 73 17 b2 3d d6 16 c1 3d d7 a2 4f 3e
       0.27881554 0.08695879 0.09428184 0.20276962
000200 58 08 03 3e f0 51 b3 bd f4 77 b4 bd 0c 9f 11 3e
       0.12796152 -0.08755863 -0.08811942 0.14220828
000210 cd 06 7d 3d e1 eb 4e 3e 64 30 53 be af 71 7a be
       0.061774064 0.20207168 -0.20623928 -0.2445743
000220 9e d8 0c 3e a4 ce 50 3e ab bf 2e bb 7f df 3e bb
       0.13754508 0.20391327 -0.0026664536 -0.0029124913
000230 1c 1d cf bd 44 6c 2a 3e b8 24 71 be 7a 07 07 3d
       -0.10112974 0.16642863 -0.23549163 0.032966115
000240 50 6a 9e bd 0e 81 8f 3e 55 c9 52 be ec 37 48 3d
       -0.07735121 0.28028148 -0.20584615 0.048881456
000250 1b f3 d4 3d ba b8 aa bc 76 f7 71 bd cf c9 15 be
       0.10397931 -0.020840038 -0.059073888 -0.14627765
000260 e9 ce d2 bd 0e 7c 84 3e 1b fe 13 3b 74 33 31 be
       -0.10293371 0.25875896 0.0022581879 -0.17304784
000270 6b 08 2c 3d 42 64 d1 3c 4f 37 4e be ec 68 a2 bd
       0.042000216 0.025560502 -0.20138286 -0.079301685
000280 9f d3 2a be e7 13 9a 3d c5 ea 42 bd 9e 6a 9e bd
       -0.1668229 0.07523327 -0.047587175 -0.07735179
000290 0f fe 17 be b9 fa 0f 3e 09 2a 02 bb 92 b6 03 3e
       -0.1484301 0.14060487 -0.001986148 0.12862614
0002a0 9d bc 9b 3d 10 a3 35 3e e4 56 68 bd 31 fa 88 be
       0.076043345 0.17737985 -0.05672349 -0.2675338
0002b0 fb b4 bf bd 0b 93 33 bd 8e 3d 33 be db 37 7a 3d
       -0.09360691 -0.043841403 -0.1750395 0.061088424
0002c0 69 65 ec bc 9c d9 0c 3e 79 a9 58 3e 7d e0 6b 3e
       -0.02885695 0.13754886 0.21158399 0.23034854
0002d0 6f 6d dc bc d4 37 5b 3e 45 46 1c be 81 d6 28 be
       -0.02690765 0.21408015 -0.1526118 -0.16488077
0002e0 02 d8 48 be c4 54 9d bc 6c 48 7f bd 3f f9 26 be
       -0.1961365 -0.019205458 -0.062324926 -0.16306017
0002f0 8b 75 55 3d 9e ce 35 3d 89 38 14 be 81 aa c7 3d
       0.05211405 0.0443865 -0.14474691 0.09749318
000300 09 59 ef 3d 31 ad 09 be d2 aa 84 3d 3f e7 62 bc
       0.11686904 -0.13444974 0.06477894 -0.013849079
000310 9e 65 0d be af 1b 6e be 76 ff 01 be b8 66 d0 bd
       -0.13808295 -0.23252748 -0.12695107 -0.10175842
000320 12 a3 1b 3e 09 ef 39 be 1a 35 fa bd 57 58 37 3c
       0.15198925 -0.18157591 -0.122171596 0.011190495
000330 24 a1 f8 bd 00 00 5b bd d4 0b 13 be 0b 2f 11 be
       -0.1214011 -0.053466797 -0.14359981 -0.14178102
000340 65 bc 5d 3e 57 cf 2e be 00 b5 e1 bd 39 9b 29 be
       0.21653898 -0.17071281 -0.11020851 -0.16563119
000350 b6 35 a4 bd 22 74 ed bd 91 54 c2 bd 41 90 30 be
       -0.08018057 -0.11594416 -0.09488786 -0.17242528
000360 9b 13 da 3d 36 ae f4 3d c4 f5 11 bd d7 91 1b bb
       0.10648271 0.119472906 -0.03563477 -0.002373805
000370 30 d0 a3 3c c3 8a 85 3d 14 e4 2c be 91 9a 07 be
       0.019996732 0.06520607 -0.1688388 -0.13242556
000380 00 85 88 3d c1 43 08 3e ed 34 17 be 03 74 5f bd
       0.06665993 0.13307096 -0.14766283 -0.054553997
000390 b9 e8 0a 3e 10 28 a6 bd 91 6d 1d bd 87 39 dd 3d
       0.13565339 -0.0811311 -0.03843457 0.10801988
0003a0 4d 2d 37 be ac b2 7b bd aa 05 b1 3d 21 b8 45 bd
       -0.17888375 -0.06144969 0.086436585 -0.048271302
0003b0 4d c6 7f 3d 8d b1 85 3d c7 8e 63 bd fb a4 e9 3d
       0.062444974 0.06528006 -0.055556085 0.11408421
0003c0 db 81 f5 bd 88 da 0e be a7 b2 2b be b4 dd 25 bc
       -0.119876586 -0.1395055 -0.16767369 -0.010123659
0003d0 a2 c5 fe bd 22 6e 66 3d 30 91 2b 3d cb 48 59 be
       -0.12440039 0.056257375 0.04188651 -0.21219175
0003e0 2a 67 9e bd d2 81 f4 bd 3f 72 ad 3d a5 d3 25 3e
       -0.07734521 -0.11938824 0.08469056 0.16194017
0003f0 3a 31 32 be 73 6c 85 3d ef 28 a8 bd 17 62 8a bd
       -0.17401591 0.06514826 -0.082109325 -0.067569904

bias f4 [10]
000000 84 07 45 be 89 9b 2f bd b3 74 53 3a 31 2a af bc
       -0.19241148 -0.04287294 0.0008066401 -0.021382423
000010 a9 43 23 3e f9 1e f4 bc ac a6 65 3d ed 31 2d bd
       0.15943779 -0.029799925 0.056067154 -0.04228394
000020 0c 90 a9 bc e5 08 b0 3b
       -0.02069857 0.005372154
