models/gpu_train_model4.pth (torch, 587335 bytes, 10 tensors)

weight f4 [32, 3, 5, 5]
0	0x3d04fd01	0.032467846
1	0x3e137c52	0.14402893
2	0x3d072ba7	0.033000614
3	0xbcdda944	-0.027058251
4	0xbdbd3704	-0.09239009
5	0xbd07f8af	-0.033196148
6	0x3d8819f1	0.06645573
7	0x3e003377	0.12519632
8	0xbd71c587	-0.059026267
9	0xbcd75af5	-0.026288489
10	0x3c95ec08	0.018301025
11	0x3de6b45d	0.1126487
12	0x3bb5e7aa	0.005551298
13	0xbd2ea03b	-0.042633276
14	0xbc91931e	-0.017770346
15	0x3d9e19f3	0.07719793
16	0xbd0558ce	-0.032555394
17	0xbd6f0c3f	-0.05836129
18	0xbd1a4a2f	-0.037668403
19	0x3e037f02	0.12841418
20	0xbd9a5f8d	-0.07537756
21	0xbd878213	-0.066166066
22	0x3dc96299	0.09833259
23	0x3d38174f	0.044944104
24	0x3df3b78e	0.11900245
25	0x3d9037ad	0.07041869
26	0x3db760f0	0.08954036
27	0xbd9a0acc	-0.075215906
28	0x3d124729	0.035712395
29	0xbd9110af	-0.0708326
30	0x3dbc8ba8	0.09206325
31	0xbd4754ff	-0.048665043
32	0x3c426d03	0.011866811
33	0xbdc36ed9	-0.09542627
34	0x3c862676	0.016375761
35	0x3c92a0ee	0.017899003
36	0x3cfa3a2d	0.030545318
37	0x3d0cb571	0.034352724
38	0xbd2f726a	-0.042833723
39	0xbd9c2f40	-0.076262
40	0xbd909c38	-0.07061046
41	0xbdc02b6e	-0.093832836
42	0x3cedeedb	0.02904456
43	0x3c9c87b4	0.019107677
44	0x3df9f655	0.12205187
45	0xbd2c64a3	-0.042088162
46	0x3c930200	0.01794529
47	0x3d5ef1ab	0.05442969
48	0x3b81a51c	0.00395645
49	0x3d8f3a52	0.069935456
50	0x3d1c5dfe	0.038175575
51	0x3d9c40b9	0.07629532
52	0xbe0d9c43	-0.1382914
53	0xbe273661	-0.16329338
54	0xbda0156a	-0.078165844
55	0xbdc8be21	-0.09801889
56	0xbc7edea7	-0.015556014
57	0xbd37efd3	-0.04490645
58	0xbe259cb1	-0.16173054
59	0xbe097820	-0.1342473
60	0xbdab282a	-0.0835727
61	0xbbb5475f	-0.0055321897
62	0xbd2a29da	-0.04154382
63	0xbca0f119	-0.019646214
64	0x3c7b83e6	0.015351271
65	0xbda8c083	-0.08239844
66	0x3d0209b9	0.031747553
67	0xbdfa088b	-0.12208661
68	0x3d6c06cc	0.05762367
69	0x3c1b4845	0.00947768
70	0xbe03debb	-0.12877934
71	0x3d94b0c5	0.072602786
72	0xbcc134ec	-0.023584805
73	0xbdb1ca59	-0.08681173
74	0xbcd4c396	-0.025972169
75	0x3d91d5e2	0.07120873
76	0xbb22f486	-0.0024864986
77	0xbc348fe7	-0.011020637
78	0x3c93f940	0.018063188
79	0xbd92dea0	-0.071713686
80	0xbdc0f811	-0.09422315
81	0xbdbe2b6d	-0.092856266
82	0xbe011e7e	-0.12609288
83	0x3c43bab5	0.01194637
84	0x3df9c399	0.121955104
85	0xbe0064e6	-0.1253849
86	0xbd966f7a	-0.07345481
87	0xbd9c02ec	-0.07617745
88	0x3e012805	0.12612922
89	0x3d9ea43c	0.07746169
90	0x3d747480	0.059681416
91	0xbdc6c863	-0.097061895
92	0x3c328add	0.010897365
93	0x3d04c9dd	0.032419074
94	0x3dfb18fa	0.12260623
95	0x3dc9e28e	0.09857665
96	0xbe05ebac	-0.13078183
97	0x3d78b19e	0.060716264
98	0x3dde9d09	0.10869796
99	0x3becb74c	0.007223999
100	0x3dc30646	0.09522681
101	0xbdbc06dc	-0.09180996
102	0x3c56cd6c	0.0131105
103	0x3c90cf9e	0.017677125
104	0x3e005583	0.1253262
105	0xbd8aeb35	-0.067831434
106	0x3d27867c	0.04089974
107	0xbdd5ee8e	-0.10445891
108	0x3d9e2164	0.077212125
109	0x3dcfe3d5	0.101508774
110	0xbd844ae2	-0.06459595
111	0x3dc40a02	0.09572221
112	0xbd211de0	-0.03933513
113	0x3d7da595	0.06192549
114	0x3d80d6cd	0.0629097
115	0x3d9382c6	0.072026774
116	0xbdc87a09	-0.09788901
117	0x3dfea3a7	0.12433558
118	0x3dccfeb4	0.10009518
119	0x3da840b1	0.08215464
120	0x3d2040be	0.039124243
121	0x3d305d71	0.043057863
122	0x3dd237f4	0.102645785
123	0x3c42ac99	0.011881971
124	0x3da09b70	0.07842147
125	0x3d91d28a	0.07120235
126	0xbd0e1d75	-0.03469606
127	0xbe130d62	-0.14360574
128	0xbd8e8cf7	-0.06960481
129	0xbd9a2d2a	-0.075281456
130	0xbce2d224	-0.027688093
131	0xbbc786de	-0.0060890755
132	0xbb70dec9	-0.0036753884
133	0x3cac9d46	0.021071088
134	0xbb9db0e8	-0.0048123486
135	0xbdce895d	-0.10084794
136	0x3d614e5f	0.05500638
137	0x3d9e6045	0.07733206
138	0x3ccb22b2	0.024796817
139	0xbd8c6a86	-0.06856255
140	0xbe0c46a3	-0.13698821
141	0xbdc1031d	-0.09424422
142	0x3bae4fce	0.005319572
143	0xbdb9b86c	-0.09068379
144	0xbc049c1c	-0.00809386
145	0xbdd970aa	-0.10617192
146	0x3bbf27cc	0.0058336016
147	0xbd25a0ee	-0.040436678
148	0x3dbbae9e	0.09164165
149	0x3d2ed7cf	0.04268628
150	0xbd88ab52	-0.06673302
151	0x3debb00a	0.11508186
152	0x3d932e8a	0.07186611
153	0x3d11545d	0.035480846
154	0x3d310bb4	0.04322405
155	0xbdfa1c22	-0.12212397
156	0x3e157d44	0.14598566
157	0x3e100984	0.1406613
158	0xbda8d3b4	-0.08243504
159	0xbd1fff65	-0.039061923
160	0xbd947983	-0.07249739
161	0x3da3df9b	0.08001634
162	0x3e14d806	0.14535531
163	0x3cb1a449	0.021684783
164	0x3ddcc714	0.10780159
165	0x3dd04931	0.1017021
166	0x3e13350d	0.14375706
167	0xbc9a9cd7	-0.018873615
168	0x3d2a57e6	0.041587733
169	0x3e2393f5	0.1597441
170	0x3df73c52	0.12072052
171	0x3d9b531d	0.07584212
172	0x3dd2b6d3	0.10288777
173	0xbbb70674	-0.005585486
174	0x3e11a1a1	0.14221813
175	0xbc6aea07	-0.014338023
176	0x3d023b29	0.0317947
177	0xbd51f817	-0.051261988
178	0xbd8052c5	-0.06265787
179	0x3df9367c	0.12168595
180	0xbb761bcf	-0.0037553196
181	0xbc67cd91	-0.014148132
182	0xbc8f3879	-0.017482983
183	0x3db73498	0.08945578
184	0x3d3a19c2	0.04543472
185	0xbda8eb94	-0.08248058
186	0x3a665a84	0.00087872916
187	0x3c92c2c2	0.017915133
188	0xbdbd7d99	-0.092524715
189	0x3d36c77c	0.044623837
190	0xbd0366a5	-0.03208031
191	0xbd8b5b55	-0.068045296
192	0xbdb79ce6	-0.08965473
193	0x3c43cb7b	0.011950369
194	0x3dfbfd90	0.123042226
195	0x3d45f48c	0.04832892
196	0x3cbcbc8c	0.023039125
197	0x3d7244af	0.059147533
198	0x3dad1db5	0.08452932
199	0xbc483eaf	-0.012221976
200	0xbd26093d	-0.040536154
201	0xbda8fc56	-0.08251254
202	0xbd535c7f	-0.051601883
203	0x3d2f6e30	0.042829692
204	0xbe0e1503	-0.13875203
205	0xbe1f26ff	-0.1554222
206	0x3c64c8da	0.013963902
207	0xbde8aad2	-0.113607064
208	0xbe0cb126	-0.13739452
209	0xbbd3de30	-0.006465696
210	0xbe3ac910	-0.18240762
211	0xbbb42ddc	-0.005498631
212	0xbd385ec0	-0.045012236
213	0xbd844a6a	-0.06459506
214	0x3d2f7c85	0.04284336
215	0xbd18fb6f	-0.03734916
216	0xbd66a88b	-0.05631308
217	0xbd87c18e	-0.066287145
218	0x3c32d93f	0.010916053
219	0xbcb332f5	-0.021874884
220	0xbe1d14d5	-0.15339978
221	0x3d335e83	0.043791305
222	0xbe0d22c5	-0.13782795
223	0x3d552549	0.05203751
224	0xba529f63	-0.0008034615
225	0x3dbbaac6	0.09163432
226	0xbd35b8f5	-0.044365842
227	0xbd6aa0fc	-0.057282433
228	0xbdcdd295	-0.10049931
229	0x3dba5a6d	0.090992786
230	0xbd7ea2e6	-0.06216707
231	0x3da63755	0.081160225
232	0xbd373baf	-0.044734653
233	0x3d26e09f	0.04074156
234	0x3db448ea	0.0880297
235	0x3db3cb1e	0.08778976
236	0xbd18e2fa	-0.037325837
237	0x3dd94018	0.10607928
238	0xbd11cb7d	-0.035594452
239	0x3e043ee2	0.12914613
240	0xbdc2d8d5	-0.09514014
241	0x3df6f55c	0.12058517
242	0x3d297b3c	0.04137729
243	0x3e15cb36	0.146283
244	0x3d7ffa5f	0.06249463
245	0x3d2eacd0	0.042645276
246	0xbd73ff43	-0.05956961
247	0x3d9881fb	0.07446667
248	0x3da8346b	0.08213123
249	0xbd2ee0ad	-0.042694736
250	0xbdb6bfde	-0.089233145
251	0xbe08df9b	-0.13366549
252	0x3d60276e	0.054725103
253	0xbd77d030	-0.060501277
254	0x3d56f1ed	0.052476812
255	0x3db09793	0.086226605

bias f4 [32]
0	0x3cd9608d	0.026535297
1	0x3da8e1e3	0.082462095
2	0x3d964315	0.07337014
3	0xbe0505b1	-0.12990452
4	0xbd90ca70	-0.07069862
5	0x3dfb0610	0.12257016
6	0x3d26bdc0	0.040708303
7	0x3d9b4bf9	0.0758285
8	0xbdadf5da	-0.08494158
9	0x3dc03da7	0.09386759
10	0x3e278f0a	0.16363159
11	0xbe1ac75c	-0.15115112
12	0xbe43a7b2	-0.1910694
13	0x3db0f383	0.08640196
14	0xbdb3f970	-0.08787811
15	0xbe314dec	-0.17314881
16	0xbe0463d9	-0.12928714
17	0xbcd97b6e	-0.026548114
18	0x3e01b175	0.1266535
19	0xbd691e16	-0.056913458
20	0xbdbbec13	-0.09175887
21	0xbe633573	-0.22188358
22	0xbd5d0593	-0.053960394
23	0xbd34ca86	-0.044138454
24	0xbc80d42d	-0.015726173
25	0xbd8df81c	-0.06932089
26	0xbb6eb742	-0.0036425148
27	0xbdbe0742	-0.09278728
28	0xbd7d2926	-0.06180682
29	0xbd567ff5	-0.052368123
30	0xba697204	-0.0008905234
31	0x3e02911a	0.12750664

weight f4 [32, 32, 5, 5]
0	0xbcb149ba	-0.0216416
1	0x3ca957a9	0.020671682
2	0x3c3aa873	0.0113927005
3	0xbc64af2a	-0.013957778
4	0x3c9b1be2	0.018934194
5	0xbb7842e6	-0.0037881671
6	0xbc3adc27	-0.0114050275
7	0x3cf00fab	0.029304346
8	0x3bbd8fe8	0.005784977
9	0x3d28ebc4	0.04124047
10	0xb9e95212	-0.0004450237
11	0x3cb4849e	0.022035893
12	0x3d1f1968	0.03884259
13	0x3bcf748a	0.006331031
14	0xbc1f0742	-0.00970632
15	0xbb4f69fd	-0.0031648867
16	0x3d12d2a9	0.035845432
17	0x3d1a6e1e	0.037702672
18	0x3d087fc4	0.03332497
19	0x3c0b859f	0.0085157445
20	0xbb4b129f	-0.003098644
21	0x3c415788	0.011800654
22	0x3c6ea79b	0.014566327
23	0x3c22f3a6	0.009945786
24	0x3c9d28cd	0.019184494
25	0xbc46199a	-0.012091065
26	0xbcbd2d55	-0.023092905
27	0xbb7afed6	-0.0038298867
28	0x3cad67b7	0.02116762
29	0x3cf2bbea	0.02963062
30	0x3b8af060	0.0042400807
31	0x3c3024d7	0.010750971
32	0xbca8abff	-0.020589827
33	0xbcaeefca	-0.021354575
34	0x3d1162e8	0.035494715
35	0xbb612290	-0.0034352876
36	0xbbd51080	-0.006502211
37	0x3abdebbe	0.0014489812
38	0x3cd94331	0.026521297
39	0x3d075bba	0.03304646
40	0xbd1927a1	-0.03739131
41	0xbcdf2c7d	-0.027242893
42	0x3aabb018	0.0013098745
43	0xbcac71f6	-0.021050435
44	0x3bac1a5f	0.005252167
45	0xbc35b2d5	-0.01109
46	0xbcf334cd	-0.029688263
47	0x3c928a52	0.017888222
48	0x3c8f6bf3	0.017507529
49	0x3d1f7f77	0.03893992
50	0x3caa5a86	0.020795118
51	0xbba536c7	-0.0050419304
52	0xbc8d24f4	-0.017229535
53	0xbaaeba54	-0.0013330677
54	0xbce2c085	-0.027679691
55	0x3d0551ff	0.0325489
56	0xbd02a8b6	-0.031899177
57	0x3cb9048a	0.022585172
58	0x3d04f624	0.0324613
59	0xbc671066	-0.014103031
60	0xbd0e40fa	-0.034729935
61	0x3c0e0a54	0.008669455
62	0xbcb524e9	-0.022112327
63	0xbc7049c5	-0.0146660255
64	0xbcb7869d	-0.022403056
65	0xbb9d9094	-0.004808495
66	0xbcd8aee6	-0.026450586
67	0xbcdcdb2b	-0.026959976
68	0x3cc8c2fc	0.024507038
69	0xbceb8a0c	-0.02875235
70	0xbca2df68	-0.019881919
71	0x3c14e84a	0.009088585
72	0xbb647ea4	-0.0034865523
73	0xbd071755	-0.032981236
74	0x3c8081f5	0.015686968
75	0xbce6b592	-0.028162751
76	0x3d010b60	0.03150499
77	0x3d0c619a	0.034272768
78	0x3cd7c8a9	0.0263408
79	0x3bbd2218	0.0057718866
80	0x3c34ff27	0.011047161
81	0x3cca4525	0.024691174
82	0x3b85ea1e	0.004086747
83	0xbbb87f15	-0.0056303837
84	0xbc928c7d	-0.017889256
85	0xbcf7eb00	-0.030263424
86	0x3c0f70d2	0.008754926
87	0x3beebed4	0.007285932
88	0x3cface04	0.030615814
89	0x3cd6bf48	0.026214257
90	0xbc8ae12a	-0.01695307
91	0xbc75cbdb	-0.015002216
92	0xbd1c8a8e	-0.038218074
93	0xbbe76ca4	-0.0070625115
94	0xbc5526db	-0.013009752
95	0xbc6a6d7a	-0.014308328
96	0x3b724cfd	0.0036972158
97	0x3c89b482	0.016809706
98	0x3cdcef91	0.026969703
99	0x3cb82efb	0.02248334
100	0x3d05300f	0.032516535
101	0x3d181f28	0.037139088
102	0xbc691da0	-0.014228255
103	0x3cf34365	0.029695222
104	0xbbc432c6	-0.005987498
105	0x3c81bf42	0.01583827
106	0x3cbddb8f	0.023175983
107	0x3d0cb7f8	0.034355134
108	0x3b7eadf9	0.003886102
109	0x3c8d92d6	0.01728193
110	0xbbd3cbac	-0.0064634886
111	0x3d0598e1	0.0326165
112	0x3ba8f1b2	0.0051557655
113	0xba87a6c3	-0.0010349381
114	0x3cddf9ea	0.027096707
115	0xbb2f000f	-0.0026702916
116	0xba72488b	-0.0009242377
117	0xbc23155b	-0.009953822
118	0xbd0bc8c1	-0.034127
119	0xbbdb47a6	-0.006691891
120	0xbcff256c	-0.031145774
121	0xbb11a9c4	-0.0022226432
122	0xb9bdf2ae	-0.000362297
123	0xbd111208	-0.035417587
124	0xbb0dd9f7	-0.002164481
125	0x3d26c481	0.040714744
126	0xbcd77b14	-0.026303805
127	0x3c71245d	0.014718142
128	0xbba7b459	-0.0051179347
129	0x3c49950b	0.012303601
130	0x3cea3a84	0.028592356
131	0xbb01d5a7	-0.0019811185
132	0x3bc48703	0.00599754
133	0x3c332818	0.010934852
134	0x3b8511fa	0.004060981
135	0x3c984183	0.018585926
136	0xbc1ee9ee	-0.009699328
137	0x3c9a0aaa	0.018803913
138	0xbc4ee4ee	-0.012627823
139	0xbc96a6be	-0.018390056
140	0x3d3a69aa	0.045510925
141	0x39d9679e	0.00041466666
142	0x3c413327	0.011791981
143	0xbc9e5597	-0.019327922
144	0x3ca64c72	0.020300124
145	0x3d1c508e	0.03816276
146	0x3cd609f7	0.026127798
147	0x3cd5c5b2	0.026095245
148	0x399bb41a	0.0002969809
149	0x3bb6af3e	0.0055750897
150	0xbc649a34	-0.0139527805
151	0x3cad2f00	0.021140575
152	0x3c813e24	0.015776701
153	0x3d3a7a4c	0.045526788
154	0xbc08ebaf	-0.008356973
155	0xbc8e2f56	-0.017356556
156	0x3d37bee3	0.044859778
157	0x3d05d9bb	0.032678347
158	0x3d256042	0.040375
159	0x3cd9f679	0.026606785
160	0xbcc7f5a8	-0.02440913
161	0x3d59d051	0.05317718
162	0x3c1e317f	0.0096553555
163	0x39e1722a	0.00043000403
164	0x3d1c8343	0.03821112
165	0xbc10cbcc	-0.008837651
166	0x3cc195a7	0.02363093
167	0x3c86c272	0.01645014
168	0x3d4c9a7b	0.04995201
169	0x3cf068c4	0.029346831
170	0x3cb65bea	0.022260625
171	0xbcbaa5b1	-0.022784086
172	0x3c845afe	0.01615667
173	0xbcc61566	-0.024180125
174	0x3bd48d7b	0.0064865923
175	0xbba0c83f	-0.0049066837
176	0x3ba0efbc	0.004911391
177	0xbbf156c3	-0.007365079
178	0x3cb92a57	0.022603197
179	0x3cb56b2c	0.02214583
180	0x3d0d506c	0.034500524
181	0x3bb10fb7	0.0054034847
182	0x3d3a7d65	0.04552974
183	0x3d4bc39a	0.049747087
184	0x3d076050	0.033050835
185	0xbbbc54ac	-0.0057473984
186	0x3c91db1a	0.017804671
187	0x3d0a0ab5	0.033701617
188	0xbb4db645	-0.0031389159
189	0x3c6d8148	0.014496155
190	0x3cdb4317	0.02676539
191	0xbc7e04e7	-0.0155040985
192	0x3b45932d	0.0030147538
193	0xbc85cdc6	-0.016333472
194	0xbccbe569	-0.024889665
195	0xbcbb3f32	-0.022857282
196	0xbb024582	-0.0019877856
197	0xbd23fa2d	-0.040033508
198	0xbccdb4c5	-0.025110612
199	0xbd3ec19c	-0.04657136
200	0x3b77b05f	0.0037794334
201	0xbb33a412	-0.0027411026
202	0x3c97ae46	0.018515717
203	0x3bc2aca3	0.00594099
204	0x3cb95591	0.022623809
205	0xbca0d378	-0.019632086
206	0xbb93ee5e	-0.0045144996
207	0xbb4a27a0	-0.0030846372
208	0x3d0a89a6	0.033822678
209	0xbbd60ec5	-0.0065325224
210	0x3d0761bd	0.033052195
211	0x3d033768	0.03203526
212	0x3c849aee	0.016187157
213	0xbc406f17	-0.011745236
214	0x3d2568ba	0.04038308
215	0xbb30262b	-0.0026878219
216	0x3d253132	0.04033012
217	0x3cdc7dc0	0.026915431
218	0x3cab06b3	0.020877218
219	0x3c14039a	0.009034062
220	0xbc324e7f	-0.010882973
221	0xbd173728	-0.036917835
222	0x3beaa7e7	0.007161129
223	0x3b1382b1	0.0022508318
224	0xbd0d1421	-0.034443025
225	0x3c4f7a4e	0.012663437
226	0xbc699b80	-0.0142582655
227	0xb937184a	-0.00017461288
228	0xbbfc5a96	-0.0077012284
229	0xbca622ff	-0.02028036
230	0xbc14d1c3	-0.009083214
231	0xbcf742a5	-0.030183146
232	0xbb72e66b	-0.003706361
233	0xbce49807	-0.027904524
234	0xbcdc9198	-0.026924893
235	0xbbdafa68	-0.006682683
236	0xbd0609a2	-0.03272403
237	0xbd17ff33	-0.03710861
238	0x3c59f9b7	0.013304166
239	0xbcd02a75	-0.02541087
240	0x3cc4b056	0.024009865
241	0xbb3382da	-0.0027391226
242	0xbbe253e0	-0.0069069713
243	0x3cc76e04	0.024344452
244	0xbb842b92	-0.0040335143
245	0xbc40c2b6	-0.011765173
246	0xbcc5cafe	-0.024144646
247	0xbc341ac9	-0.010992714
248	0x3cf7eab8	0.03026329
249	0xbcd6aa66	-0.0262043
250	0x3cf92553	0.030413305
251	0x3c0542d2	0.008133607
252	0x3aeba762	0.0017978961
253	0xbc97a95f	-0.01851338
254	0x3d1fe0c6	0.03903272
255	0x3b387c9b	0.0028150443

bias f4 [32]
0	0x3c2a5092	0.010395186
1	0xbd27b650	-0.04094535
2	0xbab13236	-0.0013518992
3	0x390e8c93	0.00013594543
4	0xbd0b053a	-0.03394053
5	0x3d0344fc	0.03204821
6	0x3c247831	0.0100384215
7	0xbcbaa2d4	-0.02278272
8	0x3b45e3a4	0.00301955
9	0xbd149ad5	-0.03628047
10	0xbccecc55	-0.025243917
11	0x3cb803c7	0.022462739
12	0xbc5c9c5f	-0.013465016
13	0x3babf15a	0.005247277
14	0xbd925f8e	-0.07147132
15	0xbceef058	-0.02916734
16	0xbbb6cf18	-0.0055788867
17	0xbcba8c5f	-0.022772012
18	0xbc869c5d	-0.016431982
19	0xbd2ec35c	-0.042666778
20	0x3cb4599d	0.022015387
21	0xbdc0864b	-0.09400614
22	0x3ae84df8	0.0017723432
23	0x3c8479f8	0.01617144
24	0x3bcbf6f1	0.006224506
25	0x3d5b1f86	0.05349686
26	0xbc565175	-0.013080944
27	0xbd30590e	-0.04305368
28	0x3cd8c860	0.026462734
29	0xbcaa10bc	-0.020759933
30	0xbd1dde5f	-0.038542148
31	0xbd22d3df	-0.039752837

weight f4 [64, 32, 5, 5]
0	0xbc8f6163	-0.017502492
1	0xbd252634	-0.040319636
2	0xbcd7e3d7	-0.02635376
3	0xbd20eac8	-0.039286405
4	0x3b902055	0.0043983855
5	0x3d24e9c7	0.04026201
6	0x3ae696f3	0.0017592594
7	0xbbb8a325	-0.0056346827
8	0xbc929d4d	-0.017897272
9	0xbc9b95c2	-0.018992309
10	0xbcf7af38	-0.030234918
11	0x3ceb716b	0.028740605
12	0xbcd4bb8f	-0.025968341
13	0x3ba4c910	0.0050288513
14	0xbc8dd3bc	-0.017312877
15	0x3cc5d7fb	0.02415084
16	0xbc5d0f24	-0.013492379
17	0x3cb30c0e	0.021856334
18	0x3c6b19f8	0.014349453
19	0x3d5a0094	0.053223208
20	0xb98f9a88	-0.0002739022
21	0x3c8facc7	0.017538441
22	0xbbfa8c79	-0.00764614
23	0xbc1e5556	-0.0096639
24	0x3d29c6e9	0.04144946
25	0x3d512a01	0.05106545
26	0x3c9ac934	0.01889477
27	0xbcf8a6a2	-0.030352894
28	0x3a8f311c	0.001092467
29	0xbce3f48b	-0.027826568
30	0x3d1bf921	0.038079385
31	0xbc14ffef	-0.009094222
32	0x3c1a07f8	0.009401314
33	0xbc8139d1	-0.01577464
34	0xbbf803c1	-0.007568807
35	0x3b9f0041	0.004852325
36	0x3c8c2faf	0.017112581
37	0x3ca3e73c	0.020007722
38	0x3d1b9940	0.037987947
39	0x3d063595	0.032765944
40	0xbb76ab9b	-0.0037638906
41	0xbc14a1d9	-0.009071791
42	0xbc607c4a	-0.013701508
43	0xbcc2ef06	-0.023795616
44	0xbcec4fd2	-0.028846655
45	0x3bfed15b	0.007776422
46	0x3c8f1439	0.017465698
47	0x3d1ac7e7	0.037788298
48	0xbc843033	-0.016136264
49	0x3c17f91c	0.009275701
50	0x3cadcdf5	0.021216372
51	0xbc51763b	-0.012784536
52	0xbcbdb452	-0.023157272
53	0xbd21be8a	-0.039488353
54	0x3ca2c98b	0.019871494
55	0x3c99356e	0.018702235
56	0x3b706f5f	0.0036687476
57	0x3cf9e8f6	0.030506592
58	0xbbc04c93	-0.0058685034
59	0xbd17a063	-0.03701819
60	0x3ca37106	0.019951355
61	0x3bca85d8	0.006180506
62	0xbc994e67	-0.018714143
63	0x3cda21b2	0.026627395
64	0x3d069ab5	0.032862384
65	0xbc365925	-0.011129652
66	0xbc11d4ec	-0.008900862
67	0xbbbe25f4	-0.005802864
68	0xbce458f1	-0.027874442
69	0x3ca8b1f3	0.020592665
70	0xbcbd9d20	-0.023146212
71	0x3c06f70b	0.008237611
72	0x3ca3f5d4	0.02001468
73	0xbcffe753	-0.031238234
74	0xbb258dee	-0.0025261599
75	0xbb8ba15e	-0.00426118
76	0x3c70e66e	0.014703376
77	0xbb17bda9	-0.0023153818
78	0x3bc10274	0.005890185
79	0x3cba767d	0.022761578
80	0x3c9eb68b	0.019374153
81	0xbbcda3ff	-0.0062756534
82	0x3c18fa30	0.009336993
83	0xbcaedafc	-0.021344654
84	0xbcfe85b5	-0.031069616
85	0x3c75c2f7	0.0150000965
86	0xba935516	-0.0011240568
87	0xbd10f3e9	-0.03538886
88	0xbbe22bec	-0.0069022086
89	0xbc6698e4	-0.014074538
90	0x3d07c3f7	0.03314587
91	0x3cd8b225	0.026452133
92	0x3d00e4f3	0.031468343
93	0x3b37bee7	0.002803737
94	0xbc7579a9	-0.014982619
95	0xbd1dccb9	-0.038525317
96	0xbd0f7f26	-0.035033368
97	0x3c397bb6	0.011320999
98	0xbcfbbcbb	-0.030729642
99	0xbc56fc35	-0.013121654
100	0xbc9aff65	-0.01892061
101	0xbc5c7058	-0.013454519
102	0xbcd43d75	-0.025908211
103	0xbd0b560b	-0.034017604
104	0xbd0a7053	-0.033798527
105	0x3c90426d	0.0176098
106	0xbca4ee4b	-0.020133158
107	0xbb0f10a2	-0.0021829982
108	0x389dd5ac	7.526143e-05
109	0xbc381b35	-0.011236955
110	0xbbf5d6b0	-0.0075023994
111	0x3c4f150e	0.012639297
112	0xbbf45423	-0.007456319
113	0x3c32f563	0.010922763
114	0xbc7e02e1	-0.015503616
115	0xbcbfd624	-0.02341754
116	0xbbd011e7	-0.0063497904
117	0x3b92a031	0.0044746627
118	0x3d31e4e8	0.043431193
119	0x3c181496	0.009282252
120	0x3c5915ad	0.013249797
121	0xbc839c2d	-0.016065681
122	0xbc935eef	-0.017989604
123	0x3c576ef3	0.013149011
124	0x3d014880	0.031563282
125	0x3aa537f6	0.0012605179
126	0x3c6a0d63	0.014285418
127	0xbd1e6f8d	-0.038680602
128	0xbd16da2f	-0.03682917
129	0x3c20c096	0.009811541
130	0x3b006176	0.0019589341
131	0xbc018168	-0.007904388
132	0xbcc994e1	-0.024607124
133	0x3c940592	0.018069062
134	0xbd205903	-0.03914739
135	0xbd04dc53	-0.03243668
136	0x3bc830ee	0.0061093485
137	0xbc11af22	-0.008891853
138	0x3cd77987	0.026303066
139	0x3c8b32ae	0.01699194
140	0xbd0924a4	-0.03348221
141	0xbcfdd127	-0.03098352
142	0x3c9a9fce	0.018875029
143	0xbbe331ea	-0.0069334405
144	0xbc9f7cc2	-0.019468669
145	0xbd014ae1	-0.03156555
146	0x3d1b1901	0.037865642
147	0x3c65b61a	0.014020467
148	0x3d28101d	0.04103099
149	0x3cfec3c0	0.0310992
150	0x3d020bd1	0.03174955
151	0x3bce9122	0.0063039223
152	0x3cc6eab3	0.024281835
153	0x3c2c1126	0.010502135
154	0x3c406fbb	0.011745389
155	0x3b477f19	0.0030440746
156	0xbd125255	-0.03572305
157	0x3cfcf14c	0.030876778
158	0x3d0b4542	0.034001596
159	0xbce5f02b	-0.028068623
160	0xbc891392	-0.016732965
161	0x3cd7d102	0.02634478
162	0x3d0d336a	0.03447286
163	0x3b1f45c9	0.002430307
164	0xbcde4707	-0.027133478
165	0xbd14fbb5	-0.03637286
166	0xbc9bae9f	-0.019004164
167	0xbc8ac17a	-0.01693796
168	0xbc85ef7c	-0.016349547
169	0x3d28344f	0.04106551
170	0xbc2f90f7	-0.010715715
171	0xbab29ec5	-0.0013627639
172	0x3c3ab3ac	0.011395376
173	0xbacb5162	-0.0015511925
174	0xbb98ae79	-0.0046594706
175	0xbcdf6518	-0.027269885
176	0x3c2d00a9	0.010559239
177	0xbc4a2ca6	-0.012339747
178	0xbc5365cb	-0.012902687
179	0xbcd3f3aa	-0.025873024
180	0xbcf23d88	-0.029570356
181	0xbc9e1ed7	-0.019301815
182	0xbc34d343	-0.011036697
183	0xbc0e424f	-0.008682801
184	0xbc1d9f12	-0.009620445
185	0x3c35af23	0.011089119
186	0xbc258392	-0.01010217
187	0xbd0018c7	-0.03127363
188	0x3d0850c7	0.03328016
189	0xbc51ff4a	-0.012817213
190	0x3bcf2c9f	0.006322458
191	0x3cf9fd55	0.030516306
192	0xbbfb2370	-0.0076641366
193	0xbcba0342	-0.022706632
194	0x3ccbf5e8	0.02489753
195	0xbcba9a61	-0.022778692
196	0xbcdd98bb	-0.027050367
197	0xbab7b6db	-0.0014016287
198	0xbc915b1a	-0.017743636
199	0x3c9c6a6d	0.019093717
200	0x3ccd5150	0.025063187
201	0x39b85524	0.0003515865
202	0x3c7513df	0.014958351
203	0x3bfd6405	0.0077328705
204	0xbcd0d0e1	-0.025490226
205	0x3b41fd94	0.0029600607
206	0x3b77ba4f	0.0037800258
207	0xbc443684	-0.011975888
208	0x3c69ca89	0.01426948
209	0xbca3d8ce	-0.020000841
210	0x3cd968e4	0.026539274
211	0xbc109c30	-0.0088263005
212	0xbc086b4d	-0.008326364
213	0xbcf19516	-0.029490035
214	0x3ca26b6e	0.019826617
215	0xbcbad2af	-0.02280554
216	0x3c90d100	0.017677784
217	0x3ccd94e1	0.025095405
218	0xbcafc54a	-0.02145638
219	0xbccbd698	-0.0248826
220	0xbc89bb83	-0.016813045
221	0xbcf9d480	-0.030496836
222	0x3ce4dfa6	0.027938675
223	0x3cdacc17	0.026708646
224	0x3c399ca2	0.011328848
225	0x3c397223	0.011318716
226	0xbc8e9eae	-0.017409649
227	0x39b22894	0.0003398104
228	0xbc81c7e3	-0.015842384
229	0xbcb506d7	-0.022097988
230	0xbc8a7826	-0.016902994
231	0x3bb8af6f	0.0056361477
232	0x3b8298b7	0.00398549
233	0xbc3813f1	-0.011235223
234	0xbc89a8a6	-0.01680405
235	0x3aca99b5	0.0015457185
236	0xbcf4a18e	-0.029862192
237	0x3c22fca4	0.0099479295
238	0x3c0f6064	0.008751009
239	0xbc3696dc	-0.011144366
240	0x3b1a5d4f	0.0023554151
241	0xbce13d35	-0.027495006
242	0xbd143195	-0.036180098
243	0xbcc3d6e3	-0.023906177
244	0xba9893af	-0.0011640693
245	0xbccbabbe	-0.024862166
246	0xbc57dbdd	-0.013174978
247	0x3becf4b4	0.0072313193
248	0x3c0aae25	0.008464371
249	0x3c9ddb39	0.019269573
250	0xbc2430f7	-0.01002144
251	0xbd09b917	-0.03362378
252	0xbcc47a8f	-0.023984222
253	0xbcc9b7e4	-0.024623819
254	0x3cb31382	0.021859888
255	0xbb9dfeb5	-0.004821623

bias f4 [64]
0	0xbc860a29	-0.016362267
1	0x3cab144a	0.020883698
2	0xbce5d7bf	-0.028056977
3	0xbb13faf9	-0.0022580011
4	0x3ba80028	0.0051269718
5	0x3ccac22a	0.024750788
6	0xbca04334	-0.019563295
7	0xbd23d717	-0.040000048
8	0x3c92fd8e	0.01794317
9	0xbcb05068	-0.021522716
10	0xbced7822	-0.028987948
11	0xbca97cd3	-0.020689404
12	0x3c758462	0.014985176
13	0x3c8c3d8a	0.017119188
14	0x3b7b6c46	0.0038364097
15	0x39e91ed4	0.00044464192
16	0xba192a4f	-0.0005842791
17	0xbcefc348	-0.029267922
18	0xbd322e19	-0.043500993
19	0xbca0c7a5	-0.019626448
20	0xbb8745ba	-0.004128185
21	0xbd0b5dec	-0.034025118
22	0x3ca32ee7	0.019919826
23	0xbced8ca1	-0.028997721
24	0xbbdedea0	-0.0068014413
25	0xbd260d35	-0.04053994
26	0x3c882e95	0.016623775
27	0x3a808096	0.0009803947
28	0xbbd506af	-0.006501041
29	0xbcad4a59	-0.021153616
30	0xbc247f8b	-0.010040174
31	0xbbac92d8	-0.0052665286
32	0x3b581ca8	0.0032976065
33	0xbbab0005	-0.005218508
34	0x3cb490a7	0.022041632
35	0xbae6979a	-0.0017592788
36	0xbb8190fc	-0.003954051
37	0xbb60dcea	-0.0034311363
38	0x3cf80d02	0.03027964
39	0x3d3bc18e	0.045838885
40	0xbd0ca694	-0.03433855
41	0xbcb44793	-0.022006785
42	0xbc107fef	-0.008819564
43	0xbcb581a0	-0.022156537
44	0x3d074ce9	0.03303233
45	0x3d3fcff9	0.046829198
46	0x3ccc9467	0.024973108
47	0xbc5bf525	-0.013425146
48	0xbbb37fb4	-0.00547787
49	0x3cfbc31e	0.030732688
50	0x3cb6cd2a	0.022314627
51	0xbd2e0a92	-0.04249055
52	0xbcecbc3a	-0.028898347
53	0xbcc1e28f	-0.023667602
54	0x3b6fbaeb	0.0036579918
55	0xbd0051fa	-0.03132818
56	0xbd08f6d2	-0.03343851
57	0x3d1e669e	0.038672082
58	0x3c5b65e9	0.0133909965
59	0xbccec5bf	-0.025240777
60	0xbbc1e56b	-0.0059172413
61	0xbd2e25c8	-0.0425165
62	0x3d133acc	0.035944745
63	0x3c9cae72	0.01912615

weight f4 [64, 1024]
0	0xbbe89865	-0.007098245
1	0xbceb503a	-0.028724778
2	0x3c69ed1d	0.014277724
3	0x3cbd1465	0.023081014
4	0x3cd1db9f	0.025617419
5	0x3a34ce32	0.00068971806
6	0x3bcc4524	0.006233828
7	0xbc57f290	-0.01318039
8	0x3cf10b65	0.029424379
9	0x3c8d99b6	0.01728521
10	0x3cde0010	0.02709964
11	0x3cc31c4c	0.023817204
12	0xbcdab9cd	-0.026699925
13	0xbcd78e5a	-0.026312996
14	0xbc06dc70	-0.008231267
15	0x3bd30bb5	0.0064406046
16	0xbd0a1e40	-0.033720255
17	0xbba56045	-0.0050468766
18	0xbc4cee12	-0.012507932
19	0x3cd96616	0.026537936
20	0x3b942088	0.0045204796
21	0xbc4bb25b	-0.01243266
22	0x3945da84	0.00018868787
23	0x3c6f4093	0.014602798
24	0x3d03c89f	0.03217375
25	0x3cc25e5b	0.023726633
26	0xbcbfb12f	-0.023399917
27	0xbcf659a8	-0.030072048
28	0xbc415845	-0.01180083
29	0xbc46264b	-0.012094091
30	0x3cef1978	0.02918695
31	0x3ceed2a0	0.029153168
32	0x3c42f26d	0.011898619
33	0xbd2bcf2c	-0.04194562
34	0x39b1365a	0.00033800566
35	0x3bb92615	0.0056502917
36	0xbc38474e	-0.011247469
37	0xba028885	-0.00049794494
38	0xbcc9359f	-0.024561701
39	0xbca9c8c9	-0.020725625
40	0x3ca079c4	0.019589312
41	0x3ceca368	0.028886512
42	0x3d0b8a73	0.034067582
43	0x3d213dfb	0.03936575
44	0xbc87cf9e	-0.016578492
45	0x3b2f0c13	0.0026710078
46	0xbc470214	-0.012146492
47	0x3d1439a5	0.036187787
48	0xbd18d121	-0.037308816
49	0x3c243d1e	0.010024337
50	0x3c90224d	0.01759448
51	0xbd232ecc	-0.03983955
52	0x3cd52261	0.02601737
53	0x3cd15b8c	0.025556348
54	0x3c07c056	0.008285603
55	0x3ccc341e	0.024927195
56	0xbcf197cf	-0.029491333
57	0x3d17851c	0.036992177
58	0x3c170520	0.0092175305
59	0x3c067b94	0.008208174
60	0x3c74307c	0.014904138
61	0xb9d06500	-0.00039748102
62	0xbc92ab8b	-0.017904064
63	0x3c1c1f76	0.009528985
64	0xbb9e51f3	-0.0048315465
65	0xbc6b2777	-0.014352671
66	0x3c9acd9f	0.018896876
67	0x3c4806f5	0.01220869
68	0x3d13955d	0.036031116
69	0x3a0b6fc2	0.00053190824
70	0x3c598e3a	0.013278538
71	0xbcd15324	-0.02555234
72	0xbcc4ca97	-0.024022384
73	0xbba30b88	-0.00497574
74	0x3c4762e5	0.012169574
75	0xbb5a785d	-0.0033335902
76	0x3d0953ed	0.033527303
77	0xbc021b71	-0.007941113
78	0x3bdb4c87	0.0066924724
79	0x3ca9db4c	0.020734452
80	0xbb17c6c0	-0.0023159236
81	0x3d130fbf	0.03590369
82	0x3bb92170	0.005649738
83	0xbca92833	-0.020649051
84	0xbc9322ac	-0.017960869
85	0x3c977035	0.018486122
86	0xbcb3a100	-0.021927357
87	0x3c854797	0.016269488
88	0xbc94f7ac	-0.018184505
89	0x3c105c5d	0.008811084
90	0xbacdec8d	-0.0015710756
91	0xbcb0f15e	-0.021599468
92	0xbc3ae436	-0.011406949
93	0xbbb09186	-0.0053884415
94	0x3c42db32	0.011893081
95	0xbcf2a0de	-0.029617723
96	0x3d055869	0.032555018
97	0xbba214c2	-0.004946322
98	0xbad27efb	-0.0016059572
99	0xbbd50221	-0.006500498
100	0x3ba1e68f	0.004940815
101	0xbb7cda8a	-0.0038582408
102	0xbc2051ac	-0.009785097
103	0x3c7f8b05	0.01559711
104	0xbc997ab0	-0.01873526
105	0xbc8cb05a	-0.017173935
106	0x3d2866d6	0.041113697
107	0xbc30a9da	-0.010782683
108	0x3cddedf5	0.027091006
109	0x3a8676b1	0.0010258761
110	0x3c74ccba	0.014941389
111	0x3c6c2485	0.014413004
112	0x3c76e4dd	0.015069214
113	0x3be7329c	0.0070555937
114	0xbc3c44e8	-0.011491038
115	0x3cc6f714	0.024287738
116	0x3d06d0c4	0.03291394
117	0xbc0803f0	-0.00830172
118	0xbc846b3b	-0.016164413
119	0x3cbeca86	0.02328993
120	0x3d09a663	0.033605944
121	0xbbf16323	-0.0073665543
122	0xbb2a0e99	-0.0025948642
123	0xbc722ceb	-0.014781217
124	0xbcd3145b	-0.025766542
125	0xbc9d0b7d	-0.019170517
126	0xbbf57e6d	-0.007491878
127	0x3b1ba286	0.0023747995
128	0x3c68dbfb	0.014212604
129	0x3c5fbadc	0.013655391
130	0xbc9cbe1d	-0.019133622
131	0x3c8b8a7b	0.017033806
132	0xbcc56cf0	-0.024099797
133	0xbb7b2bda	-0.0038325698
134	0xbc90020a	-0.017579097
135	0x3cf1bee8	0.029509977
136	0x3c133b3e	0.008986292
137	0xbb9da90c	-0.0048114117
138	0xbcb007eb	-0.02148815
139	0x3ca0132e	0.019540396
140	0xbca1fc8c	-0.019773744
141	0xbc957b0b	-0.018247148
142	0xbcb26434	-0.021776296
143	0xbbafec1e	-0.0053687235
144	0xbc827aed	-0.015927756
145	0x3b889c7a	0.004169044
146	0xbcff4aee	-0.031163659
147	0x3c92e4ad	0.017931307
148	0xba2a71ee	-0.0006501962
149	0xbc19df6e	-0.009391649
150	0xbc3ea37b	-0.0116356565
151	0xbbbb04ff	-0.0057073827
152	0x3c111d03	0.008857015
153	0x3cbb3d06	0.022856247
154	0x3b0e4725	0.0021709886
155	0x3c96fef5	0.01843212
156	0xbccf7a5a	-0.025326896
157	0xbcb5b099	-0.022178935
158	0x3ce887cb	0.028385064
159	0xbc4b2712	-0.012399452
160	0x3cd3f56d	0.025873864
161	0x3c839e7e	0.016066786
162	0x3bf37d5c	0.0074307155
163	0xbb57a1f0	-0.0032902919
164	0xbc498346	-0.012299364
165	0xbc05aee4	-0.008159373
166	0x3a6d28c8	0.00090469094
167	0xbcb8ddaf	-0.022566644
168	0x3c02e640	0.007989466
169	0x3cf2303f	0.029564021
170	0x3b544e28	0.0032395218
171	0xb887c398	-6.473734e-05
172	0xbc3b5dd9	-0.011435949
173	0x39973667	0.00028841497
174	0x3ceb95ed	0.028758014
175	0xb8dd230c	-0.00010544629
176	0x3c88fe2b	0.01672276
177	0x3b726041	0.0036983641
178	0x3c970535	0.0184351
179	0x3c6ae698	0.014337204
180	0xbafe05a5	-0.0019380344
181	0x3cdacb48	0.02670826
182	0x3c9996b1	0.018748613
183	0xbc4d8f1f	-0.01254633
184	0xbaf93e35	-0.0019015732
185	0xbcfb4c80	-0.030676126
186	0xbcc4e26d	-0.02403375
187	0x3ce334a2	0.027735058
188	0x3cc197ab	0.023631891
189	0xbc1217a4	-0.008916769
190	0x3be3ff12	0.006957897
191	0xbc8c8d91	-0.017157348
192	0x3c8bc640	0.017062306
193	0xbc9052f3	-0.017617678
194	0x3d072045	0.03298976
195	0x3cb1b32e	0.021691885
196	0x3d026f2f	0.031844314
197	0xbbad7141	-0.005293042
198	0xbce6ffe7	-0.028198196
199	0xbc2562a2	-0.010094317
200	0xbcd44692	-0.025912557
201	0x3d14f97f	0.03637075
202	0x3c412224	0.011787925
203	0xbc48a71a	-0.012246871
204	0xbc131147	-0.008976287
205	0x3c05a185	0.008156185
206	0x3c300a68	0.010744669
207	0x3cef394a	0.029202122
208	0xbcbddd6e	-0.023176875
209	0xbcd11c13	-0.025526082
210	0x3d05a5e4	0.03262891
211	0xbc8d3fcd	-0.017242337
212	0x3ce84aa7	0.02835591
213	0x3ccb64e3	0.02482838
214	0x3cc7bd7b	0.024382344
215	0xbc2cb960	-0.010542244
216	0xbc200b8b	-0.009768377
217	0x3ba51e45	0.005039009
218	0x3cdb564c	0.026774548
219	0xbc56f7c8	-0.013120599
220	0xbc76abcf	-0.015055611
221	0xbcb0b79e	-0.02157193
222	0x3cf94b1f	0.030431328
223	0xbc511bd5	-0.012762983
224	0x3c0812ff	0.00830531
225	0xbcbf57fe	-0.023357388
226	0xbc97ccce	-0.018530276
227	0xbca6dcf1	-0.020369025
228	0x3b49438b	0.0030710425
229	0x3c336eb2	0.010951685
230	0xbc8b7d56	-0.017027538
231	0xbcd0ad4a	-0.025473256
232	0xba07cda2	-0.0005180483
233	0xbcce3776	-0.02517293
234	0x3ca45ee2	0.020064775
235	0xbcbfdf38	-0.023421869
236	0xbb9142b6	-0.0044330014
237	0xbcc5d2e3	-0.02414841
238	0xbc34169a	-0.010991717
239	0xbc39eacb	-0.011347483
240	0x3ce91a25	0.02845485
241	0xbc9feecd	-0.019523049
242	0x3c5c50ed	0.013447029
243	0x3c255691	0.01009144
244	0xbcfe4b7b	-0.031041851
245	0x3c70d402	0.014698984
246	0x3caa7186	0.020806085
247	0xbcda34a9	-0.026636438
248	0xbc6a81da	-0.014313186
249	0xba57d3b8	-0.00082331477
250	0x3b3188fc	0.0027089706
251	0x3cd9cdbb	0.026587358
252	0x3befe059	0.0073204455
253	0x3aa2382f	0.0012376363
254	0xb9f9d918	-0.00047654728
255	0x3a180ec7	0.0005800542

bias f4 [64]
0	0xbc90eef0	-0.01769206
1	0xbc2c7081	-0.01052487
2	0xbc2ba9f3	-0.010477531
3	0xbb832ed5	-0.0040033855
4	0x3c028be9	0.0079679275
5	0xbc244956	-0.01002725
6	0xb9eb345f	-0.00044861712
7	0x3c577ddd	0.013152567
8	0x3c986703	0.018603807
9	0xbb81d792	-0.0039624656
10	0xbbc5de48	-0.006038461
11	0xbc0bf509	-0.008542308
12	0x3be11077	0.006868418
13	0xbbc7f4a6	-0.0061021624
14	0xbcef29e9	-0.029194789
15	0x3b0ab521	0.002116509
16	0xbaa3d7ce	-0.0012500228
17	0x3c82ec74	0.01598189
18	0xbafe5a3e	-0.0019405556
19	0x3b9c69dc	0.0047733616
20	0xbb3db253	-0.00289454
21	0xbcca8518	-0.024721667
22	0xbc3ea1ac	-0.011635225
23	0xbb034b9b	-0.0020034078
24	0xbd0fad7d	-0.03507756
25	0xbb8288c7	-0.0039835903
26	0x3caae6d4	0.02086202
27	0x3ca5efa6	0.020255875
28	0xbd116704	-0.035498634
29	0xbcfceddd	-0.03087514
30	0xbcd30285	-0.025758037
31	0xbd1fdb05	-0.039027233
32	0x3d3f53d8	0.04671082
33	0x3c98bc63	0.018644517
34	0x3cba4ddf	0.02274221
35	0xbc401b4b	-0.011725257
36	0x3c86d722	0.016460005
37	0xbce25337	-0.02762757
38	0x3bc3a646	0.005970749
39	0x3b908b53	0.00441114
40	0x3c035ad2	0.008017259
41	0xba1b938b	-0.00059347664
42	0xbbea01da	-0.007141334
43	0xbd391d51	-0.045193974
44	0xbabc15ad	-0.0014349722
45	0x3d074d88	0.033032924
46	0xbcb6dc3b	-0.022321811
47	0x3d48d1e1	0.04902828
48	0x3c5bf44e	0.013424946
49	0xbbb92c6b	-0.005651047
50	0xbcaf0c34	-0.021368124
51	0xbba842f1	-0.005134933
52	0xbcb17c2b	-0.021665653
53	0xbb21ca5f	-0.0024687273
54	0xbd49ccf3	-0.04926772
55	0xbc4d9d77	-0.01254975
56	0x3c7905eb	0.015199165
57	0xbb69e7c4	-0.0035691122
58	0xbc7b16e6	-0.015325284
59	0xbd16d756	-0.036826454
60	0x3cb1e43b	0.021715274
61	0x3d0c552b	0.03426091
62	0xbc4654de	-0.012105195
63	0x3cd2bfaa	0.025726158

weight f4 [10, 64]
0	0xbdcc1a84	-0.09965995
1	0x3e27aa12	0.1637347
2	0xbd369182	-0.04457236
3	0x3c096b90	0.008387461
4	0xbdbb58a6	-0.09147768
5	0x3e0c37bd	0.13693137
6	0xbdc0cd52	-0.09414162
7	0xbcd12f46	-0.025535237
8	0xbd389362	-0.04506243
9	0x3e502476	0.20326409
10	0xbcf015f2	-0.02930734
11	0x3e37d2ee	0.17951557
12	0xbca38042	-0.019958619
13	0xbdde4276	-0.1085252
14	0x3e0cc34a	0.13746372
15	0xbd1d2333	-0.038363647
16	0x3dc35f9b	0.0953972
17	0x3db58bb9	0.088645406
18	0x3d84bbf0	0.06481159
19	0xbdb4460c	-0.08802423
20	0x3de81a63	0.11333158
21	0x3d5e3f71	0.05425972
22	0xbd8bfe4d	-0.068356134
23	0x3df1330c	0.117773145
24	0x3df8b8ad	0.12144599
25	0x3c00a2b9	0.007851296
26	0xbd431a28	-0.047632366
27	0x3da7ac2c	0.08187136
28	0xbaf0936f	-0.0018354486
29	0x3dc25ee8	0.09490758
30	0x3dec3ae4	0.1153467
31	0x3dc93f06	0.09826474
32	0xbe438208	-0.19092572
33	0x3bd9b245	0.006643566
34	0xbdca6aa7	-0.098836236
35	0xbcfbed98	-0.030752942
36	0x3d2fef36	0.04295274
37	0x3dd108bf	0.10206746
38	0x3d928457	0.07154148
39	0x3dfb1f37	0.12261813
40	0xbd6f959e	-0.058492295
41	0xbdce807a	-0.10083099
42	0xbd912848	-0.07087761
43	0x3dc096dd	0.09403775
44	0xbc8d5837	-0.017253978
45	0xbdb5e709	-0.08881957
46	0xbd95b8b8	-0.07310623
47	0xbd083805	-0.03325655
48	0xbd866b92	-0.06563486
49	0x3dfe9fa9	0.124327965
50	0xbd38764d	-0.045034695
51	0x3de50315	0.111822285
52	0x3d974d62	0.073878065
53	0x3db52f56	0.08846919
54	0x3cf2d2e4	0.029641576
55	0x3d4e8c87	0.050426986
56	0x3e0f2ae2	0.13981202
57	0x3c9efc36	0.019407373
58	0x3cf79115	0.030220548
59	0x3ddfeec7	0.10934215
60	0xbd26bba4	-0.04070629
61	0xbc31fccb	-0.010863493
62	0xbc31f0b2	-0.010860609
63	0xbc5abc01	-0.013350488
64	0x3dc435df	0.095805876
65	0x3e40a7ca	0.18814006
66	0xbcf72d50	-0.030172974
67	0x3e162f9b	0.14666598
68	0x3cae6875	0.021290043
69	0xbe169cc9	-0.14708246
70	0x3b8274f1	0.0039812257
71	0x3d961e36	0.07329981
72	0x3e1e9ffc	0.15490717
73	0x3dd30c6d	0.103051044
74	0xbd56e349	-0.05246285
75	0xbd9ac76c	-0.07557568
76	0x3de9381b	0.113876544
77	0x3df39d75	0.11895267
78	0xbda286dd	-0.079358794
79	0x3c75bf8b	0.014999281
80	0xbe1eba82	-0.15500835
81	0xbe3f4a59	-0.18680705
82	0x3e46a138	0.19397438
83	0x3dd7f06c	0.10543904
84	0xbde749e7	-0.11293393
85	0x3e0b8e24	0.13628441
86	0x3db955f4	0.090495974
87	0x3e3aca54	0.18241245
88	0xbdd8c7ad	-0.1058496
89	0xbe051e97	-0.1299995
90	0x3da7be33	0.081905745
91	0x3d83535c	0.06412384
92	0xbdc15b72	-0.0944127
93	0xbe4b3d72	-0.19847658
94	0x3e28b7a6	0.16476306
95	0xbd467660	-0.048452735
96	0x3e1fe1b1	0.15613438
97	0x3d4b79b5	0.049676616
98	0xbda5f2d6	-0.08102958
99	0x3d161e13	0.036649775
100	0x3e425db5	0.18981059
101	0xbe13041d	-0.14357038
102	0x3c07feaf	0.008300467
103	0x3d95480b	0.07289132
104	0xbdb1017e	-0.08642863
105	0xbe7183d7	-0.23585449
106	0x3e2edb28	0.17075789
107	0x3e02d4b5	0.12776454
108	0xbd39513b	-0.045243483
109	0x3e0a9757	0.13534294
110	0xb8f23cc7	-0.0001155078
111	0xbdbfcba3	-0.093650125
112	0x3db135c7	0.08652835
113	0x3de92794	0.11384502
114	0xbd8062bd	-0.06268833
115	0x3bd96de3	0.006635414
116	0x3db1a150	0.08673346
117	0x3db8df20	0.09026933
118	0xbe27a65d	-0.16372056
119	0x3e0f6a29	0.1400534
120	0xbc672ed1	-0.014110283
121	0x3d0ce3e0	0.034397006
122	0x3da44632	0.08021201
123	0x3bee031c	0.0072635543
124	0x3e3b051d	0.1826367
125	0x3d35ed31	0.044415656
126	0x3d6303a4	0.055423394
127	0x3e0e63b1	0.13905217
128	0x3de7faa7	0.11327105
129	0xbd551f45	-0.052031774
130	0xbd529e53	-0.05142052
131	0x3dfa2e70	0.122158885
132	0x3d28d1d2	0.041215725
133	0x3e04a988	0.12955296
134	0xbe0b389d	-0.13595815
135	0xbe360142	-0.17773917
136	0x3dfa7a0d	0.122303106
137	0x3e120629	0.14260162
138	0x3b9c1013	0.0047626584
139	0xbc1f6218	-0.009727977
140	0xbda4407d	-0.08020113
141	0x3dc09250	0.09402907
142	0xbe2ae529	-0.1668898
143	0xbb20d2b3	-0.002453965
144	0xbd91b01c	-0.07113668
145	0x3e27d30f	0.16389106
146	0xbde12cc3	-0.10994866
147	0x3c9f282c	0.019428335
148	0x3d642b33	0.05570526
149	0x3d0753fc	0.033039078
150	0xbd5a9579	-0.053365204
151	0xbdb4d7c8	-0.088302195
152	0xbdab375e	-0.0836017
153	0x3e121ca4	0.14268738
154	0xbbcab89f	-0.0061865593
155	0xbe064a03	-0.1311417
156	0x3d7684fd	0.06018542
157	0x3ca64062	0.020294372
158	0xbe11fc4a	-0.14256397
159	0xbdb97cb7	-0.090569906
160	0xbe187e5c	-0.14891952
161	0x3d809788	0.06278902
162	0xbd249030	-0.04017657
163	0xbd247ffe	-0.040161125
164	0xbdac35cc	-0.084086984
165	0x3d896c74	0.06710139
166	0xbcc70771	-0.02429554
167	0x3da02682	0.07819845
168	0x3d3e341b	0.04643641
169	0x3df1e768	0.11811715
170	0xbd4dc41c	-0.050235853
171	0xbe4494c3	-0.19197373
172	0xbcfa4e52	-0.030554924
173	0xbd1a0801	-0.03760529
174	0xbdcea2d2	-0.10089649
175	0x3d508941	0.050912146
176	0xbcbb091c	-0.022831492
177	0x3de62099	0.11236686
178	0x3def8317	0.11694925
179	0x3e26eeb2	0.16301993
180	0xbd25d203	-0.040483486
181	0x3e15ec72	0.14640978
182	0xbdd9e11c	-0.10638639
183	0xbda65132	-0.081209555
184	0xbdfe673a	-0.12422033
185	0xbd1c7a59	-0.038202617
186	0xbd42301d	-0.047409166
187	0xbdc4e190	-0.09613335
188	0x3d2772ed	0.040881086
189	0x3c9035d7	0.017603798
190	0xbd9b067a	-0.07569595
191	0x3d58c302	0.05292035
192	0x3db58133	0.088625334
193	0xbdc781fc	-0.097415894
194	0x3d2f5179	0.042802308
195	0x3c94d835	0.018169502
196	0xbd91be0b	-0.07116326
197	0xbe3c5648	-0.18392289
198	0xbdf13cdf	-0.11779188
199	0xbdb1603d	-0.08660934
200	0x3e1e53e9	0.15461697
201	0xbe21fcca	-0.15819088
202	0xbd5b2e92	-0.05351121
203	0xbd028fe2	-0.0318755
204	0xbdc096f4	-0.09403792
205	0xbca11dbc	-0.019667499
206	0xbe3bd616	-0.18343386
207	0xbdb65fa1	-0.089049585
208	0x3e010c1a	0.12602273
209	0xbe1b40e7	-0.15161477
210	0xbdfbc7c7	-0.12293964
211	0xbde5646e	-0.11200796
212	0xbd9b31d5	-0.07577864
213	0xbdd46fc7	-0.10372882
214	0xbda84994	-0.08217159
215	0xbdecfd58	-0.11571759
216	0x3d9d4be0	0.07680488
217	0x3e01e534	0.1268509
218	0xbd4a4347	-0.049380567
219	0xbca54027	-0.020172192
220	0xbb87c811	-0.004143723
221	0x3d0c4b98	0.03425178
222	0xbe0f2300	-0.13978195
223	0xbdccd159	-0.100008674
224	0x3dcf2689	0.10114772
225	0x3e044871	0.12918259
226	0xbddc2799	-0.1074974
227	0xbd2d384c	-0.042290017
228	0x3db87d56	0.09008281
229	0xbd825c47	-0.06365257
230	0xbd2255fd	-0.039632786
231	0x3dc2bf44	0.09509137
232	0xbde3e237	-0.111271314
233	0xbbfe4958	-0.007760208
234	0x3d82b812	0.06382765
235	0xbd4c9c22	-0.049953587
236	0x3d2c3758	0.042044967
237	0x3d0fd2e6	0.035113238
238	0xbd2ea9ee	-0.042642526
239	0x3dce9a55	0.1008803
240	0xbdad52d4	-0.08463064
241	0xbdfa62ed	-0.122259
242	0xbdf08496	-0.11744039
243	0x3c8f47e8	0.017490342
244	0xbd98eebf	-0.07467412
245	0x3d834c5e	0.0641105
246	0x3c1c79c7	0.009550518
247	0xbe28f2ac	-0.16498822
248	0xbd852ff3	-0.06503286
249	0xbdb12f54	-0.08651605
250	0x3d4b02e0	0.04956329
251	0x3dd7237a	0.105048135
252	0xbe2783df	-0.16358899
253	0x3cae5c7e	0.021284338
254	0xbdb2b0c8	-0.087251246
255	0xbd7ac237	-0.061220374

bias f4 [10]
0	0xbe398767	-0.18118058
1	0xbca01745	-0.019542346
2	0x3d00b27b	0.031420212
3	0xbb97a61e	-0.004627957
4	0x3db637fc	0.08897397
5	0x3b127951	0.0022350142
6	0xbcbcaa4d	-0.023030424
7	0xbcdda4bc	-0.02705609
8	0xbd19685d	-0.037453044
9	0x3d2e0f15	0.042494852
