models/gpu_train_model21.pth (torch, 587335 bytes, 10 tensors)

weight f4 [32, 3, 5, 5]
0	0x3d96746f	0.07346427
1	0x3e48646b	0.19569556
2	0x3d369637	0.04457685
3	0xbd4acf14	-0.04951389
4	0xbe133f98	-0.14379728
5	0x3d1f11ce	0.03883534
6	0x3e21e477	0.15809809
7	0x3e371ceb	0.17882125
8	0xbdeaed85	-0.114710845
9	0xbde7d140	-0.11319208
10	0x3d8d995b	0.06914016
11	0x3e0c6553	0.13710527
12	0x3b15cc09	0.002285721
13	0xbd7af2c4	-0.061266676
14	0xbd2dff43	-0.042479765
15	0x3cfad543	0.03061927
16	0xbe0e6050	-0.13903928
17	0xbded0965	-0.115740575
18	0x3d020a83	0.031748306
19	0x3e656f0f	0.22405647
20	0xbe2cf4fe	-0.16890332
21	0xbe1b898e	-0.15189192
22	0x3dbf0429	0.09326965
23	0x3dd091f0	0.10184085
24	0x3e280820	0.1640935
25	0x3e079f0f	0.1324427
26	0x3e11d41a	0.14241067
27	0xbd93f7ad	-0.07224975
28	0x3c1a6860	0.009424299
29	0xbdf2aed4	-0.11849752
30	0x3e36bae6	0.17844734
31	0x3d2d7c90	0.04235512
32	0x3d800cb3	0.06252422
33	0xbe1500d9	-0.14551105
34	0xbd72b6ee	-0.059256487
35	0x3da335f1	0.07969273
36	0x3d601095	0.054703314
37	0x3d126369	0.035739336
38	0xbd3fde0f	-0.04684263
39	0xbdaf3894	-0.08555713
40	0xbdce0114	-0.100587994
41	0xbe44bd73	-0.19212894
42	0xbc917282	-0.017754797
43	0x3dd059ec	0.10173401
44	0x3e6965c7	0.22792731
45	0xbde17207	-0.11008077
46	0xbd4f554c	-0.050618455
47	0x3d73c1e4	0.05951108
48	0x3d89c897	0.067277126
49	0x3df6bacd	0.12047348
50	0x3dc02b35	0.09383241
51	0x3dcbb973	0.09947481
52	0xbe3026ee	-0.1720235
53	0xbe617bb2	-0.22019842
54	0xbe144d2d	-0.14482565
55	0xbcc55b3d	-0.024091357
56	0x3d2e285d	0.042518962
57	0xbcff36e5	-0.031154105
58	0xbe763dae	-0.24046966
59	0xbe6bbe5c	-0.23021835
60	0xbd321aae	-0.043482475
61	0xbc87b652	-0.01656643
62	0xbd9f0256	-0.077641174
63	0xbd677acc	-0.056513593
64	0xbcb74bc2	-0.022374991
65	0xbde8d8f5	-0.11369506
66	0xbd98d21c	-0.0746195
67	0xbe39e29b	-0.1815285
68	0x3dfa83b2	0.1223215
69	0x3dc90441	0.098152645
70	0xbe4512cc	-0.19245452
71	0x3a65bd1b	0.00087638356
72	0xbcd6e0e0	-0.026230276
73	0xbd1b8791	-0.037971083
74	0x3c30b21e	0.010784654
75	0x3e1a3e9b	0.15062945
76	0xbd139c43	-0.036037695
77	0xbe278193	-0.16358022
78	0xbd1b37ee	-0.037895136
79	0xbdc92a52	-0.09822525
80	0xbdba8a79	-0.09108443
81	0xbe4a5634	-0.19759446
82	0xbe97aaa9	-0.2962239
83	0x3d0f9ef9	0.035063718
84	0x3e1e776e	0.15475246
85	0xbe5499f8	-0.2076186
86	0xbe3c18b2	-0.18368796
87	0xbe092b6a	-0.13395467
88	0x3e58f097	0.21185528
89	0x3db988f0	0.09059322
90	0xbc307712	-0.010770576
91	0xbe4ee6db	-0.20205252
92	0x3d750af7	0.05982491
93	0x3dfa2961	0.12214924
94	0x3d9e8b34	0.07741395
95	0x3d382b03	0.044962894
96	0xbe4a638e	-0.1976454
97	0x3deb517c	0.11490151
98	0x3e016b22	0.12638524
99	0xbddc3af7	-0.10753434
100	0x3e4af83b	0.19821255
101	0xbdbb21fe	-0.09137343
102	0xbdbce5e3	-0.09223535
103	0x3caa82f1	0.02081439
104	0x3e2715ef	0.16316961
105	0xbd280d2c	-0.041028187
106	0xbcd9d6c9	-0.026591675
107	0xbe66f173	-0.22553043
108	0x3e1faa5a	0.15592328
109	0x3e413071	0.18866135
110	0xbde435b1	-0.11143053
111	0x3ce6009f	0.028076468
112	0xbd582a6f	-0.052774843
113	0x3e45f585	0.1933194
114	0x3df6739f	0.12033772
115	0x3d47e0c1	0.048798326
116	0xbe1f392a	-0.1554915
117	0x3e5948f6	0.21219239
118	0x3e6a4cef	0.2288091
119	0x3d9d8009	0.076904364
120	0x3cc3552e	0.023844328
121	0x3c2afdfc	0.010436531
122	0x3e371a1b	0.17881052
123	0x3d61980b	0.05507664
124	0xbb81f4dd	-0.0039659576
125	0x3e1e8250	0.15479398
126	0xbce8fdf9	-0.028441416
127	0xbe72cf20	-0.23711824
128	0xbd797b91	-0.060908858
129	0xbd076ab3	-0.03306074
130	0xbc9a2573	-0.018816685
131	0xbd8a9d3b	-0.067682706
132	0xbdf7c9fc	-0.12099072
133	0x3db388c1	0.08766318
134	0x3d8bfaee	0.068349704
135	0xbe20f3ed	-0.1571805
136	0xbbe632e6	-0.0070251105
137	0x3d6c814e	0.057740502
138	0x3e0a247e	0.13490483
139	0xbcefe4bc	-0.029283874
140	0xbe2d4f4e	-0.16924784
141	0xbe198775	-0.14993079
142	0x3d9c65d3	0.07636609
143	0x3c7c55dd	0.015401331
144	0xbcca31ee	-0.024682011
145	0xbe00b47e	-0.12568852
146	0xbcb2f0f9	-0.02184342
147	0x3cca91e9	0.024727779
148	0x3e014aad	0.12626143
149	0xbd18d20e	-0.0373097
150	0xbdd2eee1	-0.10299469
151	0x3e113e76	0.14183983
152	0x3daf27e0	0.085525274
153	0x3bc24e7e	0.005929767
154	0x3c93abe6	0.018026303
155	0xbe218148	-0.15771973
156	0x3e5c9b31	0.21543576
157	0x3e2f5584	0.17122465
158	0xbdd5c668	-0.104382336
159	0xbcb8f3f5	-0.022577265
160	0xbddc5333	-0.107580565
161	0x3e2daa98	0.16959608
162	0x3e32487f	0.17410468
163	0xbb08cd9a	-0.0020874501
164	0x3e1c390d	0.15256138
165	0x3d82ab9e	0.0638039
166	0x3e5e4e8a	0.21709648
167	0x3add0f26	0.0016865477
168	0x3d29a402	0.041416176
169	0x3e5196f5	0.20467742
170	0x3db43131	0.08798445
171	0x3df6f8b1	0.12059153
172	0x3df18887	0.11793619
173	0x39cab741	0.00038664977
174	0x3e2152ad	0.15754195
175	0xbd54813c	-0.05188106
176	0x3d401a90	0.046900332
177	0xbd37e526	-0.044896267
178	0xbd9df903	-0.07713511
179	0x3dfee178	0.124453485
180	0xbd8a37c9	-0.067489214
181	0x3c3c3314	0.011486787
182	0xbcd64393	-0.026155269
183	0x3d5f443a	0.054508425
184	0x3d872cbe	0.06600331
185	0xbe306651	-0.1722653
186	0x3c8a744d	0.01690116
187	0xbcb9c051	-0.022674711
188	0xbe238c04	-0.1597138
189	0x3d80ae18	0.06283206
190	0xbde5c23e	-0.112186894
191	0xbd69ab88	-0.05704835
192	0xbe029a18	-0.12754095
193	0xbcbe7e51	-0.023253592
194	0x3e189923	0.14902167
195	0xbb98cdd3	-0.004663208
196	0x3cf4d3d8	0.029886171
197	0x3d1e280d	0.038612414
198	0x3d9aa631	0.0755123
199	0xb9fa401e	-0.00047731487
200	0xbd7fb351	-0.06242687
201	0xbd84d9d5	-0.06486861
202	0xbd37fdbf	-0.044919726
203	0x3d1d1b2d	0.038355995
204	0xbdea493d	-0.1143975
205	0xbe583a9b	-0.21116106
206	0x3ce05ca1	0.027387919
207	0xbe08b5b0	-0.13350558
208	0xbe2d1d07	-0.16905604
209	0x3cd63860	0.026149929
210	0xbe89cdaf	-0.26914737
211	0xbbed9698	-0.007250618
212	0xbdcd7aa2	-0.10033156
213	0xbe071c7f	-0.13194464
214	0x3d8bc53a	0.06824727
215	0xbde78ce3	-0.11306169
216	0xbd6de6a3	-0.05808128
217	0xbdea7908	-0.11448866
218	0xbcd50925	-0.026005337
219	0x3c1c043c	0.009522494
220	0xbe4657ce	-0.19369432
221	0x3d56ca53	0.052439045
222	0xbe1bd34d	-0.15217324
223	0x3d73efa5	0.059554715
224	0x3d10764d	0.03526907
225	0x3db81413	0.08988204
226	0xbdc1ff9e	-0.09472583
227	0xbd9ab0f4	-0.075532824
228	0xbd842b54	-0.06453577
229	0x3de1b55c	0.1102092
230	0xbc37873d	-0.011201677
231	0x3dbb84f0	0.09156215
232	0xbdb736b2	-0.08945979
233	0x3c9740b6	0.018463474
234	0x3d938e12	0.07204832
235	0x3decc1b8	0.115603864
236	0xbc15ee9a	-0.009151125
237	0x3da389bb	0.079852544
238	0xbd8d646f	-0.06903922
239	0x3db55728	0.08854514
240	0xbe10b2f9	-0.14130773
241	0x3e042be8	0.12907374
242	0x3dd277b4	0.10276738
243	0x3e57f3ee	0.21089146
244	0x3db8d857	0.090256386
245	0xbc0d4fc4	-0.008624975
246	0xbdb7228a	-0.08942135
247	0x3ddcf90b	0.10789689
248	0x3ded884c	0.11598262
249	0xbd6039ff	-0.05474281
250	0xbdaad322	-0.08341052
251	0xbe311278	-0.17292202
252	0x3d5b188a	0.0534902
253	0x39a724d1	0.00031880153
254	0x3dc7a2a7	0.0974782
255	0x3e0f1473	0.13972645

bias f4 [32]
0	0x3da36289	0.079777785
1	0x3d6c5c90	0.057705462
2	0xbd0c9c12	-0.034328528
3	0xbe3a0bc9	-0.18168558
4	0xbdb41b84	-0.08794311
5	0x3de1c8de	0.110246405
6	0x3e46fe42	0.19432929
7	0x3e016545	0.12636288
8	0xbd8f7e40	-0.07006502
9	0x3cb366c3	0.021899587
10	0x3e353a89	0.1769811
11	0xbea4cf95	-0.32189623
12	0xbe9f8c98	-0.31161952
13	0x3dd0a08f	0.10186874
14	0xbe02f9f6	-0.12790665
15	0xbe95b070	-0.29236174
16	0xbe6b87cd	-0.23001023
17	0x3d804667	0.06263428
18	0x3e5cbd79	0.21556653
19	0xbe347909	-0.17624296
20	0xbe0f5dd7	-0.14000641
21	0xbeb1aadb	-0.34700665
22	0xbd0a6b60	-0.033793807
23	0xbdebf4dd	-0.11521313
24	0xbd716743	-0.05893637
25	0x3d34a64b	0.0441039
26	0xbd529114	-0.05140789
27	0xbe1b0052	-0.15136841
28	0xbd8d16a3	-0.06889083
29	0xbd36172b	-0.04445569
30	0x3d7f5a29	0.062341843
31	0x3d7e2565	0.06204738

weight f4 [32, 32, 5, 5]
0	0xbce8698c	-0.028370641
1	0x3c4ca837	0.012491277
2	0x3c503e3b	0.012710149
3	0xba4257fe	-0.00074136246
4	0x3cf404b5	0.0297874
5	0xbc2aa145	-0.010414426
6	0xbc4b28bb	-0.012399848
7	0x3d4b7788	0.04967454
8	0x3ca57190	0.020195752
9	0x3d79c59d	0.060979474
10	0x398db5d7	0.00027029097
11	0x3ce6a782	0.028156046
12	0x3d7c2877	0.061562028
13	0x3cee7f08	0.029113308
14	0xba087b3e	-0.0005206353
15	0x3bbd8336	0.005783464
16	0x3d3126c0	0.043249846
17	0x3d88c861	0.06678844
18	0x3d4609d8	0.04834923
19	0x3cca6482	0.024706129
20	0x3cacdceb	0.021101436
21	0x3cd32be8	0.025777772
22	0x3c7bdcca	0.015372464
23	0x3cbfed7f	0.023428677
24	0x3cf21da0	0.029555142
25	0xbc1139df	-0.008863895
26	0xbd0b4471	-0.034000818
27	0xbbd5958f	-0.006518073
28	0x3ca889b1	0.020573469
29	0x3d209210	0.039201796
30	0x3c57b6b1	0.013166116
31	0x3bae8547	0.0053259465
32	0xbc8ca8a4	-0.017170258
33	0x3c3cb841	0.011518539
34	0x3d6ab07c	0.057297215
35	0x3ac9d7ce	0.0015399398
36	0xbbb5e5de	-0.005551084
37	0x3cffd755	0.031230608
38	0x3d7ffd54	0.062497452
39	0x3d8a42e9	0.06751043
40	0xbd893e5e	-0.06701349
41	0xbd48ab51	-0.048991505
42	0x3ce38802	0.027774815
43	0xbb099c14	-0.002099757
44	0x3c164113	0.009170788
45	0xbcd5b59a	-0.026087571
46	0xbd377c38	-0.0447962
47	0x3d415b88	0.04720643
48	0x3cc0f02c	0.023552023
49	0x3cf622a6	0.030045819
50	0x3c49a8b2	0.0123082865
51	0xbd090fa3	-0.033462178
52	0xbce37be4	-0.027769037
53	0x3bfb88c7	0.0076762172
54	0xbc89bf38	-0.016814813
55	0x3bda59ab	0.0066635213
56	0xbd9bf48d	-0.07615004
57	0xba9f2921	-0.0012142995
58	0x3d09aa60	0.033609748
59	0xbbeea878	-0.0072832666
60	0xbd877f13	-0.06616034
61	0xbd12a9df	-0.035806533
62	0xbd2c8f9a	-0.042129137
63	0xbc806dac	-0.015677296
64	0xbc837747	-0.016048087
65	0xbce2e1bf	-0.027695535
66	0xbd80cfaa	-0.06289609
67	0xbd24102c	-0.040054485
68	0x3d03f0fa	0.032212235
69	0xbcd10a65	-0.025517652
70	0xbcc68e02	-0.024237636
71	0xbbf83fd9	-0.0075759706
72	0x3a809f97	0.0009813186
73	0xbc4b91d1	-0.012424902
74	0x3c913735	0.01772652
75	0xbd10c955	-0.035348255
76	0x3bbe2457	0.005802672
77	0x3c5b41eb	0.013382415
78	0x3c9e4606	0.0193205
79	0x3b0bbc20	0.0021321848
80	0x3aba1a2b	0.0014198472
81	0x3a3a5471	0.00071079197
82	0xbca09338	-0.01960145
83	0xbc31c74a	-0.010850737
84	0xbc942a57	-0.018086595
85	0xbd22c549	-0.039738927
86	0xbc965281	-0.018349888
87	0xbc7fc5d4	-0.015611131
88	0x3ca0d0cb	0.01963081
89	0x3ca91541	0.020640017
90	0xbca1d124	-0.019753046
91	0xbd1a3dde	-0.037656657
92	0xbd42f934	-0.04760094
93	0xbbc9d6c1	-0.006159634
94	0xbc2e6f0f	-0.010646596
95	0xbc87c0c9	-0.01657142
96	0xbc05395f	-0.008131354
97	0x3c0bbee5	0.0085293995
98	0x3ce14df3	0.02750299
99	0x3ccdfb22	0.025144164
100	0x3cf5c637	0.030001743
101	0x3d39fcc5	0.045407075
102	0xbcf26059	-0.029586958
103	0x3c8ca6e6	0.017169427
104	0xbcf6bfcc	-0.030120753
105	0x3c76ce64	0.015063856
106	0x3d050bba	0.032481886
107	0x3d23368b	0.039846938
108	0xba077c38	-0.00051683513
109	0x3bc3d1f1	0.0059759547
110	0x3c12e0c1	0.008964718
111	0x3d56b6f1	0.05242056
112	0x3b90a426	0.0044140993
113	0xbb7f78bd	-0.0038981878
114	0x3ce35853	0.027752077
115	0x3cd5b92a	0.02608927
116	0x3ce675b8	0.028132305
117	0xbc86ce6c	-0.016455851
118	0xbd3cd8d2	-0.046105213
119	0xbc1eb52e	-0.009686751
120	0xbc5eea7c	-0.01360571
121	0x3c7357fe	0.014852522
122	0xbcd5c3c9	-0.026094334
123	0xbd36f093	-0.044663023
124	0xbc320ce2	-0.010867329
125	0x3d4e71a9	0.050401364
126	0xbbca012a	-0.0061646895
127	0x3cb677b2	0.022273872
128	0xbb97be0c	-0.0046308096
129	0x3abfec95	0.001464265
130	0x3d37958e	0.04482036
131	0x3cb9f3f4	0.022699334
132	0x3cf2a555	0.029619852
133	0x3ca5c607	0.020236028
134	0x3b855a5d	0.00406961
135	0x3d1afd93	0.037839483
136	0x3c69511f	0.014240532
137	0x3d1c77c8	0.03820017
138	0x3bec42d7	0.0072101164
139	0xbbc4cde1	-0.006005988
140	0x3d4d9056	0.050186478
141	0xbaad558e	-0.001322435
142	0x3baec484	0.005333485
143	0xbd0a26d3	-0.033728432
144	0x3c1e0885	0.009645586
145	0x3cdcc5d6	0.026949804
146	0x3ccc3c3b	0.024931064
147	0x3c14d17b	0.009083147
148	0xbbeabf14	-0.0071638916
149	0xbc0e5709	-0.008687743
150	0xbc36148d	-0.011113298
151	0x3ce836de	0.028346475
152	0x3caf141c	0.021371894
153	0x3d9627c7	0.07331806
154	0x3c14186d	0.009039027
155	0xbc37d587	-0.0112203425
156	0x3d5ee0ff	0.05441379
157	0x3d4b1c8f	0.049587782
158	0x3d944508	0.07239729
159	0x3d4fc7ad	0.050727535
160	0xbc3877e2	-0.011259051
161	0x3d887acf	0.06664049
162	0x3d12a28b	0.035799544
163	0x3d3f0dd0	0.046644032
164	0x3da0bb7a	0.07848258
165	0xbcbd7818	-0.023128554
166	0x3d0a58db	0.033776145
167	0x3d01bf93	0.03167684
168	0x3d8c3396	0.06845777
169	0x3d44f832	0.04808826
170	0xbb920a9b	-0.0044568307
171	0xbd104b93	-0.035228323
172	0x3c272742	0.010202231
173	0xbd180060	-0.037109733
174	0xbc80f927	-0.015743805
175	0xbb8ffe27	-0.004394311
176	0x3c810b32	0.015752409
177	0x3c03bf72	0.00804125
178	0x3cee7e7e	0.02911305
179	0x3ccd321d	0.02504831
180	0x3d17308f	0.036911543
181	0x3c799e49	0.015235492
182	0x3d60a90f	0.054848727
183	0x3d4158a2	0.047203667
184	0x3cbdee1c	0.023184828
185	0xbb2ef6db	-0.002669743
186	0x3cc77546	0.024347913
187	0x3ce30f50	0.027717263
188	0xbc8b848b	-0.017030975
189	0x3bd93927	0.0066291275
190	0x3d1726a4	0.036902085
191	0xbbd05a7d	-0.0063584433
192	0xbc847ca8	-0.016172722
193	0xbcb80572	-0.022463534
194	0xbc822a66	-0.015889358
195	0xbbf76701	-0.007550121
196	0x3c4b5b10	0.012411848
197	0xbd5c7713	-0.053824496
198	0xbd24ff3c	-0.040282473
199	0xbd2b012d	-0.04174917
200	0x3b591336	0.0033123023
201	0xbc6419a7	-0.013922132
202	0x3b362a87	0.0027796344
203	0xbc7cfd7e	-0.015441297
204	0x3c2402ed	0.010010463
205	0xbcb1fe77	-0.021727784
206	0xbca3c471	-0.019991131
207	0xbcb9dc26	-0.022687983
208	0x3c982057	0.018570108
209	0xbc7f92a9	-0.015598931
210	0x3cf9746a	0.030451018
211	0x3c1dad5c	0.009623852
212	0xbb14c475	-0.0022700105
213	0xbcbd8dd0	-0.02313891
214	0x3d01d52d	0.03169744
215	0x3b7edd66	0.0038889288
216	0x3d10a599	0.035314176
217	0x3cec0f93	0.02881602
218	0x3c86adb1	0.016440244
219	0x3b329821	0.002725132
220	0xba8eee04	-0.0010904674
221	0xbd226f9a	-0.039657213
222	0x3c53d996	0.0129302945
223	0xbba267db	-0.004956228
224	0xbd352937	-0.04422876
225	0x3cbf2e86	0.023337614
226	0xbce2421c	-0.027619414
227	0xbc51520f	-0.012775912
228	0xbd4abfd1	-0.049499337
229	0xbcd9a0ec	-0.026565991
230	0xbba36bd3	-0.004987219
231	0xbd4b74ff	-0.049672123
232	0xbc56cb40	-0.013109982
233	0xbd7bfa59	-0.061518047
234	0xbce02d75	-0.027365426
235	0x3b2d92da	0.0026485235
236	0xbd6f155e	-0.058369987
237	0xbd321f67	-0.04348698
238	0x3bbfb4c4	0.0058504064
239	0xbcb28670	-0.02179262
240	0x3cbda432	0.023149583
241	0xbd12d113	-0.03584392
242	0xbc1a503b	-0.0094185425
243	0x3b99e299	0.004696202
244	0xbc8794d3	-0.016550457
245	0xbcb6be2c	-0.022307478
246	0xbd625ed6	-0.055266224
247	0x3b149cd2	0.002267648
248	0x3c424dc5	0.011859362
249	0xbd0b96d3	-0.034079384
250	0x3d0f797f	0.035027977
251	0xba06aaea	-0.00051371625
252	0xbc7003ac	-0.014649313
253	0xbc003bb3	-0.007826733
254	0x3d219b9f	0.039455052
255	0xbb8937cd	-0.00418756

bias f4 [32]
0	0x3c6d3805	0.014478688
1	0xbe56cc4f	-0.20976375
2	0x3d1c7ce9	0.03820506
3	0xbc9633af	-0.018335192
4	0xbde456bf	-0.11149358
5	0x3d37022a	0.0446798
6	0xbd004fad	-0.031325985
7	0xbe06471c	-0.13113064
8	0x3c80db1f	0.015729485
9	0xbdbcbba0	-0.09215474
10	0xbdf4b6ca	-0.11948927
11	0x3da17119	0.078829
12	0xbdcbf941	-0.09959651
13	0xbd7f4e7e	-0.062330715
14	0xbdfa29ca	-0.12215002
15	0xbde05251	-0.109532006
16	0xbd7d24d4	-0.0618027
17	0xbe024ee1	-0.12725402
18	0xbd51e9e9	-0.051248465
19	0xbe18beec	-0.14916581
20	0x3a395445	0.0007069747
21	0xbd980d63	-0.07424428
22	0xbd99f0b5	-0.07516614
23	0x3c3219bf	0.010870396
24	0x3d128b06	0.035777114
25	0x3d066530	0.032811344
26	0xbe4af529	-0.19820084
27	0xbe64db34	-0.22349244
28	0x3d37da79	0.044886086
29	0xbde6cae2	-0.112691656
30	0xbd48dd97	-0.04903945
31	0xbe305b6d	-0.17222376

weight f4 [64, 32, 5, 5]
0	0xbcfd13d9	-0.030893253
1	0xbcce973f	-0.025218604
2	0xbd21bd89	-0.039487395
3	0xbd3dca3e	-0.04633545
4	0xbc5b5d2e	-0.013388915
5	0x3d1047cb	0.035224717
6	0x3c94297d	0.01808619
7	0xbca8a35f	-0.020585714
8	0xbcc3912d	-0.023872936
9	0xbc493e66	-0.012282943
10	0xbce5db7a	-0.028058756
11	0x3c802418	0.01564221
12	0xbc844cc6	-0.01614989
13	0xbc90b4e8	-0.017664388
14	0x3c0de266	0.008659935
15	0x3c481017	0.012210867
16	0xbd0be210	-0.034151137
17	0x3c2e8c84	0.010653619
18	0x3ae86f81	0.0017733426
19	0x3d976086	0.07391457
20	0x3c13dde5	0.009025072
21	0x3d2c6b03	0.04209424
22	0x3ad09da9	0.0015916127
23	0xbd0103a1	-0.0314976
24	0x3ca3528e	0.019936826
25	0x3dae2d61	0.08504749
26	0x3d1d3f19	0.038390253
27	0xbd318608	-0.043340713
28	0xbd159ca2	-0.03652633
29	0xbd43fd6b	-0.0478491
30	0x3d2aef67	0.041732218
31	0xbb7d6b8d	-0.0038668842
32	0x3b2d619d	0.0026455887
33	0xbcbe6dd4	-0.02324573
34	0xbc9f16fc	-0.01942014
35	0xbc9d9e1f	-0.019240437
36	0x3c56352a	0.013074199
37	0x3c808940	0.015690446
38	0x3d161623	0.036642205
39	0x3d35a720	0.044348836
40	0xbb831f92	-0.004001566
41	0x3c02f18c	0.00799216
42	0x3a81a8f6	0.0009892273
43	0xbc019430	-0.007908866
44	0xbd01701e	-0.031601064
45	0x39d13d50	0.00039909268
46	0x3cf13118	0.029442355
47	0x3d7d33ad	0.06181686
48	0xbcc0c531	-0.023531528
49	0xbca6105b	-0.02027147
50	0x3cf97aa9	0.030453997
51	0xbca9dd97	-0.020735545
52	0xbcf2c9e0	-0.029637277
53	0xbd42d459	-0.04756579
54	0x3ce58a82	0.028020147
55	0x3d12592f	0.035729583
56	0x3bccedd7	0.0062539387
57	0x3d4ee9cf	0.050515946
58	0x3b012a47	0.0019709037
59	0xbcb4069e	-0.021975812
60	0x3ca4485a	0.020054031
61	0x3c2f8e79	0.0107151205
62	0xbb3b54ed	-0.0028584555
63	0x3d147aa5	0.036249775
64	0x3d09666c	0.033544943
65	0xbce5a248	-0.028031483
66	0x3a972114	0.0011530244
67	0x3c33f16c	0.010982852
68	0xbc39c166	-0.011337614
69	0x3bc23c0e	0.0059275692
70	0xbd427bc4	-0.047481313
71	0x3caf668d	0.021411205
72	0x3d2b0a81	0.041758064
73	0xbd07d3c2	-0.033160932
74	0xbcf4c182	-0.029877428
75	0xbc2df9d3	-0.010618645
76	0x3c9667c9	0.018360035
77	0x3c59ee5c	0.013301458
78	0x3c837260	0.01604575
79	0x3cec43f4	0.028840996
80	0x3cdd1fc8	0.026992694
81	0xbba1b671	-0.004935079
82	0x3c6de30c	0.014519464
83	0x3a4877d5	0.0007647251
84	0xbc9747c7	-0.018466843
85	0x3bf9366a	0.0076053636
86	0x3ac5e957	0.0015099448
87	0xbcdf673d	-0.027270908
88	0xbb94dc29	-0.0045428467
89	0xbc438335	-0.011933138
90	0x3d2027c3	0.03910042
91	0x3d04401d	0.032287706
92	0x3cce4c15	0.025182763
93	0x3c097884	0.00839055
94	0x3bfa1b2c	0.0076326337
95	0xbd1db793	-0.03850515
96	0xbd0a1efa	-0.033720948
97	0x3c16a057	0.009193501
98	0xbd01fba2	-0.031734116
99	0x3c7565f3	0.01497792
100	0xbae903c3	-0.001777761
101	0xbc3b8582	-0.011445405
102	0xbc3557ca	-0.011068294
103	0xbcbe00f3	-0.023193812
104	0xbd0decb9	-0.034649584
105	0x3d5c5608	0.053792983
106	0xbc1230ff	-0.008922814
107	0x3c064bfb	0.008196826
108	0x3c96f1a5	0.018425772
109	0x3b10d9e9	0.002210254
110	0x3d427f66	0.047484778
111	0x39b18a0b	0.0003386292
112	0xbcfd7398	-0.030938908
113	0x3cdf2fc5	0.027244458
114	0xbcdc906f	-0.02692434
115	0xbcf07483	-0.029352432
116	0xbc796f97	-0.015224359
117	0x3c44a7f4	0.012002934
118	0x3d324b4c	0.04352884
119	0xbc9876c2	-0.018611316
120	0x3c27f6b0	0.010251686
121	0x3c0658b2	0.008199858
122	0x3bd93ad7	0.0066293287
123	0x3be41acb	0.006961202
124	0xba8fd2ee	-0.0010972896
125	0xbae0db09	-0.0017155121
126	0xbbab1cf0	-0.0052219555
127	0xbd469a6e	-0.04848712
128	0xbd733389	-0.05937532
129	0x3acbd626	0.0015551492
130	0x3b0b371a	0.002124256
131	0xbbf48efd	-0.0074633346
132	0xbd198b29	-0.03748623
133	0xbc8f0f40	-0.017463326
134	0xbd8270d8	-0.063691795
135	0xbcc9fe23	-0.024657315
136	0xbae8347b	-0.0017715836
137	0xbcc1abcc	-0.02364149
138	0x3c9bbf81	0.019012215
139	0x3ce4b67f	0.027919052
140	0xbd0379a1	-0.032098416
141	0xbd455927	-0.048180725
142	0x3c8bac0b	0.01704981
143	0xbc228cca	-0.009921262
144	0xbcc3cbcd	-0.02390089
145	0xbd4d012c	-0.050049946
146	0x3d0c831b	0.03430472
147	0x3c9ade32	0.01890478
148	0x3d1e1e8f	0.03860336
149	0x3d156990	0.036477625
150	0x3d14c99f	0.036325093
151	0xba174f9c	-0.00057720556
152	0x3cdd6e3b	0.027030101
153	0x3c09f89f	0.008421092
154	0x3cb2b927	0.021816803
155	0xbc872961	-0.016499223
156	0xbd1e665b	-0.038671833
157	0x3d4e9a43	0.050440084
158	0x3d32c6bb	0.043646555
159	0xbb3db28d	-0.0028945536
160	0xbcb94bf6	-0.022619229
161	0x3c9a508a	0.018837232
162	0x3d629148	0.055314332
163	0x3b2e914e	0.0026636901
164	0x3b8f8650	0.004380025
165	0xbd41206d	-0.047150064
166	0xbcfe445f	-0.031038461
167	0xbd0c7d56	-0.034299217
168	0xbd432d6d	-0.047650743
169	0x3d8cfa91	0.06883729
170	0x3c28dbbc	0.010306295
171	0x3af39614	0.0018584155
172	0x3b1e59ee	0.002416249
173	0xbc6d9d6d	-0.014502865
174	0x3ca03ba7	0.019559694
175	0xbca43b17	-0.020047707
176	0xbbbc9d94	-0.0057560895
177	0xbbf76f4d	-0.00755111
178	0xbb2175f1	-0.002463695
179	0xbcb2d93b	-0.0218321
180	0xbc300163	-0.010742518
181	0xbcd2b058	-0.025718853
182	0xbcb00c6c	-0.021490298
183	0xbacb7c70	-0.0015524756
184	0x3bcefda9	0.0063168597
185	0x3c982d27	0.018576218
186	0xbc3d5c27	-0.011557615
187	0xbcfa0bb2	-0.030523155
188	0x3cfad560	0.030619323
189	0xbc404167	-0.011734343
190	0x3c95915a	0.018257786
191	0x3d00e177	0.03146502
192	0x3c584e39	0.0132022435
193	0xbc963ffd	-0.018341059
194	0x3cec9ae1	0.028882446
195	0xbc678057	-0.01412972
196	0xbd1c7194	-0.038194254
197	0x3b8f341e	0.0043702265
198	0xbcab834a	-0.020936627
199	0x3cfda8d5	0.030964294
200	0xbbe356c1	-0.006937832
201	0xbc26f611	-0.010190503
202	0xbb321a7c	-0.002717643
203	0xbc8fcdfa	-0.017554272
204	0xbd338e1b	-0.043836694
205	0x3ca42fa3	0.020042246
206	0xbc9182bb	-0.017762532
207	0xbcfe175d	-0.031017
208	0xbc4c82ce	-0.012482358
209	0xbcd8693a	-0.026417363
210	0x3cc39c21	0.023878159
211	0xbc99cba9	-0.01877387
212	0xbcd45af5	-0.025922278
213	0xbd1d5730	-0.038413227
214	0x3c9ee751	0.01939741
215	0xbbbf015e	-0.0058290204
216	0xbc2d8a1e	-0.010592012
217	0xbc6e95d1	-0.014562086
218	0xbd077182	-0.033067234
219	0xbcce9029	-0.025215225
220	0xbcc732ae	-0.024316158
221	0xbcd8e504	-0.02647639
222	0x3d03c1de	0.032167308
223	0x3cc35d9c	0.023848347
224	0x3caf357e	0.021387812
225	0xbb9262c6	-0.004467341
226	0xbd0c9d43	-0.034329664
227	0xbbaa8c4d	-0.0052047134
228	0xbd041ead	-0.032255817
229	0xbcc1497f	-0.023594616
230	0xbccca4f9	-0.024981009
231	0xbbdfe45d	-0.006832643
232	0xbc0c3ef6	-0.008559933
233	0xbd082235	-0.033235747
234	0xbbb69322	-0.005571739
235	0xbcaed9dd	-0.02134412
236	0xbcda1b8a	-0.02662446
237	0xbb10e6f0	-0.0022110306
238	0xbc53551f	-0.012898712
239	0xbcdda93c	-0.027058236
240	0x3c19be6e	0.009383781
241	0xbd000c49	-0.031261716
242	0xbd2ffacc	-0.042963788
243	0xbd26f236	-0.040758334
244	0x3cd5b3e6	0.026086759
245	0xbd330b48	-0.04371193
246	0xbc9100e0	-0.017700613
247	0x3ba1bf82	0.0049361596
248	0xb9bb3d34	-0.0003571302
249	0x3d09a95f	0.03360879
250	0xbc68166f	-0.014165505
251	0xbd3c22bc	-0.045931563
252	0xbccb3e41	-0.024809958
253	0xbd3a5b04	-0.045496956
254	0x3bfeaedf	0.007772311
255	0x3b2207c8	0.0024723876

bias f4 [64]
0	0xbd6149d0	-0.055002034
1	0xbd6a4a1b	-0.05719958
2	0xbd6e3b94	-0.058162287
3	0xbdce4efc	-0.10073659
4	0xbd8828d2	-0.06648411
5	0xb95953c6	-0.0002072594
6	0xbda02fc0	-0.078216076
7	0xbd9629d1	-0.073321946
8	0x3c9248d2	0.017856989
9	0xbd8429fd	-0.06453321
10	0xbd2d5c6d	-0.042324472
11	0xbd87f7b8	-0.066390455
12	0xbc8e3a6e	-0.017361846
13	0xbd203b5e	-0.039119117
14	0xbcaeb876	-0.021328192
15	0xbc95b7be	-0.018276092
16	0xbd801336	-0.06253664
17	0x378d0aea	1.6813592e-05
18	0xbdc77b16	-0.09740274
19	0xbdc7a90d	-0.09749041
20	0xbd2d3078	-0.04228255
21	0xbdfb738b	-0.122778974
22	0xbc80b87e	-0.015712973
23	0xbd4939da	-0.049127437
24	0xbdb355cc	-0.08756599
25	0xbdf8610b	-0.121278845
26	0xbd602107	-0.054718997
27	0xbdc8e4ad	-0.098092414
28	0xbd3b8659	-0.04578242
29	0xbd57c180	-0.05267477
30	0xbd6bbf5e	-0.05755555
31	0x3b5c72dc	0.0033637797
32	0xbbd29611	-0.0064265807
33	0xbca720b8	-0.020401344
34	0xbcde947b	-0.02717041
35	0xbb25d376	-0.0025303042
36	0xbd8afb40	-0.067862034
37	0x3cc21493	0.023691451
38	0x3d194ed7	0.037428703
39	0xbb9b1c2f	-0.0047335844
40	0xbdb5f8c8	-0.08885342
41	0xbdcbd9c4	-0.09953645
42	0xbd9c8555	-0.076426186
43	0xbdb72b52	-0.089438096
44	0xbccf7c42	-0.025327805
45	0x3c7436b7	0.014905623
46	0xbcedd3aa	-0.029031593
47	0xbd49f72e	-0.049307995
48	0xbd1ca6da	-0.03824506
49	0xbd3d210a	-0.046174087
50	0x3be37e36	0.0069425358
51	0xbdd344a7	-0.10315829
52	0xbdcf5aa1	-0.10124708
53	0xbcb7344a	-0.0223638
54	0x397edabb	0.00024304811
55	0xbe0042de	-0.12525508
56	0xbd803c7a	-0.06261535
57	0xba58ae71	-0.000826574
58	0xbd292f7a	-0.041305043
59	0xbd9b7d9d	-0.07592318
60	0xbd541884	-0.051781192
61	0xbd4ad3a4	-0.049518242
62	0x3cf1e24e	0.029526856
63	0xbab5f55a	-0.0013882325

weight f4 [64, 1024]
0	0x3b558dbd	0.0032585703
1	0xbceee311	-0.029161008
2	0x3ade7ed0	0.0016975049
3	0x3cb37529	0.021906452
4	0x3c99e070	0.018783778
5	0x3b7bfd00	0.003845036
6	0x3bb4733c	0.005506901
7	0xbc9c129a	-0.019051839
8	0x3d08727e	0.033312313
9	0x3cb500d3	0.02209512
10	0x3c30a4e6	0.010781502
11	0x3ccb9ac5	0.024854073
12	0xbcb65b16	-0.02226023
13	0xbcf93e5a	-0.03042524
14	0xbc61ffbc	-0.013793882
15	0xbb3ac0e7	-0.0028496326
16	0xbce15a65	-0.027508924
17	0xbcbed86a	-0.023296554
18	0xbc94d5b3	-0.018168306
19	0x3cd7551b	0.026285699
20	0x3b2f945a	0.0026791305
21	0x3ba0ee23	0.0049112006
22	0x3c225267	0.009907342
23	0x3c8ba404	0.017045982
24	0x3b4f53a8	0.0031635556
25	0x3c70525f	0.014668076
26	0xbcc1f22f	-0.023675052
27	0xbc0eb664	-0.0087104775
28	0xbd2e8572	-0.042607732
29	0xbccaa6ac	-0.024737678
30	0x3d277f2c	0.040892765
31	0x3d3162ca	0.043307103
32	0x3c674fe5	0.014118169
33	0xbd8c1e84	-0.06841758
34	0xbbedc82b	-0.007256528
35	0xbc3b4b9c	-0.011431601
36	0xbcaf2203	-0.021378523
37	0x3b2ba661	0.00261917
38	0xbcfc264c	-0.03077998
39	0xbc3b4133	-0.011429119
40	0x3ceafa69	0.028683858
41	0x3cdabcce	0.026701357
42	0x3d307041	0.043075804
43	0x3d1acd41	0.0377934
44	0xbcea809c	-0.028625779
45	0xbc0d2280	-0.0086141825
46	0x3c04ea00	0.008112431
47	0x3d6eace5	0.058270354
48	0xbbd82726	-0.0065964637
49	0x3c5a0dd3	0.01330896
50	0x3b67b032	0.0035352823
51	0xbd2f18d1	-0.042748276
52	0x3d652765	0.055945773
53	0x3cbe93ec	0.023263894
54	0x3c700580	0.014649749
55	0x3d6586e6	0.056036852
56	0xbc49906a	-0.012302497
57	0x3d5aff9b	0.05346642
58	0x3ca99d72	0.020704959
59	0x3d264965	0.04059734
60	0x3cddecdd	0.027090484
61	0xbb51be7d	-0.003200441
62	0xbc95d42f	-0.018289654
63	0xbade67dd	-0.001696821
64	0x3baec70c	0.005333787
65	0xbc21a75e	-0.009866564
66	0x3c40ee9d	0.01177564
67	0x3c127fa6	0.008941567
68	0x3d2f515a	0.042802192
69	0x3c25969f	0.010106712
70	0x3c9b2c68	0.018942073
71	0xbd1a447a	-0.03766296
72	0xbcba1927	-0.022717072
73	0xbcbc255f	-0.022967039
74	0x3bfe9ec3	0.0077703907
75	0xbbc039f7	-0.005866285
76	0x3d35e94c	0.044411942
77	0xbb92ec4d	-0.0044837357
78	0x3c9d8b31	0.01923141
79	0x3b40a774	0.0029396685
80	0xbb9e32ef	-0.004827849
81	0x3d11ddf5	0.035612065
82	0x3cfda516	0.030962508
83	0x3a65c3c7	0.000876483
84	0xbcc18168	-0.023621276
85	0xbb9da130	-0.004810475
86	0xbcba71a1	-0.02275926
87	0x3cd0f2c7	0.02550639
88	0x388afd0c	6.6274864e-05
89	0xba671444	-0.00088149705
90	0xbbc592c0	-0.006029457
91	0xbc26aef6	-0.01017355
92	0x3c26e083	0.010185364
93	0xbcc83dfe	-0.024443623
94	0xbb31459f	-0.0027049554
95	0xbd051555	-0.032491047
96	0x3d3348b9	0.043770526
97	0xbc453696	-0.01203694
98	0xbca0a4f3	-0.019609904
99	0xbc3fea64	-0.011713598
100	0x3cf55376	0.029947024
101	0xb859d6ca	-5.193687e-05
102	0xbc940c3a	-0.018072236
103	0x3b9f9783	0.0048703565
104	0xbcf9b701	-0.03048277
105	0xbca358fd	-0.019939894
106	0x3cd48a4f	0.025944857
107	0xbc33568a	-0.0109459255
108	0x3c5050b6	0.0127145555
109	0x3bc54dc1	0.006021232
110	0x3c5fa0f5	0.013649215
111	0x3caa3eec	0.020781957
112	0xbca35e7c	-0.019942515
113	0x3c6a9123	0.01431683
114	0xbcabdbef	-0.020978896
115	0x3c856165	0.016281793
116	0x3d058e29	0.032606278
117	0xbd05ab2b	-0.03263394
118	0xbba08dcd	-0.0048997165
119	0x3c19455c	0.0093549155
120	0x3cc8c33e	0.024507161
121	0xbcf51065	-0.029915044
122	0x3b2ec218	0.0026665982
123	0xbc37f7b1	-0.011228488
124	0xbc8665b1	-0.016405912
125	0x3ab1228f	0.0013514328
126	0x3c39cb7d	0.011340019
127	0x3cc21da4	0.023695774
128	0x3cdb3f6e	0.026763644
129	0x3c8d8cea	0.017279107
130	0xbcc818c9	-0.024425881
131	0x3d119ac8	0.035548
132	0xbc940076	-0.018066626
133	0xbc7621ae	-0.015022678
134	0xbce67934	-0.028133966
135	0x3cf01d02	0.029310707
136	0x3d154826	0.03644576
137	0x3c96b243	0.018395549
138	0xbcb1fee1	-0.021727981
139	0x3bf02a3e	0.0073292544
140	0xbcae762f	-0.021296589
141	0xbc9d7686	-0.019221555
142	0xbc5c7ac9	-0.013457009
143	0xbbbc3186	-0.0057432083
144	0xbcd21c91	-0.025648387
145	0x3953e0b7	0.00020206241
146	0xbd10d5d4	-0.035360172
147	0x3c8cc2d2	0.017182741
148	0xbca6947a	-0.020334471
149	0xbc37a70d	-0.011209262
150	0xbc0f2375	-0.008736481
151	0x3c2525f9	0.010079854
152	0x3b2909a1	0.0025793093
153	0x3cd45ba7	0.02592261
154	0x3cd557f8	0.026042923
155	0x3d21c954	0.039498642
156	0xbce590a2	-0.028023068
157	0xbd0219d3	-0.03176291
158	0x3d0e341a	0.034717657
159	0xbc00e597	-0.0078672385
160	0x3ce8eebc	0.02843415
161	0x3bca59dc	0.006175263
162	0xbbfbd153	-0.0076848655
163	0x3c007f33	0.007842827
164	0xbd138b18	-0.036021322
165	0xbceacc90	-0.028661996
166	0xbc1617ff	-0.009160995
167	0xbd1a62a0	-0.037691712
168	0x3c96f0c5	0.018425355
169	0x3cb7217b	0.022354832
170	0x3cb2cca1	0.02182609
171	0xbc84a8c5	-0.016193757
172	0xbc2bcd84	-0.01048601
173	0x3c068ff9	0.008213037
174	0x3d19ce15	0.03755005
175	0x3c02c071	0.007980452
176	0x3ca8f469	0.020624356
177	0x3c65a8e9	0.014017322
178	0x3c632514	0.013863821
179	0x39e7fe7f	0.00044249368
180	0xbbb57d7f	-0.005538642
181	0x3ce1ea61	0.02757758
182	0x3cd07738	0.025447473
183	0xbcba01d8	-0.022705957
184	0x3b9f4e03	0.0048615946
185	0xbd68ac82	-0.05680514
186	0xbcc6251f	-0.024187623
187	0x3c587294	0.013210911
188	0x3ccf6c11	0.025320085
189	0xbc9a966c	-0.018870555
190	0xbaffacf9	-0.0019506506
191	0xbd16e8d9	-0.036843155
192	0x3c0b43d3	0.008500057
193	0xbbabd7fa	-0.0052442523
194	0x3d744883	0.059639465
195	0x3d0de96e	0.034646444
196	0x3c9b50aa	0.018959362
197	0xbd297fae	-0.04138153
198	0xbca8234a	-0.02052464
199	0xbcae807c	-0.0213015
200	0xbd1699bc	-0.036767706
201	0x3ce2b43d	0.027673835
202	0x3d18c075	0.037292916
203	0xbb81b91b	-0.003958834
204	0xbc69967e	-0.014257072
205	0xbc2af4d0	-0.010434344
206	0xbb499f1d	-0.0030765005
207	0x3d289eec	0.041167185
208	0xbc80f0bc	-0.015739791
209	0xbcb0dd9c	-0.021590047
210	0x3d2e7f7f	0.04260206
211	0xbbfdbdcc	-0.007743573
212	0x3d3533a6	0.04423871
213	0x3d13d204	0.03608896
214	0x3c95e2ed	0.018296683
215	0xbb81f46c	-0.003965905
216	0x3cba17c3	0.022716409
217	0x3c16423c	0.009171065
218	0x3cbfdab1	0.02341971
219	0xbc3586fa	-0.011079544
220	0xbb35f33c	-0.0027763387
221	0xbca15522	-0.019693915
222	0x3cd169d2	0.025563154
223	0xbc9ceb35	-0.019155124
224	0x3ae42bca	0.001740807
225	0xbced3b19	-0.028958844
226	0xbd4c441d	-0.049869645
227	0xbd4d0265	-0.05005111
228	0x3c96654a	0.018358845
229	0x3d13cdbc	0.036084875
230	0x3c6683ff	0.014069556
231	0xbc69a579	-0.014260643
232	0x3c521c56	0.012824139
233	0xbc518ad9	-0.0127894515
234	0x3cae88c1	0.021305444
235	0xbcde249d	-0.027117068
236	0x3820eef9	3.8369533e-05
237	0xbc9a6487	-0.018846763
238	0xbc545790	-0.01296033
239	0xbb237395	-0.0024940718
240	0x3d0f4582	0.034978397
241	0xbcc4fb62	-0.02404565
242	0x3b58ab7f	0.0033061204
243	0xb9a1ce61	-0.00030862077
244	0xbd1cff49	-0.038329396
245	0xbc066564	-0.008202884
246	0x3c3fc939	0.01170569
247	0xbb057650	-0.002036471
248	0xbcb561d8	-0.022141382
249	0xbb8709bc	-0.0041210335
250	0x39929732	0.0002795994
251	0x3d1313b9	0.03590748
252	0x3cad02e0	0.021119535
253	0xbb310031	-0.002700817
254	0xbb8ec9ba	-0.004357544
255	0xbbc2c28a	-0.005943601

bias f4 [64]
0	0xbd0e1c65	-0.034695048
1	0xbc7c93ac	-0.015416067
2	0xba813a7a	-0.0009859346
3	0xbd4d29b4	-0.0500886
4	0xbc039068	-0.008030035
5	0xbba9d890	-0.005183287
6	0x3c75c82a	0.015001336
7	0x3beac22f	0.007164262
8	0xbc762909	-0.015024432
9	0xbc88fa00	-0.016720772
10	0x3bd59fa2	0.006519274
11	0xbd01fdcd	-0.031736184
12	0x3cb16d26	0.021658491
13	0xbc581756	-0.0131891575
14	0xbbbcb8c4	-0.0057593305
15	0x3bac92f8	0.0052665435
16	0x3cac0f58	0.02100341
17	0x3cb30c1a	0.021856356
18	0x3c8afe53	0.016966974
19	0x3c5c4ee3	0.013446542
20	0x3ce356b8	0.027751312
21	0xbc80abe0	-0.015706956
22	0x3b1fa7e0	0.0024361536
23	0xbca7d399	-0.02048664
24	0xbcdb37b3	-0.026759958
25	0xbc35d511	-0.011098162
26	0x3d255326	0.0403625
27	0x3c0e88cd	0.008699608
28	0xbd499649	-0.04921559
29	0xbb802a51	-0.0039112945
30	0xbd3d591e	-0.046227567
31	0xbd3d5e1a	-0.04623232
32	0x3d13d9e5	0.036096472
33	0x3ce6cfed	0.028175319
34	0x3d8a50f2	0.0675372
35	0x3c52e9ab	0.012873094
36	0x3c595a78	0.013266198
37	0xbd2e3357	-0.04252943
38	0x3c737742	0.014859976
39	0xbb3a442b	-0.002842198
40	0x3aee7b00	0.0018194616
41	0x3c95c9a7	0.018284632
42	0xbd0e2936	-0.03470727
43	0xbd67c6af	-0.056585964
44	0xbca6c78d	-0.020358825
45	0x3d39bb3b	0.045344573
46	0xbc8d2e6e	-0.017234053
47	0x3d913740	0.07090616
48	0xbbec783b	-0.007216481
49	0xbbc091f8	-0.005876776
50	0xbcfd6b60	-0.03093499
51	0xbc67655f	-0.01412329
52	0xbc999323	-0.018746918
53	0x3a4630bf	0.00075603643
54	0xbd51ffd9	-0.051269386
55	0xbc89f774	-0.016841628
56	0x3d19bffd	0.03753661
57	0xbc608cfb	-0.013705487
58	0xbd162bbf	-0.036662813
59	0xbd3e471c	-0.046454534
60	0x3c0989c6	0.008394664
61	0x3d0f592c	0.03499715
62	0x3c95ac11	0.018270524
63	0x3d12f01a	0.03587351

weight f4 [10, 64]
0	0xbde73447	-0.11289268
1	0x3e66d202	0.22541049
2	0xbd47fb13	-0.048823427
3	0x3b421696	0.0029615513
4	0xbe2a7e3f	-0.16649722
5	0x3e560281	0.20899393
6	0xbe492785	-0.19643982
7	0xbcbc27e6	-0.022968244
8	0xbdd4510c	-0.10367021
9	0x3eaeb8a1	0.34125236
10	0xbdad114a	-0.08450563
11	0x3e92a3b7	0.2864053
12	0xbe1a91ab	-0.1509463
13	0xbe0d1a9c	-0.13779682
14	0x3e0d9ffd	0.13830562
15	0xbcab7940	-0.02093184
16	0x3df65ed3	0.12029805
17	0x3e555830	0.20834422
18	0x3d8905f5	0.06690589
19	0xbe193f1f	-0.14965485
20	0x3e209ef6	0.15685639
21	0x3dbf6063	0.09344556
22	0xbe03f2ab	-0.12885539
23	0x3e30391d	0.17209287
24	0x3e1455af	0.1448581
25	0x3cd48730	0.025943369
26	0xbe2772c6	-0.16352376
27	0x3e184496	0.14869913
28	0xbc2a6b60	-0.010401577
29	0x3e2502a8	0.16114295
30	0x3e4fd854	0.20297366
31	0x3e0f24a3	0.1397882
32	0xbe874a90	-0.26424074
33	0x3d8a6296	0.06757085
34	0xbe4a65ef	-0.19765447
35	0xbd76869e	-0.060186975
36	0x3cdb00c4	0.026733764
37	0x3e75c788	0.24001896
38	0x3e1e39a2	0.15451673
39	0x3e3efdd1	0.18651511
40	0xbda50f7c	-0.08059594
41	0xbe2596f8	-0.16170871
42	0xbdc0886f	-0.09401023
43	0x3e168a3c	0.1470117
44	0xbd90171f	-0.0703566
45	0xbdceed5e	-0.10103868
46	0xbe4991b1	-0.19684483
47	0xbdf017e2	-0.11723305
48	0xbdd519fc	-0.10405347
49	0x3e767ff1	0.24072243
50	0xbcd535f1	-0.026026698
51	0x3e3f983e	0.1871042
52	0x3e2ad2e1	0.16682006
53	0x3e1481d2	0.14502648
54	0xbcab8ac1	-0.020940186
55	0x3cfbdc88	0.030744806
56	0x3e267711	0.16256358
57	0x3db738dc	0.08946392
58	0x3d865c08	0.06560522
59	0x3dee4a1d	0.1163523
60	0xbd6fbc5e	-0.05852925
61	0x3c9c82ee	0.0191054
62	0xbcaff173	-0.021477437
63	0xbd4c5834	-0.049888805
64	0x3e14c016	0.145264
65	0x3e873fc3	0.26415834
66	0xbcfaf831	-0.030635925
67	0x3e4e7fd3	0.20165949
68	0x3cac7139	0.021050083
69	0xbe84b2b1	-0.2591758
70	0x3c056eab	0.008144061
71	0x3e0b7c76	0.13621697
72	0x3e6b5141	0.22980215
73	0x3deb7cee	0.11498438
74	0xbde68d32	-0.112573996
75	0xbdad5625	-0.084636964
76	0x3e17cb5b	0.14823668
77	0x3e18bda7	0.14916097
78	0xbe33902b	-0.17535464
79	0x3d27f63a	0.041006304
80	0xbe421e2e	-0.18956825
81	0xbea57cdd	-0.32321826
82	0x3ea31f40	0.3185978
83	0x3e53b60a	0.20674911
84	0xbe5f0f05	-0.21783073
85	0x3e67292b	0.22574298
86	0x3e1ed7b3	0.1551197
87	0x3e83bd90	0.25730562
88	0xbe082e17	-0.13298832
89	0xbe788573	-0.24269657
90	0x3e071b53	0.13194017
91	0x3dc4030b	0.09570893
92	0xbe433272	-0.19062212
93	0xbe97a06d	-0.29614583
94	0x3e8d77c8	0.27630448
95	0xbd9453f4	-0.07242575
96	0x3e8d3eca	0.27586967
97	0x3d3ba295	0.045809347
98	0xbdc66000	-0.09686279
99	0x3d4a14a3	0.049336087
100	0x3e9e41e2	0.3090964
101	0xbe60cddd	-0.2195353
102	0xbcba1cf8	-0.022718892
103	0x3daf21f8	0.08551401
104	0xbdfbc521	-0.12293459
105	0xbeb1c2f3	-0.34719047
106	0x3e846e41	0.25865367
107	0x3e2aa8f9	0.1666602
108	0xbdbb2fbe	-0.091399655
109	0x3e6f0c78	0.233446
110	0x3ccc052a	0.024904806
111	0xbe0d6e7c	-0.13811678
112	0x3e095a04	0.13413244
113	0x3de412d8	0.11136407
114	0xbe033efa	-0.12816992
115	0xbce0395d	-0.027371103
116	0x3dfe3f2b	0.12414392
117	0x3df1837a	0.11792655
118	0xbe92ccba	-0.2867182
119	0x3e5c55b7	0.21517073
120	0xbc4f11fa	-0.012638563
121	0x3d428487	0.04748967
122	0x3df98983	0.121844314
123	0x3c7c8a6c	0.015413862
124	0x3e9f404e	0.31103748
125	0x3dcb3c21	0.09923578
126	0x3dd3fefb	0.10351368
127	0x3e5cbba9	0.21555962
128	0x3e02f966	0.1279045
129	0xbdbc760e	-0.09202205
130	0xbdb284bc	-0.08716723
131	0x3e22b61f	0.15889786
132	0x3d87ecf6	0.066369936
133	0x3e6acca8	0.22929633
134	0xbe61e857	-0.22061287
135	0xbe83684d	-0.25665513
136	0x3e1a2120	0.15051699
137	0x3e69a609	0.22817244
138	0xbb9c839d	-0.0047764317
139	0x3ba7b591	0.00511808
140	0xbdcc6864	-0.099808484
141	0x3e3d535b	0.18488829
142	0xbe7fec97	-0.24992596
143	0x3d298683	0.041388046
144	0xbdaba8b3	-0.08381786
145	0x3e9e657e	0.30936807
146	0xbe628302	-0.22120288
147	0x3d5ff939	0.054681037
148	0x3de116c1	0.10990668
149	0xbcaaec1f	-0.020864544
150	0xbd7a3311	-0.061083857
151	0xbe29ef7e	-0.16595265
152	0xbde6537b	-0.112463914
153	0x3e8e06d8	0.27739596
154	0x3ba687ea	0.00508212
155	0xbe3820bd	-0.17981239
156	0x3d431dd5	0.047635872
157	0x3c906ee0	0.017630994
158	0xbe60c3ec	-0.21949738
159	0xbda39119	-0.079866596
160	0xbe273618	-0.16329229
161	0x3d8aea16	0.067829296
162	0xbd6b5d4e	-0.05746203
163	0xbdba9697	-0.09110754
164	0xbe2fe7c3	-0.17178254
165	0x3e141470	0.14460921
166	0x3be12e68	0.006871987
167	0x3e128305	0.14307792
168	0x3db38b94	0.08766857
169	0x3e3a8c4c	0.18217582
170	0xbd6821a4	-0.056672707
171	0xbe98a566	-0.2981369
172	0xbdcc37ba	-0.099715665
173	0xbd412592	-0.04715497
174	0xbe42685b	-0.18985121
175	0x3d7cc4d2	0.06171114
176	0xbd0f84be	-0.035038702
177	0x3e1b9406	0.15193185
178	0x3e5eff7f	0.21777152
179	0x3e7a9946	0.24472532
180	0xbd1b5501	-0.037922863
181	0x3e696ee7	0.22796212
182	0xbe2b21fa	-0.1671218
183	0xbe37bc0f	-0.17942832
184	0xbe63110b	-0.2217447
185	0xbc6ce636	-0.014459183
186	0xbd8c0fc8	-0.068389475
187	0xbe3b2890	-0.18277192
188	0x3d8ddb8c	0.06926641
189	0x3d36ece5	0.044659514
190	0xbe1aa8df	-0.15103482
191	0x3decb84a	0.11558588
192	0x3e0041ee	0.1252515
193	0xbe0cdad8	-0.13755357
194	0x3d76f4ad	0.060291935
195	0xbc71b832	-0.014753388
196	0xbe16128f	-0.14655517
197	0xbe82e14d	-0.25562516
198	0xbe14b3b7	-0.14521681
199	0xbdd4504c	-0.10366878
200	0x3e29021c	0.16504711
201	0xbe3f3aa7	-0.18674718
202	0xbe15ad36	-0.14616856
203	0x3c60db70	0.013724193
204	0xbe097a0b	-0.13425462
205	0xbd76842e	-0.06018465
206	0xbe1ac1e0	-0.1511302
207	0xbe263277	-0.16230188
208	0x3e770d9f	0.2412629
209	0xbe3dc59c	-0.18532413
210	0xbe01cead	-0.12676497
211	0xbe35fd88	-0.17772496
212	0xbdb91dcd	-0.09038887
213	0xbe035938	-0.12827003
214	0xbdddc134	-0.10827866
215	0xbe416033	-0.18884353
216	0x3dec78f9	0.11546511
217	0x3dfab66a	0.12241824
218	0xbd0d78c8	-0.034539014
219	0x3c1b7cde	0.00949022
220	0x3c5336d6	0.012891492
221	0x3d946b08	0.07246977
222	0xbe329c47	-0.17442428
223	0xbe186e97	-0.14885937
224	0x3da2b259	0.07944173
225	0x3e0df378	0.13862407
226	0xbe2c09d1	-0.1680062
227	0xbd84aefa	-0.06478687
228	0x3e1f7994	0.15573722
229	0xbdb65507	-0.089029364
230	0xbd16f064	-0.036850348
231	0x3de54207	0.11194234
232	0xbe403843	-0.18771462
233	0xbd99855e	-0.07496141
234	0x3dcf06bc	0.10108706
235	0xbd69fe1f	-0.057127114
236	0x3d7f3438	0.06230566
237	0x3d9d1462	0.07669903
238	0xbd57ad0b	-0.05265526
239	0x3dff3d87	0.12462907
240	0xbe0436bc	-0.12911505
241	0xbe173ef1	-0.14770104
242	0xbe3e2461	-0.18568565
243	0xbcc3769e	-0.023860272
244	0xbe0cccc1	-0.13749982
245	0x3d604371	0.054751817
246	0x3d49df47	0.0492852
247	0xbe7221ba	-0.23645678
248	0xbd9bcdb2	-0.07607593
249	0xbe0367f0	-0.12832618
250	0x3dc92f31	0.09823454
251	0x3e33b707	0.17550288
252	0xbe3d8145	-0.18506344
253	0x3da6fdd4	0.081538826
254	0xbdbd0e35	-0.092312254
255	0xbd9114dd	-0.070840575

bias f4 [10]
0	0xbe47afd6	-0.1950067
1	0xbd50c2bf	-0.050966974
2	0xbb0cf830	-0.0021510236
3	0xbcbe2ee4	-0.023215719
4	0x3e30e294	0.17273933
5	0xbce988ee	-0.028507676
6	0x3d7867c6	0.06064584
7	0xbd3f30ae	-0.046677284
8	0xbcaebdb7	-0.021330697
9	0x3bdbba16	0.006705533
