models/gpu_train_model2.pth (torch, 587335 bytes, 10 tensors)

weight f4 [32, 3, 5, 5]
000000 28 5c a0 3c ac ab fc 3d 73 2f db 3c d8 62 98 bc
       0.019575194 0.12337431 0.026756024 -0.01860182
000010 20 5f b2 bd c3 70 33 bd a8 77 3a 3d 1b e3 eb 3d
       -0.0870955 -0.04380871 0.04552427 0.11517926
000020 44 13 44 bd b3 9e ac bc 9b 9e 9e 3c f4 fb d8 3d
       -0.047869936 -0.021071767 0.019362738 0.10594931
000030 f3 12 b6 3b 71 29 04 bd 0e 43 84 bc 4a 79 a7 3d
       0.005556458 -0.032266084 -0.016145255 0.08177431
000040 c5 e1 06 bd d4 e6 6b bd c5 9f 22 bd e1 a3 eb 3d
       -0.032930154 -0.05759318 -0.03970315 0.11505867
000050 b8 05 8a bd f8 7d 87 bd 8c 17 c2 3d 64 04 2d 3d
       -0.06739372 -0.066158235 0.094771475 0.042240515
000060 ee 6e de 3d b3 a2 84 3d 23 93 9d 3d 5e 46 95 bd
       0.10861002 0.06476345 0.0769408 -0.07288812
000070 af 94 55 3d 43 1c 72 bd fb 01 b4 3d 53 ab 7f bd
       0.05214375 -0.059108984 0.0878944 -0.062419247
000080 fd 51 13 3c 01 0a a0 bd f3 3d d6 3c 0e e6 ce 3c
       0.0089917155 -0.07814408 0.026152587 0.025256183
000090 e1 c9 fc 3c ff 11 29 3d 73 16 d9 bc 7a 77 8f bd
       0.030857982 0.041276928 -0.026499962 -0.0700521
0000a0 89 67 82 bd 6c be ba bd 4c 2c 06 3d 2a e6 a0 3c
       -0.06367404 -0.09118351 0.03275709 0.019641
0000b0 23 e6 e1 3d 8b d6 09 bd e8 6b 9b 3c e9 96 53 3d
       0.11030223 -0.03365187 0.018972352 0.05165759
0000c0 e0 51 d8 3a 1a 3a 73 3d 0c e3 0b 3d 96 eb 8a 3d
       0.0016503893 0.05938158 0.034152076 0.06783216
0000d0 ff ac 07 be 65 31 15 be e2 fb 86 bd e6 58 ce bd
       -0.13249587 -0.14569624 -0.065910116 -0.1007555
0000e0 3c 4a cf bc 5e 91 35 bd b6 fd 12 be 1c f0 fd bd
       -0.025303952 -0.044328086 -0.14354596 -0.12399313
0000f0 c3 fb 96 bd 5f d1 ae b8 44 3f f3 bc ca 0c c9 b9
       -0.073722385 -8.335965e-05 -0.029693253 -0.00038347236
000100 76 88 c7 3c d4 be 95 bd a1 1b 21 3d e5 3d e8 bd
       0.024357062 -0.07311788 0.03933299 -0.113399304
000110 8b 4b 7d 3d a1 c3 ba 3a 99 a8 ef bd 95 a1 a2 3d
       0.06183962 0.0014248976 -0.11702079 0.079409756
000120 f8 8c a8 bc a8 51 ad bd 8f 44 04 bd c8 37 ad 3d
       -0.020575032 -0.0846284 -0.032291945 0.08457905
000130 72 db a7 3c 18 1a 4a 3c 8f fd d2 3c d3 b5 89 bd
       0.020490382 0.012335323 0.025755672 -0.06724133
000140 03 52 a6 bd 23 8a 9f bd bb 4e e4 bd be a9 12 3c
       -0.08121111 -0.07790019 -0.11147829 0.0089516025
000150 0a 5b ee 3d c0 02 db bd 84 29 76 bd 03 28 92 bd
       0.11638458 -0.10693884 -0.060098186 -0.07136538
000160 33 5b f4 3d 80 5d 94 3d 93 aa 95 3d 89 e2 a9 bd
       0.11931457 0.07244396 0.07307925 -0.08295161
000170 1d ed 0e 3c 1f fa ba 3c 10 10 f1 3d 38 4e e3 3d
       0.008723524 0.022824345 0.11770642 0.110989034
000180 de dc ed bd a9 84 7d 3d c1 33 d5 3d a2 32 fe 3b
       -0.11614393 0.061894093 0.10410262 0.0077575007
000190 86 13 d2 3d bd f2 9b bd aa da e2 3c 9e d0 7e 3c
       0.1025763 -0.07614658 0.027692158 0.015552668
0001a0 53 70 f4 3d 6c de 72 bd d1 d1 4e 3d 7e 36 c6 bd
       0.11935487 -0.05929415 0.050493065 -0.09678362
0001b0 a5 ed 86 3d 7e 4d b1 3d 6f 3e 49 bd 37 4e d8 3d
       0.06588296 0.086573586 -0.049131807 0.10561793
0001c0 a4 14 21 bd ea 00 48 3d 40 a3 4e 3d 26 c0 a7 3d
       -0.039326325 0.048828997 0.050448656 0.08190946
0001d0 b0 86 b3 bd bc 8a f0 3d 83 85 ad 3d c6 90 90 3d
       -0.08765924 0.117452115 0.08472731 0.07058863
0001e0 5a 52 48 3d 52 62 60 3d 98 f8 cc 3d 84 7e 2e 3b
       0.04890666 0.054781266 0.10008353 0.0026625702
0001f0 6e ef 96 3d 91 1f a8 3d f0 c2 86 bc 6d a8 ff bd
       0.07369886 0.08209146 -0.016450375 -0.124832965
000200 4b cc 88 bd 27 04 9f bd be 44 60 bc dd 6c 02 3c
       -0.06679591 -0.07764464 -0.013688264 0.007960525
000210 f8 fa 24 3c 63 6b 88 3c 17 9d 6a bc 0d d9 a1 bd
       0.010069601 0.016652768 -0.01431968 -0.07902727
000220 4d 44 90 3d 26 d1 ad 3d d2 9e a3 3c 81 54 98 bd
       0.07044277 0.084871575 0.019973192 -0.07437993
000230 3c 04 f5 bd 09 4c 9e bd f2 0c f5 3b b5 53 c5 bd
       -0.11963698 -0.07729346 0.00747835 -0.096351065
000240 51 87 3c bc 9f 4a b8 bd 06 a5 bf 3c 13 3a 0f bd
       -0.011506871 -0.08998608 0.023394119 -0.034967493
000250 56 77 ba 3d 5c 45 39 3d 4c fe 59 bd bc e2 de 3d
       0.09104793 0.045232162 -0.053221032 0.1088309
000260 a1 c6 8e 3d a8 b7 2a 3d 52 a2 2c 3d b2 fb df bd
       0.06971479 0.041679054 0.04214699 -0.10936679
000270 a1 25 03 3e a8 60 01 3e dc 80 a8 bd d7 76 56 bd
       0.12807323 0.12634528 -0.08227703 -0.05235943
000280 c2 85 75 bd 8d ac 84 3d 6f 61 0a 3e 5f b9 b5 3c
       -0.059942015 0.06478224 0.1351373 0.022183118
000290 c9 c4 b9 3d ec 5e d1 3d 3e 6c 03 3e fd 55 db bc
       0.09070737 0.10223183 0.1283426 -0.0267744
0002a0 ec 17 fc 3c cb 66 0a 3e a8 55 f4 3d b3 cb 82 3d
       0.030773126 0.13515775 0.119304 0.06386509
0002b0 a2 3c c4 3d 29 0c 87 bc e9 d0 00 3e f7 f2 23 3c
       0.09581877 -0.01648529 0.12579693 0.010006658
0002c0 2c 70 12 3d e0 f3 34 bd 18 4e 4a bd 8e 78 01 3e
       0.035751507 -0.04417789 -0.049390882 0.12643644
0002d0 35 26 bd 3c bb be 94 bc 9d 5e 99 bc 2d 9b cd 3d
       0.023089508 -0.018157354 -0.018721873 0.10039363
0002e0 ad 29 29 3d 38 0f 52 bd 58 bc 8f 3b fb 6c d1 3c
       0.04129951 -0.051284045 0.004386466 0.025564661
0002f0 1a 8f 9c bd 0a 2c 29 3d 3a 23 4a bc 00 05 83 bd
       -0.07644482 0.041301765 -0.0123375 -0.06397438
000300 47 88 a1 bd f1 3e 93 3c 29 be e8 3d 2b ad 81 3d
       -0.07887321 0.017974349 0.11364395 0.06331857
000310 c4 cb e5 3c 06 27 8c 3d e0 4b b5 3d 1d a2 79 bc
       0.028051265 0.06843381 0.08852363 -0.015236405
000320 99 5a 91 bc ad f2 9c bd 14 28 30 bd 5d 41 63 3d
       -0.017743396 -0.07663474 -0.04300697 0.055482257
000330 cb 59 0a be 88 70 04 be e9 e1 56 3c c7 5a e5 bd
       -0.13510816 -0.12933552 0.013115385 -0.11198955
000340 af ef 00 be 62 8f 2b bc 6c 61 19 be 44 2b 55 3b
       -0.12591432 -0.010471197 -0.1497857 0.003252701
000350 b6 50 05 bd 7d c0 3b bd bd b4 2a 3d 1c 28 5f bc
       -0.032547675 -0.045837868 0.04167627 -0.013620403
000360 0c d2 37 bd 39 41 47 bd b6 00 b8 3c 7d 1a d7 bc
       -0.04487805 -0.048646186 0.022461277 -0.026257748
000370 0a 11 0a be ea 77 62 3d e5 f5 fa bd 3d 97 78 3d
       -0.13483062 0.05529014 -0.12253932 0.060691107
000380 8c 31 07 b8 ce 93 cc 3d 26 36 13 bd 95 04 57 bd
       -3.2232652e-05 0.09989129 -0.03594031 -0.052494604
000390 3e 13 c5 bd db 4a b1 3d 5f 4b 83 bd 27 10 a2 3d
       -0.09622811 0.08656856 -0.0641086 0.07913237
0003a0 d9 4f 3e bd b1 9f 2d 3d a7 e3 a8 3d 40 28 a2 3d
       -0.046462867 0.04238862 0.08246546 0.07917833
0003b0 ec c5 42 bd a3 17 c0 3d dd 1c 33 bd 20 a4 ed 3d
       -0.047552034 0.09379508 -0.043728698 0.1160357
0003c0 d5 bb d3 bd 03 cf da 3d 8a dc a0 3c 13 0b 02 3e
       -0.103385605 0.106840156 0.019636411 0.12699537
0003d0 6f cb 24 3d 65 29 2f 3d d2 5d 81 bd ae 58 81 3d
       0.040233072 0.042764086 -0.06316723 0.063157424
0003e0 27 7e 94 3d ff 8b 5f bd 3f 30 8d bd 1a 93 ea bd
       0.07250624 -0.05457687 -0.06893968 -0.11453839
0003f0 af da 89 3d f7 b2 47 bd 82 c2 63 3d 94 08 c9 3d
       0.06731164 -0.04875466 0.05560542 0.09816089

bias f4 [32]
000000 c6 e9 92 3b 21 56 c0 3d cf 5a c9 3d 38 02 b0 bd
       0.0044834344 0.09391428 0.098317735 -0.08594173
000010 21 fa 5c bd b1 e3 b7 3d d8 ec 66 3c 10 ce 1e 3d
       -0.05394948 0.089789756 0.014094554 0.038770735
000020 bf 18 82 bd ce ea eb 3d ad a8 13 3e e3 dd c2 bd
       -0.06352376 0.11519395 0.14419813 -0.09514978
000030 34 fc f4 bd 00 74 bc 3d 9f c0 63 bd 64 ac e0 bd
       -0.119621664 0.09201813 -0.05560362 -0.10970381
000040 60 4f 84 bd b8 9d 98 bc fe 00 a7 3d e7 6f 0f bb
       -0.06460452 -0.018629894 0.08154486 -0.0021886767
000050 4e 6f 93 bd 54 6b e9 bd 09 eb 64 bd d4 7e 80 bc
       -0.07198964 -0.11397424 -0.05588821 -0.015685476
000060 fa 08 38 3d 41 c0 96 bd f1 13 a0 bc a8 3a b6 bd
       0.044930436 -0.07360888 -0.019540759 -0.088979065
000070 ad 20 5a bd 8a 88 58 bd b7 f8 ee bb 3e 82 fa 3d
       -0.05325382 -0.05286459 -0.0072928327 0.12231873

weight f4 [32, 32, 5, 5]
000000 af 14 b9 bc 34 25 93 3c 09 28 10 3c b2 16 99 bc
       -0.02259287 0.017962076 0.008798608 -0.01868758
000010 ff 9f 5d 3c 78 1b 9d bb 25 fc 5f bc 45 b0 d9 3c
       0.013526916 -0.0047945343 -0.013670956 0.02657331
000020 9e 11 3b 3a d4 74 12 3d 1e 95 09 bb 5d bf 93 3c
       0.0007136109 0.035755947 -0.0020993422 0.018035585
000030 04 68 0b 3d 52 a8 8c 3a fd 48 49 bc 1a af e2 bb
       0.034034744 0.0010731316 -0.012285468 -0.0069178464
000040 dc 07 f4 3c 33 5b 01 3d 77 26 f0 3c 39 94 14 3c
       0.029788904 0.031581115 0.029315216 0.009068542
000050 e0 29 e5 bb 51 ce f2 3b 8c 14 53 3c 2a 5c 2b 3c
       -0.0069935173 0.0074098487 0.012883317 0.010458985
000060 24 5a ba 3c dc e6 54 bc 10 af c5 bc 7c e8 cf bb
       0.02274806 -0.012994494 -0.024131328 -0.006344853
000070 ed b2 91 3c 4d c2 c6 3c 54 c9 7b 3b 47 2d 3d 3c
       0.017785514 0.024262572 0.0038419561 0.0115464395
000080 98 42 b6 bc 2e 4e d1 bc 5c 78 df 3c 68 a6 a6 ba
       -0.022248551 -0.025549974 0.027279072 -0.0012714388
000090 85 e2 53 bb 3a fa 03 38 cf cb a8 3c b8 a6 be 3c
       -0.003233106 3.1465876e-05 0.020604996 0.023272857
0000a0 55 07 0c bd 71 0f d5 bc cf 4d 8f bb 63 c5 ed bc
       -0.03418668 -0.02600834 -0.004373289 -0.029024785
0000b0 21 60 3b bb c5 bb 10 bc 55 2f f0 bc 91 c2 60 3c
       -0.0028591233 -0.00883383 -0.029319445 0.013718263
0000c0 ca c9 5c 3c 41 f3 15 3d f8 52 9f 3c 52 46 cb bb
       0.013475845 0.036608938 0.019448742 -0.006203451
0000d0 da 2d a2 bc 07 23 89 bb f3 20 fa bc ae 94 07 3d
       -0.019797254 -0.004185084 -0.03053329 0.033100776
0000e0 b6 61 f6 bc 0f 01 bd 3c 9c 56 01 3d de 96 8a bc
       -0.03007589 0.023071794 0.031576738 -0.016917642
0000f0 8b 0c f2 bc dd 6c 7c 3c cd c4 95 bc 3d 57 62 bc
       -0.029546997 0.015406814 -0.018282318 -0.013814745
000100 03 2a c6 bc 3e 57 cf 3a ed b7 a6 bc b3 c4 d5 bc
       -0.024189955 0.0015818847 -0.020351375 -0.02609477
000110 34 8f be 3c dd 84 f9 bc cc d4 61 bc 67 93 6f 3c
       0.023261644 -0.030458862 -0.013783645 0.014622546
000120 46 44 e4 ba e1 1e 02 bd e3 17 94 3c 7e 76 da bc
       -0.0017415367 -0.03176773 0.018077796 -0.02666783
000130 82 17 06 3d f6 ff 0e 3d f1 d5 de 3c 49 eb d3 3b
       0.032737263 0.034912072 0.027201625 0.006467257
000140 13 df 50 3c 3b d5 d7 3c 05 88 a9 3b d2 78 a4 bb
       0.012748498 0.026346793 0.0051736855 -0.0050192857
000150 86 fa 98 bc 4a 67 e1 bc c6 a6 3b 3c 93 91 15 3c
       -0.018674146 -0.027515072 0.011453336 0.009128946
000160 92 bd 02 3d c5 74 d2 3c ab 93 48 bc a1 1f 29 bc
       0.03191907 0.025690446 -0.012242238 -0.010322482
000170 e2 51 11 bd 2b 5e ae bb 83 08 51 bc e2 e8 2c bc
       -0.03547848 -0.0053212843 -0.012758377 -0.01055357
000180 f5 c3 cb 3b 0c 75 8c 3c 9f 03 dd 3c d7 22 af 3c
       0.0062184283 0.017145656 0.026979266 0.021378918
000190 7d be 0b 3d 2c cb 0b 3d f4 ac 87 bc 2d b5 e2 3c
       0.03411721 0.034129307 -0.016561963 0.027674282
0001a0 c9 cb bb bb 8d 4c 90 3c 46 e9 92 3c 1e bb eb 3c
       -0.00573108 0.017614627 0.017933499 0.028775748
0001b0 7e 1c db ba e7 ed 7f 3c f0 98 03 bc 67 f5 c6 3c
       -0.0016716865 0.015620685 -0.008032069 0.024286939
0001c0 eb a2 a0 ba 3b 14 bb bb 4c 61 d9 3c 8a a0 48 bb
       -0.0012255585 -0.005709199 0.026535653 -0.0030613267
0001d0 a8 63 a7 bb 4c 3a 20 bc 12 23 ff bc 18 64 7d ba
       -0.0051083155 -0.009779524 -0.031144653 -0.0009666099
0001e0 3b 67 fe bc e0 b6 3e bb ad a1 83 3b 05 eb fb bc
       -0.031055083 -0.0029100701 0.004017076 -0.030751714
0001f0 ea a8 35 3b 1f a6 12 3d 32 9e fe bc 36 2d 49 3c
       0.0027719089 0.035802957 -0.031081293 0.0122788455
000200 04 6e 1c bc 82 d3 ee 3b db db bf 3c 78 b5 f3 bb
       -0.009547714 0.0072883973 0.023420265 -0.0074374042
000210 0a 55 51 3b b9 5a e2 3b d3 c8 26 39 85 20 5f 3c
       0.0031941556 0.0069077876 0.00015905807 0.013618593
000220 0d c9 81 bc dd aa 6c 3c b3 63 8f bc 6d 7e aa bc
       -0.015842939 0.014445034 -0.017503595 -0.020812238
000230 65 b0 2c 3d 06 65 9f bb bf 5d fc 3b 75 2f c0 bc
       0.04216041 -0.004864338 0.007701605 -0.02346013
000240 ca 80 a2 3c 42 58 13 3d d8 d2 b5 3c b0 fa c5 3c
       0.019836802 0.03597284 0.022195265 0.024167389
000250 d4 b7 e6 ba 4e cf de 3b bd aa 43 bc 11 e0 8f 3c
       -0.0017602392 0.006799615 -0.011942563 0.017562898
000260 80 a2 21 3c e2 38 27 3d dd eb 4f bc a9 66 66 bc
       0.009865403 0.040825732 -0.0126905115 -0.014062562
000270 03 94 23 3d 0b 89 b7 3c de 71 f7 3c 84 ad 95 3c
       0.039936077 0.022404214 0.030205663 0.018271215
000280 3f d7 be bc 19 b7 3a 3d 3a 6b 5d bb cb 99 4e bc
       -0.023295997 0.04558477 -0.0033785836 -0.012609909
000290 c9 de de 3c 1d 4a 2b bc 73 35 84 3c 73 a5 be 3b
       0.027205842 -0.010454682 0.016138768 0.005818063
0002a0 80 be 27 3d 9b fb b2 3c 79 a2 c3 3c 8c 07 c3 bc
       0.04095316 0.02184849 0.023881184 -0.02380731
0002b0 f4 11 5c 3c 26 91 c9 bc bc f6 c2 3b 2f 75 09 bc
       0.013432015 -0.024605345 0.005949823 -0.008389755
0002c0 b7 24 ce ba da 58 4a bc 47 24 88 3c 17 a6 94 3c
       -0.0015727495 -0.012350285 0.01661886 0.018145604
0002d0 96 35 fd 3c cb 9f 46 bb 49 45 1a 3d 4f 32 2d 3d
       0.03090934 -0.0030307646 0.03766373 0.042284306
0002e0 34 4f fb 3c 25 cc 08 bc 9e e7 22 3c 37 36 db 3c
       0.030677415 -0.008349453 0.009942917 0.02675925
0002f0 0f c1 15 bc 68 35 66 3c 0d f3 af 3c 4c 4d c5 bc
       -0.009140267 0.014050819 0.0214782 -0.02408471
000300 94 31 1f bb d9 8a a7 bc 8c f3 cd bc cf 44 a8 bc
       -0.0024291025 -0.02045195 -0.025140546 -0.020540623
000310 d5 53 f9 39 6e 29 07 bd 49 63 8f bc 5e 93 1e bd
       0.0004755544 -0.032998495 -0.017503398 -0.03871476
000320 bc 16 d7 3b 48 2f 39 bb dc 91 90 3c 1a 34 c0 3b
       0.0065639894 -0.0028256942 0.017647676 0.005865586
000330 5f e6 b8 3c 55 b4 85 bc 45 4e ad bb 27 5b c7 bb
       0.022570787 -0.01632134 -0.0052888715 -0.0060838643
000340 a5 bf fe 3c 75 f2 08 bc 33 c6 14 3d 36 e4 ff 3c
       0.031097243 -0.0083585875 0.03632183 0.03123675
000350 00 6d 52 3c 07 7b 6d bc 93 b5 1e 3d 58 95 ca ba
       0.01284337 -0.014494664 0.03874738 -0.0015455885
000360 ce a3 1d 3d 0b 58 c1 3c 12 19 9f 3c 46 31 0d 3c
       0.038486294 0.023601552 0.019421134 0.008617705
000370 58 1e 03 bc d2 68 10 bd eb cc 08 3c 43 a1 c9 3b
       -0.00800284 -0.035256214 0.0083496375 0.006153257
000380 ef 3c fb bc f0 30 32 3c 1a 6a 71 bc 47 25 f0 ba
       -0.030668704 0.010875925 -0.014734769 -0.0018321656
000390 38 9e 1a bc ae 15 b6 bc 01 59 34 bc 2b d8 f4 bc
       -0.009437136 -0.022227135 -0.011007548 -0.029888233
0003a0 b4 c1 8f bb ea a8 e9 bc ec eb f2 bc 0a 84 f2 bb
       -0.004387105 -0.028522927 -0.029653512 -0.007400994
0003b0 4d 9a f3 bc b1 aa 13 bd ab e4 59 3c 29 2e e4 bc
       -0.029736662 -0.036051456 0.013299148 -0.027854042
0003c0 c4 c5 da 3c 73 62 31 3b 8f 63 e0 bb ff aa c5 3c
       0.02670563 0.0027066737 -0.006847806 0.024129389
0003d0 31 f0 ca bb e8 28 1d bc d2 b1 aa bc c8 1c 67 bc
       -0.006193184 -0.009592272 -0.020836744 -0.014105983
0003e0 a1 3f e5 3c 5a 15 ee bc ee 36 dd 3c bd cf 8c 3b
       0.027984442 -0.029062916 0.027003732 0.0042972253
0003f0 fc 09 04 bb 08 34 bf bc ee 55 08 3d bb 71 49 3a
       -0.0020147553 -0.02334024 0.033285074 0.00076844887

bias f4 [32]
000000 41 d7 aa bb 21 04 ef bc 50 9a 91 3b 0e 66 6c b9
       -0.0052136485 -0.029176774 0.0044434443 -0.00022544732
000010 7e 7f 9b bc bf 04 19 3d c5 37 37 3c 5d 26 51 bc
       -0.018981691 0.03735804 0.01118273 -0.012765494
000020 93 0d 3d 3c 77 43 61 bc 5a 20 4f bc d8 04 81 3c
       0.011538881 -0.013748995 -0.012641991 0.01574938
000030 94 06 6a bc 26 85 16 3c 54 73 29 bd 2e e1 10 bb
       -0.014283795 0.0091870185 -0.04136975 -0.0022106874
000040 2e a1 b5 3b 67 90 80 bc c8 62 bd ba c6 9f 47 bc
       0.0055428958 -0.015693856 -0.0014448995 -0.012184089
000050 98 f1 1a 3c e2 fe 40 bd d7 33 89 3c af 2d b8 3c
       0.0094570145 -0.047118075 0.016748352 0.022482721
000060 0c e4 58 3c 36 f9 25 3d de 84 d4 3b 33 6c fe bc
       0.013237964 0.04052087 0.0064855656 -0.031057453
000070 b3 4d f3 3c 27 00 95 39 b5 6c 08 bd 1d 78 01 bd
       0.029700136 0.00028419608 -0.033306796 -0.03160869

weight f4 [64, 32, 5, 5]
000000 74 96 57 bc f4 27 07 bd fc f4 b4 bc 9f 06 17 bd
       -0.013158429 -0.032997087 -0.022089474 -0.03687155
000010 79 67 f2 3b 46 fc 15 3d 99 f3 ae b9 04 58 f6 bb
       0.007397589 0.03661754 -0.0003336936 -0.0075178165
000020 54 da 8f bc 86 77 b9 bc c5 92 07 bd 7e 29 ea 3c
       -0.017560162 -0.022640001 -0.033098955 0.028584238
000030 76 a6 d3 bc db 71 e3 3b 8a e9 bb bc ed 5c e9 3c
       -0.02583621 0.006941063 -0.022938509 0.028486693
000040 c5 ee 3b bc 16 82 a5 3c 4b 13 3e 3c d1 e4 3d 3d
       -0.011470501 0.020203631 0.0116012795 0.046360794
000050 ab f4 87 ba 16 9d 5d 3c f1 07 37 bc a0 94 08 bc
       -0.0010372599 0.013526222 -0.011171327 -0.008336216
000060 60 fe 2e 3d 7c 63 23 3d 5e 65 84 3c 25 0e e3 bc
       0.04272306 0.039889798 0.016161617 -0.027716706
000070 83 43 06 3b f5 f2 e7 bc 32 31 07 3d 12 f1 9f bb
       0.0020487017 -0.028314093 0.0330059 -0.0048810327
000080 f1 1d ae 3c de 93 fc bb 26 79 a8 b9 9e 5e 8d 3b
       0.021254512 -0.007708057 -0.0003213372 0.0043142578
000090 32 ee a6 3c 80 ee c5 3c c6 f4 18 3d 55 f3 09 3d
       0.020377252 0.024161577 0.03734281 0.033679325
0000a0 da 95 af bb d0 66 19 bc 06 94 60 bc 7f 66 c7 bc
       -0.00535844 -0.009362891 -0.013707167 -0.024340866
0000b0 ab 4f cf bc 37 f7 b9 3b 2f de 92 3c 34 cc 13 3d
       -0.025306543 0.0056752223 0.017928211 0.036083415
0000c0 09 21 aa bc c9 fc 38 3c 8e 72 8b 3c 64 aa 5d bc
       -0.020767706 0.011290737 0.017022397 -0.013529394
0000d0 4a 09 90 bc 26 82 08 bd e1 9b c7 3c 7a 11 5d 3c
       -0.017582554 -0.033327244 0.024366321 0.013492936
0000e0 94 fd 9f 3a a0 fb 07 3d 90 a3 bb ba 95 7d 06 bd
       0.001220631 0.033198953 -0.0014315713 -0.032834608
0000f0 c2 1f bf 3c a1 e5 28 3c 96 0a 68 bc ac 31 ec 3c
       0.023330573 0.010308654 -0.01416268 0.02883228
000100 72 f3 0d 3d 23 cd 00 bc 01 e2 f3 bb fc 14 d5 bb
       0.034655996 -0.007861408 -0.0074427132 -0.0065027457
000110 f3 17 ea bc 4a 03 b1 3c 6f c9 c3 bc bd 8c dd 3b
       -0.028575873 0.021608014 -0.023899762 0.006761162
000120 e1 9d 97 3c 0f 83 02 bd b4 58 7d 39 62 7e b0 bb
       0.0185079 -0.03186327 0.00024161005 -0.0053861598
000130 d2 cd 33 3c 5f 4b cb bb 4b 89 8b 3a ab ad 91 3c
       0.010974364 -0.0062040533 0.0010645775 0.017783007
000140 2d 55 c1 3c a6 6d 8b bb bc 6b 03 3c 98 ca d4 bc
       0.023600185 -0.0042550145 0.008021291 -0.02597551
000150 60 45 04 bd 37 d1 82 3c 7c 37 cb ba 4e 57 18 bd
       -0.032292724 0.015968902 -0.0015504207 -0.037192635
000160 c5 2a 15 bc 9b 8f 69 bc 05 2c ef 3c eb 27 bd 3c
       -0.009104435 -0.01425543 0.029195795 0.023090323
000170 eb 5b e5 3c a3 b4 73 3a af c8 88 bc 85 d4 1b bd
       0.027997931 0.00092966313 -0.016697256 -0.03804447
000180 63 e2 0f bd 83 ce 1c 3c 1f 2c 06 bd 77 45 8b bc
       -0.03512801 0.009570721 -0.03275692 -0.017000897
000190 12 aa 92 bc aa 8e 27 bc 58 0e a0 bc c6 71 d0 bc
       -0.017903361 -0.010226885 -0.01953809 -0.025444876
0001a0 2f 93 db bc 26 0d 01 3c a4 5d 02 bd f0 4e 14 bc
       -0.026803581 0.00787667 -0.031827584 -0.009052023
0001b0 41 cc b7 b9 cf 12 85 bc b4 8a 17 bc 52 89 4f 3c
       -0.0003505666 -0.01624432 -0.009249378 0.012667017
0001c0 34 90 b3 bb 51 5e 82 3c 35 43 75 bc 40 48 5e bc
       -0.005479837 0.015914114 -0.014969637 -0.01356703
0001d0 45 ca ff ba ea 23 b6 3a 25 f2 1a 3d 89 0f 21 3b
       -0.0019515237 0.0013896201 0.037828583 0.002457591
0001e0 67 83 3a 3c d8 12 c7 bc bb 3e c5 bc 97 3c 77 3c
       0.011383868 -0.024300978 -0.024077764 0.015090129
0001f0 1e 8d 0d 3d b0 ab 41 3b 4b 24 7b 3c 28 52 17 bd
       0.034558408 0.0029551797 0.015328477 -0.036943585
000200 27 54 0d bd 81 eb 5f 3c 5f 8b 8e 3b 7e 76 ea bb
       -0.034504082 0.013666988 0.0043501104 -0.0071552387
000210 f6 9d ca bc 78 17 9e 3c 4f d3 13 bd f5 d4 03 bd
       -0.024733525 0.0192983 -0.03609019 -0.032185514
000220 c8 0b c0 3b e9 bd 0e bc 0e 1a db 3c 71 7c 86 3c
       0.0058607794 -0.00871227 0.026745822 0.01641676
000230 26 f4 01 bd aa 0b f8 bc de cc 8e 3c 53 ca 1a bc
       -0.03172698 -0.030279 0.017431673 -0.009447652
000240 be 77 b4 bc a2 46 00 bd 18 7f 0f 3d 4e 71 2b 3c
       -0.022029754 -0.03131736 0.035033315 0.010464026
000250 29 6d 1c 3d 3f b0 f9 3c 4f 10 08 3d 72 96 e0 3b
       0.03819004 0.030479548 0.033218678 0.006853872
000260 e2 3b bd 3c 99 0c eb 3b 63 01 27 3c 0e d5 44 3b
       0.023099843 0.0071731326 0.010193202 0.0030034217
000270 eb f2 11 bd b0 6b eb 3c 97 4c fc 3c 6b 8a f1 bc
       -0.035632055 0.028737873 0.03079824 -0.029484948
000280 67 30 a2 bc b1 28 c0 3c 2a b7 00 3d a4 ba 81 ba
       -0.01979847 0.023456903 0.03142468 -0.0009897542
000290 6a f9 00 bd 44 07 18 bd 51 20 a1 bc f6 4a 8a bc
       -0.03148786 -0.037116304 -0.01966873 -0.016881447
0002a0 27 e6 99 bc c8 8d 1a 3d d0 35 30 bc ff 84 0d bb
       -0.018786503 0.03773287 -0.010755017 -0.0021594164
0002b0 e1 01 1d 3c df de c6 bb 26 f2 0f bc 97 b2 f7 bc
       0.0095829675 -0.006069049 -0.00878576 -0.030236525
0002c0 8d c7 b7 3b 15 d2 6e bc fb 6a 55 bc f0 dc c8 bc
       0.005608505 -0.014576455 -0.013025994 -0.024519414
0002d0 17 45 ec bc 4f a7 a1 bc e8 61 23 bc 72 5f 24 bc
       -0.028841538 -0.0197331 -0.009972073 -0.010032522
0002e0 3b 86 41 bc ee 55 5b 3c 61 69 2a bc 05 81 01 bd
       -0.011811788 0.013387186 -0.010401101 -0.031617183
0002f0 74 9a fc 3c bc 79 56 bc 3f ca 1e 3b 1a 8e da 3c
       0.030835368 -0.013090547 0.0024229435 0.026679087
000300 56 15 22 bc d8 d5 c3 bc 8b 28 d4 3c 8a 47 d7 bc
       -0.009892782 -0.02390568 0.025898239 -0.02627923
000310 28 d1 f2 bc 12 a0 06 bb 21 b1 81 bc 87 a7 99 3c
       -0.02964075 -0.0020542187 -0.015831532 0.018756641
000320 a9 e7 c2 3c 97 cc 12 bb c8 2a 81 3c e5 00 45 3c
       0.023792105 -0.0022399777 0.01576747 0.012024139
000330 54 9e c1 bc 76 18 f3 3b ff a5 ec 3b c6 af 13 bc
       -0.023635067 0.0074186875 0.0072219367 -0.009014076
000340 c2 f3 8d 3c 4f a3 96 bc fa 66 fb 3c e0 5d de bb
       0.017328147 -0.018388418 0.030688751 -0.006786093
000350 e9 88 00 bc 92 8f e9 bc 3c 0c ab 3c b9 bc b0 bc
       -0.007845142 -0.028510842 0.020879857 -0.021574365
000360 f1 a3 99 3c d9 10 cf 3c 10 04 b1 bc d4 6c cb bc
       0.018754931 0.025276588 -0.021608382 -0.024832167
000370 15 02 83 bc bc 9a f3 bc 35 85 e8 3c e5 fa d6 3c
       -0.015992204 -0.029736869 0.02838383 0.026242683
000380 4d 4e 34 3c eb 38 16 3c a8 25 a8 bc 3f 9a 17 3a
       0.0110049965 0.009168844 -0.020525768 0.00057831773
000390 d8 03 72 bc 17 8f b7 bc 57 0d 6a bc dd 40 d0 3b
       -0.014771424 -0.022407098 -0.014285407 0.0063553886
0003a0 44 5d 82 3b f7 47 40 bc ea b5 7e bc 34 0a 9f 3b
       0.0039784033 -0.011735908 -0.015546301 0.004853511
0003b0 c1 ce e1 bc 52 3c 3f 3c fb 94 49 3c 5f f4 a3 bb
       -0.027564408 0.011672096 0.012303586 -0.0050034965
0003c0 75 f1 50 3a 0d 77 f3 bc 81 c0 20 bd a1 8d c0 bc
       0.000797055 -0.029719854 -0.039246086 -0.023505034
0003d0 be 2d ad b8 9e 02 cb bc 02 e1 67 bc f4 4a a1 3b
       -8.257803e-05 -0.024781521 -0.014152767 0.004922265
0003e0 63 e8 e8 3b 44 16 90 3c 7c 5e 14 bc 25 31 08 bd
       0.007107781 0.017588742 -0.00905573 -0.033249993
0003f0 b0 a7 c4 bc 03 b1 c3 bc 18 70 d0 3c 7b 26 66 bb
       -0.02400574 -0.023888117 0.025444075 -0.003511815

bias f4 [64]
000000 9e 7c 53 bc 96 09 dd 3c 6b f2 bb bc 57 43 6e 3c
       -0.012908129 0.02698211 -0.022942742 0.014542422
000010 9d 29 91 3b 46 fa 00 3d 82 c2 21 bc 78 e1 1d bd
       0.0044300095 0.03148868 -0.009873034 -0.038545102
000020 53 7a 89 3c 7b 25 c4 bc 9b 04 89 bc a9 6f 9e bc
       0.016781962 -0.023943653 -0.016725829 -0.019340353
000030 e0 2a 6d 3c 90 08 ad 3c b0 4b 93 3b f1 93 ee 3a
       0.014475554 0.021122247 0.0044951066 0.0018202049
000040 91 79 f4 3a 3a a9 f6 bc 98 82 0b bd 01 54 3d bc
       0.0018651952 -0.03010999 -0.03406009 -0.011555673
000050 6e 77 2c ba 76 20 df bc 8b 17 b4 3c 52 de f9 bc
       -0.00065790757 -0.027237158 0.021983882 -0.030501518
000060 c5 3b c7 3a d5 a5 00 bd 88 8d aa 3c f1 ee b9 3b
       0.0015200308 -0.03140815 0.02081944 0.005674236
000070 19 ab 98 bb dc 49 9e bc 30 b5 72 bc 01 f6 0a bc
       -0.0046590683 -0.019322328 -0.014813706 -0.008481503
000080 ed 61 05 3c c8 cc 6b bb aa a1 e9 3c 46 19 b9 bb
       0.008141023 -0.0035980213 0.02851947 -0.005648765
000090 18 e0 bf bb 21 b0 86 ba e4 bb c5 3c 1d 88 47 3d
       -0.0058555715 -0.0010275879 0.024137445 0.048713792
0000a0 02 f3 f5 bc 46 13 c9 bb 88 f2 5e 3a 3a a5 80 bc
       -0.030023102 -0.006136331 0.0008504768 -0.015703786
0000b0 14 36 10 3d b5 85 2c 3d bb a5 df 3c ee 93 bf bb
       0.035207823 0.0421197 0.027300706 -0.005846492
0000c0 f8 54 8d 3b 83 be 11 3d a6 9c 85 3c 36 4f 25 bd
       0.0043131076 0.035582077 0.016310047 -0.040358745
0000d0 50 81 b0 bc 58 f0 c3 bc d7 85 d1 bb fc 82 8d bc
       -0.021546036 -0.023918316 -0.006394129 -0.017274372
0000e0 34 82 15 bd 03 a2 22 3d 12 ac b3 3c 3b e0 a8 bc
       -0.036501125 0.039705288 0.021932635 -0.020614734
0000f0 8b e3 d2 ba 41 a5 1d bd 0b cd fd 3c 58 31 a7 3c
       -0.0016089542 -0.038487677 0.030981561 0.020409271

weight f4 [64, 1024]
000000 48 71 aa bb 79 05 f4 bc 2e 12 4b 3c cc f3 b4 3c
       -0.0052014925 -0.029787766 0.012394471 0.022088908
000010 cd 1f db 3c e5 69 a9 39 fb f1 29 3c 14 cd 30 bc
       0.026748562 0.0003231309 0.010372634 -0.010791082
000020 eb e7 d5 3c ee 9b 9f 3c 72 29 c2 3c 7a 83 8c 3c
       0.026111564 0.019483533 0.023701403 0.017152537
000030 cc 28 e1 bc e1 ba e8 bc 66 fa 2c bc 8b 49 ac 3b
       -0.027485274 -0.028409423 -0.0105577465 0.0052577904
000040 b8 b1 f1 bc 12 f4 ab bb 59 13 85 bc 4b fb e3 3c
       -0.029503688 -0.0052476013 -0.016244577 0.027829787
000050 2b c5 d3 3b 0d 92 93 bc 04 f5 e0 bb c1 c2 98 3c
       0.0064627132 -0.018013978 -0.0068651456 0.018647553
000060 a7 32 07 3d 7e 6d 8c 3c 05 4c e3 bc f4 50 ea bc
       0.03300729 0.017142054 -0.02774621 -0.028603055
000070 74 2b 1d bc 9b 29 53 bc df 88 ea 3c cf 26 fc 3c
       -0.00959288 -0.0128883375 0.028629718 0.030780224
000080 c5 2e 39 3c fb 2f 16 bd e4 36 77 3b 0d f8 de 3b
       0.011302655 -0.03666685 0.0037721926 0.0068044723
000090 89 92 49 bc 22 d9 35 3b 58 bc a6 bc 7c 77 cd bc
       -0.012303003 0.002774783 -0.020353481 -0.025081389
0000a0 fe c4 ae 3c 8a 6c f9 3c 7b ae 06 3d 93 54 0c 3d
       0.021334168 0.030447263 0.03288124 0.034260344
0000b0 2d 8f 91 bc ba 2f b7 3a fb ba 9c bc 63 33 07 3d
       -0.017768467 0.0013976016 -0.019132128 0.03300799
0000c0 c0 e6 10 bd ee 78 06 3c 71 6a 6a 3c 26 e2 0f bd
       -0.03537631 0.008207543 0.014307604 -0.03512778
0000d0 f9 a9 dc 3c 66 1d a3 3c 15 6a da ba e9 93 d1 3c
       0.026936518 0.01991148 -0.0016663695 0.025583224
0000e0 b6 e5 c1 bc 44 e9 0f 3d 62 27 c3 3b 01 b2 4c 3c
       -0.023669105 0.03513457 0.0059556225 0.012493611
0000f0 38 96 8d 3c 9e 17 96 bb d0 d8 a8 bc 4d e9 36 3c
       0.017283544 -0.004580452 -0.020611197 0.011164022
000100 d3 d6 9c bb 58 d7 1d bc 1e f2 9e 3c 1f 75 3a 3c
       -0.004786351 -0.0096338615 0.01940256 0.011380463
000110 50 08 fb 3c 45 c6 c9 3b fa bf f6 3b 2c 35 e9 bc
       0.030643612 0.006157669 0.0075302096 -0.028467737
000120 d8 b8 f0 bc 7e 7d 17 bb 3e 14 60 3b 3d b9 06 bc
       -0.029385015 -0.002311557 0.0034191753 -0.008222875
000130 8c 6a fb 3c 61 3e fa bb e0 52 6a 3b 70 2a 96 3c
       0.030690454 -0.0076368307 0.0035754964 0.018330783
000140 e4 c6 46 bb 0e 2e 14 3d 15 7e b3 3b a9 a4 89 bc
       -0.003033095 0.036176734 0.0054776766 -0.016802149
000150 70 06 8a bc 3c c3 d2 3c 87 d5 a9 bc d6 f4 88 3c
       -0.016848773 0.02572786 -0.0207317 0.01671831
000160 7a d5 91 bc ec 83 51 3a 0d 9e 00 bc fe d5 94 bc
       -0.017801989 0.0007992375 -0.007850182 -0.018168446
000170 3e 22 da bb fb d0 38 ba fe 30 9e 3c fc 0f bd bc
       -0.006656914 -0.00070501835 0.01931047 -0.023078911
000180 54 9e 04 3d 62 d1 3b bc aa 65 c6 3b e8 de 36 bb
       0.032377556 -0.011463495 0.0060546 -0.0027903859
000190 49 de 8d b9 9c 7b bd bb e1 c2 39 bc 10 92 8a 3c
       -0.0002705923 -0.0057825577 -0.011337967 0.016915351
0001a0 9c 8d a6 bc 99 cb 7e bc e5 34 f5 3c 54 3e 94 bc
       -0.020331196 -0.015551471 0.029932449 -0.018096127
0001b0 e7 a1 d2 3c c9 a6 78 ba 55 4a 60 3c 8d 08 89 3c
       0.025711967 -0.0009485302 0.013689597 0.01672771
0001c0 83 4f 81 3c e5 6b 59 3c 08 4c a1 bb 18 5c c8 3c
       0.015784984 0.013270353 -0.0049223937 0.024457976
0001d0 cd f8 e3 3c c5 75 b1 b9 cf 30 85 bc 7b 6c 8c 3c
       0.027828598 -0.00033847816 -0.016258625 0.017141571
0001e0 e5 8f e8 3c 89 ad 01 bc 75 ce 2e bb c9 b7 ab bc
       0.028388927 -0.007914909 -0.002667335 -0.020961659
0001f0 3d fb e9 bc b4 08 a9 bc d7 3b 4c bc d7 54 97 bb
       -0.028562183 -0.020634033 -0.012465439 -0.004618268
000200 9a 45 7b 3c 3c 91 55 3c 02 07 c1 bc 14 8f 99 3c
       0.0153364185 0.013035115 -0.023562912 0.018744983
000210 af c4 c7 bc 4d c0 a6 bb c1 48 6b bc 86 c3 ec 3c
       -0.024385778 -0.005088842 -0.014360608 0.028901827
000220 4f b5 87 3b af 80 3d bc 53 11 cb bc c3 27 4f 3c
       0.0041414867 -0.011566325 -0.024788534 0.012643757
000230 b5 d7 a8 bc a9 89 9e bc ab f4 d3 bc ad d1 35 bc
       -0.02061067 -0.01935275 -0.025873503 -0.011097354
000240 0d df 8c bc 8a 7a 82 3b ac e1 f2 bc 18 40 9e 3c
       -0.017196203 0.003981893 -0.029648624 0.019317672
000250 74 9e 40 3a 53 b3 49 bc 91 43 82 bc 8b a9 e5 bb
       0.000734783 -0.012310821 -0.015901359 -0.0070087365
000260 4b 7a fd 3b 5a 5d b4 3c 30 f4 22 ba 8c df 86 3c
       0.0077355257 0.02201717 -0.00062161963 0.016464017
000270 37 b4 dc bc 75 48 b9 bc d7 ba ce 3c 5a 8d 94 bc
       -0.026941402 -0.022617558 0.025235577 -0.018133808
000280 b3 4e e9 3c b3 2d 82 3c 18 b6 ee 3b c9 d3 d3 39
       0.02847991 0.015890932 0.007284891 0.00040402848
000290 01 01 28 bc 84 b2 f4 bb 32 d0 8d 3b 9b f8 89 bc
       -0.010254146 -0.00746757 0.0043277973 -0.016842177
0002a0 20 4f 08 3c 66 30 e0 3c af 54 0e 3a 73 36 91 b8
       0.008319646 0.027366828 0.0005429489 -6.924281e-05
0002b0 c3 47 11 bc a4 d0 98 39 0d b7 f1 3c 5b f9 bd 3a
       -0.008867207 0.0002914715 0.02950623 0.0014493869
0002c0 84 87 9c 3c 87 c0 c0 3b 89 eb 6d 3c fb 39 4b 3c
       0.019107588 0.005882326 0.014521488 0.01240396
0002d0 bd 99 a1 3a f6 b0 f5 3c d1 43 93 3c 8e 50 28 bc
       0.0012329143 0.029991608 0.017976673 -0.010273112
0002e0 c7 70 74 bb b7 a4 fa bc 82 07 bf bc 84 a5 c6 3c
       -0.0037298666 -0.03059612 -0.02331901 0.024248846
0002f0 4f d8 b9 3c 64 ec 28 bc 87 f0 ee 3b 9d 1f 8d bc
       0.022686152 -0.010310266 0.0072918567 -0.017226988
000300 f7 9f 8f 3c 27 03 85 bc c0 ec f9 3c b0 8b c5 3c
       0.017532332 -0.016236855 0.030508399 0.02411446
000310 e1 0a 03 3d 37 2a 40 bc 55 08 db bc 80 09 14 bc
       0.031992797 -0.011728815 -0.026737371 -0.009035468
000320 53 f3 e3 bc 74 56 f1 3c 60 7d 14 3c b1 a4 56 bc
       -0.027825987 0.02946017 0.009063095 -0.013100789
000330 82 f7 d5 bb 4e 55 c6 3b e8 64 31 3c fe b6 f7 3c
       -0.0065297494 0.0060526496 0.010827281 0.030238625
000340 af 87 c2 bc ba 88 e0 bc 30 6c f7 3c 9b 11 94 bc
       -0.02374634 -0.027408946 0.030202955 -0.018074801
000350 50 eb eb 3c 3b 40 9c 3c 53 55 ca 3c 66 44 43 bc
       0.02879873 0.019073596 0.024698889 -0.011918163
000360 a3 73 13 bc 34 8f c3 3b 57 5f d0 3c b2 75 88 bc
       -0.008999738 0.005967999 0.025436087 -0.016657684
000370 f9 45 81 bc 87 0e b8 bc 77 3e f1 3c c2 37 3e bc
       -0.015780436 -0.022467865 0.02944873 -0.011609973
000380 14 d2 19 3c 10 4d b0 bc 21 84 83 bc 02 00 8d bc
       0.009388465 -0.021521121 -0.016054215 -0.017211918
000390 e5 8e 7b 3b 76 68 41 3c 95 0b 92 bc f4 3d d9 bc
       0.0038384732 0.011804691 -0.017827788 -0.0265188
0003a0 1e 5b 1b 3b 5c 4c d0 bc f9 ba a6 3c eb df c7 bc
       0.0023705433 -0.025427036 0.020352827 -0.024398765
0003b0 06 87 67 bb bd 6e b8 bc 3d 81 09 bc 2c fa 4c bc
       -0.0035328283 -0.022513742 -0.008392629 -0.0125108175
0003c0 5d 26 eb 3c d3 c1 96 bc d3 29 a4 3c c1 f0 2b 3c
       0.028704816 -0.01840297 0.020039475 0.010494412
0003d0 9c aa 04 bd e3 2b 3f 3c 8c 0f ab 3c 76 cd e7 bc
       -0.03238927 0.011668178 0.020881437 -0.028296214
0003e0 a0 33 85 bc b0 70 da ba b2 a8 c3 3a 77 df ce 3c
       -0.016259968 -0.0016665664 0.0014927594 0.02525304
0003f0 7f 9a 88 3b c1 2c a9 39 cf 22 37 bb 0e f4 1d bb
       0.004168808 0.00032267536 -0.0027944332 -0.0024101767

bias f4 [64]
000000 b7 97 a1 bc 5d c2 ef bb 59 e2 8f bc 91 99 98 3b
       -0.019725664 -0.007316871 -0.017563986 0.0046569784
000010 ab ab 2f 3c d2 e7 f8 bb ec f1 08 bb ed 76 87 3c
       0.010722081 -0.0075959945 -0.002089615 0.0165362
000020 5b 81 8e 3c 7e c3 99 3a 0f 01 04 bc 51 5c 50 ba
       0.017395666 0.0011731235 -0.008056893 -0.00079483265
000030 c8 f9 66 3b 5e 8a 2a bc b2 c7 e3 bc 9d a8 26 3a
       0.0035244096 -0.010408966 -0.027805183 0.0006357523
000040 a4 f6 48 bb e2 df 87 3c d0 8d 86 ba 2a 73 9b 3b
       -0.0030664587 0.016586248 -0.0010265652 0.0047439532
000050 0f 90 bf bb 07 c6 d0 bc 28 6f 63 bc 0d d9 f7 3b
       -0.0058460305 -0.025485052 -0.013881482 0.0075637163
000060 f7 90 13 bd d0 4d c9 bb 2d 4a 8a 3c 09 5b b4 3c
       -0.03602692 -0.006143309 0.016881073 0.022016065
000070 60 ad 0b bd 64 e1 04 bd ac 25 77 bc 2e fa e2 bc
       -0.03410089 -0.03244151 -0.015084665 -0.027707186
000080 76 3c 26 3d b0 8c 5f 3c 56 82 9b 3c 13 27 3a bc
       0.040585004 0.013644382 0.018983047 -0.011361855
000090 fe 06 7e 3c d0 9a 93 bc 47 b5 43 3b 47 44 82 3b
       0.015504597 -0.018018156 0.0029862688 0.0039754244
0000a0 a0 f7 3e 3c e0 3b 8f bb 3c 6c ca bb b0 f4 1b bd
       0.011655718 -0.0043711513 -0.0061774533 -0.03807515
0000b0 6d 9e 65 3b b7 d3 e3 3c 94 8a ac bc ad 20 20 3d
       0.0035037056 0.027810914 -0.021062173 0.039093662
0000c0 44 66 85 3c 37 c4 aa bb 43 95 a0 bc c5 ef 65 3a
       0.016284116 -0.005211379 -0.019602424 0.0008771385
0000d0 dd 8f 8a bc 4f 4c 42 bb da fe 35 bd dd b0 8d bb
       -0.016914302 -0.0029647534 -0.0444325 -0.0043240623
0000e0 c5 cd 9f 3c 36 90 9e bb 58 e6 1c bc 1d bb f3 bc
       0.019507298 -0.0048389686 -0.009576403 -0.029752309
0000f0 0e ef b7 3c 50 25 04 3d a0 37 9d bc 3a fb b0 3c
       0.022452857 0.032262146 -0.019191563 0.02160417

weight f4 [10, 64]
000000 24 4e dc bd 5f 59 dd 3d 32 03 3c bd 98 da 0b 3c
       -0.10757092 0.10808062 -0.045901485 0.0085360035
000010 ab 7c a1 bd 51 dc cf 3d 85 e3 bf bd 2c 18 0d bd
       -0.07885107 0.10149444 -0.09369568 -0.03444688
000020 a8 d5 d4 bc 22 b1 10 3e d0 1b ba bc 19 2b 20 3e
       -0.025980785 0.14130071 -0.02271834 0.1564144
000030 a0 ba 21 bd 56 be e5 bd 5d da ad 3d 63 a1 50 bd
       -0.03948462 -0.11217944 0.08488915 -0.05093516
000040 68 bb e8 3d f9 86 55 3d f1 68 06 3d b0 39 db bd
       0.1136387 0.052130673 0.032814924 -0.107043624
000050 1c c0 d4 3d 81 a5 47 3c 06 c8 85 bd 1a 9f bd 3d
       0.103882045 0.012185455 -0.06532292 0.09258862
000060 76 29 f5 3d 20 b1 10 3d 5a 05 48 bd 0e 3d 78 3d
       0.11970799 0.03532517 -0.04883323 0.0606051
000070 ac fe bd bb 13 11 e4 3d b2 49 a1 3d ca db b5 3d
       -0.0057981815 0.11136069 0.078753844 0.08879812
000080 16 53 22 be e8 d4 3a 3c 06 13 9c bd bb 72 e3 bb
       -0.15852007 0.0114033 -0.07620816 -0.006941167
000090 f4 0a 79 3d bc 19 bf 3d 3f d2 4a 3d 64 03 d9 3d
       0.06080146 0.0933108 0.049516913 0.1059635
0000a0 cb ab 47 bd 03 44 56 bd 1f bf a0 bd bb 43 a9 3d
       -0.04874782 -0.052310955 -0.078489535 0.08264872
0000b0 14 d3 8f bc c4 0b 8d bd c3 08 8d bd 75 31 77 bc
       -0.017556705 -0.0688701 -0.06886437 -0.015087475
0000c0 08 65 89 bd 76 6c 98 3d a7 8b 00 bd 7a 82 cf 3d
       -0.06708723 0.07442562 -0.031383183 0.10132308
0000d0 30 f2 88 3d 18 74 a5 3d b8 48 1e 3d a9 88 0f 3d
       0.066868186 0.08078784 0.03864357 0.03504244
0000e0 2a 08 f7 3d 5d b3 88 3c 1d 97 22 3d 3b 0a cb 3d
       0.12062104 0.01668709 0.039694894 0.09914061
0000f0 b8 ec c3 bd b2 08 1e bc 93 cb 0d bd be 78 1b bd
       -0.09566635 -0.009645628 -0.03461797 -0.037956946
000100 7a dd b7 3d 70 99 17 3e 07 0f f4 bc e3 fa 04 3e
       0.0897779 0.14804626 -0.029792322 0.1298633
000110 f0 7b c1 3b f3 96 12 be 33 07 b2 bc 4e ad 54 3d
       0.005904667 -0.14315395 -0.021731948 0.05192309
000120 f2 36 0d 3e 65 30 6d 3d 6c 46 75 bd 15 1a b5 bd
       0.13790491 0.05790748 -0.059881613 -0.088428654
000130 eb ca bf 3d 0e 94 c7 3d 3b 49 af bd 7f b8 a5 bb
       0.093648754 0.09745036 -0.085588895 -0.005057394
000140 a0 9f 00 be be 04 2d be e7 f1 0f 3e 4c 94 bf 3d
       -0.12560892 -0.1689634 0.14057122 0.09354457
000150 1d c8 e3 bd ad 30 c6 3d 91 e2 93 3d 01 78 11 3e
       -0.11122153 0.09677253 0.072209485 0.14205934
000160 72 59 cc bd ad 5d c6 bd 59 3a 7f 3d fe 23 2d 3d
       -0.09977998 -0.09685836 0.062311504 0.042270653
000170 44 85 b7 bd 89 d6 2c be 66 90 f6 3d 77 2f 05 bd
       -0.08960965 -0.16878714 0.120392606 -0.03251597
000180 61 b7 0a 3e 9a 98 4c 3d 90 b0 78 bd 02 62 2a 3d
       0.13546516 0.04995022 -0.060715258 0.041597374
000190 4e 28 1d 3e b9 bd fd bd 25 0f ae bb 5e e0 85 3d
       0.15347406 -0.12389702 -0.005311864 0.06536935
0001a0 c2 86 8a bd db 8d 37 be 86 47 1f 3e e9 6a c0 3d
       -0.06763984 -0.17925207 0.15554628 0.093953915
0001b0 c5 67 11 bd 69 1a db 3d 32 0f fc b9 46 b1 80 bd
       -0.035499353 0.10698397 -0.00048076507 -0.06283812
0001c0 01 bd 88 3d 77 e1 b0 3d 77 c9 46 bd 86 dc c4 3c
       0.06676675 0.08636754 -0.048531976 0.024030935
0001d0 aa b0 9e 3d dd 35 c0 3d da de 04 be 8a 13 f3 3d
       0.0774854 0.093852736 -0.12975636 0.11868961
0001e0 0d 1a b5 bc 12 11 a8 3c 36 30 84 3d 9a b0 81 3c
       -0.022107149 0.020515952 0.06454508 0.01583128
0001f0 30 c9 fc 3d 97 ae f6 3c 84 e1 c2 3c b5 d5 e8 3d
       0.12343061 0.030112548 0.023789175 0.113688864
000200 54 23 9c 3d c5 5c fa bc 15 0b 28 bd 41 0a a5 3d
       0.07623926 -0.030561814 -0.041026194 0.080585964
000210 77 15 34 3d 6c 7b 09 3e e3 28 de bd 17 6d 11 be
       0.043965783 0.13425988 -0.10847642 -0.1420177
000220 49 da ae 3d 5c 7a 00 3e 7c 32 d6 3c 56 5b 9f bc
       0.08537728 0.12546676 0.02614712 -0.019452732
000230 a0 f1 42 bd 67 bf ad 3d e7 38 fd bd 37 1c 8d 3b
       -0.047593713 0.08483773 -0.12364369 0.004306342
000240 97 a3 a0 bd 9b 5c 1f 3e 79 d6 8c bd b2 04 a8 3c
       -0.07843702 0.1556267 -0.06876845 0.020510051
000250 b7 73 9b 3d c1 dd 28 3d 79 3a 28 bd 78 4e 9d bd
       0.0759043 0.041227106 -0.04107139 -0.07680982
000260 17 cb 89 bd 4c 29 d5 3d de 68 9e 3b 1c ec da bd
       -0.067281894 0.104082674 0.0048342785 -0.106895655
000270 dd 22 4d 3d ef 1a a0 3c c6 81 03 be d0 51 ab bd
       0.050082076 0.019544093 -0.12842473 -0.08365214
000280 00 18 10 be 3f 58 5d 3d 8d a8 fe bc 12 56 4f bd
       -0.14071655 0.054039236 -0.03108623 -0.050619192
000290 24 53 8f bd 24 05 f8 3c 54 b2 e5 bb 2b b9 9c 3d
       -0.0699828 0.030275889 -0.0070097838 0.076525055
0002a0 65 01 ca 3c 20 90 e0 3d 4c 67 6d bd 65 70 18 be
       0.024658868 0.1096499 -0.05795984 -0.14886625
0002b0 a5 43 1c bd 2e 50 fc bc d5 c8 c5 bd 22 4d 66 3d
       -0.03815045 -0.030799951 -0.09657446 0.056225903
0002c0 c1 f4 37 bc 0a 43 dd 3d 29 f9 be 3d 30 87 04 3e
       -0.0112277875 0.10803802 0.09324867 0.12942195
0002d0 8a 9a 19 bd 8b d4 00 3e 33 6f e1 bd ed bc 89 bd
       -0.037500896 0.12581079 -0.11007538 -0.06725488
0002e0 2e 4e b7 bd 60 0f e4 bc 7d 63 75 bd 11 98 d8 bd
       -0.089504585 -0.027839363 -0.059909333 -0.10575879
0002f0 22 24 5f 3d 85 d1 46 3c 75 40 17 bd 8e 26 75 3d
       0.05447782 0.012134914 -0.036926705 0.05985122
000300 2d 57 ad 3d 70 22 47 bd e4 e8 0a 3d 79 f3 e7 3c
       0.08463893 -0.048616827 0.033913508 0.028314339
000310 34 e4 65 bd 56 18 18 be 24 76 ef bd 1a 3b 84 bd
       -0.056125835 -0.14853033 -0.116924554 -0.06456585
000320 4d 20 06 3e 11 34 ff bd a3 16 5b bd de bb 87 bc
       0.1309826 -0.12461103 -0.053488385 -0.016569074
000330 4c 61 8c bd cd f5 e1 bc 99 d7 17 be 34 e7 c1 bd
       -0.068544954 -0.027583027 -0.14828338 -0.094679266
000340 81 6e df 3d 6b 65 f8 bd 4b 0c c3 bd 1f 68 c9 bd
       0.10909749 -0.12128719 -0.09523829 -0.09834313
000350 ec 8f 82 bd f9 d1 b3 bd 4d d7 a7 bd cb c5 ba bd
       -0.06375107 -0.087802835 -0.08195362 -0.09119757
000360 1a 76 92 3d b2 c5 e1 3d 68 9f 01 bd 8a 40 e1 3b
       0.07151432 0.110240355 -0.031646162 0.0068741487
000370 aa 37 64 3b b1 b0 70 3c c9 45 cb bd 35 21 98 bd
       0.0034823217 0.014690564 -0.0992542 -0.07428209
000380 6b 87 9a 3d 46 cd d3 3d 38 d3 da bd f7 28 73 bd
       0.0754536 0.10341887 -0.10684818 -0.05936524
000390 a0 22 a1 3d 5b f4 79 bd 9d 02 f8 bc 06 fb dc 3d
       0.07867932 -0.06102405 -0.030274684 0.107900664
0003a0 1e e7 c7 bd 21 7b 1c bd 96 4c 7d 3d c2 e7 eb bc
       -0.09760879 -0.038203362 0.061840616 -0.028797034
0003b0 7a fd 4b 3d b1 53 3c 3c e3 11 dc bc 45 03 d2 3d
       0.04980228 0.011494563 -0.026863998 0.1025453
0003c0 87 df 9b bd 0b 14 c9 bd 1e dc fe bd 15 91 fb 3c
       -0.07610994 -0.09818276 -0.12444328 0.030708829
0003d0 2e 12 a9 bd b2 54 81 3d ee c6 42 3c ef dc 06 be
       -0.082554206 0.063149825 0.011888249 -0.13170217
0003e0 b6 a8 22 bd af 19 a7 bd ea 38 1b 3d 7b 0a e1 3d
       -0.039711677 -0.08159196 0.037896074 0.10988327
0003f0 b6 5b 0d be e1 33 42 3c 44 b1 96 bd 6f 6b 70 bd
       -0.13804516 0.011853189 -0.073580295 -0.058696207

bias f4 [10]
000000 09 1a 1e be f6 52 1b bc 0c 31 ba 3c 64 91 df bc
       -0.15439619 -0.009480229 0.022728465 -0.027291007
000010 9b 1f 8e 3d 97 29 ea 3c 14 22 2d bd 72 ca 67 bc
       0.06939622 0.028584285 -0.042268828 -0.014147388
000020 3b 5b 38 bd 28 b4 34 3d
       -0.04500888 0.044117123
