models/gpu_train_model24.pth (torch, 587335 bytes, 10 tensors)

weight f4 [32, 3, 5, 5]
00000000: 57b6 953d d509 4b3e f12d 383d 91fd 55bd
00000010: 064b 15be 9193 3b3d e9a0 2f3e 15fa 423e
00000020: 5269 f8bd 3997 fcbd 126c 993d 0129 103e
00000030: bd33 b43b fc4b 81bd 4041 4dbd 1512 d53c
00000040: 313c 21be 8ba7 febd 7c3a 2c3d e9a0 6f3e
00000050: 084f 36be 0665 29be e0c7 b73d e5e0 d63d
00000060: 710f 2b3e 7fb3 0a3e 0bde 143e a305 96bd
00000070: d366 bc3b 24c4 f6bd e58b 403e f9cf 683d
00000080: 7879 983d 77a4 1abe 35d7 8cbd 8819 b43d
00000090: d9c1 743d e997 2b3d 7056 38bd 4e21 bbbd
000000a0: 6cc6 d1bd e96b 55be da56 bcbc d6b3 eb3d
000000b0: aff4 743e 6253 e9bd 26fd 71bd 79ae 763d
000000c0: d14f 963d 009c 003e a580 c23d d73f c73d
000000d0: cc7a 37be 0ba3 6abe 00ee 19be f9ff 8dbc
000000e0: 9dd4 523d 0c89 d1bc 86e2 80be a344 7abe
000000f0: 7808 1fbd 767d 86bc 562e 9ebd 84a4 74bd
00000100: 861c 07bd 0635 f0bd 1d89 bdbd 2d81 41be
00000110: df24 083e 511c db3d 790d 4abe 4b1d 08bc
00000120: 148f d4bc 4222 07bd 77c2 6a3c 6753 2a3e
00000130: 3f2e f0bc 2a6e 35be cc0c 37bd 5878 cfbd
00000140: db58 a2bd f8bc 51be 635a a1be 6e80 293d
00000150: 0f18 263e 9324 57be cd9b 48be 4975 0dbe
00000160: e3b8 693e 54ea bd3d 375c 83bc 4104 58be
00000170: 1560 903d b833 0a3e 7f2e 8a3d 1656 383d
00000180: 310b 4abe 5c91 003e 3d77 013e 842f f7bd
00000190: f232 593e f074 aebd b1b9 d5bd de09 8e3c
000001a0: 1693 273e f0f6 e7bc 9340 00bd bce4 76be
000001b0: 487e 293e 86d8 4a3e 544a e2bd 3bf3 a13c
000001c0: fc09 60bd 9448 583e 3718 fb3d f6f5 433d
000001d0: a61f 25be 7df2 633e c74c 773e f0e3 883d
000001e0: 819f d33c 236f 323c 2410 3e3e 4c64 543d
000001f0: cd7e 9bbc a78d 293e fb44 bcbc b2aa 7dbe
00000200: 1944 83bd 0508 0ebd 2cba 0dbc c762 94bd
00000210: b991 0bbe a9d6 c23d 374d 953d ea10 22be
00000220: fb4d 85bc dff8 5b3d f461 183e 42bb 02bd
00000230: 81fd 30be 56f1 21be 9b05 aa3d 3200 cf3c
00000240: 6a75 15bd 83be ffbd 1837 b3bc 0049 f23c
00000250: 2cc2 fb3d 5118 54bd 1538 e5bd da3c 143e
00000260: 8856 aa3d c3a6 b43a 2bda 543c 8215 26be
00000270: 9d01 683e 6c6b 2f3e 4872 dabd 1b7c acbc
00000280: aad4 e3bd 2843 3d3e b64a 323e af67 86bb
00000290: 936e 233e 0119 6d3d e46a 6b3e dcae 3b3b
000002a0: 8fd4 263d 0ee6 573e 0540 b13d 89c9 033e
000002b0: 08fa f03d ae9b 8eba c0ba 233e 9d25 6dbd
000002c0: 5ba1 4e3d de7e 3dbd 602c 9ebd 8b72 003e
000002d0: bf25 95bd f7b9 963c 65c7 f6bc 853f 563d
000002e0: f61f 8f3d d796 39be 630b bc3c 9bbc 03bd
000002f0: 9722 2bbe 2fd4 883d 3b81 f7bd 7d95 4cbd
00000300: 193c 08be 6a58 e0bc 7ffb 1d3e fb96 bebb
00000310: 5a6c 143d f304 133d 2036 993d 3ac8 913b
00000320: 8987 87bd da32 7cbd ba55 3fbd 0f2e 233d
00000330: ed3d e1bd 7722 5cbe 8249 013d b625 0fbe
00000340: d79d 2ebe 529e 003d 1d26 8ebe 8e43 b5bb
00000350: 4076 e7bd 2a13 0ebe ef0f 963d dbc2 f8bd
00000360: 071d 61bd e821 fcbd bbff f7bc 1e22 813c
00000370: 6722 46be dbaa 6c3d 4c30 1ebe 64b4 7d3d
00000380: 1467 343d a6f3 b23d 61ba d7bd 04d6 9fbd
00000390: 6cad 5abd 3934 eb3d b2a2 53bb c85d bc3d
000003a0: 76fe cebd fd98 7b3c a766 923d 6f3d f63d
000003b0: eed4 10bb ae54 943d 8c4a 9dbd a960 a53d
000003c0: 1408 1cbe ab71 033e f37d e23d 8998 623e
000003d0: af36 bf3d 6ae9 88bc 073a c8bd e201 e13d
000003e0: 8d69 fa3d 9b95 6dbd fb23 aebd f7d1 3abe
000003f0: f755 593d 303e 773c dba2 d73d 4a5b 183e
0.07310169 0.1982797 0.04496569 -0.052243773 -0.145794 0.045795027 0.17151226 0.19040711
-0.12129463 -0.12333531 0.07491316 0.14078142 0.0054993317 -0.06313321 -0.050111055 0.026009599
-0.15745617 -0.124343 0.042047963 0.23401226 -0.17803586 -0.16542444 0.0897367 0.10492114
0.16705109 0.13545035 0.14537828 -0.07325294 0.0057495623 -0.120491296 0.18803366 0.056838963
0.07445043 -0.15101801 -0.06876985 0.08793932 0.05975518 0.04189292 -0.04500431 -0.09137212
-0.10242924 -0.20841946 -0.022990633 0.1150891 0.23921464 -0.11392857 -0.05907931 0.060224984
0.073394425 0.1255951 0.09497193 0.09728973 -0.17917937 -0.22913758 -0.15032196 -0.017333971
0.051472295 -0.025578044 -0.25172824 -0.24440245 -0.038826436 -0.016417246 -0.07723682 -0.059727207
-0.032986186 -0.117288634 -0.09254668 -0.18896933 0.13295315 0.1069876 -0.19731702 -0.008307765
-0.025947131 -0.032991655 0.014328591 0.16633378 -0.029318927 -0.17717806 -0.04468994 -0.101303756
-0.07927104 -0.20482242 -0.31514272 0.041382246 0.16220115 -0.21010046 -0.19590683 -0.13814272
0.22824435 0.0927321 -0.016035182 -0.21095373 0.07049576 0.13496292 0.0674715 0.045003973
-0.19730832 0.1255545 0.12643142 -0.1206961 0.2121084 -0.08518398 -0.104358084 0.01733869
0.16364703 -0.028315991 -0.031311583 -0.24110693 0.16552079 0.1980916 -0.11049333 0.019769302
-0.05469702 0.21121436 0.12260478 0.04784199 -0.16125354 0.2226047 0.24150382 0.06684101
0.025832893 0.010890755 0.18560845 0.051853463 -0.018981362 0.16557942 -0.022982111 -0.24772146
-0.06409473 -0.034675617 -0.008650344 -0.07245403 -0.13629808 0.095135994 0.07290118 -0.15826765
-0.016272536 0.05370414 0.14881116 -0.031916864 -0.17284204 -0.15814719 0.083018504 0.025268648
-0.036488928 -0.12487509 -0.021876857 0.029575825 0.12292895 -0.051781002 -0.111923374 0.14476338
0.08317286 0.0013782609 0.012991468 -0.16219142 0.22656865 0.17130822 -0.10666329 -0.021055272
-0.11124547 0.1848265 0.17411312 -0.0041017155 0.1596015 0.057885174 0.22989994 0.002863816
0.040730055 0.21083853 0.08654789 0.12869848 0.1176644 -0.0010880136 0.15989208 -0.0578972
0.05044685 -0.046263568 -0.077233076 0.12543695 -0.0728259 0.018399222 -0.030124376 0.05230667
0.06988518 -0.18123947 0.022954648 -0.03216229 -0.16712414 0.06681096 -0.12085196 -0.04994725
-0.13304175 -0.02738591 0.1542797 -0.005816338 0.036236145 0.03589339 0.07481027 0.0044489177
-0.06617648 -0.061571933 -0.046712615 0.039838847 -0.109981395 -0.21497522 0.031564243 -0.1397923
-0.17052399 0.031400986 -0.27763453 -0.005531735 -0.11301851 -0.13874498 0.07327258 -0.12146541
-0.054959323 -0.123111546 -0.030273309 0.015763339 -0.19349061 0.057780128 -0.15448111 0.061939612
0.044043615 0.087378785 -0.10533596 -0.07804492 -0.053388044 0.1148457 -0.003229302 0.09197575
-0.10107128 0.0153562995 0.07148486 0.12023436 -0.0022099572 0.07242714 -0.07680234 0.08075077
-0.15237457 0.1283633 0.11059179 0.221285 0.09336602 -0.016712863 -0.09776693 0.10986687
0.122271635 -0.058004003 -0.085029565 -0.18244158 0.053060498 0.01509051 0.10529109 0.14878574

bias f4 [32]
00000000: 77c5 a43d db04 603d 4b9d 33bd c7c2 39be
00000010: 43c8 babd f7da c23d c6f1 523e f65b ff3d
00000020: 47f1 80bd 3da2 893c fff5 2c3e 99a2 a9be
00000030: 0434 a1be c2dd d53d 35ee 02be 4351 98be
00000040: 8fd7 73be 9851 953d 8b21 5d3e 6f44 33be
00000050: a9f2 16be 76a6 afbe c990 14bd 211a f7bd
00000060: b40c 66bd 8d58 4b3d 7058 6fbd f40c 27be
00000070: 352f 90bd 020f 38bd d929 883d 41db 5b3d
0.08045476 0.05469213 -0.04385118 -0.18140708 -0.09120228 0.095144205 0.20600042 0.12468712
-0.0629602 0.016800994 0.16890715 -0.33131865 -0.31484997 0.104426876 -0.12786181 -0.29749498
-0.23812698 0.072909534 0.21594827 -0.17506574 -0.14741005 -0.34306687 -0.03627089 -0.120655306
-0.05616446 0.049644995 -0.05843395 -0.16313535 -0.07040254 -0.044936188 0.06648607 0.053675894

weight f4 [32, 32, 5, 5]
00000000: 49f9 07bd 8bf0 1a3c a1a2 443c 27b5 c73a
00000010: 6ca9 f23c 73fc 6abc e454 5fbc 0280 5d3d
00000020: f25b a23c 6483 7c3d 1dbf f9b9 fdab db3c
00000030: 2b03 813d 552b fb3c 1d12 0fbb d18e 213b
00000040: ba59 253d eec5 8e3d d975 3e3d 5db1 bd3c
00000050: 47b0 a63c 3cd7 c23c 1139 6d3c f22a ca3c
00000060: 4425 e43c 2f0d 46bc 7182 20bd 8b25 d8bb
00000070: e5ff 893c a45e 1a3d 4457 313c 5924 bd3b
00000080: c995 a3bc 7130 563c 78fc 6b3d 7acf 0bba
00000090: d073 46bb 4a18 103d 4718 813d 075b 923d
000000a0: 6d2c 88bd e434 56bd 5817 f83c 171c 33ba
000000b0: 3e1e 113c 01b9 d4bc 56e5 48bd 6e19 553d
000000c0: db87 cb3c b045 083d 553e 213c aacc 1bbd
000000d0: 185b e2bc 6744 113c 1cb7 81bc fdf4 253b
000000e0: 4a53 aabd 32b9 30bb 2cef 073d d687 84bb
000000f0: 0cc1 91bd f788 27bd fe70 2dbd e486 84bc
00000100: 3914 54bc f1ac dcbc 00ba 8bbd 4880 29bd
00000110: 702c 033d b85d cebc 5402 c0bc 8cfa 23bc
00000120: e86d 763b 4684 34bc fc9b 903c 44af 13bd
00000130: 24f0 ee3a 7a81 4e3c 9bda a13c 10b0 173b
00000140: 3928 9b3a e889 40ba 0a0b a5bc 249f 2cbc
00000150: 495b 8cbc 8ec8 21bd 389c bebc 5e1f 97bc
00000160: c0d1 823c eb14 933c c92e 90bc be02 25bd
00000170: 1eaa 46bd 9a89 b1bb ff4b 27bc 8ee1 59bc
00000180: ff5a 05bc 9744 eb3b 11ab e93c d75f ce3c
00000190: ebc3 e13c f9e3 3d3d 2c69 05bd ab1b 633c
000001a0: 3a05 0dbd 2edd 7f3c 8e24 f53c 7192 293d
000001b0: 2cfd 45bb bde5 5c3b 238f 793c e72a 533d
000001c0: 777a 353b 1974 2bbb c3f9 e43c 2412 fe3c
000001d0: d1fc 003d d323 94bc 8de7 3dbd 48f5 14bc
000001e0: 5b9c f3bb 568c 9a3c fb41 ebbc a98c 37bd
000001f0: 65cc 25bc 675c 313d 809b 02bc f22a a93c
00000200: d259 23bc 87f0 d5bb 8161 2b3d 5102 ac3c
00000210: 5b41 013d 42ef 833c 4b66 20ba b768 173d
00000220: 229a 533c 7970 213d 4975 f93b 9da5 bbbb
00000230: 4c94 473d fc82 adbb 9464 8f3b be4a 17bd
00000240: dc3e af3b 2c75 c33c eaa5 c03c 8516 f53b
00000250: a5cf febb b0e2 35bc 0811 27bc 060d e73c
00000260: c618 b23c 7b7f 9e3d d8ac 263c 6c54 2cbc
00000270: a78b 643d b888 523d 6949 983d ea0c 593d
00000280: 552a 12bc f1f5 893d e390 1a3d 9b64 493d
00000290: 6814 a93d 557e d1bc 5a07 093d 13d2 043d
000002a0: 74d1 8b3d e21b 4d3d 7069 2fbc f83b 15bd
000002b0: 7acd 213c b0fb 29bd d720 a7bc 8319 22bc
000002c0: f0b2 483c dda1 ff3b 82ba d53c c5a1 943c
000002d0: 0060 073d 395a 4d3c 75bf 6a3d ae7a 3e3d
000002e0: dc05 963c 806c 96bb f34c cb3c fc5c e63c
000002f0: 307f 8abc 9708 b23b 1568 0a3d fff4 29bc
00000300: 828f babc bf65 cdbc af9b 8ebc 59a2 08bc
00000310: bb83 573c 30e9 67bd c6af 36bd d535 34bd
00000320: 9de2 9c3b c8f4 58bc fdbd 063b ad91 87bc
00000330: 1c15 143c f403 adbc aaca adbc aebf c8bc
00000340: e6d2 883c cd4b 8ebc 39a6 063d 19dc 053c
00000350: f8c0 1fbb 083d bbbc 13d8 fc3c 658c fc3b
00000360: 4d4a 173d f81b 043d 146d 873c ba60 113b
00000370: 46b5 a03a 98c7 22bd cc5b 873c 1bc8 a5bb
00000380: 9c56 37bd 38ba c13c 0fa5 fabc 4dd1 7abc
00000390: 6aa3 5ebd 9bf4 e6bc ca4a 0bbc b6cc 5cbd
000003a0: 5f08 6fbc 4dfc 8abd 733d 02bd 43e6 313b
000003b0: c132 7abd 0672 2ebd 297b 7a3b e9d4 cbbc
000003c0: 379a d43c 9900 10bd 1e59 97bb 9332 1bb9
000003d0: 8692 93bc 368f 9bbc d5a6 66bd ca61 373c
000003e0: 901c 263c caeb 05bd 30f7 023d 42b9 38bb
000003f0: 7826 9bbc b9ec 02bc 34d2 123d f3cf 04bc
-0.03319672 0.009456764 0.012001664 0.0015236483 0.029621802 -0.014342415 -0.013631079 0.054077156
0.019819234 0.06164874 -0.0004763537 0.026815409 0.06299432 0.03066031 -0.0021830865 0.0024651776
0.040368773 0.06971346 0.046499107 0.023155862 0.020347727 0.023784272 0.014478938 0.024678681
0.0278498 -0.012088104 -0.0391869 -0.0065962723 0.016845653 0.037687913 0.010824028 0.0057721552
-0.019968884 0.013073073 0.05761382 -0.00053333456 -0.0030281432 0.035179414 0.06303459 0.07146268
-0.066490985 -0.052296534 0.030284569 -0.0006832494 0.008857308 -0.025967123 -0.049046837 0.052026205
0.024845054 0.033269584 0.009841521 -0.03803698 -0.027631328 0.008866406 -0.015834384 0.0025323026
-0.083166674 -0.0026965854 0.033187076 -0.004044513 -0.07116899 -0.040902104 -0.042344086 -0.016177602
-0.012944275 -0.026937934 -0.06822586 -0.041382104 0.0320248 -0.025191173 -0.02343861 -0.0100084655
0.003760213 -0.011017865 0.017652504 -0.03605582 0.0018229526 0.012604112 0.01975756 0.0023145713
0.0011837549 -0.00073447684 -0.020146865 -0.010535989 -0.017133372 -0.039497904 -0.02326785 -0.018447574
0.015969157 0.01795431 -0.017600434 -0.04028582 -0.04850208 -0.0054180147 -0.01021099 -0.013298405
-0.008139371 0.0071798074 0.028523954 0.025192184 0.027559241 0.04635999 -0.032571003 0.013861577
-0.034428813 0.015616698 0.029924657 0.041399423 -0.0030210717 0.003370627 0.01523188 0.051554587
0.0027691403 -0.002616173 0.027951127 0.03101451 0.031491105 -0.018083489 -0.046363402 -0.009091683
-0.0074344105 0.018865746 -0.028717985 -0.04481188 -0.010119532 0.043301012 -0.007971644 0.02065036
-0.009970145 -0.0065289172 0.041841034 0.020997198 0.03155647 0.016105298 -0.00061187585 0.0369651
0.012915166 0.039413903 0.0076128584 -0.0057265298 0.04872541 -0.0052951556 0.0043760035 -0.036936514
0.0053480696 0.023859583 0.023516614 0.007479491 -0.007776218 -0.01110141 -0.010196932 0.028204452
0.021740329 0.07739159 0.010173045 -0.010518175 0.055797245 0.051399916 0.07435877 0.05299083
-0.008921226 0.06736363 0.03773583 0.04916821 0.08255845 -0.025572935 0.033454277 0.032426905
0.068270594 0.05007542 -0.010706291 -0.036434144 0.00987565 -0.041499794 -0.020401401 -0.009893778
0.012249693 0.007801278 0.02608991 0.018143544 0.033050537 0.012533718 0.057311494 0.046503715
0.01831334 -0.004590571 0.024816966 0.02812051 -0.01690635 0.005433153 0.033790667 -0.010373353
-0.022773508 -0.02507293 -0.01740822 -0.008339488 0.013153966 -0.05661887 -0.044601224 -0.04399665
0.0047877566 -0.013241954 0.002056002 -0.016548956 0.009038236 -0.021120049 -0.021214802 -0.024505462
0.016702127 -0.017370129 0.032873366 0.008170151 -0.0024376493 -0.02285625 0.030864751 0.007707166
0.036936093 0.032253236 0.016531505 0.0022182898 0.0012261055 -0.03974113 0.016523264 -0.005059255
-0.04476033 0.023648366 -0.030596284 -0.01530869 -0.054355063 -0.028192809 -0.008501718 -0.053906165
-0.014589398 -0.06786404 -0.031796884 0.0027145303 -0.06108356 -0.04258921 0.0038220382 -0.024881797
0.025952442 -0.03515682 -0.004618778 -0.00014800792 -0.018014204 -0.018989187 -0.056311447 0.011192748
0.010138646 -0.03269557 0.031974018 -0.0028186594 -0.018939242 -0.007991009 0.035844997 -0.00810622

bias f4 [32]
00000000: 05fc 2f3c 9bf3 6bbe 3b9d 113d dbe9 82bc
00000010: 0573 f9bd b2e2 2b3d 1ed2 09bd 47b2 0abe
00000020: 142d 563c 74ed c4bd a2d5 06be bc60 963d
00000030: 82d8 debd 91be 9ebd f622 06be c9a4 e9bd
00000040: da70 89bd 9f98 0ebe c073 66bd 8f7e 22be
00000050: 1586 05bc b9b5 7ebd ada7 b4bd 2791 433c
00000060: 59ca 1e3d 6b33 c63c d013 5fbe 336d 7dbe
00000070: 5bfb 323d 6531 fcbd 66dc 50bd d53c 44be
0.0107412385 -0.23042147 0.035550337 -0.015980652 -0.12180141 0.04196424 -0.03364765 -0.1354457
0.013072271 -0.09615603 -0.13167432 0.07342669 -0.10881139 -0.077511914 -0.13099274 -0.114083834
-0.06710978 -0.13925408 -0.05626273 -0.15868591 -0.008149643 -0.062185023 -0.08821044 0.0119364625
0.038767193 0.02419444 -0.21784902 -0.24748687 0.043696743 -0.12314109 -0.05099144 -0.1916383

weight f4 [64, 32, 5, 5]
00000000: 917f 09bd 7033 83bc f05f 11bd 3101 33bd
00000010: da2c 3dbc f30b 0a3d 55f7 9f3c 750e c6bc
00000020: 3e34 c5bc 6ef3 71bc 6fc8 efbc 1849 463c
00000030: 47b7 1cbc 95e3 c5bc 9e80 bd3b 72f3 443c
00000040: 9259 1abd bbd3 043c 19f6 2c3b 8e25 a23d
00000050: c26e 253c ef96 373d 2dd2 383b 7fa3 f4bc
00000060: 2794 b43c ebd0 b23d 995e 203d 0eec 22bd
00000070: 9be4 27bd c64e 4cbd 3333 293d 0144 2cbb
00000080: 8af5 1f3b 7aaf a7bc 0bd0 aabc d2e1 99bc
00000090: 1d97 7c3c c317 503c 0500 ff3c 0fe1 493d
000000a0: 6ab6 a8b8 acf5 3e3c cbf6 41b8 2c98 e6bb
000000b0: e008 06bd 7184 05bb 697b f33c 094f 803d
000000c0: a895 d7bc 8cca d3bc e6af 013d cf21 dcbc
000000d0: 3ca7 f9bc aea8 46bd 99a8 0b3d 501d 073d
000000e0: f04d 113b 8e05 693d 240d b13b 9c3f 52bc
000000f0: 2ed1 a33c b580 fb3b c16f d7b9 4210 213d
00000100: b114 1c3d 1c6e 04bd b9b6 313b 7b1f 263c
00000110: a85b 25bc 2c1b b53b 6303 5bbd 10a0 cf3c
00000120: 167d 463d 948b 08bd ebdc 06bd 9dc5 0fbc
00000130: b57e 953c 8a7b 9e3c 7ed2 933c 9929 d43c
00000140: 1a3d e23c e9aa 19bc d968 5e3c 1022 f43b
00000150: 956c 91bc 93b6 1b3c 278e e23a 114a e3bc
00000160: 6fee cab9 62e1 1fbc ec13 313d f4d4 0c3d
00000170: f627 d93c 8c4f 2b3c 5548 cb3b ca67 2fbd
00000180: 9f65 0cbd 9d7e 553c 393d dbbc d464 a53c
00000190: 7849 41bb fe69 81bc 1672 41bc 8040 bfbc
000001a0: 66ad 04bd bc85 6a3d 1019 f9bb 843a 133c
000001b0: 7672 bc3c e2bc 7e3b 4608 5b3d a7bf 54bb
000001c0: 9615 f2bc 8747 103d a8f5 e5bc 705f e3bc
000001d0: b20f a1bc b932 543c 6329 2e3d cfa5 83bc
000001e0: 65fb 6f3c 2da9 273c 544f 3f3c 3c8d 0c3c
000001f0: a65b 86bb 73b7 183b bf79 b4bb deaf 4abd
00000200: 9bc9 76bd b80c 863a da37 113a a8f5 9abb
00000210: 7c6d 21bd 87ca c5bc d9f7 81bd 86d5 cdbc
00000220: 93a6 33bb 8865 dcbc 4302 a63c e61d 093d
00000230: a873 01bd bfee 4ebd 5751 813c 5ad4 24bc
00000240: ba49 e8bc 7aac 65bd cb91 093d ccbe 663c
00000250: ba91 173d 9778 003d b9dc 1b3d 03c4 54ba
00000260: 2b22 f53c e21d 0c3c 7a1a f13c e2af b4bc
00000270: 5515 16bd c3bc 583d 2cd5 2c3d dd90 8b3b
00000280: 3697 e6bc f3d6 8e3c 4abf 713d 6a18 c8ba
00000290: a63d 623a a505 55bd 5405 f9bc 620a 1fbd
000002a0: b096 45bd 9628 983d 9416 743c 8a02 783b
000002b0: 355d e43a 70eb 80bc fc94 d53c 975d a4bc
000002c0: 6088 41bc f1e1 f3bb 9d3e 47bb b8b4 b1bc
000002d0: 24a3 debb 9eb4 d3bc c45b ccbc 761d 673b
000002e0: c82d 023c ff7a 9b3c 9bee 29bc 00e8 f4bc
000002f0: 7528 113d ca25 4bbc 9ecd 8b3c 54c9 ef3c
00000300: e3e7 853c 4174 83bc c592 e53c 122a 41bc
00000310: 2d05 19bd 829b fd3b 5272 a1bc 502c 033d
00000320: b052 1cbc aa14 34bc d117 32bb 9df6 9abc
00000330: 401d 44bd 4680 ab3c 9f65 d8bc e9be 11bd
00000340: 27c2 99bc f108 fabc 9ce9 c03c d7ac a6bc
00000350: 7aee cfbc e3e6 2abd 36bd ac3c d286 d8ba
00000360: 6508 9fbc 2f80 aebc 761a 12bd c74c c3bc
00000370: 41dc b7bc b7bc a9bc 32c4 143d a0d8 ae3c
00000380: 3d7f ad3c 604c b8bb a8f8 0bbd b329 373b
00000390: a90c 0bbd 9be5 d3bc 7d05 e0bc 8838 0bbc
000003a0: b096 4fbc e65a 16bd fbfc 23bc abee d5bc
000003b0: dcb9 f0bc b666 92bb 2024 afbc 524d 06bd
000003c0: 49e1 5b3c 4f4f f1bc 6cb5 26bd 0114 37bd
000003d0: 616b 123d 95ec 2abd 7343 8cbc 191e 8b3b
000003e0: bbec dc39 0f24 0f3d 042c 30bc c44b 42bd
000003f0: f7d2 d5bc 1484 32bd c533 e53b 6ba9 903b
-0.033568922 -0.016015738 -0.035491884 -0.043702308 -0.011546338 0.033702802 0.019527117 -0.024176816
-0.024072763 -0.014767511 -0.029270379 0.012102388 -0.009565181 -0.024156371 0.0057831546 0.0120209325
-0.037683077 0.008107121 0.0026391803 0.07917319 0.0100972075 0.044821676 0.0028201446 -0.029863117
0.0220433 0.08731254 0.039152715 -0.0397759 -0.0409895 -0.04987981 0.041308593 -0.002628565
0.0024407827 -0.020469416 -0.020851156 -0.018784437 0.015416888 0.012700978 0.031127939 0.0492869
-8.0448415e-05 0.011655252 -4.624463e-05 -0.0070371833 -0.032723308 -0.002037313 0.029721932 0.06265075
-0.026316479 -0.025853418 0.03166189 -0.02687159 -0.030475251 -0.04850071 0.034096334 0.03298694
0.0022171699 0.056890063 0.005403178 -0.0128325485 0.019997206 0.007675255 -0.0004109126 0.039322145
0.03810567 -0.03233157 0.0027116968 0.0101393415 -0.010092653 0.005526921 -0.053470027 0.025344878
0.048459135 -0.033336237 -0.032925528 -0.008775142 0.018248895 0.019346017 0.018044706 0.025898742
0.027617026 -0.009379127 0.013574802 0.0074503496 -0.017751971 0.009503978 0.0017284796 -0.027745279
-0.0003870609 -0.009758325 0.04323189 0.034382775 0.026508313 0.010455977 0.006203691 -0.04282359
-0.0342766 0.013030675 -0.026762592 0.02018968 -0.0029493254 -0.015797611 -0.011806985 -0.023346186
-0.032391928 0.057256445 -0.0076018646 0.008986119 0.023003798 0.0038869907 0.053474687 -0.0032462867
-0.029551309 0.035224464 -0.02807124 -0.02775547 -0.019660804 0.012951546 0.04251994 -0.016070275
0.0146473395 0.010233206 0.011676628 0.008578595 -0.004100281 0.0023302704 -0.0055076773 -0.049484126
-0.06025086 0.0010227179 0.00055396336 -0.0047289915 -0.039411053 -0.024144424 -0.06346101 -0.02512623
-0.0027412518 -0.026903883 0.02026475 0.03347578 -0.03160444 -0.050520655 0.015785856 -0.010060394
-0.028355468 -0.05607269 0.033586305 0.014083575 0.03700421 0.031365003 0.038052294 -0.0008116366
0.02992352 0.0085520465 0.02943157 -0.022056524 -0.036641438 0.052914392 0.042195484 0.0042592124
-0.028148275 0.01743648 0.059020318 -0.0015266065 0.0008630402 -0.052007336 -0.030398048 -0.03882826
-0.04823941 0.07429616 0.014897961 0.003784331 0.0017422797 -0.015737265 0.026072018 -0.020064158
-0.0118122995 -0.007442706 -0.003040231 -0.021692619 -0.00679435 -0.02584296 -0.024946101 0.0035265363
0.007945485 0.018979548 -0.010371829 -0.029895782 0.035438973 -0.012399146 0.01706582 0.029270805
0.016345924 -0.016046645 0.028024087 -0.0117898155 -0.03735845 0.0077394852 -0.019707832 0.03202468
-0.009541199 -0.010991255 -0.002717484 -0.018916423 -0.047879457 0.020935189 -0.026415644 -0.035582457
-0.018769337 -0.030521842 0.023548894 -0.020346088 -0.02538227 -0.041724097 0.021086317 -0.0016519672
-0.019413183 -0.021301357 -0.035669766 -0.023840321 -0.022443892 -0.020719869 0.03631992 0.02134353
0.021178836 -0.005624339 -0.034172684 0.0027948439 -0.03394762 -0.02586632 -0.027346367 -0.008497365
-0.012670204 -0.03670778 -0.010009046 -0.026114782 -0.0293855 -0.0044678105 -0.02137953 -0.032788582
0.013420411 -0.029456763 -0.04070036 -0.04469681 0.035746936 -0.04172953 -0.017122006 0.0042455313
0.00042138048 0.034946498 -0.010752682 -0.047435537 -0.026101572 -0.04358299 0.006994697 0.0044147274

bias f4 [64]
00000000: 578c 7cbd 9288 80bd 60c0 80bd 055a e2bd
00000010: 1ffe 96bd 4681 3dbb b89e aabd d342 a3bd
00000020: f27f 363c 13c1 92bd c5b4 3dbd 60b4 96bd
00000030: 61b4 aebc ac16 3cbd 15c4 d8bc 605a b7bc
00000040: 140b 8abd e6ca 2d3b 111b d5bd cff0 d8bd
00000050: c711 45bd 0aa7 08be b27c afbc 9e60 5dbd
00000060: 49ec c7bd abb2 03be 7b43 87bd 7a22 e2bd
00000070: 8c06 51bd 0824 6cbd abce 84bd 6dbe 12bb
00000080: a1c4 07bc 0c12 cebc c3ce f8bc 74b9 a1bb
00000090: 426d 99bd 6876 c23c b6a1 0c3d 167a 2dbc
000000a0: fa62 bdbd 28bd ddbd 4292 adbd 02f2 c6bd
000000b0: 6bbd 04bd ff54 303c 9ee9 20bd aaa4 51bd
000000c0: 97fa 28bd 149e 59bd 0e6b 823b e6c6 e5bd
000000d0: 4a10 dfbd 6014 e3bc f52f bdbb 904f 06be
000000e0: 37b8 8cbd cd36 4ebc 7878 3fbd 377c a9bd
000000f0: e2e4 64bd 52f1 70bd bf76 d63c 8a25 95bb
-0.061657276 -0.06276049 -0.062866926 -0.11052326 -0.073726885 -0.0028916164 -0.083310544 -0.0797173
0.011138903 -0.07165732 -0.046314973 -0.073586226 -0.021326246 -0.04592006 -0.026460687 -0.022381961
-0.06740394 0.0026518642 -0.10405553 -0.105928056 -0.048112657 -0.1334497 -0.021421764 -0.05404722
-0.09761865 -0.12861125 -0.06604668 -0.11041732 -0.051031634 -0.05765155 -0.06484731 -0.0022391335
-0.008286626 -0.02515509 -0.03037203 -0.004935438 -0.074915424 0.023738101 0.034333907 -0.01058819
-0.09247394 -0.10827094 -0.08475162 -0.09714128 -0.032407206 0.010762452 -0.039285295 -0.051182427
-0.041254606 -0.05312927 0.003980047 -0.112195775 -0.10891779 -0.027719676 -0.005773539 -0.13116288
-0.06871074 -0.012586308 -0.046745747 -0.08275645 -0.055882342 -0.05882389 0.02617967 -0.004551594

weight f4 [64, 1024]
00000000: 7a5b ae3b aaf8 fdbc 6e2e 3c3a bf45 b13c
00000010: 90f2 a13c c07a 923b f998 7c3b 7904 b5bc
00000020: fb78 063d 0e75 c13c ab01 003c 347f d23c
00000030: 5e51 adbc d434 09bd 49f0 81bc ca5f a4bb
00000040: 770a d0bc a3bb dfbc 7b42 99bc 6e68 e33c
00000050: e8e8 b93b 8c12 c33b 7ac7 133c 0eba 8b3c
00000060: 899c a039 b2ed 523c 000a cfbc 7572 d0bb
00000070: 7514 38bd 530f e4bc 7cb0 263d d847 363d
00000080: d2e9 8a3c ae30 8fbd 125e bebb 044c 48bc
00000090: 8c84 a7bc 6dd8 ba3a b869 08bd 8f8a 15bc
000000a0: 179b fa3c e34f c73c c069 363d fdd3 1a3d
000000b0: 1373 eabc 448c ecbb afe8 343c 0f26 743d
000000c0: 145d 7cbb c44e 8f3c b414 533b 21b8 3cbd
000000d0: 38cf 6c3d ab74 b03c cf80 423c b253 743d
000000e0: b1bb 32bc 5614 533d 8215 9d3c 6c9c 383d
000000f0: a049 ed3c 12ea 1cbb 04cb 7bbc 1bd2 09bb
00000100: 7d2a b53b b77b d2bb 0bad 063c 4b13 1e3c
00000110: ab2e 213d c975 433c 22e8 a13c 0bae 21bd
00000120: a02e b4bc 39fc c2bc 9470 c23b b2d2 90bb
00000130: caf6 3d3d aca5 d1bb 31a1 9e3c c8c1 9aba
00000140: 7350 e1bb 3687 0b3d 6909 0d3d ecd3 d13a
00000150: 293e cebc a77a cabb 996e a8bc b57e cb3c
00000160: b960 4037 ed78 0fbb 5ad8 bcbb 66ba 1ebc
00000170: 0464 3f3c 52a9 c2bc 5a6c 99bb 732d ffbc
00000180: 7895 3b3d ef75 82bc d237 a8bc 4b78 39bc
00000190: 27c4 f53c 85d7 1dba 2ebb c7bc 4c9d 033b
000001a0: e0d2 02bd f256 9dbc 2d9f d23c b9a8 26bc
000001b0: f763 423c 888f b33b d531 743c 5c47 bc3c
000001c0: a238 c4bc db90 953c 2ede 9bbc 1df3 6f3c
000001d0: 459b 0b3d 156e 0bbd 4b09 23bb 3599 013c
000001e0: 5db5 e03c 1e3b 00bd da01 c13b 2652 16bc
000001f0: b324 3fbc af21 d23b 5982 623c e372 c73c
00000200: 0e61 013d 55c0 913c 01b4 c7bc 970e 283d
00000210: 57b8 84bc 2324 95bc aa88 d8bc f4c1 ed3c
00000220: 025b 1d3d 11d7 a83c 1db3 c2bc aa41 b13b
00000230: bbee d6bc ec6c aebc 09ef 7abc 6129 cabb
00000240: 250b dbbc 082b a13a 29ec 15bd 86b2 983c
00000250: 1612 c1bc 6121 5fbc 326d 2cbc e8e9 213c
00000260: 18c6 a73b 9bbc e03c b48d cc3c 57e3 333d
00000270: c52d ccbc 2486 06bd a913 143d 4ee6 c6bb
00000280: 97c5 ec3c 6684 7d3b 2df5 bcbb 08a3 2b3c
00000290: a157 15bd e97f 02bd 91b8 47bc 102a 2dbd
000002a0: 9946 b73c 5b19 c63c 6ff7 bb3c 49ac 98bc
000002b0: 05c7 04bc 83bb 223c c496 203d 6d0a 263c
000002c0: 1f4c b73c 999a 773c 3d5d 773c 2068 54bb
000002d0: 0dbe a9bb 0c52 f33c 8b42 ce3c 658a c0bc
000002e0: 5a26 ae3b dc37 6dbd bb37 c8bc 38db 383c
000002f0: cbda c33c ea6d 9cbc 1de7 b7ba 3122 26bd
00000300: 1493 e53b 3e06 c0ba 0b04 803d 2c7d 153d
00000310: 6d45 863c a11e 3dbd 6e3c 94bc 7598 bfbc
00000320: a475 21bd 30cf de3c 5d23 143d 8f29 d7bb
00000330: bd58 57bc 457b 48bc 8a45 16ba 9214 253d
00000340: ec86 81bc ac33 b8bc 6e44 353d 238d dcbb
00000350: a767 3e3d 048d 163d a8d8 913c 3fb4 a4bb
00000360: 852f e53c 4262 f43b ca99 b63c 8413 30bc
00000370: 3952 c7b9 e8a2 abbc 4d2a dc3c a860 acbc
00000380: 31a7 4ab9 202e efbc 2d76 52bd 4e6c 63bd
00000390: 3feb b83c bc7f 183d aaf4 8a3c 2cf6 3bbc
000003a0: f58e 923c a2a0 2cbc 8551 c03c 6994 d1bc
000003b0: f0a5 6fba bb24 9fbc 6d5a 46bc a4f8 6fba
000003c0: 3bb0 1a3d a047 ccbc f60e 3d3b 7c3c 22b9
000003d0: 6c52 21bd 7a40 49bc 27f5 353c 94a7 0d3b
000003e0: cc82 cbbc 0d90 d0bb 3a3f dbb9 d0f6 0f3d
000003f0: 0074 b03c bf71 ffba febf 63bb dde0 cabb
0.0053209634 -0.031002361 0.00071785494 0.021639703 0.019768983 0.0044701993 0.0038543327 -0.02209686
0.03283022 0.023615386 0.007812898 0.02569542 -0.021156963 -0.033497646 -0.015861647 -0.0050163018
-0.025395615 -0.027311152 -0.018708458 0.027759757 0.0056735165 0.0059531387 0.009019727 0.017056491
0.00030634206 0.012874054 -0.025273323 -0.0063613006 -0.044941384 -0.027839338 0.040695652 0.04450211
0.016957197 -0.06991707 -0.005809554 -0.012225155 -0.020448945 0.0014255174 -0.033303946 -0.009127273
0.03059153 0.024330085 0.044534445 0.037799824 -0.028619325 -0.0072188694 0.011041804 0.059606608
-0.0038507627 0.017493613 0.0032208385 -0.046074037 0.057814807 0.021540007 0.011871531 0.05965013
-0.010909007 0.051533066 0.019175295 0.04507105 0.028965771 -0.0023943228 -0.015368227 -0.0021029774
0.0055287466 -0.0064234394 0.008219968 0.0096481545 0.039351147 0.011929938 0.01976401 -0.03947262
-0.021994889 -0.02380191 0.0059338305 -0.004419648 0.046377935 -0.0063979235 0.019363971 -0.0011807019
-0.0068760454 0.034064494 0.034432802 0.0016008592 -0.025176125 -0.006179172 -0.02056055 0.024840692
1.1466612e-05 -0.0021892146 -0.005763096 -0.009687996 0.01168156 -0.023762379 -0.004682106 -0.031149602
0.04579684 -0.015925376 -0.02053443 -0.011320184 0.03000076 -0.00060211896 -0.024381246 0.002008277
-0.031939387 -0.019206498 0.025710667 -0.010172063 0.011864654 0.0054797567 0.014904459 0.022983246
-0.023952786 0.018257549 -0.019026842 0.014645365 0.034083623 -0.03404053 -0.0024877365 0.007910063
0.02743023 -0.03130638 0.0058901133 -0.009174859 -0.011666465 0.006412707 0.013825023 0.024346774
0.0315867 0.017791906 -0.024377825 0.04102954 -0.016201181 -0.018205708 -0.026432354 0.029023148
0.03841687 0.020610364 -0.023767048 0.005409439 -0.026236882 -0.021292172 -0.0153157795 -0.0061694835
-0.026738713 0.001229615 -0.036602173 0.018639814 -0.023568194 -0.013618798 -0.010524081 0.009882428
0.00512005 0.027433684 0.024969913 0.04391798 -0.024924168 -0.03284277 0.036151562 -0.006069935
0.028902812 0.0038683652 -0.005766532 0.010475881 -0.036460523 -0.031860266 -0.01219 -0.042276442
0.02237253 0.024182012 0.022945134 -0.01863684 -0.008104091 0.009932402 0.03920628 0.010134322
0.022375165 0.015112543 0.015097913 -0.0032410696 -0.0051801265 0.029702209 0.025178215 -0.023503492
0.0053146305 -0.0579146 -0.024440637 0.011282735 0.02390804 -0.01909538 -0.0014030669 -0.04055995
0.0070060585 -0.0014650298 0.06250771 0.036496326 0.016390527 -0.046171788 -0.018095221 -0.023388127
-0.03941883 0.027198404 0.036166538 -0.0065662335 -0.013143715 -0.012236421 -0.0005732408 0.04030282
-0.015811406 -0.022485577 0.044254713 -0.006730692 0.04648557 0.036755577 0.017803505 -0.00502637
0.02797676 0.0074580023 0.02229013 -0.01074684 -0.00038017498 -0.020951703 0.02687564 -0.021042183
-0.00019326505 -0.029196799 -0.051382232 -0.05552321 0.022573112 0.037231192 0.016962368 -0.011472266
0.017890433 -0.010536345 0.023476372 -0.025583463 -0.0009141853 -0.019426694 -0.01210652 -0.0009154177
0.037765723 -0.024936497 0.0028848029 -0.00015472056 -0.039385244 -0.012283439 0.011105812 0.0021614777
-0.024842642 -0.0063648284 -0.00041818043 0.035147488 0.021539688 -0.0019488855 -0.0034751887 -0.0061913566

bias f4 [64]
00000000: f2da 0ebd 6fc8 7bbc 1c08 9c39 7671 4fbd
00000010: 69f5 fbbb 2639 87bb 516a 893c f073 bf3b
00000020: 8f0f 78bc 539d 88bc 9f3b e73b b297 09bd
00000030: 5777 b33c 3c3e 6ebc 4c4e 66bb baab a93b
00000040: 63bb b03c b05c b43c 31b1 893c 3219 463c
00000050: f9c2 f23c 858e 7fbc 618b 433b d070 acbc
00000060: 8846 d1bc a8ad 20bc 87b1 273d f447 033c
00000070: cd01 4cbd ce01 21bb 34f0 42bd 0e62 43bd
00000080: eb4c 103d f646 e43c 56cf 8f3d c282 693c
00000090: 1812 523c 304f 30bd c2e3 663c 4a2e 63bb
000000a0: 2390 243b 49d5 a63c eeba 14bd f19f 6dbd
000000b0: 98ee a3bc c4c2 353d f60d 85bc 9843 933d
000000c0: 8912 0dbc b761 d0bb 5983 f9bc fa58 71bc
000000d0: 5239 97bc 6fe6 083a 0678 4dbd a7df 8cbc
000000e0: 6916 1f3d c6e2 77bc f3e0 19bd 780c 40bd
000000f0: 7f7b c83b 7f3e 0c3d 26e3 9c3c a4e4 133d
-0.03487677 -0.015367611 0.0002976068 -0.050645314 -0.0076891673 -0.0041266857 0.016774328 0.0058426782
-0.015140428 -0.01667658 0.007056668 -0.033591934 0.021907492 -0.014541205 -0.0035141883 0.005177942
0.021573728 0.022016853 0.016808124 0.012090968 0.029633986 -0.015597944 0.0029837715 -0.021049887
-0.025546327 -0.009807028 0.040940788 0.00801276 -0.049806405 -0.0024567726 -0.047592357 -0.047700934
0.035229605 0.027865868 0.07021968 0.0142523665 0.012821697 -0.04304427 0.014092388 -0.0034665042
0.0025110326 0.020365374 -0.036311083 -0.05801386 -0.020011231 0.044375196 -0.016242009 0.07190627
-0.008610376 -0.0063593048 -0.03045814 -0.014730686 -0.01845995 0.00052223256 -0.05016329 -0.01719649
0.03883973 -0.015129751 -0.037568044 -0.04688689 0.0061182375 0.03423929 0.019151282 0.03610672

weight f4 [10, 64]
00000000: 53c1 e9bd 80c2 6f3e 72cc 51bd 09ed c3bb
00000010: 109e 34be bbc7 5b3e b368 55be 724e a6bc
00000020: e928 e6bd 43d7 b43e 7f30 b4bd 2677 993e
00000030: 375b 26be bc7f 0dbe b470 113e 480a c8bc
00000040: b056 003e c28c 5e3e 20b7 923d 32c4 1dbe
00000050: 13cd 233e d1cc bd3d 95c5 0abe f44a 373e
00000060: 5fbd 163e 537c cf3c cc73 32be 7c0a 223e
00000070: 5242 27bc 3a04 2c3e 1701 5a3e 4f71 173e
00000080: 4d48 8cbe d98b 923d 7202 56be 3aaa 7dbd
00000090: bd30 d63c 666a 823e 6772 263e a56e 463e
000000a0: 73de a7bd ef27 2ebe 6778 c7bd 791f 213e
000000b0: a8e8 9bbd 0e47 ccbd dcba 55be 78dd 01be
000000c0: 9b8b e4bd 864c 803e b92f d4bc 7332 453e
000000d0: 1726 343e 0789 1b3e a4b6 b6bc 3031 e83c
000000e0: 557f 2a3e 25ef c53d a6e5 8f3d d939 f03d
000000f0: cdd2 78bd 02af a43c 35c6 bebc 6627 64bd
00000100: b304 1d3e ffa6 893e f0ea 02bd eba6 543e
00000110: 3635 863c 6806 8bbe 2923 0d3c c726 123e
00000120: 8570 713e 5107 eb3d ffdd f6bd 1f7f a6bd
00000130: e2f4 1c3e 8c28 1f3e c445 41be b1a6 433d
00000140: 330a 44be 652b acbe 079f ac3e 6120 613e
00000150: 77c6 6abe 6d70 753e 6e0a 273e 703e 883e
00000160: 6a28 0ebe 5fbf 84be e6ff 0d3e 2ad9 c83d
00000170: 0af6 48be 8ec5 9dbe f920 943e 3ec7 93bd
00000180: 60e2 913e 0da8 3f3d 0783 c8bd c572 533d
00000190: 0172 a33e 6c0e 68be 44d7 c1bc c735 b33d
000001a0: a5fb 01be 39ac b9be ce94 8a3e 6759 2f3e
000001b0: e074 bebd 1fe1 783e 176d ce3c af0e 16be
000001c0: 1b2c 123e 3f71 e03d cca6 09be 0ddf d9bc
000001d0: 8c29 053e a1c0 fa3d 9a63 9abe 38e7 643e
000001e0: 66b5 9cbc cbcf 3c3d fa59 013e f9e1 903c
000001f0: a304 a93e dfb9 d73d 9b45 e03d dff0 673e
00000200: 6da7 003e 270f c4bd e822 afbd 1b99 293e
00000210: ea45 883d aeb0 783e 9f74 68be c490 87be
00000220: c6ea 203e a570 743e d49e 9bbb 1927 173c
00000230: aebb cbbd 64e1 483e b0d5 84be 3d35 3b3d
00000240: 2a75 b6bd 2f53 a63e 7cfc 6abe b7e6 6b3d
00000250: f9db eb3d 2242 a0bc be2b 7bbd a0f6 35be
00000260: ee22 f4bd baeb 913e 3be9 9f3b 9e32 3bbe
00000270: 78ab 543d 69a0 6e3c be7d 6cbe ce5e a5bd
00000280: ce50 24be 10f1 883d ca11 7abd f311 c7bd
00000290: 8fb2 3cbe d9fd 143e 2b5e 6a3c f38e 1a3e
000002a0: f7c6 bb3d a5f5 3d3e 4c72 62bd 2dcd a0be
000002b0: 1821 d1bd f412 41bd 31d1 4cbe f1e5 853d
000002c0: 69c0 19bd 60e1 233e f3fb 613e 5fc6 803e
000002d0: e835 3abd 2964 703e b231 34be 0d2e 41be
000002e0: 6bef 72be b22a 30bc 79b8 95bd 516f 49be
000002f0: c463 a33d 69e2 3f3d a50c 1dbe 064a ff3d
00000300: f158 043e 4777 13be 445f 633d 7d0d 52bc
00000310: 5228 19be a14d 89be 0df7 1ebe 0490 d6bd
00000320: 771f 323e 6787 40be 1bd4 20be 2c4e 793c
00000330: 0c3f 15be bd96 83bd 9734 1fbe 90fb 2fbe
00000340: 69f4 823e 5b86 45be e7e5 0bbe d8bd 3fbe
00000350: a6a8 c6bd 3895 08be 5ef9 eabd cd22 48be
00000360: 5767 fe3d baf1 fb3d 085f 13bd 4923 673c
00000370: 2c21 1b3c f1e5 a23d bcad 37be bded 1ebe
00000380: aa01 ad3d 729d 133e 11a7 37be 1ff9 89bd
00000390: 0a90 2b3e de77 bdbd 491c 14bd 1637 e93d
000003a0: 0997 44be 510b a8bd 3230 db3d c99a 7dbd
000003b0: 3a53 813d 6ff1 a43d df0e 57bd 3e20 033e
000003c0: 43a6 0abe daea 1abe 2d6f 49be 868b debc
000003d0: 4f4d 10be 354c 5a3d 7508 613d 1911 80be
000003e0: 7052 9dbd 9e12 09be 016f d83d a909 3e3e
000003f0: dc71 43be 0f44 b43d f736 cdbd c7dc 98bd
-0.11413827 0.2341404 -0.051220365 -0.0059791845 -0.17638421 0.2146291 -0.20840721 -0.020301078
-0.11238272 0.35320482 -0.087983124 0.29973716 -0.16245733 -0.13818258 0.14203149 -0.024418965
0.12533069 0.21733382 0.071638346 -0.15406874 0.15996198 0.09267581 -0.13551934 0.17899686
0.14720677 0.025327837 -0.17426986 0.15824312 -0.010208683 0.16798487 0.21289478 0.14789318
-0.2739891 0.0715558 -0.2089937 -0.06192992 0.026146287 0.254718 0.16254579 0.19378145
-0.08196726 -0.17007421 -0.09739762 0.15734662 -0.07612735 -0.0997449 -0.20872062 -0.1268214
-0.1115944 0.25058383 -0.025901662 0.19257526 0.17592655 0.1518899 -0.022303887 0.028343767
0.16650136 0.09664754 0.07026224 0.117297836 -0.06074791 0.020102981 -0.023287872 -0.055701636
0.15333824 0.2688522 -0.031962335 0.20766799 0.016382795 -0.27153325 0.00861434 0.14272605
0.23578079 0.11476005 -0.12054061 -0.08129715 0.1532779 0.15542811 -0.1887427 0.04776639
-0.19144516 -0.33626857 0.33715078 0.21985008 -0.22927271 0.23968668 0.16312572 0.26610136
-0.13882604 -0.25927255 0.13867149 0.09807046 -0.19625106 -0.30814785 0.28931406 -0.07215737
0.28493023 0.046791125 -0.097906165 0.051623125 0.31922916 -0.22661752 -0.023662217 0.087504916
-0.12693651 -0.36264208 0.27066654 0.17123948 -0.09299636 0.24304627 0.025198502 -0.14654039
0.14274637 0.109591 -0.13442534 -0.026595617 0.1300413 0.12243772 -0.30154115 0.22353828
-0.019129466 0.046096604 0.1263198 0.017685877 0.3301135 0.10533499 0.10950776 0.22650479
0.12563868 -0.095732026 -0.0855158 0.16562311 0.0665396 0.24286148 -0.22700737 -0.26477635
0.15714559 0.23871095 -0.0047491584 0.00922563 -0.099479064 0.1961723 -0.2594428 0.04570507
-0.08909066 0.3248534 -0.22947878 0.057593074 0.11516566 -0.019562785 -0.061321013 -0.17769861
-0.11920725 0.28500158 0.004880098 -0.18281028 0.051921338 0.014564612 -0.23094842 -0.08074723
-0.1604645 0.06686604 -0.06105212 -0.097202204 -0.1842749 0.1454996 0.014304678 0.15093593
0.09168809 0.18550737 -0.055284783 -0.31406537 -0.1021139 -0.047137216 -0.20001675 0.065379985
-0.037537012 0.16003942 0.22068767 0.25151345 -0.045461565 0.23475708 -0.17597082 -0.18865223
-0.23724143 -0.010752367 -0.07310576 -0.1967137 0.07978013 0.04684678 -0.15336855 0.12465291
0.12924553 -0.1440097 0.055510774 -0.012820599 -0.14956787 -0.2681704 -0.1552393 -0.104766876
0.17394815 -0.18801652 -0.15705912 0.0152163915 -0.14574832 -0.064252354 -0.15547405 -0.17185807
0.25577095 -0.19289534 -0.1366192 -0.18724763 -0.09700136 -0.13338172 -0.11473344 -0.19544525
0.12422054 0.12301965 -0.0359793 0.014107534 0.009468358 0.07954014 -0.17937368 -0.15520377
0.08447583 0.1441553 -0.17934825 -0.06736969 0.16754165 -0.092513785 -0.036159787 0.1138746
-0.1919824 -0.082052834 0.10702552 -0.061915193 0.06314702 0.08053862 -0.052504417 0.12805268
-0.13539986 -0.15128651 -0.19671316 -0.02716614 -0.14091991 0.053295333 0.054939706 -0.25013044
-0.07681739 -0.13386008 0.10568047 0.18558373 -0.19086403 0.08802044 -0.10020249 -0.07463985

bias f4 [10]
00000000: c3fb 48be 7f3e 60bd 8a36 3abb b4ec b9bc
00000010: f69d 363e e487 e6bc 0d93 7a3d 3842 44bd
00000020: 22f3 b6bc 2046 fb3b
-0.1962729 -0.0547471 -0.0028413855 -0.022695877 0.17833695 -0.02814097 0.061175395 -0.047914714
-0.022332732 0.0076682717
