models/gpu_train_model27.pth (torch, 587335 bytes, 10 tensors)

weight f4 [32, 3, 5, 5]
00000000: 8905 963d c2fe 4d3e 0df1 343d 7c6e 64bd
00000010: 2216 17be 062f 523d 129d 3b3e a1ce 4c3e
00000020: beaa 03be 026e 08be 4d39 a13d 5d46 133e
00000030: 8fba 003c ef7b 86bd 1855 71bd b33f b53c
00000040: 9cad 31be 2b2f 07be afb5 543d 2a02 783e
00000050: 91da 3dbe 9409 35be 14f3 b13d e951 dc3d
00000060: a699 2e3e f4ab 0e3e 00ff 183e fb53 99bd
00000070: ce7f d93a 3317 f9bd f88b 493e cce2 8f3d
00000080: 54fd ad3d bc80 20be c7ce 9ebd ffe2 c13d
00000090: dae3 833d 00e5 423d 0a90 30bd 7fa3 c7bd
000000a0: cac9 d4bd a310 64be 92b3 debc 4cbd 033e
000000b0: c087 7f3e 9152 f0bd ba4e 88bd c04a 7a3d
000000c0: 5b3c a23d bdd6 063e d785 c43d b410 c53d
000000d0: 24dd 3ebe ee45 73be a5c7 1dbe 1dcb 3abc
000000e0: 32cc 763d 7ef8 a6bc c73c 86be 0998 83be
000000f0: db7c 11bd edb3 82bc 4b04 9dbd 2d88 7fbd
00000100: 86a8 32bd 4660 f6bd 8e61 ddbd ac9a 47be
00000110: 28be 133e 5fb9 ec3d 49ee 4dbe 7c3b 82bc
00000120: 0180 cabc 3b55 dbbc 4e6b a93c a10c 363e
00000130: ac2e ccbc 667b 42be 4867 4fbd 1723 d3bd
00000140: 5f8c 8dbd d61e 59be 6312 abbe 2737 403d
00000150: e836 2e3e b47d 5abe 5a50 55be d739 12be
00000160: 36c2 793e edd3 c23d 0e91 bdbc a17f 61be
00000170: 5ed3 a33d ffd3 163e 2785 713d c3b1 333d
00000180: 4418 49be d70f 0b3e 07e8 013e ee1d 05be
00000190: 72cf 623e c140 a6bd 043e edbd 3181 5e3c
000001a0: 1ce9 273e b5ac 8abc 3139 11bd 0f53 83be
000001b0: d5db 313e 7e51 543e c17f e0bd 86e7 453c
000001c0: a482 67bd b7c8 693e aefa ff3d fecd 3b3d
000001d0: b6c8 2abe 0bc6 6d3e 9ae8 813e 1e6d 6e3d
000001e0: 7ad3 dd3c 4c17 423c 2c5e 443e c5af 453d
000001f0: bf9b febc 8178 313e 83c1 99bc 7e8f 83be
00000200: 59b8 88bd 8251 12bd 176f c53a 4e8a 9bbd
00000210: 6498 1abe 0a3a d03d 8d3b 9f3d 1a71 22be
00000220: 9572 cbbc d48c 4a3d e25a 253e 15d5 0cbd
00000230: 7f32 35be 7b6f 2abe 5346 b53d c5ad 0c3d
00000240: d3dd 3dbd 349a ffbd 9e14 b2bc 52be 093d
00000250: 9216 f43d 142e 81bd ebc5 f3bd 6e6e 173e
00000260: 9bf7 a63d 78fd 20bb d0b3 163c b647 2bbe
00000270: dc67 713e bffb 2f3e b01e debd 35a6 a5bc
00000280: 425e eabd 670e 4d3e aae2 333e e5b7 a0bb
00000290: 1375 2a3e 750a 593d f9b7 783e 2713 a03b
000002a0: 00ad 273d 4b36 5e3e bf46 af3d 779c 0b3e
000002b0: d9e2 ef3d 31fa 43bb 3727 253e 30bc 81bd
000002c0: 5cf7 5b3d 2c65 3fbd 65d0 9cbd 064b 023e
000002d0: 0457 a1bd afe2 c33c 83a2 06bd 0739 513d
000002e0: 63a3 953d 6b14 42be bd28 f53c 9042 20bd
000002f0: d2c5 30be 7ea7 903d 2e39 04be 3ac0 2fbd
00000300: 6424 0dbe f953 fabc ae55 233e 2f59 ecbb
00000310: 95ea 2b3d 9beb 063d 3422 973d 7fd6 0b3c
00000320: ca0e 8dbd 4231 6ebd d3b1 42bd 8e32 2d3d
00000330: 247f d5bd a238 60be 8e56 0c3d ff8d 14be
00000340: 5dad 2ebe 2ad2 173d 1530 92be e4fb 74bb
00000350: e5ff fdbd a9fc 12be 9ab2 a13d 3eef 04be
00000360: 6ad4 57bd c7e8 06be 1a62 09bd 4090 b83c
00000370: 1782 46be 21b3 7d3d 3466 21be 1e03 833d
00000380: b18b 563d 6e5a af3d 6259 ebbd 1205 a2bd
00000390: 2ff9 30bd 36ce f43d cd8c 693b fd0e be3d
000003a0: d736 e2bd 36f3 4f3c 797b 933d 0384 fb3d
000003b0: 7aa6 8c3b 7be8 863d d2e5 adbd bbd1 983d
000003c0: 472d 27be 3440 023e 72ad f23d 3c89 6c3e
000003d0: ac0b c83d 4296 c0bc 03a2 d8bd 9f1b e63d
000003e0: 8ee3 023e e903 76bd 758f b2bd aac2 44be
000003f0: 2369 5a3d 4570 e83c 79fa e63d 5f37 203e
0.073252745 0.20116714 0.044175196 -0.05576943 -0.14754537 0.051314376 0.18321636 0.20000698
-0.12858102 -0.13323215 0.078722574 0.1438231 0.007856979 -0.06566607 -0.058919042 0.0221251
-0.17351383 -0.13201587 0.05193108 0.24219576 -0.18540408 -0.17679435 0.086889416 0.107578106
0.170508 0.13932782 0.14941025 -0.07486721 0.0016593875 -0.12162628 0.196823 0.0702568
0.08495584 -0.15674108 -0.077542834 0.09467124 0.064399436 0.047581673 -0.043106116 -0.09747981
-0.10390051 -0.22271971 -0.027185235 0.1286518 0.24954128 -0.11734498 -0.06655641 0.061106443
0.07921668 0.13167854 0.095958404 0.096223265 -0.18639046 -0.23757145 -0.1540819 -0.011400965
0.06025333 -0.020382162 -0.26218244 -0.2570193 -0.035519462 -0.015954936 -0.076668344 -0.062385727
-0.043617748 -0.120300815 -0.10809623 -0.19492596 0.14428008 0.11558794 -0.2011043 -0.015897505
-0.02471924 -0.02677404 0.02068105 0.17778255 -0.024924599 -0.18992385 -0.050635606 -0.10309427
-0.06911539 -0.21203169 -0.33412465 0.046927597 0.17013133 -0.21337014 -0.20831433 -0.14279877
0.24390492 0.09513078 -0.023140457 -0.22021343 0.079992995 0.14729308 0.058964875 0.0438707
-0.19638163 0.13580261 0.12686168 -0.12999699 0.22149447 -0.081178196 -0.11584094 0.013580606
0.16397518 -0.016928056 -0.035454933 -0.25649306 0.17369016 0.20734212 -0.10961867 0.012079125
-0.056521073 0.22830473 0.12498985 0.045850746 -0.16678128 0.23220079 0.25372773 0.05820953
0.027078379 0.011846375 0.19176549 0.04826333 -0.031080125 0.17331125 -0.018769031 -0.25695413
-0.066757865 -0.035722263 0.0015063015 -0.07594739 -0.15097195 0.1016732 0.0777503 -0.15863457
-0.02483491 0.04945071 0.1614795 -0.0343829 -0.17695044 -0.16644089 0.08851304 0.034345407
-0.046354126 -0.12480584 -0.021738347 0.03362877 0.119183674 -0.06307617 -0.11902984 0.1478822
0.08152696 -0.0024565142 0.009198144 -0.16726574 0.23574775 0.17185877 -0.10845697 -0.020220855
-0.114437595 0.20025025 0.17566934 -0.0049047344 0.16646223 0.05298849 0.2428893 0.0048850956
0.04093647 0.21700399 0.085584156 0.13633905 0.1171319 -0.0029903764 0.1612824 -0.06334722
0.053702697 -0.046727344 -0.076569356 0.12723932 -0.07877925 0.023911802 -0.032869827 0.051079776
0.07306554 -0.18953101 0.029926652 -0.03912598 -0.17262962 0.070631966 -0.12912437 -0.04290793
-0.13783413 -0.03055762 0.15950653 -0.00721278 0.04197176 0.032939535 0.073795706 0.008535027
-0.068875864 -0.058152445 -0.047532868 0.04228454 -0.10424641 -0.21896604 0.034262232 -0.14507292
-0.1705832 0.037065662 -0.2855231 -0.0037381584 -0.12402324 -0.14354195 0.07895394 -0.12981889
-0.05269281 -0.13174735 -0.033540823 0.022529721 -0.19385563 0.06193841 -0.15761644 0.06397079
0.052379314 0.0856217 -0.11491658 -0.07911123 -0.04320639 0.11953394 0.0035636902 0.092802025
-0.11045616 0.012692263 0.07201285 0.122810386 0.0042923065 0.06587311 -0.084911 0.07461878
-0.16325866 0.12719804 0.11849488 0.23099226 0.09767851 -0.023509149 -0.10577776 0.11235737
0.12782118 -0.060062323 -0.087187685 -0.19214883 0.053322922 0.028373847 0.112782426 0.15646122

bias f4 [32]
00000000: 635c a63d 4b41 623d 565a 48bd 7e9f 3bbe
00000010: 8cbb bcbd 6cfd a93d 445d 5d3e 25cb 003e
00000020: e5c2 68bd dc86 513c 3545 2b3e 9c3d adbe
00000030: 9400 a3be 87a5 d83d 4f7a 03be 6f27 9bbe
00000040: e8eb 7abe a0c1 aa3d 9d34 603e d44c 32be
00000050: 726f 1abe 9764 afbe 17e7 1bbd f84e 02be
00000060: cd94 65bd 04c8 623d 650e 86bd a896 2ebe
00000070: 668f 90bd aa90 30bd e19e 8e3d 2dc8 443d
0.0812309 0.05523805 -0.048914276 -0.1832256 -0.09215459 0.083002895 0.2161761 0.12577493
-0.05682649 0.012788501 0.16725619 -0.33836067 -0.3183638 0.10578447 -0.12839626 -0.30303523
-0.24504054 0.08337712 0.2189507 -0.1741212 -0.15081576 -0.3425643 -0.03806218 -0.12725437
-0.05605011 0.05536653 -0.06545714 -0.17049658 -0.07058601 -0.043106712 0.069638975 0.048042465

weight f4 [32, 32, 5, 5]
00000000: 7626 1ebd db4b e93b 4b6f 4b3c a98d 833b
00000010: ac24 e93c f54c a9bc 1b65 53bc 7f61 743d
00000020: ce63 9f3c c9bf 7b3d 309c 5fbb f8c2 cf3c
00000030: f3ba 853d f45e 063d e39c 5cbb 920f 88ba
00000040: d64a 213d 3f86 903d 7523 333d 7b81 ab3c
00000050: af34 a53c 57dc b93c 6701 4d3c e717 c23c
00000060: a472 d23c 8acc 62bc 14fc 3dbd 7891 fabb
00000070: d1c9 7d3c 12be 173d b128 083c 331a b83b
00000080: 1bc9 a8bc 6cd9 733c 8419 673d 5d37 81bb
00000090: f1f8 30ba 9fd6 1d3d f9a9 843d 0d58 993d
000000a0: e5e9 87bd e809 61bd 79bc 063d af65 d43a
000000b0: dbaf f93b e04e cfbc a85c 54bd 900c 643d
000000c0: 4dc0 d43c c8b3 163d bb1b 013c b45e 2dbd
000000d0: 0dd4 dfbc a5fe 203c d0bb 69bc f1bb 6bb9
000000e0: 6efb b7bd 76a9 82bb e556 033d ea0b b7ba
000000f0: 01a3 9cbd 7c99 3cbd c69c 30bd a65e 8fbc
00000100: 9002 33bc 0d1d dabc 65df 95bd 8490 33bd
00000110: 7ab3 f63c 2ef1 d5bc 948c babc f228 34bc
00000120: 713d cb3b ea46 3fbc ff7c 913c ff59 15bd
00000130: 13db 5cba 6622 5b3c 9d5f a73c ef93 123b
00000140: 136d a3b9 ccc7 17bb ac0e a7bc a128 2bbc
00000150: 87fe 7fbc 23e0 1fbd 166a e6bc 16ed b5bc
00000160: afd6 3f3c 44e5 7b3c e2a4 7fbc 3779 2dbd
00000170: 3702 4dbd f658 b8bb 0bdf 26bc 640f 17bc
00000180: 3f76 ddbb 958f c43b 7e0d eb3c 0e9c cd3c
00000190: af34 b83c ae19 3f3d 35cb 0bbd c4a8 413c
000001a0: 97b0 1ebd 9cc4 683c 7fd1 df3c 20c4 333d
000001b0: 9ecc a9bb f980 043b 4a0f b13c 9927 523d
000001c0: 8dd6 013b c91c 24bb 8b57 e43c 6757 1d3d
000001d0: 93fb 123d ccad a7bc 9c7a 44bd db3d 2ebc
000001e0: 857d 0e3b 1dc0 be3c a850 01bd 7dfc 3ebd
000001f0: 4b10 28bc b9b8 0b3d e97e 1ebc cd8e ad3c
00000200: 60b1 72bc fc18 5bbc d218 1a3d 6a6a aa3c
00000210: a69b 0e3d a7a9 4f3c 89e2 7dbb 11ad 133d
00000220: 015c 463c 5bdb 2a3d ceea 003c e06a c3bb
00000230: f8ba 443d c1f3 06bc 6126 863b cd1e 24bd
00000240: fd0c ea39 2f13 b03c 6f22 bb3c 044b cd3b
00000250: a12f 15bc 5b23 55bc b965 2fbc 3844 d13c
00000260: dec1 ab3c 5ca5 a83d 9f2a 353c 060f 19bc
00000270: 45cf 5e3d 7e7d 513d a62b 9a3d 1098 613d
00000280: 5f70 f7bb 087b 893d f1e7 233d b89d 533d
00000290: b5ac ae3d c7fc e3bc 80fe 073d 06e0 0a3d
000002a0: 09b4 8e3d 1838 5b3d 7a9d 8abc a970 1dbd
000002b0: 8e3d 093c 9157 38bd 09f6 cebc 253f 97bc
000002c0: f1e2 0c3c 165b 1b3c 8a5d cb3c ff20 513c
000002d0: 2225 dc3c 2640 153c 304d 783d 1de1 3a3d
000002e0: bc75 513c 0790 06bc 5cee d83c 64e1 ee3c
000002f0: ff32 8dbc be32 253b e3ac fd3c acf5 64bc
00000300: c3a2 eabc 6a8a e2bc 07fd 9fbc 9d99 23bc
00000310: 3691 583c 253c 6cbd 3a46 48bd afbe 3fbd
00000320: 3b93 cc3b a5d4 64bc a266 9839 1a7c 8fbc
00000330: 141c 0e3c fdc2 a5bc d803 b9bc 22ef d9bc
00000340: 8bd9 713c 84f6 9abc 04ed 0d3d a773 d33b
00000350: e856 54bb 1148 bcbc da7b f43c 8801 3d3c
00000360: 5fb0 203d 1b64 103d 9ae3 853c bd45 093b
00000370: 78de 623b 6028 1fbd 82b5 a43c 75f3 b1bb
00000380: 3d6f 35bd 7db8 cb3c adf9 0dbd 749a 8fbc
00000390: 0434 6fbd 7bc5 f5bc 906a 35bc 1711 6cbd
000003a0: 5bcc 70bc 6f7d 92bd c878 0fbd 9cb4 1e3b
000003b0: 5cf2 81bd 549b 28bd 5654 2c3b ddac dfbc
000003c0: 3e3b eb3c b392 09bd c9e5 38ba dfd2 b1bb
000003d0: 2232 97bc 0340 82bc 5d18 65bd 219b a03c
000003e0: 4b48 053c a15e 00bd 8403 e43c f0fe b5bb
000003f0: fddd b3bc 5773 08bc 8120 073d c0ba 57bc
-0.038610898 0.0071196384 0.012416671 0.00401469 0.02845987 -0.020666579 -0.012902523 0.059663292
0.01945677 0.061462197 -0.0034120195 0.025361523 0.06529798 0.032805398 -0.0033662848 -0.0010380617
0.03937801 0.070568554 0.043734986 0.020935765 0.020166723 0.022688074 0.012512541 0.023693038
0.02568943 -0.013842711 -0.04638298 -0.0076467358 0.015490011 0.0370465 0.008310483 0.0056183576
-0.020603707 0.01488338 0.056420818 -0.0039433674 -0.00067509623 0.038534757 0.06477732 0.074874975
-0.06636409 -0.054941088 0.032894585 0.001620462 0.0076198406 -0.025306165 -0.051846176 0.055676043
0.025970602 0.036792547 0.007880147 -0.042326644 -0.027322793 0.009826337 -0.014265969 -0.0002248136
-0.08983503 -0.0039874865 0.03206529 -0.0013965343 -0.07648278 -0.04604481 -0.04311826 -0.017501187
-0.010925904 -0.02662518 -0.07318 -0.043838993 0.030114878 -0.02611598 -0.022772111 -0.01099609
0.0062023927 -0.011674622 0.017759798 -0.03646278 -0.00084249786 0.0133749 0.020431334 0.0022366007
-0.0003117105 -0.002315986 -0.020392738 -0.010446698 -0.015624649 -0.039032113 -0.028126758 -0.022207778
0.011708899 0.015374485 -0.015603276 -0.042351928 -0.05005094 -0.0056258393 -0.0101850135 -0.009219978
-0.006758481 0.0059985616 0.028692957 0.025098827 0.022486059 0.04665535 -0.03412934 0.011820022
-0.038742628 0.014207032 0.027321575 0.04388821 -0.005181863 0.0020218475 0.021613736 0.051307295
0.001981172 -0.0025041571 0.027873775 0.03841343 0.03588445 -0.020468615 -0.047968492 -0.010634865
0.0021742296 0.023284966 -0.03157106 -0.04662751 -0.010257791 0.034111712 -0.009673812 0.021186257
-0.014812797 -0.013372656 0.037621327 0.020802695 0.034816407 0.012674726 -0.0038739762 0.03605372
0.012106896 0.0417131 0.007868482 -0.005963668 0.04802987 -0.008236826 0.0040939306 -0.040068436
0.00044641635 0.021493522 0.022843568 0.006265046 -0.009105594 -0.013008918 -0.010705405 0.025545225
0.020966467 0.08234665 0.011057525 -0.009341961 0.054396886 0.05114507 0.075278565 0.05507666
-0.0075512375 0.067129195 0.04001612 0.051664084 0.08529035 -0.027830495 0.033201694 0.03390505
0.06967933 0.053520292 -0.016920794 -0.03843752 0.008376492 -0.045005385 -0.025263803 -0.018462727
0.008599029 0.009482166 0.024824876 0.012764215 0.026873175 0.009109532 0.060620487 0.04562484
0.012784418 -0.00821305 0.026480846 0.029160209 -0.01723623 0.0025207247 0.030966228 -0.013974588
-0.028642064 -0.027653892 -0.019529833 -0.009985355 0.013218215 -0.057674546 -0.0488951 -0.04681271
0.006243137 -0.013966714 0.00029068167 -0.01751523 0.0086736865 -0.02023458 -0.02258484 -0.026603285
0.014761339 -0.018916376 0.034649864 0.006452996 -0.0032400433 -0.022983583 0.029844213 0.01153601
0.0392307 0.035251718 0.01634388 0.0020946108 0.0034617465 -0.038856864 0.02010608 -0.0054306337
-0.04429554 0.024868244 -0.034661938 -0.017529704 -0.058399215 -0.030001393 -0.01107277 -0.057633486
-0.01469716 -0.07152831 -0.035027295 0.0024216538 -0.063450545 -0.041163757 0.0026295385 -0.027304107
0.028714772 -0.03358717 -0.00070532836 -0.005426749 -0.018456522 -0.015899664 -0.055931438 0.019605221
0.008134912 -0.031340245 0.027833708 -0.0055540726 -0.021956438 -0.00832828 0.032989983 -0.013167083

bias f4 [32]
00000000: c134 d23b ea91 7cbe 82b7 fb3c 57df 67bc
00000010: baef 06be ea9e 193d cb7e 18bd ec7a 0fbe
00000020: a38c 173c 7822 cabd 3488 13be da24 863d
00000030: 693e f4bd d278 b9bd 33d4 10be 15fe f5bd
00000040: a668 96bd 378c 19be 490e 7cbd 39e5 2cbe
00000050: e548 7bbc abaa 54bd f833 c7bd a37d 483c
00000060: 84e0 1d3d cdca 943c db11 72be a51c 8abe
00000070: 932e 213d c2b4 07be 9935 59bd 2842 56be
0.00641498 -0.24665037 0.030727152 -0.014152369 -0.13177386 0.037505068 -0.037230294 -0.14011735
0.009249839 -0.09869856 -0.14407426 0.06549998 -0.11925966 -0.09056248 -0.14143448 -0.12011353
-0.07344179 -0.14994894 -0.06153706 -0.16884317 -0.015337204 -0.051920574 -0.09726709 0.012236985
0.038544193 0.01816311 -0.23639624 -0.2697498 0.039351057 -0.13252547 -0.05302963 -0.20923674

weight f4 [64, 32, 5, 5]
00000000: 2be8 1ebd 2afb a1bb 57de fcbc 86ad 2dbd
00000010: 2729 44bc 8f3f 073d aa82 b23c 00cd edbc
00000020: 5125 aebc fd22 81bc 864a f5bc ed79 423c
00000030: 6e17 e0b9 f24b eabc 4785 3dba d4c4 103c
00000040: 672b 23bd 1bef 763b 600e 9c3b cde2 a73d
00000050: 9422 493c 5fa4 463d 3c06 cf3b 7398 e9bc
00000060: 24fb cc3c c488 b43d a3d9 233d c42d 15bd
00000070: a01c 34bd 9424 4fbd 7e15 263d 68ac 0039
00000080: 33e9 3e3b 4c50 8cbc c28e c7bc 5f5c 9fbc
00000090: 3638 a83c d57a 193c f480 ea3c 62a8 503d
000000a0: a7a3 2d3b ca99 7f3c ceac 32bb ea8e efbb
000000b0: 4220 09bd 5532 acbb cce7 ef3c 502a 823d
000000c0: 590f efbc dbce f2bc 3af8 0b3d cb5c 08bd
000000d0: b3fc 0abd 5b20 44bd 4113 213d 0f23 f33c
000000e0: a488 74bb 2b57 7b3d 9547 d13b ccae 11bb
000000f0: 5269 b13c 0f35 a53b e16c c23b 701a 2a3d
00000100: 5bb4 233d 3221 1abd 41ed 233b d395 d53b
00000110: ae66 23bc ca65 b73b 5108 77bd 4987 ee3c
00000120: 5436 693d a2ee 08bd e638 0cbd bda3 0dbc
00000130: de44 953c c8c5 c73c 37da 9c3c bffe ad3c
00000140: 8a72 ee3c cab4 4bbc c6b3 733c c8be 643c
00000150: b0d7 8bbc 7bd2 303c 54e4 583a 4da3 f0bc
00000160: faa3 cc3b cf4e cabb d8f5 453d 30bf 143d
00000170: 2b5f ec3c 0210 503c 9582 433b 949a 40bd
00000180: 1dda 12bd 07d0 753c f4dc bbbc dc81 c13c
00000190: 5ba0 95bb 64a6 9ebc a863 37bc e8db c1bc
000001a0: cb76 f3bc c888 7b3d 6c77 d7bb 36bf 073c
000001b0: 6a12 e03c 165f 913b 8d33 723d 15fd 85bb
000001c0: 3ee0 c9bc c5a4 2a3d 8239 efbc db60 e5bc
000001d0: 7026 d2bc feb6 353c fc31 1c3d 12d7 5dbc
000001e0: 8d6e 9d3c 28e8 323c b212 8a3c d451 3d3c
000001f0: 38a9 9ebb 488a e73b 23f0 1cbb 35ab 48bd
00000200: fac5 7cbd b9e5 383a 9a02 13bb 9fb3 9eb9
00000210: 787e 2dbd c72e 08bd c381 84bd 8b8e d0bc
00000220: fefc 85bb 1e14 e8bc efc6 9b3c df67 193d
00000230: b85d 03bd 6d0b 5abd fcf7 723c ae88 2dbc
00000240: dcdf 05bd 8238 79bd bbf1 053d 2a12 1b3c
00000250: e210 0e3d cdcf cb3c e9cd 203d dc67 a339
00000260: 4a84 093d e686 073c 0ef3 103d 2729 e7bc
00000270: 23d4 0cbd 255d 6d3d 6994 2c3d 02cd 1d3c
00000280: 7355 09bd db7d 5f3c 6bb6 743d 2256 79bb
00000290: 1937 49bb f55f 6abd c905 e4bc 3db7 27bd
000002a0: 3294 38bd a93e a33d d2fb a13c 46ed 913b
000002b0: ffa7 be3a b0e8 85bc 8a1f f43c da3b 9bbc
000002c0: 8194 86bc 5ef4 cdbb 7e37 95bb 303c adbc
000002d0: 11b2 5dbb c94a debc 8aea e9bc 16ab 043c
000002e0: 736c 2a3c d57c a33c 167b 22bc 13a3 e6bc
000002f0: 3301 213d e251 34bc 7b38 8f3c 6c0f db3c
00000300: bd5e a03c b235 59bc fd34 e23c c465 12bc
00000310: 4240 11bd 2b0e 103c 2894 a6bc 9085 f93c
00000320: 2a64 82bc 07b1 23bc 3dcb feba 4512 97bc
00000330: 750c 66bd 49a5 a83c 0ff0 13bd e651 2cbd
00000340: 6ede cebc 1f61 0ebd 0062 b93c 18ba b9bc
00000350: badf d3bc 64ec 3fbd a491 c03c 32a6 163b
00000360: 9d14 fcbc d5d0 d6bc 188e 1cbd 3a3e c4bc
00000370: 7509 b3bc 784c 85bc ee79 2c3d 4226 ab3c
00000380: f03d bc3c 2a31 0dbc dc7c 09bd 0e2e 383c
00000390: e125 19bd c1d6 fbbc 0586 f8bc 3378 31bc
000003a0: 0a39 6ebc 9dec 24bd d84b 5bbc b31c fbbc
000003b0: 1ef8 fbbc c2e8 cfbb d53e e2bc 32ec 21bd
000003c0: 290b 9e3c 179a dfbc dfe4 1dbd a8eb 41bd
000003d0: 67cc 2b3d bb8d 2abd 62de 81bc 192d 4d3a
000003e0: 2028 4f3a 683a 093d 74c2 edbb 7106 46bd
000003f0: 9cc2 e1bc e725 28bd 5f6d bb3b 212c b53b
-0.03879563 -0.004943271 -0.030867739 -0.042401813 -0.011972702 0.0330196 0.021790821 -0.029028416
-0.021258028 -0.015763754 -0.029942762 0.01186989 -0.00042742066 -0.028600667 -0.00072296377 0.00883599
-0.039836314 0.003767914 0.004762456 0.08197556 0.0122763105 0.0484966 0.006317882 -0.028515076
0.025022097 0.088151485 0.040002476 -0.0364206 -0.04397261 -0.050571993 0.04054784 0.00012271258
0.0029130697 -0.017128132 -0.024360064 -0.019453226 0.020534616 0.009367664 0.028625943 0.050941832
0.002649525 0.015600631 -0.0027263644 -0.007310738 -0.03347803 -0.0052550235 0.029285334 0.06355727
-0.029182123 -0.029639652 0.034172274 -0.03329162 -0.0339324 -0.04788242 0.039325003 0.029679803
-0.003731289 0.061362427 0.006386707 -0.0022229431 0.021656666 0.0050417255 0.0059333895 0.04152912
0.039966922 -0.037629314 0.002501324 0.0065181046 -0.009973211 0.005596851 -0.060310666 0.029117243
0.056936577 -0.033430703 -0.03423395 -0.008644995 0.018221315 0.024386302 0.019147022 0.021239636
0.02910735 -0.01243324 0.014874404 0.013961501 -0.017070621 0.01079237 0.00082737696 -0.029374743
0.0062451335 -0.0061739455 0.048330158 0.036315143 0.028853973 0.012699129 0.0029832472 -0.047022417
-0.03585254 0.015003211 -0.022932507 0.023621492 -0.004566235 -0.01936645 -0.0111931935 -0.02366443
-0.02971973 0.06140974 -0.0065755155 0.008285334 0.02735253 0.004436384 0.059131194 -0.0040890076
-0.02464306 0.041661043 -0.029202227 -0.028000286 -0.025653094 0.011090992 0.038133606 -0.013540046
0.019217754 0.010919608 0.016854618 0.011555154 -0.00484195 0.007066045 -0.0023946844 -0.0489914
-0.061712243 0.00070532743 -0.002243197 -0.00030269937 -0.042356938 -0.033247735 -0.064700626 -0.025458595
-0.004088997 -0.028329905 0.019015757 0.037452575 -0.0320718 -0.053233553 0.014829632 -0.010591669
-0.032684192 -0.060844906 0.032701235 0.00946478 0.03468407 0.02487936 0.03925887 0.00031167164
0.033573426 0.008271908 0.035388045 -0.028217865 -0.034381997 0.057950158 0.042133722 0.009631397
-0.033528756 0.013640846 0.05974428 -0.0038045724 -0.0030703007 -0.057220418 -0.02783479 -0.040946234
-0.045063205 0.07970936 0.019773398 0.004453334 0.0014545916 -0.016346306 0.029800195 -0.018949438
-0.016428234 -0.0062852344 -0.0045537343 -0.021146864 -0.003382806 -0.02713527 -0.02855422 0.008097431
0.010401833 0.019956985 -0.009917041 -0.028153932 0.039307784 -0.0110058505 0.017482987 0.026740752
0.019576425 -0.013257431 0.027613157 -0.008935396 -0.03546167 0.00879244 -0.020334318 0.030459195
-0.015916903 -0.009990937 -0.0019439232 -0.018441329 -0.056164224 0.020586627 -0.03611761 -0.042070292
-0.025252547 -0.03476059 0.022629738 -0.022671744 -0.025863517 -0.0468563 0.023506947 0.0022987244
-0.030771548 -0.026222626 -0.03822145 -0.023955453 -0.021855095 -0.016271815 0.04210847 0.020892266
0.022978753 -0.008617679 -0.03356634 0.011241449 -0.03738964 -0.030742051 -0.030337343 -0.01083188
-0.014539966 -0.040264715 -0.013384782 -0.030653333 -0.03075796 -0.0063448856 -0.027617851 -0.039531894
0.019292431 -0.027295155 -0.038548347 -0.04734388 0.04194298 -0.04163907 -0.01585311 0.00078268495
0.00079024024 0.033502966 -0.0072558466 -0.048345987 -0.027558617 -0.04105177 0.005719825 0.005528942

bias f4 [64]
00000000: 4dd8 8bbd 4507 8bbd 17a6 89bd 55a6 f2bd
00000010: 7d85 a4bd 93b8 a4bb 57e2 b4bd 9a9b b1bd
00000020: cf0e 893b bcfb a0bd c631 4fbd f37e a5bd
00000030: 0699 cbbc 42cc 56bd f583 00bd 5530 dbbc
00000040: c008 93bd c61e 893b 18cc e2bd 4ccf e9bd
00000050: 6c22 5dbd a2f5 12be 9d1b debc b70e 6fbd
00000060: c4a3 d8bd 4b42 0abe 46df 99bd 6b54 f8bd
00000070: c568 64bd c363 7ebd b6a5 92bd 6a0f 02bc
00000080: 81ae 18bc 0e6a f6bc a37b 06bd 9409 fdbb
00000090: a890 a7bd 5ace bc3c 9212 fb3c b91e 81bc
000000a0: d4c1 c4bd cd91 eebd a446 bebd 91a8 d5bd
000000b0: 7c83 1ebd 26ff d93b d957 4bbd 97a1 59bd
000000c0: 058b 31bd 386c 74bd 9736 af3a a054 f6bd
000000d0: 7fcc edbd 5ba6 06bd 9b17 43bc 7759 0bbe
000000e0: b93a 99bd 8918 bebc 9fa4 53bd 82ad b6bd
000000f0: d9d1 76bd 142d 8cbd 9661 bb3c efd7 07bc
-0.068283655 -0.06788496 -0.06721132 -0.118481316 -0.08033273 -0.005026886 -0.088322334 -0.08672257
0.0041826735 -0.078605145 -0.050584577 -0.08080854 -0.02485324 -0.05244089 -0.031375844 -0.026756445
-0.07179403 0.0041845767 -0.11074084 -0.11416492 -0.053987905 -0.14351514 -0.027112776 -0.058363643
-0.10578111 -0.13501851 -0.07513289 -0.121254764 -0.05576398 -0.06210686 -0.07160513 -0.007938245
-0.009318949 -0.030079868 -0.032832753 -0.007722089 -0.08181888 0.023047615 0.030648503 -0.01576172
-0.09607282 -0.11648903 -0.092908174 -0.10432542 -0.038699612 0.0066527305 -0.049644325 -0.05313262
-0.04334547 -0.059673518 0.001336771 -0.1202786 -0.1161127 -0.032873493 -0.011907483 -0.13608347
-0.074819036 -0.023205059 -0.051670667 -0.08919813 -0.06025872 -0.068445355 0.022873681 -0.008291229

weight f4 [64, 1024]
00000000: bf39 fe3b 2855 06bd 220f b3b9 67f8 b03c
00000010: a5d4 ab3c 840d a03b 780f 0b3b c7c4 cdbc
00000020: 7afb 023d da62 c73c 5b7e bd3b 0e8f d83c
00000030: ded7 a4bc e3e1 10bd d295 8dbc 813a e4bb
00000040: 347a c3bc 2ff8 fbbc 2649 96bc 742b f33c
00000050: 5c4f 0e3c d30e ee3b 6389 033c 6cbf 873c
00000060: 1467 05bb c244 3d3c ebd8 d8bc 2e4b 81bb
00000070: 9407 41bd 0d20 f6bc d66f 273d 123d 3a3d
00000080: 0184 9f3c 01e5 91bd b73b 80bb 0078 40bc
00000090: 859a 99bc 52cd 46b9 73d5 15bd 050a 04bc
000000a0: b116 033d 5051 af3c 426e 3a3d 4a1e 1d3d
000000b0: a9c0 eabc ed6b aabb 635a 613c b5a9 753d
000000c0: 8ffc 8fba 4da0 ab3c ca6f 773b 4e1d 47bd
000000d0: fc3c 723d 57a1 af3c d858 0e3c 56fa 7e3d
000000e0: f4e3 08bc 7b0f 4c3d e40c 863c 4ce6 483d
000000f0: cee9 ff3c 951f f6ba a9d4 3fbc 07b6 f3ba
00000100: 1d08 a63b 665a 55bb 0c3b b93b 20eb 223c
00000110: e182 123d b087 723c 8528 aa3c 4e16 26bd
00000120: c6a5 b1bc bc28 c6bc 2ea2 813b a2a4 50bb
00000130: f02d 463d 34e4 01bc ff94 a23c cf28 aabb
00000140: 0f8d 04bc 2848 073d ceab 1e3d cef9 063b
00000150: 66bf e0bc 52e8 e5bb 9936 8dbc 8318 c63c
00000160: a01d 9cba 153b 54bb d8b2 a1bb 249f 09bc
00000170: cac8 603c 0ec8 babc 0213 f1bb 3d8a f8bc
00000180: 6014 443d 414a a2bc 57cf b2bc 8b02 3fbc
00000190: 65b3 fa3c 5414 e738 908e fdbc 6b15 efba
000001a0: b5e7 0abd 5bd1 93bc 6f82 d73c c474 29bc
000001b0: 3d9f 373c c570 833b 7495 843c 109f ca3c
000001c0: 853b e5bc a737 aa3c 3bcd 89bc e3db 4f3c
000001d0: 5590 133d 7458 15bd b538 113a 9793 ed3b
000001e0: 1239 f93c 034f 03bd aa39 153c 8dcf f5bb
000001f0: 4c70 e5bb b1b1 2a3c 9692 7d3c ab82 c53c
00000200: 24e1 133d b60b 8f3c 0df4 cbbc e8c3 3b3d
00000210: ead4 6bbc 395c aebc 4d29 c8bc 1f62 f23c
00000220: b734 243d 5d18 b63c 4f4e d3bc 2cd1 743b
00000230: 19a7 00bd b660 bebc 49cd 8bbc 9fdb ddbb
00000240: b3aa e4bc 1069 213b 85c2 19bd 7099 a83c
00000250: 93d0 ddbc 81a8 7fbc 8129 4bbc ebfc 053c
00000260: afce e23b 3ee6 ee3c d62c c33c 2411 423d
00000270: 6f40 aebc aa53 09bd 533b 1a3d 9862 91bb
00000280: e096 f93c 58f5 033b d870 53bb 7e9a 543c
00000290: 8b8f 14bd 8fb6 0bbd b682 67bc 9187 3fbd
000002a0: fbd3 d63c 477a d33c 2e32 c63c 63bd a0bc
000002b0: 1aa6 ddbb 0a6e 2a3c 7285 263d 46aa 383c
000002c0: a867 bb3c 58d2 833c 6d82 893c f4ce c7bb
000002d0: b28d 91bb beec fc3c 122d cb3c 79c4 c0bc
000002e0: 414a be3b 0d81 71bd f6b3 cbbc b162 233c
000002f0: 2a28 b03c e5f0 a2bc 1624 38ba ae51 34bd
00000300: 1d03 853b 35ac 033b f1b3 843d 1e80 1d3d
00000310: 2ec9 6f3c c208 4fbd 80ce 73bc e759 c4bc
00000320: 8e47 2ebd f1d6 ee3c a51e 103d 219d 11bc
00000330: f254 4abc e38d 68bc 6a54 113b 7728 243d
00000340: 67be 81bc 81e7 bfbc 5d08 3d3d 794b d0bb
00000350: 6d2f 473d e84c 1d3d e461 963c b870 d2bb
00000360: 99ea 003d b617 ba3b 0d7e a83c a27f 29bc
00000370: 0e05 043b 0b36 b4bc 9834 e73c 4bfd b1bc
00000380: 8314 b3ba 30d7 f2bc 715a 59bd 93f5 75bd
00000390: 3b95 d83c 69d0 1c3d 7f88 963c 767f 11bc
000003a0: 4043 b93c 936a 0abc d76f d93c a3f7 c9bc
000003b0: 8836 13bb 443b a7bc 0e98 45bc 1371 5d3a
000003c0: 124e 233d 00fc d7bc 6b83 053b 255e b137
000003d0: f62c 24bd 58d6 84bc c1aa 353c 9b55 b73b
000003e0: 24d2 dfbc 9a79 0dbc f760 e737 7707 0c3d
000003f0: 8dc5 af3c fdfa b8ba b516 14bb ef01 e2bb
0.0077583487 -0.032796055 -0.00034152815 0.021602822 0.02097542 0.0048844237 0.0021218937 -0.025118245
0.031978108 0.024339128 0.005782885 0.026435401 -0.020122465 -0.035371672 -0.017283354 -0.006964982
-0.023861982 -0.030757992 -0.018345427 0.029683806 0.008685913 0.007264951 0.008028361 0.01657077
-0.0020355629 0.011552038 -0.026470622 -0.0039457297 -0.047126368 -0.03004458 0.04087814 0.045468397
0.019472124 -0.07123757 -0.0039133686 -0.01174736 -0.018750438 -0.00018959239 -0.036580514 -0.0080590295
0.032004062 0.021401078 0.045515306 0.038358964 -0.02865632 -0.005200854 0.01375446 0.0599763
-0.0010985303 0.02095046 0.003775584 -0.04861193 0.05914019 0.021439238 0.008688174 0.062250458
-0.0083551295 0.04981945 0.016363569 0.049047753 0.031239416 -0.0018777723 -0.011708417 -0.0018593677
0.005066885 -0.0032555102 0.005652791 0.0099437535 0.035769347 0.014802858 0.020771274 -0.040548615
-0.021685492 -0.024189346 0.003956101 -0.003183641 0.048383653 -0.007927943 0.019846437 -0.005192853
-0.008090272 0.033027798 0.038738064 0.0020595673 -0.027435016 -0.00701622 -0.017237948 0.02418161
-0.0011910684 -0.0032383848 -0.00493465 -0.0083997585 0.013719747 -0.022800472 -0.0073570022 -0.030339355
0.047870994 -0.019810798 -0.021827383 -0.011658321 0.03060312 0.00011018725 -0.030951768 -0.0018240636
-0.03391238 -0.018044164 0.026307313 -0.0103427805 0.011207399 0.004011246 0.016184546 0.02473405
-0.027982483 0.02077849 -0.016821494 0.012686702 0.036026318 -0.03646131 0.0005539761 0.00725026
0.030422721 -0.032057773 0.009107986 -0.0075015486 -0.007001912 0.0104183415 0.015476843 0.024110159
0.036103383 0.017461639 -0.024896646 0.045841128 -0.014394024 -0.02128421 -0.024433756 0.029587803
0.040089335 0.022228414 -0.025794176 0.0037356121 -0.031409357 -0.023239475 -0.017065661 -0.0067705656
-0.027913427 0.0024629273 -0.037539024 0.020580977 -0.027076995 -0.015604139 -0.012400032 0.008177976
0.0069216113 0.029162522 0.02382509 0.047379628 -0.021270959 -0.033527054 0.037654232 -0.004436802
0.03046745 0.002013525 -0.0032263305 0.012976287 -0.036269706 -0.03410965 -0.014130285 -0.046760146
0.026224127 0.025815142 0.02419385 -0.019621557 -0.0067641856 0.010402212 0.040654607 0.011271065
0.022876576 0.01609151 0.016785825 -0.006097669 -0.00444194 0.030874606 0.024801765 -0.023531185
0.0058071916 -0.058960963 -0.024866085 0.00997226 0.021503527 -0.019890258 -0.000702442 -0.04402321
0.004059209 0.0020091657 0.064796336 0.03845226 0.014635367 -0.05054546 -0.014880776 -0.02396865
-0.04254871 0.029155226 0.035185475 -0.00888756 -0.012349354 -0.014193985 0.002217556 0.040077653
-0.015837861 -0.02342582 0.046150554 -0.0063566533 0.048629213 0.03840342 0.018357225 -0.0064221285
0.03147373 0.005679096 0.020567918 -0.010345371 0.0020144614 -0.021998426 0.02822332 -0.021727225
-0.0013662729 -0.029643625 -0.053064767 -0.06004865 0.026438346 0.038284693 0.018375633 -0.008880487
0.022615075 -0.008448261 0.026542587 -0.024654215 -0.0022462923 -0.020414002 -0.012060178 0.00084473303
0.039869376 -0.02636528 0.002037252 2.1143884e-05 -0.04008194 -0.016215488 0.011088074 0.0055949218
-0.027321883 -0.008634949 2.7582499e-05 0.034186807 0.021456504 -0.0014112886 -0.0022596542 -0.006897203

bias f4 [64]
00000000: 3c03 0fbd 0421 77bc 7aec bd3a d1a6 50bd
00000010: fb3e f4bb 5f45 53bb bf0c 933c 96ca 9f3b
00000020: d35b 76bc 8c0e 88bc 9596 eb3b c8d8 0fbd
00000030: 85ac b53c c67c 82bc 2f4e d2ba 2667 9e3b
00000040: f855 b63c bb31 b53c fe50 873c 5816 343c
00000050: 945e fd3c 1b29 80bc 2715 543b 70b8 b0bc
00000060: bfab c7bc 3829 0ebc a972 293d 2ad6 f93b
00000070: 63c2 4dbd a65d b8ba dcf4 46bd 148f 48bd
00000080: 4203 0e3d 023f e13c 58f1 933d 7722 773c
00000090: df28 4c3c 3673 32bd 3f3c 5c3c 1d2b 79bb
000000a0: 4340 493b d096 b33c 3fc6 19bd 4721 73bd
000000b0: 70a3 a1bc 1449 323d 2b94 78bc 6987 953d
000000c0: 6b9b 22bc 39bb dfbb 0a1f f8bc c310 7bbc
000000d0: 9f59 97bc ea9f cc39 937c 49bd 1a86 8fbc
000000e0: 6122 243d 12a5 86bc 81ad 1cbd 9df7 40bd
000000f0: 4dce 833b 98c9 093d 8044 a23c b8c3 143d
-0.034915194 -0.015083555 0.0014490031 -0.05094034 -0.007453797 -0.0032237393 0.017950414 0.004876445
-0.015036541 -0.016608499 0.0071895816 -0.035118848 0.02217699 -0.015928637 -0.0016045029 0.0048340736
0.02225779 0.02211844 0.016518112 0.010991655 0.030928887 -0.0156446 0.003236124 -0.021572322
-0.024373887 -0.0086768195 0.041369114 0.0076244073 -0.05023421 -0.0014065995 -0.04857336 -0.048964575
0.034671076 0.027495865 0.07223767 0.015083901 0.012460916 -0.043566905 0.013442098 -0.0038020082
0.003070847 0.021922499 -0.037542578 -0.059357908 -0.019731253 0.043526724 -0.015172045 0.07301218
-0.00992475 -0.0068277386 -0.030288238 -0.0153238205 -0.018475352 0.00039029057 -0.04919107 -0.01752
0.04007185 -0.016436134 -0.038251404 -0.047111142 0.0040223957 0.03363952 0.019808054 0.036319464

weight f4 [10, 64]
00000000: f691 eebd bbc3 783e f5d4 52bd 8013 5fbc
00000010: 4161 3fbe 0064 623e e96e 60be b101 93bc
00000020: ef3a f6bd ea9a bb3e 7b0e babd 416c a03e
00000030: b524 30be 691e 10be 60e4 173e 35e2 dfbc
00000040: 385d 063e 00bb 663e 7eef 9d3d e3d2 21be
00000050: fc73 293e 205d bf3d 357d 12be 6a01 3f3e
00000060: 6d0d 1a3e b630 d13c 8fc3 3cbe fcee 2b3e
00000070: e245 15bc b42e 333e dc92 653e 880c 1f3e
00000080: d5c0 91be 5b90 993d 5d61 61be 144c 80bd
00000090: 38d4 dc3c 74bf 893e 061e 2e3e cc1e 4d3e
000000a0: b7a0 aabd 7d31 38be ff34 cfbd bb4a 2d3e
000000b0: ca37 a8bd af89 ccbd 4c2a 62be 0d4d 0dbe
000000c0: 111e f3bd 1f0e 853e 7c5d d9bc 6320 4b3e
000000d0: f28c 3e3e 5733 233e bab6 b4bc fce5 e03c
000000e0: 568c 313e 01ca d33d 7adf 993d 2b37 f53d
000000f0: abe4 80bd c4d8 b33c 0ad3 c8bc cbc6 75bd
00000100: c783 253e bd5e 8c3e afdf 0bbd ab03 5b3e
00000110: 2645 493c e6b8 90be 31c9 063c c3d2 193e
00000120: 93c0 763e 2393 ea3d 43b5 03be f214 a0bd
00000130: 051d 233e 6f45 263e 199c 4fbe 9ad9 5c3d
00000140: ba8b 46be 999d b2be 60b3 b53e a631 703e
00000150: 9fc7 77be 48f3 803e 7f24 2f3e d9ed 8c3e
00000160: 3839 14be 5357 8dbe 4fe7 143e 1fae cc3d
00000170: 8bf9 4dbe 3016 a4be e57f 9a3e ed40 92bd
00000180: 3242 953e baab 423d bf08 cabd 768d 593d
00000190: a567 a83e 90cd 6ebe 9355 c9bc 9826 b93d
000001a0: a08e 05be ff23 c1be 806b 903e 42ca 333e
000001b0: 1448 c0bd 6b3e 813e 6d31 d23c d5cc 1ebe
000001c0: 126d 193e 5979 dd3d 2401 10be 1c54 d4bc
000001d0: 3f0d 0a3e c1a9 023e 08ab a1be bbfb 6c3e
000001e0: 2b79 cbbc 2194 393d f4ec 063e 36aa a13c
000001f0: d8a1 b23e 96ee e43d 7753 e93d 1004 743e
00000200: ccc5 fc3d dbcb ccbd aff1 acbd 6200 2e3e
00000210: a94d 883d 3d20 823e 7af6 6fbe 5ed7 8bbe
00000220: 1f44 273e fcc5 7c3e 1437 93bb 0697 193c
00000230: 7b75 cdbd 4e8c 533e 2432 8abe 5107 4a3d
00000240: 2d41 c1bd 0eb9 ad3e d330 73be 72b7 783d
00000250: 75db f43d f063 99bc 5d87 79bd e505 42be
00000260: 9676 01be 3cff 943e 2eb1 893b b494 3ebe
00000270: 27ab 673d 9daf 453c 9b2c 78be f70d abbd
00000280: 4184 21be e0bb 8b3d eb70 7ebd 1028 d2bd
00000290: 63a2 48be 536f 153e f23b b33c 77e7 213e
000002a0: 9c8c c13d 69ba 433e e3b2 5bbd 298f a8be
000002b0: 8a47 d9bd 7cfb 3bbd 4c36 57be b2ff 923d
000002c0: 53b9 22bd 818c 2b3e 2e62 653e 6b03 843e
000002d0: 8549 58bd 8889 763e 9651 3dbe 672a 4abe
000002e0: f8ca 81be afb2 e7bb 35c1 a1bd d1d2 58be
000002f0: 4918 b43d 1e59 4d3d 4048 1fbe 8f50 083e
00000300: e562 073e ac4a 1bbe 6d99 543d e218 36bc
00000310: 923e 1cbe 9887 8ebe 2690 26be edfd dabd
00000320: f362 3b3e ea6d 42be 1932 2abe 64ab 843c
00000330: ab10 21be 72f9 8abd 1960 23be 5e61 38be
00000340: d2b4 893e e5fc 4bbe ea23 16be 2926 4cbe
00000350: 88a7 d2bd 2690 0cbe 0954 f3bd b9f0 4ebe
00000360: 492e 093e f252 003e 3ef5 20bd df4d 883c
00000370: 8fc3 ef3b 9a32 b33d 2e4a 3ebe 23fc 23be
00000380: b9f8 b53d 2477 193e caf8 41be 04c0 8bbd
00000390: 031b 363e 0f74 c4bd 1a82 14bd 7c5f eb3d
000003a0: c6c5 48be 6be9 b2bd f5e4 e23d 5620 85bd
000003b0: c781 843d f7de aa3d f856 59bd 0e18 053e
000003c0: 674e 10be 6318 1ebe c4bc 52be 44d4 f0bc
000003d0: 6e1b 12be 3025 573d 7ab1 7b3d e6e3 86be
000003e0: 212d a1bd 3a3d 0fbe 61f9 e63d 4a5e 473e
000003f0: d796 4abe 77f5 bd3d 7da4 ddbd 55c4 a2bd
-0.116489336 0.24293415 -0.051472623 -0.013615489 -0.18689443 0.2210846 -0.21917309 -0.017945142
-0.120229594 0.36641628 -0.09084793 0.3133259 -0.17201503 -0.140741 0.14833212 -0.027329544
0.13121498 0.22532272 0.07711695 -0.15803103 0.16548151 0.09343934 -0.14305575 0.18652883
0.15044184 0.025535922 -0.18433975 0.16790384 -0.0091109 0.17498285 0.22419304 0.15532124
-0.28467432 0.07498237 -0.22009797 -0.06264511 0.026956663 0.2690388 0.1700364 0.2003128
-0.08331435 -0.17987628 -0.1011753 0.16923039 -0.08213766 -0.099871986 -0.22086447 -0.13798924
-0.11870969 0.25987336 -0.026533835 0.19836573 0.18608454 0.15937553 -0.022059787 0.027453415
0.1733869 0.103412636 0.07513328 0.11973413 -0.06293615 0.021953948 -0.024514694 -0.060004037
0.1616355 0.2741603 -0.03414887 0.21388118 0.012284553 -0.28266066 0.008226679 0.15021805
0.24096899 0.11453845 -0.12862115 -0.07816495 0.15929039 0.16237424 -0.2027439 0.05391846
-0.19389239 -0.34885862 0.35488415 0.2345644 -0.24197243 0.2518561 0.17103766 0.27525213
-0.14474952 -0.27605686 0.14541362 0.099941485 -0.20114724 -0.32048178 0.301757 -0.0714129
0.29152066 0.047527052 -0.098649494 0.053113423 0.32891575 -0.23320603 -0.024576938 0.09040564
-0.13042688 -0.37722775 0.28207016 0.17557624 -0.09388748 0.25242934 0.025658334 -0.15507825
0.14983013 0.10814161 -0.14062935 -0.025919013 0.13481615 0.12760068 -0.315758 0.23142903
-0.02483805 0.045307282 0.13176328 0.019734483 0.34889102 0.11178319 0.11392873 0.23829675
0.12342414 -0.0999982 -0.08444535 0.16992334 0.066554375 0.2541522 -0.23433867 -0.2731275
0.1633458 0.246849 -0.00449265 0.009374386 -0.10032173 0.2065899 -0.2699138 0.049323384
-0.094362594 0.33930248 -0.23749094 0.060721822 0.119559206 -0.018724412 -0.060920108 -0.18947561
-0.12642893 0.29100978 0.0042020297 -0.18611413 0.056559708 0.012065795 -0.24235766 -0.08352273
-0.15773107 0.06822944 -0.062119406 -0.102615476 -0.19593196 0.14593248 0.02187917 0.15810953
0.09450647 0.19114079 -0.053637397 -0.32921723 -0.10609348 -0.04589413 -0.21016806 0.07177676
-0.03972752 0.16752817 0.22400734 0.25783858 -0.05280449 0.24075902 -0.18488154 -0.19742738
-0.25350165 -0.0070708613 -0.078981794 -0.2117417 0.087936945 0.050133817 -0.15554905 0.1331198
0.13221319 -0.15165204 0.05190413 -0.011114331 -0.15258244 -0.27837825 -0.16265926 -0.10692964
0.18299465 -0.18987241 -0.16620673 0.016195007 -0.15729015 -0.06785859 -0.15954627 -0.18005893
0.26895767 -0.1992069 -0.14662138 -0.19936432 -0.1028586 -0.13726863 -0.11881263 -0.20209016
0.13396563 0.12531641 -0.03929638 0.016638694 0.0073170136 0.08749886 -0.18582985 -0.16014151
0.08885331 0.14986855 -0.18942562 -0.068237334 0.17783742 -0.09592449 -0.036256887 0.114928216
-0.19606695 -0.08735927 0.11078826 -0.06500308 0.064700656 0.083433084 -0.053061455 0.12997457
-0.14092408 -0.1543899 -0.20579821 -0.029398091 -0.14268276 0.0525257 0.06144855 -0.26345748
-0.07869936 -0.139882 0.11278034 0.19469562 -0.19784103 0.09275334 -0.10822389 -0.079476036

bias f4 [10]
00000000: c2fd 49be 51bd 6cbd 8c23 62bb 367a afbc
00000010: fe16 3b3e 98a5 e7bc 93fd 7a3d 359c 46bd
00000020: f88d bfbc 0674 083c
-0.19725707 -0.057797734 -0.003450605 -0.02142058 0.1827049 -0.028277203 0.061276983 -0.048488814
-0.023383126 0.008328443
