models/gpu_train_model5.pth (torch, 587335 bytes, 10 tensors)

weight f4 [32, 3, 5, 5]
000000 73 90 24 3d fe c8 1d 3e bf 09 15 3d 31 7e f5 bc
       0.04017682 0.15408704 0.036386248 -0.0299674
000010 56 27 c0 bd 9f dd d5 bc e1 96 9d 3d b5 e0 04 3e
       -0.09382503 -0.026106654 0.076947935 0.12976344
000020 d1 74 82 bd 2e 2d e2 bc 07 7e a5 3c bd 0f ee 3d
       -0.06369937 -0.027609434 0.020201696 0.116240956
000030 f6 ba a3 3b 7f 4a 42 bd 37 35 90 bc 32 ec 9a 3d
       0.0049966527 -0.047434326 -0.0176035 0.07564582
000040 dc cd 08 bd 2f 53 76 bd 05 67 19 bd 47 69 09 3e
       -0.033399448 -0.060137924 -0.037451763 0.13419066
000050 e5 99 a1 bd b5 d9 89 bd 04 11 ca 3d 17 0c 3d 3d
       -0.07890681 -0.067309774 0.09866527 0.046154108
000060 51 c8 fd 3d 7e b7 9c 3d 8a 83 c7 3d d9 f9 97 bd
       0.12391723 0.07652186 0.09741886 -0.074207015
000070 43 70 fc 3c 21 e4 96 bd 1e ab c7 3d 23 4e 25 bd
       0.03081525 -0.07367731 0.09749435 -0.04035772
000080 86 a3 6b 3c f9 bc cf bd 54 09 6b 3c be 39 94 3c
       0.014382249 -0.101434655 0.014345486 0.01809394
000090 47 73 02 3d a1 82 01 3d 10 09 49 bd a9 7f 9d bd
       0.03184822 0.031618718 -0.04908091 -0.07690365
0000a0 8b 0b 95 bd ba 68 c4 bd 65 90 d5 3c 8e ab 97 3c
       -0.07277592 -0.095902875 0.02606983 0.01851442
0000b0 28 85 02 3e e9 ba 3c bd 56 e2 80 3c 04 f9 5b 3d
       0.12746108 -0.04607669 0.015732925 0.053704277
0000c0 7f 5f 92 3b 6a 69 98 3d 68 bf 30 3d 5e e2 a7 3d
       0.0044669504 0.07441981 0.04315129 0.08197473
0000d0 b0 79 0e be e0 ee 2c be d1 6a a6 bd d3 14 bf bd
       -0.13913608 -0.16887999 -0.08125842 -0.09330144
0000e0 5c d6 13 bc b0 b1 33 bd bc 01 2c be f6 7e 0b be
       -0.009023275 -0.043870628 -0.16797537 -0.1362265
0000f0 83 3b ad bd 8b e0 d4 bb 41 35 3e bd ec d9 de bc
       -0.084586166 -0.006496494 -0.046437506 -0.027203523
000100 f8 e4 5c 3c 10 b4 ad bd ac 67 e8 3c 3f 71 01 be
       0.013482325 -0.0848161 0.028369747 -0.12640856
000110 fd b2 65 3d f9 89 62 3c 6e 58 08 be 7e 4e 8d 3d
       0.0560789 0.013826841 -0.13314983 0.06899737
000120 2d b0 d3 bc ae 1f b3 bd 11 3d b9 bc 55 61 87 3d
       -0.025840843 -0.08746277 -0.022612127 0.066103615
000130 e6 95 5e bc 45 22 c2 bc f0 e4 6c 3c 18 95 93 bd
       -0.013585543 -0.023697982 0.01445888 -0.07206172
000140 84 a8 d3 bd ef 52 d3 bd 28 b3 0b be 24 ca 55 3c
       -0.10334876 -0.10318553 -0.13642561 0.013048682
000150 b7 b9 00 3e 78 5f 0d be 1d bc a8 bd 7b b6 a3 bd
       0.12570845 -0.1380595 -0.08239005 -0.0799379
000160 94 fd 04 3e f6 66 a4 3d e9 f3 4e 3d 02 86 d8 bd
       0.12987357 0.08027451 0.05052558 -0.10572435
000170 1f d1 45 3c 65 77 1a 3d 0a 3c ff 3d ef 16 b7 3d
       0.012073784 0.03771152 0.124626234 0.08939921
000180 fc fd 0e be ac 99 77 3d 0b 57 e3 3d d4 eb ae 3b
       -0.13964075 0.060449287 0.111005865 0.0053381715
000190 76 4b c3 3d e3 85 c6 bd 9b af f2 3b 0b bc af 3c
       0.095358774 -0.096935056 0.0074061877 0.02145197
0001a0 bd bd 07 3e 31 80 94 bd 61 76 11 3d c0 15 df bd
       0.13255973 -0.07251013 0.035513286 -0.1089282
0001b0 7d 79 ad 3d ed 6f e5 3d 5c e8 95 bd 3f 53 ba 3d
       0.08470438 0.11202989 -0.0731971 0.09097909
0001c0 d9 23 1d bd 24 27 91 3d a1 66 92 3d d0 03 8a 3d
       -0.038364265 0.070875436 0.07148481 0.067390084
0001d0 e7 eb d0 bd e9 36 05 3e 85 90 e1 3d 4d 39 b7 3d
       -0.10201245 0.13009228 0.11013893 0.08946476
0001e0 06 f6 09 3d d7 1b 1b 3d c2 3f d9 3d ba 85 93 3c
       0.03368189 0.037868347 0.10607864 0.018008102
0001f0 e3 97 a5 3d ab 9d 8e 3d 66 75 25 bd 6a ea 19 be
       0.08085611 0.069636665 -0.040395163 -0.15030828
000200 f3 23 8a bd ec d5 8d bd 1a eb 0c bd e1 52 4e bc
       -0.06745138 -0.06925568 -0.034403898 -0.012593002
000210 67 e5 23 bc c7 c7 d2 3c 6a 6d 5f 3b 74 04 e5 bd
       -0.010003424 0.025730027 0.0034092315 -0.1118249
000220 29 a2 46 3d 29 69 9a 3d 81 85 f5 3c 65 f8 80 bd
       0.04849449 0.07539589 0.029970886 -0.062973775
000230 96 a7 13 be af 7f cd bd 28 ef fd 3b 38 65 ad bd
       -0.14419398 -0.10034119 0.007749457 -0.084665716
000240 fa f4 81 bb 39 72 e9 bd fb 21 9c ba c7 b5 23 bd
       -0.003965971 -0.11398739 -0.0011911982 -0.03996828
000250 ea 23 c1 3d 50 08 2e 3d 77 44 8c bd f4 68 f5 3d
       0.09430678 0.042488396 -0.06848996 0.11982909
000260 05 6f 9c 3d 6d 10 18 3d 15 9d 42 3d 2a 31 00 be
       0.07638363 0.03712504 0.047513086 -0.12518755
000270 cb b8 1c 3e b6 90 16 3e 3b ab a4 bd 3b 1f 02 bd
       0.15304868 0.1470364 -0.08040472 -0.031768065
000280 4a 87 9b bd 66 49 b1 3d c5 45 19 3e 16 72 b5 3c
       -0.07594164 0.08656578 0.14968021 0.022149127
000290 db 01 ec 3d e4 d2 cb 3d 7f d6 18 3e 96 c0 79 bc
       0.115237914 0.099523336 0.14925574 -0.01524367
0002a0 21 7f 38 3d 05 57 2c 3e 2f e0 ef 3d 63 02 a0 3d
       0.045043115 0.1683007 0.117126815 0.07812955
0002b0 cf da d6 3d 0a 0c 2b bb 46 f5 16 3e 6f 65 af bc
       0.10490953 -0.0026099705 0.14742002 -0.021410672
0002c0 28 e4 ff 3c 97 88 53 bd 1f 4f 84 bd 6c 5a fc 3d
       0.031236723 -0.051643934 -0.06460404 0.12321934
0002d0 11 bb 61 bc f0 c5 6c bc 91 21 94 bc 1b 33 b0 3d
       -0.01377751 -0.014451489 -0.018082412 0.086034976
0002e0 c0 a6 45 3d ae c5 c2 bd 3e 06 17 bb a4 26 54 3c
       0.04825473 -0.09510361 -0.0023044492 0.012948666
0002f0 ce 6e cc bd f8 a8 39 3d 4f 55 32 bd fe 3f 94 bd
       -0.09982072 0.045327157 -0.043538388 -0.07238768
000300 f6 60 c3 bd 9c 70 f0 3b 21 03 ff 3d 27 fe 16 3d
       -0.09539978 0.007337643 0.12451769 0.036863472
000310 44 4d 89 3c 02 cd 58 3d 5e b1 a4 3d cc 1a 57 bc
       0.016760476 0.052929886 0.080416426 -0.0131289475
000320 26 c3 45 bd d3 df ad bd 42 22 5c bd 1e c3 23 3d
       -0.04828181 -0.08489957 -0.05374361 0.039981
000330 af 40 0d be 6b f8 29 be 9b 87 3f 3c d2 e4 ed bd
       -0.13794206 -0.1659867 0.011690046 -0.1161591
000340 ae 3b 11 be 7c 25 92 bb f6 0b 49 be ca a9 3a bc
       -0.14182922 -0.004460035 -0.19633469 -0.01139302
000350 1a 9c 57 bd 1e ed 96 bd ec e7 2b 3d a9 bf 4e bd
       -0.052639104 -0.07369445 0.041969225 -0.05047575
000360 eb 27 82 bd 01 2c 99 bd e0 59 84 3b cd 7b b8 bc
       -0.0635527 -0.07479096 0.0040390342 -0.02251997
000370 08 c3 29 be 4a 68 12 3d 37 0c 15 be f4 69 40 3d
       -0.16578305 0.03574399 -0.14555441 0.046976045
000380 b6 a1 21 bb c7 23 b6 3d 1d e0 43 bd bd 38 71 bd
       -0.0024663038 0.08893543 -0.047821153 -0.058892
000390 36 cd cf bd 77 24 bf 3d 43 b5 7b bd b9 8d a7 3d
       -0.10146563 0.09333127 -0.06145216 0.08181328
0003a0 0a 6a 35 bd 18 48 26 3d cd 81 ba 3d b3 6b b2 3d
       -0.04429058 0.040596098 0.09106789 0.08711948
0003b0 04 fc 17 bd c8 80 dc 3d 28 64 10 bd 18 db 06 3e
       -0.037105575 0.107667506 -0.035251766 0.13169515
0003c0 1f 67 c4 bd 55 11 fa 3d c1 f8 40 3d da ba 1a 3e
       -0.09589981 0.12210337 0.04711223 0.1511034
0003d0 37 06 8d 3d e8 c9 24 3d 4c 06 77 bd af 9a 9e 3d
       0.06885951 0.040231615 -0.06030874 0.07744347
0003e0 f9 b3 ac 3d 1d 14 20 bd 8b 8f be bd f3 fa 0c be
       0.084327646 -0.03908168 -0.093047224 -0.13767605
0003f0 21 46 5b 3d a7 2e 7a bd 92 93 61 3d c0 d3 ad 3d
       0.053533677 -0.061079647 0.055072375 0.08487654

bias f4 [32]
000000 37 0b 0f 3d 5e f2 9d 3d 77 d4 77 3d 8e 06 11 be
       0.034922805 0.077122435 0.060505357 -0.14162657
000010 e1 29 81 bd c1 8c 07 3e 66 fb 88 3d 7b ab bf 3d
       -0.06306816 0.13237287 0.066885754 0.09358879
000020 3a 45 a5 bd 03 51 a6 3d a3 b8 2a 3e 07 c8 2f be
       -0.080698445 0.081209205 0.16671996 -0.17166148
000030 4c 98 59 be 2e 7d bc 3d 51 67 c0 bd 30 91 4c be
       -0.21249503 0.09203564 -0.09394706 -0.1997726
000040 4e a9 12 be 47 de 3b bc 7a 02 15 3e 37 fe 97 bd
       -0.14322397 -0.011466569 0.14551726 -0.074215345
000050 f4 c9 be bd 48 50 7e be 71 0f 45 bd 1c 9b 66 bd
       -0.09315863 -0.24835312 -0.04811043 -0.056300268
000060 d5 b3 fa bc 7e 64 4f bd e6 af 3b bb 7c 39 ca bd
       -0.030603329 -0.050632946 -0.002863878 -0.098742455
000070 01 af 85 bd 7c e2 49 bd e2 ac 3c 3c 11 35 03 3e
       -0.0652752 -0.049288258 0.011515828 0.12813212

weight f4 [32, 32, 5, 5]
000000 d2 02 ae bc be 73 b2 3c ff e9 47 3c 3a f2 48 bc
       -0.02124158 0.021783706 0.012201785 -0.012264783
000010 ce b4 ac 3c 66 da 49 bb de 8f 23 bc 68 86 ff 3c
       0.021082308 -0.0030800342 -0.009983031 0.03119202
000020 70 30 06 3c 98 21 32 3d a7 8b f7 39 10 8d ca 3c
       0.008190259 0.04348907 0.0004721556 0.024725467
000030 a5 29 2c 3d ce ab 12 3c 6f 47 10 bc 24 eb ca ba
       0.042031903 0.008952094 -0.008806094 -0.0015481454
000040 3c b9 22 3d 97 cb 29 3d 18 1b 0f 3d c8 8f 04 3c
       0.039727435 0.041453924 0.034937948 0.008090921
000050 bc 5a a4 b9 d2 10 78 3c 48 34 85 3c e2 9f 26 3c
       -0.0003134812 0.015140729 0.016260281 0.010169955
000060 fd b8 96 3c 42 ae 3b bc 7a bf c2 bc d5 f3 45 bb
       0.018398756 -0.0114551205 -0.023772944 -0.003020515
000070 66 b9 c8 3c af 36 0a 3d 7d 45 a7 3b f0 5c 1d 3c
       0.024502467 0.033743557 0.005104719 0.009604678
000080 95 70 a0 bc dc c4 88 bc fa 91 28 3d 90 31 4f bb
       -0.019584933 -0.016695432 0.04115484 -0.0031615235
000090 ba c6 00 bc 11 e8 6b 3b da 3c 06 3d 88 0c 22 3d
       -0.00785988 0.0035996477 0.032772876 0.039562732
0000a0 0d 54 21 bd 52 5f ea bc 7d 4f 8d 3b ce 39 80 bc
       -0.039386798 -0.028609905 0.0043124543 -0.015652563
0000b0 0c d8 12 3c b1 f8 40 bc 75 eb f2 bc 82 e3 a9 3c
       0.008962642 -0.011778043 -0.02965329 0.020738367
0000c0 a5 7f aa 3c 17 b1 24 3d 6b 57 ae 3c 8e 86 cf bb
       0.020812819 0.04020795 0.021281919 -0.006333179
0000d0 50 20 8e bc e4 f9 c4 39 e9 4f d3 bc 98 3c 04 3d
       -0.017349392 0.00037570216 -0.02579494 0.03228435
0000e0 ca 82 0d bd 54 74 ad 3c 7f 92 09 3d db b4 43 bc
       -0.03454856 0.021173634 0.033586975 -0.011944975
0000f0 84 ab 15 bd 3b 06 9b 3b 2e 64 c6 bc 2b d9 60 bc
       -0.036540523 0.0047309673 -0.024217691 -0.013723652
000100 7e 7d a7 bc 49 5b 01 bc 6a 87 f7 bc ee 12 e7 bc
       -0.020445582 -0.007895299 -0.030215938 -0.028207269
000110 ab 27 d2 3c 13 31 e3 bc 1b c1 b0 bc aa 97 ed 3b
       0.02565368 -0.027733361 -0.021576455 0.007250746
000120 eb 7b 69 bb d1 01 02 bd d3 45 82 3c 75 04 f2 bc
       -0.003562684 -0.031740014 0.015902435 -0.02954314
000130 dd 25 ef 3c 39 db 03 3d 42 9a ce 3c b6 d8 a4 3b
       0.02919286 0.03219149 0.02522004 0.005030717
000140 0c de 1f 3c c0 c7 b7 3c 04 4e 1a 3b 0c 93 c0 bb
       0.00975753 0.022434115 0.0023545036 -0.0058769044
000150 fa 12 8f bc 85 f2 02 bd 1e 00 d0 3b fb 48 b3 3b
       -0.017465103 -0.031969566 0.00634767 0.0054713464
000160 23 47 f8 3c c8 2f d9 3c fd f3 9a bc 76 fa 8f bc
       0.030307358 0.026512042 -0.01891517 -0.017575484
000170 73 9b 21 bd 1c 63 e3 bb 70 cf 4e bc 67 da 85 bc
       -0.03945489 -0.006939305 -0.012622699 -0.016339494
000180 23 18 f7 3a 1c cb 84 3c 4f ed dd 3c f3 94 ba 3c
       0.0018851798 0.016210131 0.027090697 0.022776103
000190 bf a0 fc 3c d4 59 1c 3d 37 11 52 bc ba 97 f6 3c
       0.030838368 0.038171604 -0.012821487 0.030101646
0001a0 1d ed f9 bb 29 e3 61 3c a6 a0 cd 3c a1 34 18 3d
       -0.007627143 0.013787069 0.025101017 0.037159566
0001b0 34 83 ba 3b dd c5 84 3c 59 e8 01 bc 07 e8 0f 3d
       0.00569191 0.01620763 -0.007928931 0.035133388
0001c0 af a5 f7 3b 4e ee 5e ba 0b 0b cc 3c 47 03 21 bb
       0.007557593 -0.0008504138 0.02490761 -0.0024568604
0001d0 bc b3 c3 3a c1 d7 1a bc 47 a5 13 bd d3 72 24 bc
       0.0014930884 -0.009450854 -0.036046293 -0.010037142
0001e0 53 e5 fe bc 3c c3 ef ba 63 fa 12 bb eb 9d 1b bd
       -0.03111521 -0.0018292437 -0.0022427074 -0.0379924
0001f0 99 2e a7 bb 54 4b 2f 3d d2 29 c1 bc 09 f1 84 3c
       -0.0051019904 0.042796448 -0.023579512 0.016228216
000200 88 3c 78 bb 21 71 61 3c 71 9e ff 3c 2d 15 e0 3a
       -0.0037877876 0.013759882 0.03120348 0.0017096155
000210 60 e1 0f 3c 3a 90 53 3c b6 bf ae 3b 92 32 b2 3c
       0.008781761 0.012912804 0.0053329123 0.02175263
000220 32 50 a7 bb d0 2c bc 3c c0 76 1f bc 93 14 8d bc
       -0.0051059956 0.022970587 -0.009732902 -0.017221725
000230 bf 43 3f 3d 67 0b 4e 3b 3c 7d 67 3c db e8 95 bc
       0.046695467 0.0031439902 0.014128979 -0.01829951
000240 29 6f a0 3c 3f bb 1f 3d 96 22 e8 3c d9 1b e0 3c
       0.019584255 0.03899693 0.028336804 0.027357029
000250 da ff 6f 3a 3c 08 9b 3b bb 2a 7c bc 23 d8 b1 3c
       0.00091552513 0.004731206 -0.015391047 0.021709507
000260 31 1e 9f 3c 56 ef 4a 3d d7 19 cf bb 1b ff a3 bc
       0.019423576 0.049544655 -0.006320219 -0.020019105
000270 ec 9c 38 3d f0 90 18 3d e1 c1 3d 3d b9 85 f7 3c
       0.045071527 0.0372476 0.046327475 0.030215131
000280 9b d2 df bc b0 bb 5a 3d f9 d7 69 3c d4 31 cb 3b
       -0.027322104 0.05340165 0.014272683 0.0062010083
000290 bf 20 2b 3d cd aa 1a bc b8 a6 ce 3c 1a 15 a8 3c
       0.041779276 -0.009440136 0.025225982 0.020517875
0002a0 fa d4 5e 3d 22 0e 05 3d bd eb ad 3c 12 f6 bd bc
       0.05440233 0.03248418 0.021230573 -0.023188625
0002b0 c9 75 8d 3c 4c a0 c1 bc 59 11 d0 3b a4 de 62 bb
       0.017268078 -0.023636006 0.0063497243 -0.0034617567
0002c0 e0 f9 0c 3c fe 12 80 bb 87 a7 cc 3c 7c 00 bb 3c
       0.008604497 -0.003908514 0.024982227 0.02282738
0002d0 34 23 11 3d 33 6c 17 3c 6d 13 4a 3d 7e c5 53 3d
       0.035433963 0.009242105 0.049334932 0.051702015
0002e0 45 61 04 3d 02 d9 d2 bb 18 d6 a5 3c d2 24 13 3d
       0.032319326 -0.0064345608 0.02024369 0.035923786
0002f0 e2 79 41 bb d8 09 47 3c 8d 5c e7 3c 9e 2b 43 bc
       -0.002952211 0.012148343 0.028242374 -0.011912255
000300 9b 9a a2 3b 82 39 82 bc 95 85 d1 bc aa 0f b5 bc
       0.004962278 -0.015896562 -0.025576392 -0.022102196
000310 27 a1 85 ba 5f d8 28 bd 1b 1e df bc d5 94 46 bd
       -0.0010195122 -0.041221973 -0.027236035 -0.04848178
000320 48 94 2f 3b 50 fa 67 bb 6d be 93 3c 3e 83 bc 3b
       0.0026791263 -0.0035397 0.018035138 0.00575295
000330 b0 94 b7 3c 28 dc ad bc f0 58 b6 bb fd 27 5b bb
       0.022409767 -0.021223143 -0.0055648014 -0.0033440583
000340 7b bf 0b 3d 55 5e ce bb 19 50 f9 3c 92 b1 f4 3c
       0.034118157 -0.0062978663 0.030433701 0.029869828
000350 06 89 78 3c 11 ca 48 bc 1d 29 23 3d 25 92 81 bb
       0.015169388 -0.012255208 0.03983413 -0.0039541894
000360 fd 8f 21 3d 61 5f d9 3c 37 ff a6 3c e4 9e 0c 3c
       0.03944396 0.026534738 0.020385368 0.008582804
000370 f9 08 43 bc 00 ad 1b bd 17 6f c8 3b b5 97 17 3a
       -0.011903995 -0.038006783 0.0061167586 0.0005782799
000380 2c 82 12 bd ff 91 64 3c be c5 80 bc 42 f7 01 bb
       -0.035768673 0.013950824 -0.01571929 -0.0019831215
000390 e1 a4 02 bc 1e 07 9d bc c3 12 e9 bb 74 7d ff bc
       -0.0079738805 -0.019168433 -0.0071128323 -0.03118775
0003a0 9f 60 a8 bb ff 91 e2 bc 3b d1 c6 bc 4f d3 9c bb
       -0.0051384713 -0.027657507 -0.02426969 -0.004785932
0003b0 77 2e 0d bd 18 c2 1e bd 76 24 68 3c f4 94 b8 bc
       -0.03446814 -0.03875932 0.014168849 -0.022531964
0003c0 87 4a c1 3c 20 d1 c7 bb 0e af 0a bc d7 ac ca 3c
       0.023595108 -0.0060979277 -0.008464588 0.02474062
0003d0 90 54 13 bb 28 2b 50 bc 41 e8 db bc f5 b5 34 bc
       -0.0022480823 -0.012705602 -0.026844146 -0.01102971
0003e0 d3 fd fe 3c ad b5 ca bc 24 14 fe 3c 27 d5 07 3c
       0.031126892 -0.024744833 0.031015463 0.008290566
0003f0 38 00 36 3b a0 1c 8a bc 11 2a 26 3d c1 d8 69 3b
       0.0027771126 -0.016859353 0.04056746 0.0035682174

bias f4 [32]
000000 dc 8d 9c 3c 6a c4 40 bd 44 6c c5 3a 36 6a 49 bb
       0.019110613 -0.047062315 0.0015062173 -0.0030733473
000010 2d fe 02 bd 6e 21 04 3d e9 0a 0a 3c 62 e8 f6 bc
       -0.031980682 0.032258444 0.008425453 -0.030140106
000020 0d b2 84 3a 1f 04 2f bd fd 4e e6 bc fc af d9 3c
       0.0010123864 -0.04272854 -0.028113836 0.026573174
000030 33 bc 83 bc 3b f6 d9 3b 8b 95 a2 bd 54 f8 16 bd
       -0.016080951 0.0066516674 -0.07938679 -0.036857918
000040 b9 84 d2 bb d5 bc 0a bd c5 5c df bc 28 54 4b bd
       -0.006424513 -0.03387149 -0.027265916 -0.049640805
000050 d5 f3 06 3d 3a 0e d3 bd 4a 00 57 bb 16 38 55 3c
       0.03294738 -0.10305448 -0.0032806569 0.01301386
000060 35 c6 b2 3b 6f 54 68 3d c4 2b b6 bc a5 e2 50 bd
       0.005455757 0.056721147 -0.022237666 -0.050997395
000070 84 4e e4 3c cd b9 e4 bc 73 d3 18 bd 1d 37 2f bd
       0.02786947 -0.027920628 -0.03731103 -0.04277717

weight f4 [64, 32, 5, 5]
000000 40 12 99 bc 3e ca 2f bd a6 81 dc bc 74 27 1c bd
       -0.01868546 -0.042917483 -0.02691729 -0.038123563
000010 6a 78 35 3b 36 6a 27 3d c7 f5 e0 39 af 28 cb bb
       0.002769018 0.040872775 0.00042907728 -0.006199918
000020 1d 76 94 bc 48 b6 96 bc 24 28 f5 bc 9f dc e2 3c
       -0.018122727 -0.018397465 -0.029926367 0.027693091
000030 85 d8 d7 bc 47 21 95 3b 40 0a 6d bc 5f 25 ba 3c
       -0.026348362 0.004551086 -0.014467776 0.022722898
000040 d4 4a 79 bc f9 c5 ac 3c 23 03 6d 3c 62 4e 60 3d
       -0.015215594 0.021090494 0.01446608 0.05476225
000050 26 a0 9e b9 89 1a 9a 3c 43 1d e1 bb e9 5a 40 bc
       -0.00030255428 0.018811481 -0.0068699433 -0.011740425
000060 ff 07 1f 3d 72 70 64 3d 0c 47 95 3c 00 64 0f bd
       0.038825985 0.0557713 0.018222354 -0.035007477
000070 6d 8b 4b bb 3f 67 f5 bc 33 2a 24 3d a9 a0 37 bc
       -0.0031058446 -0.029956458 0.040079307 -0.011207738
000080 69 53 87 3b 64 43 97 bc 90 cb 18 bc 80 8a d0 3b
       0.0041298163 -0.018464752 -0.009325877 0.0063641667
000090 4c ea 93 3c 41 ec b2 3c f9 72 2d 3d a8 e8 12 3d
       0.018056057 0.02184117 0.042345975 0.03586641
0000a0 19 09 61 bb 7d 0d f6 bb 3c 25 2c bc e7 24 9f bc
       -0.0034337698 -0.007508932 -0.010506924 -0.019426776
0000b0 a1 bb dc bc 9e 7c ae 3b cc af 6b 3c 0c 28 18 3d
       -0.026944937 0.005324914 0.014385175 0.037147567
0000c0 d8 e9 5e bc 3a 0a 12 3c e4 5d b7 3c 91 35 5f bc
       -0.013605557 0.008913571 0.022383638 -0.013623611
0000d0 26 49 dc bc ae 63 2f bd 4e 7c 8d 3c e8 0e a8 3c
       -0.026890349 -0.04281967 0.017271187 0.02051492
0000e0 fe b4 90 3b 78 bc ec 3c 82 71 00 bc 70 d6 1d bd
       0.004416107 0.028898463 -0.007839562 -0.03853458
0000f0 4a 1b a4 3c 61 cb d8 3b f2 3a 97 bc 2a 4a e4 3c
       0.020032544 0.0066160415 -0.018460725 0.027867395
000100 09 73 08 3d 3e a8 49 bc 31 3f 0e bc 80 ea 9b bb
       0.03331283 -0.0123081785 -0.008682058 -0.004758179
000110 4f 5c e0 bc c1 70 9f 3c b1 f5 c8 bc f9 bd f0 3b
       -0.027387766 0.019462945 -0.024531217 0.0073468653
000120 a6 03 a2 3c e8 56 ff bc ee 07 a5 bb 92 1c 9e bb
       0.01977713 -0.03116937 -0.0050363457 -0.004825183
000130 5d a9 78 3c 81 c9 fe ba 17 57 e1 3b d9 db ce 3c
       0.015177098 -0.0019438715 0.006876837 0.025251316
000140 37 0d 93 3c 02 70 c6 bb e7 9e 37 3c 88 4b 96 bc
       0.017950637 -0.006055833 0.011207319 -0.018346563
000150 d7 f3 f0 bc fc 7f 5c 3c 13 22 f7 ba f0 51 11 bd
       -0.029413147 0.013458248 -0.0018854759 -0.035478532
000160 fc e0 e7 bb 53 7b 6e bc 76 cc 0a 3d c9 dd e0 3c
       -0.007076381 -0.01455577 0.033886395 0.027449505
000170 13 1c 05 3d 4b 88 5d 3b 0a 9d 5d bc 90 e2 1b bd
       0.032497477 0.003380316 -0.013526211 -0.038057864
000180 2f b4 0d bd dd 61 40 3c e5 81 f5 bc b6 41 27 bc
       -0.034595665 0.011742082 -0.029969165 -0.010208538
000190 a3 c3 8f bc 9a 74 45 bc 93 2f c9 bc aa 37 05 bd
       -0.017549342 -0.012051726 -0.024558818 -0.03252379
0001a0 58 92 0d bd 22 f6 b6 3c 7a d8 80 bc e2 a8 29 ba
       -0.034563392 0.022334162 -0.015728224 -0.0006472004
0001b0 53 f5 13 39 22 86 22 bc 99 f9 a2 bb 74 a8 77 3c
       0.00014110403 -0.009919675 -0.004973602 0.015115846
0001c0 27 60 f6 bb 75 96 27 3c 3f 01 87 bc fe d6 d4 bc
       -0.0075187865 0.010228743 -0.016480086 -0.025981423
0001d0 32 be e1 bb d2 48 78 3b c7 e8 30 3d 76 ca 04 3c
       -0.006889128 0.00378852 0.043190744 0.008104911
0001e0 db e5 5f 3c 77 50 41 bc f9 f1 75 bc 1c 46 31 3c
       0.013665642 -0.0117989695 -0.015011304 0.010819938
0001f0 1b 66 e1 3c a0 6f ec 38 85 2e 5e 3c 07 b9 23 bd
       0.027514508 0.00011274149 0.013560896 -0.039971378
000200 4c 1e 1c bd 0b 51 04 3c d3 78 af 3a dd f2 02 bc
       -0.03811483 0.008075963 0.0013387449 -0.007992473
000210 46 29 cc bc 97 78 8c 3c 82 b9 28 bd 70 1e 07 bd
       -0.024922024 0.017147345 -0.04119254 -0.03298801
000220 13 dd cb 3b 6f 75 1b bc 50 f8 cd 3c a2 55 88 3c
       0.0062214225 -0.009488448 0.025142819 0.016642395
000230 01 75 0c bd 52 27 02 bd 05 bc 9a 3c 32 00 ce bb
       -0.03429127 -0.03177578 0.018888483 -0.0062866444
000240 58 cd 99 bc 93 ad 03 bd c4 4d 1e 3d 43 c5 71 3c
       -0.018774673 -0.032147955 0.03864838 0.0147565035
000250 ec 3d 29 3d ab dd fa 3c ce cf fb 3c 93 70 b6 3b
       0.04131882 0.030623278 0.030738737 0.005567619
000260 7f bb d2 3c 45 89 3e 3c ad be 45 3c 83 05 5d 3b
       0.02572417 0.011629407 0.012069386 0.003372521
000270 cb 49 10 bd 9b 0d 0b 3d ba 36 16 3d c7 73 db bc
       -0.035226624 0.033948522 0.036673285 -0.026788605
000280 20 a6 83 bc 48 5c d9 3c b2 be 13 3d 8f 67 81 3b
       -0.016070426 0.026533261 0.036070533 0.0039491127
000290 97 f7 c9 bc de aa 13 bd 31 77 9e bc c0 8c 8a bc
       -0.024654193 -0.036051624 -0.019343944 -0.016912818
0002a0 88 ad 7e bc bc 00 2f 3d e0 f3 1f bc 3a 1a 83 ba
       -0.015544303 0.04272531 -0.009762734 -0.0010002323
0002b0 69 dd 3b 3c fd 39 26 ba fb 20 6a bb b0 f4 d0 bc
       0.0114663625 -0.00063410384 -0.0035725224 -0.025507301
0002c0 85 a4 61 3c 7f a9 29 bc 8f f9 49 bc be a8 ce bc
       0.013772135 -0.010355352 -0.012327566 -0.025226947
0002d0 a8 f1 ed bc 4f 1a 97 bc 02 a6 43 bc a0 c9 10 bc
       -0.029045895 -0.018445162 -0.011941435 -0.008837134
0002e0 52 77 04 bc 01 85 31 3c 71 0a 1e bc 2c f5 03 bd
       -0.008085089 0.010834933 -0.009646044 -0.032216236
0002f0 ad d3 04 3d 18 46 5f bc c9 83 0c 3c 85 a7 05 3d
       0.032428432 -0.0136275515 0.008576342 0.032630462
000300 fa f8 e9 bb a2 55 bf bc 07 38 c0 3c 23 0e ab bc
       -0.007140276 -0.023356263 0.023464216 -0.020880764
000310 55 9d cd bc c3 90 f5 b9 20 00 99 bc 53 92 a1 3c
       -0.025099436 -0.00046837897 -0.018676817 0.019723093
000320 68 0e cc 3c d0 ee 2a 3a 75 59 66 3c d9 2f bb 3b
       0.024909213 0.0006520571 0.014059414 0.005712491
000330 1d fc d1 bc 6d b4 34 3b 38 a5 8e 3b d4 15 3d bc
       -0.025632912 0.0027573362 0.0043531917 -0.011540849
000340 83 ca 6b 3c 22 d0 9d bc 1d 8a cf 3c ff 14 1c bc
       0.014391544 -0.019264285 0.025334412 -0.00952649
000350 01 64 17 bc c5 48 f8 bc d9 10 99 3c 8c ee c3 bc
       -0.009240151 -0.030308137 0.018684791 -0.023917459
000360 5a 5c 88 3c 83 b0 c4 3c df 6a b4 bc 68 81 d2 bc
       0.0166456 0.024009949 -0.022023616 -0.025696471
000370 5d fc 89 bc 3c 5a f8 bc c9 ba de 3c ab cb d5 3c
       -0.016843969 -0.030316465 0.027188675 0.026098093
000380 fc bc 38 3c fc 1c 35 3c 8c e3 8d bc 56 f8 16 bb
       0.011275526 0.011054274 -0.017320417 -0.0023036203
000390 43 b0 92 bc d4 39 b3 bc 93 b6 97 bc 8a b8 a0 3b
       -0.017906314 -0.02187816 -0.018519675 0.0049048113
0003a0 70 10 0f 3b 4d 64 46 bc 2d d3 8f bc 66 47 48 3a
       0.0021829866 -0.0121088745 -0.017556751 0.0007640034
0003b0 a9 a5 f4 bc 06 f4 13 3c 23 27 f7 3b ea 0f 5f bc
       -0.02986415 0.009030348 0.0075425073 -0.013614634
0003c0 f1 2b 21 3b 73 27 d5 bc 43 3d 0d bd 70 f2 bf bc
       0.0024592842 -0.026019787 -0.03448225 -0.023431033
0003d0 e8 4a 53 ba dc 80 ce bc b3 19 52 bc 50 80 02 3c
       -0.0008060173 -0.02520793 -0.01282351 0.007965162
0003e0 3d a3 1b 3c 8c 10 ab 3c 17 59 2a bc 61 5b 09 bd
       0.009499368 0.020881914 -0.010397217 -0.03353441
0003f0 5f 0a be bc aa f8 d8 bc 8b aa a2 3c 5e bf a0 bb
       -0.023198305 -0.02648576 0.019856712 -0.0049056252

bias f4 [64]
000000 b0 53 9b bc 89 b4 82 3c 3e 5f f9 bc 84 b7 2b bc
       -0.018960804 0.015955226 -0.030440923 -0.010480765
000010 bd 1d 50 3b ad 9b c3 3c 19 7a cc bc 87 35 31 bd
       0.0031756007 0.023877943 -0.024960564 -0.04326394
000020 9a 0d ab 3c ea ae b5 bc a1 ef fa bc b5 72 d0 bc
       0.02088051 -0.022178132 -0.030631842 -0.025445322
000030 04 3e 6d 3c c9 ec 5f 3c ec a4 d0 3b 05 3a 10 bb
       0.014480118 0.013667294 0.0063673165 -0.0022007239
000040 72 4a 10 ba dc c0 ee bc 3a 58 39 bd ee 7d f0 bc
       -0.0005504257 -0.029144697 -0.045250155 -0.029356923
000050 e7 95 d9 bb 2e 94 21 bd 8c c6 93 3c 44 6f f8 bc
       -0.006640184 -0.039447956 0.01803901 -0.030326493
000060 a3 13 24 bc bd fa 4a bd 8f 1f 70 3c c9 48 91 bb
       -0.010014447 -0.04955553 0.014655962 -0.0044337255
000070 14 dc e4 bb 87 f8 b5 bc 10 f5 6f bc ae 69 83 bb
       -0.006984243 -0.022213234 -0.01464583 -0.0040104007
000080 ae 00 28 3b 69 1b 96 bb 14 c9 8e 3c d5 45 03 bb
       0.002563517 -0.0045809043 0.017429866 -0.0020030637
000090 6f 83 0a bc 4f 51 f0 ba c0 9f 06 3d fb fd 1f 3d
       -0.008454188 -0.0018334779 0.032867193 0.039060574
0000a0 48 cc 25 bd 98 06 f5 bc 54 de 68 bc 22 eb db bc
       -0.04047802 -0.02991037 -0.014213163 -0.026845518
0000b0 8d aa 06 3d 01 1a 3a 3d b2 31 b0 3c ac af 78 bc
       0.032877494 0.045434956 0.021508072 -0.015178602
0000c0 d5 12 fa bb 91 a4 a3 3c 17 61 c3 3c f5 c7 3e bd
       -0.0076316395 0.019975932 0.023850007 -0.046577413
0000d0 16 a5 1a bd 2d d3 c0 bc 96 98 a6 3b 3b 78 19 bd
       -0.037755094 -0.023538196 0.0050841076 -0.037468176
0000e0 07 81 01 bd a6 9f 2b 3d 2d 25 3e 3c b5 1d f4 bc
       -0.03161719 0.0419003 0.011605543 -0.029799322
0000f0 20 77 29 bc bb 93 2e bd d7 20 10 3d 83 d5 53 3c
       -0.010343343 -0.042621356 0.03518757 0.012929323

weight f4 [64, 1024]
000000 1a 66 ef bb f2 22 e8 bc 1a e1 51 3c 73 0d b9 3c
       -0.0073058726 -0.028336976 0.012810016 0.02258942
000010 bc d7 c7 3c 82 71 9f ba f9 b7 a7 3b 09 72 68 bc
       0.024394862 -0.0012164565 0.005118367 -0.014187344
000020 3a 90 fc 3c 94 84 83 3c 27 78 e1 3c 94 c1 cb 3c
       0.030830491 0.01605443 0.027523113 0.024872579
000030 d0 f5 da bc bd a8 ce bc 11 dd e2 bb 8c 57 f0 3b
       -0.02672854 -0.025226945 -0.006923326 0.007334655
000040 ee b9 0f bd a9 cc b1 bb 12 31 3f bc 6d 66 d4 3c
       -0.035089426 -0.0054260087 -0.011669414 0.025927747
000050 3f 49 41 3b 60 a1 0a bc c9 c0 8c 3b d8 ea 5c 3c
       0.002949312 -0.008461326 0.0042954427 0.0134837255
000060 47 0c e8 3c 07 b2 cf 3c e3 10 c8 bc 21 e5 f8 bc
       0.028326167 0.025353445 -0.024422115 -0.030382695
000070 6f 11 5b bc c8 1f 44 bc dc be f0 3c 6d 80 f8 3c
       -0.013370856 -0.011970468 0.029387884 0.030334676
000080 9c 74 3e 3c 81 93 2f bd 23 1b 03 ba a7 fa 90 3b
       0.0116244815 -0.04286528 -0.0005001297 0.0044244113
000090 13 74 43 bc 83 0e 94 ba bf d2 cc bc d2 ce 9c bc
       -0.01192953 -0.0011295829 -0.025002835 -0.019141588
0000a0 1e 9a a2 3c 7f a9 ef 3c 20 45 12 3d 1e 1d 29 3d
       0.01984888 0.029255627 0.035710454 0.041287534
0000b0 27 ee 7f bc bf f2 a2 3b 4b cf f2 bb 13 64 1b 3d
       -0.015620745 0.0049727852 -0.007409965 0.037937235
0000c0 3d eb 11 bd 39 a9 13 3c 45 29 8f 3c ff 07 26 bd
       -0.03562473 0.009012514 0.017475734 -0.04053497
0000d0 9c a0 d2 3c 44 b8 f0 3c 55 41 4e 3c 49 89 c0 3c
       0.02571135 0.02938474 0.012588819 0.023502963
0000e0 ab 41 fe bc e2 8b 1f 3d cf 40 25 3c 80 00 de 3b
       -0.031037172 0.038951762 0.010086252 0.006774962
0000f0 49 e1 81 3c e7 04 4b 3b 2a f0 78 bc d3 1f 20 3c
       0.015854495 0.0030978264 -0.015193978 0.0097732125
000100 1d 86 b2 bb 2c 26 8b bc e9 a8 91 3c 23 38 47 3c
       -0.0054481165 -0.016985975 0.017780738 0.01215938
000110 67 12 1d 3d 60 f2 2e ba 96 87 7c 3c b4 06 be bc
       0.038347628 -0.000667369 0.015413186 -0.023196556
000120 9a 9a b6 bc fb 6c dd bb de 17 6b 3c 31 9a e8 b9
       -0.022290517 -0.0067573762 0.014348952 -0.0004436537
000130 e0 35 0e 3d cd 12 ec bb 13 77 17 3c 62 99 b8 3c
       0.034719348 -0.0072043897 0.009244698 0.022534076
000140 0d a4 cf ba 25 bb 10 3d 4f 17 d5 3b d4 ac a8 bc
       -0.0015841738 0.035334725 0.0065030227 -0.020590223
000150 53 f6 9d bc a4 8a 8c 3c 94 6c bd bc da e8 84 3c
       -0.019282496 0.017155953 -0.023123063 0.016224314
000160 9f ad 87 bc e4 4f 40 3c ee b7 4f 3a a3 ee b9 bc
       -0.016562281 0.011737797 0.0007923831 -0.022696799
000170 27 77 2c bc 77 ed e4 bb eb cd 2d 3c f4 d9 f5 bc
       -0.010526455 -0.006986316 0.010608177 -0.030011155
000180 2a 8e 00 3d 6c 0b c2 bb d9 a3 7f bb b3 fe 03 bc
       0.03138558 -0.0059217717 -0.0039007573 -0.0080563305
000190 78 48 0e 3c 83 44 36 bb 35 9b 07 bc b0 e2 83 3c
       0.00868427 -0.0027811832 -0.00827675 0.016099304
0001a0 6f d2 a3 bc 1f 6f 8c bc 15 d8 2d 3d e8 21 1e bc
       -0.019997803 -0.01714283 0.0424424 -0.009651639
0001b0 6c 2d dc 3c dc 4a 1e 39 39 9c 71 3c eb ae 5c 3c
       0.026877128 0.00015095941 0.014746719 0.013469438
0001c0 94 68 54 3c f9 05 8f 3b 75 a9 6b bc 95 1f c2 3c
       0.0129643865 0.0043647257 -0.014383663 0.0236967
0001d0 41 22 0b 3d a8 29 4e bc e1 75 7e bc 45 68 d2 3c
       0.033968214 -0.012583174 -0.015531034 0.025684485
0001e0 bc 78 0f 3d 60 1b ef bb af 98 0d bb c0 97 51 bc
       0.03502725 -0.0072969645 -0.00216059 -0.012792528
0001f0 10 8e ce bc 47 77 90 bc 7d 32 87 bb b5 da b8 3b
       -0.025214225 -0.017635 -0.0041258917 0.0056413063
000200 6d 7f 57 3c e3 25 54 3c 71 27 9f bc 29 79 7a 3c
       0.013152939 0.012948486 -0.019427987 0.015287676
000210 a4 2a c3 bc d3 5e 79 bb ec cd 8c bc 15 dd f5 3c
       -0.023824044 -0.0038050904 -0.017188035 0.030012647
000220 2c ea 2a 3c f0 47 64 bb a8 7d 9c bc b1 d3 a9 3c
       0.0104318075 -0.0034832917 -0.019102886 0.020730825
000230 45 93 a1 bc 8e 00 91 bc 86 23 9e bc 67 b5 79 bb
       -0.019723544 -0.01770046 -0.019304048 -0.003810251
000240 1d 68 8c bc 5c 02 2e 3b 9c 1c 06 bd ff 1c 8d 3c
       -0.017139489 0.00265517 -0.032742128 0.01722574
000250 90 a7 1f bb 7a c1 f0 bb 2c 12 1c bc 71 0f a6 bb
       -0.002436135 -0.007347283 -0.009525817 -0.0050677587
000260 20 a8 01 3c 2b 96 b2 3c 33 13 2f 3b 19 62 a0 3c
       0.007913619 0.021800121 0.0026714324 0.019578027
000270 d0 64 d0 bc d7 8f b4 bc 24 d4 f3 3c 25 6c 1d bc
       -0.025438696 -0.022041244 0.029764242 -0.009608303
000280 1c 5e c7 3c 51 c0 66 3c 30 12 ae 3b b7 b3 b2 bb
       0.024336867 0.014083938 0.0053122267 -0.0054535526
000290 53 0d 62 bc cd ae e6 bb fc 0c b0 3a f9 12 c5 bc
       -0.013797122 -0.007039881 0.0013431604 -0.024056898
0002a0 98 ee f9 3b 4d d1 f9 3c 6d 4f 63 3b 39 d4 0c ba
       0.0076273195 0.03049531 0.0034684793 -0.00053722
0002b0 f3 f4 42 bc f1 d2 55 3a eb 3b f3 3c 8f 83 aa 3a
       -0.011899221 0.0008156738 0.029691657 0.0013009178
0002c0 3a ac 78 3c 56 3b 5d 3b 43 a2 9b 3c 47 be 6c 3c
       0.015177781 0.003375729 0.01899827 0.0144496625
0002d0 1a dd 14 bb e8 3e d6 3c 69 4d a2 3c 8b 6c 47 bc
       -0.0022714795 0.026153043 0.019812303 -0.012171875
0002e0 11 70 40 3a 9f f7 ec bc d0 d9 ad bc 47 c5 f7 3c
       0.0007340918 -0.028926669 -0.021222025 0.030245436
0002f0 21 69 c5 3c 82 cc 0d bc 61 31 d8 3b 9c 13 91 bc
       0.024097981 -0.0086547155 0.0065976833 -0.017709546
000300 43 48 95 3c c9 52 7b bc 2a 2a 0e 3d 9e 07 b5 3c
       0.018222934 -0.015339562 0.03470818 0.022098359
000310 42 05 fe 3c 5c ec b0 bb 25 21 dc bc 2f 17 27 bc
       0.031008366 -0.00539927 -0.026871273 -0.0101983985
000320 47 eb d8 bc 31 21 19 3d 87 05 81 3c af c2 3e bc
       -0.026479376 0.03738517 0.015749706 -0.011643096
000330 63 d4 29 bc 20 d5 28 3c 58 03 2d 3c ab 64 01 3d
       -0.010365578 0.010304719 0.010559879 0.031590145
000340 37 10 b9 bc d1 12 ca bc 5b bf 0b 3d 45 d9 89 bc
       -0.02259074 -0.024667175 0.034118038 -0.016827235
000350 18 af e7 3c bd 32 d8 3c 18 d2 d7 3c 85 ab 1e bc
       0.028281733 0.026391381 0.026345298 -0.009684448
000360 c8 61 25 bc 01 3d b2 3b 75 3f de 3c b1 bb 4a bc
       -0.010094114 0.005439401 0.027129868 -0.012373851
000370 fa 2e 6d bc e5 bd a0 bc 31 aa fc 3c a0 6d 60 bc
       -0.014476532 -0.019621799 0.030842872 -0.013698012
000380 7c 1e e8 3b b0 26 d7 bc f9 16 ba bc ba fe b7 bc
       0.007083712 -0.026263565 -0.022716032 -0.02246033
000390 ca 7d 2f 3b 39 2f 4a 3c 1b f8 67 bc c7 8d d0 bc
       0.0026777857 0.01234036 -0.014158274 -0.02545823
0003a0 73 3f 07 bb 3a 21 da bc 7a ef 9b 3c 95 d0 c4 bc
       -0.0020637184 -0.026627172 0.01903509 -0.02402524
0003b0 07 d4 38 bb b7 f2 b8 bc 66 e5 1b bc fd 27 10 bc
       -0.002820255 -0.022576673 -0.009515142 -0.008798596
0003c0 f1 4f e7 3c e1 89 9d bc fd df 44 3c b8 87 11 3c
       0.028236361 -0.019230785 0.012016294 0.0088824555
0003d0 f4 06 f1 bc df 54 87 3c 9a b8 ab 3c b5 49 d1 bc
       -0.02942226 0.016519962 0.020962048 -0.025547842
0003e0 1f 7c 6c bc 74 d2 95 ba 8a 36 09 3b ec 1a e7 3c
       -0.01443389 -0.0011430518 0.0020937049 0.02821108
0003f0 48 ed 11 3c 00 33 08 3b c6 7e b5 3a 99 30 b1 3a
       0.00890667 0.0020782351 0.0013846986 0.0013518512

bias f4 [64]
000000 f2 53 98 bc 25 ad 3b bc d6 59 d9 bb 0f 64 30 bc
       -0.018594716 -0.011454855 -0.0066330237 -0.010766043
000010 be 90 d2 3b 7f ba 42 bc 4d 30 58 3b a4 30 67 3c
       0.006425946 -0.011885284 0.0032987774 0.014110718
000020 b0 71 81 3c c0 78 1b bc ec f9 81 bb d1 3f 39 bc
       0.01580128 -0.009489238 -0.0039665606 -0.011306719
000030 05 85 35 3c 91 8f b7 bb 47 8b d7 bc 4b f7 fc 3a
       0.011079078 -0.0056018312 -0.02631153 0.0019299773
000040 f8 8b 0b 3a a0 c5 6f 3c 64 7c 1b ba 3e c8 a9 3b
       0.0005323286 0.01463452 -0.00059313164 0.0051813414
000050 33 e3 94 ba e0 85 cf bc 62 c8 1f bc 91 26 a8 bb
       -0.0011359215 -0.025332391 -0.009752365 -0.0051315506
000060 b5 76 0a bd 0e 16 ab bb 51 79 c6 3c 65 f7 b1 3c
       -0.033804614 -0.005221135 0.02422777 0.021724412
000070 62 50 10 bd ab 7b f8 bc e3 1f f3 bc 6b 5a 29 bd
       -0.03523291 -0.030332407 -0.02967829 -0.041345995
000080 44 f4 45 3d e5 59 9b 3c 55 a4 d1 3c e7 18 4c bc
       0.048328653 0.018963763 0.025591055 -0.012457109
000090 dc be 83 3c 96 50 0b bd e9 6e 00 3c d2 fb 7b 3b
       0.01608222 -0.0340124 0.007838943 0.0038449657
0000a0 e8 ba b4 3b 5a bd c6 b9 85 f0 fb bb 0e 99 3c bd
       0.005515445 -0.0003790658 -0.0076885843 -0.0460444
0000b0 93 48 fe ba ee 6b 0a 3d 98 db a5 bc 01 5b 5e 3d
       -0.0019400291 0.033794336 -0.020246312 0.054286007
0000c0 23 bd 44 3c 2c d1 e7 bb 76 4d cd bc 33 bd 0d bc
       0.012007984 -0.007074496 -0.02506135 -0.008651066
0000d0 22 f2 ce bc dd df a3 bb 9b fc 46 bd 57 e0 61 bc
       -0.025261942 -0.005001052 -0.048580747 -0.013786397
0000e0 dd 8a 83 3c c7 bf 3a bb 9e 64 9c bc 8c 34 1a bd
       0.016057426 -0.0028495656 -0.019090947 -0.03764777
0000f0 b1 e3 a8 3c 92 68 08 3d b0 c5 ff bb 97 a0 d5 3c
       0.020616384 0.03330285 -0.0078055486 0.026077552

weight f4 [10, 64]
000000 5f 4b c4 bd 44 c3 30 3e 8e dc 22 bd 98 d4 24 3b
       -0.095846884 0.17261988 -0.03976112 0.002515113
000010 2e 24 e1 bd 10 0f 17 3e 44 02 d3 bd 37 e5 09 bd
       -0.10993229 0.1475184 -0.103031665 -0.033665862
000020 6e a6 47 bd 53 e5 65 3e 54 09 19 bd af 98 46 3e
       -0.048742704 0.22450761 -0.03736241 0.19394182
000030 7f a1 0a bd c7 d6 e4 bd f0 b6 17 3e 14 01 c4 bc
       -0.03384542 -0.11173778 0.14815879 -0.023926295
000040 a2 2a d4 3d e0 8d d0 3d 32 e9 95 3d 7a 3f b4 bd
       0.10359694 0.101833105 0.07319869 -0.0880117
000050 0d 25 f2 3d b3 60 92 3d ae 94 91 bd b4 58 f4 3d
       0.11823473 0.0714735 -0.071084365 0.11930981
000060 20 d8 02 3e 26 d4 3d 3b c3 fd 62 bd e2 e5 aa 3d
       0.12777758 0.0028965562 -0.055417787 0.08344628
000070 25 9d eb b9 6f 78 d9 3d 0b 57 f3 3d a4 0b be 3d
       -0.00044939775 0.10618674 0.118818365 0.09279564
000080 49 4a 51 be cd 4e bc 3c a3 76 e8 bd d2 c5 13 bd
       -0.20438494 0.022986794 -0.11350753 -0.036077328
000090 1c bc 25 3d 9e b3 e8 3d 58 0e a8 3d dd 3d 07 3e
       0.0404626 0.11362384 0.08205861 0.13207193
0000a0 4e 74 89 bd c8 1e f3 bd e9 6c 90 bd 61 78 bc 3d
       -0.067116365 -0.118711054 -0.07052023 0.09202648
0000b0 90 a6 de bc 90 27 b1 bd 44 ee bc bd 2e aa 3a bd
       -0.027179033 -0.08650124 -0.09225133 -0.045572452
0000c0 30 72 8e bd a4 6c 13 3e 06 6b 51 bd e6 86 ef 3d
       -0.06955373 0.14396912 -0.051127456 0.11695652
0000d0 fd 95 a9 3d 29 60 ca 3d 7c 5a a0 3c 1a a8 1d 3d
       0.08280561 0.09881622 0.019574396 0.038490392
0000e0 e4 e4 0f 3e 08 f8 97 3c d2 9c 05 3d ed 81 f1 3d
       0.14052159 0.018550888 0.03262026 0.117923595
0000f0 11 be f2 bc 32 d6 14 bb c3 b3 b3 bb 6a 77 45 bb
       -0.029631646 -0.0022710678 -0.0054840758 -0.003013099
000100 1c 89 c5 3d f7 c4 51 3e 73 c6 d5 bc 5a 86 18 3e
       0.09645292 0.20485292 -0.026095605 0.14895001
000110 20 85 dd 3c 21 6e 20 be 48 2b 7e 3c 46 a8 b0 3d
       0.027041018 -0.15667011 0.015513249 0.086258456
000120 da 09 26 3e 52 9d dd 3d 9d 13 40 bd 2c 4e 9b bd
       0.16214696 0.10821022 -0.046893705 -0.075832695
000130 5b 90 00 3e 1e 95 ff 3d 34 0e a1 bd ba c7 b0 3c
       0.12555067 0.12479614 -0.07864037 0.021579612
000140 8c e7 2a be fc e5 51 be 80 3a 59 3e ea 5b e6 3d
       -0.1668989 -0.20497888 0.21213722 0.11248
000150 08 01 ef bd e5 f1 15 3e 7c 22 d0 3d e1 38 4e 3e
       -0.116701186 0.14643057 0.101628274 0.20138885
000160 33 f4 db bd 9b ee 12 be 58 26 b8 3d c6 b9 9a 3d
       -0.10739937 -0.14348833 0.089916885 0.07554965
000170 b9 14 d4 bd 41 ca 58 be da c3 35 3e 47 0a 5e bd
       -0.10355515 -0.21170904 0.17750493 -0.05420902
000180 52 56 2e 3e 25 6f 39 3d f9 70 b3 bd 68 8e 15 3d
       0.17025116 0.04527201 -0.08761782 0.036512762
000190 c8 bb 55 3e d5 df 1d be d0 07 37 3c 0a ad 8f 3d
       0.20872414 -0.15417416 0.011171296 0.070154265
0001a0 b9 f8 bc bd c1 fa 81 be 9a 7c 3b 3e b6 37 15 3e
       -0.092271276 -0.25386623 0.1830925 0.14572033
0001b0 b2 0f 35 bd e6 bd 13 3e 72 b3 cf 39 b6 ad d1 bd
       -0.04420442 0.1442791 0.00039615814 -0.10238211
0001c0 03 1b c4 3d b6 b5 f4 3d 6d 78 90 bd 9e ad c9 bb
       0.095754646 0.11948721 -0.070542194 -0.00615473
0001d0 2e 49 bb 3d 33 03 b0 3d d2 c9 33 be ff d4 1c 3e
       0.09144817 0.0859436 -0.17557457 0.15315627
0001e0 b8 e9 3e bc ef f7 41 3d ba d0 ab 3d 8f 88 66 3b
       -0.011652403 0.04735559 0.08389421 0.003517661
0001f0 0e 22 50 3e fa 5b 51 3d 37 af 8e 3d 55 5c 16 3e
       0.20325491 0.051113106 0.06967013 0.1468366
000200 4f f8 f3 3d 4a a2 80 bd fd fe 69 bd 7a 14 03 3e
       0.119125955 -0.06280954 -0.05712794 0.1280078
000210 53 9b 35 3d 3b 1e 00 3e 78 36 11 be 9f b9 3e be
       0.04433758 0.12511532 -0.14180934 -0.18625496
000220 d1 4a 00 3e 0f ed 0d 3e 87 77 eb ba 8e c3 f8 bb
       0.1252854 0.13859962 -0.0017964699 -0.0075916713
000230 6b bb b3 bd e4 c1 cc 3d aa f3 37 be a5 fd ae bb
       -0.087759815 0.09997919 -0.17964044 -0.0053402954
000240 49 b4 8b bd 40 e7 2c 3e f8 af 02 be bc 34 98 3c
       -0.06821496 0.1688509 -0.12762439 0.018579833
000250 66 a8 69 3d 7c d4 b8 3c 14 b7 76 bd 95 77 c9 bd
       0.057045363 0.022562258 -0.06023319 -0.098372616
000260 8b 66 af bd 7b a4 24 3e fb a3 1e bc 29 6d 0d be
       -0.085644804 0.1607837 -0.009682651 -0.13811173
000270 60 90 82 3d 61 81 ca 3c a9 5c 1a be 64 2c ae bd
       0.063751936 0.024719896 -0.1507441 -0.085045606
000280 cf 4f 1c be d7 b0 85 3d d5 3a 30 bd e8 ca 2c bd
       -0.1526482 0.0652787 -0.043024857 -0.042185694
000290 f2 47 b9 bd d8 bf a3 3d c5 be e3 bc fe b0 9e 3d
       -0.090469256 0.07995576 -0.027800927 0.07748602
0002a0 a0 94 4c 3d 7a 86 02 3e 42 55 4b bd 67 97 4b be
       0.049946427 0.12746611 -0.049641855 -0.19881974
0002b0 a5 73 ec bc ed e9 2e bd c0 5b d8 bd 97 11 5b 3d
       -0.028863737 -0.042703558 -0.10564375 0.05348357
0002c0 f7 96 d5 bc 1f 54 d8 3d ea 3a 02 3e ae e0 2f 3e
       -0.026072962 0.1056292 0.12717786 0.17175552
0002d0 a7 d2 31 bd ea 5c 1a 3e 53 0b d0 bd b3 f4 bc bd
       -0.043413784 0.15074506 -0.1015841 -0.0922636
0002e0 20 95 09 be af 06 23 bd 81 06 35 bd 3f 2b be bd
       -0.13435793 -0.039801296 -0.044195656 -0.09285592
0002f0 95 a3 0b 3d bd 8a 82 3c 6c 30 bc bd 14 0d 3b 3d
       0.03409155 0.015935296 -0.09188923 0.04566677
000300 56 01 bf 3d 30 26 dd bd 45 52 2c 3d 3e dc a5 3c
       0.09326427 -0.10798299 0.042070646 0.020246621
000310 43 33 a4 bd 88 75 3c be 24 ca f9 bd 74 48 c0 bd
       -0.0801759 -0.1840421 -0.121967584 -0.09388819
000320 e3 46 21 3e 81 e3 1c be 70 20 7f bd ff 82 d7 bc
       0.15749697 -0.15321161 -0.062286794 -0.026307581
000330 58 5a d2 bd da 03 b3 bc 48 38 3a be d7 6e bf bd
       -0.10271138 -0.021852423 -0.18185532 -0.09347313
000340 8c 1a 0d 3e 60 8e 17 be ad fe fe bd 38 3d ef bd
       0.13779658 -0.14800406 -0.12450919 -0.116815984
000350 44 0a a2 bd e8 eb d1 bd f6 0b af bd ea 05 fc bd
       -0.07912114 -0.10250074 -0.08547203 -0.123058155
000360 ec 0b a7 3d 33 96 06 3e 6e 72 53 bd 51 75 d7 bc
       0.08156571 0.13143234 -0.0516228 -0.026301058
000370 f1 43 c8 ba 4d 54 2a 3d b7 d2 13 be f6 42 d4 bd
       -0.0015279037 0.0415843 -0.1443585 -0.10364334
000380 e7 3a ba 3d 52 d4 09 3e 4a 3f dc bd c9 e7 1f bd
       0.09093266 0.134599 -0.10754259 -0.039039407
000390 de 1c b9 3d fa b5 69 bd 56 21 30 bd 87 57 cd 3d
       0.09038709 -0.057058312 -0.04300054 0.1002646
0003a0 ea 4c f0 bd 9f 9f f3 bb 00 c1 72 3d e4 28 6c bd
       -0.1173342 -0.0074348 0.05926609 -0.057656184
0003b0 04 4f 27 3d c2 c9 16 3d 7d 38 3c bd 68 e6 c2 3d
       0.04084684 0.036813505 -0.04595231 0.09516603
0003c0 38 22 c0 bd a8 3d fb bd 9c 9b f2 bd 90 d1 bf 3c
       -0.09381527 -0.12267619 -0.118460864 0.023415357
0003d0 cb f1 98 bd c5 c3 89 3d a3 1b 60 3c 2e 7f 2e be
       -0.07467993 0.06726793 0.013678464 -0.17040703
0003e0 ba e9 88 bd cc cf c7 bd 25 b5 56 3d af f9 e5 3d
       -0.06685205 -0.09756431 0.052418847 0.11229264
0003f0 a5 70 28 be 66 4c ac 3c 67 63 bd bd cc ca 75 bd
       -0.1644922 0.021032523 -0.09247475 -0.060007855

bias f4 [10]
000000 6b 4c 45 be 2c 3b d0 bc de 41 b5 3c 7a a1 38 3b
       -0.19267432 -0.02541884 0.022126134 0.002817242
000010 1b 73 ce 3d 1b a3 17 bc ca 3e 67 bc 6a 94 d9 bc
       0.100805484 -0.009255196 -0.014114091 -0.026560027
000020 4b 31 d2 bc a6 84 24 3d
       -0.02565827 0.040165566
