models/gpu_train_model7.pth (torch, 587335 bytes, 10 tensors)

weight f4 [32, 3, 5, 5]
00000000: 63a7 503d e1f8 2d3e 3b78 2a3d efe1 0abd
00000010: 02c6 c5bd bbf7 7ebc f5a8 c03d ec37 0c3e
00000020: f6a6 92bd fb93 fcbc beb8 ce3c eedb fd3d
00000030: cfa9 8a3b 2447 5ebd cff8 84bc 897e 963d
00000040: 3c6b 0dbd 1cdd 82bd 6135 13bd 2193 143e
00000050: b87a acbd 4f9a 8abd ffeb cd3d 39e4 503d
00000060: 1f50 093e 3e7a b23d f95f e43d d130 92bd
00000070: f756 d03c f7ac 9dbd 0f9c db3d 1634 d1bc
00000080: 50aa 9d3c 475e e1bd aaa1 3b3c 1f5b b43c
00000090: 24ef 163d 53a5 e73c 8cb4 68bd 7346 9abd
000000a0: b336 99bd 35ac c9bd 69c5 a93c ce39 9f3c
000000b0: 17cc 0d3e d272 52bd 3c6f 613c 00d6 5a3d
000000c0: 30e9 fd3b ebed aa3d 9b0e 563d 78d0 bc3d
000000d0: be98 0ebe 090e 33be e31f acbd 7453 adbd
000000e0: 8b72 203b a6d7 29bd a8b8 34be fc91 0dbe
000000f0: a64b a8bd e42b a7bb 1a0a 59bd 28b9 15bd
00000100: b5a4 603c dcc0 adbd fc08 d43c e12d 07be
00000110: d4eb 683d 5b44 c73c 9e82 0abe 44bb 8b3d
00000120: f7a8 d3bc 363a acbd 6766 5ebc b3fa 763d
00000130: b191 0ebd 80eb 54bd 42bb 0a3c d52a 8dbd
00000140: 7562 f4bd c9af ffbd b7d4 24be 38a7 8c3c
00000150: 6ca7 0b3e 188c 26be 12ed cdbd f8dd b3bd
00000160: dcaa 103e 3111 b63d 7a50 073d 99ba fbbd
00000170: 7c2b 8f3c bf89 593d 8e62 053e bf39 953d
00000180: 01bc 1ebe 48a5 853d 0fe6 f63d e2ff 0b3b
00000190: 9fd7 c93d 61ea dcbd 4c2e 10bc cf1d e53c
000001a0: 082a 183e 7543 a5bd aa0d b93c fa0e fcbd
000001b0: 6c71 cc3d a19e 093e 999a b7bd 02bf a53d
000001c0: c2e0 19bd 32fb ba3d 879a b83d b28e 713d
000001d0: 4130 e2bd cf29 133e a0ab 083e d1ec d43d
000001e0: 44ba ca3c 0ccd f13c bf84 f03d 74d4 0a3d
000001f0: 3b33 ae3d c28e 923d 218b 49bd ab95 28be
00000200: 8e70 78bd a14a 56bd ad9b 35bd 8dcb c8bc
00000210: a545 c7bc 2bba 1b3d 6fb9 c23c f332 05be
00000220: b4c9 1c3d 929b 963d f14c 393d 735d 44bd
00000230: 487a 1ebe 7a16 e0bd 8dea 8f3c 5159 89bd
00000240: d0b9 d73b 9f0d 00be f3fd 26bc 3118 01bd
00000250: 9387 d93d 5fbe 353d 487f 96bd 922e fe3d
00000260: 9a70 a83d a853 1d3d 3836 573d 897a 07be
00000270: f327 243e 4a50 1e3e 2dbf a0bd 1c81 b4bc
00000280: 362b a9bd 59cc c43d 098a 203e 9767 bd3c
00000290: e9b4 013e 067f c23d 9925 233e a457 cfbb
000002a0: fad9 553d c077 3a3e 515b dd3d 2dbb a53d
000002b0: e8c1 e03d 5284 483b a7f1 1e3e 6bfa 00bd
000002c0: 13af f13c 80fe 51bd fc62 87bd 2421 023e
000002d0: 756f f1bc b6f8 8fbc f10b a7bc 5380 a63d
000002e0: 7e83 5a3d 2629 ebbd 6bbd 01bc 692b b63b
000002f0: d358 e1bd d69c 433d 729d 7abd 6e3c 9fbd
00000300: 991a cfbd 18f0 443b 6622 043e b80d 8c3c
00000310: ad37 d33b 2e6c 393d 9b74 9c3d 6e65 57bc
00000320: 34db 6abd 19f8 b2bd e51a 5ebd 266a 203d
00000330: c00d 08be e03a 39be 091f e63b 5633 f6bd
00000340: 9d1a 16be bb65 b03a 48d9 5cbe 59fc 9abc
00000350: 4c1a 7ebd a798 acbd 8923 373d 3a53 8abd
00000360: debf 8fbd 9006 a7bd 71be e5b9 5c3f 91bc
00000370: aa6f 3bbe 1b38 dc3c 40c2 1abe 800b 3d3d
00000380: f5a2 a23a 1d9a b03d 571e 58bd 36bf 79bd
00000390: 08f0 cfbd 8984 ca3d 4f54 76bd 100f a93d
000003a0: e9a3 36bd b6d3 263d 3ee7 c63d 7426 ae3d
000003b0: 5daa 19bd c8d2 de3d 9e85 0ebd 4ccc 0b3e
000003c0: bafe cabd f412 fd3d b9e4 643d 8100 233e
000003d0: cf5d a33d 37a3 0e3d c890 7dbd 8712 a93d
000003e0: eb64 b33d 8e0f 0bbd 3870 c4bd 515d 11be
000003f0: c2e4 5a3d 02a6 70bd f9ab 803d 63f2 ac3d
0.050940882 0.16989471 0.041618567 -0.033906873 -0.096569076 -0.015561993 0.09407226 0.13693208
-0.071607515 -0.030832281 0.025234576 0.12395464 0.0042316685 -0.054267064 -0.016231922 0.073483534
-0.034526095 -0.063898295 -0.035939578 0.1450925 -0.08421844 -0.06767713 0.10054778 0.0509989
0.1340947 0.08714722 0.11151118 -0.07138217 0.025432093 -0.07699006 0.10723125 -0.025537532
0.01924625 -0.1100431 0.011452118 0.022016106 0.036849156 0.028277075 -0.056812808 -0.07532968
-0.07481136 -0.09847299 0.020724015 0.019436743 0.13847385 -0.051379032 0.0137594305 0.053426743
0.0077487454 0.083461605 0.052260023 0.0921945 -0.13925454 -0.17485823 -0.084045194 -0.08463183
0.0024482335 -0.041465424 -0.17648566 -0.1382522 -0.08217554 -0.0051016677 -0.05298815 -0.036553532
0.013711144 -0.08484051 0.02588319 -0.13201095 0.05686553 0.024324587 -0.13526389 0.068228275
-0.025837405 -0.0840954 -0.013574219 0.06029768 -0.03480691 -0.051982403 0.008467497 -0.06892935
-0.11932842 -0.124847 -0.1609677 0.01716958 0.13638085 -0.16264379 -0.10054983 -0.087825716
0.14127678 0.08889998 0.033035733 -0.1229145 0.01747679 0.05310988 0.13025877 0.07286405
-0.15501405 0.065256655 0.12055599 0.0021362235 0.098555796 -0.10786892 -0.008800101 0.027968315
0.14859784 -0.08069507 0.022589523 -0.12307544 0.09982571 0.13439418 -0.08965034 0.080930725
-0.03756786 0.09129943 0.09013849 0.058973975 -0.1104436 0.14371417 0.1334672 0.10396732
0.024747021 0.02951672 0.11744069 0.033894017 0.08505865 0.07156135 -0.04920495 -0.16463344
-0.060654216 -0.052317265 -0.044337917 -0.024511123 -0.024325201 0.03801934 0.023770062 -0.13007717
0.038278297 0.073538914 0.045239393 -0.047940683 -0.15476334 -0.10941787 0.017567897 -0.06706489
0.00658343 -0.12505196 -0.010192382 -0.03151721 0.10621562 0.044371005 -0.07348496 0.12411226
0.08224602 0.03840986 0.05254194 -0.13230337 0.16030864 0.15460315 -0.07848964 -0.02203422
-0.08260195 0.09609289 0.15677656 0.023120685 0.12666668 0.09496884 0.15932311 -0.0063275862
0.05220983 0.18209743 0.10808433 0.080923416 0.10974485 0.0030596447 0.1552187 -0.031488817
0.029502427 -0.0512681 -0.06610677 0.12707955 -0.029472092 -0.01757465 -0.020391436 0.08129945
0.053348057 -0.11482458 -0.007918696 0.005559374 -0.1100327 0.047756992 -0.061185308 -0.07775198
-0.10112495 0.0030050334 0.12903747 0.017096385 0.006445846 0.045269184 0.07639428 -0.013146741
-0.057337955 -0.08738727 -0.054224867 0.03916373 -0.13286495 -0.18088865 0.0070227426 -0.1202151
-0.1465859 0.0013458052 -0.21567261 -0.018919157 -0.062036797 -0.084275536 0.044711623 -0.067541555
-0.07019018 -0.081555486 -0.00043820174 -0.017730407 -0.18304315 0.026882222 -0.15113163 0.046153545
0.0012408184 0.08623145 -0.05276331 -0.06097337 -0.10153204 0.0988856 -0.060138997 0.08254826
-0.04458991 0.040729247 0.09712075 0.08503428 -0.037515987 0.10880047 -0.034795396 0.13652152
-0.099118665 0.12357131 0.05588219 0.15918161 0.07976877 0.034823623 -0.061905652 0.08255487
0.08759483 -0.03395038 -0.095917165 -0.14195754 0.053440817 -0.058752067 0.06282801 0.08444669

bias f4 [32]
00000000: 4d02 3a3d e73e 8e3d 7f55 283d 80d2 23be
00000010: 0f18 34bd 0cef 183e ce66 f53d 7376 013e
00000020: 9120 94bd 0a27 7e3d b064 313e 3e4d 59be
00000030: 37d9 7cbe 0746 d53d 15cb ddbd 3915 79be
00000040: c656 27be f64f 9d3c ede5 393e d57a cfbd
00000050: 2b17 bebd 8f3d 93be 4811 18bd c071 98bd
00000060: 8234 3dbd 0137 4abc 66c0 81bb dc8d dfbd
00000070: 73d9 97bd 1030 44bd bd11 163d 9b33 fe3d
0.04541235 0.069455914 0.04109716 -0.15998268 -0.043968257 0.14934939 0.11982499 0.12642841
-0.07232774 0.06204895 0.17323565 -0.21220872 -0.24692236 0.10413747 -0.108297504 -0.24324502
-0.16341695 0.019203167 0.18154116 -0.1013085 -0.09281763 -0.28757903 -0.037125856 -0.07443571
-0.046192653 -0.0123422155 -0.0039597033 -0.109157294 -0.07414522 -0.0478974 0.03663801 0.12412187

weight f4 [32, 32, 5, 5]
00000000: 8282 a3bc 38e1 b83c 3c01 503c f6ba 24bc
00000010: dd1e cc3c e2ff 05bb 6665 04bc 8a48 0c3d
00000020: 00ea 3f3c d895 403d f5e6 f73a e688 f23c
00000030: 1224 433d 8da8 4d3c 2259 fbbb 8d41 eb3a
00000040: 79f5 3e3d 6dde 423d 93c9 193d be30 093c
00000050: f963 a03b 33a8 a53c ab93 993c b505 403c
00000060: c42f 9e3c eee0 0dbc 09fd cebc d6f8 75bb
00000070: d2d3 f03c 06ee 223d 05d8 f93b 910a ba3b
00000080: f0df a2bc b163 03bc f3df 4c3d ba58 75bb
00000090: 9883 3fbc f875 ce3b 0eed 303d 6c59 473d
000000a0: 5f97 3bbd 30ab 05bd 6975 f23b f4a6 18bc
000000b0: 5db6 333c 212c 6bbc 5bb9 fcbc cf2e c43c
000000c0: afe0 c13c f716 1d3d ab6b b93c 26ec 18bc
000000d0: 1ec9 9bbc 14a0 3f3b a9fd b8bc 7869 003d
000000e0: b4a5 26bd 4597 8d3c 1641 133d 46fe 01bc
000000f0: 2b30 26bd 817d 4abb b8ac e6bc def2 3dbc
00000100: 36ac 8abc 0b43 5dbc e6a8 16bd 57c3 f7bc
00000110: c46d e43c e21b d6bc a0c7 c0bc 281e b93b
00000120: ec07 27bb abae e3bc f56b 8d3c ced2 fcbc
00000130: bfea c83c 518e de3c 2623 bd3c cc08 5d3b
00000140: 818f 073c a61c 953c 014b ceba 3b94 cebb
00000150: ec94 85bc b647 0dbd ef1f 123b dfd6 fd3a
00000160: c489 f63c 5b1d de3c b8f1 adbc ea17 aebc
00000170: eed7 29bd 83a5 cfbb ffe1 44bc 9f08 9fbc
00000180: d232 8cba eb6b 6e3c fade dc3c 1e3f bb3c
00000190: df70 e73c cca9 213d c187 36bc 9074 f63c
000001a0: 9c48 3dbc d2d5 313c 0e3d eb3c 6098 2c3d
000001b0: 68d4 083c 42a2 653c 1459 13bc f51c 273d
000001c0: 3b5f 3e3c e49c 5cba 844b b53c 4c91 0e3a
000001d0: 66e8 da3b 0c97 0dbc 7774 1ebd 1022 64bc
000001e0: 8cbe fcbc 3eee faba 856d c6bb c96a 2ebd
000001f0: d124 25bc 9f8e 3d3d 638c 9cbc b72b 9a3c
00000200: 6cb5 0dbb dca8 813c 7a45 0e3d 2216 043c
00000210: 183e 673c 8c2e 833c ba35 e53b 691d d53c
00000220: ac9a 1d3b f00d f53c 405a b0bb 1e4d 83bc
00000230: 9500 453d 0693 d23b c6a7 893c 4fa0 91bc
00000240: 5261 943c 62d2 203d 75d1 f63c dd2a e53c
00000250: e2c1 a63a 76ad 653b a562 81bc a852 b73c
00000260: 88c0 cb3c 9de9 6a3d a462 0bbb d360 bfbc
00000270: 3ae8 333d cbd7 303d 56e0 653d 4dac 143d
00000280: 9d51 f6bc e17e 583d d1d5 a43c 99c9 823c
00000290: 873c 473d 6670 27bc aa31 d83c 237b c23c
000002a0: 0aac 743d c3d8 183d c13c 9b3c 8d9f d0bc
000002b0: 1c83 863c f87a ccbc 093e 6a3b c6ce 76ba
000002c0: 194b 713c 5f1e e63a 2ce5 e43c 9ef9 c53c
000002d0: ee26 153d a869 773c 8034 603d a312 593d
000002e0: e7f3 f63c 488d cbbb e2e0 c83c cc9f 1f3d
000002f0: 7270 62bb 8604 1b3c f05c fe3c 4f7b eabb
00000300: f3f1 c83b 0ec0 81bc 411e cabc 1b96 9dbc
00000310: 5135 023b 0e67 2dbd e5c8 ebbc 7176 44bd
00000320: dc5a fd3a 9697 b4bb 6c66 7c3c 52bb 8d3b
00000330: 793d b23c 4836 babc af4a 0dbc b444 c8bb
00000340: 2ac3 073d 1f7e d3bb 0a89 e03c 9976 cd3c
00000350: 2c83 3c3c 745f 68bc 3d6f 1f3d 2e1f aabb
00000360: 1752 183d 2cee c63c cac8 973c 7a6a fa3b
00000370: 961a 49bc 8ca5 20bd 0061 933b 8810 e4ba
00000380: c3f6 19bd 657f 8a3c a877 9ebc 3bb9 05bc
00000390: c919 37bc 34b3 95bc c6ef 5ebb 12c0 0dbd
000003a0: 2220 2ebc 091f efbc d894 a3bc 964e ffba
000003b0: 1d1b 25bd ab9a 34bd 17b1 6a3c 8171 95bc
000003c0: 5d76 b33c 8d30 6abc d1c1 54bc 284a c03c
000003d0: 27d9 9bba 117e 87bc 81b2 0abd 8bbb 5cbc
000003e0: 6a3f f33c 0b7e cdbc 5544 0a3d 4245 063c
000003f0: 944b 503b 0165 61bc c881 303d 4df6 a63b
-0.019959692 0.02256833 0.012695607 -0.010054341 0.02491706 -0.0020446707 -0.008080816 0.034248866
0.011713505 0.047017902 0.0018913435 0.029606294 0.04764182 0.012552393 -0.0076705376 0.0017948613
0.04662082 0.047575403 0.03754575 0.008373437 0.00489473 0.020221805 0.018747171 0.011720111
0.019309886 -0.008659584 -0.025267141 -0.003753235 0.029397879 0.039777778 0.0076246285 0.005677529
-0.019882172 -0.008019374 0.050018262 -0.0037436918 -0.011689089 0.006300684 0.043194823 0.048669264
-0.045798656 -0.03263396 0.0073992503 -0.0093171485 0.010968772 -0.014353783 -0.030850103 0.023948101
0.023666708 0.03835198 0.022634348 -0.009333646 -0.019016799 0.00292397 -0.022581892 0.031350583
-0.04068537 0.017284045 0.035950743 -0.007934159 -0.04057328 -0.003089756 -0.02815853 -0.011593549
-0.01692782 -0.013504754 -0.036782168 -0.030244512 0.027884372 -0.026136342 -0.023532689 0.005649347
-0.00254869 -0.02779325 0.017263392 -0.030862238 0.024525998 0.027167471 0.02308805 0.0033727167
0.00827396 0.018202137 -0.0015738906 -0.0063042915 -0.016306363 -0.034492217 0.0022296866 0.0019366405
0.030094989 0.027113607 -0.021233425 -0.021251637 -0.041465692 -0.006336869 -0.012016772 -0.01941329
-0.0010696298 0.014552097 0.026961792 0.022857245 0.028252063 0.03946857 -0.011140765 0.030084878
-0.011552956 0.010854201 0.028715637 0.042137504 0.008351423 0.014015736 -0.008993406 0.0407991
0.011619384 -0.00084157125 0.022130735 0.0005438521 0.006680536 -0.008641969 -0.03868529 -0.013924137
-0.030852579 -0.0019144488 -0.006055536 -0.042582307 -0.0100795785 0.046278592 -0.01910991 0.018819673
-0.0021623028 0.015827589 0.034734227 0.0080619175 0.014113925 0.016013406 0.00699493 0.026015
0.002404849 0.029913872 -0.0053818524 -0.016027983 0.04809626 0.006426218 0.016803633 -0.017776636
0.018112812 0.039263137 0.030129174 0.02797454 0.0012722577 0.0035046018 -0.015794108 0.02237828
0.02487208 0.057351697 -0.0021268511 -0.0233616 0.04392264 0.043174546 0.056122147 0.03629713
-0.030068213 0.052855376 0.020121487 0.01596527 0.048641708 -0.010219669 0.02639087 0.023740357
0.05973438 0.037316095 0.018949868 -0.025466705 0.01641994 -0.02496098 0.0035742542 -0.0009414967
0.014727377 0.0017556659 0.027941309 0.024166878 0.03641408 0.015100874 0.054737568 0.05299629
0.030145599 -0.0062119104 0.024521295 0.038970754 -0.0034551886 0.009461528 0.031050175 -0.007155813
0.006132358 -0.01583865 -0.02467263 -0.019236615 0.0019868205 -0.04233461 -0.028782317 -0.047964517
0.0019329446 -0.0055112345 0.015405279 0.004325309 0.021757828 -0.022730961 -0.008623763 -0.0061117057
0.033145107 -0.006454244 0.027409095 0.025080966 0.011505883 -0.014182914 0.038924444 -0.005191705
0.037187662 0.024283491 0.01852836 0.0076420875 -0.012274405 -0.039220378 0.0044976473 -0.0017399946
-0.037588846 0.01690645 -0.019344166 -0.008161838 -0.011175581 -0.018273927 -0.0034017428 -0.034607
-0.010627778 -0.029189603 -0.019968435 -0.0019478376 -0.04030906 -0.044092815 0.014324448 -0.0182426
0.021907026 -0.014293802 -0.012985663 0.02347286 -0.0011890278 -0.016539605 -0.03386164 -0.013472448
0.029693324 -0.025084516 0.033756573 0.008195223 0.003178333 -0.013756991 0.04309252 0.0050952793

bias f4 [32]
00000000: b648 e13c a9e3 8bbd 2138 df3b 533e 19bc
00000010: 39a9 efbc 156a 133d 4cdb aaba 89a7 3ebd
00000020: 1185 50bb 8fa6 60bd 4faa 0bbd 4e0a 093d
00000030: fb5b cbbc 6978 ea3b ec48 c4bd 1f43 48bd
00000040: 8dbf f7bb 53ac 6ebd 93bc 28bd 845d 89bd
00000050: bb3e 583d 8834 e5bd c922 02bc 62e6 ad3b
00000060: b0b0 f43b bc8c 4f3d 95c4 2ebd a116 9cbd
00000070: bb7b 0e3d 7a03 2ebd c27b 16bd ae4d 67bd
0.027500492 -0.06830532 0.006812111 -0.009353238 -0.029255496 0.03598984 -0.0013035326 -0.046546493
-0.0031817595 -0.054846343 -0.034097966 0.033457093 -0.024824133 0.0071554673 -0.09584221 -0.048892137
-0.0075606764 -0.05826981 -0.041195463 -0.0670729 0.0527942 -0.1119166 -0.007942864 0.005307005
0.007467352 0.050671324 -0.042667944 -0.076215036 0.034785967 -0.042483784 -0.03673912 -0.056470565

weight f4 [64, 32, 5, 5]
00000000: 9313 8fbc 8c68 3cbd 098d f8bc 481a 1bbd
00000010: 95e6 c439 9c20 2e3d fa2f 2fbb 9843 f5bb
00000020: 3d4b 90bc b5d7 84bc ba7f e6bc d22a c93c
00000030: 1cdd ddbc 7c45 6e3b 915b 09bc 7304 c23c
00000040: 05de 97bc b3d3 953c 91b3 6a3c e957 6c3d
00000050: a0c0 673a 96e3 c03c 8bb2 25bb 3409 56bc
00000060: ee2b 143d 8afa 773d a480 883c efa3 2abd
00000070: 5d11 fbbb 99cf f1bc f6a1 263d e402 59bc
00000080: 84a5 7fb9 d126 8fbc 7947 02bc b0fd bc3b
00000090: 1af4 ac3c 0f33 e53c a864 563d f52e 253d
000000a0: 3524 a5bb 6cb8 5dbb cb57 2fbb 253a 3abc
000000b0: 7710 c4bc e75c 113b 1481 3b3c b13f 183d
000000c0: 53c8 24bc 5d33 1d3c 5584 bd3c 1b3f 80bc
000000d0: 91cb 07bd b720 40bd 406b 683c c6a2 b53c
000000e0: 29a8 bd3b 283d de3c 58e7 17bc d35d 25bd
000000f0: ecb3 aa3c f9d1 333c f93e 75bc a4ff 023d
00000100: 5a43 073d 24d0 6fbc 9ac6 9fbb 5fda 5438
00000110: 2437 c4bc 90d9 943c 88c4 e0bc a18a d13b
00000120: d647 ab3c c707 ebbc de7c 0bbc 6439 fbbb
00000130: c67a 6f3c f2e3 0fbb 2756 f83b 1212 ed3c
00000140: 0ef1 913c fac6 59bb a258 733c e7b1 6cbc
00000150: 5016 d9bc 0361 473c e1d4 10bb 9fb5 0ebd
00000160: 6b18 02bc 7f59 83bc 6356 0b3d bea0 e73c
00000170: 7673 023d 0ab4 1b3b 03e6 1fbc a66d 17bd
00000180: 8e5b 0ebd b939 153c fd25 00bd 1d3d cebb
00000190: 923e 35bc b6c2 d8bb d20b aabc 3ef6 f8bc
000001a0: 10b8 12bd d828 f53c b474 24bc 2746 803a
000001b0: 0722 f73a 96df f1bb 2c05 eab9 d524 963c
000001c0: cfd6 2fbc ce96 1d3c 04b6 a0bc 9139 e3bc
000001d0: a47c d8bb 6217 9b39 38a5 273d d5fb 063b
000001e0: fced 443c 26eb 9abb 9990 cebb bf47 353c
000001f0: 3c85 b53c d0ac 0dbb 5c2e 4d3c 0621 30bd
00000200: 3d83 2abd 3f8e a83b e3b4 383a 825d f6bb
00000210: 7c6a dcbc 22dc 6c3c 38c9 3bbd 3255 09bd
00000220: b571 f33b 2d01 29bc f95b bc3c 0f11 8b3c
00000230: 3455 0ebd bd78 08bd b3a4 903c b4b5 aabb
00000240: a766 8fbc 4eea 09bd f870 233d bcb2 853c
00000250: 3dfb 2b3d b01c fd3c e7dc f13c 8f6f 4f3b
00000260: 20f7 e03c 6175 533c 94c3 4d3c d9eb 993b
00000270: cca4 0bbd 6d55 253d 0799 293d 94c8 c6bc
00000280: 73ff 7ebc d33f cc3c e732 1f3d 75c2 c93b
00000290: 94ae 9ebc ca6d 0ebd 929a b5bc a91c 98bc
000002a0: abb2 86bc ac25 393d ea81 e1bb 2fa9 36b9
000002b0: 0f18 363c fcdd b3b9 76af a8ba 72a7 bfbc
000002c0: dce2 923c 09cc 01bc 26fc 51bc 59b1 d2bc
000002d0: a5f1 e5bc c0fc 91bc 23b2 69bc 9e5c 3abc
000002e0: 21c4 cfbb 0d70 313c 15b0 13bc 9f46 10bd
000002f0: 0dd0 ed3c d2e6 79bc c2d8 3d3c 0ceb 123d
00000300: 8ab1 b7bb ab75 c9bc 0b9d a93c 521b a4bc
00000310: ef3d c4bc 2025 23ba 2867 b4bc 4426 9b3c
00000320: 25d7 b33c 6311 6aba 41d6 3f3c 5489 f0b9
00000330: 4128 e2bc ed0b 463b d419 e73b 7f68 2ebc
00000340: 8f6b 4b3c e359 9fbc fcbb c23c 35f5 25bc
00000350: c858 42bc cc6b febc f022 903c 7bd7 d0bc
00000360: 3c51 793c e529 aa3c 2853 c1bc 6393 d9bc
00000370: 94dd 8abc c39e f6bc f996 cb3c 3312 cb3c
00000380: 3e1e 483c b064 223c d222 89bc a2a5 cdbb
00000390: 5df5 b0bc 2dc3 acbc 4273 acbc f9fd a23b
000003a0: e712 16bb df49 73bc 80fb 91bc f960 0a3a
000003b0: 55bb e0bc f78e ed3b a98d ea3b 27de 80bc
000003c0: 8dd3 c13a 3548 bcbc a122 02bd e3f5 b5bc
000003d0: 85d3 c83a d83a d8bc 9c6d 49bc d301 df3b
000003e0: 9c1c 233c 082c c33c 4561 44bc 39b6 0abd
000003f0: e36b a9bc 3b58 f3bc 6c2e 8b3c da6f b8bb
-0.017465388 -0.04599814 -0.030340688 -0.03786686 0.0003755583 0.042511567 -0.0026731477 -0.0074848644
-0.017614001 -0.016216138 -0.028137077 0.024556551 -0.027082972 0.0036357334 -0.008383648 0.023683762
-0.018538484 0.018289423 0.0143250385 0.057701025 0.0008840654 0.023546021 -0.0025283422 -0.013063718
0.036174707 0.060541667 0.016662903 -0.041660246 -0.007661982 -0.029517936 0.0406818 -0.013245318
-0.00024380354 -0.017474564 -0.007951611 0.0057675466 0.02111249 0.027978448 0.052342087 0.040327985
-0.0050397166 -0.0033831848 -0.002675521 -0.011366402 -0.023933632 0.0022180618 0.011444349 0.037170116
-0.010057527 0.0095947655 0.02313439 -0.015655091 -0.03315312 -0.0469062 0.014185727 0.022172343
0.0057878685 0.027128771 -0.009271465 -0.04037268 0.020837747 0.010975354 -0.014968627 0.03198208
0.033023216 -0.014637027 -0.00487597 5.0748113e-05 -0.023952074 0.018170148 -0.027437463 0.0063946997
0.020908277 -0.028690232 -0.008513657 -0.0076667536 0.014616674 -0.0021955934 0.0075786295 0.02893928
0.01781514 -0.0033230172 0.014852675 -0.014446712 -0.026499897 0.0121691255 -0.0022099542 -0.034841176
-0.007940392 -0.016033886 0.03401793 0.02827489 0.031848393 0.0023758435 -0.009759429 -0.036969803
-0.034755282 0.009108 -0.03128623 -0.0062939064 -0.011062281 -0.006615008 -0.02075759 -0.030390855
-0.035820067 0.029926702 -0.01003759 0.0009786532 0.0018854745 -0.00738139 -0.0004463581 0.01832811
-0.010732367 0.009618474 -0.019618042 -0.02773741 -0.006606655 0.00029581325 0.04092905 0.002059688
0.0120196305 -0.004727739 -0.0063038585 0.011064469 0.022158258 -0.0021617897 0.01252326 -0.043000244
-0.041629065 0.00514391 0.0007045997 -0.007518471 -0.026906244 0.014456781 -0.045846194 -0.033528514
0.0074293264 -0.010315222 0.022993075 0.016975908 -0.034749225 -0.03331827 0.01765666 -0.005209649
-0.017505003 -0.033670716 0.039902657 0.016320579 0.041987646 0.030897468 0.02952428 0.0031652187
0.027461588 0.012906403 0.0125588365 0.0046973047 -0.03409271 0.04036467 0.041405704 -0.024265565
-0.0155638335 0.024932778 0.038866904 0.0061572143 -0.019370355 -0.03477267 -0.022168431 -0.018568354
-0.016442617 0.045201942 -0.006881942 -0.00017419898 0.011114134 -0.00034306932 -0.0012869674 -0.023395274
0.01793044 -0.007922181 -0.0128164645 -0.025719332 -0.028069327 -0.017820716 -0.0142636625 -0.011374621
-0.006340519 0.010829938 -0.009014149 -0.0352236 0.02902987 -0.015252786 0.011587324 0.03586869
-0.005605881 -0.024592241 0.020704767 -0.020032559 -0.023955313 -0.00062234886 -0.022021845 0.018939145
0.021953175 -0.00089289824 0.011708797 -0.00045878685 -0.027607085 0.003021951 0.0070526395 -0.010645031
0.012415781 -0.019452041 0.023771279 -0.010129263 -0.011861987 -0.03105726 0.017594784 -0.025493374
0.015217122 0.02077193 -0.023599222 -0.026559537 -0.01695136 -0.030105 0.024852263 0.024788952
0.012214242 0.009911701 -0.016740236 -0.0062758485 -0.021601373 -0.02108916 -0.021051053 0.0049741236
-0.002289945 -0.014849155 -0.01782012 0.0005278732 -0.027433077 0.0072497088 0.0071580005 -0.01573093
0.0014787778 -0.02298365 -0.031771306 -0.022211974 0.0015321827 -0.026395246 -0.012294199 0.0068056374
0.0099555515 0.023824707 -0.0119860815 -0.033865187 -0.020681327 -0.029705158 0.01698991 -0.005628568

bias f4 [64]
00000000: 2c2d c4bc 0d6e 903b 8114 0dbd 2ee3 cebc
00000010: e96b 55bb 42a7 b93c 342c 14bd ba2c 48bd
00000020: 1638 e23c 0ef5 d0bc 0ba2 f6bc 3181 06bd
00000030: f6a1 263c 6763 9b3b 7e5e 233c 0368 c2bb
00000040: 8d44 b6bb ab42 d4bc 79d6 38bd 6142 34bd
00000050: 9926 35bc f0de 55bd 8b8c 3e3c 7c30 fcbc
00000060: 9933 87bc efd1 81bd 5551 263c 3e58 61bc
00000070: 13ec 2dbc 0fcb d6bc d3b1 b6bc f321 81b8
00000080: be99 813a f07f 80bb 859b f33b 356c f6ba
00000090: 7cb4 aebc a68b 283b 0915 1e3d 7ff8 003d
000000a0: 0504 56bd 56dd 33bd 8dc5 c8bc 4185 14bd
000000b0: 274f e03c 510a 1d3d 7cae 7f3c c7f3 89bc
000000c0: e541 50bc 08b7 a03b f67d c23c 6e62 65bd
000000d0: 63a7 58bd 948a a3bc a1b8 fc3b 9ee5 4bbd
000000e0: a8ac febc 218d 383d 00a5 cc3b 8a9b 22bd
000000f0: 1b4a 97bc 0ffd 22bd 83ab 0d3d 026f ac3b
-0.02394732 0.0044076503 -0.034443382 -0.025254812 -0.003256554 0.022662763 -0.036174968 -0.04887078
0.027614634 -0.025507476 -0.030106565 -0.03283805 0.01017045 0.0047420743 0.009971259 -0.0059328093
-0.005562371 -0.025910696 -0.045126412 -0.044008616 -0.011056566 -0.052214563 0.011630188 -0.030784838
-0.016504096 -0.0633887 0.010151227 -0.013753949 -0.0106153665 -0.026219873 -0.02230159 -6.157523e-05
0.0009887738 -0.0039215013 0.007434311 -0.0018800559 -0.021326296 0.0025718003 0.03859428 0.031486984
-0.052249927 -0.043912254 -0.024508262 -0.036259893 0.027381493 0.038339917 0.015605565 -0.016839875
-0.012711023 0.0049046315 0.023741703 -0.056002073 -0.052894007 -0.01996354 0.007712439 -0.049779527
-0.031088188 0.045056466 0.0062452555 -0.039699115 -0.018467953 -0.039792117 0.034587394 0.0052622566

weight f4 [64, 1024]
00000000: 72bc fcbb 216c e6bc 9b9c 193c 2d4c b73c
00000010: 53eb ba3c eaa8 33bb 631c 7d3b 0450 7ebc
00000020: b4c9 063d a3a1 5a3c de08 d53c 8d6c cc3c
00000030: 236d e1bc 24cb b7bc 71c6 c0bb bce4 e13b
00000040: 7cd6 15bd 8c47 1bbc 0915 4abc 4f04 df3c
00000050: f2ca 9f3a 5c29 00bb 574f 253c d5be 803c
00000060: d569 a13c 8a91 de3c 19ee d2bc b575 d4bc
00000070: eac6 8ebc 8da6 3cbc e72a 033d ec25 123d
00000080: 3e81 373c 3963 35bd b7fa 9fba 11c0 ab3a
00000090: f8a3 6fbc 9665 daba d23f d4bc 7d3d 9abc
000000a0: de32 a53c 4fb3 f23c 667c 1e3d 7969 293d
000000b0: 515a 78bc 0718 d73b 127e cb39 6a8d 263d
000000c0: 4be6 f2bc 7f42 c93b 1f09 673c c5df 27bd
000000d0: 01b2 ec3c 8c04 073d 3ac3 913c 48e1 c93c
000000e0: f8ed dbbc 69cd 363d 17f0 3a3c 9e22 0f3c
000000f0: f432 9a3c 3574 9b3b f68c 7ebc e19f 063c
00000100: 72b0 d6bb 504d a2bc feb1 893c 5d5a 323c
00000110: 2f4f 243d d609 28bb 9059 893c 1d3f afbc
00000120: ef0c b4bc 8863 22bc e0eb 753c 0a40 513b
00000130: 64e1 103d e316 b7bb b085 463c 20eb d33c
00000140: 513b be39 94ba 123d 8ab9 373c 019c 85bc
00000150: 78ff b1bc e5b0 5c3c 1d06 d1bc 25da 933c
00000160: ae94 3cbc ecc6 593c 78b7 3a3b 389a aebc
00000170: 4314 cabb 0c8a 34bc 12a2 ff3b 2ed0 fabc
00000180: 0410 fc3c 4dd6 01bc d433 01bc 4641 21bc
00000190: c2a3 913c 85a2 693a 70b9 07bc 2cb7 783c
000001a0: 5c5b bfbc b146 9bbc b8ad 263d 88c7 20bc
000001b0: 7916 ca3c 019e ceba 0904 683c 762a 563c
000001c0: 17ee d73b 5c41 683a 7c6a 95bc 3130 ac3c
000001d0: fc45 063d f900 abbc cf57 75bc d0e1 d43c
000001e0: 9898 083d 13bd 0bbc 3079 59bb dba7 4bbc
000001f0: eeb1 dbbc 6dbd 8cbc 295f feba bf83 1c3c
00000200: 2419 383c 337c 2f3c fd76 b1bc 1d54 4f3c
00000210: e878 b9bc 462a 8fbb 83be 89bc 2dd5 f23c
00000220: e29a 583c cd67 a9ba bbb9 80bc 9343 a63c
00000230: b91f a3bc 733f 93bc 3121 84bc 9a72 96bb
00000240: d40d a3bc 7c82 57ba 8c59 12bd 2bea 873c
00000250: a013 c3bb fac7 9ebb 6277 cfbb 7711 80bb
00000260: 4ccd 843b f2d2 ab3c 6453 d23b 246f b03c
00000270: 77a8 e7bc 065e bebc 23c1 f83c e5ea e6bb
00000280: 7a2a cc3c a346 3b3c c95a 933a 4a1c c2bb
00000290: 18f8 82bc f5ff c3bb a775 353b 76c5 d3bc
000002a0: b468 213c 3b0a 063d ecf5 d23b 4f6d c5ba
000002b0: 716e 52bc d835 a03a a402 003d 7f16 443b
000002c0: be81 4f3c e751 1e3b 6601 a13c 1f05 5a3c
000002d0: c863 feba b403 df3c 17db c13c 43ad 30bc
000002e0: b4d9 9e3b ecf7 e0bc acd7 92bc 421d 013d
000002f0: 31a0 be3c 7d13 16bc 1c57 a03b e4cf a8bc
00000300: bc10 8c3c 3178 40bc 80e5 1f3d 7eee c63c
00000310: 2d0c e93c 3efc 07bc cefe b9bc 7fc5 35bc
00000320: 0299 dfbc 32e1 1b3d 3cd0 d13c fe42 0abc
00000330: 8be6 47bc dd7c 423c be08 293c 3b83 133d
00000340: bcdc acbc 0884 bebc 45d9 123d 36f6 83bc
00000350: 9d9d ec3c f65a ef3c f370 f23c 55dd e7bb
00000360: b8e3 05bc 45b4 a33b 2710 e33c 0094 2cbc
00000370: 53b0 43bc 3681 92bc 9d64 003d a593 61bc
00000380: f4d0 c23b d2ef f4bc 1ea8 f5bc 8d0f ccbc
00000390: 5b50 3b3b 72c4 8a3c 9f47 e4bb c0f9 c1bc
000003a0: db29 35bb f0c8 d5bc cbf3 a03c a8e6 c8bc
000003b0: 54c7 25ba 228f a2bc 8773 08bc 91ff c2bb
000003c0: aee8 e63c 8060 b0bc 7e12 0f3c 0c5d d63b
000003d0: a6a0 debc 8a65 983c c132 ba3c e46b bfbc
000003e0: dc7c 71bc 1838 86ba 7344 413b 548a 013d
000003f0: e46d 393c daab 3b3b 9ab4 b03b 1465 fb3a
-0.007712894 -0.028127732 0.009375717 0.02237519 0.02281729 -0.0027413913 0.0038621656 -0.015522007
0.032907203 0.013344201 0.026005205 0.024954105 -0.02751786 -0.022435732 -0.005883031 0.0068937223
-0.0365815 -0.009477507 -0.012334117 0.027223734 0.001219122 -0.0019555902 0.010089717 0.015715996
0.019703785 0.027169008 -0.0257483 -0.025935033 -0.017428834 -0.011514318 0.032023337 0.035680696
0.011200247 -0.04428408 -0.0012205456 0.0013103505 -0.014626496 -0.0016662355 -0.025909338 -0.018828148
0.020165857 0.029626517 0.038692854 0.041360352 -0.015158252 0.0065641436 0.00038813107 0.040662207
-0.029650828 0.00614196 0.014101296 -0.040984888 0.028893473 0.03296332 0.017793287 0.024643555
-0.02684687 0.04462949 0.011409781 0.008736281 0.018823124 0.0047440776 -0.015536537 0.008216829
-0.0065517956 -0.019812256 0.016808506 0.010885802 0.040114578 -0.0025640628 0.01676634 -0.0213924
-0.021978823 -0.009911425 0.01500985 0.003192904 0.0353712 -0.005587445 0.0121168345 0.025868952
0.00036283818 0.035822466 0.01121367 -0.01630974 -0.021728262 0.013469909 -0.02551561 0.018048355
-0.011510057 0.013292056 0.0028490704 -0.021313772 -0.006166966 -0.011019241 0.0078013027 -0.030616846
0.030769356 -0.007924628 -0.007885892 -0.009842223 0.017778281 0.0008912462 -0.008283958 0.01518039
-0.023358993 -0.018954607 0.040693015 -0.009813197 0.024668919 -0.0015763642 0.014161118 0.013071647
0.006589662 0.0008859837 -0.018239252 0.021019073 0.032781586 -0.020874487 -0.0149745485 0.025986582
0.03334865 -0.0085289655 -0.0033183806 -0.012430157 -0.026818242 -0.017180169 -0.0019407022 0.009552895
0.011236463 0.010710764 -0.021663183 0.0126543315 -0.02264066 -0.004369053 -0.016814476 0.029642666
0.013220521 -0.0012924612 -0.015713563 0.020295894 -0.019912587 -0.01797459 -0.016129108 -0.0045912983
-0.019904055 -0.0008221043 -0.03572993 0.016591152 -0.005953267 -0.0048456164 -0.00633137 -0.003908332
0.0040527936 0.02097461 0.0064186323 0.021537371 -0.028278572 -0.023238193 0.030365532 -0.0070470446
0.024922598 0.011430415 0.0011242266 -0.0059237825 -0.015987441 -0.00598144 0.0027688534 -0.025850993
0.009851623 0.0327246 0.0064380076 -0.0015062484 -0.012843714 0.0012223078 0.03125252 0.0029920635
0.01266521 0.0024157704 0.019653987 0.013306885 -0.0019408399 0.027223445 0.02366404 -0.010783496
0.0048477296 -0.027461968 -0.017925106 0.031522043 0.023269745 -0.00915992 0.0048931967 -0.020606942
0.017097823 -0.011747406 0.039037228 0.024283644 0.028448189 -0.008299885 -0.022704508 -0.01109445
-0.02729464 0.03805656 0.02561199 -0.008438824 -0.012200962 0.01187059 0.010317026 0.036013823
-0.021101348 -0.023256317 0.035851736 -0.016108613 0.02888375 0.029218178 0.029594874 -0.0070759454
-0.008171968 0.004995855 0.027717663 -0.010533333 -0.011943894 -0.017883878 0.031345952 -0.013768111
0.0059453193 -0.029899511 -0.029987391 -0.024909759 0.002858183 0.016939376 -0.0069665457 -0.02367866
-0.0027643356 -0.026096791 0.0196475 -0.024524048 -0.00063239527 -0.019843642 -0.008328325 -0.005950876
0.028187122 -0.02153039 0.008732436 0.006541854 -0.027176213 0.018603105 0.02272928 -0.023366876
-0.014739241 -0.0010240106 0.0029490262 0.03162606 0.011317704 0.0028636367 0.005392623 0.0019179904

bias f4 [64]
00000000: 9bd2 abbc b39c 2dbc 576d e1ba 8b7c acbc
00000010: 5399 143b ef08 34bc 6474 0d3c 3575 673c
00000020: a71c 253c 863d 49bc 2629 0ebb 1032 7dbc
00000030: 7695 8a3c 0d19 e8bb 273f 98bc 3220 103b
00000040: c457 b73b 6ab4 803c f791 a73b a8b8 c73b
00000050: 019a 923b 5346 bbbc 87c2 b7bb ec92 0fbc
00000060: 8304 fbbc 5c1c febb 1eb1 f83c a4d7 b83c
00000070: 1ad7 15bd 0c5c dcbc a39d 0abd bd33 37bd
00000080: 081c 3d3d e0fc a23c 584f 093d 64e4 2abc
00000090: 3be6 7e3c 8e8a 27bd 6d47 303c 095b 673b
000000a0: 9343 373b 6574 0a3a 8030 3fbc 9101 48bd
000000b0: 6c31 a3bb b1c8 0f3d 29c4 8dbc af9e 773d
000000c0: 6591 f63b 6439 d0bb b511 f6bc 2ff8 3dbc
000000d0: c9b3 e3bc 7d84 c8bb eaa3 46bd be1c 68bc
000000e0: 400f a93c 9380 8dbb 9d14 ccbc 4bfd 1ebd
000000f0: 8c6e 9c3c 3910 053d 47ce 113a c4e6 ed3c
-0.020974448 -0.010596442 -0.0017198724 -0.02105548 0.0022674396 -0.010988458 0.008633707 0.014127065
0.010077632 -0.012282735 -0.0021692007 -0.01545383 0.016916972 -0.0070830644 -0.0185848 0.0021991846
0.0055951793 0.015711028 0.005113836 0.006095011 0.004473925 -0.022860682 -0.0056079063 -0.008763056
-0.0306418 -0.0077548455 0.030357894 0.022563763 -0.03658209 -0.02689936 -0.03384174 -0.044727076
0.04616931 0.01989597 0.033522934 -0.010430429 0.015557821 -0.04090362 0.010759217 0.0035302064
0.0027963861 0.00052816264 -0.011669278 -0.04882962 -0.004980257 0.035103504 -0.01730545 0.060454067
0.0075246566 -0.0063544977 -0.03003774 -0.011594816 -0.02779569 -0.0061193095 -0.048496164 -0.014167009
0.020637155 -0.0043183058 -0.024912173 -0.038815778 0.019095682 0.032486174 0.0005562049 0.029040702

weight f4 [10, 64]
00000000: b5ac c5bd b5b5 353e 3d41 1ebd 737c 42bb
00000010: e0be 0abe 3551 2a3e c41a 05be eb9c 2bbd
00000020: fa47 71bd 9389 7e3e ea34 5dbd 1eb8 533e
00000030: 07fb 72bd 3c6a f6bd 2e82 163e 1ab4 33bc
00000040: 01d5 ec3d bbed fd3d 29a8 8c3d 3696 b8bd
00000050: a6f2 053e 7147 a73d e9e9 acbd 0f31 ec3d
00000060: 3559 0a3e 26c2 0b3c 0edf 9cbd b81a a93d
00000070: 28a0 ad35 78ec 023e c4d1 fb3d 887d c13d
00000080: f2ca 5fbe 291d 433d aedc 04be 0558 2dbd
00000090: f733 113d ad4c 0e3e c42a cd3d 2809 143e
000000a0: 0b11 9fbd 0269 05be 7d74 9ebd ed48 b53d
000000b0: 10e9 4cbd e984 a8bd 3145 00be 4eee 5bbd
000000c0: 0e8a a5bd 8c68 2a3e 4776 4dbd 1477 063e
000000d0: 6af4 d53d 36a2 f83d f295 813b 30d2 aa3c
000000e0: e972 133e 25a1 dd3c 9396 1a3d 1aee f73d
000000f0: 880d 04bd 3458 283c 9728 abbb 5052 9339
00000100: fbcb d03d f902 643e 42bc aebc 8c87 223e
00000110: 1203 223d fbe6 33be fc4d b23c 043e c83d
00000120: 11f7 383e a70f df3d 15e0 43bd f5b1 acbd
00000130: 14e8 0b3e 14b0 083e bdd9 bcbd ba88 b33c
00000140: 5824 38be 50b5 71be 2f18 653e e32a 053e
00000150: 8d57 06be 3e41 1d3e e837 ee3d 399c 643e
00000160: 25f5 e6bd c43f 1ebe 26d0 c23d a09d aa3d
00000170: b760 f5bd ca33 6dbe 225f 423e de7b 85bd
00000180: 39dc 483e 8cc1 2a3d df88 bbbd 6a0a 143d
00000190: 319f 6f3e 27c0 2fbe a676 ee3b 97d0 8a3d
000001a0: b0d4 c1bd 3592 88be c35f 4e3e 7158 223e
000001b0: 00ef 44bd 52e2 223e ca77 733b 394e d6bd
000001c0: 0c12 d33d dd67 f93d 6d47 9dbd e194 b3bc
000001d0: a32a c13d aede b03d f217 4abe 3098 2c3e
000001e0: d06e 1abc 1414 7c3d 845b b53d 63e9 cebb
000001f0: b7ae 643e 10e9 783d cb45 a23d 8985 243e
00000200: ca52 fa3d 6dba 94bd 169f 83bd 3e19 fa3d
00000210: cfb6 363d a4a6 043e a33c 1abe 3f83 49be
00000220: 018d fa3d 5aaf 0e3e 299d bcbb b7a0 90bb
00000230: e72c b1bd a060 ec3d 8035 44be b1ae 1cba
00000240: d015 87bd 021d 413e aef5 14be a30c c43c
00000250: 86c1 953d 4340 103c d33f 77bd dcfa e2bd
00000260: 448a b8bd 755d 3a3e d8f8 84bb 931b 12be
00000270: a337 7c3d c1fb f13c ebff 24be 1673 a2bd
00000280: b113 21be e960 933d d044 36bd f146 45bd
00000290: 469f d5bd b582 c03d 05e8 acbc b016 b33d
000002a0: 22fe 463d 80c1 093e be57 4abd 99eb 50be
000002b0: 5bb3 19bd ecaa 30bd 9a4e f8bd 2aa4 803d
000002c0: 34de cfbc e331 e03d 5682 0f3e 05f2 3d3e
000002d0: a352 34bd 77b2 273e bd6d d9bd 5be1 ddbd
000002e0: 0a4f 19be a31c 00bd 53e8 42bd 7902 ccbd
000002f0: 9f0f 1c3d 9981 b23c 3861 ddbd b00a 453d
00000300: bda8 c83d 1707 eebd 1896 353d c5fb 8c3c
00000310: cb86 bdbd 63b8 38be 5ccf efbd 691d d2bd
00000320: 1873 183e 5d24 16be 8559 91bd 6358 53bc
00000330: 85da debd 4a76 d7bc 1e42 27be b9a8 cabd
00000340: 1383 193e fb3c 11be a06d eebd 706f 04be
00000350: fa84 9cbd 63a2 c6bd ba13 aabd 1891 06be
00000360: c9bc b73d 8cc9 023e d4f4 48bd 4a81 cdbc
00000370: 0716 df3b b5df 543d 1b38 1bbe 59bd dfbd
00000380: 9681 8f3d 97fe 083e d0a0 d9bd a718 12bd
00000390: c144 c03d 89f9 67bd 8936 2bbd 744a dc3d
000003a0: b33f 06be 037c 9abc 213e 683d 2324 73bd
000003b0: 4713 333d 92d9 133d 3c95 58bd fffe b93d
000003c0: 8662 d0bd c2f4 f6bd 7cc4 f9bd c26f d83c
000003d0: f11c a1bd 0848 833d 5433 a63c 28d2 31be
000003e0: 2a33 8bbd a381 d7bd 0589 573d 1ef0 fd3d
000003f0: 60c9 20be 6cce c53c 8691 b1bd e88e 71bd
-0.09652082 0.17745097 -0.038636435 -0.0029676228 -0.13549376 0.1663254 -0.12998492 -0.041897696
-0.058906533 0.24857168 -0.05400554 0.20675704 -0.05932143 -0.12031981 0.14698097 -0.0109682325
0.11564065 0.12398859 0.068680115 -0.090130255 0.13080844 0.08167923 -0.08443052 0.11532795
0.13510592 0.008530175 -0.07659732 0.08257049 1.2936116e-06 0.12785518 0.12295869 0.09447771
-0.21854761 0.04763523 -0.12974808 -0.04232027 0.03544995 0.13896437 0.100179225 0.14456618
-0.077669226 -0.13028339 -0.07737062 0.088518 -0.050026953 -0.082284756 -0.12526394 -0.053694062
-0.080829725 0.16641444 -0.050161626 0.13131362 0.10447009 0.12140314 0.0039546425 0.020852178
0.14399303 0.027054379 0.037741255 0.12105961 -0.032239467 0.0102749355 -0.0052233445 0.00028099352
0.10195156 0.22266759 -0.021330003 0.1587202 0.03955371 -0.17568581 0.021765701 0.097774535
0.18062998 0.10891657 -0.047821123 -0.0843238 0.1366275 0.13348418 -0.09221218 0.021915782
-0.17982614 -0.23604321 0.22372507 0.13004641 -0.13119335 0.15356919 0.11631757 0.22325219
-0.11277226 -0.15454012 0.095123574 0.08330846 -0.119813375 -0.23164287 0.18981603 -0.065177664
0.19615258 0.041688487 -0.091569655 0.036142744 0.2340057 -0.17163144 0.0072773276 0.067780666
-0.09464395 -0.26674047 0.20153718 0.1585405 -0.04807949 0.15906647 0.0037150257 -0.104641385
0.103061765 0.121780135 -0.07679639 -0.021921577 0.094319604 0.08636223 -0.19735697 0.1685493
-0.009425834 0.061542585 0.08855346 -0.006314443 0.22332273 0.06076914 0.07923468 0.16066565
0.12222822 -0.072621204 -0.064268276 0.12211846 0.044607934 0.12954193 -0.15062194 -0.19678973
0.122339256 0.13934079 -0.0057560396 -0.00441369 -0.086511426 0.11541867 -0.19161034 -0.0005976959
-0.06595957 0.18858722 -0.14546844 0.023931807 0.07312302 0.008804384 -0.060363602 -0.11083004
-0.09010747 0.18199714 -0.004057985 -0.14268331 0.061576497 0.02953899 -0.1611325 -0.07932107
-0.15730168 0.071962185 -0.04449922 -0.048163358 -0.104307696 0.093999304 -0.02110673 0.08744562
0.048582204 0.1345272 -0.049400084 -0.20402373 -0.037524562 -0.043131754 -0.12124367 0.06281312
-0.02537451 0.10947015 0.14014563 0.18549354 -0.04402412 0.16376673 -0.10616634 -0.10833999
-0.14971557 -0.03127731 -0.047584843 -0.09961409 0.038100835 0.021790313 -0.10809559 0.048105896
0.09797809 -0.11622446 0.044332594 0.017209897 -0.09254225 -0.18039088 -0.117094725 -0.10259516
0.14887655 -0.14662309 -0.070971526 -0.012899491 -0.10881523 -0.026301522 -0.16333815 -0.098954625
0.14991407 -0.14183418 -0.11642003 -0.12933135 -0.07642551 -0.096989416 -0.08304544 -0.13141286
0.08971555 0.12772197 -0.04906161 -0.025086064 0.006808046 0.051971156 -0.15158121 -0.10924787
0.070071384 0.13378368 -0.10626376 -0.03566804 0.09388114 -0.05663446 -0.041800056 0.10756388
-0.13110237 -0.018857962 0.056699876 -0.059360635 0.043719556 0.036096163 -0.052876696 0.0908184
-0.10175042 -0.120584026 -0.121956795 0.026420478 -0.07866848 0.06410223 0.020288147 -0.17365324
-0.06796868 -0.10522773 0.052620906 0.12399314 -0.15701818 0.024146281 -0.086703345 -0.058974177

bias f4 [10]
00000000: d015 4bbe 1966 03bd 7da7 2f3c 5544 6b3b
00000010: 29f5 003e 4612 cdbc 9b4c 5d3a e0b4 f0bc
00000020: 3576 78bc 0404 ff3c
-0.1983254 -0.03207979 0.010721085 0.0035898883 0.12593521 -0.025033128 0.0008441896 -0.029383123
-0.0151649015 0.031129844
