models/gpu_train_model20.pth (torch, 587335 bytes, 10 tensors)

weight f4 [32, 3, 5, 5]
000000 66 d0 96 3d a3 7b 47 3e 31 47 35 3d fe 15 48 bd
       0.073639676 0.19480757 0.044257347 -0.0488491
000010 30 20 12 be 22 0b 14 3d 84 45 1d 3e cf 93 33 3e
       -0.14270091 0.03614343 0.1535855 0.17536853
000020 84 28 e6 bd 19 90 df bd 93 61 88 3d e3 24 0b 3e
       -0.112381965 -0.10916156 0.06659236 0.1358829
000030 37 4f c3 3a f7 d8 79 bd 70 66 24 bd d9 76 04 3d
       0.0014900927 -0.06099793 -0.040136755 0.032339904
000040 1d 80 07 be 6d b8 e6 bd ab b1 e2 3c a2 79 61 3e
       -0.13232465 -0.11265645 0.02767261 0.22019055
000050 5d 61 29 be db 56 16 be 75 8b c1 3d 50 95 cd 3d
       -0.16541047 -0.1468157 0.094504274 0.10038245
000060 4d 5b 27 3e c6 d9 06 3e d8 fc 10 3e 3a 56 93 bd
       0.16343422 0.13169011 0.14158952 -0.07194181
000070 1f 3a 2c 3c 48 77 f0 bd 2c 49 33 3e 58 2c 1a 3d
       0.010511904 -0.11741501 0.17508382 0.037639946
000080 52 a4 71 3d d8 f5 12 be 90 8c 63 bd a6 a4 9c 3d
       0.0589946 -0.14351594 -0.055553973 0.07648592
000090 28 a1 59 3d b2 aa 0b 3d b7 60 43 bd 52 b9 ab bd
       0.053132206 0.034098335 -0.047699656 -0.083849564
0000a0 d8 46 cc bd 1f 9c 3e be 34 77 80 bc a9 31 c6 3d
       -0.0997445 -0.18614243 -0.01568184 0.09677441
0000b0 55 16 65 3e 4e 0c de bd 14 ef 41 bd 10 4e 73 3d
       0.223718 -0.10842191 -0.047347143 0.059400618
0000c0 d5 f4 84 3d f7 fd f3 3d bd c5 be 3d a6 10 cd 3d
       0.064920105 0.11913674 0.09315059 0.10012941
0000d0 42 cf 2d be c8 99 5e be 14 00 12 be 7e 9a dc bc
       -0.16973594 -0.2173835 -0.14257842 -0.026929136
0000e0 5e c0 21 3d f0 c2 05 bd a3 47 72 be 1b 61 66 be
       0.039490096 -0.03265661 -0.2366014 -0.2249798
0000f0 d2 79 3b bd 3e ff 87 bc 81 a3 9e bd 16 3d 64 bd
       -0.045770474 -0.016601201 -0.0774603 -0.05572232
000100 bf 69 9c bc 22 8f e6 bd 49 bc 8b bd f0 10 37 be
       -0.019093392 -0.11257769 -0.06823022 -0.17877555
000110 ef 3f f2 3d 87 39 c2 3d 9a 21 43 be 67 87 8f 3b
       0.118286006 0.09483629 -0.19055787 0.004380155
000120 ef 47 d6 bc f4 0c 23 bd 64 6c 26 3c 90 dc 13 3e
       -0.026157347 -0.039807275 0.010157678 0.14439607
000130 0a 7d 1f bd 58 14 23 be 24 a8 11 bd 59 cf c5 bd
       -0.038937606 -0.1592573 -0.035560742 -0.09658689
000140 b5 4f c3 bd 15 b7 47 be 82 47 94 be 05 e4 06 3d
       -0.09536687 -0.19503434 -0.28960806 0.0329323
000150 79 30 1c 3e 82 c5 53 be 2f 7f 37 be a5 31 07 be
       0.15252866 -0.20680812 -0.1791961 -0.13202532
000160 1e 45 53 3e b3 60 b8 3d d5 36 12 bc 20 44 4b be
       0.20631835 0.09002819 -0.008924206 -0.19850206
000170 bb 8e 68 3d 41 41 f2 3d ef dd a6 3d f7 23 38 3d
       0.056776743 0.118288524 0.08147799 0.044956174
000180 d8 fc 49 be 43 80 e4 3d 51 c3 01 3e 08 56 d1 bd
       -0.19725358 0.111572765 0.12672164 -0.10221487
000190 c7 f2 44 3e 1e 3c c1 bd ed b2 b5 bd e2 00 b2 3c
       0.19233237 -0.094352946 -0.08872018 0.021728937
0001a0 78 4f 27 3e 5f d4 3a bd 47 d3 cc bc f8 96 61 be
       0.16338909 -0.04561269 -0.025003089 -0.22030246
0001b0 40 20 1c 3e 16 1c 3e 3e 70 ee e4 bd 8b 82 fe 3c
       0.15246677 0.18565401 -0.11178291 0.031068107
0001c0 58 ac 54 bd e8 90 3f 3e 0f f2 f4 3d 80 19 49 3d
       -0.051922172 0.18707621 0.119602315 0.049096584
0001d0 bf e0 1c be 14 fb 55 3e 32 3e 66 3e 5c ad a5 3d
       -0.15320109 0.2089656 0.22484663 0.08089706
0001e0 6e df bc 3c dd e8 2c 3c 53 c1 34 3e e0 68 66 3d
       0.023055758 0.010553566 0.17651872 0.05625236
0001f0 8b 9c e1 3a 7d d7 19 3e e9 e5 fd bc 8e 6b 6f be
       0.0017212791 0.15023609 -0.030993419 -0.23380873
000200 10 f7 74 bd 80 e9 02 bd b3 3d b6 bc 41 14 87 bd
       -0.05980593 -0.031960964 -0.022246217 -0.0659566
000210 3f fa ec bd ef 60 ae 3d 97 8b 89 3d d1 74 20 be
       -0.11571168 0.08514582 0.06716078 -0.15669562
000220 75 09 71 bb ef 3c 73 3d 24 43 05 3e 41 f1 e7 bc
       -0.0036779318 0.059384283 0.13013893 -0.028313281
000230 76 22 2c be 0e 78 16 be ea 70 98 3d 33 04 4e 3c
       -0.16810021 -0.14694235 0.07443412 0.012574243
000240 3e 8e a3 bc f9 35 01 be 76 c8 b1 bc 9b 6a bd 3c
       -0.019965287 -0.12618245 -0.021702033 0.023122123
000250 6b c7 02 3e fd 73 01 bd fd ae cc bd e6 38 10 3e
       0.12771384 -0.031604756 -0.09994314 0.14084205
000260 4c e8 b0 3d 06 db 00 3c 33 66 a4 3c db 9f 1f be
       0.08638057 0.007864719 0.020068264 -0.15588324
000270 e2 c6 58 3e d3 92 2f 3e bc 25 d3 bd 2e 4c bc bc
       0.21169618 0.17145853 -0.10309932 -0.022985544
000280 c0 2f d9 bd 8e 6f 28 3e 61 5d 32 3e 8e a4 89 ba
       -0.10604811 0.16448805 0.17418434 -0.0010501312
000290 b4 94 19 3e f6 84 87 3d ce f5 59 3e 7f 49 c7 3a
       0.14998132 0.06617157 0.21285173 0.0015204399
0002a0 5b 15 2c 3d bc 89 4f 3e 31 57 b5 3d ec 96 f0 3d
       0.042012554 0.20267385 0.08854521 0.11747536
0002b0 cf 4a f1 3d 8a 57 58 3a e7 6e 20 3e 5b d8 4c bd
       0.11781847 0.00082527904 0.15667306 -0.05001102
0002c0 92 85 3a 3d de 22 36 bd 21 1f 9d bd 92 aa fe 3d
       0.04553754 -0.044466846 -0.07671953 0.124348775
0002d0 36 52 86 bd 1d dc 12 3c 64 65 ca bc 75 16 64 3d
       -0.06558649 0.008963612 -0.02470655 0.05568548
0002e0 5d 68 84 3d 99 47 2d be 83 72 70 3c 69 b1 a0 bc
       0.06465218 -0.16921844 0.014675739 -0.019615846
0002f0 6e c3 20 be 63 71 7a 3d 7b 6d df bd 16 9a 73 bd
       -0.1569955 0.06114329 -0.109095536 -0.05947312
000300 71 b5 00 be 1c f3 b1 bc eb b3 16 3e bd f0 90 bb
       -0.12569214 -0.021722369 0.14717071 -0.0044232295
000310 49 43 df 3c 13 51 20 3d 70 cd 9a 3d c2 a3 10 bb
       0.027253764 0.03913982 0.07558715 -0.0022070264
000320 a4 84 7a bd 2c 5f 87 bd 35 55 35 bd 9c 1b 1d 3d
       -0.061161652 -0.066099495 -0.044270713 0.03835641
000330 1b a8 ec bd cb 9d 56 be 83 a1 d3 3c 41 67 06 be
       -0.11555501 -0.2095863 0.02583385 -0.13125326
000340 1a 1b 2c be c0 8f c7 3c bc 54 88 be 29 df 05 bc
       -0.16807213 0.024360538 -0.26627147 -0.008170881
000350 22 2b c5 bd 55 84 04 be 9e 9a 87 3d 68 7b e1 bd
       -0.096273676 -0.12941106 0.06621288 -0.11009866
000360 9d c0 72 bd 39 76 e4 bd 32 44 c7 bc 02 0b f4 3b
       -0.05926572 -0.11155362 -0.02432451 0.0074476013
000370 3c 73 46 be a0 95 4d 3d 8e 51 1b be 7e 85 70 3d
       -0.19379896 0.05019152 -0.1516783 0.058721058
000380 6c ca 04 3d c9 df b8 3d c4 48 bb bd 44 b4 98 bd
       0.032419607 0.09027059 -0.09144738 -0.07456258
000390 e0 4c 8c bd 1f a6 de 3d 65 9f 6a bc 88 b6 ba 3d
       -0.068506 0.10871529 -0.014320229 0.09116846
0003a0 6a 12 af bd 5e b5 9e 3c 54 7c 94 3d 8d 15 e9 3d
       -0.08548434 0.019373592 0.07250276 0.113810636
0003b0 57 eb 3d bc 41 c6 a8 3d 43 3e 88 bd 27 5e bb 3d
       -0.011591754 0.08240939 -0.066525005 0.091488175
0003c0 73 f2 0c be 27 29 04 3e 44 d5 cc 3d c4 3b 54 3e
       -0.13764362 0.12906323 0.10001615 0.20725924
0003d0 a1 36 b7 3d 94 2d ba bb d8 4d b1 bd 39 1f dc 3d
       0.089459665 -0.005681703 -0.08657426 0.10748143
0003e0 6e 9c e9 3d b0 c4 59 bd 76 b7 aa bd 52 24 2e be
       0.1140679 -0.05316609 -0.08335774 -0.17006043
0003f0 ad 1f 5c 3d 49 6c a0 bb 94 34 c2 3d 13 8e 0b 3e
       0.053741146 -0.004895721 0.09482685 0.13628416

bias f4 [32]
000000 fb 55 a3 3d f4 8c 70 3d 4f be fc bc b8 d1 39 be
       0.07975384 0.058728173 -0.030852465 -0.18146408
000010 4a 89 b2 bd e5 5a ec 3d ff 3d 43 3e 4d 67 02 3e
       -0.08717592 0.11540774 0.19066618 0.12734719
000020 6a 64 95 bd 78 99 c5 3c 94 95 38 3e 95 46 a3 be
       -0.07294543 0.024121031 0.1802581 -0.31889787
000030 67 31 9f be 3f e9 cf 3d 56 b7 03 be 62 41 95 be
       -0.31092378 0.1015191 -0.12862906 -0.29151446
000040 eb 1b 69 be e8 3f 72 3d 91 74 5d 3e 7c 1e 34 be
       -0.22764556 0.059142977 0.21626498 -0.17589754
000050 2a ac 0c be 18 a5 b2 be aa 71 08 bd 49 3c e8 bd
       -0.1373755 -0.34891582 -0.033311523 -0.113396235
000060 07 30 73 bd 47 b6 29 3d bb 35 4a bd fa 62 17 be
       -0.059371974 0.0414336 -0.049367648 -0.1478385
000070 44 28 8d bd 35 c9 36 bd af 0b 7b 3d e9 4a 85 3d
       -0.06892446 -0.04462548 0.06129044 0.065084286

weight f4 [32, 32, 5, 5]
000000 14 13 db bc 70 01 61 3c fb 47 51 3c 52 15 af ba
       -0.026742496 0.013733253 0.012773509 -0.0013357794
000010 10 a0 f6 3c 9e a2 1a bc e6 be 44 bc 43 2e 46 3d
       0.03010562 -0.009438185 -0.012008404 0.048383962
000020 29 95 a4 3c 84 b6 76 3d 0c 2e 02 38 64 32 ed 3c
       0.020090656 0.060232654 3.10373e-05 0.028954692
000030 04 30 7a 3d b1 cd e4 3c cc 5a fa b9 74 9b de 3b
       0.061080948 0.027930113 -0.00047751365 0.006793434
000040 b6 d4 35 3d 84 7d 85 3d 09 8b 47 3d 98 37 cb 3c
       0.04439231 0.06518081 0.04871658 0.024806783
000050 1d b6 b0 3c cb b8 d4 3c 82 3a 7d 3c 4d 8e be 3c
       0.021571213 0.025967022 0.015455844 0.023261214
000060 5a 75 f4 3c 35 bf f6 bb e3 5b 05 bd c9 3d dc bb
       0.029841114 -0.007530118 -0.032558333 -0.0067212326
000070 a2 6f b4 3c 78 b3 24 3d ce 25 68 3c aa 9a a1 3b
       0.022025887 0.040210217 0.01416917 0.0049317675
000080 b0 6c 88 bc b7 5a 33 3c d4 d3 6b 3d 45 78 03 3b
       -0.016653389 0.010946921 0.057575062 0.00200607
000090 6a f3 d6 bb 7a 0e f6 3c 88 36 7f 3d 31 28 88 3d
       -0.006559779 0.0300362 0.062307864 0.06648291
0000a0 88 0f 89 bd 3f 0d 42 bd 95 c2 d8 3c b9 9e 3b bb
       -0.066924155 -0.047375914 0.026459971 -0.0028628542
0000b0 60 ed 15 3c 78 f0 d2 bc 79 5e 2e bd 4a 58 37 3d
       0.009150833 -0.02574943 -0.042570565 0.044761933
0000c0 d2 cb be 3c 34 04 f2 3c 63 35 58 3c ac 96 02 bd
       0.023290548 0.02954302 0.013196322 -0.031881973
0000d0 40 5a e2 bc 48 7a f0 3b 6a 3a 8b bc 2c 86 04 3c
       -0.027630925 0.007338796 -0.016995627 0.00808863
0000e0 6b 68 97 bd a1 ce 24 ba 22 b0 0a 3d e1 e0 ff bb
       -0.07392963 -0.00062868936 0.03385938 -0.00780879
0000f0 3a 0a 85 bd 9f 97 0b bd 8c 04 2c bd b1 4e 7b bc
       -0.06496091 -0.034080144 -0.041996524 -0.015338586
000100 13 61 89 bc f0 62 e7 bc fa 96 7b bd 44 0c 23 bd
       -0.016769921 -0.02824542 -0.06142328 -0.03980662
000110 6a 3a 02 3d 5f 9c d4 bc 59 fc c8 bc 82 e2 da bb
       0.03179399 -0.02595347 -0.024534391 -0.006679834
000120 eb a7 63 39 d7 84 5a bc f4 64 91 3c 81 e8 0f bd
       0.00021710961 -0.013337336 0.017748334 -0.035133842
000130 04 de e9 3b b1 4e 5e 3c 54 aa 9c 3c 1e f9 10 3b
       0.007137062 0.013568566 0.019124188 0.0022121142
000140 8f 0b be 3a e4 47 83 3a 54 4b 9d bc 4a 86 32 bc
       0.0014499294 0.0010015932 -0.019200958 -0.010896275
000150 93 8a 94 bc 7f f9 22 bd 59 2a 89 bc d7 d0 6c bc
       -0.018132484 -0.03978872 -0.016743826 -0.014454088
000160 e2 39 a8 3c c6 c6 af 3c 38 79 a7 bc 4f b4 15 bd
       0.020535413 0.021457087 -0.020443544 -0.03654891
000170 2a ee 42 bd 3c 89 d4 bb 6e 5f 30 bc 83 1a 8f bc
       -0.047590412 -0.006486086 -0.01076494 -0.017468696
000180 9b d3 ff bb 4e 4f 10 3c e0 8d de 3c 52 db cc 3c
       -0.0078072078 0.00880797 0.02716726 0.025006924
000190 ed 32 f9 3c 57 44 38 3d 95 7e e4 bc 06 e4 97 3c
       0.030419791 0.04498705 -0.02789239 0.018541347
0001a0 1f f6 ea bc b4 6d 73 3c 53 f4 07 3d 21 2c 24 3d
       -0.028681813 0.014857698 0.03319199 0.040081147
0001b0 a4 a0 97 39 45 7c db 3b 30 96 e2 3b 01 66 59 3d
       0.0002892065 0.0066981637 0.0069148764 0.053075794
0001c0 1e 28 aa 3b 7c 5c 89 bb 4f cc e0 3c 0f f8 c8 3c
       0.0051927706 -0.004191933 0.027441172 0.024532346
0001d0 7b d9 df 3c 1c 77 86 bc 5c 04 3a bd 2b 71 26 bc
       0.027325382 -0.016414218 -0.045414314 -0.010158817
0001e0 93 21 7b bc a3 eb 56 3c ad 7c d0 bc 4b 71 35 bd
       -0.015327829 0.013117704 -0.025450075 -0.044297498
0001f0 a4 16 3a bc 6c cf 54 3d 04 da c6 bb da 12 be 3c
       -0.011357937 0.051955625 -0.00606847 0.023202349
000200 32 39 3a bb 4b 27 90 3b 36 b6 39 3d 16 29 bc 3c
       -0.0028415439 0.0043992153 0.045339786 0.02296881
000210 3c 9a ef 3c 3a 99 ae 3c a6 3f b3 3b 99 9f 1b 3d
       0.02924835 0.021313298 0.005470234 0.037994
000220 cf 34 74 3c 5f d1 1b 3d 2e a2 ed 3b b1 bf ca bb
       0.014905169 0.03804147 0.0072519993 -0.006187402
000230 de b4 4f 3d d7 22 bb 36 c7 84 ad 3b 2f 6e 02 bd
       0.050709598 5.57709e-06 0.0052953693 -0.03184336
000240 e4 70 30 3c 7b f7 e6 3c c3 da cd 3c 5a 9c 1d 3c
       0.010769103 0.02819418 0.025128728 0.009619797
000250 cd 15 cf bb 41 b7 02 bc 14 a1 41 bc 22 c0 e1 3c
       -0.0063197375 -0.007978261 -0.011818189 0.027557436
000260 94 88 af 3c f7 75 93 3d 1c 53 10 3c 07 47 38 bc
       0.02142743 0.072002344 0.008808877 -0.011247403
000270 78 4f 5b 3d cd f4 48 3d b1 3f 93 3d f0 4a 4e 3d
       0.053542584 0.049061585 0.071898825 0.050364435
000280 f6 68 49 bc 73 b1 87 3d d1 26 0f 3d b4 30 3a 3d
       -0.012293091 0.06625643 0.034949128 0.045456603
000290 b9 b4 9d 3d eb c2 b3 bc 39 6d 0c 3d 10 06 00 3d
       0.07700486 -0.02194353 0.03428385 0.03125578
0002a0 a1 6d 8c 3d bf e2 44 3d 1b 0c 10 bb 11 91 0d bd
       0.068568476 0.048067804 -0.0021979872 -0.034562174
0002b0 db a8 26 3c 91 77 12 bd 09 35 65 bc 18 ea 4a bb
       0.010172094 -0.03575856 -0.013989695 -0.0030962285
0002c0 f9 e4 88 3c 1e d3 07 3c ec 81 f4 3c 46 5e db 3c
       0.016710745 0.00829008 0.029847108 0.026778352
0002d0 dc 25 1b 3d f5 58 83 3c d5 51 60 3d 2f 81 43 3d
       0.037877902 0.016033629 0.05476554 0.04773062
0002e0 85 fc c8 3c 96 64 2e bb 49 60 c4 3c 4d ad df 3c
       0.024534473 -0.0026610247 0.023971694 0.027304316
0002f0 16 84 87 bc 17 7c d1 3b cd c8 19 3d aa cf b9 bb
       -0.016542476 0.0063929665 0.037545014 -0.0056705074
000300 b9 4c 70 bc ae 89 ae bc 7a 58 82 bc 27 cb f5 bb
       -0.01466673 -0.021305885 -0.01591133 -0.0075010243
000310 85 d0 3f 3c ab 43 59 bd 01 a3 1d bd 62 05 2a bd
       0.01170743 -0.05304305 -0.03848553 -0.04150904
000320 6f 23 3c 3b 79 36 68 bc f6 e0 3d 3b 35 84 70 bc
       0.0028707644 -0.014173144 0.0028973198 -0.014679958
000330 15 a9 29 3c 60 ea b1 bc 07 ad 9e bc 73 73 b4 bc
       0.010355254 -0.021718204 -0.019369615 -0.022027707
000340 9c 3a 9f 3c d2 a5 74 bc 94 be f2 3c 39 58 26 3c
       0.019437127 -0.014932113 0.02963189 0.01015287
000350 4a 8d 03 bb 12 f1 bd bc 36 4f 03 3d e8 8a 28 3b
       -0.0020073229 -0.02318624 0.032057963 0.002571756
000360 2f dc 0e 3d e0 16 e4 3c 25 01 84 3c e0 64 4d 3b
       0.034877952 0.027842939 0.016113827 0.0031340644
000370 9b 5c ff ba c0 f2 21 bd b3 f4 3f 3c 1e 35 aa bb
       -0.0019482555 -0.039538145 0.011716056 -0.0051943203
000380 98 b0 33 bd 16 f8 bf 3c a3 b1 dd bc f7 c7 4b bc
       -0.043869585 0.023433726 -0.027062243 -0.012437812
000390 27 e8 3f bd 0f 78 d7 bc f6 84 7c bb ab 92 46 bd
       -0.046852257 -0.026302366 -0.00385314 -0.048479717
0003a0 3a 82 59 bc 8d 25 71 bd 2e f1 d5 bc 63 23 36 3b
       -0.013275677 -0.0588737 -0.02611598 0.0027792088
0003b0 69 74 6c bd 30 5e 33 bd 62 30 db 3b 33 15 a7 bc
       -0.057728205 -0.043790996 0.0066891173 -0.02039585
0003c0 19 be b4 3c fc 08 14 bd 02 73 2c bc d0 80 bb 3b
       0.022063302 -0.03614138 -0.010525467 0.0057221428
0003d0 82 be 77 bc 55 0b bf bc 21 8e 61 bd ae 6d 04 ba
       -0.015121104 -0.023320833 -0.055067185 -0.0005051744
0003e0 73 8d 48 3c d4 b6 0a bd a0 1c 11 3d e4 17 a5 39
       0.012240755 -0.033865765 0.03542769 0.00031489052
0003f0 ad 7d 58 bc 8d 25 ff bb 29 a4 27 3d 56 cf 52 bb
       -0.013213557 -0.007786459 0.04092804 -0.003216704

bias f4 [32]
000000 47 61 81 3c 70 2a 4f be d4 a6 1e 3d e8 9f 9a bc
       0.015793456 -0.20231032 0.03873332 -0.018875077
000010 91 dc dc bd 65 dc 38 3d a0 13 fb bc 74 bf 04 be
       -0.10784257 0.04513206 -0.030649006 -0.12963659
000020 4a 05 85 3c a9 ff b8 bd 3d 75 ec bd ac c9 a4 3d
       0.016237874 -0.09033138 -0.11545799 0.08046278
000030 10 3e c6 bd 7d a6 69 bd 52 e4 f4 bd 38 08 de bd
       -0.09679806 -0.05704354 -0.11957611 -0.10841411
000040 b3 ca 77 bd 75 92 fb bd 0b df 4b bd 8e 8d 14 be
       -0.060496043 -0.12283794 -0.049773257 -0.14507124
000050 e3 b5 89 3b 88 07 a1 bd 44 48 90 bd ca f7 25 3c
       0.004202591 -0.078627646 -0.070450336 0.010129878
000060 3d 53 0d 3d 23 89 13 3d a1 54 44 be aa 11 5d be
       0.03450321 0.036019456 -0.19172908 -0.2158877
000070 69 7d 37 3d 32 96 df bd 80 89 46 bd da 43 29 be
       0.044797335 -0.10917319 -0.048470974 -0.1652979

weight f4 [64, 32, 5, 5]
000000 9b 7f f3 bc eb 54 e5 bc 8f 7d 26 bd 44 1c 40 bd
       -0.029723933 -0.027994594 -0.040647086 -0.046901956
000010 d5 8e 66 bc dd 12 16 3d da e9 90 3c 1b cc 97 bc
       -0.01407214 0.036639083 0.017689634 -0.018529942
000020 d1 36 b6 bc 73 22 47 bc 34 be e6 bc 71 8b 87 3c
       -0.022242935 -0.012154209 -0.028166868 0.016545983
000030 d8 33 93 bc a0 b3 7a bc 21 58 0a 3c 8a 44 42 3c
       -0.017969057 -0.015301615 0.008443863 0.011857161
000040 9a 93 09 bd 16 b1 3a 3c 1a c8 f6 3a 6d a6 91 3d
       -0.03358803 0.01139476 0.0018827945 0.07111821
000050 fd e0 07 3c 22 c2 25 3d f6 ce 87 39 d4 2a 02 bd
       0.0082933875 0.040468343 0.00025903404 -0.031779125
000060 a8 f6 a2 3c 1e bb ac 3d a0 b7 1a 3d db e0 33 bd
       0.019893005 0.08434127 0.037772775 -0.04391561
000070 e7 d0 0b bd a2 b8 3f bd 69 3d 28 3d a2 98 91 bb
       -0.03413477 -0.04680694 0.04107419 -0.004443244
000080 34 ae 31 3b ff 1f c5 bc e5 99 a1 bc a3 ca a3 bc
       0.002711189 -0.024063108 -0.019726703 -0.019994086
000090 d4 eb 50 3c fb 1a 8b 3c a9 88 1e 3d 42 7a 29 3d
       0.012751538 0.016980639 0.038704548 0.04137636
0000a0 d6 f8 ae bb 5a 50 f5 3b b7 d0 95 3a ce 81 04 bc
       -0.005339722 0.0074863853 0.001143 -0.0080875885
0000b0 88 15 03 bd a7 d5 82 3a ae 5d ed 3c f0 88 77 3d
       -0.032002956 0.0009981886 0.028975334 0.06043333
0000c0 9d e4 b7 bc 41 78 96 bc be 8c f5 3c 35 f9 9b bc
       -0.022447878 -0.018367888 0.029974338 -0.01903973
0000d0 23 24 f1 bc 52 f5 41 bd 67 3a d6 3c 21 d0 14 3d
       -0.029436177 -0.047353096 0.026150895 0.0363313
0000e0 2a e5 f3 3b 8f d9 45 3d 42 c3 61 3a c2 19 c9 bc
       0.00744309 0.048303183 0.00086121645 -0.024548415
0000f0 be 7c 9f 3c a0 54 37 3c 8b 91 47 bb b8 f8 0d 3d
       0.019468661 0.01118961 -0.003045174 0.034661025
000100 30 4d 03 3d 11 ad da bc 65 2a ba 39 80 db 33 3c
       0.032056034 -0.026693853 0.0003550827 0.010977626
000110 2c 94 38 bc 5f 79 bb 3b e2 8e 3a bd 84 34 a3 3c
       -0.011265796 0.0057212557 -0.04554642 0.019922502
000120 5c da 20 3d 51 96 07 bd b3 94 ec bc 72 40 3b bc
       0.039270744 -0.033102337 -0.028879499 -0.011428939
000130 6d a8 96 3c 34 10 45 3c 2b 64 7d 3c 70 e3 f2 3c
       0.018390859 0.012027789 0.015465776 0.029649466
000140 05 28 d8 3c 75 a3 86 bb de 82 6d 3c 6e fc cb ba
       0.02638627 -0.004108841 0.014496533 -0.0015562901
000150 71 b9 9b bc 75 ba 01 3c e5 fb 08 3b 25 fc df bc
       -0.019009324 0.00791799 0.0020902094 -0.027341912
000160 55 37 b6 bb 73 5a 4b bc 91 b9 1a 3d 71 ad 00 3d
       -0.0055607953 -0.0124117015 0.037774626 0.031415407
000170 bd 03 c4 3c 6d 4c f0 3b 1a cf 00 3c 6f 08 1a bd
       0.023927564 0.0073333294 0.007861877 -0.0376057
000180 eb c1 09 bd 3a f2 0a 3c 73 e1 06 bd c0 fa 5a 3c
       -0.0336322 0.008480603 -0.03292985 0.0133654475
000190 fb 30 b8 ba fb 2c 21 bc 3c 67 3d bc 04 0f c7 bc
       -0.0014052683 -0.009837384 -0.0115602575 -0.024299152
0001a0 57 44 14 bd 31 a1 5c 3d b3 df 0b bc 1c 4d 09 3c
       -0.036197986 0.05386466 -0.008537221 0.008380201
0001b0 61 a5 91 3c a5 6b 12 3b 84 44 38 3d 82 18 fd 3a
       0.017779054 0.0022341993 0.044987217 0.0019309672
0001c0 dd 85 f8 bc 1a 7a cd 3c 2a 21 d7 bc f6 ef f3 bc
       -0.030337268 0.025082637 -0.026260931 -0.029777508
0001d0 79 a0 74 bc 9a 2f 35 3c 39 0c 32 3d 9f 43 a3 bc
       -0.014930838 0.011058712 0.043468688 -0.019929705
0001e0 2f 79 0f 3c 74 08 cb 3b df a8 8b 3b b8 a3 be 3b
       0.00875692 0.006196076 0.0042620744 0.0058178566
0001f0 0d c9 99 39 a1 75 2b bb 99 99 a1 bb ed 0c 47 bd
       0.0002933223 -0.0026162642 -0.0049316403 -0.04859631
000200 52 cd 73 bd 77 1e f9 3a 45 5d 46 3b 04 da 03 bc
       -0.05952198 0.0019006272 0.0030267995 -0.008047584
000210 bb 94 15 bd 0a 64 7c bc a4 64 82 bd b5 3e c7 bc
       -0.036518794 -0.015404711 -0.06366852 -0.024321893
000220 6e 79 a7 ba a2 83 b9 bc 6b 10 97 3c cb 64 d4 3c
       -0.0012777278 -0.022645775 0.018440446 0.025926968
000230 0f 81 02 bd c1 6a 41 bd cf 93 90 3c ef af 1d bc
       -0.03186136 -0.04722095 0.017648606 -0.009624465
000240 c5 40 b9 bc 08 ca 45 bd 8c 00 0d 3d 64 13 a0 3c
       -0.022613892 -0.048288375 0.03442435 0.019540496
000250 aa 10 1d 3d 4e 45 1a 3d 86 c8 12 3d 5a 7f 95 ba
       0.03834597 0.03766375 0.035835765 -0.0011405752
000260 0e 67 d3 3c a2 22 fa 3b 14 de 9a 3c 7c cd 73 bc
       0.025805976 0.007633523 0.018904723 -0.014880534
000270 85 ae 1d bd 75 6b 4d 3d 39 0e 36 3d 5f 18 b1 bb
       -0.038496513 0.050151307 0.044447158 -0.0054045166
000280 09 0a a9 bc ed cd a5 3c c5 8b 60 3d d8 2f 8a 3b
       -0.020634668 0.020239795 0.054820795 0.004217129
000290 24 b7 b3 3b 43 b7 3d bd 51 c6 fd bc 5b 01 07 bd
       0.0054844785 -0.04631735 -0.030978354 -0.032960277
0002a0 5f 93 3f bd 82 b4 89 3d dc 43 0d 3c 91 d9 97 3a
       -0.046771403 0.06723882 0.008622136 0.0011585226
0002b0 dd 64 38 3b e4 b4 60 bc 36 6d 8b 3c 11 17 a4 bc
       0.002813629 -0.013715003 0.01701985 -0.02003053
0002c0 cd f0 5c bb ea d9 f4 bb 97 ea 35 bb 78 8e b1 bc
       -0.0033712864 -0.0074722664 -0.0027758235 -0.02167438
0002d0 53 d2 48 bc bb 30 d2 bc 99 b6 aa bc 82 44 6e bb
       -0.012257176 -0.025658002 -0.020839022 -0.0036356752
0002e0 0d 04 c7 3b 65 76 97 3c e4 63 44 bc c1 f6 fb bc
       0.006073481 0.018489072 -0.011986706 -0.03075731
0002f0 ee ff ec 3c 6b ab 2b bc bd a5 95 3c 8b ad 03 3d
       0.02893063 -0.010477881 0.018267507 0.032147925
000300 aa 3f 45 3c 76 df 9f bc a1 6a ef 3c 74 2c 75 bc
       0.0120391045 -0.019515734 0.02922565 -0.014964212
000310 96 78 1a bd 08 87 69 3b 61 88 ae bc 6e b9 f8 3c
       -0.037712656 0.0035633463 -0.021305265 0.030361857
000320 13 3e bb bb 5a d4 16 bc 8a de 21 bb a8 83 8a bc
       -0.005714187 -0.009205902 -0.0024699294 -0.016908482
000330 62 88 30 bd e6 78 9e 3c 05 e1 73 bc 6b 3b f4 bc
       -0.043098815 0.019344758 -0.014885192 -0.029813489
000340 78 59 35 bc 7a 75 d2 bc 65 79 cb 3c fe 19 93 bc
       -0.011068694 -0.025690783 0.024838159 -0.01795673
000350 1d dd cb bc 37 1d 1a bd a3 13 9c 3c b3 6e 00 bc
       -0.024885708 -0.037625518 0.019052332 -0.007838893
000360 b0 6d 03 bc 7c e3 51 bc 54 49 03 bd 73 e0 d1 bc
       -0.008021757 -0.012810584 -0.032052353 -0.025619721
000370 6f 28 cb bc 9d 0f ea bc 25 96 fa 3c 91 05 cd 3c
       -0.024799554 -0.028571898 0.030589173 0.025027068
000380 08 16 ac 3c eb 6f 6d bb 0e 29 0c bd fc 16 ea bb
       0.021006599 -0.0036230038 -0.03421884 -0.007143853
000390 f0 fa 00 bd f7 f1 b9 bc be bc c4 bc 0a 89 c5 bb
       -0.031489313 -0.022698386 -0.02401578 -0.006028299
0003a0 a5 cb 02 bc 1f 4b 04 bd 7d 67 86 bb f0 4d a1 bc
       -0.007983123 -0.032298204 -0.0041016922 -0.019690484
0003b0 eb 8c d6 bc cc 5e a8 ba 96 af 27 bc 7a cc cf bc
       -0.026190242 -0.0012845634 -0.010234734 -0.025366057
0003c0 81 87 f7 3b 96 8f 02 bd 3a e3 32 bd cb 2a 20 bd
       0.007553995 -0.031875215 -0.04367373 -0.03910331
0003d0 a5 42 b9 3c 88 9b 33 bd 11 30 93 bc bc 82 be 3b
       0.022614786 -0.043849498 -0.017967256 0.0058139246
0003e0 41 f0 a9 b9 9b bb 03 3d 12 ae 78 bc 58 a6 39 bd
       -0.00032413195 0.032161336 -0.01517822 -0.045324653
0003f0 c4 f6 c6 bc 22 66 3b bd 8d b0 00 3c fb 57 10 3b
       -0.024287589 -0.0457517 0.007854593 0.0022025097

bias f4 [64]
000000 99 3d 58 bd 19 f7 61 bd 3a b8 67 bd a4 61 c6 bd
       -0.05279312 -0.05516729 -0.056572177 -0.09686592
000010 7b 19 83 bd 93 a8 76 3a 03 a4 9c bd 8d 40 92 bd
       -0.064013444 0.0009409275 -0.0764847 -0.07141218
000020 c1 6a a4 3c ee 3b 7e bd a6 b6 28 bd e1 00 83 bd
       0.020070435 -0.062068872 -0.041189812 -0.06396652
000030 36 6a 82 bc 91 37 16 bd c2 04 a1 bc 8c ee 8b bc
       -0.015919786 -0.036674086 -0.019655589 -0.017081521
000040 14 02 79 bd e1 dd 86 ba 13 3d c3 bd 3a b6 c1 bd
       -0.060792997 -0.0010289514 -0.09533133 -0.09458585
000050 d8 62 25 bd d0 cb f3 bd 8d bb 60 bc cc d7 41 bd
       -0.040377468 -0.119041085 -0.013716591 -0.04732494
000060 27 57 ab bd b6 b9 f2 bd aa 70 4e bd 0c 14 c0 bd
       -0.08366232 -0.11851828 -0.050400414 -0.09378824
000070 a5 03 34 bd 62 81 50 bd 89 77 61 bd 5e c8 a9 3b
       -0.04394879 -0.05090464 -0.05504564 0.0051813563
000080 fb 64 b8 bb 38 f1 9a bc 64 14 d4 bc 2b f2 d7 ba
       -0.005627272 -0.01891385 -0.02588863 -0.001647537
000090 85 11 86 bd d8 93 bf 3c 8a 08 1d 3d 47 32 30 bb
       -0.0654631 0.023385927 0.03833822 -0.0026885436
0000a0 80 66 b3 bd d6 66 c5 bd aa b3 96 bd be b5 b1 bd
       -0.08759785 -0.09638755 -0.07358487 -0.08677243
0000b0 03 fe b9 bc 51 6e 86 3c 1f d0 d2 bc 61 15 47 bd
       -0.02270413 0.016410025 -0.025734005 -0.048604373
0000c0 87 88 17 bd 13 b6 32 bd 1d 98 02 3c 7e b5 cc bd
       -0.036995437 -0.04363067 0.007970837 -0.099955544
0000d0 9e 02 ca bd 91 61 a8 bc 24 d2 0f 3b 16 b9 fb bd
       -0.098637804 -0.020554336 0.0021945322 -0.12291162
0000e0 bd 98 78 bd aa 46 4e 3b 45 5d 21 bd b1 bf 96 bd
       -0.060692538 0.0031475225 -0.03939559 -0.07360781
0000f0 39 80 4e bd e0 d0 3e bd 16 29 fc 3c 59 07 b0 b9
       -0.05041525 -0.046585917 0.03078131 -0.0003357481

weight f4 [64, 1024]
000000 2c e3 29 3b 21 e7 e9 bc 00 37 02 3b 13 ac b4 3c
       0.0025922759 -0.028552594 0.0019869208 0.022054708
000010 7a a4 97 3c d9 67 73 3b 04 25 c3 3b 01 c3 93 bc
       0.018511046 0.0037140755 0.0059553403 -0.018037321
000020 5a 36 08 3d 90 7b b1 3c e4 e1 42 3c aa 7f c9 3c
       0.03325496 0.021665365 0.011894677 0.024597008
000030 e6 ff b9 bc 1a 6e ef bc 5e 03 52 bc bb 6d 09 bb
       -0.02270503 -0.029227305 -0.012818186 -0.0020969945
000040 7d 5e e7 bc 2d 18 b5 bc ef 86 92 bc 2d 03 d5 3c
       -0.028243298 -0.022106254 -0.017886607 0.02600249
000050 d0 a2 f1 3a b1 9e 9d 3b ed 9c 26 3c 70 48 8b 3c
       0.0018435363 0.0048101773 0.01016925 0.017002314
000060 19 35 88 3b 31 a3 80 3c 08 66 be bc 9d 48 1c bc
       0.0041567204 0.015702816 -0.023242012 -0.009538797
000070 9b e8 2a bd 61 f8 c0 bc dd 7e 27 3d cc 02 30 3d
       -0.041725736 -0.023555936 0.04089247 0.042971417
000080 c6 ae 59 3c 89 76 8a bd 52 f3 f5 bb d9 20 32 bc
       0.013286298 -0.0676089 -0.0075058127 -0.010872089
000090 c5 84 b0 bc c4 94 36 3b c0 5e f7 bc 82 83 49 bc
       -0.021547684 0.0027859667 -0.030196548 -0.01229942
0000a0 4a a5 e5 3c 72 b7 df 3c 96 40 2e 3d d2 bb 1b 3d
       0.028032918 0.027309153 0.042542063 0.038020916
0000b0 2b 97 e9 bc 38 7a 10 bc 1e de e9 3b d8 f8 6b 3d
       -0.028514465 -0.008818202 0.007137074 0.057610363
0000c0 8d e1 f1 bb b6 47 45 3c 9d 6c 82 3b 93 b7 2a bd
       -0.007381624 0.012041023 0.003980233 -0.041678976
0000d0 f8 24 62 3d 22 6b c5 3c 8f b6 7d 3c 9d 43 5f 3d
       0.055211037 0.024098936 0.01548542 0.05450784
0000e0 41 ca 4a bc 80 34 5e 3d 28 38 aa 3c 06 fa 1e 3d
       -0.012377323 0.054249287 0.02077873 0.03881266
0000f0 ec ac d8 3c 02 b6 5f bb e8 05 9c bc 15 94 c1 ba
       0.026449643 -0.0034135585 -0.019045785 -0.0014768863
000100 99 4e 9d 3b a5 f3 35 bc 4f 72 53 3c b3 e6 0c 3c
       0.0048006293 -0.011105453 0.012905671 0.008599925
000110 ba 81 32 3d 76 ca 1b 3c d0 9d 9a 3c ea 8e 17 bd
       0.04358075 0.00950872 0.018874079 -0.037001528
000120 bb c6 bc bc 75 c7 b9 bc 17 88 09 3c 88 42 d0 bb
       -0.02304398 -0.022678116 0.008394263 -0.0063555874
000130 e6 43 33 3d e2 59 6f bb 29 a1 9c 3c 94 36 8f 3b
       0.043765925 -0.003652208 0.019119816 0.00437052
000140 81 7f 89 bb d0 22 13 3d 1a a0 f4 3c f7 02 dc 39
       -0.004196108 0.03592187 0.029861499 0.0004196388
000150 b1 89 bd bc 2a 93 80 bb 0d 05 be bc 6c c7 d2 3c
       -0.023136945 -0.0039237933 -0.023195768 0.025729857
000160 df 11 a6 b9 16 a7 f8 b9 97 83 c9 bb 35 83 28 bc
       -0.00031675302 -0.00047426735 -0.00614972 -0.010285188
000170 ef 0b 1c 3c bf 9d c9 bc 62 d4 0c bb ef d3 06 bd
       0.00952433 -0.024611352 -0.0021488895 -0.03291696
000180 4e df 2f 3d b7 fd 2f bc 89 8e 9d bc 8b 7b 43 bc
       0.04293757 -0.010741643 -0.019233005 -0.01193131
000190 09 e9 f6 3c 18 da ce 39 48 ec 84 bc 9f ae bc 3b
       0.030140417 0.00039453874 -0.016225949 0.005758121
0001a0 f5 23 f7 bc 01 ed a2 bc 55 9f d7 3c 9a 4f 39 bc
       -0.030168513 -0.019888403 0.026321093 -0.011310482
0001b0 f8 72 56 3c c3 0a c5 3b b4 01 5a 3c 83 20 a3 3c
       0.013088934 0.006013246 0.01330607 0.019912964
0001c0 50 18 99 bc 56 a1 52 3c a8 98 af bc 56 ba 88 3c
       -0.01868835 0.012855848 -0.021435097 0.016690414
0001d0 fa e8 03 3d 8d 30 04 bd 16 4a b9 bb 51 3c 22 3c
       0.032204606 -0.032272864 -0.0056545837 0.009902076
0001e0 ec d4 c2 3c 02 0f f2 bc 89 42 c3 3a df 5e 44 bc
       0.02378317 -0.029548172 0.0014897148 -0.01198551
0001f0 35 d0 91 bc 02 bf c5 b9 17 f0 29 3c 40 57 be 3c
       -0.017799476 -0.0003771708 0.010372183 0.023234963
000200 aa 53 cd 3c e8 c9 8a 3c bc 00 ca bc a5 44 09 3d
       0.025064308 0.01694198 -0.024658553 0.03351273
000210 51 30 97 bc f5 74 65 bc 4f 19 e9 bc aa 0e f1 3c
       -0.018455656 -0.0140049355 -0.02845445 0.029425938
000220 fe 32 12 3d 1f 4f 8f 3c 33 1e ab bc a3 64 04 3c
       0.03569316 0.017493783 -0.020888424 0.008080634
000230 0f 88 a1 bc af 0d 96 bc 0c 51 52 bc c7 98 b3 bb
       -0.019718198 -0.018317072 -0.012836706 -0.005480859
000240 57 12 cf bc 91 f7 16 b8 05 3f 0f bd 8c 88 8a 3c
       -0.0252773 -3.599335e-05 -0.03497221 0.016910814
000250 19 0c 9e bc 0a 0a 2a bc cc d2 06 bc 4c 37 1f 3c
       -0.019292878 -0.01037837 -0.008228969 0.009717774
000260 e1 1d e1 3a 03 fc d0 3c 72 e2 d5 3c 96 ab 1b 3d
       0.0017175042 0.025510794 0.026108954 0.038005434
000270 7e 16 ec bc a8 91 ff bc 9e 22 0c 3d 7f 16 09 bc
       -0.028819319 -0.031197384 0.0342127 -0.00836718
000280 3c ff e8 3c f3 7d e1 3b bd 49 06 bc d5 4a e5 3b
       0.028442018 0.0068814694 -0.0081962915 0.006997446
000290 13 c6 11 bd 11 a2 e0 bc 8a 50 01 bc fa 8e 13 bd
       -0.03558929 -0.02742103 -0.007892737 -0.036025025
0002a0 93 6a 8c 3c c6 2f b3 3c a6 5b af 3c 20 ae 77 bc
       0.017140662 0.021873366 0.021406006 -0.015117198
0002b0 d7 74 3d bc 4d d9 f0 3b 3a 0d 17 3d 50 fe e9 3b
       -0.011563501 0.007350123 0.03687785 0.007140912
0002c0 1d 6d a1 3c df 76 59 3c 5c bf 5e 3c 05 6b de 3a
       0.01970535 0.01327297 0.013595428 0.001696915
0002d0 ab 1c b6 bb f6 cb db 3c 47 88 d1 3c 92 5b b6 bc
       -0.0055576167 0.026830655 0.025577677 -0.022260461
0002e0 d3 d4 92 3b cd ad 66 bd 83 68 c5 bc 33 76 67 3c
       0.004480937 -0.056318093 -0.024097687 0.014127302
0002f0 60 c4 d1 3c 56 ef 99 bc 02 84 0a bb d4 bb 11 bd
       0.025606334 -0.018790882 -0.0021135812 -0.035579517
000300 ae 16 11 3c eb b0 d3 bb 16 dc 6f 3d b8 81 0b 3d
       0.008855505 -0.0064602992 0.0585595 0.034059256
000310 2c c3 a3 3c 2d 15 22 bd a5 64 ac bc af 99 a5 bc
       0.019990526 -0.039570976 -0.021044085 -0.020214884
000320 e8 9c 13 bd 2b 5e e6 3c 89 4c 1a 3d 94 72 48 bb
       -0.03603831 0.028121075 0.037670646 -0.0030585872
000330 87 4a 6f bc 63 04 1f bc a3 f6 71 bb c5 ad 29 3d
       -0.014605171 -0.009705636 -0.0036920689 0.041425485
000340 c1 81 80 bc 36 d4 af bc 1c 89 2c 3d e7 45 06 bc
       -0.015686871 -0.021463495 0.042122945 -0.008195377
000350 e5 b4 31 3d 68 f0 13 3d 84 f7 98 3c 9e eb 72 bb
       0.043385405 0.03611794 0.018672712 -0.0037066708
000360 14 c0 a8 3c 2d 8a 1f 3c 95 4e c0 3c ef b5 34 bc
       0.020599402 0.0097375335 0.02347497 -0.0110297045
000370 1e 3f 6c bb ca 17 9d bc 63 a1 cc 3c ec 6c 97 bc
       -0.0036048363 -0.019176383 0.024979299 -0.018484555
000380 35 25 20 3b 0a dc ee bc 56 82 4a bd 71 c4 44 bd
       0.002443624 -0.029157657 -0.049440704 -0.048038904
000390 c8 c9 8a 3c cd 1d 11 3d a7 e8 53 3c 7f e9 76 bc
       0.01694192 0.03542881 0.012933887 -0.015070318
0003a0 1d 83 37 3c 4c 65 5c bc ab fe aa 3c 0b d8 e3 bc
       0.011200693 -0.013451885 0.020873388 -0.027812978
0003b0 ad d5 5f b8 e3 d8 9a bc 80 2f 58 bc 0e a0 39 bb
       -5.3366344e-05 -0.018902248 -0.013194919 -0.002832416
0003c0 24 e5 0a 3d 7b ab c3 bc 8b b0 5d 3b 02 b4 98 b9
       0.03390993 -0.02388548 0.0033827152 -0.00029125815
0003d0 ed bd 1a bd b8 83 d8 bb d3 13 46 3c f9 eb 64 bb
       -0.037778784 -0.006607499 0.012089687 -0.003493069
0003e0 56 9e ae bc 45 26 61 bb 87 b7 1b 3a 56 a5 14 3d
       -0.021315735 -0.0034355086 0.00059401285 0.03629049
0003f0 b6 4d aa 3c 5d 46 37 bb d0 18 91 bb 0d 20 c0 bb
       0.020789009 -0.0027965524 -0.0044280067 -0.0058631958

bias f4 [64]
000000 8a a5 0d bd cc 3b 7c bc 90 8d c6 ba 7b f0 4b bd
       -0.0345817 -0.015395116 -0.001514839 -0.049789887
000010 1f 99 05 bc 6f 3c b6 bb 8c 8f 68 3c 80 39 fc 3b
       -0.008154183 -0.0055614035 0.0141943805 0.007697284
000020 2c 2c 75 bc 14 06 89 bc ef 0b cc 3b 41 46 fe bc
       -0.014964145 -0.016726531 0.0062270085 -0.031039359
000030 96 8b b0 3c 6a cd 50 bc e0 90 da bb 91 b6 ab 3b
       0.021550935 -0.012744287 -0.0066701025 0.0052402695
000040 95 ab aa 3c 48 af b2 3c e4 21 8b 3c b1 0b 66 3c
       0.02083377 0.021812096 0.016983934 0.014040873
000050 45 b3 dc 3c 7a 3b 81 bc 9d f2 0d 3b 99 25 a6 bc
       0.026940951 -0.015775431 0.0021659501 -0.0202816
000060 36 01 df bc 46 97 3d bc 7d 62 24 3d e4 4f 12 3c
       -0.027222257 -0.011571711 0.04013299 0.00893018
000070 1a a9 48 bd 8d 74 93 bb db f9 3a bd 74 df 3a bd
       -0.048989393 -0.004499978 -0.045648437 -0.045623258
000080 33 3b 15 3d 15 82 e7 3c cf 37 88 3d 76 bb 49 3c
       0.03643341 0.02826027 0.0665127 0.012312761
000090 bb 8b 5b 3c 70 3c 2d bd 58 a5 77 3c 11 03 28 bb
       0.013400014 -0.042293966 0.015115105 -0.0025636593
0000a0 8f 7b d1 3a c2 5e 8f 3c a9 ac 0b bd 23 cf 65 bd
       0.0015982258 0.017501239 -0.03410021 -0.056105744
0000b0 c1 ff a7 bc 04 36 3b 3d 8e bb 8f bc 56 85 90 3d
       -0.020507695 0.04570581 -0.017545488 0.07056682
0000c0 e8 77 dc bb 73 a2 bb bb 1d 22 ff bc 1b f3 62 bc
       -0.006728161 -0.0057261526 -0.031144196 -0.013851906
0000d0 0f aa 9a bc 64 30 6e 3a dc c0 53 bd 31 b2 88 bc
       -0.018879918 0.000908619 -0.051697597 -0.01668653
0000e0 a4 ed 17 3d 5e 08 59 bc 38 a2 14 bd b6 6a 3d bd
       0.037091866 -0.013246624 -0.036287516 -0.046244346
0000f0 ee ff 16 3c 84 85 10 3d 4a 7e 92 3c ec 9f 12 3d
       0.009216292 0.03528358 0.017882485 0.035797045

weight f4 [10, 64]
000000 e7 0c e7 bd 26 03 64 3e 69 92 42 bd e0 c1 c0 3b
       -0.11281758 0.22266826 -0.04750291 0.0058824867
000010 c8 b5 27 be 36 0a 54 3e 18 eb 44 be b2 60 c3 bc
       -0.16377938 0.2070702 -0.19230306 -0.023849819
000020 e6 9f cd bd 05 b2 ac 3e fd a3 aa bd f4 28 90 3e
       -0.10040264 0.33729568 -0.083320595 0.28156245
000030 5b 30 16 be 84 ef 0d be b4 37 0d 3e c0 60 a3 bc
       -0.14666884 -0.13860899 0.1379078 -0.019943595
000040 52 4d f4 3d 21 6f 51 3e 23 10 86 3d c7 9a 17 be
       0.1192881 0.20452549 0.065460466 -0.14805137
000050 06 cd 1f 3e 13 00 c0 3d 62 fe 01 be 7e d5 2d 3e
       0.15605554 0.09375014 -0.12694696 0.16975972
000060 16 19 14 3e cf b8 d8 3c 15 df 23 be d2 fb 14 3e
       0.14462695 0.026455311 -0.16003068 0.14549187
000070 db a2 2c bc 15 e4 22 3e 38 8b 4c 3e bb bf 0b 3e
       -0.010536875 0.15907319 0.19974983 0.13647358
000080 2f aa 85 be ac 9a 87 3d 24 78 46 be 48 68 72 bd
       -0.26106402 0.06621298 -0.19381768 -0.05918148
000090 59 ea df 3c 23 84 70 3e fb 3b 1b 3e f4 30 3c 3e
       0.027333425 0.23487906 0.151596 0.18378049
0000a0 55 02 a5 bd 5c 13 23 be 1d ce be bd 89 3e 13 3e
       -0.080570854 -0.15925354 -0.09316657 0.14379324
0000b0 71 d0 8c bd 79 b0 cf bd 4b 72 45 be 7c 45 e9 bd
       -0.068756945 -0.10141081 -0.1928188 -0.11390206
0000c0 15 61 d0 bd 09 90 72 3e 95 90 d8 bc fb 56 3d 3e
       -0.10174767 0.23687758 -0.02643613 0.18490212
0000d0 9f 05 28 3e 76 a0 12 3e e8 9f a3 bc ee 8d 01 3d
       0.16408394 0.14319023 -0.01997371 0.031629495
0000e0 7e 1b 26 3e e3 3f b2 3d 5d 61 83 3d 9b 04 ee 3d
       0.16221425 0.08703592 0.06415055 0.11621972
0000f0 77 bc 6f bd 13 4c 9b 3c 2d c4 ab bc 9f be 43 bd
       -0.058529343 0.018957173 -0.020967567 -0.047789212
000100 a1 eb 11 3e 04 68 86 3e 59 09 fa bc d8 49 4c 3e
       0.14250042 0.26251233 -0.030522035 0.19950044
000110 30 24 bb 3c b3 8e 82 be c2 2c 02 3c 24 77 09 3e
       0.022844404 -0.25499496 0.007945241 0.13424355
000120 d2 ba 68 3e b9 a2 ea 3d 1a bb e0 bd fd 2e b0 bd
       0.22727516 0.11456818 -0.10973187 -0.08602712
000130 9e 8b 16 3e ca ca 16 3e e0 02 2f be 93 04 1e 3d
       0.14701697 0.14725795 -0.1709094 0.03857858
000140 54 92 41 be 06 44 a3 be f5 e2 9f 3e ee bd 4f 3e
       -0.18903476 -0.31887835 0.31227842 0.20287296
000150 49 07 5b be 93 6b 62 3e da 43 1c 3e 70 64 82 3e
       -0.21389498 0.22111349 0.15260258 0.25467253
000160 22 2c 06 be 14 43 73 be e5 1b 05 3e fb a9 c1 3d
       -0.13102773 -0.23756057 0.12998922 0.09456249
000170 12 28 41 be b1 8f 95 be 01 2e 8b 3e 70 2b 94 bd
       -0.18862942 -0.2921119 0.27183536 -0.072348475
000180 42 82 8b 3e 16 41 3a 3d 31 8f c4 bd d8 e3 47 3d
       0.27247816 0.045472227 -0.09597624 0.048801273
000190 65 94 9c 3e 33 87 5e be cc 01 b8 bc d3 9a ad 3d
       0.30581966 -0.21731262 -0.022461794 0.08476796
0001a0 bc 2a f8 bd c2 f4 ae be 46 35 82 3e 4e e0 28 3e
       -0.12117526 -0.3417111 0.2543127 0.16491815
0001b0 8e d7 b9 bd ee c9 6b 3e 2b 6d cc 3c 8f 93 0a be
       -0.09074317 0.23026249 0.0249544 -0.13532852
0001c0 52 fc 05 3e c0 d1 e4 3d 48 2b 01 be d8 9e e2 bc
       0.13084534 0.11172819 -0.12614167 -0.027663633
0001d0 e2 83 f9 3d 23 3b ef 3d e8 59 90 be ef b6 59 3e
       0.12183358 0.11681201 -0.28193593 0.2126119
0001e0 b8 f1 24 bc 49 b9 42 3d 8b fe f5 3d 3b 66 71 3c
       -0.010067396 0.047539983 0.12011441 0.014733846
0001f0 ee f5 9b 3e ff e7 c6 3d a1 3c d0 3d 5d 89 59 3e
       0.30461067 0.097122185 0.10167814 0.21243806
000200 9b 62 03 3e 12 30 ba bd 6e c4 b3 bd d0 cd 1f 3e
       0.12830584 -0.090912 -0.087777 0.15605855
000210 e9 3c 87 3d f0 cd 65 3e 8d c1 5f be 78 17 82 be
       0.066034146 0.2244184 -0.21851178 -0.2540853
000220 a6 99 17 3e 96 5e 65 3e 08 7f 9a bb ea f5 5b 3b
       0.14804706 0.22399363 -0.0047148503 0.0033563324
000230 a2 03 cd bd 8a 6c 39 3e c6 ee 7c be 0a 61 23 3d
       -0.100104585 0.1810781 -0.2470046 0.039887466
000240 66 6f a8 bd 54 ae 9b 3e d0 b5 5f be be 0c 5c 3d
       -0.082243726 0.3040644 -0.218467 0.05372309
000250 38 bc dd 3d 89 68 ae bc 51 1f 7a bd 27 0d 26 be
       0.108269155 -0.02129008 -0.061065022 -0.16215955
000260 39 4b e2 bd 75 82 8c 3e 1c 87 9c 3b 02 04 37 be
       -0.11049504 0.2744328 0.0047768485 -0.17872623
000270 ea d1 3d 3d d3 de 99 3c 85 08 5d be 25 93 a3 bd
       0.046342768 0.018783009 -0.21585281 -0.0798705
000280 d6 c7 27 be 7f e3 8c 3d 77 a7 64 bd b4 fe b5 bd
       -0.16384825 0.06879329 -0.05582377 -0.088864714
000290 b9 64 2b be ee 90 13 3e 9c 9e a0 3b b8 a5 0f 3e
       -0.16737641 0.14410755 0.00490172 0.1402806
0002a0 bd 3f b0 3d 73 bd 39 3e 1c 7e 69 bd 0b cf 95 be
       0.08605907 0.18138675 -0.057005033 -0.29259524
0002b0 ce 13 cb bd 72 25 3f bd f4 38 3f be fc 5a 7a 3d
       -0.09915887 -0.04666657 -0.1867407 0.061121926
0002c0 6b 43 0b bd b0 d8 18 3e 6a 0f 5e 3e b3 ed 77 3e
       -0.03399984 0.1492641 0.21685567 0.24211769
0002d0 08 75 11 bd d7 0d 67 3e 29 67 28 be ee c8 34 be
       -0.035512 0.22563873 -0.16445602 -0.17654774
0002e0 b5 bb 5d be 0a 69 80 bc 30 5f 89 bd c6 ee 36 be
       -0.21653636 -0.015675087 -0.06707609 -0.17864522
0002f0 d0 91 86 3d ee c3 35 3d 3f aa 19 be d8 f6 e5 3d
       0.0657078 0.044376306 -0.1500635 0.11228722
000300 3b ac fd 3d 29 58 0b be f9 93 7d 3d 0a 29 79 bc
       0.12386366 -0.13607849 0.061908696 -0.015207538
000310 bf c6 14 be 37 93 80 be 0f ce 10 be 2f b6 d3 bd
       -0.1452894 -0.25112316 -0.14141105 -0.10337483
000320 a0 62 26 3e 19 b1 3e be ac 61 11 be 33 d4 56 3c
       0.1624856 -0.18622245 -0.14197415 0.013112116
000330 e4 f1 05 be ca 22 71 bd 55 29 19 be 27 7f 22 be
       -0.13080555 -0.058871068 -0.14957173 -0.15868817
000340 95 10 72 3e 72 fe 3a be ea 8e fc bd f4 77 33 be
       0.23639138 -0.18261126 -0.12331946 -0.17526227
000350 3c 8f b4 bd 24 29 01 be c5 16 d8 bd fb b2 3e be
       -0.08816382 -0.1261335 -0.10551218 -0.18622963
000360 41 ee e7 3d 1a bf fa 3d 8f b0 0c bd 2e 87 f8 3b
       0.1132474 0.12243481 -0.034348067 0.007584474
000370 5c d9 66 3c fa 34 90 3d fd 34 31 be b3 15 16 be
       0.014089908 0.070413545 -0.1730537 -0.14656715
000380 67 5a 9e 3d 62 79 0c 3e 57 f5 27 be 18 dc 81 bd
       0.07732087 0.13718179 -0.16402183 -0.06340808
000390 1f 63 1b 3e 69 16 b4 bd 2c a3 18 bd 89 92 e3 3d
       0.1517453 -0.08793337 -0.037264988 0.11111934
0003a0 48 eb 3e be ec 63 94 bd c4 61 ca 3d c9 ba 62 bd
       -0.1864444 -0.07245621 0.098819286 -0.055353913
0003b0 36 67 7f 3d ba a0 99 3d 07 9f 58 bd db bf fb 3d
       0.06235429 0.07501359 -0.052886035 0.12292453
0003c0 fb 2c 02 be 15 de 15 be b4 65 3a be 5b 58 b4 bc
       -0.12712471 -0.14635499 -0.18202859 -0.022014787
0003d0 73 14 0b be 7a c4 62 3d cf c7 42 3d 7f 83 6d be
       -0.1358202 0.055363156 0.047553834 -0.23194693
0003e0 ef 46 9c bd c0 b0 01 be 61 0a c4 3d 85 6c 30 3e
       -0.07630717 -0.12665081 0.09572292 0.17228897
0003f0 0d 8b 3b be 5c 25 a1 3d 9d 27 b8 bd 79 35 8f bd
       -0.18314762 0.07868454 -0.08991931 -0.06992621

bias f4 [10]
000000 e4 2a 47 be 5f 8f 4a bd a9 8f ef ba 40 cf be bc
       -0.19449955 -0.049453136 -0.0018277067 -0.023292184
000010 ea 92 2e 3e aa b3 ea bc 90 44 77 3d 33 78 3c bd
       0.17048231 -0.028650124 0.06036812 -0.04601307
000020 cb b5 ac bc e2 40 cb 3b
       -0.02108278 0.006202803
